experiments/fl_train_noise_0.5_max_grad_norm_1/20250427/model_round_65.pt (torch, 62806 bytes, 25 tensors)

embed.weight f8 [32, 8]
0	0x3fd417219f549334	0.3139118247948318
1	0xbfa165381d07893f	-0.03397536615718132
2	0x3f8e1e3b303ea17a	0.01470609894734375
3	0x3fd34404909fd686	0.30102647899125434
4	0x3face85349f2bc10	0.0564600017327096
5	0x3fd2bd6333383f40	0.292809295672658
6	0xbfb9b110c191b7b0	-0.10035805440722245
7	0x3fc4869553642c6d	0.16035715648499452
8	0xbfaa044e74f1f266	-0.05081410577347327
9	0xbf4c5701297ca100	-0.0008648639368163125
10	0xbfd915ac623aa1e9	-0.39194783775977143
11	0xbfb2690e6542c009	-0.07191553089319326
12	0x3fcf338fbc35bf1e	0.24376103105486718
13	0xbfc71d9a729cba12	-0.18059092136668703
14	0xbfae30941abf8d1b	-0.058964374795119144
15	0x3fd776abb2707ed3	0.36661808419920056
16	0x3f7df7a79d6a4cc0	0.007316260095325322
17	0xbfcdd64607dcd618	-0.23310161003034646
18	0xbfcd2b38dfcfc4d2	-0.2278815357999862
19	0x3fbf90b6872e365d	0.12330189514451591
20	0x3fbd619c49e294db	0.11477066806635909
21	0xbfd263d36555847b	-0.2873428811636313
22	0xbfa21bb9fc6f00be	-0.03536778646912485
23	0xbfb68a7c258cae60	-0.08805061260925973
24	0xbfc97c72ee6f20f0	-0.19911038057603703
25	0x3fcb9cc57e82e9e9	0.21572178532899436
26	0x3fbdfc4c7fc6b152	0.11713102454695459
27	0xbf76aa465994d5a8	-0.005533480457690677
28	0xbfc56fb645c49a9c	-0.16747167975082256
29	0x3fd13104d07fe591	0.26861687051094757
30	0x3fcb7be9c0b3560a	0.21471902760701794
31	0xbfb8f1f1fdbc7314	-0.09744179196100006
32	0xbf94ded25d88e818	-0.020381247481260883
33	0x3fd2c6d8a46a8c38	0.29338661247510656
34	0xbfca6f101bfc4ea4	-0.20651437155230667
35	0x3fcf086c87a55cf2	0.24244457839333894
36	0x3fc4637cd17c6b68	0.1592861197358062
37	0x3f9a876526ab5a35	0.025907116398992087
38	0xbf9da5a3f524604c	-0.028952180707250627
39	0xbfb15aa806e3d6fd	-0.06778955620015022
40	0x3fb6d4ab8ebb250e	0.08918258890766514
41	0xbfb9b4ef39d72be8	-0.10041709100839535
42	0x3fc6a5f799fe5c26	0.17693991679399906
43	0x3fbf103ed7d8595a	0.12134163636833276
44	0xbf8156e115cc4eb0	-0.008466490247463682
45	0xbf9c4df3bb357e64	-0.027641113568618883
46	0xbfb85c854b0d7d26	-0.09516175348607145
47	0xbfc3150719c26565	-0.14907921560078843
48	0xbfcd7ad9fd08cb59	-0.230311630775385
49	0xbfba6750b9d9c445	-0.10313896691674625
50	0x3f98d1858f0fa3c0	0.02423676191020596
51	0x3fc730fd87685950	0.18118256675433964
52	0xbf907d2c23e84830	-0.016102494899378594
53	0x3fb9e1aaecd0f6d4	0.10109966546675803
54	0x3faa5a02acc3d16c	0.05146797522494037
55	0x3fcfeb005e94d362	0.2493591749022484
56	0x3f965bfb7383e0b7	0.021835259366498074
57	0xbfd5b8f3c67a4fd8	-0.3394135893115595
58	0xbfc9df15c75a392e	-0.20212051614766707
59	0x3f9608fe512f9770	0.021518682198709838
60	0xbfa5be4385c8a1d8	-0.04246722229101224
61	0xbfcffd669b96ade6	-0.24992067906474275
62	0xbfc3087043398add	-0.14869502336940502
63	0x3f7a780e6eaaf180	0.0064621509324606086
64	0x3fd0f23f3cfe3d43	0.2647855849872551
65	0xbfb95a6e3ef23ad2	-0.09903611218235689
66	0x3fd37a640915932a	0.3043451393808022
67	0xbfd4d75527a8f62a	-0.3256428611092327
68	0xbfc56f1ff561ded1	-0.16745376092489164
69	0x3f917da7e0dc5898	0.017080901240739438
70	0x3f9d641f8cae3930	0.02870225235124585
71	0xbf7718303184cc17	-0.005638302093120571
72	0x3fb429119d728005	0.07875166028907195
73	0x3fcd81c5dd9cf35c	0.23052285500480252
74	0x3fafdb4e7df48a28	0.06222005164660899
75	0xbf8b5458354bb918	-0.013344468237360504
76	0xbfc5c76b55885611	-0.17014829327006045
77	0xbfc031a109f99ec2	-0.12651455866875067
78	0x3fb887333191df33	0.09581298790169228
79	0xbfb19d472e9c0e86	-0.06880612266473393
80	0xbfbc224f838d2932	-0.10989853822426168
81	0xbf9e5c35f5e0b917	-0.029648631221953794
82	0x3fb996edcfa58296	0.09995924300666056
83	0x3fc48cd07c2ade36	0.16054731428970265
84	0x3fb82e80be7c8d84	0.09445957804250865
85	0x3fc536047150c506	0.16571097882255276
86	0xbfa84882c4b77868	-0.04742821360899613
87	0x3f9f389f6d3c9650	0.030489436189915786
88	0x3fb8ce533572e02a	0.09689827017689426
89	0x3fb8ccc93fa1cb11	0.09687478831783049
90	0x3fa5cbad4a867698	0.042569556567497446
91	0xbfb559f4958f1c7a	-0.08340386058181251
92	0x3fcdb5b9c8a561b0	0.23210832879227672
93	0xbfc733d020e36c90	-0.18126870733144473
94	0x3fc4e9b3435f2af6	0.1633819655383701
95	0xbfb0546321d2f9bc	-0.06378764701637513
96	0xbfd60e4e35c9648c	-0.344623138929429
97	0xbfd09a8a7e1b1600	-0.2594324332715985
98	0x3fc04b152d06fae0	0.12729134272191
99	0x3fc14b2ff899b5d1	0.1351070369595804
100	0x3fbec0e5c6e6feab	0.12013088327420955
101	0xbfc3627ca54fb279	-0.151443081587235
102	0x3fcda59b01ce855a	0.231616378671826
103	0xbf61fc19d3a62c00	-0.0021954063824458636
104	0xbfc5058d671862b9	-0.16423194440792147
105	0xbfc29a6b97e1befd	-0.145337533150716
106	0xbf94400825ca573c	-0.019775512033979967
107	0x3facae7f10459d7a	0.05601880143768319
108	0xbfcb114286841668	-0.21146422928011366
109	0xbfd59355a19938d1	-0.3371175840483263
110	0x3fba0c7b4a69e9b4	0.10175295416585223
111	0xbfd41f518db520ce	-0.3144115337240806
112	0xbfcac709d3a711dc	-0.2091991694889107
113	0xbfc80267f0f8028c	-0.18757342592291015
114	0x3fc24b876a29d560	0.1429299610496555
115	0xbfbee99952e4c23e	-0.1207519366623808
116	0xbfc5916a8aa2ca7e	-0.1685002495701901
117	0xbfd004a2cda6de09	-0.25028295596300204
118	0x3fbc0efb293c48cf	0.10960359341359836
119	0xbfd3abc5d66a0834	-0.3073591798676063
120	0x3f8bd1f1016a4a80	0.013584025245369391
121	0xbfa0059d5e7b97ef	-0.03129283693651518
122	0x3faadc59b3200238	0.05246239005646597
123	0xbfc705eaf985b2a0	-0.17986809905723522
124	0x3fcc9ded5ca68b91	0.2235695555110309
125	0xbfc6156b119bc6d8	-0.17252863273420505
126	0x3fae7c18645e1011	0.05954052186191928
127	0xbfc84006da639f7f	-0.18945394195111118
128	0x3f918d829d7e89af	0.01714138113278246
129	0x3fa01a9a0f4397c2	0.03145295559242768
130	0x3fc2a5bf3fed58f6	0.1456831991333229
131	0xbfaf5abceabeea31	-0.0612391506724247
132	0x3fc0fd4b2d3c880c	0.13272990902720527
133	0xbfd94e96d77f6a26	-0.39542170567225055
134	0xbf66bd6c42f858c0	-0.0027758707508481473
135	0xbfd0968697522332	-0.2591873624556228
136	0xbfb4fe3c99a909ac	-0.08200434447738897
137	0xbf910bc90f062d3b	-0.016646520177841167
138	0xbfc359adbb9c628e	-0.15117427502334063
139	0x3fd4eda617391d60	0.3270049311435823
140	0xbf955f61aad0d89c	-0.020871664095658646
141	0xbfd35649076c16a9	-0.30214143490625617
142	0xbfe094af54054274	-0.5181500092531466
143	0xbfc763fa01cf2d76	-0.1827385433992778
144	0x3fc0245bf9813bee	0.12610959704258512
145	0x3fc8d8805701ee72	0.19410709618010774
146	0xbfca2d95953090ee	-0.20451612267164115
147	0x3fd5cf7891823eff	0.340788023088848
148	0xbfc9dc907d5103fe	-0.20204359168022273
149	0x3f7f4eca3e804768	0.007643499389830534
150	0x3fc18984e7020bbd	0.13700925140082446
151	0x3fac1ba0a519937a	0.05489828124408454
152	0xbfb7b01cba21075a	-0.09253100914159287
153	0xbfc499625a32513b	-0.16093091396454348
154	0x3fcc42c7ec7341ca	0.22078799291058565
155	0xbf9daba636793470	-0.02897510249595253
156	0x3fbbcf45068bb7f6	0.10863143358048419
157	0xbfd68e5e1453045a	-0.3524394224624011
158	0x3fbae15c86f25c60	0.10500124258611399
159	0x3f948c475536aca4	0.020066370559714955
160	0x3fd0f7fe3fb63246	0.26513630124899057
161	0xbfb7575b50622fd8	-0.09117670738686401
162	0xbfab9f68d17a8df8	-0.053950572558530696
163	0x3fc9474848827dc9	0.19748786488069772
164	0x3fad4ec1a899f112	0.057241489249436964
165	0x3fb296f7b71904f8	0.07261608333739733
166	0x3fc3e4dc78aaa6b3	0.15542179004596832
167	0xbfca2c75f847fe91	-0.20448183653933374
168	0x3fb124554f15fc4e	0.06696065121467251
169	0xbfd18d6842f5bce9	-0.27425581492475587
170	0x3fbd2cbdb02c3b94	0.11396394301503526
171	0xbfd4394a25daceb9	-0.31599668213605586
172	0xbfc599acde282422	-0.16875229690074983
173	0xbfca8051bc57f22c	-0.20704099365674844
174	0x3fb1fa0692ccb036	0.07022133907293057
175	0x3fac8596145cff56	0.055706682191611165
176	0xbf99d98615791ef0	-0.025243849812141173
177	0x3fd26e955ed07db3	0.28799947985859403
178	0x3f89a24f0fbd1678	0.01251661078243703
179	0xbfbc135448b99f98	-0.10966994071497849
180	0xbfbc840ab350c029	-0.11138979795282523
181	0x3fc6105f8727467b	0.1723746690682225
182	0x3fc22b9b59e781e5	0.14195577516421945
183	0xbfb45c160219289e	-0.07953012038447801
184	0x3fb314d01d5c582a	0.07453633038343868
185	0xbfc4872425dcaca9	-0.16037418221217095
186	0x3fe200a5a38e32c7	0.562578982776892
187	0x3fa0c4cb4ec758f0	0.03275142037061751
188	0xbfcc525040975e98	-0.22126200822707598
189	0x3f9d83bac4ff9c90	0.028822820924599812
190	0x3fc622ebe4b76ab6	0.17294071834370123
191	0xbfbaba6526029639	-0.10440666368466446
192	0x3fc2599557533656	0.14335886730116226
193	0x3fc0d87563b3387d	0.13160579078834536
194	0x3fcd04c8a9325010	0.22670849095868606
195	0x3fad0cdbc9339b22	0.05673872786592528
196	0x3f663b576769b880	0.002713843069890365
197	0xbfc439cb23b5dfb8	-0.15801371806787556
198	0x3fcdfbc210762e76	0.23424554637709932
199	0x3fb61e7dc42bdf91	0.08640275992718062
200	0xbfcd61597b5a01da	-0.22953337214495556
201	0xbfd73c1aa5a0d4da	-0.36304346251138286
202	0x3faf016f292c3cf3	0.06055781724546163
203	0x3fcb2d67779b770a	0.2123231252689311
204	0xbfb638e981291c9c	-0.08680591014227662
205	0x3fb8693746a4c1d9	0.09535546755501602
206	0x3f720d82f3f9ab10	0.004407416854159477
207	0x3fc588d4f0e97c5a	0.16823827517780182
208	0x3fc1a8863b09f2d4	0.13795545466191206
209	0xbfcf7fc97f141b7e	-0.24608725266463333
210	0xbfc10f3bccca8324	-0.13327739238322878
211	0xbf8ab49f60977ae0	-0.013039822707410165
212	0x3fa8d8f5146328d4	0.048530253161133935
213	0x3fa33dc1da2779c6	0.03758054531111869
214	0x3f61fe47b8278220	0.0021964455383882836
215	0x3f96a508402a81d3	0.022113922993072976
216	0x3f9804ca3ab510c8	0.02345577224083753
217	0xbfbfa623104fdae3	-0.12362879894486016
218	0xbfac36eb8aae4e0c	-0.0551065069950277
219	0xbfcf8aff8494bc72	-0.2464293858879248
220	0xbfd0f4eaba1da739	-0.2649485414063864
221	0xbfb195fd68b3b23c	-0.06869491392326038
222	0x3fc5570c059b4424	0.16671896241908357
223	0x3fcb8373d3e24426	0.2149491104687808
224	0xbfa146a5f5df30d0	-0.033742128623630685
225	0xbfdf1d8c136bbb49	-0.48617841621937835
226	0x3fd29f170f48268c	0.2909600877033902
227	0x3fbc2ae9718bab21	0.11002978345974813
228	0x3fd4f73f24be8701	0.3275907381849806
229	0x3fc2a81c4b638a34	0.1457553260907659
230	0x3fba565d6d3954e5	0.10288032452202207
231	0x3fc00388d6460d94	0.12510786497669513
232	0xbfc0d142871cb635	-0.1313861045577355
233	0xbfc0d4f125f8b4ce	-0.13149847368314344
234	0x3fc1c07cf6674097	0.13868677169239582
235	0xbfb46f2de8069afa	-0.07982146181766928
236	0x3fb5fd1fa86f2df4	0.08589361059346584
237	0x3fc5c2e5005f5164	0.17001020925693944
238	0xbfc0fb2838738905	-0.13266470676814648
239	0x3fc6559db5db3028	0.17448779468247833
240	0xbfd433581cb0a544	-0.31563380052337586
241	0x3fc7f0349f49a728	0.18701799180717527
242	0xbfba95d9a3abfdfc	-0.1038490318860496
243	0xbfbd34c1d0a5e2b8	-0.11408625930733762
244	0xbfb6acf6fd2e8f18	-0.08857673340986272
245	0xbfc8d1f0b83a15c3	-0.19390686984495006
246	0xbfb77bbb149e2900	-0.0917317319237192
247	0x3fd179fb0adde6cf	0.27307010709010354
248	0x3fb19d8af6e5bc4f	0.06881016280907314
249	0xbfc8d6c411c3455c	-0.1940541350109396
250	0xbfc92dd5057d6d96	-0.19671118515075808
251	0x3fbfffa01aa3fc77	0.12499428415684287
252	0xbf955a7d4f19390e	-0.02085300250319571
253	0xbfce01a3c7c93d4e	-0.23442504172497042
254	0xbfb329acfba05269	-0.07485467093676736
255	0xbfc2e5e5527998b0	-0.14764086272334032

embed.bias f8 [32]
0	0xbfc97acc83a475df	-0.19906002452709878
1	0xbfbdc994761f4672	-0.11635711559144982
2	0xbfae8a84c8738353	-0.059650563687461265
3	0xbfc6b6e169eb6008	-0.17745607063147895
4	0x3f98b5e1575b3218	0.024131318051148737
5	0xbfc0459fb7ccdcba	-0.12712475275632135
6	0xbfcbc8149d2f6a82	-0.2170434730058624
7	0xbfc1089ab17d4929	-0.13307508150553218
8	0xbfa35986708f53a6	-0.037792397728174706
9	0xbfc86300810b5e98	-0.19052130032536208
10	0xbfdbcb4747152c58	-0.4342821306387967
11	0x3fc8ca37e8bf1199	0.19367121567314596
12	0x3fc05293f337e292	0.12752007842916108
13	0xbfc22cfbbed3f691	-0.14199778383038056
14	0xbfc9bbb735165b1e	-0.2010411271300762
15	0x3f7f466c97ed86b8	0.007635521119341675
16	0x3fd3c69bd977fe78	0.30899711835079513
17	0x3fc13c374602fc05	0.1346501438001441
18	0x3fc3d8c80fae7ec0	0.15505314603523424
19	0x3fd8ff6289a8f456	0.39058745807034734
20	0xbfc6c520be62205d	-0.17789086624202613
21	0x3fbed6ec1f7bc48c	0.12046695488585807
22	0xbfc96caa563d16d1	-0.19862870417471482
23	0xbf7759cac1d72b88	-0.0057008667185510856
24	0x3fdb14e8946f9ec6	0.42315115447716456
25	0x3fb2068287f3eee4	0.07041183299218862
26	0x3f87a8269a6ec088	0.011551190936956127
27	0x3f91204b8913dee8	0.016724758378557164
28	0xbfb342bf7c5ea293	-0.075237243522347
29	0xbf9d6cb2b2b4be88	-0.028734962613440135
30	0xbfd1821279021b6e	-0.2735639745446211
31	0x3fad61cf61d8fec5	0.05738685674122971

pos_enc.pe f8 [1, 12, 32]
0	0xbfb983954edd3099	-0.09966405082122022
1	0xbfca3271866079c6	-0.20466441213006997
2	0xbfa8ac3cc84e123a	-0.0481890673172853
3	0xbfc0c9fff94eff54	-0.13116454766531638
4	0x3f975b331fb3e8a8	0.022808836755736778
5	0xbfc299c614eebb5d	-0.14531780263993258
6	0xbfd1ee2b6d627d14	-0.2801617210588614
7	0xbfab1dc8587bbfc2	-0.052961598206706664
8	0x3f38479032365480	0.0003704764405594932
9	0xbfb31415e05427b0	-0.07452522970939301
10	0x3fb988c3c161cf72	0.0997431132435034
11	0xbfd41df741423099	-0.31432896969705265
12	0xbfd841b00db3778a	-0.3790092595862623
13	0xbfe0f85d1d4cb442	-0.5303178379305182
14	0xbfbc515003599a50	-0.11061573106562972
15	0x3fc5945049c1028c	0.1685886726500211
16	0x3fa02ab3e6bfa16f	0.031575796048687425
17	0xbfc3df42b7d3f820	-0.15525087333657073
18	0x3fc76ab375a43165	0.18294375652511544
19	0xbfbeae646bf15f44	-0.11984851489375808
20	0x3fc687add1064888	0.17601559358860563
21	0xbfd19641bc87f5f2	-0.27479594622840786
22	0xbfcb57f7cef52199	-0.21362207036351036
23	0xbfc9dff6a0f4bad6	-0.20214732035807143
24	0x3fc08b455b1f369b	0.12925021123230782
25	0x3fbb2f49f59ca46e	0.10619032141097914
26	0xbfc0a5e2cc117031	-0.13006243671668608
27	0xbf9abf3cf0aa5c99	-0.026120140255980393
28	0xbf8d6d541ca196c0	-0.014368683933024484
29	0x3fd1ed5077273381	0.2801095164875776
30	0x3fda7d79a21264a1	0.413908394120492
31	0xbfc4a9ee57659ab6	-0.1614358832113873
32	0xbfbc5133c1254048	-0.11061404672113995
33	0xbfa45552bc16bfb0	-0.03971346422201749
34	0xbfc342ff1b4117a9	-0.15048207121634263
35	0xbfc25a6c12670a1b	-0.14338446520385237
36	0xbfc6eff8089beeb8	-0.17919826908461345
37	0x3faa9838f15cec10	0.05194261499715236
38	0xbfa80e3453274080	-0.046983370924523093
39	0x3fb019142e83de56	0.06288267264960132
40	0xbfb407aa438aaab6	-0.0782419600388192
41	0xbfafa99bd71217a1	-0.06184088707327296
42	0x3fce521cc52e3e56	0.23688087108574746
43	0x3fd5238a0fc0a98a	0.33029414690340586
44	0x3fa23d7660528580	0.03562517095384532
45	0xbfc474857b64a342	-0.15980595135740755
46	0x3fd2e45983906ea0	0.29518735740723834
47	0xbfc6a66eb3f7be12	-0.17695411479461193
48	0xbfc86e46bce669d8	-0.1908653662074602
49	0xbfc005ba356adc9a	-0.12517478569291002
50	0x3fd0ffe5efa249aa	0.265618785874859
51	0xbfba6109e1fedb65	-0.1030431915995514
52	0xbfcdc1094da1ead1	-0.23245350161217584
53	0x3fc42124017f4ace	0.1572613723097533
54	0xbfc316fca38a9119	-0.14913900361455815
55	0x3faa7a5ad1ebf294	0.05171474277992619
56	0xbfca0492ba6c15ba	-0.20326456167837909
57	0xbfb4b1e1efedf627	-0.08083927257208555
58	0xbfbf78fe1738c344	-0.12293994967400318
59	0x3f9a163d10f8ec46	0.025475458298597674
60	0xbfc3468aa25d297c	-0.15059025695729733
61	0xbfce5f30607e7508	-0.23727993690128124
62	0x3fe00f7116561278	0.5018849788908275
63	0x3fcb2357e5b35586	0.2120160934052075
64	0xbfd6d6db13b8ab17	-0.3568637554732716
65	0xbfcb79cea5ee8199	-0.2146547613347252
66	0xbfba7b0c399ff0b8	-0.10344005972723636
67	0xbfb73f951e81e564	-0.09081394190606812
68	0x3f97eb01e8040503	0.023357419763674347
69	0x3f5f4dc7cf8e8500	0.0019106341626201062
70	0x3fc28b239df29f88	0.14487118923466036
71	0x3f705d17207531e0	0.003995027865425688
72	0x3fd2d3e0ea0efa0e	0.2941820417144364
73	0xbfc3b5fdc5bf6bbc	-0.15399143367434742
74	0x3fd38b6838d5d34f	0.3053837351829331
75	0xbfd6147bf5f1698c	-0.3450002576625131
76	0xbf895fc23441c394	-0.012389676303628673
77	0x3fcc42e21d91c9e6	0.22079111522505385
78	0x3f936017431ec6c0	0.018921245071118475
79	0x3fc00cdad93ea900	0.12539229972509958
80	0xbfd52f6f0645e7ba	-0.3310201226482793
81	0x3fb90d2137759eab	0.09785659412375007
82	0x3fbe3723b40d24c8	0.1180288614824746
83	0xbfa892a1d243e668	-0.04799371425356186
84	0xbfba19d1155577b4	-0.1019564320644964
85	0xbfd2b0d8b71c1d1c	-0.29204385644739417
86	0x3f93d2c4e81eadf0	0.019358708064528274
87	0xbfa8c2ed8788e81a	-0.048362181467794765
88	0x3fc4b5b90706f470	0.16179573863147168
89	0x3fb5dd6783606d95	0.08540961224973949
90	0xbfcb64a207819ae2	-0.21400857321278638
91	0x3fc2d95c0d1d8880	0.147258287815081
92	0x3fd5a38cfcb432ba	0.3381073444186701
93	0x3f714afb78f2ea40	0.004221899332316925
94	0xbfc00628923d635c	-0.12518794193854432
95	0xbfc19cbab2bf3bb6	-0.13759549835091683
96	0x3fa5848dadd441ec	0.04202692744195588
97	0xbf939a4de4607f52	-0.01914331156160582
98	0xbfb5ccbe1f965e5d	-0.08515537520576673
99	0x3fc9283b3764a8cd	0.19654026226755264
100	0x3fd5235d5c75feb8	0.3302834895075466
101	0x3fc8baf39f474328	0.19320531155838094
102	0xbfcc8961a6abc7a2	-0.22294254911645078
103	0xbfb760be8ca324e1	-0.09131995137717609
104	0x3fb26bf7cae22b22	0.07195996001443608
105	0x3fc450c3df790c4b	0.15871475612411454
106	0x3f9463f1db6f46a0	0.019912508981923538
107	0x3fd006f1aa9e5f2f	0.25042382871605445
108	0x3fd6c31b778976ee	0.3556584040978653
109	0xbf969208265dd250	-0.022041442243294462
110	0x3fb36a102c24b720	0.07583714559288213
111	0x3fa9b6552c0eae56	0.05021921313104076
112	0xbfc5065cc46fedec	-0.16425666419659934
113	0x3fd13180fad2654b	0.26864647383043366
114	0xbfbd6f8a77a4db90	-0.11498322888370027
115	0x3fc20be4ba69d77b	0.14098795988291699
116	0xbf829212b9b3dda8	-0.009067674915498383
117	0x3fd183ab1f9118a2	0.27366140444463316
118	0xbfc5fa0bee473e3f	-0.17169331679041197
119	0xbfb56b71d24a65a8	-0.08367072471664605
120	0xbfc0e2dd80009a4a	-0.1319233775149818
121	0x3fd2951307f0bab8	0.2903487756292793
122	0xbfb40722fc0c22cc	-0.07823389676571962
123	0xbfc41c2fc81dda88	-0.1571101882106698
124	0xbfc6b7b176d16bff	-0.17748087217009353
125	0x3fd105bc78067a46	0.26597511025639553
126	0xbfb587d832f6b874	-0.08410407299263217
127	0x3f575aa4ee35abe0	0.00142541986937305
128	0x3fd3e2713b5b6b60	0.31069594189255234
129	0x3fc0950eb81e111c	0.12954887380704683
130	0x3fc5ee0965ae4ad6	0.17132680382618187
131	0xbfb3319a1d05eb7c	-0.07497561653683066
132	0x3fbf7b15ac561804	0.12297187287740036
133	0xbf9570599228780c	-0.020936393304616316
134	0xbf9e137234870e44	-0.029371056037929458
135	0x3fa98eba96e009b8	0.049917059819580556
136	0x3fb2abfab03824d5	0.07293669512013719
137	0x3fb31a4a4176490c	0.0746199045009101
138	0x3fb2cc828781b8b4	0.07343307312268871
139	0xbfab496222d03698	-0.05329424548118061
140	0xbfc723b0458af235	-0.18077662845270628
141	0xbf6a9f1204f0a840	-0.0032496787967107033
142	0xbfb0d373235dd7e1	-0.06572646726075916
143	0xbfd744008f5f43a8	-0.3635255241506976
144	0x3f76b228b730b880	0.005540999455702189
145	0xbfd09796f775d732	-0.2592523018459928
146	0xbfbf8c330bbf8e6e	-0.12323302304099013
147	0xbfa50d46770c0d42	-0.041116907150377205
148	0xbfb14107dcf74874	-0.06739853996922013
149	0x3fd3b7a9add5da92	0.30808488823041913
150	0x3fcc032ac5001144	0.2188466512599324
151	0x3fa43afa2125d292	0.039512459322314744
152	0xbfbdc3dcb709cbfd	-0.11626986950595604
153	0x3fd015f47ad1a26f	0.2513400267985508
154	0x3fc8b4c92b16ce72	0.1930171451946197
155	0xbf88eb60cfc85381	-0.012167698231715597
156	0x3fdcb2879a9386ba	0.44839658828105267
157	0x3fc02c07fa7d6b6c	0.12634372454598564
158	0xbfa03d52134e7aa4	-0.0317178391044213
159	0xbfa7a9b5e2646ef6	-0.046216663251668
160	0x3fcc61cab50ff030	0.22173436966829874
161	0x3fb9fab5b6ded752	0.10148177828417929
162	0xbfbc075eaa21e134	-0.10948745397206922
163	0x3fb09de816846d06	0.06490946340311518
164	0xbfda46a2b97a23b4	-0.41056125748633154
165	0x3fa3c50dd2fc3495	0.03861277771475461
166	0xbf94b9f53bef5e24	-0.020240623267311034
167	0xbfc6469ecbf410e4	-0.17403016050969378
168	0x3fbaf165541ac17b	0.10524590781529312
169	0xbfcc1bcf7313657c	-0.21959870451864194
170	0x3fbdcd45d080ef22	0.11641346302434077
171	0x3fb491f6c730659e	0.0803522335339921
172	0x3fc60994bd760609	0.17216738940264545
173	0x3fc8038b72d62bbc	0.1876081763005838
174	0x3fdc3a277800e9d4	0.4410494491491168
175	0x3fd60184409069b2	0.34384256653870715
176	0x3fbc51a021e27e25	0.11062050654663176
177	0xbfa292db726b03b0	-0.03627668163017661
178	0x3fbf746211187df4	0.12286961476683428
179	0x3fc59837fb1ae2f7	0.16870784531581481
180	0xbfc79a63b30b7fca	-0.18439909212520283
181	0x3fa1d70205b3aab3	0.03484350509264313
182	0x3f9c7d24d19574a8	0.027821135799389524
183	0xbfcbe762959f69c9	-0.21799881273075375
184	0x3fc8af6f4de0da10	0.1928538446679373
185	0xbfb3c0132f3d262f	-0.07714958098690582
186	0x3f8bbc7aa6e9b3f8	0.013543089121606386
187	0xbfc054554f303176	-0.12757364622701645
188	0x3fb8e4596ff2a0a0	0.09723433478450483
189	0x3f5410d44a45f240	0.0012247155328558718
190	0x3fbb568269260569	0.1067887789449934
191	0x3fd2d40f71ffd12c	0.29419313557379456
192	0xbfc26fb99c7c27e0	-0.14403457775944073
193	0x3f8ff142b6254ac4	0.015596886809963968
194	0x3fd9b1188756b6da	0.40143407074616066
195	0x3f996b5c52f6f39c	0.024823610843430197
196	0xbfb070fa31251bfb	-0.0642238969786461
197	0x3fa4dc8367b1c800	0.04074488297273149
198	0x3f95f0b76c5f0bd4	0.021426073064286857
199	0x3f967bf59660e868	0.021957242301347796
200	0x3fb9136dd2efec0d	0.09795271301111104
201	0x3f92d7623f6991eb	0.018399748916992847
202	0x3fd17ecbf56a17b4	0.273364057219051
203	0xbfd8609ca4bb95d8	-0.3808967217176735
204	0x3fc1762b19344211	0.13641871195478975
205	0xbfb0497ff21a204a	-0.06362151776022631
206	0x3f90080a0e96e4b4	0.015655667438953372
207	0xbfaf5fb406693efc	-0.06127703264485082
208	0x3fbffc9fa7713e3c	0.12494848096798078
209	0xbfb35e5cee93bf73	-0.07565861534726341
210	0x3fb9ee8773ce17d3	0.10129591538688425
211	0xbf96d656d376b6d4	-0.02230201402351535
212	0x3fb688dde9a412f9	0.08802592233775987
213	0x3fcc525e2e15aa72	0.22126366853929685
214	0xbfb910434771672c	-0.09790440077031509
215	0xbfa60d247d1b382f	-0.043069019576805416
216	0xbfcc2d4f6ac6f2ce	-0.2201327582714811
217	0x3fd33dc4f0133c08	0.3006450981601465
218	0x3fb00d9ffdab9fb0	0.06270790045857555
219	0x3fc68b9891d8a69d	0.17613513108635895
220	0x3fd7a3fbc14a794b	0.3693837535482955
221	0xbfc47394bcdc5ac2	-0.15977725240437307
222	0xbfc523d10abda174	-0.16515553497744018
223	0x3fd1fba08e213351	0.2809831035599944
224	0x3fd0486c69be1abc	0.2544203789370092
225	0x3fc90b57286386d8	0.19565858337505548
226	0xbfa7528a2106ccca	-0.045551601916849885
227	0xbfc95a2b0d6bf331	-0.19806421428065726
228	0x3fa97facad2b2122	0.0498022042643831
229	0xbfaf9131719b8927	-0.061654610746489084
230	0x3fcda1cd51198b0c	0.2315003057475099
231	0x3fa6de72f4426958	0.044665901486228676
232	0xbfae3688ef1a9e22	-0.059009818255898475
233	0xbfd2372b25441c80	-0.2846172202993742
234	0xbfc813a3c5c30bca	-0.18809935718863208
235	0xbfc5195c9d56bc5c	-0.16483647997435724
236	0x3fc9119c3e9cee58	0.19584992463375062
237	0x3fd42618e3dcb65c	0.3148252701965697
238	0xbfbe9d2b7cc00017	-0.11958572192816096
239	0x3fc04ea8cd85ae3a	0.12740049395812197
240	0x3f889c4307a0f8b8	0.012016795797645904
241	0x3fb5bc2e4b19061e	0.08490266164246704
242	0x3f95df99ce7bdfd8	0.021360781886840957
243	0xbfc0698276228597	-0.12821989792159336
244	0xbfc82579d0263f94	-0.18864367164178175
245	0x3fbf0c40f5b8e50a	0.12128072737768406
246	0x3f840f76b866e0ce	0.00979511976480332
247	0xbfb4773eda57f2d2	-0.0799445422234826
248	0xbfc28d06e8d88169	-0.14492880219860219
249	0xbfbc30e898415612	-0.11012128560226866
250	0x3fb35468e28d23ec	0.07550673991239848
251	0xbfa6c37c24e85fc4	-0.04446018171819291
252	0xbfd7d7e6348c6580	-0.3725524438064767
253	0xbfc23bf66880bd78	-0.14245491125755527
254	0x3fb910f58b3b17b6	0.09791502618017386
255	0x3fbae20669c5ea57	0.10501136858321423

transformer_encoder.layers.0.self_attn.qlinear.weight f8 [32, 32]
0	0xbfc8e13766f35059	-0.19437305952908693
1	0x3fc858a7d7ffc999	0.1902055554088065
2	0xbfa51a4d5d1ead24	-0.04121629487721126
3	0xbfde97d1eb821e07	-0.4780163574109512
4	0xbfbb08eeb77dd6fa	-0.10560504894041492
5	0xbfd03e00f7c2d9e5	-0.2537844104330403
6	0x3fccb7707d8503f5	0.2243481266869193
7	0x3fbc3f5ee1f2d293	0.11034195915528704
8	0x3fdb52b512ec1328	0.42692305419795895
9	0x3fb71a92c59f2892	0.0902492268061528
10	0x3fd760807602150c	0.36526500248176386
11	0x3fb23f4ca7c6c1c2	0.07127837272742624
12	0xbfc8d0f2a91586cc	-0.1938765836339854
13	0xbfa4aa09703ac4ca	-0.04035977835645495
14	0xbf80710383f94998	-0.008028056588192098
15	0xbfab9389ebaca3f5	-0.053860006350369284
16	0x3fbd6ac7f8c16016	0.11491060088280877
17	0xbf95c85c283af096	-0.021272125201662627
18	0x3f6895bdb4576450	0.0030010895886616665
19	0xbfc73354a5ec8570	-0.1812539873290393
20	0xbfd56d6255517393	-0.3348012765107395
21	0xbfc992a63186f660	-0.1997878782112137
22	0xbfa0a270018d3950	-0.03248929995480643
23	0x3fc774cf3536569d	0.1832522401643261
24	0x3fd1df98872e1bc9	0.2792722053640629
25	0x3fb0d4dd69ea8d66	0.06574806056828705
26	0x3fd1d4b60c01f27c	0.27860785648935127
27	0xbf9245c4e0e31934	-0.017844272829074373
28	0xbfbb8a975cd6e18a	-0.10758348480783844
29	0xbfb021164b18abfd	-0.06300486882598473
30	0xbf8e52dccc3d43d4	-0.01480648515976838
31	0xbfc228fd6ea2e7c3	-0.141875914594321
32	0x3fae6503aeb0456c	0.05936442859104826
33	0x3fc2bca4a13bde3b	0.146381930091353
34	0xbfd055628e030207	-0.2552114855607503
35	0xbfc32eac62bd251a	-0.1498618585704115
36	0xbfce1d02c50b3b69	-0.23526033993990872
37	0x3fd18258f3859167	0.27358077794476404
38	0xbfc196e7600f90d2	-0.13741771879643366
39	0x3fcc7f84b8783764	0.22264155394844487
40	0xbfb0189019b2b5fe	-0.06287479998965037
41	0xbfba0c2468f5dcf9	-0.10174777567396011
42	0xbfd0aec724d0a83b	-0.2606675967714442
43	0x3fa6112a19b13b90	0.043099704395550664
44	0x3f8ff63e5375f80e	0.01560639087869833
45	0x3fc492a3cead0433	0.16072509376138697
46	0xbfc4616a6bbb928d	-0.15922289142976745
47	0x3f7599b06a4eb2f8	0.0052735224934792255
48	0xbfcc2d5656cd72f0	-0.22013358343510658
49	0x3fcda14b3d2f37fc	0.23148479926607013
50	0x3fa30539fa947f72	0.0371492498763918
51	0x3fba98bdfcd16e7a	0.10389316007916163
52	0xbfd2706f08c21c79	-0.2881124101190334
53	0xbfc70e09c5db526c	-0.18011591111157388
54	0xbfc0034b7ec6521e	-0.1251005524651569
55	0xbfcb774924371775	-0.21457781093902964
56	0xbfcea4e013a29306	-0.23940659483664478
57	0xbfc673742aa6a2cb	-0.1753983696228459
58	0xbf92841d7092614c	-0.018082103725278117
59	0xbfa02f55798f538c	-0.031611128891802925
60	0x3fc8c9a99fe0870a	0.1936542540216169
61	0x3fb2a155ba719e02	0.07277427484370239
62	0x3fcd6fb7ce0369f4	0.2299718624042978
63	0x3fd30344cb40bc15	0.297074507226115
64	0x3fc2bfb65adce90c	0.14647559582392267
65	0xbfc91a4850861ff4	-0.19611457759697226
66	0x3fc6a409ff74485d	0.17688107465125116
67	0xbfc6ebdd66384280	-0.17907302371215295
68	0x3fb30b7310b33a15	0.07439345510213287
69	0xbfac7d403ad8bc6f	-0.05564308851568788
70	0xbfcf83dd1281db84	-0.24621165660547828
71	0xbfb414f80f75fc0c	-0.07844496133292028
72	0xbfc200108be13f0e	-0.1406269724852724
73	0xbfc7a97cae47a788	-0.18485983381043192
74	0x3f6cefdae32ca460	0.003532340540364262
75	0x3fb4200d6cae5d11	0.07861408141467431
76	0x3fd029a7e51959e2	0.25254247067405633
77	0x3fc5c73dca4f5f9b	0.17014286402149711
78	0xbfbb1123472ed625	-0.10573025215020289
79	0x3fb65eceae8a1408	0.08738414536681216
80	0x3fd201eba3e26699	0.28136721615155974
81	0x3fdf1533af162d32	0.48566906069091254
82	0xbfd1b1efd0e72a9d	-0.27648539925272947
83	0xbf9ca54902af005c	-0.02797426298980131
84	0x3fc324346b9a45fd	0.14954238180193605
85	0x3fce6646588496a5	0.23749617883838883
86	0xbf88ee7cc6a741c8	-0.012173628628176739
87	0x3fca01e8e4facc0c	0.20318328076027148
88	0xbfc77d24fe977a08	-0.1835066073535503
89	0x3fa7bb8d408014e7	0.0463527814136258
90	0x3f98bc3cdfcaecd0	0.02415557018205733
91	0xbfc1325179d811b4	-0.13434809159674688
92	0xbfc7d5a754d02f08	-0.1862076915862121
93	0xbfc075c7e89d28e6	-0.1285943876085362
94	0x3fa6f7f6905fce2d	0.044860558627899706
95	0x3f865776a2993380	0.010909010731802615
96	0x3fcba68ddbde7e8c	0.2160203288631134
97	0x3fd445ef6d8dfd0b	0.3167685098523669
98	0xbfb71e723b15a48a	-0.09030832235807132
99	0xbf6cb207743c7760	-0.00350285964840584
100	0x3f9d9a8231fae7e4	0.028909715939086214
101	0xbfae3b45c4f58735	-0.059045963566644856
102	0x3fbb35ead4a393e0	0.10629146281605939
103	0x3fd16eacf65c62c6	0.27238010462455653
104	0xbfd119271ac15360	-0.26716020214853664
105	0xbfb5cf811ff1b889	-0.0851975157727073
106	0xbfa804992c70d798	-0.04691008250703915
107	0x3fa85a2838d3ad04	0.04756284421622506
108	0x3f983235beada494	0.023629035723761918
109	0x3f8d598e76895398	0.01433097171062929
110	0x3fa0338b78715360	0.03164325566527881
111	0xbfb2b5e4c98d7a8d	-0.0730879776069548
112	0x3fd60abc691d4cb8	0.34440527215083305
113	0x3fd3a3383b4e4434	0.30683713714194316
114	0xbfa96b55ef87a464	-0.04964703129719153
115	0xbfbf1961ef53d48b	-0.12148105709987271
116	0xbfb1bd163126cafd	-0.06929148387898106
117	0x3fb97f8d8dbd7e1e	0.09960255346731414
118	0x3fc39b876a411300	0.15318386734193012
119	0x3fcb627801b886ac	0.21394252857230833
120	0xbfc7dedc7f9b40ae	-0.1864886878088376
121	0xbfc332cd94835ba8	-0.1499878859674173
122	0x3f9ea74351faaaf5	0.029934932592975156
123	0x3fd3f4f37c8c20a6	0.3118256298335019
124	0xbfc7b33755dd6948	-0.18515674297925444
125	0xbfd34a0030eb0045	-0.30139164712091243
126	0x3fcacdd9e3c636be	0.2094070779971186
127	0xbfc3cf63a41e08e6	-0.15476651681462456
128	0xbfb03080caa58632	-0.06324009845186465
129	0x3fb1e88bfc2063a3	0.06995463281090379
130	0xbfdf02b18e9f57c2	-0.4845394032284923
131	0x3fc3669214e5d7e4	0.15156770725633273
132	0x3fcebce334201fdc	0.240139389469049
133	0xbfd16697341a380e	-0.27188663566710225
134	0xbf31aed487e8c300	-0.00026982010595859307
135	0xbfa50dce91a1d4fc	-0.04112096336113244
136	0xbfd09b0eaa58f8bb	-0.2594639457273719
137	0x3f90f925aeb89f77	0.016575421132216186
138	0x3fa76a92d6257793	0.04573496688929803
139	0xbfade0d82e465a1c	-0.05835605206373293
140	0x3fc3c369cb2556c0	0.15440103930693816
141	0x3fc4f06de9331940	0.16358732115458885
142	0x3fbc053fdb2d966c	0.10945510006930598
143	0xbf885517d7d2daa4	-0.011881052278437672
144	0x3fc471b9d48e772d	0.1597206390260281
145	0x3fbe943340a47aec	0.11944885566888858
146	0xbf91ea9c8a506b74	-0.017496534292245028
147	0xbfb6a99d91d5f9ae	-0.08852562723584498
148	0xbfd86a1c93f84af9	-0.3814765400904175
149	0x3fc6f631b514eed6	0.1793882497967078
150	0x3fc10cc76174d8d8	0.133202478967809
151	0x3fc056d73f0af607	0.12765017107260254
152	0xbfd0bd82c68ac288	-0.2615668238532085
153	0x3fb9e69a1d86b925	0.10117495747428913
154	0xbfba1a45c1cd72da	-0.10196338635928318
155	0x3f7d1830fc1ad820	0.007103148791136632
156	0xbfc867dd75464218	-0.19066971041003522
157	0xbfd588bcfaece9e8	-0.33647083763540175
158	0x3fabc90b7a662330	0.05426822537544351
159	0xbfb08c2322506f00	-0.06463832462071295
160	0xbfbb57a089e8ac16	-0.10680583350101389
161	0xbf7da2449b64dff0	-0.007234828945279034
162	0xbf95c0cd02dd9d2f	-0.02124328927984925
163	0xbfc635b69257ec06	-0.17351419587780031
164	0x3fc19b7c0c7828e4	0.13755751236778402
165	0x3fc0e934a6b43bc7	0.13211687221379817
166	0x3fb7b87bf9f61ae4	0.09265875675746887
167	0xbfcf452d35bf25ec	-0.24429860233639944
168	0xbfb6b11afc45263c	-0.08863991412103983
169	0xbfccb1fb9b95c11b	-0.2241816053097033
170	0x3fba77339010773e	0.10338136927790928
171	0x3fd1e080468d9696	0.2793274582858002
172	0x3fc5da53b56b0179	0.17072531088161805
173	0x3fcd75542d282be8	0.23014309124877674
174	0xbfcd58b6d7126fc8	-0.22926984311641108
175	0x3fbfafde56b55738	0.1237772905054414
176	0xbfc185799641f4ea	-0.13688583218382827
177	0x3fb67153bfcb02d8	0.08766673500486932
178	0x3fa7fd5cb1bb56d2	0.04685487432076986
179	0xbfcee5c5aa8abf4e	-0.24138708903546519
180	0x3fc2c7fa8c9bfff5	0.14672786584560496
181	0x3fc652e98082b57a	0.1744052770131182
182	0x3f81ff750a33ccf0	0.008788027166224371
183	0x3fa625f3ac6de98a	0.043258299635414124
184	0xbfcf9b10ebf631ac	-0.24691974183623466
185	0xbfc24d9bde1da839	-0.14299343438625714
186	0x3fb34f02ffcbb6fe	0.07542437310231873
187	0xbfc5f6a6b3b81a5b	-0.17158969664906717
188	0xbfd7c23013bdb329	-0.3712272827895498
189	0xbfa4d320891daa67	-0.040673271882799615
190	0x3fc9a29b987e508a	0.20027489610641097
191	0xbfb41a2e33500595	-0.0785244822764269
192	0xbf778cf4516b88e8	-0.005749658934947478
193	0x3fb39ef28bb403f7	0.07664409552309324
194	0xbfd01289f6089486	-0.25113152529440474
195	0x3fa595ebfb8e4b5c	0.042159437615871126
196	0x3fb57f03c0c9f422	0.08396933991203118
197	0xbfdf130d064edb2e	-0.48553777328509085
198	0x3f971f17b9d01240	0.022579546657669036
199	0xbf99b0bc2462180c	-0.025088252754834214
200	0xbfd0777b92df0ff4	-0.25729264586357137
201	0x3fc1eec95bb2fd88	0.1400996873617084
202	0x3fb726c68f2885ce	0.09043541903567773
203	0xbfb2e7ed640d2d62	-0.0738514298692983
204	0xbfa8375ebc94ab05	-0.047297440071210096
205	0x3fb9c4690a35fae5	0.10065323352135243
206	0xbfb718de7efdf486	-0.09022322273627212
207	0xbfc7180d4676841a	-0.18042150440763366
208	0x3fa9b37b3eef6a96	0.05019745963337134
209	0x3fceb89f4ca1ac08	0.24000922433637606
210	0x3f5d136508660f20	0.001774643578387143
211	0xbfd08f001814540c	-0.25872804976944574
212	0xbfa1f90fe7c6b479	-0.03510331825541697
213	0xbfb267471ce9b5aa	-0.07188839393503224
214	0xbfa7a17cb51ff0e5	-0.04615392409320566
215	0xbfa8f2a91af17dc0	-0.048726353205661876
216	0x3fb50504ed931643	0.08210783767852896
217	0xbf9e0eb2a4695bdf	-0.02935294273842348
218	0xbfa513323003d63c	-0.04116207920189338
219	0x3fcc0c4d96f8ba88	0.21912546035442326
220	0xbf9d124854fefe55	-0.02839005488180953
221	0x3fb86ad1fce42100	0.09537994789218729
222	0x3faadeafaa415f59	0.052480210812688007
223	0x3fa98aa34799dfda	0.04988584755932353
224	0x3fa2a363f6b94345	0.036402820460927056
225	0x3fb99d153159764b	0.10005314307041961
226	0xbfd1a950bd788667	-0.27595919135101216
227	0xbfaac681d64c2230	-0.05229573956427591
228	0x3fbf2203deb53dfa	0.12161277949530094
229	0xbfc7698bace0ac86	-0.18290849629679345
230	0xbfc076e8d9988318	-0.128628832099843
231	0xbfd0c6d622d012a3	-0.2621360149353597
232	0x3fb8f8e470f58112	0.09754779584682563
233	0x3f9c947ac900a0a8	0.027910154836860684
234	0x3fd6057bbcc107a4	0.344084677057362
235	0x3fbd2c5eaaa5afa2	0.1139582792872589
236	0xbfb186fef5c27dc4	-0.06846612453454443
237	0xbfc891a9b6383336	-0.19194528005064065
238	0x3fc19ad014c8f105	0.13753701224221274
239	0x3fb0ac591fda6014	0.06512982394849615
240	0x3f9efb88a4c863fc	0.030256400163214167
241	0xbfbcf5eb95a98e8e	-0.11312744525781168
242	0x3fc2fec270cac045	0.14839964396878905
243	0xbfba87ffcfce2063	-0.10363768409126943
244	0xbfa9968f7456cb62	-0.049976809455435825
245	0xbfa57cc10b98ddae	-0.041967423120179745
246	0x3fb99b2172293d10	0.10002335583816468
247	0xbfc79cc3dfaf53f4	-0.18447159216034914
248	0xbfb104c58d09247c	-0.06647906010870658
249	0x3fbc1677e8af46ac	0.10971784048822525
250	0xbf95318c1c765630	-0.020696820485303913
251	0x3fc00a957a7504fe	0.12532299498892735
252	0xbf938b96097b41f6	-0.019087166145995448
253	0x3fcb9643a8c21bc6	0.21552320232532746
254	0x3fcdd3595b115d41	0.2330123610179076
255	0x3fc351f223d0802c	0.15093828915360186

transformer_encoder.layers.0.self_attn.qlinear.bias f8 [32]
0	0x3fdc6955093ba3ec	0.443928965584347
1	0x3fb77022024b924a	0.09155476146731548
2	0x3fc3e96ab3f332ee	0.1555608156835641
3	0xbfd01e952398d8fa	-0.25186661220813245
4	0x3f9d23d126585335	0.02845694347896029
5	0x3fc0c733fb4cafac	0.13107919474111662
6	0xbfc20ef7378d6ddb	-0.14108171665689792
7	0x3fd226d105a150b8	0.28361917066400677
8	0xbfa8aaf50a61d70a	-0.04817929984794318
9	0x3fcf5ae468149380	0.2449613102154693
10	0xbfa79afa26b52cdd	-0.04610425684458062
11	0x3fdc54f329ef9a52	0.4426849278956172
12	0xbfc03bc9fea61ed4	-0.12682461675671297
13	0x3fd1ace2699995a3	0.2761770278214845
14	0x3f86e17b8aad3ae4	0.011172261399818813
15	0x3fc5ad77ab4e5418	0.16935630669164037
16	0xbf9093ba2775dae0	-0.016188534410924826
17	0xbfd1cb278e73a022	-0.27802456771178374
18	0x3fdc8c1ae2ea8c4f	0.44605133209023945
19	0x3fa58bd381680670	0.04208241419474923
20	0x3fc0377dcbe9e054	0.12669346291272865
21	0xbfa4f1698acddec0	-0.04090432948481526
22	0x3f8ea1158bcd970c	0.014955681160880661
23	0xbfc27f69a6383c73	-0.14451332679934445
24	0xbfbef3bc8fd07cfa	-0.12090662489980622
25	0x3fc52034a66a2025	0.1650453388758716
26	0x3fc9a5aff2765960	0.2003688749216037
27	0xbfc6718731d80bc1	-0.17533960279260266
28	0x3fe0571b385467d2	0.510633096713031
29	0xbfbef196e35610ee	-0.12087386179161161
30	0xbfc1ce376369c658	-0.13910572389754594
31	0xbfa0197e8918afc0	-0.03144450591602732

transformer_encoder.layers.0.self_attn.klinear.weight f8 [32, 32]
0	0xbfd1fce910e9a671	-0.2810614266551062
1	0x3fccbfb84e9f81e4	0.224600828542875
2	0x3fc057aebc2b41ac	0.12767585933626202
3	0xbfd3f7e07ed02213	-0.31200420745929697
4	0x3fa4b1db39ce89a1	0.04041943627022993
5	0xbfca49d4200f887c	-0.20537807050192558
6	0xbfbebfa6152c1c24	-0.12011182801153147
7	0x3fc1fd78139421b4	0.14054776149738546
8	0xbfca4a58b906b329	-0.20539387735825557
9	0xbfcedad78caa928a	-0.24105352753135306
10	0xbf9888a1dcd427fb	-0.02395871076900134
11	0xbfae817d9d2eaa24	-0.05958168548325585
12	0xbf8a80418e0e9d9c	-0.012939941547144333
13	0xbfcf983aedeaa07e	-0.24683319680230292
14	0xbfd1f05ddda5822e	-0.2802958168522619
15	0xbf92d0e541f8e1c4	-0.018374998237250542
16	0x3fcc80c63b5897ed	0.22267988107449757
17	0x3fc15366c0a6d0a9	0.1353577080423112
18	0x3f89811a3b845ae8	0.012453274670901363
19	0x3fb687e30557a8f0	0.08801096802168096
20	0xbfb5d1d265971f4a	-0.0852328775428052
21	0x3fc7136b37ee373c	0.18028011542303968
22	0xbfb5accc1d0d4d4e	-0.08466792783047092
23	0xbfc1a6046579c6cb	-0.13787894205920845
24	0xbfd4d80c276e919c	-0.32568649149677653
25	0x3fc1c1643bb57d30	0.13871434131122262
26	0x3fdbefcde3dfae7e	0.4365114903764392
27	0x3f83fb73a71d2f44	0.009756949937262178
28	0x3f9275f748256115	0.018028129366343643
29	0xbfc74c76bb292963	-0.18202098978720035
30	0xbfd27f1e640d31b5	-0.2890087105813806
31	0xbfd21173c8bb9ec1	-0.28231520273991967
32	0xbfb383693f071edc	-0.07622392452969556
33	0x3f9ac0259512af95	0.026123606895154323
34	0xbfc08c5fa7274e3c	-0.12928386365693878
35	0x3fa8ff284b4dd88a	0.04882169646491359
36	0xbfa0a9219ba7ad94	-0.03254036927304607
37	0x3fbf6dff0365de1c	0.12277215798337021
38	0x3fa594737deca45c	0.04214821731722715
39	0xbf778ffb40e5c740	-0.005752545794494968
40	0x3f9c236b737fb077	0.02747886555145881
41	0x3fa2730b631d095e	0.03603396973496119
42	0xbfcd65c43f52e7e8	-0.22966816989884298
43	0xbf99e23c3b30d2b8	-0.025277081597055967
44	0x3fca39ca6d3060a6	0.2048886330746928
45	0xbfd41be7154292a5	-0.3142030437104871
46	0x3fcec8f8c8d9945b	0.24050817305684088
47	0xbfcedb5c5682a064	-0.24106935714849265
48	0x3f787511cd3ec828	0.0059710212116659625
49	0x3fbc91802cbdf977	0.11159516422592285
50	0xbfb5ea2a23bf1069	-0.08560431835854988
51	0x3f9e0516385d9288	0.0293162795927793
52	0xbfb9999b5aea40e5	-0.10000010461431293
53	0xbfb6b563d476fa9e	-0.08870529114845246
54	0xbfb4b1e5376abb38	-0.08083946803047304
55	0xbfb7e4c0ae8fcaf8	-0.0933342386413577
56	0xbfd82fe742bd753a	-0.37792378919205627
57	0xbfc5f7a085193251	-0.1716194772619866
58	0xbfb976acc6694768	-0.09946708530449444
59	0xbfc27062de1bf2b9	-0.14405475468801912
60	0xbfd706f39add4748	-0.35979929088090445
61	0xbfb66b8e40b158d6	-0.08757866935170297
62	0xbfcea565e86ea86e	-0.23942254876357388
63	0xbfaaf9781f4e3f80	-0.05268454916142584
64	0x3faf4b80f49dad04	0.06112292276415057
65	0xbfb088b17d773d18	-0.06458577454690262
66	0xbfb4ad68c587824e	-0.08077101538175066
67	0x3fc07ce5aed203b0	0.1288115600218851
68	0xbfae5e474ddddcf4	-0.05931303811569846
69	0x3fc2e9f8f963f066	0.14776527573838222
70	0xbfaf21bbb1380080	-0.06080423868479645
71	0x3fd4f67bd52c9621	0.3275441724566424
72	0xbfb6a9bc53055544	-0.0885274603545741
73	0xbfae11f6d6bad7d0	-0.05873080607618386
74	0x3fd0169610c8f37e	0.2513785518565824
75	0x3fc9c93b51f0345d	0.2014536047067023
76	0xbfcca8f609aaca5d	-0.22390628311184715
77	0xbfafb68500b34224	-0.06193938859508233
78	0xbf7592d31a0921f8	-0.005266975990317217
79	0x3fd2dacb3c6b6d47	0.29460411930422875
80	0x3fb0d15d25369fde	0.0656946388104411
81	0xbfc1fb2329149edd	-0.14047660356413064
82	0x3fd34b59af1edf99	0.3014740190660575
83	0xbfcd052b781efa31	-0.22672026982577756
84	0xbfb1728ae2b144c0	-0.06815403017505428
85	0x3fb0ea7692027e82	0.0660776239842509
86	0xbfb79a04433b154c	-0.09219385758759308
87	0xbfc0425f8423923c	-0.12702554657075094
88	0xbfb26b80e9b5bc04	-0.07195287423904523
89	0x3fd3601efa31698f	0.30274176056777774
90	0x3fd9bd6a2a5bd9c8	0.40218595635033383
91	0xbfa8120972c774c5	-0.047012610684512825
92	0x3fd20b29137f671e	0.2819311800391108
93	0xbf944c2ea3fcdd34	-0.01982186199094578
94	0x3fb4ee76a8b3b2cc	0.0817636644239414
95	0x3fcf88a531b31ccd	0.2463575833009827
96	0xbf632f2cf8b9f6c0	-0.0023418310500450124
97	0x3fb2a0a3926e7b2d	0.07276365590085439
98	0xbfa3ed628a8920ab	-0.03892047825917307
99	0x3fc073d16716c7b4	0.12853448423044045
100	0x3fd7005f3adb3053	0.35939770457912806
101	0x3fb3b3ec401cfa7c	0.07696415486587144
102	0x3fc340746fc299f3	0.1504045053199686
103	0xbf91d00a6cf2c344	-0.017395174884487177
104	0xbfb3c349d6c460b6	-0.0771986150106184
105	0xbfc4a8bd3c9164e9	-0.1613995118848728
106	0x3fb05bf89f130235	0.06390336879395238
107	0x3fb7b9b0fcbbfac1	0.09267717523833154
108	0x3fc97e3cb0b1159f	0.19916494967962436
109	0xbfcf596ab614b825	-0.2449162854258599
110	0x3fcfe6c8097189a9	0.24923038922413568
111	0x3fc4b81e2ed7e0ea	0.16186883246678657
112	0x3fb8369ea9f22f18	0.09458343171189332
113	0xbf9b9163b5114464	-0.026921804357986537
114	0x3fba5a725d0a222a	0.10294260760759558
115	0x3fb8b6d85deae064	0.0965399960795153
116	0xbfcd307b0855255e	-0.22804201037278465
117	0xbfca3ae8a2ceecc4	-0.20492275189994846
118	0xbfc03fde4dd60438	-0.1269491081293681
119	0x3fcbf55e62c0a4c8	0.21842555829906574
120	0xbfa403ac35596c37	-0.03909052039372123
121	0x3fbd5a3bf011c0a6	0.11465811358516706
122	0x3fcf64a802c8b4d0	0.24525928626954974
123	0xbfc13851070d8ab6	-0.1345311436117151
124	0x3fdc1c7bbc71910a	0.43923848536202625
125	0x3fd27f50bf7788b8	0.28902071664755224
126	0xbfc5c4f2e22864a0	-0.17007289927349678
127	0x3fc69974a38be238	0.17655809388794963
128	0x3fc3497e26395bec	0.15068032137307286
129	0x3fbb76253580c542	0.10727150493837193
130	0xbfcdbff08fbd422e	-0.2324200345851905
131	0xbfbd5ae32f2e63eb	-0.114668082255221
132	0xbfa94df4f1153621	-0.049422888211307255
133	0xbfc7af7cb6dfda90	-0.1850429432813212
134	0xbf7a3aab14dca150	-0.006403606688572275
135	0xbfd6ff4113563a23	-0.35932948006021287
136	0x3fc3bc776a91cdad	0.15418904021826788
137	0xbfc09f60f90e37d0	-0.12986385498919484
138	0x3fa8019532cf8e4a	0.046887075855718566
139	0xbf91b194755f8572	-0.017278976119887664
140	0xbfb6879eeaa2172a	-0.08800690868710306
141	0xbfc1319efda1e849	-0.1343268145026875
142	0xbfd138ccbc5d615a	-0.2690917815684962
143	0x3faadc308a411de0	0.05246116340327567
144	0x3fc37942cb52a6bc	0.15213808944581853
145	0x3fd4a97ce2a260b5	0.3228447163796873
146	0xbf80e6a1c461a9a0	-0.008252395444476701
147	0x3fbaac6d081ee62a	0.10419351051577821
148	0xbfcf5a68674328b5	-0.2449465278826374
149	0xbfa82bfdc2a051dc	-0.04721062660988526
150	0x3f96f09d37a42390	0.022402245064799653
151	0xbfce695608f69484	-0.23758960187584333
152	0xbfb979ed3030caec	-0.09951670099762183
153	0xbfbde5d5fb18acad	-0.11678826694758256
154	0xbfcb90927ed69186	-0.21534949486989435
155	0xbfb6ce821f36ebc8	-0.08908856641839613
156	0x3fd1173726d91dcf	0.26704195779572343
157	0xbfc498dad9819332	-0.16091476078431693
158	0xbfb689448d38174a	-0.08803204009754242
159	0xbfc1b1832117c108	-0.13822974315508696
160	0xbfc92bdb9d45003d	-0.1966509359281207
161	0x3fd5e919b74d83be	0.34235232258475523
162	0x3fcbe2bcf5c56a34	0.21785699844879647
163	0x3fcb0f3e36c09cde	0.21140268014389724
164	0x3f9744c4fa89eb70	0.022723272124931027
165	0x3f86dfe54ab2fe74	0.011169234602106594
166	0x3fd16c13b6b1e65f	0.27222149697590753
167	0xbfc7b4ff8cffe860	-0.1852111280894091
168	0x3fb9999dd6ba454e	0.10000025265096221
169	0xbfce6699ea0214be	-0.23750614095857786
170	0x3fc2b50d5bc3b987	0.1461502740925875
171	0xbfb6d0002492be48	-0.08911133664036541
172	0xbfc220e056f98d6e	-0.14162830588166336
173	0xbfcee075cb622c20	-0.24122497969469325
174	0x3fcbd21c6b1fad36	0.21734957914973457
175	0xbfc8adef49aec115	-0.1928080663469777
176	0xbfbb2e5910677b07	-0.10617596292966534
177	0xbfd5630e8ba1e102	-0.33417094837160743
178	0x3fbbbbdbb0e5afdf	0.1083352381589857
179	0xbfa85ecc24e56b07	-0.04759824705498344
180	0xbfd454e3d2761be6	-0.3176812701498747
181	0x3fb420053e09be81	0.07861359371758604
182	0x3fd8753f098b760c	0.38215614254099317
183	0x3f87241c6d71aa00	0.011299345102277591
184	0x3fc474f56bb36268	0.159819295490496
185	0x3fa705b6c9646874	0.04496546944047078
186	0xbfbf97e1860bb932	-0.1234112694034806
187	0xbfcedca824a35b88	-0.24110891140909652
188	0x3fcea71e56692104	0.2394750520636607
189	0x3fb2a2b9a15c2f74	0.07279548825698418
190	0x3fbbe7ca8b9774f4	0.1090056029128908
191	0x3fcb677251aae8fc	0.2140944384353317
192	0xbfcccbe3a6706538	-0.22497220637232274
193	0x3fba910f3cd3ade8	0.10377593264609397
194	0x3fc0b8e4259e1176	0.1306424316100096
195	0xbfb8a078597f7e1b	-0.09619857964525418
196	0x3f63443fe73651cc	0.0023518798931922765
197	0x3fb3c38dfac6d9c6	0.07720267651061538
198	0xbfc73166980125d5	-0.18119509145826265
199	0x3fbd06d11d47dfe8	0.11338526692259132
200	0xbfdadb31f031da11	-0.41962860542790376
201	0x3f99318287b49c0c	0.024602927716070908
202	0x3fb76fb9ee4f55a8	0.09154855793106853
203	0xbfa7231e14df1ebc	-0.04518980030803507
204	0x3fb12a6e8530bbfe	0.06705370666234953
205	0xbfb0dea7752727b5	-0.06589743242434916
206	0xbfd9778eb784bfd2	-0.3979222099469527
207	0xbfb386fc987c9d52	-0.07627848360845249
208	0xbfe1702992666d1c	-0.5449416980149269
209	0x3fce94c5e186793d	0.23891519081093718
210	0xbfd39aa0df3a7265	-0.3063127689327188
211	0x3fc317f5373f7e86	0.14916863629968108
212	0xbfc96b98330addd6	-0.1985960244398785
213	0xbfbb7d547d98ff48	-0.10738113466595423
214	0xbfd371f3aaf258e8	-0.30383006757746367
215	0xbfe1afd46043996c	-0.5527135734708231
216	0xbf8c92b94e236e78	-0.013951728531927929
217	0x3fb26540fe88c6ee	0.07185751165595963
218	0x3fca029fafdd7eb4	0.2032050713269108
219	0x3fbc53ce838da14b	0.11065378867863733
220	0x3f96f3724c8d7358	0.022413049623867337
221	0xbfbad6d55bafc084	-0.10484059799614626
222	0xbf83dce03e3c1d28	-0.009698631190544107
223	0xbfb72f92b10b137a	-0.09056965658517227
224	0xbfaf6ca91570fa36	-0.061375888697956446
225	0xbfd3145c3348ebe9	-0.2981176853970156
226	0xbfb829e6ee5796af	-0.0943893749132154
227	0x3fc57aacaab962b7	0.16780622802868603
228	0x3fadd0aa46860ed2	0.05823261366734091
229	0x3fb6ad07558d7f44	0.08857770765962153
230	0x3fb1d3ecd3b5ebce	0.06963997048107659
231	0x3f883715aa07f8fc	0.01182381558555478
232	0x3fd0c17d955e86af	0.2618097265895853
233	0xbf69ff56ed988c60	-0.00317351320406227
234	0x3f9aaf74d23b3f80	0.0260599377932631
235	0x3fd5a07a2081c88d	0.33791974234112204
236	0x3fc3e5efbbd396f5	0.15545460387436774
237	0xbf7a7330380efce0	-0.006457508426080255
238	0xbfc65491d2d8955a	-0.17445586009231812
239	0xbf94fb5866445964	-0.02049005626857915
240	0x3fda86b7be9ba339	0.414472519054971
241	0x3fd9d4c755acb4dd	0.40361197821296263
242	0x3fc331e969accb2c	0.1499606863013353
243	0x3fb09e0c42a3f64a	0.06491161944355742
244	0xbfc6f61d6a213401	-0.1793858307086396
245	0x3fb58fc13446e9dd	0.0842247727040681
246	0xbfc7c4352cfe600c	-0.1856752843566486
247	0x3fa3624a9e9c3529	0.037859279500575056
248	0xbfb332a63eaf6958	-0.07499159841919345
249	0xbfcf4d2e7f21904a	-0.2445428963429797
250	0x3fa4514850d34083	0.0396826361335352
251	0xbfc91e48de66b336	-0.19623671397621373
252	0x3fd3260e0ed2f836	0.2991976876036263
253	0x3f927088e4456ce8	0.018007410938804563
254	0xbfbae8261c2e9fb8	-0.10510481060066368
255	0x3f97c756b30d7838	0.023221354177955983

transformer_encoder.layers.0.self_attn.klinear.bias f8 [32]
0	0xbfc2fff109d66e26	-0.1484357164416547
1	0x3fb4645253b0e5e2	0.07965578597295278
2	0x3fa1cd068c176af6	0.03476734600163482
3	0xbfd6e200508c4082	-0.3575440203285397
4	0x3fc636df1473369b	0.17354954241311735
5	0xbfc5f9f5123233ed	-0.17169059170228654
6	0x3fc260cb79ae8962	0.1435789436482749
7	0x3fb27efd300d5bf2	0.07225019858502416
8	0x3fb7b2e892d0f7a0	0.0925736769140415
9	0xbfac397075bec17c	-0.05512572705572702
10	0x3f9d02f222ab0e61	0.0283315499934943
11	0xbfc81b9991a16316	-0.18834228144512427
12	0x3fb794b1a2146efe	0.09211263854052373
13	0xbfc7cd19d4d11df6	-0.18594668284843835
14	0xbfc721b18390abe6	-0.18071574138716
15	0x3f6f7fcfd5df61a8	0.0038451251302655427
16	0x3f9cb559eda73afc	0.028035550241663806
17	0x3fd0359d12da2030	0.2532723125555121
18	0xbfc632de221b8b4c	-0.17342735925111652
19	0xbfb0a021d4d2e3b0	-0.06494342275517684
20	0x3fb4d928d569822a	0.08143859110124
21	0x3fca43b9520aa2c8	0.20519176965651398
22	0x3fbb203a875f2328	0.10596051983806076
23	0xbfc2137e6ee006da	-0.1412199059851023
24	0x3fd11d565191b143	0.26741559949620725
25	0xbfbf5ec5c36f13ab	-0.12253986378989505
26	0xbfc317204b890370	-0.14914325416796315
27	0x3fbf2ff3171d773c	0.12182540239652168
28	0xbfc27898a2c56b69	-0.14430530498324437
29	0xbf9eb1507eb31fc0	-0.029973275883804495
30	0x3fb0afa096f090d7	0.06517985997249141
31	0x3fd105a31c00ba3a	0.2659690640893221
