experiments/fl_train_noise_0.5_max_grad_norm_1/20250427/model_round_1.pt (torch, 62777 bytes, 25 tensors)

embed.weight f8 [32, 8]
000000 88 ab 88 72 19 8b c5 bf 52 c1 21 1a 64 30 c7 bf
       -0.16830747692560188 -0.18116427684754882
000010 e1 d2 26 d0 de 50 be bf b9 4a 90 e7 0b 97 b3 3f
       -0.11842148382022401 0.07652353671464142
000020 84 3f 2b 01 91 b8 c0 bf 98 37 00 54 f4 29 a0 3f
       -0.130632520266314 0.031570086721429635
000030 98 f8 38 8c 67 61 d2 bf c4 ad 54 de 88 bd 81 bf
       -0.28719509786231745 -0.008662289891239967
000040 0a 87 12 da 3f 95 b2 3f 79 86 15 df 92 f1 d1 3f
       0.07258986543686433 0.2803694895320415
000050 b6 22 39 a7 a2 31 d1 3f 72 67 9a 89 6c 52 d5 bf
       0.2686545022047925 -0.3331557601719545
000060 12 a9 05 0e fe 68 c9 bf 76 d3 25 c6 92 50 c0 bf
       -0.19851661381410018 -0.12745890307601443
000070 f2 21 db 1d a7 11 d6 bf 62 e6 52 46 d5 ab d2 bf
       -0.3448274413645144 -0.29173786037026705
000080 42 60 80 e3 0f 0c c1 3f 86 bc 73 a9 08 3b a0 3f
       0.13318060501547008 0.03170039242274307
000090 a8 62 45 df 2c 79 9b bf ce 78 01 1e 72 7f b1 3f
       -0.026829434516317946 0.06835091812669988
0000a0 64 18 cf a1 42 38 da 3f f5 7a 8d fa 91 18 cc bf
       0.40968385507256344 -0.21949982389465786
0000b0 68 22 3b 0b 63 86 b7 3f 41 c4 31 2d bf 7a d9 3f
       0.09189433120912727 0.39811686910167415
0000c0 43 b4 ee 9b 88 f0 a2 3f 9d 20 c3 44 0b cd cb bf
       0.03699137595626969 -0.21719494683771226
0000d0 a9 fb 11 fa 4c ce ab bf 54 11 15 d8 26 24 ce bf
       -0.054308324361947165 -0.2354782633866629
0000e0 cc 0f 4b 75 c9 23 d1 bf d0 78 1a 21 f2 83 c2 3f
       -0.26780926184096354 0.14465166679742092
0000f0 8a 93 93 ee 8a 1b d3 bf 90 3b 73 0c d0 23 b0 bf
       -0.2985560731743183 -0.063046458282072
000100 12 60 65 9c c6 cb d3 3f 9b f7 62 22 31 e6 d5 3f
       0.30931248925253485 0.3421748004728841
000110 8a 16 80 d6 6c ff d2 bf 60 87 2f d6 44 3c 67 bf
       -0.2968399138193055 -0.0028363556352681146
000120 4c 11 33 ab 7b c8 cc 3f 4a 5e 58 f0 8c 0d cf 3f
       0.22486825808858624 0.2426010297356121
000130 6a 47 e6 60 0c 06 b0 3f 28 28 63 93 96 5f a2 3f
       0.06259229055129159 0.03588552998697053
000140 02 df 5b c9 85 ee cc bf d1 a6 2a 84 6b 7f de bf
       -0.2260291321942916 -0.47652709872145943
000150 5e 81 08 d7 56 df b5 bf 14 d9 6e d1 f3 8d c3 bf
       -0.08543913602671213 -0.15276954389782615
000160 64 c4 cc 84 79 40 d3 bf f3 ee 2f 62 46 ca b2 3f
       -0.3008102223275897 0.07339897057675752
000170 00 c8 31 ee 4b bf 2b bf de c1 ff 4c 38 18 d0 3f
       -0.0002116947353872356 0.251478266901385
000180 20 ce 3c fb f8 f5 67 3f f6 53 6e dc e4 ef cb 3f
       0.002924906055250323 0.2182584835360612
000190 bd b5 52 3e a9 cd c8 bf ca 0f 96 c2 6c e2 a5 bf
       -0.19377627890700735 -0.042743109467692955
0001a0 2e f3 3f 68 31 83 b6 3f 78 78 82 9d 87 1b 82 bf
       0.08793934626733055 -0.008841571325600692
0001b0 6c 5f 0c f1 01 d5 d1 3f b8 1f f7 ea d0 65 b0 bf
       0.27862595119358136 -0.06405359016855428
0001c0 14 88 78 ea c4 10 ba bf 10 8a b7 ad 70 34 bc bf
       -0.1018183777273694 -0.11017517319809422
0001d0 56 94 79 0b 09 73 b4 3f bf 24 ef 85 6d ab c2 bf
       0.07988029985570341 -0.1458565620398868
0001e0 d0 fb 61 61 2a 67 99 3f 0b c0 8f 50 7a 49 ae bf
       0.024807607835551526 -0.0591543410627083
0001f0 85 0c 69 69 0b b0 c2 bf 1d 02 63 bf 83 b0 b2 bf
       -0.14599745413770307 -0.073005899644166
000200 56 ba 29 e6 14 e9 d3 bf f4 42 46 99 97 32 b1 3f
       -0.3111011741338293 0.06717822544147706
000210 12 44 87 24 32 48 c0 3f f5 41 5e a5 b4 31 a9 bf
       0.12720324309933112 -0.04920734900145255
000220 45 f7 a9 f4 ba a3 d2 3f 06 32 ba d6 b4 6f c8 bf
       0.2912433041855034 -0.1909090088341971
000230 c0 e7 c9 45 93 35 ad 3f 56 8e af 4b 27 35 ca bf
       0.057049371976020335 -0.20474711604684853
000240 57 47 61 da f6 0f b0 bf cc 99 7a f2 ad 00 bc 3f
       -0.062743595424107 0.10938536806006666
000250 10 c4 66 b7 e9 5f b7 3f 5c 5d 6f 87 25 80 a0 3f
       0.09130726554464297 0.03222768095263959
000260 70 8d 7a bf 8e a3 99 3f 38 2e bc c2 77 00 c9 3f
       0.025037985264714846 0.1953267765860447
000270 a8 fe 7c 01 d6 9d 89 3f ba 4b c4 1f cd 44 b7 bf
       0.012508079452913393 -0.0908935740047089
000280 ee 5c de 94 13 ff cc 3f 9c 71 2e 78 f8 9b d0 bf
       0.22653431672072294 -0.25951968895403765
000290 74 80 e1 0e a6 84 af bf 94 45 e0 f5 96 1d cb 3f
       -0.061558903996002196 0.21184050565402102
0002a0 fe 47 2a 98 50 37 c8 bf 70 63 37 e7 b1 f9 bc 3f
       -0.18918807439746382 0.11318504233294191
0002b0 3c dd 66 9f 4e 1b b6 bf d2 a4 c0 49 4e 77 c0 3f
       -0.08635417358060676 0.12864092446515102
0002c0 e2 42 0f dc 8b f6 c4 bf 5b e9 56 08 8a 22 c6 3f
       -0.16377399678324084 0.17292905242158949
0002d0 5a 42 33 92 fa cf b6 bf ab de 81 e3 68 14 d3 3f
       -0.08911100453702528 0.29812071053991457
0002e0 01 f8 af c0 8a 45 b5 bf 56 f0 bb ae 98 41 b5 3f
       -0.08309237674981775 0.08303217187852971
0002f0 82 c6 68 b4 ca 67 b8 bf e0 17 6b 12 5c 09 8e 3f
       -0.09533373741649068 0.014666289627154272
000300 ec a7 4d 29 9e 72 b0 bf 30 f2 bc 71 eb 7f d3 3f
       -0.06424892910368357 0.3046825991366715
000310 0c 68 a0 5d df 82 b4 3f 84 4a 88 0a 5f 6b b9 bf
       0.08012195621304857 -0.09929460532320361
000320 de 86 38 41 67 4d c7 bf e4 e5 e9 64 f9 c7 80 bf
       -0.1820496624432541 -0.008193920509472492
000330 b9 d9 bd 19 29 38 cc bf 9a 0b eb db 0f 92 ae bf
       -0.22046388394273977 -0.05970811423824003
000340 68 f4 dd 7a 22 e9 aa 3f a5 43 d7 44 ca a8 a8 3f
       0.05255992650834501 0.04816276636450504
000350 8e c4 bc e4 0f 24 b9 bf 49 37 cb 87 3c f6 b6 3f
       -0.09820651373299169 0.08969477000502225
000360 18 3b fb 77 fd 2e c2 3f a1 15 aa ec 00 09 b0 bf
       0.14205902441468576 -0.06263738420428534
000370 be 9b 37 2b 15 47 c2 3f ca 58 9b c3 37 00 ad 3f
       0.14279427156654195 0.05664228689936264
000380 4d 38 1f 9e 03 8f c2 bf 43 fb 90 45 84 30 bc 3f
       -0.14498944493101576 0.11011530588528466
000390 87 26 aa 28 a6 38 ca 3f d0 ef 22 ca 4e c0 a5 bf
       0.20485379205301887 -0.04248281686292865
0003a0 06 c0 52 5a bd 0c c7 bf 88 08 f9 e7 8e d6 c1 3f
       -0.1800762835532625 0.13936029745861256
0003b0 24 47 ef 29 39 5e 80 3f ec b5 9d 59 4f ca c4 bf
       0.007992216675038195 -0.16242401004585305
0003c0 04 36 3e 87 2e 17 b5 bf e0 cf f5 d1 f6 7a cd 3f
       -0.08238497545081463 0.23031506778681798
0003d0 2a 0d 73 7f a9 e4 c0 3f ae 37 07 c0 b2 bb c7 3f
       0.1319782135306949 0.18541559578301076
0003e0 70 44 7a d5 72 41 bd 3f 72 d8 e5 26 eb e5 d2 3f
       0.11427991592269549 0.2952831153737697
0003f0 bc 32 0d ff e8 3a e2 3f d4 a6 e2 4a 7c 22 c4 3f
       0.5696911794162456 0.15730241447936655
000400 24 1f 97 37 ed 26 c9 bf 44 0d 8c 0e f9 9f a7 3f
       -0.196500446456633 0.046142371202245985
000410 24 de 64 f8 05 3c c5 3f f2 6a 4d a3 42 64 c6 3f
       0.16589426640142435 0.17493470166922226
000420 78 6a ef 1c 45 76 a0 bf 3e 20 2a 39 a3 79 cc 3f
       -0.032152328283435005 0.2224620846866418
000430 90 75 4c 7b a2 51 bc 3f ee 02 5e 16 0c 8a a6 bf
       0.11062064657422455 -0.04402196667706969
000440 fd 76 e4 71 5a d0 cc bf d8 64 78 7f 09 20 d2 bf
       -0.22510843812136008 -0.2832053894831694
000450 f4 20 5f 62 20 99 c4 bf b3 b0 08 f9 90 20 b7 bf
       -0.16092304995823492 -0.09034067230158165
000460 b0 76 c1 8a 4a e3 b9 3f 2c 72 fc 70 1e 38 cb bf
       0.10112443816748384 -0.21265011326694727
000470 13 df d9 49 e6 92 d6 3f 00 9a 6d fd d9 52 33 3f
       0.3527160378648528 0.00029485532780029744
000480 c9 76 82 a6 dd 3e b3 3f 2c f3 ac 2c 3e 15 d7 bf
       0.07517800631691353 -0.3606715618405356
000490 78 54 c3 b9 b2 f4 a0 3f b4 71 6f b9 e6 50 be 3f
       0.03311689870467033 0.11842195536832528
0004a0 c9 11 cc f3 bc ec d4 bf c0 f7 bc a2 1a 94 5a 3f
       -0.32694934662165714 0.0016222248186319316
0004b0 d2 d9 8e 54 2e b7 9e bf ac 74 86 b8 34 d7 cb bf
       -0.029995654974948334 -0.2175050641061821
0004c0 08 21 1c 9c 76 51 92 bf be ac a4 d6 f3 7a d0 bf
       -0.017888882902327402 -0.257504424679336
0004d0 00 47 cd f7 91 45 4e 3f 6f 52 74 a3 8b 4b a5 3f
       0.0009238207563646295 0.04159199114125022
0004e0 9a 66 34 4b be cf c7 3f b6 24 4b 2b b5 a1 b1 bf
       0.18602732345680267 -0.06887371355982705
0004f0 9f 1c 19 18 61 73 b9 bf a4 fd 9f ce a3 36 c3 3f
       -0.09941679800350521 0.1501049765501935
000500 0e 4c 5d d4 b8 7a c5 bf f4 b4 ce d5 34 cd c4 3f
       -0.16780767793042667 0.1625124019605334
000510 5b b8 49 70 fe da bc 3f e6 1e e9 93 10 36 d6 bf
       0.11271658173947811 -0.34704985088727225
000520 de 24 c8 ad b5 fa be 3f b2 24 aa 62 4d 85 d7 bf
       0.12101302616806062 -0.367511125900431
000530 7d 38 14 d3 9e 11 d7 3f da 16 a1 8d 42 3c d3 3f
       0.3604504643743736 0.30055297690374305
000540 2e f1 4e ec a8 a6 b7 3f 1a 94 41 15 51 98 c2 3f
       0.0923867775845266 0.14527333772562728
000550 64 db c0 8d 1e 40 87 3f 60 64 ca e6 8e 48 79 3f
       0.011352766705483304 0.0061727125254487925
000560 0c 6f 6e 27 4b 7d 84 bf 9c 58 b9 52 9e 5a b3 bf
       -0.010004603520250586 -0.07560147781018361
000570 26 fd f6 20 e7 60 c2 3f ae e6 b5 ed 85 23 ba 3f
       0.14358224019631755 0.10210454038124325
000580 0b 2a 3c 59 ad a7 bb 3f 16 44 fb b9 3a 6a b2 bf
       0.10802730015362998 -0.07193343201221611
000590 8f 04 2c 9c 47 73 c9 bf 13 c6 cb 37 2a 8b 90 bf
       -0.19883055806716185 -0.016155872016446148
0005a0 6e f3 2f d1 dc a1 d4 bf 5e f1 b3 61 55 73 cf bf
       -0.3223793070645148 -0.2457071997704458
0005b0 6c 6a 0a 7d c5 65 b7 bf 5a 6e 7b 3f 51 c0 b8 bf
       -0.09139665892363674 -0.09668453025681725
0005c0 a8 18 22 29 a9 01 b0 3f 59 10 2d 71 e3 67 d9 3f
       0.06252534155109635 0.39696584751459835
0005d0 84 50 14 d2 c0 a8 93 3f 7f 98 19 bc 04 75 b0 bf
       0.019198429891801996 -0.06428556053433175
0005e0 50 b7 bc 59 3e 01 c5 bf 50 09 45 9d 53 8b 94 bf
       -0.16410045034120424 -0.020062738870600783
0005f0 14 bf 0a c6 2a 01 ce bf 52 e4 1e 52 7e e8 c1 3f
       -0.2344106165887686 0.13990763673590095
000600 a3 67 50 e2 4c 2a b1 bf 0c 6b d6 24 1e 3f b4 bf
       -0.06705170178648116 -0.0790881004271961
000610 a1 61 93 82 ac 36 c4 bf c3 f2 53 1e 32 f8 bb bf
       -0.15791851402060522 -0.1092559169810086
000620 4a e8 2e 65 a4 74 c0 bf 84 52 67 0c 10 60 d0 3f
       -0.12855963650310037 0.25586320124902096
000630 16 01 9f 80 9e bd b6 bf a0 4a 81 6a d4 6a c6 bf
       -0.08883085861362292 -0.1751351852459111
000640 98 a3 aa 0e 21 49 bf 3f b0 c1 ce 09 09 21 d3 bf
       0.1222096119696644 -0.2988913150575412
000650 48 22 3c 1a 86 13 bf bf ac 01 94 f9 82 e8 b4 bf
       -0.12139166012287561 -0.08167284577576223
000660 f2 b2 b9 8f 27 eb d1 bf 9e 3a 73 28 f8 93 e0 bf
       -0.2799776938980322 -0.5180626668969415
000670 24 52 44 a5 ea 99 cb bf c5 d7 f6 3c dd 63 cf 3f
       -0.2156346613852672 0.2452351138760475
000680 bb e9 ab e8 8e c2 a3 bf 34 78 0e ed e9 42 c8 3f
       -0.0385937365553732 0.18954204630876037
000690 63 0c 20 85 63 4f 93 bf 85 2c f3 17 33 7b c7 3f
       -0.018857531547848427 0.18344725293568245
0006a0 78 f6 c4 9f 74 3c 9e bf fe 08 1b dd f0 a3 9a bf
       -0.02952749467043822 -0.026016009803023536
0006b0 58 60 71 d2 ba 54 d1 bf 12 fd 62 a5 76 f4 a4 bf
       -0.2707964949709143 -0.04092760819320963
0006c0 76 8d a6 b5 05 16 b6 3f ed 89 75 09 fb 5d c8 bf
       0.08627353367642407 -0.1903680607020556
0006d0 da d9 90 3d 9e b0 ca 3f 2a 89 ea e7 39 06 c7 bf
       0.20851495748656995 -0.1798775083926299
0006e0 44 a9 f3 38 61 50 b0 3f da 31 cc 4b b4 2e c8 bf
       0.06372649803566782 -0.18892530156189374
0006f0 00 aa 59 b7 38 6c b0 3f 80 13 03 91 b4 da 6d bf
       0.0641513297684142 -0.003644325894216427
000700 56 89 6b 7c 90 f4 c6 bf 90 9e ce 4a 00 d4 b4 bf
       -0.17933851313780264 -0.08135988069863687
000710 88 64 bb 26 e9 91 ae 3f 74 37 79 1f 81 1b ca 3f
       0.059706960657146146 0.2039643672637187
000720 2c a0 34 ec ee 87 d9 3f 80 e7 ed 8b 84 82 39 3f
       0.39892170969915486 0.0003892491912932325
000730 8a 93 7e b5 3b cd c2 bf 75 e6 79 eb 28 24 9a 3f
       -0.1468882213786425 0.02552856385452747
000740 2f 26 94 1c 5a 97 a3 3f b8 e8 72 7d 77 57 b9 3f
       0.03826409911023309 0.09899088680950541
000750 4e ba 8f b4 7b 12 a5 3f 32 42 57 49 80 83 db 3f
       0.04115664080733393 0.4299011913508678
000760 50 8e fb f9 f0 b3 7f bf 3e 3b a2 89 91 67 b1 bf
       -0.007739964785034539 -0.06798657999227672
000770 85 ec cf 52 cc e7 dc bf 00 df ad f4 4c d1 c0 bf
       -0.4516478356087606 -0.13138734767175464
000780 84 c6 75 af 9f ec d3 3f 0c db 13 95 57 d2 ca 3f
       0.3113173688389923 0.20954413203408995
000790 e2 07 f9 f0 5b d9 cd bf ca 30 d6 3b ac 31 b1 3f
       -0.23319577471016745 0.06716419659477704
0007a0 6d 32 3b f5 a8 4e a8 bf 00 df 65 69 43 65 c9 3f
       -0.04747512811227215 0.1984028114927625
0007b0 a0 98 10 d7 30 52 b8 3f 74 d6 61 f0 87 78 82 bf
       0.09500413179975675 -0.009018957160360254
0007c0 ed c8 e6 02 15 66 b0 3f c4 11 97 55 88 51 ce bf
       0.06405764885747418 -0.23686317614750696
0007d0 3c bb 0a 37 52 ad d6 bf 30 eb 99 9e 53 30 be 3f
       -0.3543286836165185 0.1179249059877463
0007e0 2a 2d 63 f3 af ea cc 3f d8 16 fe ac 08 b7 bb 3f
       0.22591208824301506 0.10826162551355922
0007f0 74 06 72 24 fd 80 cb bf c8 29 31 62 5b b0 ba bf
       -0.21487392692147333 -0.10425349375979132

embed.bias f8 [32]
000000 e4 14 b3 dd bd 42 88 bf ee a4 7d 31 61 a7 ba 3f
       -0.011846049621804196 0.10411651094695504
000010 18 d6 ae 36 7a 1b ab bf f8 37 82 22 ff 73 aa 3f
       -0.05294401090160877 0.05166623398064013
000020 e4 b2 9d a7 b2 4b ac 3f 84 3e 93 3e 6b 69 b8 bf
       0.05526502891630061 -0.0953585651179712
000030 20 7f ec e9 2b 52 74 3f e0 cf 7b fa 4d 01 a0 bf
       0.004961177385467669 -0.031259953333488744
000040 da c6 19 6b fc 92 d4 bf a4 40 11 d4 24 2b cf 3f
       -0.3214713140397244 0.24350414614537386
000050 98 7c 29 b3 af 83 7c 3f 8b 1c c1 43 97 92 d1 3f
       0.006961523368402521 0.27457219711909236
000060 8e 33 36 15 e0 4c ca 3f 30 bd 7f d4 5e 3a 9c bf
       0.20547104869583815 -0.027566415519627074
000070 dc 81 8f ed 64 11 b7 bf 94 99 44 a0 db 86 c2 bf
       -0.09010916518992168 -0.1447405369337501
000080 db 5b 0f 68 b5 08 bd bf 9e 71 c4 4b 0f 52 9b 3f
       -0.11341413298156004 0.02668022060343988
000090 ba a8 51 81 6d 8b a2 3f 9c 0d e6 60 86 91 b5 3f
       0.03621999934769478 0.08425178399743632
0000a0 ba be 02 d9 ac 03 b2 bf 7d 92 26 11 b7 19 ca 3f
       -0.07036857889283513 0.20390976273951714
0000b0 26 ce 9c 07 a9 8a d6 bf e6 3c 32 93 2c 32 a9 bf
       -0.3522131513920804 -0.04921092316464541
0000c0 e4 a7 be 83 00 dd b3 3f 95 d6 87 52 cd 85 9a bf
       0.07759097305702728 -0.025901039278287092
0000d0 f4 51 97 16 c6 49 8c 3f ea 98 d5 a9 94 04 a3 3f
       0.01381258732264088 0.03714432309316058
0000e0 16 86 41 45 49 e3 c5 bf 50 4b 7f 06 f8 66 90 bf
       -0.17099872476232808 -0.016017794987259137
0000f0 c4 ed b6 e3 2a 05 ba bf 0c eb 85 a6 1b 54 bb bf
       -0.10164135035932192 -0.10675213637834363

pos_enc.pe f8 [1, 12, 32]
000000 98 5c 4e 4f 3b 1f c9 bf 35 6b d2 25 37 3b cc 3f
       -0.19626561519973929 0.22055711123251745
000010 91 9b d1 d2 c9 9a 95 bf b0 8d 3d 38 97 c9 8f 3f
       -0.021098283283574274 0.015521222499677773
000020 fd 1f e5 d4 af ea cc bf 01 74 27 bd e8 d8 c3 bf
       -0.22591207404389016 -0.15505704151192393
000030 5a e7 7a 84 41 b7 b8 3f 22 b7 b0 40 3d 0d c7 bf
       0.09654626354577314 -0.18009153040605336
000040 88 24 02 95 48 65 c9 3f 1a 85 f5 e8 81 3d 90 bf
       0.19840342784690201 -0.01585963234299923
000050 b4 cb 97 f8 eb d3 ad bf 09 4b b7 45 43 4c c2 bf
       -0.05825745973188337 -0.14295235542393694
000060 42 04 3a 80 d4 93 b4 3f 5f b8 bd e1 e2 3b b1 3f
       0.08038070803196809 0.06732004176385108
000070 14 2a 1c 02 df 18 b9 3f 2b d6 9b b1 a0 72 b7 3f
       0.09803575326456154 0.09159283004904555
000080 14 7a 4a 23 ad b1 b7 bf 17 91 16 19 5a f4 96 3f
       -0.09255487548441749 0.022416503697642556
000090 04 48 c1 b9 65 a5 a8 3f 84 a6 90 50 5c 33 cc bf
       0.04813688175694611 -0.2203174012550343
0000a0 1e 4b f4 c1 16 1f d1 bf 24 b1 64 8d 4a 32 cb 3f
       -0.26752251568648144 0.21247226623507587
0000b0 66 a0 ff 32 f7 93 d6 bf 9a 53 20 69 af e1 ca bf
       -0.3527811048538808 -0.21001236565703324
0000c0 74 58 7d 25 9c a3 d0 3f 30 cb 91 c1 78 bc b6 bf
       0.25998595868202945 -0.08881334997003587
0000d0 6e 2e 42 03 23 0c c5 3f a6 cd b7 16 1a 22 a6 3f
       0.16443288478000134 0.04322892691916573
0000e0 ca 16 7a 10 a9 4d a6 3f fb 92 08 01 ae bd bc 3f
       0.04356125188955458 0.1122692825816322
0000f0 48 25 e4 4a 5b ef d3 bf 81 a0 48 78 c7 de c5 3f
       -0.31148416818230773 0.17086118100383277
000100 30 ef 6e 0b 13 6f 71 3f 80 a6 ce c7 ad 98 5c bf
       0.004256319421013718 -0.0017453858447233073
000110 13 f3 16 e2 c4 c3 d0 3f d1 f9 e0 4f 60 65 c0 bf
       0.2619487960726456 -0.12809375667889225
000120 8e ed da 4c a2 f6 cb bf 89 85 f8 43 90 ca cf 3f
       -0.21846417191214268 0.24836924857030976
000130 2c 65 fe 63 e5 3a 8c 3f 60 f6 1d a2 65 fa 9d bf
       0.013784210313860422 -0.029275501270140558
000140 48 a9 00 2b f5 0e b1 3f a6 0d 93 4e d7 30 d1 3f
       0.06663448619716406 0.2686060206726445
000150 da 08 79 bd 9a 9c db 3f 11 2c 4a 9f 98 73 d7 3f
       0.43143337729646947 0.36643043094289945
000160 27 98 6b bc 64 6a ca 3f 2c 90 bd b0 e8 2a d1 bf
       0.20637187195024007 -0.2682439542752515
000170 8d 24 02 0d 88 41 b0 bf 32 f7 1f 61 a6 a4 bf bf
       -0.06349993054949916 -0.1236061083909277
000180 2b 9f f1 8b 38 65 b1 3f 1d cd 61 e6 7a b3 c4 3f
       0.06795075813863309 0.16172729729769567
000190 25 f0 98 09 37 bf c5 3f 60 49 61 e5 ce b7 c2 bf
       0.1698979184019446 -0.1462343807239206
0001a0 91 97 7a 7d 34 cf c5 3f c2 ee 3a ee a3 fc cd bf
       0.1703858959855862 -0.23427247173628102
0001b0 2d bc bb 0b f2 9e b8 3f 82 89 c7 b1 09 96 c5 bf
       0.09617531572779177 -0.16864129238735975
0001c0 e5 ba ff 26 92 3b b5 bf c6 d5 11 a1 39 b4 c5 3f
       -0.0829402299129743 0.16956253399591342
0001d0 c9 a1 17 61 16 e9 a9 bf f1 f9 3d 82 84 10 c6 3f
       -0.050606440879906574 0.17237907752492235
0001e0 38 87 fd 9b e7 8d c9 3f 54 17 b2 93 1d ba d5 bf
       0.19964308850017587 -0.33948459075360415
0001f0 c2 9f 0c bc 53 3d c3 bf 94 8c 6c 40 76 ca cd 3f
       -0.15030905420394275 0.2327411474771891
000200 ce e9 2d 2c 8b 41 c2 bf 3c da fa 11 d7 5f d0 bf
       -0.142625233241985 -0.2558496165833366
000210 1c dd c5 e3 fb 85 c9 bf 26 43 3b 15 da 72 d5 3f
       -0.19940136548732645 0.3351350028361132
000220 fd 16 82 f5 f4 42 c2 3f 6a 36 74 fa 82 0e d0 bf
       0.14266836154654775 -0.25088571985620567
000230 9a 41 77 b9 a8 ac c4 bf 5d 58 f0 4e 33 81 a2 3f
       -0.16151913696240855 0.036141971002664454
000240 8a 5b f7 4c c2 6f c3 bf d2 10 24 55 84 3a c4 bf
       -0.1518481136142465 -0.15803579480428326
000250 99 ae 01 81 e3 14 ca 3f d0 fd 7d 5a 2d 54 c4 bf
       0.20376247214459367 -0.15881888311922276
000260 e2 c0 ef a7 b2 bb e2 3f 00 2d 09 4e 66 55 80 bf
       0.585412338257836 -0.00797538686415189
000270 d1 89 85 c5 65 dc 9d 3f c5 93 7b b3 b8 9a c0 bf
       0.029161062412990383 -0.12972172511868343
000280 1c d4 88 0d df 36 91 bf 8f 14 ea 59 b4 2f bf 3f
       -0.01681087989910078 0.12182166285681915
000290 a0 38 15 79 3b 26 b8 3f 96 f9 d4 b2 e4 a8 cb bf
       0.09433337885022519 -0.2160917161181259
0002a0 a4 b2 33 a8 71 64 ac bf fa 92 4d 8b 33 3f be bf
       -0.05545382669683832 -0.11815187598183377
0002b0 0d 90 df 38 d4 07 be 3f 5d a7 77 ee d8 73 de 3f
       0.11730696094997502 0.47582076347190655
0002c0 2a d8 45 61 14 79 c3 3f 66 43 9e 76 e6 b9 d4 3f
       0.1521325564351071 0.3238464506512656
0002d0 70 fa 27 3d ab 83 77 bf 45 eb be e2 2b 33 b3 bf
       -0.005740803625029586 -0.07499956403527815
0002e0 80 56 9c 70 4e ca 60 3f 50 61 56 e5 30 fd bf 3f
       0.002049592211629314 0.12495713805254138
0002f0 82 e6 0b 4e 32 e7 cd bf 36 f9 33 73 7a 1e cb bf
       -0.2336180573545797 -0.21186762452266245
000300 b6 e7 e9 5e dd 89 c9 3f dc ca 31 3b 46 fe c7 bf
       0.19951979765374767 -0.1874473370586064
000310 3e c4 89 a1 cf 10 c2 bf ca 0c 9a cd f8 ed c6 bf
       -0.1411380327950002 -0.17913732566021273
000320 19 df 08 98 1e 71 c1 3f fb c6 37 5d 91 73 c5 bf
       0.1362646334034643 -0.16758935023931784
000330 59 48 3f 4f ce 24 c2 bf e9 1c ca bf 40 3c a0 3f
       -0.14174822682849955 0.0317096933477446
000340 ee 2e 74 cc 63 cf b3 bf f0 70 67 a9 c4 14 c1 3f
       -0.07738326779888968 0.13344629546816789
000350 b8 7c 46 a2 0b 98 89 3f 3c 05 f1 ad 99 fa b2 bf
       0.012497034921408065 -0.0741363572751838
000360 da 1a e3 cd f6 90 be 3f 64 05 04 e0 0b ca ba 3f
       0.11939947630444739 0.10464548319943884
000370 34 19 57 c6 85 c4 c5 bf ad e8 c8 9b 94 f8 c4 bf
       -0.1700598925073763 -0.1638360748928042
000380 46 27 74 09 6b 73 b3 bf 42 6f 6a e5 f7 d1 bf 3f
       -0.07597989064029517 0.12429761267634112
000390 c4 ff 29 81 b1 ee d4 3f ea 28 59 c7 b6 3d b3 3f
       0.3270686875694049 0.07516043059255009
0003a0 e1 d7 db a2 6b fc a3 3f b1 55 f6 e1 4d e5 c4 bf
       0.03903519022962577 -0.16324780972779032
0003b0 fa b3 30 f8 0d 81 c2 3f 46 a2 fa 27 87 3e cb 3f
       0.14456343287147871 0.21284570171452993
0003c0 2e c6 33 31 21 16 b0 bf e9 79 26 f7 79 cc d2 3f
       -0.06283767176844243 0.29373025069972286
0003d0 92 3d 1e d9 6e 08 c6 3f 12 46 de 20 45 4a d2 3f
       0.1721323547503571 0.28578308305540745
0003e0 a5 e9 e4 2b 27 a3 a8 3f dc 23 85 29 fe 89 cd 3f
       0.04811975870912314 0.23077370669696406
0003f0 a5 76 b7 56 2d d9 c9 3f 20 17 97 68 c9 a3 a1 3f
       0.20194021925174357 0.034452718751295075
000400 d4 7c 67 9c 43 7e c9 bf dc 6d 98 f5 13 2b be 3f
       -0.1991657746975536 0.11784481760007942
000410 b0 56 cc 34 ec 05 ca 3f 04 16 f9 26 c6 c4 b2 3f
       0.20330574586903571 0.07331503345002238
000420 12 43 a1 fb c8 40 b7 3f 99 d2 41 4f 88 59 e0 bf
       0.09083229201611356 -0.5109292552939052
000430 9b 46 2f 5d 73 42 c5 3f 54 8a bf df 9b e2 88 3f
       0.16609041261704224 0.012150972142937956
000440 b7 98 02 16 66 94 a2 3f c0 9c ed 21 dc 0f d3 bf
       0.036288442789826396 -0.29784301102922583
000450 a9 1c a1 5c f5 fa d4 3f b0 ed 69 64 bd 5f b4 3f
       0.3278172878821786 0.0795858736182058
000460 58 6e 03 26 e8 1b d9 3f c2 33 af 1f 53 6c cf 3f
       0.3923282977318414 0.24549330756272353
000470 d8 39 b8 1b b3 97 9c bf 8e ac 52 84 9e 6a b9 bf
       -0.02792243820845805 -0.09928312998333608
000480 27 61 07 bf 41 15 e0 3f 92 d2 21 0d 5c 5d d6 bf
       0.5025948267966996 -0.3494482162707665
000490 8a 70 aa 68 24 d1 aa bf fe 7b 7d e4 9c d7 b4 3f
       -0.052376878525337636 0.08141499117253656
0004a0 fc 41 2d bd db bd cb 3f 58 47 1b bd b5 c0 a8 bf
       0.2167315171923433 -0.04834525998525291
0004b0 e5 6a ef fc f7 38 c9 bf 0a 88 1c 6a 52 b9 be bf
       -0.19705104685166144 -0.12001528826343147
0004c0 94 8c 97 ec ac 9b ce 3f 48 1c cc 85 7a f4 8c 3f
       0.2391258387789078 0.0141381809312532
0004d0 c0 0c c4 5f dc 0e 54 bf d0 df 88 31 d7 c9 b0 bf
       -0.0012242462244678592 -0.06557984313337717
0004e0 78 ee e2 2f 17 fd ca bf 64 e2 0b fc a8 75 c7 3f
       -0.2108487113781512 0.18327820116953142
0004f0 a5 28 67 70 f6 34 c7 3f 44 56 5b 7c c0 0c cb 3f
       0.18130379188943838 0.21132665702923437
000500 00 7e a5 c3 67 f5 39 bf f0 bb b3 2e c2 e0 99 3f
       -0.00039609702402818026 0.02527144823119082
000510 5d 66 db 1e 97 1f ad bf 9a aa e1 77 35 5f c1 3f
       -0.05688163997338045 0.1357180438383992
000520 a0 db 62 c1 a7 66 d0 3f 2e 7e 9b d3 00 64 c2 bf
       0.25626558194510984 -0.14367685634987154
000530 6e 0b e1 1c 6b be a4 3f ca b2 23 e0 d6 29 c3 bf
       0.04051527717140045 -0.14971433586415223
000540 6d 53 88 27 bb 26 a9 3f 1a e9 46 d2 2c d1 97 3f
       0.049123619628665384 0.02325887711934014
000550 7c 51 7a 95 9e 7c c0 bf 97 8f 3a df a5 36 bd 3f
       -0.12880308436127652 0.1141151113502573
000560 bc ed 50 b1 99 c2 cf 3f 7e 11 51 cd eb a1 d3 bf
       0.24812623174680748 -0.3067578797383915
000570 0b 51 a0 07 7d a6 94 3f c6 69 8b c0 ec a2 bf 3f
       0.020166352835148376 0.12357978535457112
000580 24 e6 b4 67 96 0e d4 bf d6 8d 04 83 a9 91 d4 bf
       -0.3133903515586971 -0.32139051241594296
000590 85 4e 9d 43 73 b4 c0 3f 91 d9 f2 eb 7d 44 b3 bf
       0.13050690461624384 -0.07526385317291885
0005a0 24 d0 eb bb 63 a9 c5 bf 7c 8b 97 0f 11 6c cb 3f
       -0.1692318599303927 0.21423543225600017
0005b0 08 41 3f c6 b5 9c dd bf be 07 24 53 cf 99 bf 3f
       -0.46268982276980397 0.12344070224574374
0005c0 50 cb fe a5 32 96 b8 3f 40 be 24 fc b2 33 9c bf
       0.09604183724040394 -0.02754096664392436
0005d0 6c b8 2d d9 13 2c c8 3f ac 41 bc 8a d9 4c aa 3f
       0.18884513954566573 0.0513675672392567
0005e0 80 03 46 6e 2b f4 c6 bf 55 ae df 38 6d db be 3f
       -0.17932646641204641 0.12053568495292073
0005f0 e0 10 af 2a ef f0 97 bf ba 4e 5e d4 bf bd d5 3f
       -0.02338002870580247 0.339706380263333
000600 0a 99 ec 20 fa b6 aa bf 8a ad 35 0f 9b 1c af bf
       -0.05217725421816695 -0.0607651191774848
000610 bc d5 5d bd 28 77 9a 3f 8c e0 7e 80 56 b2 ce bf
       0.025845181043640628 -0.2398174407405843
000620 ca ca 4d df 70 a1 b0 bf 35 4e 77 d7 7e 87 d6 bf
       -0.06496339275126242 -0.3520199875031012
000630 06 12 82 d6 e7 ea 9f 3f c6 43 24 41 76 d1 c4 bf
       0.03116953131440605 -0.16264227085824084
000640 c0 ca 5d 70 cd 66 b5 bf f0 29 ef 85 31 3d 82 3f
       -0.08359989159888936 0.00890577974305004
000650 79 e6 0d 31 68 eb c2 3f 9e d5 a1 8e 9d ad b9 bf
       0.14780905146817583 -0.1003054116461812
000660 84 90 aa 81 25 5b a2 bf 5c a5 8c 49 af 39 d2 3f
       -0.03585164268341237 0.28477079565580765
000670 a8 93 95 e9 98 50 d6 bf 12 6a 06 80 da 65 d3 3f
       -0.3486692696663405 0.3030916452641189
000680 ea d7 14 f5 5e 63 ac 3f 14 78 1c c0 d5 ef 8f bf
       0.05544564000813053 -0.015594167638081337
000690 5a e1 26 c1 a0 a7 a4 3f 84 ea 0e 94 bf d0 d1 3f
       0.0403413997441386 0.2783659883386138
0006a0 c8 ec ae 23 ae ed d5 3f 38 8f ce 81 ab f2 bf 3f
       0.34263185009667696 0.12479659957039935
0006b0 f8 0b cd b7 2d 63 d3 3f 88 ab 21 96 fc fb bb bf
       0.30292838048279647 -0.10931376138039017
0006c0 18 3b 69 ac 67 cf 9b 3f 20 05 db 10 12 f7 c6 3f
       0.02715837468923174 0.1794149954130626
0006d0 b0 b8 e5 a0 31 b6 68 3f ac cd 1d 4c d5 6e b4 bf
       0.0030165643030875752 -0.07981618030844712
0006e0 a4 d9 d3 4d b4 f7 90 bf 8e bc 09 a1 df 99 d4 3f
       -0.016569916963783307 0.3218916962277455
0006f0 0c eb de 3d 4f 05 a7 bf ec 8b 95 3b fd a6 b7 bf
       -0.04496238355883095 -0.09239180283252296
000700 44 5f 6c ff 48 57 b9 3f e0 4b 0d 65 a5 ab cb 3f
       0.09898811565323934 0.21617572244812688
000710 88 c8 bd ed c4 4f c1 bf de fc f2 f1 9d 2c d4 3f
       -0.1352468643995659 0.31522320392464376
000720 0f c3 83 7b 73 68 c8 bf 58 cc 55 3d b1 cb 87 3f
       -0.19068759470931027 0.011618981060314379
000730 a4 be dc cf 80 17 9f bf b7 0f 38 15 2d f9 d3 bf
       -0.030363094984919528 -0.31208350250403377
000740 f8 cd c3 19 ba 88 c0 bf 96 55 4b ed af 21 c7 bf
       -0.12917257555055506 -0.1807155522025538
000750 88 29 9f b2 fd f5 cf 3f 50 79 fb d1 f5 d3 b6 3f
       0.2496945497681049 0.08917175652047615
000760 bc 7b 76 0a 72 a7 c9 3f 8e f1 ec 73 a7 11 94 3f
       0.2004225302780166 0.019598595095190734
000770 77 16 f2 33 8b 24 ba 3f 82 2c 72 48 7c 46 d4 3f
       0.10212011354641413 0.31680209231189604
000780 b2 38 55 3b 2f cd ce 3f 5a ed 3a f4 01 d1 c0 bf
       0.24063673398126678 -0.13137840676595652
000790 06 46 e2 e4 17 31 b2 bf 10 67 ef 5f 9b be 8f bf
       -0.07106160486207366 -0.015500272622307715
0007a0 62 c8 04 36 8e f1 d4 3f 26 26 5c 9a 3a 72 d3 3f
       0.327243378403301 0.30384697984900055
0007b0 35 d3 4c 3c ad b6 b0 3f 40 15 80 46 e9 d8 b0 3f
       0.06528742525263172 0.06580980273436854
0007c0 dc 7f 81 19 aa 64 d1 bf 6d 43 b2 e9 05 ed cd 3f
       -0.2717690705376279 0.2337958708854119
0007d0 c4 e8 7f b1 ff 8c 8b 3f b0 1c c3 91 82 3d d1 3f
       0.013452527622565554 0.26937927469812006
0007e0 44 b8 73 09 1a 4e be bf e8 4c 79 8e 93 d4 95 bf
       -0.11837923746836149 -0.021318727084076367
0007f0 21 32 f8 16 57 4b d5 bf f7 2f 9c c4 cd 10 c4 3f
       -0.3327234005271596 0.15676281070807338

transformer_encoder.layers.0.self_attn.qlinear.weight f8 [32, 32]
000000 bf 66 88 64 3d d8 c9 3f d6 4e 2b 9f 64 08 9b bf
       0.20191161545590394 -0.02639920445910956
000010 7c 8a 0f 14 44 bc 9c 3f 61 ab 00 f0 ec c4 c1 bf
       0.028061927532585504 -0.13882219046476066
000020 41 29 84 f7 b4 41 d0 bf 40 e9 84 29 38 cb 69 bf
       -0.25401043101796367 -0.003148660365835415
000030 6d 98 ca 29 e9 50 c9 bf d2 bd fd ca b6 b7 cc bf
       -0.19778170147509702 -0.22435650741270635
000040 92 0b f6 a8 f9 4a a4 3f d9 8c 9f 33 15 c7 c7 bf
       0.039634515643249504 -0.18576302548090132
000050 0e 2a 34 61 2c af b5 bf d2 c6 2c 58 e9 ae c1 3f
       -0.08470418332232318 0.13815037541785685
000060 76 90 c2 74 9b 93 c1 bf ee 50 fe 81 51 a9 c3 bf
       -0.1373171157948751 -0.15360468718848302
000070 43 e8 6f 62 25 5d a0 3f 2e 45 8f dd 0c 50 be bf
       0.03196064783692567 -0.11840896996661307
000080 98 a9 0d 7a e6 52 ba 3f 34 a4 ee 39 ca f8 c6 bf
       0.10282745818918781 -0.17946746662826885
000090 d4 b3 c7 a9 f8 62 c1 bf d4 81 d0 dd 25 61 91 3f
       -0.1358328656200728 0.016972152389031894
0000a0 35 49 27 63 60 b7 a2 bf 15 c7 78 6f 44 25 cc 3f
       -0.03655530176515002 0.21988730853041064
0000b0 1a 66 54 61 9a cc be 3f 10 7f e3 bb 93 c7 9e bf
       0.12030949474537814 -0.03005820116311414
0000c0 99 10 a4 b1 32 58 c0 bf ac 37 fd d4 95 45 ce bf
       -0.1276915900599576 -0.23649857425556087
0000d0 d2 29 28 2e 3c 86 c0 3f 40 21 7f f0 50 ec c0 3f
       0.129096529519599 0.13221179717062093
0000e0 be 16 72 c7 36 e7 c6 bf c4 ec 86 ca 62 69 c3 3f
       -0.1789310907226333 0.1516536225225079
0000f0 72 aa d4 46 15 a7 c3 3f ae 8a ce 7a 28 d2 c4 bf
       0.15353647192508252 -0.16266351696420628
000100 dc 58 b8 3d 1e b3 d0 3f 20 d9 aa ad ed 44 b7 3f
       0.26093250300745097 0.0908955143921486
000110 0f b5 0a 66 02 61 d6 3f 64 bb 6a bf 96 27 bc 3f
       0.3496709820272636 0.10997907803787893
000120 da cb b5 0b b4 d8 d4 3f a3 51 0c 6a 24 97 c6 3f
       0.32572652000015767 0.17648749521380322
000130 b8 4e 64 28 d8 c5 a3 3f ee ff f9 23 b9 04 c4 bf
       0.03861880772651943 -0.1563941407839588
000140 3c 79 5e 72 27 a2 95 3f 38 4d c8 0d 1c 80 c6 3f
       0.021126381259471957 0.1757845942780507
000150 33 7a a0 c4 72 b9 aa 3f 59 9c 80 fe d2 71 c5 3f
       0.05219610834341317 0.1675361387908392
000160 a0 53 cb 70 a1 2e 6b bf 20 5d 09 44 cf 38 73 3f
       -0.003318133653332514 0.004692849761873036
000170 bc 3d 94 cd a2 a6 82 bf e0 a1 f9 b2 3c 6f ba 3f
       -0.009106895350241888 0.10325984353551787
000180 ae b0 3c a5 28 74 cc bf 78 80 5d 77 67 ba ba 3f
       -0.22229488437858919 0.10440680183592288
000190 88 97 5e ae e9 e0 ce bf 40 c7 f8 5d af b5 7c 3f
       -0.24123879446159102 0.007009205844541289
0001a0 78 a8 a4 70 78 25 74 3f 68 b3 8f 58 da 28 94 3f
       0.0049185471237170805 0.0196870914987132
0001b0 24 c0 3c b7 fc 64 e1 3f 95 87 0a a1 b6 92 a7 bf
       0.5435775355199479 -0.04604120937189219
0001c0 a8 35 2b 6e 96 c3 cc bf ec 27 e8 ec 2c 9d a1 3f
       -0.22471886042914702 0.03440227882317956
0001d0 c6 5e ca dc 7e 92 c6 bf 10 c7 c8 c3 35 2b 68 bf
       -0.17634568959032587 -0.0029502916425138206
0001e0 1f 5b 4c 28 f7 89 bc bf 64 1c 1b c0 08 26 c4 bf
       -0.11148018583149309 -0.157410711099348
0001f0 5c 38 81 fa 89 e7 c5 bf ba a1 c9 44 95 44 a3 3f
       -0.17112850886991537 0.03763262238209415
000200 00 87 16 79 89 df 23 3f eb 12 e0 cd b9 48 97 bf
       0.0001516204179497424 -0.022738364401464855
000210 52 74 6f 5d 60 5a b9 bf 0c 60 a0 13 a5 67 c0 3f
       -0.09903528481614046 0.1281629892189361
000220 e0 dc 02 09 4c fa a8 3f d3 69 a6 ee 65 c7 bf 3f
       0.04878461465835371 0.12413632465760509
000230 69 66 34 3b 50 e6 a5 bf e8 3b 9d 47 80 61 a3 bf
       -0.04277277682031128 -0.037853249303786474
000240 04 9c ed 95 d5 ed c6 bf 2d 7b 1c 55 13 19 b1 3f
       -0.17913312741004017 0.0667888720313214
000250 79 91 fd 4d 49 3d c5 bf 80 12 1a b4 1c 5a ce bf
       -0.1659328108609193 -0.2371250037578143
000260 f4 4d 64 15 40 d4 aa bf c0 43 79 3a 54 96 4c bf
       -0.05240059147959278 -0.0008724128028437736
000270 b4 9f 3d fb 24 9f cf bf ec 43 7a 8a e0 88 9c 3f
       -0.24704420344937505 0.027865894748689543
000280 e7 d4 d8 d7 84 24 ae 3f 9c 4c 98 d6 a6 b3 d5 3f
       0.05887236723757799 0.3390900703099733
000290 f0 59 25 5d cd d5 8f bf 8c ff f4 5c 1b 65 d3 3f
       -0.015544514088714018 0.303046074655861
0002a0 aa 98 8b 5b f8 5e c6 3f 29 c7 02 40 86 f3 c5 3f
       0.17477325887666 0.1714942753365503
0002b0 10 60 96 ca 68 fa 8d 3f fd 27 32 d4 ca c9 aa bf
       0.014637774164654643 -0.05232080307276019
0002c0 a7 9d f7 f5 ac 32 b5 bf fb a8 6c 24 14 1e ad 3f
       -0.08280449872073935 0.05687010712274972
0002d0 4a f0 06 ca 5d db d7 3f 98 e0 d5 19 62 b3 d4 bf
       0.3727640602990091 -0.3234486820506475
0002e0 55 3d 6a 7f dd 44 c5 3f e2 f6 77 45 f9 f0 b2 3f
       0.16616409989772288 0.07398946710597046
0002f0 10 fa 62 c4 bd fb 7a 3f 3b 9c dd aa 0a 4c b0 3f
       0.006587735441085943 0.06366030379796055
000300 ce f6 25 dd 84 76 ac 3f 1c 6c f4 62 98 ae b2 3f
       0.055591728206292865 0.07297661224258473
000310 e2 6a 54 eb 8b 8a b1 bf 40 c0 c3 71 65 c6 b0 3f
       -0.06852030272822732 0.06552728679139452
000320 0c 78 a1 db 2e 82 c9 3f 1c 2b e5 51 f2 62 ca 3f
       0.19928537105710153 0.20614460943974044
000330 d8 08 b9 f7 c8 f9 7c 3f 83 42 ab 98 10 7e a0 3f
       0.007074151067685906 0.032211798321104566
000340 93 5a 72 23 35 79 bb 3f 55 d4 a5 4d c4 00 b5 bf
       0.1073182307758123 -0.08204295058915652
000350 31 cc 69 71 0b 45 d1 bf 05 6d 19 41 47 a1 d3 bf
       -0.26983915400996056 -0.3067186485038323
000360 f6 b5 17 23 20 30 cd 3f bb 7e c2 6d a0 66 a5 bf
       0.22803117478854035 -0.041798604391485715
000370 15 2a 01 07 d5 49 ce 3f 9c b0 7c 81 58 f4 a0 bf
       0.23662817804354633 -0.033114209944274026
000380 b1 db 5d 2a 54 b1 c1 3f df e0 ff f0 20 6c cb bf
       0.13822414463694835 -0.21423732535891468
000390 bd 4d 2b 96 77 65 8c 3f 99 b6 61 61 01 77 c7 3f
       0.013865408201502722 0.18331925635304883
0003a0 e4 da ab bf 5c 82 81 bf dc 5d bf b5 f5 33 d1 3f
       -0.008549427604049815 0.26879637478620366
0003b0 10 04 91 24 6b 5b b7 bf d9 e4 a1 dc 93 57 c1 bf
       -0.0912386860154728 -0.13548515580240553
0003c0 58 2b 8c ce c6 0c a1 bf 5a d7 b7 1c 58 59 d0 bf
       -0.03330060263950568 -0.2554531364870535
0003d0 3c 06 d8 28 15 1d a1 3f 1c 9f 6f f7 47 74 a4 3f
       0.03342500804502577 0.03994965453585861
0003e0 f0 af 59 2b cb 53 bf 3f ac 4d a1 3c 3c c1 c2 3f
       0.12237233932836467 0.14652207336858447
0003f0 40 c0 f8 95 2f f8 6a bf f2 c6 06 80 4f 43 84 bf
       -0.0032921723757440013 -0.009894009680326363
000400 ca 2d f3 03 ba d2 9f 3f 00 6e c3 6a 08 b7 d1 bf
       0.03107729577167876 -0.2767964403735448
000410 74 5d aa 50 e2 ad ac bf d4 22 92 1c 3f 77 a2 3f
       -0.05601412996946467 0.036066028821613166
000420 1c aa 43 76 e5 22 bb 3f c7 a6 66 44 2e 13 b7 bf
       0.10600122582733501 -0.09013642473169191
000430 65 ae 7a dd 2a 39 b7 3f 72 fd 67 c1 d2 3b b5 3f
       0.09071605593879324 0.08294408056098293
000440 91 ef 42 95 e0 af ac bf 2e f2 cc 78 ec 54 a2 3f
       -0.05602933713950543 0.03580416655174577
000450 66 14 31 ef 79 34 b8 bf e2 8f 66 8e 33 da c7 bf
       -0.09455072488442937 -0.18634647801547916
000460 4e b9 b2 4c 7d cb be 3f 2e c0 cf 56 af bb c6 bf
       0.12029250261796173 -0.17760268915981342
000470 f8 2e 5a d8 f4 27 cc bf c0 45 93 90 1d 77 a5 bf
       -0.21996937336040623 -0.0419244040473461
000480 cc 91 c2 b3 81 b8 c4 bf ce c1 71 2f 0c d3 c0 3f
       -0.16188069608064237 0.13144066158885298
000490 00 df 85 4c a4 ad 83 bf a2 d0 4f 03 db 65 cb 3f
       -0.009608539185804954 0.21404588376720307
0004a0 54 f4 51 32 0b 16 d7 3f ee ed 12 48 84 c1 d1 bf
       0.36072044290614724 -0.2774363235327816
0004b0 20 a4 db 56 5e 1e 5c 3f 3e fe e8 ad dd bb 9d bf
       0.001716224792682526 -0.02903696416819756
0004c0 a8 01 df 4b 02 0e d5 bf 1f b2 14 42 e9 c5 94 bf
       -0.3289800396851441 -0.02028622117829759
0004d0 50 c2 3a cf 64 27 b4 bf 64 16 f4 06 58 62 cc bf
       -0.0787261014872993 -0.2217512163116907
0004e0 12 41 ca aa ee f8 c8 3f cd 65 f4 29 30 8f c0 3f
       0.19509681071623014 0.12936975525444297
0004f0 f3 d9 c1 6b 4c 01 95 3f e4 b8 1e cc 75 66 8a bf
       0.020512765957812772 -0.012890739719150841
000500 2f a5 d2 39 6a 60 b3 bf a2 9f c3 44 b1 ca d4 3f
       -0.07568992530527362 0.32487136569261044
000510 77 8a 34 2d aa bf be 3f c0 b6 2f fb 16 60 bc 3f
       0.12011207202571393 0.11084121353607213
000520 24 34 f5 11 fd 01 bb 3f 50 6e 97 5e a2 0e d6 3f
       0.10549909294532306 0.3446432040925389
000530 20 a7 b9 e3 26 90 87 bf b2 24 21 3b 09 65 ac bf
       -0.01150541670286348 -0.055458343952133574
000540 3e f5 8b 55 ce 66 c6 bf a8 0d 04 96 1a 7b c5 3f
       -0.17501238991818896 0.1678193314074694
000550 e6 9d 31 21 3f 8b b1 3f 8a 48 90 f6 72 79 b1 3f
       0.0685309845008458 0.06825941581363018
000560 44 aa a8 38 3d 9f c7 bf f6 9f c1 ef c2 15 b5 3f
       -0.18454709307236972 0.08236330369402353
000570 3e 27 5a 63 7d 75 ca bf 1c cb 84 e3 cf 83 bc bf
       -0.20671050406627417 -0.111386292501987
000580 e5 90 0d bc 96 df c0 3f 4a 72 dd df 45 fe ad bf
       0.13182338888430603 -0.0585805736325012
000590 52 9d cd ff 80 4e a9 3f 7a 62 36 51 22 a5 d1 bf
       0.049427062250112855 -0.2757039826479183
0005a0 00 1f d4 f5 77 3f 4a 3f e0 06 cf 17 be dc 6f bf
       0.0008010230773445037 -0.0038894379381141236
0005b0 38 c9 ef e5 3a 09 a8 3f 0a 46 04 91 92 3c b5 bf
       0.04694541985363049 -0.08295551338621734
0005c0 f9 8d ed 4a ec 15 ba 3f f1 29 4e 97 24 49 d2 bf
       0.10189701871200176 -0.2857142903891648
0005d0 82 de e5 63 27 03 c3 bf f9 7f 6f 59 ec 36 cf 3f
       -0.1485337484152645 0.24386362425775568
0005e0 66 f0 89 5c e1 ce cd 3f e4 2e cb af 04 8f dd 3f
       0.23287598627564704 0.461854144738693
0005f0 c5 4b a8 3d 91 63 ca 3f 0d c3 34 d5 69 fb cc 3f
       0.20616355429282698 0.2264225283666054
000600 28 b6 8e 50 76 81 d2 3f 12 cd 9b 55 ca ff a2 3f
       0.28915174357357154 0.03710777564074354
000610 a0 fa a9 b7 22 47 ba bf 7c 49 2c 97 a8 d7 b5 bf
       -0.10264794334396266 -0.0853219384264658
000620 62 87 34 43 aa 18 b1 3f 74 19 24 c1 66 ad c3 3f
       0.06678260937453964 0.1537292903014521
000630 8a e1 52 a5 9d a6 d3 bf 7c e3 8d e0 82 4f bd 3f
       -0.3070444216241631 0.11449449522286942
000640 6b 31 1b cc 7a 2c d4 3f ad 57 df f0 c4 61 d1 3f
       0.3152148240303833 0.27159236452768704
000650 98 24 2f 11 b8 d3 bf bf 48 24 05 de 95 50 86 3f
       -0.12432432574782337 0.01089589198876885
000660 09 36 9b 47 da 82 b0 3f 21 44 88 9b 98 e7 db bf
       0.06449665306282538 -0.4360105055685058
000670 04 30 26 64 b2 80 bb bf 60 03 53 76 8b 31 b5 3f
       -0.10743250794456577 0.08278724325920228
000680 16 51 13 5c 12 da c7 bf c0 89 48 24 df cc bc bf
       -0.1863425206744373 -0.11250109325241109
000690 e9 c8 85 6a e1 e8 d1 3f 3d 37 ce 8e f0 14 d9 3f
       0.27983889963719705 0.3919030565819986
0006a0 60 1d d4 25 75 33 a5 bf a3 bb 8c 8c c1 47 c9 bf
       -0.04140821539663864 -0.19750232088833028
0006b0 f9 c5 70 45 5b 28 cf bf ff c9 91 bb ac 37 ca 3f
       -0.24341908350611144 0.2048240581385272
0006c0 32 f9 15 a0 6e 55 bf 3f 12 d3 35 f3 89 d8 8e 3f
       0.12239734085412549 0.015061452612579216
0006d0 77 c2 bc 65 94 2d d5 3f 59 a7 1b 3a 68 f1 d0 3f
       0.3309069627312406 0.26473432230578947
0006e0 58 df 04 7e db 9a d0 bf da e8 a8 56 22 50 c0 bf
       -0.25945174509569346 -0.12744549971996016
0006f0 0c d7 63 ef 3c ee a4 3f 86 89 fa 7b 0b 94 ca 3f
       0.040880111906444666 0.2076429705967479
000700 62 82 9a 64 90 54 cd bf 83 4e e8 ca 02 1f 91 3f
       -0.22914318954737484 0.016719859728324692
000710 a1 3f 1d c3 51 e1 c5 3f 50 36 98 78 ce ff d0 3f
       0.17093870188773244 0.2656131913834985
000720 94 28 79 9b 7a ea c7 bf ee 8a 97 44 70 bc da bf
       -0.18684322921246077 -0.41775137613710356
000730 6a a8 42 e1 0e ff b2 bf 69 14 0b 0d 5c 68 a0 3f
       -0.07420437812348415 0.03204620036334733
000740 60 81 91 5b 96 67 8a bf 14 df 98 95 7c 7c d5 bf
       -0.012892889661259843 -0.3357230626020151
000750 3d 18 38 6e c9 ae c3 3f 7e b8 23 a3 d5 65 80 3f
       0.15377157098572694 0.008006733933566542
000760 77 a5 5e 95 03 68 ba bf b5 41 9c fb d9 1c c7 3f
       -0.10314962765428058 0.18056797776854486
000770 20 8d d4 69 74 7b 9c 3f 14 cb 36 23 be ea c3 bf
       0.02781469245850332 -0.1556012794440781
000780 94 f7 83 f2 7b 6a c5 3f 28 1a af 50 49 95 8e bf
       0.16731213895394303 -0.014933178686885887
000790 98 e8 30 c9 9c 87 c8 bf 00 1e 5e 58 dd 01 b8 bf
       -0.19163856338292784 -0.09377845199025359
0007a0 58 ff 12 53 e5 4a d7 3f d9 a3 83 e0 4f 57 cd bf
       0.3639462767860002 -0.2292270513783297
0007b0 ce be 67 30 74 5d be 3f ad 73 a1 78 ae 40 c7 3f
       0.11861349279183317 0.18166142358941553
0007c0 1a 17 e0 e7 eb 81 b7 bf 5d 9d 7a 28 0e 69 c0 3f
       -0.09182619486827229 0.12820603348266504
0007d0 e0 25 c2 45 d6 2a 92 bf 10 ea d4 b1 48 72 98 bf
       -0.01774153519412447 -0.023873458723054297
0007e0 5e 24 8a ab 19 fb aa 3f e4 3f 4f 01 7b 1d a2 bf
       0.05269699305524321 -0.03538116827951379
0007f0 e4 2e ea e2 e1 f2 c9 3f 63 68 70 63 26 6e b4 bf
       0.20272468166182656 -0.07980575492584445

transformer_encoder.layers.0.self_attn.qlinear.bias f8 [32]
000000 fe 21 e3 9a 5f e7 cb 3f 26 b4 59 51 68 f7 c5 3f
       0.2179984575543727 0.17161277744472264
000010 e6 af 4a c2 df 4a cc bf 28 a9 ed 5b 6f c0 8f bf
       -0.2210349749269646 -0.015503759377413731
000020 3d e9 36 39 e4 00 c0 bf ed 20 ae d9 22 2d a3 3f
       -0.12502720636059364 0.037453736374176795
000030 bc a7 7e 72 02 53 c5 3f 84 e2 25 ed 54 64 df 3f
       0.16659575071872534 0.4904987636469189
000040 8d 67 a5 07 2d 6f d8 3f c8 44 f4 a2 b3 80 c5 bf
       0.38178563830080564 -0.16799016434428027
000050 62 b1 3f c1 e1 1a 95 3f 4b 58 99 31 4e 2b bc 3f
       0.02061035863873551 0.11003578864014789
000060 88 14 b0 b6 b0 a0 b4 bf cc 34 81 27 70 a9 b9 bf
       -0.08057693920280162 -0.10024167026968483
000070 b0 cc 88 f4 13 a9 95 bf aa e8 3b 40 d4 ee d0 3f
       -0.02115279369372719 0.2645769717488614
000080 5a 31 d0 4d 38 3a 93 bf 4d 35 66 a3 27 c2 c0 bf
       -0.018776778935760553 -0.13092513540724796
000090 b1 46 2b 46 8f 2a da bf 5b d7 43 ad a3 05 b1 3f
       -0.4088476357693294 0.06649229984381348
0000a0 85 66 69 cb fd d6 d1 3f 29 a8 2b f5 9b a1 c4 bf
       0.27874703277994 -0.16118192168443216
0000b0 69 c3 61 77 37 73 b5 3f 65 4d 7c 32 02 be ca bf
       0.08378931679341196 -0.20892360177149807
0000c0 53 ae d7 32 6b 35 c7 3f 9e 3c 5a a2 b6 89 b8 bf
       0.18131771070999267 -0.09585133994754577
0000d0 93 00 87 32 80 92 8e 3f d7 0c 14 a3 4a c3 c5 3f
       0.014927865545246532 0.1700223251610626
0000e0 b0 1b b8 0e bd 01 d6 3f 5d f2 1d 7a 6e 4e c1 bf
       0.3438561099759978 -0.13520604098075042
0000f0 5e c9 86 44 29 84 cc 3f b4 72 32 f5 6b 3b bd bf
       0.2227832398035145 -0.1141879533410684
