experiments/fl_train_noise_0.5_max_grad_norm_1/20250427/model_round_45.pt (torch, 62806 bytes, 25 tensors)

embed.weight f8 [32, 8]
000000 5e 58 9e 84 21 3b d4 bf 04 21 ec 1a 8b 44 dd 3f
       -0.3161090655424966 0.45730855588091424
000010 24 5f 31 c1 a8 cb 85 bf af 32 85 98 c1 fa bd 3f
       -0.010642355342653405 0.11710748647346735
000020 3e 83 9d f9 0d 62 b7 3f 38 6b 5a 1e 06 00 d9 bf
       0.09133994430659428 -0.3906264587800936
000030 88 e5 cd 83 aa 31 83 bf a0 31 db a0 4a bc b6 3f
       -0.009372074267718813 0.088810600539722
000040 45 f2 84 3b 5f 7b cf bf 32 dd 2f 91 d0 6e ad 3f
       -0.2459525147077263 0.05748607418348185
000050 d1 81 c2 f3 13 70 b2 3f 08 f3 b7 08 b3 8c cd 3f
       0.07202267361800031 0.2308563034602218
000060 40 c8 b6 dd 3b 4c a7 bf 15 30 fb fe 7d 64 d8 bf
       -0.04550349313230173 -0.3811335554171376
000070 f6 dc 74 ac 50 69 c2 3f e7 fb 41 66 e4 c8 94 bf
       0.14383896275260327 -0.020297592870061634
000080 5b a4 f7 dc da 0d b9 3f 3e 54 5d 65 84 6d be 3f
       0.09786765951834424 0.11885859942170016
000090 41 c6 12 22 88 0d ad bf f6 f2 a0 0d df a0 b6 bf
       -0.05674386421140954 -0.0883922012589656
0000a0 a8 1f a2 51 09 c9 85 bf de dc 7e ee 29 8e c9 3f
       -0.010637352756262278 0.19965099473276998
0000b0 68 15 63 ed e3 5d 90 bf 37 f4 a3 78 f8 fd 90 bf
       -0.01598316322703877 -0.016593820918377324
0000c0 ee 0d 3e 2a 2e 3f 97 3f ca e0 b8 ca 5b 94 99 3f
       0.02270195133998059 0.024980005500965054
0000d0 ba 37 85 7c 33 73 c3 3f 69 c4 3a 97 b2 75 c0 3f
       0.15195315914246327 0.12859184631591639
0000e0 06 1f fb 67 8b 88 d5 bf 26 cc fa ec 45 52 b9 3f
       -0.33645901827229385 0.09891163859974536
0000f0 5c ed 34 03 1a 32 ba bf c3 21 cf a3 57 bc b9 bf
       -0.10232698992051809 -0.10053012608762572
000100 3c 85 30 86 b4 7c 96 3f ff 27 5a 9c 30 ae b4 3f
       0.021960087480811227 0.08078292672340125
000110 59 e7 d6 07 66 d0 a3 3f 02 7f 9e d3 4a 7c 93 3f
       0.03869932981201769 0.019028824964720144
000120 9e aa ea 74 67 a0 cf 3f e6 c6 ba a7 e7 14 c6 bf
       0.2470826455003889 -0.1725129670135665
000130 02 e7 7d 21 58 57 ce 3f 54 0b 5b b1 7a 0a ae 3f
       0.23704053531019303 0.058673700475557894
000140 0c 93 ae da 92 66 a0 bf f0 12 42 c8 eb ec 97 3f
       -0.03203257483918351 0.02336471948412372
000150 26 c7 a0 0f 92 c3 9e 3f 93 34 2f 36 f1 1e bf bf
       0.030042917446002758 -0.12156589100705366
000160 3c f2 5c 33 f5 77 bb bf 34 c5 8e 7c 58 de c8 3f
       -0.1072991609953044 0.1942854507629278
000170 ce ec 52 d8 21 be c3 bf bc 35 0d dd 9d 41 c2 3f
       -0.15423987448398296 0.14262746137175764
000180 1c 27 83 f2 39 ff cf bf 94 c2 c9 58 b0 7c c4 3f
       -0.24997639027997642 0.16005520186765365
000190 6c 7b 8c 6c da 9a a7 bf fb 1f a7 73 d7 c2 93 3f
       -0.046103311300831645 0.01929794925106874
0001a0 b3 dc 34 06 c1 0e b8 bf 19 b0 f2 a7 43 4c c2 bf
       -0.09397512818837832 -0.14295240116678157
0001b0 5e 2f b6 38 77 fc c5 bf a8 89 c7 84 c8 7d cb bf
       -0.17176714200138127 -0.21477610095378208
0001c0 e0 44 36 97 97 22 c6 3f 9d b9 85 96 d7 99 c2 bf
       0.17293066867254137 -0.14531988954281597
0001d0 60 a2 c1 64 55 31 bf bf 30 e0 27 36 0d d1 6d bf
       -0.12184652051804212 -0.0036397226369864408
0001e0 6c 9f 93 97 9e 7d d3 3f e6 60 a2 c2 d4 e3 dc 3f
       0.3045422058335052 0.4514057064748286
0001f0 50 1e 3a d8 37 8a c8 bf eb 5e 64 65 f7 39 b5 3f
       -0.19171808298073012 0.08291574693100372
000200 bd fb ee 38 ae a2 be 3f c0 5f 27 74 16 7b cb bf
       0.11966980829218606 -0.21469383880207538
000210 a8 b4 ca d0 85 66 74 bf de 3a 65 55 92 69 be 3f
       -0.004980585782203985 0.11879839501237252
000220 d8 8a 3c 77 b6 29 a5 3f 56 4f d2 90 41 e4 ae 3f
       0.041333868079410585 0.060335205963524416
000230 fb f7 d6 5d b5 1f d2 bf 44 27 9c f5 d9 9d d8 bf
       -0.2831853310016183 -0.3846344851050285
000240 cf 4c d1 e3 b9 56 d5 3f b8 d2 56 3a 7d 40 a1 bf
       0.3334183430462873 -0.03369513833186971
000250 53 e9 fe f0 d3 93 c8 3f 4d 64 3b fb d8 e5 cd 3f
       0.19201134936686035 0.23357689158618414
000260 06 8e f2 07 ab 19 96 bf 98 66 be 1e ea 8c c6 3f
       -0.02158229099280897 0.17617537022743046
000270 9d c0 ad 30 87 83 c6 3f 39 dd 7d 6b 53 4e d5 bf
       0.1758889186562599 -0.332905631038972
000280 ca 37 ae cc 8f 63 a6 bf 53 5e f2 18 b8 95 d5 bf
       -0.04372834561864598 -0.3372631305332778
000290 09 b5 1e 85 31 b8 d6 3f 34 59 74 82 8c 0c b8 bf
       0.35499227523799043 -0.09394148049282053
0002a0 d0 6b db 1a 66 48 c1 bf 4f 91 44 62 2d 78 d0 3f
       -0.13502193747885238 0.2573350391051194
0002b0 10 31 b9 db 55 32 b2 bf 7d 9c 7d 3c 54 78 cd bf
       -0.0710805570062727 -0.2302346511234851
0002c0 a2 f5 91 78 1b fe c2 bf 30 2d 16 36 e6 fe 8b bf
       -0.14837973963942114 -0.01366977551039969
0002d0 d6 3a 69 af 59 94 d6 3f aa ec e4 95 e5 6c bb 3f
       0.3528045857428145 0.10713038358237506
0002e0 76 d6 4f e7 26 77 c6 3f 83 f6 27 7c 1b f1 b9 3f
       0.1755112294628593 0.10133525639681733
0002f0 07 3b 65 6a e7 5e b9 3f 30 11 88 c7 7e ed b7 3f
       0.09910436961693501 0.09346763965010463
000300 9e c6 8d 07 87 1a d4 3f 5a 73 aa be 1e 19 d2 bf
       0.31411910760571427 -0.28278320903500787
000310 fc f7 e2 4a 47 79 ac bf 74 7d 1b 94 f6 d6 a5 3f
       -0.055612781421118 0.04265566404296353
000320 e2 d8 7a 2c c8 53 aa bf fc e0 61 30 c7 db d3 3f
       -0.05142045538870989 0.31028918957555596
000330 d2 4c 59 cd 15 af ba bf e0 6d 92 0a 64 8d b8 bf
       -0.10423408759497768 -0.09590745218377306
000340 36 fc ad 4d 36 13 bd bf 00 0a 90 a6 06 51 bd bf
       -0.11357440372920355 -0.11451760832282076
000350 9e 31 60 98 11 a6 ca bf 4d ad f4 5d 18 21 c5 3f
       -0.20819301548216357 0.16507248485263873
000360 36 10 8c 63 05 1a b2 bf 01 b7 b5 13 bb 43 c2 3f
       -0.07070954971646945 0.14269197904962286
000370 53 04 6f 47 22 1a 92 3f 80 e0 26 f6 4b 71 77 bf
       0.017677817926373084 -0.005723282551507336
000380 33 2e 9e f0 9d 45 be 3f 14 b3 e9 8a 19 1b ce bf
       0.11824977039776101 -0.23520201952796838
000390 76 d4 27 8a 9b 77 ab 3f 3d 62 a8 5e 3e 59 c0 bf
       0.05364690839261581 -0.1277234995075264
0003a0 d5 ea 5b fc 21 24 cd 3f 52 23 a5 cb e8 3d b9 3f
       0.2276651842328962 0.09860091182521316
0003b0 f0 00 ec f6 91 67 d6 3f 27 b9 88 b7 94 ae d9 bf
       0.3500714217516494 -0.4012805740666345
0003c0 1b f9 47 2b 61 e1 a7 3f a1 8f 84 e9 96 3e d6 bf
       0.04664138463339126 -0.3475701599547794
0003d0 cc a8 b6 5e 9f 59 98 bf 80 0e 0f de 02 ea a9 bf
       -0.023779382854322503 -0.05061348877600569
0003e0 99 48 5b 24 9d 06 c1 bf e0 53 71 15 20 59 65 bf
       -0.1330143382570597 -0.0026059748302409286
0003f0 ec f1 65 83 66 71 ca 3f ec 7e 4a 9a 61 0b a0 bf
       0.2065857068627247 -0.03133683212695168
000400 37 f2 a4 71 96 ff ca bf cc 64 84 ab cc fd bd 3f
       -0.21092491673506839 0.11715392291479815
000410 20 02 f6 86 4b 2f b8 3f b6 ff 5d db ca c0 b9 3f
       0.09447166485734515 0.10059802871364706
000420 24 06 72 2e d0 b3 a3 bf 28 2a 9b d7 a2 1e 7c 3f
       -0.0384812409111073 0.006865154364002403
000430 db 28 b2 69 af 09 d1 bf 76 ec ff e4 0c 49 d2 3f
       -0.2662161380946039 0.28570864070179114
000440 4b b3 31 c1 54 b2 9e 3f ca f2 21 8f 5d 5c c4 3f
       0.029977154056200644 0.15906877030274408
000450 17 76 4e 55 00 dd c1 3f 1c 42 98 b3 19 55 ce 3f
       0.13955692448955467 0.23697205800319032
000460 16 d0 ad b7 e0 a5 dc 3f ac 0c 2c af 0d a9 d1 bf
       0.4476243776073273 -0.27594320398948
000470 a0 aa fe f8 cd 75 ac bf 30 66 44 f3 a1 25 c7 bf
       -0.05558627762305446 -0.18083595636635286
000480 c1 ab 0c e7 9e ab c7 3f 78 5b bb 1d 1e c1 c6 bf
       0.18492494851792965 -0.1777684827017898
000490 b6 e4 ab a3 50 e0 b6 bf bd 74 95 e2 cd b2 d4 bf
       -0.08936027522931309 -0.3234133446438355
0004a0 2b ad 0a 0e bd a7 c7 3f 6d 0c e0 f8 57 37 b0 bf
       0.18480647264127845 -0.06334447694830354
0004b0 ff f5 41 ad b4 20 d6 bf d9 65 07 95 39 11 d2 bf
       -0.3457462017030081 -0.2823013263092356
0004c0 5d 41 01 68 2f e5 da 3f 6d 70 83 57 8d a7 d1 3f
       0.4202383533165824 0.2758515696166402
0004d0 30 f1 78 af 56 9e ce bf 2b ad de 5a 5a 15 d1 3f
       -0.23920711105336911 0.266928280582493
0004e0 05 98 43 34 97 45 b4 bf 76 65 07 01 17 0e c6 3f
       -0.07918686891534328 0.1723049883865248
0004f0 e0 8f f9 bb cd 5a cf 3f 49 c2 46 9f 67 64 a1 3f
       0.2449586074682193 0.03396915263454454
000500 56 42 2d ca 58 a9 c8 bf 24 e7 f7 95 63 62 84 3f
       -0.19266805526651137 0.009953287138148754
000510 fc 23 55 70 6b 91 b1 bf 58 f4 19 ea 91 cf ba bf
       -0.06862517826552045 -0.104729766515406
000520 8c 90 08 4a d0 67 9b 3f 6b 11 bb d9 da 70 b0 3f
       0.026763205069201976 0.0642220288819481
000530 c4 2c 2b 57 02 cd ca bf 08 24 19 c7 ca 83 8d bf
       -0.20938138252527072 -0.014411529732699449
000540 a6 3b 80 84 bd 12 d1 3f 8e 5d 9f 7f 0e 87 a8 3f
       0.266768817325039 0.047905400351449065
000550 00 40 a3 3f 91 2e c6 bf 1d 31 09 b2 1f 11 dc 3f
       -0.17329612357434598 0.4385451544410602
000560 48 22 5b 3d 22 a1 a8 3f 43 92 a5 63 43 f8 c1 bf
       0.04810435294126997 -0.14038889279903985
000570 9c 7b ab c5 f3 0d c7 3f 84 e0 c5 d3 b0 48 a8 bf
       0.18011328842018492 -0.04742958626860719
000580 8a ca af c9 8c 77 cb 3f 12 21 3b 18 9b 7c b2 3f
       0.21458587501509313 0.07221383420540331
000590 b8 7d a1 a1 15 9d 80 bf ac cd 96 5d 4a 49 98 3f
       -0.008112114901620213 0.02371708103392016
0005a0 28 f2 e5 73 a1 23 c1 3f 03 ff 28 7b 70 e1 94 bf
       0.1338998618993099 -0.02039123298368307
0005b0 14 b4 b2 c7 8e 21 ae bf 16 1b 74 2c 9c 62 bf bf
       -0.05884977519722426 -0.1225984200028559
0005c0 58 55 a5 a3 c8 df cf 3f f7 14 34 7f b2 69 ac 3f
       0.24901683798331464 0.055493906047596235
0005d0 28 6f 59 38 f2 8a 76 3f 2d c3 af 44 00 a0 c1 bf
       0.005503603145907289 -0.1376953444846775
0005e0 e0 16 c6 1a 13 1c 9c 3f 49 d6 07 22 c7 3b 9e bf
       0.02745084620393967 -0.02952490945059186
0005f0 f9 7f 98 3a db 6e d1 bf 4c 60 a7 04 08 c1 c4 bf
       -0.27239113542782395 -0.16214084841954202
000600 5a 0b 7a 05 cd ad cb 3f 70 71 29 2b 68 4d af 3f
       0.2162414814702867 0.061137442845139556
000610 77 d4 d1 d7 8b bf a1 3f d1 e0 80 b0 22 7f c3 bf
       0.03466450700299444 -0.15231736772853435
000620 88 43 58 0d 5b 12 cc 3f 92 05 1d 55 ab b1 b1 3f
       0.21931017066574676 0.06911726787531894
000630 93 fc 02 04 9d e0 c1 3f 26 c0 47 0b 9e 39 ca bf
       0.13966715522653725 -0.20488334227366173
000640 61 1f ea 9f 53 69 d0 bf a0 5d 38 d5 c7 39 cb bf
       -0.25642862908033776 -0.21270082389012845
000650 0c 81 c6 5a 54 1c b6 3f 4e 77 9f b3 61 57 b8 bf
       0.08636977401920748 -0.09508333812069944
000660 08 ba 42 1f 63 da 8f bf 9c a4 06 99 e5 dd b6 3f
       -0.01555325926923691 0.08932337747559632
000670 fa 2f 0f 7d df ca d7 3f 46 5d db 2f c0 5b b8 bf
       0.37175738537621295 -0.09515000503903534
000680 78 06 dc 70 3f 3c c1 3f c2 5b 88 37 1b 15 cb bf
       0.1346511174270295 -0.2115816136508482
000690 22 4f 65 eb b6 14 d2 bf 10 11 84 a9 3c fc 91 bf
       -0.2825143145357619 -0.017563770147732305
0006a0 aa 19 27 34 9b af ac bf f0 b3 d0 2f a0 ab 9a 3f
       -0.05602726947431631 0.026045325201426495
0006b0 a8 ec af 89 7f 12 a4 bf 33 bc 4b 27 82 2a c3 3f
       -0.039203630025406 0.14973475378744325
0006c0 79 d9 fd a8 34 0c ca bf 34 47 4d 87 bd 6a c3 bf
       -0.20349748851340246 -0.151694956841817
0006d0 13 6e c3 af 1a 2a d4 3f 6b 1f d7 08 41 05 c6 bf
       0.3150698391379773 -0.17203534061104206
0006e0 89 5d f0 11 e4 7b d3 3f 38 3e de 38 c2 01 b8 3f
       0.30443670036171305 0.09377683533079384
0006f0 8d 2a 13 8f d6 cc d4 bf 7b ff f0 5e 50 15 d7 bf
       -0.3250023266997822 -0.36067590018864565
000700 dc 56 9c 75 8d 8f a4 bf 99 46 39 f1 95 87 d3 3f
       -0.04015771923711295 0.30515049511914466
000710 a8 52 48 29 75 71 8e 3f 00 d0 ea 77 ca 07 3e 3f
       0.01486484081491686 0.0004582280452425369
000720 56 b7 62 f7 f2 f6 b2 3f da 12 49 f4 db ae b1 bf
       0.07408064403236145 -0.06907438959121795
000730 05 48 0b 03 39 64 cd bf 10 3d 3b f4 ab d6 b8 3f
       -0.22962105415950887 0.09702563011818577
000740 80 a6 1f d9 fa a1 62 3f ee 5d bc 5f f7 4f ba 3f
       0.0022745036485403713 0.10278268897342688
000750 ae fc ed 77 21 e0 c7 bf e8 de 3d ce 99 46 b5 3f
       -0.18652742725314425 0.08310853276440933
000760 4d d7 4f 3e eb a9 b3 bf 62 12 7f 16 ed 49 bd 3f
       -0.0768115069511996 0.11440927314021956
000770 7b 14 04 8b 19 6a ba bf 72 be 1e 4f 77 3a d3 3f
       -0.10318145412391459 0.30044348455974224
000780 a7 0c d0 c8 13 d8 af bf 9c 33 42 7f ca 31 bc 3f
       -0.062195413840549656 0.11013475043200888
000790 22 77 89 1a 5f 87 ca 3f 3f 15 ba f4 a9 2e b7 bf
       0.20725621028662383 -0.09055578446176059
0007a0 04 0a b3 a5 70 85 d2 bf e0 58 ab a0 63 15 b9 3f
       -0.2893945329816747 0.09798262283888759
0007b0 76 2b 20 3b ec f8 d0 bf 6e 10 6c 74 45 cf a1 3f
       -0.2651930405997328 0.03478447958153273
0007c0 70 7b 9f e5 04 8d 6c 3f 42 27 16 38 ec 92 c7 bf
       0.0034852119106142873 -0.18417122591591278
0007d0 ba 0f 56 f6 29 9e d1 bf a9 3f ea 65 52 d2 d0 bf
       -0.2752785592676862 -0.26283702805175807
0007e0 81 c2 43 e4 ba 0f c2 bf 96 59 4d 35 94 18 b3 3f
       -0.14110504289375927 0.07459379483530024
0007f0 26 b2 9f 4e 7d 9f a1 3f 8e 81 6d de d0 74 d4 3f
       0.0344199331737836 0.31962987634144546

embed.bias f8 [32]
000000 38 cb f5 e1 10 c7 ae bf 76 79 fa eb 45 6f ac 3f
       -0.060112502654098454 0.055536446624716726
000010 89 78 8f 68 cd 7e c6 bf d4 d7 2e 54 74 48 8d 3f
       -0.17574470143785373 0.014298352068958943
000020 4e d9 bb 34 b5 97 d2 bf 0d 6f 6e 01 91 43 c2 bf
       -0.2905095114687314 -0.14268696374789905
000030 33 aa fb 31 29 86 b5 bf eb 42 c1 12 00 d8 cb 3f
       -0.08407838316240017 0.2175293056084436
000040 7c 00 87 b2 a4 72 c3 3f 3a 0a 58 24 1a 2e d3 bf
       0.15193613736301248 -0.2996888499184568
000050 08 a2 88 d1 c3 3d b8 3f 8c 20 31 87 16 d8 b2 3f
       0.09469245782441515 0.07360974121650282
000060 7a d6 80 30 bc d0 91 3f fa 3d 5b 80 a3 a3 a6 bf
       0.01739782377281649 -0.04421721402979624
000070 84 4c ce 57 b6 21 86 3f 58 77 9e 75 f9 cb a8 3f
       0.01080648856603817 0.04843120156077302
000080 b0 ac 9d c5 4e d3 c1 3f c5 d1 99 11 02 29 cf bf
       0.13926109933104192 -0.24343896731774187
000090 9a ad 25 e4 98 22 d0 3f 56 d8 cd af 16 30 d0 3f
       0.2521116474151427 0.25293509643905077
0000a0 5e 8c c2 dc d7 4d a2 3f 2f 49 14 55 ae 84 ba 3f
       0.035750146578060735 0.10358705117349552
0000b0 8e cf 88 27 09 23 91 3f 8c 65 df 06 84 36 9a 3f
       0.01673521331595356 0.025598586005661825
0000c0 48 1b a3 c7 43 40 cd bf 0a 7f f6 f1 10 04 c0 3f
       -0.2285237049856852 0.1251240903338771
0000d0 f4 ce 33 e7 87 81 d0 bf ee 23 93 4b 5e 6f c3 3f
       -0.25790593698842135 0.15183619203733606
0000e0 8a b5 66 4a 32 52 bc bf f4 a7 45 34 68 ba c0 bf
       -0.11062921825824482 -0.13068869163845387
0000f0 94 df 6e 0e c7 73 ae 3f c1 56 7d d1 b7 77 b0 3f
       0.05947706271348277 0.06432675232403097

pos_enc.pe f8 [1, 12, 32]
000000 94 10 91 6d 4a b4 9f 3f a4 04 02 31 5c d9 cc bf
       0.03096119207135979 -0.2253833045288377
000010 fe 52 7b 63 72 45 bd 3f 88 e8 b9 2f d0 d2 d2 bf
       0.11434092453721331 -0.2941170183254447
000020 9e 37 3f 1d d1 ef 9c bf 76 c7 c1 a6 1f 65 c4 3f
       -0.028258578691569995 0.15933604853085698
000030 8e 70 75 a0 9c 3b ca 3f 7c 24 5d a8 f0 96 b5 3f
       0.2049442084779724 0.08433441267438185
000040 d3 2a 70 5c 41 2d d3 bf 63 7f 76 4d 85 03 ce bf
       -0.29963716532863066 -0.23448244364135026
000050 24 43 c8 aa f4 4f cc 3f 3d 72 52 56 4a 4c d8 3f
       0.22119005526521918 0.3796563952435326
000060 66 83 99 7c 00 8e c5 bf cc 74 eb ef a2 56 c5 bf
       -0.16839605411498865 -0.1667064353449973
000070 99 21 0e c1 2b d6 d6 bf 22 77 60 54 41 e1 c8 3f
       -0.3568219552330674 0.1943742429729634
000080 df 2f 0e b1 5b 53 c1 bf 9a 81 ae 5f ca 78 86 3f
       -0.13535638947757797 0.010972577137921036
000090 c9 a4 a0 c0 d7 97 ce 3f cd 54 4b cd b7 9b a5 bf
       0.23900887399330475 -0.04220365887673836
0000a0 f0 c8 f5 0f 6c c4 c0 3f ce 2c 47 b1 90 02 c1 bf
       0.13099432734777094 -0.13289078384545977
0000b0 78 b2 64 dd ba fa bd 3f 05 3b ef b1 f2 3a d2 3f
       0.11710708527670899 0.28484790207305394
0000c0 7e 31 03 b1 16 a7 aa bf 52 81 bc 7b 0d 40 ba bf
       -0.0520560351447754 -0.10253986616999569
0000d0 5e 5c 50 50 dc 39 b8 3f be 38 58 7c df a4 c7 3f
       0.09463288269795231 0.1847190243865437
0000e0 b1 be f1 36 c7 61 c6 bf 98 68 d7 a1 80 ce b6 bf
       -0.1748589533121865 -0.08908847762305283
0000f0 a3 ac 29 41 0b cc c9 bf cb b0 51 0c e4 79 c2 3f
       -0.20153942758347396 0.14434481240767236
000100 b6 12 f2 b7 3a 48 ce bf 0c 57 3f 5b bc bd b8 3f
       -0.2365792654201379 0.09664513805122626
000110 82 84 19 95 67 80 b6 bf b9 74 51 fa 7d 58 dd 3f
       -0.0878967989933859 0.45852612919936636
000120 f2 42 d4 23 c9 f6 d4 bf 66 ae e1 aa 7b 51 b1 bf
       -0.3275626039403924 -0.06764958307183519
000130 6b 68 2a 74 ec 17 b3 bf b8 eb 05 0a 66 a6 d7 3f
       -0.0745837958915289 0.36953116396733376
000140 08 00 1e cf 8e 51 d7 3f 34 b4 c6 26 57 96 da bf
       0.3643528959873952 -0.4154260519670203
000150 56 05 4d d9 dc bc c5 3f c8 2a 44 22 e9 d7 ab 3f
       0.16982613191980062 0.05438164275445484
000160 be 0e 12 bb 35 dd ce 3f c9 97 4e 65 b8 73 c1 bf
       0.24112578996947848 -0.13634400316840203
000170 24 54 4f 8e 51 2b c1 3f 12 db d6 e2 1d 30 b2 bf
       0.13413447808002943 -0.07104670322483411
000180 16 13 7d 72 09 3f c6 bf a6 68 d7 56 e7 b8 c1 3f
       -0.173798733618377 0.13845531215958323
000190 cb 3c 35 db 63 80 c8 bf a7 c9 43 93 08 5c d4 bf
       -0.19141815379632585 -0.3181172788746615
0001a0 68 ec b0 81 28 cf b2 bf bf 31 24 3f 27 3e 89 3f
       -0.0734734837177925 0.012325579275533792
0001b0 e0 8c 41 b3 61 c4 7a bf 48 4b 82 3c cf 8d 86 bf
       -0.0065349403776935044 -0.011012667688452674
0001c0 74 c3 35 25 0a fb b5 3f 3b 26 70 4a b6 4f ad bf
       0.08586181076476668 -0.05724877985637674
0001d0 fd 4d 5a 3d 26 c8 c2 3f 60 be cc 50 10 0e 82 bf
       0.14673307414760464 -0.00881588694173202
0001e0 fc cb 0d 88 2a 5d cb bf 8b 20 e8 bb 99 58 d7 3f
       -0.21378070491081747 0.36478274679439754
0001f0 c8 76 3e d5 cb 4d b4 bf 6a 24 2b 86 27 c7 a9 bf
       -0.07931207615043967 -0.050347552421563815
000200 90 77 b9 c9 36 32 cb bf 79 60 66 27 44 c9 a7 3f
       -0.21246991014316707 0.046457414445456764
000210 20 9a ed 44 51 83 87 3f 90 0b 9b 00 19 36 69 bf
       0.011480936923999485 -0.003077553589578348
000220 7e b1 aa c7 3d a4 cb 3f d4 31 63 d6 42 90 d8 3f
       0.21594974755624813 0.3838049977901197
000230 76 c5 1b 1f 21 ae d0 3f 4c 54 0c bd 93 92 b9 bf
       0.2606280139726417 -0.09989283910211205
000240 c8 f7 55 34 e1 0d a4 bf 8a b3 cc 70 b3 4b c1 3f
       -0.03916839374413389 0.1351227093486183
000250 71 13 d1 e8 c3 71 cd bf 4b 02 a8 b2 7a d8 b4 bf
       -0.23003434055331298 -0.08142821180082042
000260 c8 5b 14 ae 2a 47 d5 3f 94 68 75 3d 08 b2 b2 bf
       0.3324686717982641 -0.07302905559973488
000270 4c 6e 3f bd 75 02 ca 3f 31 ac eb 23 bc 37 c2 bf
       0.20320007076849078 -0.1423258948701416
000280 70 0c ac 06 31 b2 96 3f b6 6d a4 60 31 f7 d2 bf
       0.022164121658545033 -0.29633745610928075
000290 80 bd 14 ca 93 f2 7e 3f 78 98 43 ce 41 ca 75 3f
       0.007555558492910008 0.0053198404823203635
0002a0 ee 80 c9 cb 1b 11 b2 3f dc 26 ee cc 39 9e a8 bf
       0.07057355618735858 -0.04808216692533815
0002b0 78 15 a0 6c 4d 50 d1 bf e8 3a 01 77 87 34 74 bf
       -0.2705262718958106 -0.004932908210391253
0002c0 ea 7a cf dd 52 34 bb 3f 2d 4a 33 a7 64 24 d5 3f
       0.10626714625639591 0.33034626320037114
0002d0 03 28 d5 b3 50 a6 c7 3f a6 65 4f 28 21 71 d0 3f
       0.18476303845301353 0.2569048780111082
0002e0 62 3a 6e 0a ee f1 bf bf 5d 6d 4e 5e bf 67 c3 3f
       -0.12478530649807731 0.15160362343599845
0002f0 52 9a 11 fd 8e 59 ca bf 86 7b a6 10 ed 8e b0 bf
       -0.20585811001656623 -0.06468087822439203
000300 d0 ea f7 be a8 75 96 3f c4 64 66 03 0c ee c6 bf
       0.021933209090984118 -0.17913961568846137
000310 b1 7b af db 95 95 c7 bf f4 9d d2 e2 ca 10 cb bf
       -0.184252483623792 -0.2114499671490503
000320 ba 88 ca b1 74 f1 cc 3f e2 ea fc 83 f1 7f c8 bf
       0.2261186473961681 -0.19140452332233965
000330 5c 3a 39 83 29 e2 c6 bf 56 0e 06 82 71 54 cf 3f
       -0.17877692134284728 0.2447645077592024
000340 5c 4d 7f a2 3c 53 ba 3f f4 a9 46 8b 23 43 8b bf
       0.10283259360521896 -0.013311650932185316
000350 15 a5 a6 6f 4f cf c7 bf 51 89 96 85 f3 72 c8 bf
       -0.18601410819727762 -0.19100803397038615
000360 f6 37 d6 8e f5 63 bb bf 48 01 2e 7f 4a 35 d2 bf
       -0.10699400651193955 -0.2845026247014357
000370 99 48 2e 8b 59 1c c6 bf 12 c0 b6 23 da 83 d1 3f
       -0.1727401666253783 0.2736726139801259
000380 c6 ca 9c 74 aa c9 c8 bf 3f 0b 47 1f 82 fd b5 3f
       -0.1936543530842611 0.08589947951899733
000390 2c 88 de 76 67 2f 9e 3f 52 28 d2 bf ba a2 c9 bf
       0.02947770751018923 -0.2002786099076866
0003a0 7c a5 4c df ef f8 be 3f 1c 39 a9 45 30 9c c6 3f
       0.12098597718854437 0.17664149667184226
0003b0 80 6f 86 84 b6 d2 c4 bf 70 ce 98 17 05 42 74 3f
       -0.162680449208775 0.004945773974714393
0003c0 14 b3 b7 08 46 f2 b6 3f bc cb e9 43 72 e4 cd bf
       0.08963430130797817 -0.2335341292960872
0003d0 a4 01 95 d6 9d d8 98 3f 91 bb a5 98 83 66 da 3f
       0.024263826582002004 0.41250696093532563
0003e0 f0 c5 d1 9e 09 94 c7 bf bf 71 0a c7 5c 7b c2 3f
       -0.18420524840216457 0.14438972204960795
0003f0 d2 0e ec 35 77 44 b0 3f 82 10 4b 79 f0 8f ca bf
       0.06354470316369579 -0.20751768038292445
000400 44 7b fb aa b9 9d a5 3f 12 f1 b4 ca 4a 19 b3 bf
       0.04221897327601323 -0.0746046776666314
000410 c0 70 47 48 1a b6 93 3f 56 4d 46 ba 65 e9 d0 bf
       0.01924935403973005 -0.26424544516449566
000420 c8 ff 20 71 24 7d c6 3f e2 67 41 4d d9 8e b2 3f
       0.1756940414797994 0.07249220024223704
000430 5d c0 be 84 3b a7 c3 3f 9b 34 ca e7 9a f7 d0 3f
       0.15354103070922323 0.26511261592606566
000440 83 05 84 1f 4b a5 d4 3f 2d fd ae ea ec 75 d4 bf
       0.32258871152597396 -0.3196975986320066
000450 33 53 f4 98 08 7e 9b bf fc e8 d9 14 9a 02 c0 bf
       -0.026847967467875832 -0.12507940309644272
000460 d9 4d 54 52 87 77 cb 3f 22 27 4f 84 b2 b3 b7 3f
       0.21458522338853817 0.09258571367459159
000470 4b 40 9f d8 09 53 d0 3f a6 b9 1d a9 c2 7e bb bf
       0.2550682654809903 -0.1074029600983751
000480 ec de ec 5c be 64 b7 bf 33 3e 21 d7 62 d5 ac bf
       -0.09138097542460927 -0.05631550670716159
000490 2e 4f aa 8b 8f 6b b2 3f 70 0c b9 33 a2 b5 99 bf
       0.07195374641224525 -0.02510693970385741
0004a0 40 65 7d 41 e5 a4 45 bf 83 a8 8d cd e8 65 d3 3f
       -0.0006605262196714215 0.30309505532807907
0004b0 e9 f9 a6 12 b8 92 8f bf c4 1d 78 fe 94 3d c0 bf
       -0.015416563100072405 -0.12687933373693572
0004c0 62 2d 8d c2 54 d9 aa bf 0e bc d9 6b f8 9a c1 3f
       -0.05243935465713424 0.13754182115687325
0004d0 e0 23 09 9b 2b ea cd 3f 12 99 2b 83 fe 5a ad bf
       0.23370881147482603 -0.05733485556793218
0004e0 88 55 41 01 3c 56 be 3f 1a 11 1d 95 04 4d ba 3f
       0.11850333243031319 0.10273769989459361
0004f0 60 eb 6a 8b ad 49 a1 bf 88 22 1c 95 14 93 bf 3f
       -0.033765242832905384 0.12333801880243744
000500 ca 6e 8e 56 b2 63 c2 3f c9 fa 4a d9 57 89 c8 3f
       0.14366749979386945 0.19169138059620242
000510 14 64 76 8d 6b 64 cc bf f8 e5 ec 49 f1 90 b7 bf
       -0.2218145790800753 -0.09205539755648562
000520 1b cd 0a d5 92 85 da 3f 37 af 1b bf 19 55 c3 bf
       0.41440268330480173 -0.15103456336452734
000530 a1 d4 2b 7a cf 57 a7 bf aa 78 cc e7 f8 bf d5 bf
       -0.04559181562755411 -0.33984205853074434
000540 32 76 ca 3d ff 05 cc bf d0 81 f1 ff 1d f4 b8 bf
       -0.21893301503307466 -0.09747493265741203
000550 d0 7c b9 5c 96 4d b7 bf 98 60 ee 12 31 3e c9 3f
       -0.09102763904364797 0.19721043991444698
000560 64 f6 43 a9 2f 3a d3 3f b4 b7 91 31 de e4 84 bf
       0.3004264023764789 -0.010202155959827632
000570 1b ba ab 48 a6 c5 bd 3f 0a b4 32 38 03 7a ac 3f
       0.11629714273633633 0.05561838208209487
000580 0c ac 9f 39 0d 93 ce bf dc dc 2d fb 72 cb bf 3f
       -0.23886266053827432 0.12419813759139536
000590 68 f0 85 5b 54 d4 c0 bf b2 72 e5 6e 3c 83 c1 3f
       -0.1314797827616332 0.13681750693185318
0005a0 ee eb 4a 6d 87 98 ca bf 0c 36 ea bc d4 c0 bf 3f
       -0.20777981602245127 0.12403611766986716
0005b0 42 80 78 7a 70 33 b3 3f a1 f0 e0 69 f0 2b bc bf
       0.0750036524773359 -0.11004545769623288
0005c0 3c 09 24 95 cc 58 c1 bf d6 fc 69 ad 14 84 b8 3f
       -0.1355224350191494 0.09576539262524206
0005d0 84 8e a0 be 82 03 c2 3f fa 9f 19 19 6d 34 b7 3f
       0.14073213870971213 0.09064370978160233
0005e0 b6 89 e0 0e 72 84 be bf 13 42 48 bb 8d b8 b0 3f
       -0.11920845854959947 0.06531606504746205
0005f0 e2 7b 75 8c 9f 02 ce bf 78 c4 77 94 73 54 c0 bf
       -0.2344550548395708 -0.1275772547665246
000600 f1 f7 23 f6 b4 40 d5 3f 1c ef 9d 46 16 dd c7 bf
       0.33207439458044435 -0.18643454025356554
000610 e2 c5 4c eb b0 21 90 3f 60 e9 0c 3d 1f c2 6d bf
       0.01575352131039221 -0.0036326036573914172
000620 bd e8 ac 29 50 3d c4 3f 62 32 4d 73 3c 55 9d bf
       0.15812112841542172 -0.028645462548683283
000630 8f c0 32 81 63 c0 d2 3f 2a c7 e1 cf 6e 23 ab bf
       0.29299247376457854 -0.053004706264699955
000640 cc ff 2c 64 c4 b8 bb 3f 61 1d a7 40 58 0b 9a bf
       0.10828807302186688 -0.02543390173539473
000650 65 9d 01 c7 8a 62 b3 3f 79 c9 f6 b6 e5 b9 d2 bf
       0.07572238310387076 -0.2925962721593787
000660 a8 80 25 da 95 d5 cd 3f 06 50 98 4d 6a 8d c3 3f
       0.23308060790714547 0.1527531508332915
000670 20 4a 6a 7b 4f b5 bd 3f 7e 87 48 30 ce c8 d2 bf
       0.11604782832208871 -0.29350619044463844
000680 20 51 cc e0 b8 c5 b8 3f b4 a0 47 b6 78 a7 b8 bf
       0.09676700103984048 -0.09630541277113275
000690 5c 39 0c 77 a5 c8 d2 bf 08 fc 58 35 22 4f c3 bf
       -0.293496481187409 -0.1508524666296298
0006a0 9b c9 85 01 4a 6a c0 3f 6c bb 5d bc 0f 04 b9 3f
       0.12824368547769613 0.0977182230833315
0006b0 a4 8d 69 74 33 08 bc 3f a8 61 ff 6e 3a a1 c1 bf
       0.10950013725373836 -0.13773279590419674
0006c0 ac 7f 8c f1 f2 3e b5 bf 8d 8d d2 71 92 f2 91 3f
       -0.0829917754858786 0.01752690143315543
0006d0 aa 78 a4 7a 19 cd c5 bf 5c 24 48 42 a3 d1 a2 bf
       -0.17032164085771245 -0.03675565895179808
0006e0 d8 2a db 74 52 c4 a2 3f 48 8c fc a9 36 6e 51 bf
       0.0366540687224039 -0.001063874609777542
0006f0 82 7d 5a 9a 8f 84 ae bf a7 f5 43 6d 0f 55 d0 3f
       -0.05960510977933621 0.25519166632133267
000700 37 43 7d 37 4c cf c8 bf 5d 8c d8 09 7f 08 a9 3f
       -0.19382622441710293 0.0488929461974059
000710 42 21 9d cc 29 71 a5 3f c9 19 d3 9d ba 93 d6 3f
       0.04187899229742921 0.35276666081008706
000720 ec a7 81 99 ab e9 94 3f 9b 99 18 c9 15 75 c0 bf
       0.02042263149670724 -0.1285731536783715
000730 a8 6d bc cb 2b 37 8a bf 29 51 15 d8 39 74 d7 3f
       -0.01280054297926976 0.3664688692272358
000740 e1 7d a7 f0 9c 4b a3 bf 92 e1 96 fd 4b c8 c6 bf
       -0.03768625676797988 -0.17798757440847318
000750 39 bd 22 3c fa 9e b1 3f cc 96 f6 59 43 25 c1 3f
       0.06883205383450254 0.13394967930542234
000760 26 02 c4 70 5a 12 ba bf 44 91 5e e8 a0 ee be bf
       -0.10184254887645547 -0.12082868264275698
000770 4c f6 ad ec 08 e3 c4 bf be 17 5b a2 b5 e7 c8 3f
       -0.16317855412119042 0.19457121303110897
000780 a6 88 28 b0 47 a8 db 3f 66 2d d2 25 02 a4 d4 3f
       0.4321459980293504 0.32251027768571416
000790 64 35 a0 b0 42 0c b7 3f b7 64 d2 1a 49 cf b1 bf
       0.09003083049920729 -0.06956917671995454
0007a0 41 44 ac 2f 9e 4f c5 3f b4 fb 09 6c 71 22 82 bf
       0.16649224593905568 -0.008854757413471727
0007b0 24 6a 12 80 df 54 97 3f 98 6c c1 de 28 44 ca bf
       0.022784702484026323 -0.20520506741272437
0007c0 c2 57 13 c5 cf 9a c3 3f 14 f0 27 77 9a 99 bd 3f
       0.15316197512464497 0.11562505158502773
0007d0 69 2d 67 7c d4 33 cc 3f 9a fc 0a 51 b8 58 e0 3f
       0.22033172678343796 0.5108300764913054
0007e0 61 3e c9 3c a7 68 b9 bf 4f 98 d8 77 ee 8b c7 bf
       -0.09925313219104616 -0.1839578709779652
0007f0 f0 ad a9 02 96 35 90 bf 3e ee 21 cb 91 ee c5 3f
       -0.015829414284253163 0.17134306353169565

transformer_encoder.layers.0.self_attn.qlinear.weight f8 [32, 32]
000000 c0 8a e2 25 e0 22 5a 3f a8 88 ac c5 c2 d9 cb 3f
       0.0015952290482707382 0.21758303310440863
000010 59 1b 38 29 ed a5 c1 bf 30 ee d3 4c 91 6a d6 bf
       -0.13787617218641904 -0.3502543688079838
000020 f8 23 b3 53 1d 10 b6 bf b7 ca 10 16 07 31 b1 bf
       -0.08618338864756925 -0.06715435303412219
000030 f8 6f 81 ee 83 bd d1 bf 38 ec 76 3e 14 78 d2 3f
       -0.2771920994907755 0.28857904529622
000040 d4 8b 6c 5f a2 87 d6 3f 34 5a 2f 0c 4b 3a d2 bf
       0.35202845877409783 -0.2848079318040704
000050 ee 9e be ce ba d8 b3 bf c4 e4 c1 28 b7 b2 c4 3f
       -0.07752578303790944 0.16170396318537972
000060 84 61 dc 27 ee d8 bd 3f d2 27 ef 62 42 f0 bf 3f
       0.11659134362378692 0.12475981631646896
000070 b6 4c f0 3b 3e 5f d3 bf 2e 55 15 aa 12 d6 c3 bf
       -0.30268817761789124 -0.15497048668718477
000080 d6 42 1b 1e f0 e1 b2 3f 44 b3 27 e3 fa 88 ce 3f
       0.07376003966352171 0.23855529872471426
000090 66 a9 d3 4d 27 d2 c0 3f ac 14 1d 6f 39 3f b4 bf
       0.13141337680947202 -0.07908972704633993
0000a0 78 5e f5 f1 2f 0f d0 bf f0 5c 19 18 14 18 ba bf
       -0.25092695835835555 -0.1019299086413985
0000b0 20 81 0e 68 a6 8f 87 bf 48 42 fa f4 1d be c6 bf
       -0.011504459429318603 -0.17767691098971938
0000c0 58 4b aa 70 28 bc c4 bf 79 d8 7e ce 5d 6e 9f 3f
       -0.16199212552290976 0.030694452026829275
0000d0 48 a7 16 b2 2b 8e bf bf ef 24 9e 16 91 ab d1 3f
       -0.1232631025110581 0.2760966034771419
0000e0 12 e7 d0 42 65 ef c4 bf 21 85 d5 1a fb 0e c1 3f
       -0.16355577242375624 0.1332696801210114
0000f0 3d 70 a7 18 d7 70 c6 bf 86 f5 ce 88 3e b1 cb bf
       -0.17531861022769304 -0.2163465660104686
000100 f8 a9 6c 2f bd b4 80 bf bf c9 94 bc 9c b3 d1 bf
       -0.00815723229387276 -0.2765876618970217
000110 6e 60 8b dd 4a 8c b5 bf d4 7c d2 be 4b 17 b2 bf
       -0.08417194279479798 -0.07066796692605531
000120 12 31 48 29 2a 44 c9 bf b5 06 7a e0 eb 85 c8 bf
       -0.19739272132608982 -0.19158695660376215
000130 48 db c0 f3 8f e2 b2 bf 20 23 29 60 93 9f b6 3f
       -0.07376956654557631 0.08837243173287535
000140 82 0f 0c 98 c8 91 c1 3f 5c 89 dd f1 ad 52 c9 3f
       0.1372614614884889 0.19783567724068518
000150 e4 9d 21 79 01 fb d0 3f 68 eb 98 ff c9 96 a1 bf
       0.2653201754496577 -0.034353554201934255
000160 9e 64 c5 18 03 22 98 3f 69 b5 6e d0 1c 14 b9 3f
       0.023567245852380674 0.0979631432407665
000170 68 2d b1 8b 8f cc be bf d8 8f 6f 94 f3 86 be bf
       -0.12030884895755423 -0.11924669622345563
000180 0f e2 2f c7 1a f6 c3 bf 18 ba 4b 98 a2 86 c5 bf
       -0.15594801641397324 -0.16817123829191938
000190 7c 5b fe ce 40 c2 b8 3f 48 70 fd 8f 20 9b b0 bf
       0.09671406796983989 -0.06486705317860342
0001a0 80 82 2d a4 96 68 98 bf 20 e8 1f 1e 6b 2f bb bf
       -0.02383647324620819 -0.10619229779686679
0001b0 14 44 92 86 67 c6 d4 3f dc 0d 30 0b e5 f1 bc 3f
       0.3246096433804848 0.11306602023255813
0001c0 e0 67 3c 3b c9 68 b4 bf 67 f5 74 aa d4 b5 d0 bf
       -0.07972390838804655 -0.26109806677035013
0001d0 16 8c 9d 47 c9 c0 cf 3f 06 69 c7 26 eb 85 b8 3f
       0.2480708694157278 0.09579343506576174
0001e0 c4 59 c4 fe 19 4b 74 bf 6b 4e 28 cf ee d7 ac 3f
       -0.00495443491333564 0.05633493689324783
0001f0 97 b8 04 2b 41 fd 90 bf b1 0f d6 a0 ca d1 ca bf
       -0.016591089487683588 -0.20952732899979545
000200 be fa e5 fd a7 65 d8 3f f5 81 26 57 f4 1c d9 3f
       0.38120460314523175 0.39239223967345477
000210 64 0d f7 40 86 41 c7 3f 5a 16 1c c6 dd 39 a4 3f
       0.18168714687463272 0.03950398486453528
000220 bd 70 41 53 b6 9f c8 3f 70 69 f4 e9 91 d8 c6 3f
       0.19237402978149545 0.1784841911656474
000230 bf ac 50 a1 fa f5 d7 3f 78 fc e7 4f 82 39 a7 bf
       0.3743883681624531 -0.04536063409249719
000240 88 18 46 ee c7 b1 cc bf 18 31 ed cd 13 8f b6 3f
       -0.22417544493163555 0.08812068727019484
000250 56 ad 6d ce 18 83 d3 bf fd ea 9c 92 a6 90 bf bf
       -0.30487651976610175 -0.12330094413202271
000260 ec 87 3e 91 9a c0 b6 bf 7c f0 4a c4 bb 48 c4 3f
       -0.0888764004326103 0.15846964916807227
000270 fe 51 c2 de 4f 29 d4 bf 08 1e b5 07 40 33 d5 bf
       -0.31502148393454366 -0.33125305893597146
000280 a4 0a eb d0 6e 17 a9 3f 94 6a 41 cf 9e d2 9f 3f
       0.049006903650952865 0.031076890373109636
000290 01 32 8d 05 9b 64 d2 3f a9 91 c4 dd 70 15 a8 bf
       0.2873904756750392 -0.04703858096243902
0002a0 49 2a e6 1e 63 2a c1 bf 3a 8e da 81 33 35 b9 bf
       -0.13410605438942216 -0.09846803589112421
0002b0 a5 c3 24 ef 20 1f ac bf ee 88 59 68 a4 7d c1 3f
       -0.05492499274476551 0.1366467961807482
0002c0 da 36 5a ed ce ec cf 3f 9a e1 72 b3 06 49 aa bf
       0.24941431607697134 -0.05133839550530013
0002d0 6a 20 d7 ff 04 28 aa 3f ea 4e ef d2 d6 83 b2 3f
       0.051086574774274876 0.0723242058732542
0002e0 1c a4 33 03 53 8b 87 bf 5d 21 1c 94 67 4f cf bf
       -0.011496208701332881 -0.24461073619773802
0002f0 84 0a 2d e2 8d 1f ce 3f 78 88 a4 1c dd 9d b9 bf
       0.23533795875308183 -0.10006505917820785
000300 ec 72 b7 a4 d8 97 a0 3f ce e4 33 62 0e 68 a1 bf
       0.03240849505139018 -0.03399701069606352
000310 d9 ff 61 2b d0 81 c4 3f 9c cc 6f 6c 08 3b d0 bf
       0.1602115833120468 -0.2536030825569442
000320 86 9b 12 71 52 3a c0 3f 79 93 c1 46 7b 37 d5 bf
       0.1267798473465655 -0.33151132497578534
000330 1c 38 1c 9c 11 7b b5 bf 6a ca 1b 65 43 69 90 3f
       -0.08390913068089428 0.016026547475983234
000340 42 6f eb df ae 17 c5 3f 06 35 7a ff 66 4b ba bf
       0.16478525098397695 -0.10271304833641545
000350 e4 af 5b ba 49 d4 b5 bf bc ff b6 9c ad 00 c0 bf
       -0.08527050781020723 -0.12502069618312628
000360 ab 0e 2c 73 d3 b5 c6 3f f0 92 27 b3 3d 34 99 3f
       0.177423888431908 0.02461334615681471
000370 4a 49 83 de 34 fd 9d bf 48 bd e1 09 ed 91 9a 3f
       -0.029286218720536973 0.025947288253914708
000380 a8 ba 13 65 c4 aa cb 3f 7e 95 1d db ea 3c c7 3f
       0.21614890036967904 0.1815465516948897
000390 7b e8 11 e1 55 cd c0 3f f1 66 13 ca c3 06 d1 bf
       0.13126634111160115 -0.26603789075816936
0003a0 e0 15 66 f2 51 b7 52 3f 5a b3 27 5f c5 a2 dc bf
       0.0011423397314457226 -0.4474347523926575
0003b0 e0 4d 6a 63 f6 3c 72 bf 42 71 8d de c3 ae c2 3f
       -0.004452669577080098 0.14595840803930044
0003c0 28 7e c8 8f fb a3 ab bf 50 8a ec 6e a6 59 cf bf
       -0.05398546343007765 -0.2449234048481963
0003d0 be 7b d9 a6 44 ba b9 bf 9a 07 ec 31 e4 2b aa 3f
       -0.10049847672915654 0.05111611470603279
0003e0 8a 83 b6 50 2c bb b7 3f 51 00 3b a8 a3 35 c1 bf
       0.09269978495150447 -0.13444944109324067
0003f0 fc d0 c0 9f 8e f1 bf 3f 99 d1 f0 f4 32 a9 b9 bf
       0.12477961921905839 -0.10023802261350169
000400 12 57 98 dc 36 bd b9 3f 25 9c 11 7a 06 37 ca bf
       0.1005434311449245 -0.20480423889532165
000410 4e f3 3d 92 5f e8 b0 bf f3 44 e0 34 5e 39 d1 bf
       -0.0660457355533712 -0.2691264644973465
000420 c8 7c 8c c4 44 b3 b5 3f b4 38 a0 ef 8f b6 bc bf
       0.08476667212061095 -0.11216067886582232
000430 36 20 48 27 e7 49 d9 3f 30 14 41 7a 28 7b 9a 3f
       0.3951356776819951 0.02586043592625148
000440 b8 45 d3 db e9 5c ba bf 18 71 53 31 d3 8d 79 3f
       -0.1029802476580447 0.0062387704576532185
000450 1a 1c 8e 7d 09 59 92 3f 02 86 21 5d 8b e6 e1 3f
       0.017917774475361005 0.5593926257099044
000460 b2 d3 54 cf 4c aa a3 3f 22 cd 20 c5 c8 e3 d2 3f
       0.03840866118336041 0.29515284777444795
000470 d0 ea 7d 87 87 5d c9 3f 0a 22 f7 cd 1f 90 b2 bf
       0.19816679111303026 -0.07251166132403611
000480 39 39 f8 6c cd 4a c0 3f 14 79 5d fe 8e a6 c3 bf
       0.1272827894285429 -0.1535204641358595
000490 4d 64 9d a5 55 55 d6 3f bc 20 e4 ea 8f b0 c8 3f
       0.3489584081012865 0.19288825005810917
0004a0 5c 28 71 d9 71 c2 b0 3f ad 4c d9 f5 c1 10 b1 bf
       0.06546699103015058 -0.0666619515625821
0004b0 ae b2 10 d7 12 af c3 3f b6 c0 0f 8a b5 f7 c7 bf
       0.1537803220866371 -0.18724698296819547
0004c0 5b d2 68 ad 11 c6 c0 bf 14 62 cf 3b fa c6 a9 bf
       -0.13104458777674463 -0.050346202660595335
0004d0 72 6f d9 b0 6b 77 b2 bf 31 0b 56 0b d3 78 cf bf
       -0.07213471477137803 -0.24587476781388198
0004e0 02 03 69 c8 08 c5 93 3f c8 5d 84 11 ef c1 d2 3f
       0.019306313736026766 0.29308678351068496
0004f0 ab 19 c0 4f 7d 1a 90 bf e2 f4 25 99 54 41 e0 bf
       -0.015726049416139237 -0.5079749098946673
000500 2b 87 37 e8 33 23 c5 3f 40 b0 0f 0c b0 dd 4a 3f
       0.1651368030425656 0.000819884262566635
000510 69 7e a0 c1 af f3 c4 3f 72 d8 81 92 18 44 a8 bf
       0.16368672327461134 -0.047394531139546184
000520 fd bf fa 5e 9e e9 bd bf 02 a3 29 2b 17 83 b5 3f
       -0.11684598749957327 0.08403153232360341
000530 e0 19 ef 75 2e dc a3 bf 35 89 ba 4d be 7d c3 bf
       -0.03878922643302807 -0.15227488322586571
000540 90 5a ea c3 e4 3d 62 bf ca 50 d0 28 d6 04 c8 bf
       -0.0022267788002168845 -0.1876476001058392
000550 36 40 d2 8a f3 f0 b9 3f d0 d5 12 f8 d5 4e 71 bf
       0.10133287562553125 -0.004225574318458894
000560 54 ac a7 dc ce e2 96 bf 5e 63 d8 08 af 55 c3 3f
       -0.022349579065047046 0.15105235988519444
000570 74 70 0b 82 43 01 a9 bf 99 7d dc 9b 02 7f d1 bf
       -0.04883776628932504 -0.27337708683804746
000580 89 44 44 da 0a be bb bf 38 f5 68 bd 80 b6 8e bf
       -0.1083685667874922 -0.014996534138044568
000590 aa 84 7f f9 f3 fa ba 3f 65 2f d5 d9 c3 b8 d2 3f
       0.10539173928511283 0.2925271632454865
0005a0 84 ae 2f 08 fa b3 b0 bf af e1 a3 92 fe 1e c2 3f
       -0.06524622630939275 0.1415708747879427
0005b0 17 3d 6f c8 0f 65 d7 3f 05 19 92 03 43 23 c4 3f
       0.36554331372913523 0.157326103919509
0005c0 42 07 66 96 f8 a1 a4 3f 4e b9 61 5b d1 d2 b1 bf
       0.040298241004178795 -0.06962307435035095
0005d0 41 1c 73 79 80 d4 cb bf fc a6 55 c8 22 2a c7 3f
       -0.2174225419059628 0.18097338468515278
0005e0 e0 a8 a6 8c 25 ee bc bf 4a c1 34 c3 33 d4 b3 bf
       -0.11300882991659789 -0.07745669856808948
0005f0 87 4d 76 21 54 84 a5 3f 28 5e 29 2e cd 1c bb bf
       0.04202521236870909 -0.10590822579376236
000600 56 97 d3 fa 6d a6 b2 bf 66 a3 b3 74 e9 01 d3 bf
       -0.07285201429075747 -0.29699169537211956
000610 f9 49 ca d6 d7 6c be 3f fa be 73 e4 95 1b d1 bf
       0.11884831422711518 -0.26730868634966465
000620 f9 fe 0b 6e 45 17 bd 3f 06 6d b0 45 78 e5 d7 bf
       0.11363634049120809 -0.3733807259138334
000630 fe 7d 74 13 cc b9 c6 3f 6a d7 7e b9 aa 40 c7 bf
       0.17754507970765582 -0.18166097695728506
000640 ce 16 f0 98 88 e5 bb bf 18 8e 1b 1b 56 46 b1 3f
       -0.10897115453561954 0.06747949754531424
000650 11 75 76 43 40 fa a9 bf 50 67 84 5a 4d 51 ce 3f
       -0.050737388835140014 0.23685614509377695
000660 54 07 7a 83 d7 73 ae 3f f4 de 2a 9f 70 63 d5 3f
       0.05947755317630646 0.3341943315858622
000670 70 d0 de e9 eb f6 b0 3f 20 04 c7 74 96 a1 85 3f
       0.06626772365308553 0.010562110365642197
000680 52 90 2b 2d 5e 13 d2 3f 56 e6 05 68 06 07 bb 3f
       0.2824321213831854 0.10557594337105888
000690 6b a1 ac 39 e3 a2 ca 3f 54 fd 12 30 cb 11 d2 3f
       0.20809593502168452 0.2823360414003748
0006a0 3c 84 ae e3 7d 4a b6 bf 86 1e 09 4d 47 e6 74 3f
       -0.0870741539824999 0.005102423209400469
0006b0 bd d5 03 a0 69 5b c9 3f 82 cf b5 1d 9d f1 bf 3f
       0.19810219109755947 0.12478048301073666
0006c0 81 27 b1 8c e3 d3 c0 bf d0 4e 49 9b 7c 60 b8 3f
       -0.13146633500792507 0.09522227088137503
0006d0 00 f3 e1 78 ef d8 22 bf 80 2f a3 73 88 17 b0 3f
       -0.00014379428143120737 0.06285908530406736
0006e0 e3 93 cb 34 f7 25 bc bf 32 77 4c 3a 60 2f ad bf
       -0.10995430983491832 -0.05700207435277917
0006f0 af 63 35 ea 85 17 b5 3f ca 5f 8a 1c a3 97 b3 3f
       0.08239018409712061 0.07653254935064449
000700 f8 b2 7f aa 52 40 c0 bf b0 e0 c0 99 d0 e5 ba 3f
       -0.1269629795564453 0.1050691962599355
000710 c4 0a 1a 85 54 ba aa 3f 00 4c a4 6b 67 6e 6e bf
       0.052202836272973424 -0.0037147540980497773
000720 dc ea ab c4 c7 94 c7 3f 59 3d 96 5c 7d 80 b4 3f
       0.18422791579344888 0.0800855971376583
000730 8d fc 50 12 e0 0b ce bf 86 52 8c 89 3a d0 c8 bf
       -0.23473740476945118 -0.1938546344396352
000740 a0 62 4c 6e 63 dd a9 bf d6 d5 48 0b 84 52 cf bf
       -0.050517184461744025 -0.2447056822872315
000750 5a 42 b9 b7 d0 22 a0 3f d8 c8 30 60 ad 23 a0 bf
       0.03151561968536916 -0.03152219580842236
000760 3a e5 81 89 27 8c c8 bf d9 06 29 f9 1e 18 c6 3f
       -0.19177717413166723 0.17261111417797428
000770 8e f8 f3 df 08 07 cf bf e0 f2 2b 85 47 e8 a0 bf
       -0.242402181007439 -0.0330221509993629
000780 a8 4c e7 7a ac 1e c3 3f cd f0 81 2d 74 e8 cf bf
       0.149373588572961 -0.24928142759370644
000790 e8 c5 12 ba 6a dd a3 bf 7a 66 d4 9d 88 12 ab bf
       -0.03879865189936621 -0.05287577559120123
0007a0 41 58 be 76 91 ce c4 3f 32 93 18 7d 57 6a b8 3f
       0.16255396173500183 0.09537264637090173
0007b0 de 02 6f 6a f2 64 d5 3f 1e 34 1f 25 ee 0e cb 3f
       0.3342863120451919 0.2113931351908897
0007c0 db 93 ee a7 e9 b3 c9 bf 64 2e 0b 61 13 c4 bf bf
       -0.20080300044824537 -0.12408562773924242
0007d0 0d f4 07 df 0d 5e d2 3f 50 aa 04 ac 23 5f bc 3f
       0.2869906118428965 0.1108267111746184
0007e0 62 d9 18 1d 24 48 c0 bf b4 b3 f2 33 36 51 b7 3f
       -0.1272015707088015 0.09108294265997935
0007f0 1c 95 cd dc 0d ad 90 3f c8 e4 8f fd 0a d0 d3 bf
       0.016285149194478085 -0.30957293283388454

transformer_encoder.layers.0.self_attn.qlinear.bias f8 [32]
000000 08 b0 1b a2 ab 8d c0 bf b9 cd c5 3a 44 14 bf bf
       -0.12932343879163022 -0.12140299258117339
000010 08 b0 c3 ee 41 81 a6 3f 62 6c 95 7d 20 e3 af 3f
       0.04395490684132147 0.062279715852775266
000020 20 14 5c 69 cc 20 9f 3f 74 f4 76 da 33 fa b5 bf
       0.030398553782124194 -0.08584903796777771
000030 60 1d 32 e7 3b 77 8b 3f c0 ab 3f 9f b0 16 43 3f
       0.013411014550242129 0.0005825388348034075
000040 ec 8a 71 6f 56 43 d0 bf 21 de 01 b0 c8 e6 c1 bf
       -0.2541099632564243 -0.13985546678644403
000050 e5 d6 e7 06 5f bb cf bf ed 23 e0 e5 8b 9b bd bf
       -0.24790561520756352 -0.11565470087238312
000060 6c 90 e8 f6 46 b6 b8 3f b8 bd 8d 18 8e d1 92 3f
       0.09653132942236348 0.018377514122617206
000070 e6 6f 76 56 bd 4b b6 3f f7 a3 08 36 4c d9 c0 bf
       0.08709319458870332 -0.13163139952055733
000080 77 2f 48 c6 72 6e d3 3f ff fe 2e d1 11 30 c7 bf
       0.30361623156999634 -0.18115446771661678
000090 1a 59 ef 29 69 fa d4 3f b7 e2 bc cb d5 c7 c6 3f
       0.32778386206827437 0.17797348449837155
0000a0 f0 22 0d 93 f5 2d b9 bf 6c 0e 4a 68 3b 0f b8 bf
       -0.09835753288383464 -0.09398242279172003
0000b0 2d df 08 d9 a5 dd cb bf a8 ea 31 eb 0e 9b c5 3f
       -0.2177016553630379 0.16879450306062904
0000c0 10 61 0f fc b3 c1 a1 3f f4 9b 52 fd 6c 02 af bf
       0.034680962103893376 -0.060565381930523104
0000d0 bb 32 6d aa 46 59 be bf 24 1a eb ba 3d 9a d2 3f
       -0.11854974423222135 0.2906641316771206
0000e0 8c 8d ab 42 e7 5b c8 bf 49 2d 9e 59 62 7f c1 bf
       -0.19030466800095913 -0.13669995666382764
0000f0 6d 23 a1 19 29 f3 d2 bf 2a 9b 23 e4 5f 08 ae bf
       -0.29609134199977555 -0.05865764293576199
