experiments/fl_train_noise_0.5_max_grad_norm_1/20250427/model_round_32.pt (torch, 62806 bytes, 25 tensors)

embed.weight f8 [32, 8]
0.27071453705090126 0.016454659411352438 -0.02673736045244865 0.11786488660965672 0.07646046205968568 -0.235910705657127 -0.042825873324153545 -0.13050934926941127
0.10684600600246008 -0.14856448732522082 0.03485909011110583 -0.0708071191219238 0.22990700147065765 -0.19854360210218408 -0.07889181641147106 -0.1707682534790801
0.0459721026350206 -0.02931098148789952 -0.06386123827680835 0.4002474216422529 -0.17584170358423457 -0.27007433707865486 -0.12064869956331559 0.01660757682978263
0.21596617551621003 0.16105331494275935 -0.22729809796210332 -0.0002434358207686442 0.004103608236329864 0.13592194529369944 0.34032697315300325 0.011438386762263594
-0.20612339165274102 -0.032432898368115276 0.14472701474151617 0.09689471162513638 -0.08673193506617205 -0.1842433891689373 0.11116743331627474 0.1925183208799741
-0.456016379336616 -0.01873240790988015 0.3826528455074377 -0.01759942504521704 -0.07629094325095437 -0.004825109664494495 -0.05246660876371412 -0.06701543311080113
0.2728592064851896 -0.08321777204995696 0.08240783494163444 0.04914501650560338 0.07563914094538013 -0.023108246135689764 -0.005670513134003116 0.04847816225356711
-0.11817806493618162 0.13995038463026344 0.06001288946650765 -0.02462586370880023 -0.14664989536657058 -0.2235571826046473 -0.16762233917107106 0.06528670635823616
-0.009872303134975967 -0.1735301726683577 -0.37287803298405475 -0.22863101383548667 0.1392384891278342 0.1678118461161105 -0.20925384813993886 0.02541520658172293
-0.23549726142811056 -0.040396802352554564 0.29486872701810896 0.1419241022681608 -0.19450398967301985 0.036461414869880006 -0.253700378977951 0.16502175755429305
0.10313767034595524 0.13978868970213887 -0.19414507367151018 -0.013101145930514896 0.030404648497823955 0.325708120535865 -0.10096246846915147 -0.016121991587968135
-0.13275794096028543 0.11834373091214218 -0.13351920695270914 0.038538382185874305 0.04563924960643519 0.0839387530750847 -0.34145841321570464 -0.1591817003120005
-0.11822902977028082 0.06738910854776438 0.05510283507221948 -0.17464535193089062 0.2731081000657051 0.028925122799172996 -0.2616614905538531 0.25233995941181636
-0.20609414058921996 0.07569165844729528 -0.1910678733671956 0.05890377167559773 -0.1312645323490953 0.12331294390212236 0.11561990526482985 0.16294873001770907
0.13578373858547244 0.02922242865039715 0.0449380927645785 -0.20644169978530488 0.01164628680563122 0.07762027402945978 0.3655665732601602 -0.21407035291904503
0.03674651987421678 0.020554903932039265 -0.07586381862963729 0.1371718896381175 0.4901468495409807 -0.013216327332459185 0.12822134891660197 0.22218267893933433
0.16636679651431835 -0.05202365194931847 0.39425351687604526 -0.27511730389704675 -0.027779949675414205 -0.28480559747442236 -0.01995534719402704 -0.2667093801035501
0.07292107969532183 0.14553683290218977 0.22191788722540975 0.25489701580959057 0.1551167607991824 0.2033778584063391 0.23264604899165928 0.032524733860800494
0.05818200789367076 0.09721933432677277 -0.08922421159707022 0.20412402829106852 0.04158326323717872 -0.006490096285973461 -0.132627617189419 0.028999703161224483
0.11009722498813344 -0.19422323781014045 -0.09478838023243641 -0.3355440858556058 0.029911193585372763 -0.10021612580943276 -0.10575720690901992 0.1095392343162984
-0.036728196251126353 0.0543506582884308 -0.04480963814309503 0.20608242873505592 -0.039464999750038324 -0.1110349844809933 0.14439370122116124 -0.43473806687760275
-0.36180844740388873 -0.006986508794860916 0.1786471382407771 -0.014097482599748148 0.09659466861273032 0.15280724688259845 -0.05544732847779396 0.04008276582730638
0.06963246353571147 0.07633820682938933 -0.08179416147776469 -0.01893542053409934 -0.11705648735384241 0.3449101411326784 -0.10403369534143775 -0.17590726487962396
0.1175365120833287 -0.3859822953084283 0.16887176331642195 0.019089265929195964 0.1808439393870794 -0.21100982015606423 0.05552735273502819 0.058874215644260416
0.19848427029339402 0.04793574717285677 -0.06174201874632648 0.3416867004209483 -0.12330152598749157 -0.21939667613412245 0.019174346985643905 -0.11738178704140137
0.2562503266306824 -0.10286943484129024 -0.11379588517437528 0.07180028456342374 0.07130024024095295 -0.03373187256161639 -0.060346232703926 0.006932794431089219
-0.2020693960945836 -0.021470394087349826 0.4025532267953094 -0.16610079997614852 -0.14711475385078757 -0.14482019156762665 -0.2874167373499129 -0.12068981214474114
-0.09589923386642213 -0.25812420951901927 0.25677726489408625 -0.03879685221950921 0.043067438627374964 -0.3834733845104725 -0.26864819529859757 0.2463020401067041
-0.07864286402311063 0.028451283708230954 -0.30220571418023257 -0.20304401679569367 0.036025204229735736 -0.027989360487230677 -0.16482192102969206 -0.11814929594502588
0.06871608775799755 -0.17005289141116672 -0.3087433896377932 -0.06890238372966165 -0.037664271524772586 0.2954466082834431 -0.20330147021386558 -0.15319113154773412
0.06979605331776437 0.21192614731241355 0.000527164187201468 0.08080557714584904 0.24681120544747204 0.06069709398749301 -0.19376716050204806 -0.03129197482164789
-0.2299928853496667 0.11643896794588196 -0.04922509346764117 0.1215602960519275 -0.13319320531287188 -0.26297173070819524 -0.16015668979034595 0.17240198364603157
00000000: 9ddd cb10 6353 d13f d180 2780 7dd9 903f
00000010: 9805 e6e2 0961 9bbf 3cd1 55a9 642c be3f
00000020: 06c0 fbaf e992 b33f 1f6d c96e 5232 cebf
00000030: 3f23 b3da 45ed a5bf 3499 77c5 87b4 c0bf
00000040: 1021 7d85 425a bb3f 8a54 343f 2904 c3bf
00000050: 58b4 fdf7 0cd9 a13f 26e0 f354 6a20 b2bf
00000060: 0f0d 38b6 976d cd3f 02f1 ed72 e069 c9bf
00000070: 2ac8 680b 4132 b4bf bc9f f1ef bbdb c5bf
00000080: 9f08 b1ca a789 a73f f2e3 9dab b203 9ebf
00000090: 4986 e1c9 3559 b0bf 50c1 905c a79d d93f
000000a0: 4067 151f fb81 c6bf 0f78 4fdf e548 d1bf
000000b0: 30eb ed4a d5e2 bebf fc1d 669d 9301 913f
000000c0: 5531 7196 c7a4 cb3f 91b7 4b20 659d c43f
000000d0: b859 98a4 1a18 cdbf 80c9 1ac7 59e8 2fbf
000000e0: ace9 baf2 f1ce 703f 8e2d ecea e365 c13f
000000f0: 69e2 e8c8 eac7 d53f f8dc 8048 026d 873f
00000100: 5a68 0b55 4062 cabf a470 9c7b 0b9b a0bf
00000110: 84cd 9431 6a86 c23f fed6 9581 17ce b83f
00000120: e8c4 a068 1034 b6bf 7a0d 7e91 4995 c7bf
00000130: d641 790a 7875 bc3f a7b8 07ba 70a4 c83f
00000140: ea3a ec52 5f2f ddbf 18a0 649d 962e 93bf
00000150: 1240 4b5c 627d d83f 9c8d fd6b 9505 92bf
00000160: 5c6c 3ea2 cd87 b3bf 307f 5683 7ec3 73bf
00000170: 105b 8b41 e7dc aabf 46c5 8965 ec27 b1bf
00000180: b40c 1176 8676 d13f 518a 6689 c24d b5bf
00000190: 232c 020c ae18 b53f 084f 4e1d 8929 a93f
000001a0: e66e a834 165d b33f 88cd ae25 b0a9 97bf
000001b0: f0af 64c7 f639 77bf 6904 e632 21d2 a83f
000001c0: 1d66 01ec ea40 bebf 6059 86ea e4e9 c13f
000001d0: d4b8 316b 02ba ae3f 5669 0fbd 8537 99bf
000001e0: ccd6 477c 6cc5 c2bf 7c53 0992 859d ccbf
000001f0: 74cd 6818 a674 c5bf f613 ac2c a1b6 b03f
00000200: 2caf ce18 ee37 84bf 0d6b 3d98 3c36 c6bf
00000210: 820d 44d3 3bdd d7bf a42a a3f3 c743 cdbf
00000220: 0802 931a 91d2 c13f 329c 79cb db7a c53f
00000230: 385e 2981 d4c8 cabf e4bb 5ba4 7106 9a3f
00000240: 58ce 1036 c624 cebf 8a34 efc1 e3ae a4bf
00000250: c0fa c914 21df d23f a9c1 e0a8 912a c23f
00000260: 7827 4bb9 81e5 c8bf 1532 dd10 12ab a23f
00000270: d75b ac83 a03c d0bf 147d e9d5 6e1f c53f
00000280: 111b 1ff9 3a67 ba3f 5489 4f85 98e4 c13f
00000290: 76a0 0ceb bed9 c8bf b054 7e0a c6d4 8abf
000002a0: b832 c76b 6522 9f3f 0990 6fdf 66d8 d43f
000002b0: c0cc 3224 add8 b9bf e482 778a 4882 90bf
000002c0: 7eb7 5a53 36fe c0bf 5c4b f455 c64b be3f
000002d0: 88f7 9f49 2817 c1bf a916 4286 4dbb a33f
000002e0: 527e f218 075e a73f f812 5397 027d b53f
000002f0: 0127 6d63 74da d5bf 7b19 7be2 1060 c4bf
00000300: 4019 4df8 4144 bebf d9b9 51a1 6940 b13f
00000310: 32a8 1a55 7036 ac3f e185 7865 c75a c6bf
00000320: 7683 8365 9a7a d13f 5628 d221 8c9e 9d3f
00000330: 564a 23d6 0fbf d0bf 3974 4980 5626 d03f
00000340: ad2c ddf4 4a61 cabf 5e73 9c4d 8760 b33f
00000350: fad4 b67d e974 c8bf 575d ea99 a228 ae3f
00000360: 6034 c8b4 46cd c0bf 52ac 3be5 6f91 bf3f
00000370: 3c0a e11f 4499 bd3f d1e6 2c05 81db c43f
00000380: d4cf 468e 5c61 c13f 61dd 73fd 7bec 9d3f
00000390: 1076 892d 2002 a73f 77e4 8d7e ae6c cabf
000003a0: 58a5 9927 02da 873f ee8c 761a ecde b33f
000003b0: 7a71 2a57 7165 d73f 0e4d 6a46 a866 cbbf
000003c0: a701 349a 70d0 a23f 1862 a440 580c 953f
000003d0: 96c6 f6ab cf6b b3bf e68e f635 d98e c13f
000003e0: 3d05 41e4 905e df3f d842 546d 2911 8bbf
000003f0: b876 1fa2 8e69 c03f 251c e465 7b70 cc3f
00000400: 1aab 15d7 814b c53f 614b 7b17 d8a2 aabf
00000410: c432 541a 733b d93f ed4b b39b 859b d1bf
00000420: a399 5cdd 5872 9cbf 60b4 b741 413a d2bf
00000430: 438f 50ae 2c6f 94bf 1132 4538 c411 d1bf
00000440: 9afc 7ab4 f4aa b23f 40d3 d670 f3a0 c23f
00000450: 19e9 032a ce67 cc3f 0e03 b092 3b50 d03f
00000460: 22d3 58b3 ddda c33f b2f9 4a21 4908 ca3f
00000470: b73c fb81 58c7 cd3f 358a 7cf8 14a7 a03f
00000480: 5de4 3c3a 08ca ad3f d8ed 78c5 5de3 b83f
00000490: fc1f d2de 65d7 b6bf e640 eb74 bc20 ca3f
000004a0: eb4b 54c7 664a a53f b804 bdf4 5b95 7abf
000004b0: c2fe 2f17 f1f9 c0bf 6546 af22 19b2 9d3f
000004c0: b752 b4ec 542f bc3f be46 429b 4edc c8bf
000004d0: d89d 2321 0d44 b8bf 406d c7e6 8d79 d5bf
000004e0: e31a ef38 0aa1 9e3f 4222 e296 c3a7 b9bf
000004f0: 6994 fd80 e712 bbbf 2f73 0465 c30a bc3f
00000500: 63b4 7ac3 09ce a2bf c4d1 ba77 d9d3 ab3f
00000510: 3189 bdf4 49f1 a6bf a541 d9b5 e860 ca3f
00000520: 2ab0 86a6 c134 a4bf a4c7 0eeb c96c bcbf
00000530: e423 3f28 7e7b c23f 3632 e49c bfd2 dbbf
00000540: 0c0a 419e de27 d7bf 5024 98ac e29d 7cbf
00000550: 0a52 22d0 e8dd c63f e857 c615 24df 8cbf
00000560: cddd a89e 6dba b83f 6eed f917 308f c33f
00000570: 4ce6 ec9c 9763 acbf 7c17 b970 ba85 a43f
00000580: fd33 a0e1 6ed3 b13f 9a7b c495 e68a b33f
00000590: 74fd 8c50 76f0 b4bf 5b48 b88f ce63 93bf
000005a0: fe29 f8f8 69f7 bdbf 6f4f 0efc 0113 d63f
000005b0: ac6a 2cc7 f3a1 babf adb5 e416 2184 c6bf
000005c0: afda 7b73 df16 be3f 5ad2 cb15 efb3 d8bf
000005d0: a4b8 5406 979d c53f d06f 7bf3 228c 933f
000005e0: bb74 acea e425 c73f f241 5aaa 5e02 cbbf
000005f0: e290 0fc8 146e ac3f ae1c 8add c224 ae3f
00000600: 511c d7bc ee67 c93f 825f d5c4 088b a83f
00000610: 44e6 9b5e a69c afbf d44f f2e4 31de d53f
00000620: 89c5 a955 b090 bfbf ba6f 6cb6 3015 ccbf
00000630: 9fe8 e6a4 70a2 933f a225 7d98 bb0c bebf
00000640: 55f5 1dc5 6766 d03f 84be 66ba a655 babf
00000650: c449 3e25 ba21 bdbf 2c1c 0be2 8061 b23f
00000660: 6926 0888 bb40 b23f 944f f8d2 4d45 a1bf
00000670: cce2 cc8f b3e5 aebf a869 9fd5 8f65 7c3f
00000680: 9fd5 dff3 68dd c9bf 98e5 bfc1 55fc 95bf
00000690: 490c ff9b 6ec3 d93f de55 de7f ca42 c5bf
000006a0: 292c 4600 a8d4 c2bf 3aad 4ad1 7789 c2bf
000006b0: de6a cf2b 0965 d2bf 763e 1f0c 87e5 bebf
000006c0: ecf0 2a29 da8c b8bf 9c29 8c67 1b85 d0bf
000006d0: 38e4 c4e8 096f d03f 3cea f056 2edd a3bf
000006e0: f3a7 da70 ef0c a63f 6cf8 56f3 d38a d8bf
000006f0: 21f6 3b33 8831 d1bf cc22 9943 d386 cf3f
00000700: 5a04 0b51 f021 b4bf 4c6a 3954 5522 9d3f
00000710: 0861 c4a2 5657 d3bf f69a e4a9 58fd c9bf
00000720: fc32 ff43 e571 a23f a4e5 b62f 3ea9 9cbf
00000730: 1443 3e7c e218 c5bf 901a 2142 083f bebf
00000740: c131 a1a5 6097 b13f efc0 990b 4bc4 c5bf
00000750: b56e 56a2 73c2 d3bf 323f bc2c 96a3 b1bf
00000760: 6066 da3c bb48 a3bf 1da8 12e4 98e8 d23f
00000770: f80c e656 c805 cabf c072 045a c49b c3bf
00000780: 6ec1 6376 27de b13f 54e2 ef5f 6520 cb3f
00000790: d09c c978 2c46 413f fa02 2d9f acaf b43f
000007a0: 1074 d773 8297 cf3f 30ec 4683 b013 af3f
000007b0: f691 b2c0 5ccd c8bf 8cf3 f870 8005 a0bf
000007c0: 01db 7128 6870 cdbf f2bb 4eb7 f1ce bd3f
000007d0: 5410 2c0d 0834 a9bf befc 0858 931e bf3f
000007e0: 1e21 6f96 790c c1bf 8a82 ca61 87d4 d0bf
000007f0: b14c 71b0 0380 c4bf d13a c3a8 4411 c63f

embed.bias f8 [32]
0.19042788240486191 0.3214324257105371 0.24639455932163878 -0.32667533122493897 0.12136147273872794 0.1820038324803676 0.12570373130597984 -0.13798851789070413
-0.4299733853106884 0.04722509843050404 -0.0972675641416717 -0.14100881964140877 -0.0968959370155551 -0.17416928718597646 0.04825442110705719 0.23490638035249128
-0.06378594354385415 0.1663287594457319 0.0037943912281619696 -0.0304972525647646 -0.16110316729680238 -0.07864866604704059 0.3373603066200905 -0.06238534869794668
0.006900832630890294 0.04245392394666199 0.23135376910084152 -0.10246398089670952 -0.1813494151391111 0.058704040831519616 -0.24057689048312858 -0.16028874083680408
00000000: 0674 96db f05f c83f c63e 134f 5992 d43f
00000010: 5071 195f db89 cf3f 6259 01a6 3fe8 d4bf
00000020: 5c40 68a4 8b11 bf3f cefa 1fce e64b c73f
00000030: 9ee0 7853 0f17 c03f f133 c895 9ba9 c1bf
00000040: fcd3 0317 af84 dbbf 2069 9e5a e32d a83f
00000050: 4837 f3ee 86e6 b8bf 5059 67b6 930c c2bf
00000060: 90da 9810 2cce b8bf 2438 37e0 2d4b c6bf
00000070: 389e 15b1 cdb4 a83f fe2a 9e8a 6911 ce3f
00000080: 9121 778d 4654 b0bf d811 1ac3 424a c53f
00000090: 4040 7647 6a15 6f3f 70b8 88f9 ab3a 9fbf
000000a0: 2f30 6951 079f c4bf e9ca 8ba8 5122 b4bf
000000b0: 6fb7 f9ae 4f97 d53f 6481 d0f0 f8f0 afbf
000000c0: b0ff 6f27 0c44 7c3f 4a25 e04d 85bc a53f
000000d0: ed16 0c14 009d cd3f 6a26 f856 143b babf
000000e0: 31ea 9527 7536 c7bf c462 07bf 740e ae3f
000000f0: 5432 663a 39cb cebf e7d1 e769 5784 c4bf

pos_enc.pe f8 [1, 12, 32]
-0.029505292523059393 -0.047052241455545984 0.1607468585208491 -0.00021634744748572077 0.028534603722571855 0.04423147678374635 -0.3884585497657066 -0.007544722641645324
0.14987092316299339 -0.084942849071103 0.13987823637580632 0.06234666660874982 -0.10939835323911543 0.3322664714702752 0.2271049146126286 -0.11078461078143212
-0.3377087424543052 0.23582128844648476 0.08267906079452803 -0.19755610641229085 -0.051182599089354006 -0.1282329184427575 0.05755660082520611 0.07643962003971291
0.09805009312952902 0.1328313745651137 0.09613738912589387 0.05817170844919553 0.06734798333759005 -0.1872457142348316 -0.1568681265905958 -0.09567638198472941
0.19199898122313802 -0.08841284004732881 -0.2802294757514262 -0.06861762669676977 -0.1757013686229565 0.11949591274060975 -0.02822320290249091 0.25657686651281986
-0.013831020246155436 -0.03500099539684251 0.0659373292116213 0.21232489849455105 -0.03121997604698279 -0.2302557619549513 -0.0061771520297707605 -0.1243574942905982
-0.019406874852099097 -0.08564104826783309 -0.12438802596593734 -0.30818572599127536 0.0037436825612073912 0.10293349041678346 -0.06223509321767786 0.2024407353102166
-0.01611556186640331 0.17644343073815902 -0.3925211584956514 -0.15462197010369744 -0.03867184689921091 -0.17142611576948655 0.13692645494726963 -0.1545820700508881
-0.09453193893072567 -0.25072785160845124 0.1843547621565654 0.024671248558397765 -0.06729739228907436 0.11823273169107414 0.24850532813117326 -0.21733581844517103
-0.2270290969348044 0.06311194434881943 0.3008969985204737 -0.17335104411420021 -0.05340448173746749 0.22183313938240318 -0.23859816595229694 0.2857139024876892
0.17643295938596648 -0.043739442962019405 0.035129170659826126 -0.11038785655773603 0.21667849025755537 0.028840818075194227 -0.05787318489041518 -0.18267416130646344
-0.035991193887780534 0.08419971897119914 0.07823266813611467 -0.10638361612340497 0.315441255700924 -0.19369640427082302 -0.08830497059471287 -0.27059378043137694
0.1289904718523478 -0.06197986780057285 0.02332386753394216 0.4070473292648034 -0.14717865390933038 0.10362843727027658 -0.34646610571619596 0.16401651977227388
-0.21281018108301453 -0.19434941143262235 0.4274892812792335 0.1071432639994862 -0.11893952395878404 -0.18209310818015 0.11949865809419916 -0.1832939137259545
0.12346943495749188 0.11008874907331115 -0.03638390429125436 -0.05625302467894516 0.12205139577098315 -0.21816032607409802 0.15367977446245068 0.24214788079501987
0.12198220519989571 -0.35792111916329317 -0.32735860242754894 0.0899177178361138 0.006986543442369299 0.14924059919989108 -0.2731324492421804 0.014814452842423532
0.22518690783104914 0.06261091572212335 0.15383429242996446 0.28784823836610923 -0.23480763024834178 0.09396374082371207 -0.047089159791973395 0.042578001167134394
-0.11497174844643043 0.11363933528844039 0.14116068082337524 -0.0032706384039140612 -0.3405669546312201 -0.19060071125779987 0.30310656586386253 -0.08033560274029075
0.251546303387428 0.2832034698167307 0.2044785780332134 -0.13363740591423798 -0.22841397996523366 -0.2830697469379557 -0.1218288330185045 -0.18678822607470819
0.10167862867844107 -0.03507363546702098 0.18357239148324428 0.024946593241931925 0.1575319758736471 0.05857253235521509 -0.21675235300259021 -0.473188060030745
0.29274307019274526 -0.2256322040495954 -0.04323015842749803 0.2447524494078094 -0.3638655076574666 -0.10111177019804204 -0.08528324961435876 -0.18875998884296488
-0.03440620180202221 -0.24217689371032575 -0.07718893877141905 0.09800753909198623 0.15047351444080226 -0.09394483234166029 0.032376555844403014 -0.19467017382278434
0.123561804570888 0.33213026806599166 -0.2718368231466205 0.22803460668768824 0.12937107869772368 0.17398431094067957 -0.26934713565664137 0.10475000882533225
0.09474155706457074 0.08818833638749443 0.12084968084208897 -0.06657843045629347 0.0031625014958928457 -0.04642627144956857 -0.008288591738026263 0.32289434546772
0.0335127918683421 -0.0686800391001786 0.32669360196400254 -0.02674022392862066 -0.0714638394690534 -0.027483741196167456 0.1481712282432228 0.21846889137583858
0.23393890511049203 -0.15879454812775165 -0.11337194537063604 -0.10091683156909964 -0.07574101858844984 0.09990600926861726 0.1797860595121558 -0.23226074209507652
0.23526379111869494 0.03814486833474199 -0.13706656483583082 0.13866033295293062 -0.14980100444650668 0.11186173571133835 0.22597439233967742 0.14850916843208267
0.2393414457500425 0.20364072783887388 0.05542178465031803 0.10633023123321421 -0.08356277175678808 0.12253290727631543 -0.015710020682509967 -0.08495867426876713
0.2993736694505796 0.11512787170239143 0.22318145501530254 0.1514214366842193 -0.027933700781041584 0.016023137548072927 -0.2115203300027757 -0.16050085102533
-0.12645820331171959 0.09550384172311994 -0.1816596792538598 0.2713224814118149 0.03825856457343764 -0.014646132394231931 0.13793728649496922 0.2541036091120684
0.278845942390625 -0.27455744328294795 -0.09195949227772758 0.005704310136365326 0.10980434800920333 0.08517939095757031 -0.0992615711511613 -0.06326082482225706
0.4159904071072139 -0.27292575319359014 0.10328809399924277 0.053633468878446694 -0.27093988294110033 -0.05792400494907765 -0.2367554887008332 -0.18588503475236706
00000000: f124 c8a9 a236 9ebf f097 823c 3b17 a8bf
00000010: 8f11 2462 5a93 c43f 00e8 4c6c 6a5b 2cbf
00000020: d8ca 2bd7 2c38 9d3f dadd 7a14 82a5 a63f
00000030: 5e19 c63f 81dc d8bf a057 0d10 37e7 7ebf
00000040: 0a9e cd6c f82e c33f 7c19 ca86 d0be b5bf
00000050: dcff 53b1 87e7 c13f c8c9 32fc e6eb af3f
00000060: 22f4 65cd 8701 bcbf e46a 2197 da43 d53f
00000070: 94d4 821a c611 cd3f b2d2 3458 615c bcbf
00000080: 9f87 1a21 059d d5bf 9803 ca58 642f ce3f
00000090: b02e 2d76 742a b53f b93b 15bc 8449 c9bf
000000a0: 8615 6d0a 9b34 aabf 4fbb 7daf ef69 c0bf
000000b0: d426 6d0c 0f78 ad3f 9671 3004 8c91 b33f
000000c0: d56f 5c97 cf19 b93f e7e7 d154 9e00 c13f
000000d0: 40f2 37be 759c b83f c4f8 aea2 aec8 ad3f
000000e0: cff1 e2a9 b73d b13f b035 7ae5 aaf7 c7bf
000000f0: 18e6 be38 4114 c4bf 8abf 9f53 3f7e b8bf
00000100: 3afe 9b30 6c93 c83f d5bc 8c50 39a2 b6bf
00000110: 0291 6e9c 47ef d1bf c27d 97be ec90 b1bf
00000120: 888c 0ce8 617d c6bf b601 3abd 4897 be3f
00000130: fe7a d115 8be6 9cbf 444b a560 c16b d03f
00000140: b439 051d 7053 8cbf 0c20 1d85 a6eb a1bf
00000150: f7ab 8cd0 44e1 b03f 148f 9457 762d cb3f
00000160: e02e 6a20 21f8 9fbf 22f2 a753 0579 cdbf
00000170: 805e 349f 364d 79bf aa99 fd8a e4d5 bfbf
00000180: d6b4 3a53 65df 93bf 7c68 815d 92ec b5bf
00000190: b0a6 89c7 e4d7 bfbf b67f 8e9f 50b9 d3bf
000001a0: 10fe 5745 12ab 6e3f a8d2 0067 d959 ba3f
000001b0: c31e 1134 47dd afbf a68d c4f8 93e9 c93f
000001c0: 0804 b10c 9980 90bf c7a5 4ec6 b295 c63f
000001d0: cc84 ae10 111f d9bf fe52 6b18 a7ca c3bf
000001e0: e482 6adb cbcc a3bf 3983 747c 4af1 c5bf
000001f0: b455 fa5a ce86 c13f 5c51 b563 58c9 c3bf
00000200: 2a8b 22c2 3e33 b8bf 68b2 b6d4 ec0b d0bf
00000210: e382 29d5 ef98 c73f 44d7 d676 6b43 993f
00000220: 16d7 fce2 663a b1bf 550e ee13 8044 be3f
00000230: f641 9ac8 05cf cf3f f056 3cfc a8d1 cbbf
00000240: aaa6 4919 4a0f cdbf 2b14 f7b8 1a28 b03f
00000250: 280a 077c e541 d33f 3456 99f4 5d30 c6bf
00000260: a164 0b0d d557 abbf d280 683f 0765 cc3f
00000270: 024a d37b 628a cebf 3d9e ccf6 2249 d23f
00000280: 84e6 3fef 5a95 c63f f55e 222a 0465 a6bf
00000290: 7036 3d5e 73fc a13f fc7f cae9 6042 bcbf
000002a0: c090 b3ea 1ebc cb3f 3ffe b089 7288 9d3f
000002b0: 34e2 d6d8 8da1 adbf b557 51ee dd61 c7bf
000002c0: 764f 6211 706d a2bf 0f4e 50df 1c8e b53f
000002d0: 5b99 1f5f 0e07 b43f c88a 14e8 f43b bbbf
000002e0: 6bdb 4285 3030 d43f dc15 d934 0bcb c8bf
000002f0: f84d c790 279b b6bf 8c0a 5d93 6851 d1bf
00000300: 10fc 0c81 c282 c03f 907f 6d42 d3bb afbf
00000310: 2e1b 1941 36e2 973f 5174 c73d 100d da3f
00000320: 3cdd 9a08 c0d6 c2bf c7ec 02ad 6487 ba3f
00000330: 7c4e 4e2c 802c d6bf d27b 364a 7efe c43f
00000340: 00f2 0030 5d3d cbbf 8acb 0c07 71e0 c8bf
00000350: d507 9f00 fc5b db3f 0c4f ddae bd6d bb3f
00000360: 40d3 9a15 d272 bebf 58f9 3ab4 d34e c7bf
00000370: 5a33 6ecc 7697 be3f 0421 81ca 2c76 c7bf
00000380: e2b1 3261 b19b bf3f 826b edb8 c62e bc3f
00000390: 1e3f 103e e9a0 a2bf 1824 984a 32cd acbf
000003a0: 8a7c 44a1 c23e bf3f eeef e274 adec cbbf
000003b0: 96ba af62 c7ab c33f 76b8 67a6 b3fe ce3f
000003c0: 1b0b 07ce 393a bf3f f8a8 56fb 2de8 d6bf
000003d0: cf65 df7e 71f3 d4bf 78e3 6ff9 d804 b73f
000003e0: 288e 8df9 eb9d 7c3f d844 66e2 501a c33f
000003f0: ca2d 3e86 007b d1bf 3412 bb33 0a57 8e3f
00000400: 9994 4fb2 ecd2 cc3f 842d 66db 4407 b03f
00000410: 3fb8 7e93 d7b0 c33f fd97 7f04 1b6c d23f
00000420: 2a4a 622a 2d0e cebf 7900 d9f9 010e b83f
00000430: 24f4 9a02 121c a8bf e072 15a5 c8cc a53f
00000440: 6896 8adb c96e bdbf 3060 9aac 7717 bd3f
00000450: f209 cf9d 8d11 c23f 0056 6b9f 06cb 6abf
00000460: 6e52 0f57 d9cb d5bf d829 b9a6 9a65 c8bf
00000470: 68a4 e514 1966 d33f da57 79c2 df90 b4bf
00000480: faa2 9eaa 5519 d03f 5080 3e72 0120 d23f
00000490: 664f b1a2 5a2c ca3f 4f43 f6cf 071b c1bf
000004a0: 322f f356 ab3c cdbf 1879 6592 d01d d2bf
000004b0: f439 86a5 2c30 bfbf 9e65 2235 ade8 c7bf
000004c0: a443 e050 9c07 ba3f 8abb 90ea 2bf5 a1bf
000004d0: ce3c efd4 4c7f c73f fd9b 7b88 998b 993f
000004e0: 38cd 39fe 012a c43f a0b0 d10d 38fd ad3f
000004f0: fc13 bd85 8abe cbbf 9c24 ac92 b648 debf
00000500: 3af1 266e 4dbc d23f eca0 a81c 84e1 ccbf
00000510: f443 4b69 4322 a6bf 9545 e95a 0c54 cf3f
00000520: 1c00 e28d 9249 d7bf 16c3 3d02 76e2 b9bf
00000530: b282 fd7f 1fd5 b5bf 9dda 6f8d 4929 c8bf
00000540: aadc 098f b09d a1bf 7a96 2a07 a7ff cebf
00000550: 6edd a27f a7c2 b3bf 8859 29a7 0517 b93f
00000560: b0fd b753 b742 c33f 501f 89be c40c b8bf
00000570: 2f85 04f1 a893 a03f caa9 09c7 f3ea c8bf
00000580: 54ad aa15 bfa1 bf3f bcba d64f 9f41 d53f
00000590: 6ed9 5046 c665 d1bf 5338 0aed 3c30 cd3f
000005a0: 1c09 0744 3b8f c03f a8ef c02e 1e45 c63f
000005b0: c2a8 bac4 fb3c d1bf 6817 2986 e5d0 ba3f
000005c0: 5619 2a91 fb40 b83f 7e45 acc4 8293 b63f
000005d0: 34e5 f232 01f0 be3f 3cc5 6db5 480b b1bf
000005e0: 50fb f20f 3fe8 693f d02b 1a2b 2fc5 a7bf
000005f0: a0c8 8ef3 9bf9 80bf 4038 760b 4daa d43f
00000600: 4ff5 24b2 9628 a13f b7c1 d2d9 0395 b1bf
00000610: 7cdc 0f48 8ce8 d43f e868 0b0d ca61 9bbf
00000620: ddbd 5d45 744b b2bf bae3 6fa6 b224 9cbf
00000630: 37a3 c159 46f7 c23f 8088 d3e3 c9f6 cb3f
00000640: 0e16 5bc5 b5f1 cd3f 05f3 7e37 6153 c4bf
00000650: 8b99 a69d f105 bdbf 8489 347b afd5 b9bf
00000660: 4899 cd6d c363 b3bf a08a 7bb2 7093 b93f
00000670: 55d2 f0c6 3a03 c73f acb5 b851 b8ba cdbf
00000680: a6d5 64b8 1f1d ce3f 1511 0464 b987 a33f
00000690: 8d27 acae 658b c1bf fa84 a42d 9fbf c13f
000006a0: acba 80e7 ad2c c3bf 85d2 8d80 f8a2 bc3f
000006b0: ac8b 6a98 baec cc3f ae35 c932 5902 c33f
000006c0: f971 0991 bda2 ce3f 08ce 193d e610 ca3f
000006d0: 853e 1e81 3e60 ac3f a307 b941 7538 bb3f
000006e0: cac7 dbab 5e64 b5bf db81 6f0d 515e bf3f
000006f0: ab15 34a4 4916 90bf 70f1 7e07 dabf b5bf
00000700: 61b8 e42d f028 d33f 05e2 d12b 0579 bd3f
00000710: 4da5 2ebd 3591 cc3f 5a6c 3c13 c761 c33f
00000720: 7448 3eed a69a 9cbf dc3d fe8e 5e68 903f
00000730: c888 e621 1913 cbbf 9d25 11b9 4a8b c4bf
00000740: d672 c44b c82f c0bf 5dd9 d794 f072 b83f
00000750: b7d6 b2d6 9f40 c7bf 0055 15f8 585d d13f
00000760: fa06 4567 a096 a33f f03c 2b9d cafe 8dbf
00000770: 468b 32d3 eda7 c13f 46a4 bbc8 3b43 d03f
00000780: 8629 cca6 9cd8 d13f 4283 f161 5992 d1bf
00000790: 1fbd e343 a88a b7bf a0fc b517 675d 773f
000007a0: 467b a843 231c bc3f f7b9 740a 51ce b53f
000007b0: 4004 d8d1 3469 b9bf b2c5 ba85 dc31 b0bf
000007c0: d669 7e3a 969f da3f 02f8 0c94 9d77 d1bf
000007d0: e8fc caa9 1671 ba3f f4a0 9b95 d875 ab3f
000007e0: 8580 1a3c 1457 d1bf 1cbb d115 37a8 adbf
000007f0: 812d 8ffc 004e cebf 00e3 89b0 14cb c7bf

transformer_encoder.layers.0.self_attn.qlinear.weight f8 [32, 32]
-0.0011519069111618034 0.07412341498824539 0.1673882982385358 0.26028022108633353 -0.11035448598710834 -0.12155544995904904 0.04322408823944881 -0.3103759357398266
-0.11400720558841282 0.2796558528487949 -0.11046484311032356 -0.3973520692426658 0.33772897873768504 0.18128604861054487 0.059734680621460645 0.27251451659554937
0.2902286986133421 -0.07664700072301592 -0.4610326163742116 -0.1930553279089539 -0.2550047785191631 0.23075420931563423 -0.21933214391124167 0.187084232851351
0.19657529768225027 0.10216548296519595 0.05946395686076155 0.013232982476743038 0.30350937727998617 -0.06135156569693474 -0.14385277195920781 -0.010530391784507223
-0.10997105915357394 -0.11098083877333142 0.10857727700925124 0.06759128901760325 0.2521568284650608 0.06569531063162434 0.05332997739755244 -0.17806591314737666
0.006077730989072286 0.2608121567246591 0.11597625756103291 0.011364985376980288 -0.050091067235987996 0.2123822240293483 0.09039771862584223 0.15157270351621582
0.2442700495079822 -0.1842875652878423 0.1732208050352925 0.1499964589350491 -0.010991551389757333 0.34245734817821494 0.4276219004806726 0.2826067558431972
0.15304795576014604 0.15403018642883703 0.14167726884886161 -0.16757580344320777 0.04834587632441106 -0.0853242012613788 -0.01887229744520396 0.15541620941913376
-0.05330900122822701 0.01648345105219832 0.05024955128401045 0.21323996199626308 0.2283650503303957 -0.24878489691172403 0.1373517223233365 0.10416706598794832
-0.009660089992675203 0.0023327175413848447 0.18012789421909825 0.003145769940459675 -0.0475268826160673 0.15050928642020786 -0.009473646913492964 0.1598676336531994
0.24838896568779473 -0.086715061789815 0.07763032500980668 0.02369813815754193 0.14112442835442687 -0.15383646238165705 0.016682553871066787 0.227373775637977
0.25646905189179225 0.26171825946586114 -0.23992026065978955 -0.0631973724776057 0.08262271623634562 0.040486831252219496 -0.061064913585065134 -0.17383429814514123
0.12042476496195256 0.3858484691956555 0.06280106599500365 -0.025137361518477706 -0.18462607095867753 -0.1931220688116237 -0.1456078966760008 0.26890757955900707
0.08667312635682982 -0.34910014334193556 0.05002624448762311 0.10663284813719648 -0.08613273137390742 -0.03578401164013191 0.16060205294246244 -0.20006845379348012
-0.2240385402914199 0.21026654491228977 -0.11517279526654285 -0.2038823192848178 0.23048365508203433 -0.10911281454903327 0.27199098719314463 -0.2890704550649761
-0.08319649412193181 0.26873653454214996 0.25016043147736294 0.14164462541029546 0.083798842999546 -0.14690207978439784 0.007548989561207066 0.21069467894279414
0.21864290364021013 0.060446292386819145 0.6782531590171508 -0.13669310843974125 0.07917745606591131 -0.17945892168740668 0.23237887062723955 -0.19209809740402672
0.11203305120430045 -0.21546341721979856 0.08132940678043538 -0.2047085954903958 -0.2834153358360323 0.16851803204577903 -0.08808588744378276 0.14448837242409257
0.24518011579590898 -0.05910698287631003 -0.07200568519908453 0.07234732556780767 -0.10055535713644974 -0.11463924611293957 -0.15539753337304868 0.007275536442311541
0.20738906492378348 -0.07599127296969549 0.12211040327582795 -0.1015019528075868 -0.0054050204460896825 0.06984436036968764 0.17323121762620933 -0.10236443117602322
0.12304995071258047 -0.22477373186337096 -0.0456298020781144 0.12680227554250914 0.25222706358621055 -0.2588578476993745 -0.19749942786522923 -0.04788564831473471
0.20527371726320304 0.3102314044971677 -0.1420134686185856 0.1936118157006429 -0.09610235441637399 0.15939694157915876 0.05881502392642056 -0.19186879811629592
0.10587866957225628 0.007585917779805142 0.04674636906960327 0.05764210884463468 0.03965387832352226 0.05743014520633746 0.050182401495847406 -0.3583272006361329
0.06383149400341695 0.28948658444536784 0.4807205102177988 -0.1300305781299098 0.1571187577177528 0.05015321071390228 0.15435394836084557 0.1666200169249649
-0.031965373043949974 -0.049693293653301274 0.16178507689259855 0.012026560653158942 0.16243256335843673 0.06051617474444518 0.16963485983378299 0.05147846315784624
-0.04427439986774963 0.00512531741780748 0.12949803488180903 -0.023258414122403703 0.027240777313785124 0.22385515316110025 -0.14089120659109916 -0.012162102951460432
-0.3244345714531749 -0.014561311904746445 -0.00868892477876488 0.1717444047144285 -0.19983415218733253 -0.04188963677451029 0.1482277400935439 -0.10858113337702352
0.0193014049157688 0.08590236317364802 -0.0823442244239542 -0.10000674123924269 -0.03573763536917381 0.12624507717539574 0.0036888859834877663 -0.005896013061463347
0.12614125064285125 -0.12717443106652815 -0.15756870798610872 0.14570825851319902 0.062360427917678735 0.19979871841040517 -0.0852984771141841 -0.13770147316668616
0.10679420182404761 0.33922797053874004 0.10657084115804608 -0.23381009833688038 -0.3538141431741534 -0.1070868749028766 0.13836423570396084 0.062390381893312905
0.05608174700708425 -0.1557115567326119 0.19844460011611847 0.0018034743964020286 0.03311744291548921 -0.013290227064303273 -0.05778994995401168 0.1606285768920902
-0.04351116193339655 0.07199781485108267 -0.13536964056209794 0.12025906928877703 -0.019079673358788168 -0.061952116625109535 -0.25740289881269784 -0.06534948731572757
00000000: 3007 bca0 72df 52bf a90a 3e8b c0f9 b23f
00000010: 1a74 55d1 fa6c c53f 0822 575f 6ea8 d03f
00000020: bc11 480c 3140 bcbf a484 390a 421e bfbf
00000030: 6394 c6ba 7721 a63f f0f2 5d07 33dd d3bf
00000040: 78b5 8283 932f bdbf 4cb7 87a9 e1e5 d13f
00000050: 9840 8488 6c47 bcbf 954a 995f 376e d9bf
00000060: e2bf a501 5a9d d53f fc6d 0099 6134 c73f
00000070: 3890 6947 8b95 ae3f fca3 1dba e070 d13f
00000080: 9eea 3964 1b93 d23f 8a1c 7149 239f b3bf
00000090: 01dc 6df2 8e81 ddbf 6e00 d877 09b6 c8bf
000000a0: db10 0490 ff51 d0bf fe65 369b 5a89 cd3f
000000b0: 80b9 8760 1313 ccbf 7cce d84a 60f2 c73f
000000c0: d594 5f1d 6129 c93f 7495 1d60 8427 ba3f
000000d0: 9ff4 034c 0f72 ae3f 20ae bad7 e419 8b3f
000000e0: 7499 5c98 b26c d33f fa15 74f0 7869 afbf
000000f0: aa7a 8083 c469 c2bf 08d2 a042 f590 85bf
00000100: 6632 9236 1027 bcbf 889c 0381 3d69 bcbf
00000110: 70ed d76d b8cb bb3f 1839 d3a7 a94d b13f
00000120: f81c ee64 5623 d03f c6d3 a96a 68d1 b03f
00000130: c547 a319 114e ab3f c50b c024 ddca c6bf
00000140: 10ac 4f7d f6e4 783f 5906 e278 25b1 d03f
00000150: c84c 56b9 9eb0 bd3f c8f3 1b84 8646 873f
00000160: 405b 334f 89a5 a9bf 1299 3a39 572f cb3f
00000170: 6089 210d 4e24 b73f 02c3 48fe bb66 c33f
00000180: 0ab9 03b1 3d44 cf3f 7441 fc24 bc96 c7bf
00000190: 0583 4e6e 192c c63f e827 d27e 1533 c33f
000001a0: 64af 020e bd82 86bf 04d2 ac39 d2ea d53f
000001b0: f28a 673f 285e db3f 7f69 7ea5 3a16 d23f
000001c0: 4fd0 5a4e 1397 c33f 7481 a7da 42b7 c33f
000001d0: 566f 2512 7b22 c23f 30db b1b9 1f73 c5bf
000001e0: b86b 6b6b cac0 a83f ec95 f98d ced7 b5bf
000001f0: 6e65 4f71 4253 93bf 8e9a 5ca8 ade4 c33f
00000200: 0f1f b741 514b abbf 0b13 c7ac 09e1 903f
00000210: 8397 ce26 4fba a93f a9b3 7c73 724b cb3f
00000220: f5f5 5be3 103b cd3f 3dbf fcf9 2ed8 cfbf
00000230: d1c8 b6c1 bd94 c13f 1f0f bd5d b1aa ba3f
00000240: c078 c254 abc8 83bf d03a a231 101c 633f
00000250: 185a 624b 6e0e c73f 00ff 7a60 28c5 693f
00000260: 409f 088d 7155 a8bf bba4 7567 e343 c33f
00000270: 48a3 565d eb66 83bf fe5c 1de9 8a76 c43f
00000280: fa7d 28aa 35cb cf3f 4637 7552 f532 b6bf
00000290: fe4f 18bb 94df b33f 1870 7321 5344 983f
000002a0: 7977 3982 5d10 c23f 5047 6ec7 e9b0 c3bf
000002b0: 27f3 283d 3b15 913f c0a4 2a79 951a cd3f
000002c0: 90ed 932b fd69 d03f ac00 4bf1 fdbf d03f
000002d0: 643e 9704 b5b5 cebf b804 fcf7 b32d b0bf
000002e0: 864c 2428 c326 b53f 7c3d 4ba0 b0ba a43f
000002f0: dcd4 8f7d e643 afbf 6e6e bac8 3340 c6bf
00000300: d2db 234b 28d4 be3f 5a0c 1ac7 bdb1 d83f
00000310: 063c 9a0c bb13 b03f 69b3 84c6 9bbd 99bf
00000320: d7d4 60bc d3a1 c7bf be44 d754 39b8 c8bf
00000330: 77a2 2191 47a3 c2bf 998e f622 c835 d13f
00000340: 6b08 25c3 3530 b63f 7fae ab20 a857 d6bf
00000350: 9936 0838 0a9d a93f 4cb8 6d53 4a4c bb3f
00000360: c8b7 5d70 cb0c b6bf f297 6d2f 4852 a2bf
00000370: 9477 87aa 9b8e c43f 638c 00d5 d79b c9bf
00000380: 6430 cc7d 4bad ccbf 6fac eb9e 03ea ca3f
00000390: 4d07 0fdd f67b bdbf 4fcc c7da d018 cabf
000003a0: 3e81 6b08 7d80 cd3f 4407 1042 d1ee bbbf
000003b0: ae48 b3e2 4c68 d13f 389c af5d 2180 d2bf
000003c0: fc42 658d 5d4c b5bf 8454 c6b8 fa32 d13f
000003d0: 99b4 fce5 a002 d03f 414c e53c 6921 c23f
000003e0: 212d 204a d773 b53f 28b6 31f6 afcd c2bf
000003f0: e81b 8874 b0eb 7e3f 1011 c011 0bf8 ca3f
00000400: 2d8f 519c 7dfc cb3f d882 ee01 d1f2 ae3f
00000410: 2c65 0cf8 3fb4 e53f ac2b 2be7 287f c1bf
00000420: 6031 6248 f944 b43f 1eb9 cf8b 82f8 c6bf
00000430: 660d d040 97be cd3f e0af fca2 ab96 c8bf
00000440: 335a feb2 32ae bc3f 94c2 3825 4e94 cbbf
00000450: 8436 5306 01d2 b43f 21b1 6b29 e433 cabf
00000460: 7c70 a613 7a23 d2bf 9e21 36b6 ff91 c53f
00000470: 3868 cff5 cb8c b6bf 065c 1b51 987e c23f
00000480: b688 7ce1 0f62 cf3f 0485 d63c 4543 aebf
00000490: 255f 0eef f66e b2bf e94c 44b5 5a85 b23f
000004a0: e3b1 56f2 febd b9bf d4a6 e464 ff58 bdbf
000004b0: 22b0 dbfd 10e4 c3bf b812 4af1 f3cc 7d3f
000004c0: 57a5 b291 b98b ca3f 24ae 2f00 2a74 b3bf
000004d0: 7c30 929c a042 bf3f 99e9 c92f 08fc b9bf
000004e0: 687b cd20 9323 76bf 7e0c 99eb 51e1 b13f
000004f0: ede7 2cc7 702c c63f afb6 2c2c 8e34 babf
00000500: f5be 159a 3380 bf3f ca30 adb9 62c5 ccbf
00000510: 3002 4c17 ca5c a7bf f9b8 4195 0e3b c03f
00000520: 7135 51fb 7c24 d03f fea1 8b81 2091 d0bf
00000530: a476 d447 a947 c9bf 3c49 ebba 7784 a8bf
00000540: eed8 2fbf 6846 ca3f 987a 20d2 d4da d33f
00000550: ee77 a751 7f2d c2bf 24d7 46a0 45c8 c83f
00000560: 1474 49f5 299a b8bf c11b 9575 1e67 c43f
00000570: ce0b 8eb8 001d ae3f fa22 8422 288f c8bf
00000580: 1426 284f dd1a bb3f a8f9 634c 6912 7f3f
00000590: 9fac b8dc 23ef a73f 4a69 b838 4483 ad3f
000005a0: 3b41 1e5d 834d a43f dc76 eee6 7b67 ad3f
000005b0: e0d0 84fa 81b1 a93f 84f6 ff35 d5ee d6bf
000005c0: 2a12 33c3 4257 b03f d1b5 34bd f286 d23f
000005d0: 66b8 79f5 1fc4 de3f c022 468c d7a4 c0bf
000005e0: d631 feaa 771c c43f 8978 9c7f aead a93f
000005f0: 67f1 1bc4 dec1 c33f cd9d c601 ce53 c53f
00000600: 800a a8ef c35d a0bf 8895 243e 6671 a9bf
00000610: ef05 1e97 5fb5 c43f a469 82a5 61a1 883f
00000620: 1108 b719 97ca c43f 6415 d0de f9fb ae3f
00000630: bbb2 9f57 98b6 c53f 442e 6c97 625b aa3f
00000640: 32ca f656 22ab a6bf 48c1 0eeb 48fe 743f
00000650: 7558 5b40 6493 c03f 80d9 0cc0 0dd1 97bf
00000660: 56a7 b89e 01e5 9b3f 831a ef20 49a7 cc3f
00000670: ee26 4d1a b908 c2bf 68b7 6ad3 71e8 88bf
00000680: 8452 8538 89c3 d4bf d488 5733 52d2 8dbf
00000690: e4fb 18be 7fcb 81bf 9f7d c27c b8fb c53f
000006a0: 8e5d 225e 2a94 c9bf 3fc6 f9f7 8e72 a5bf
000006b0: b8e7 0768 20f9 c23f 5422 d120 f9cb bbbf
000006c0: db33 855b bfc3 933f e4dc 7a80 b2fd b53f
000006d0: 8a55 ead6 8214 b5bf 7088 00b3 0a9a b9bf
000006e0: 3b40 4b0e 344c a2bf bee9 df76 cc28 c03f
000006f0: 804f 0c95 2738 6e3f e891 69f4 6a26 78bf
00000700: ca02 1881 6525 c03f f8b8 2873 4047 c0bf
00000710: 0e2f d61f 362b c4bf 7820 8976 91a6 c23f
00000720: 5426 f1bc b4ed af3f db7d ad20 0193 c93f
00000730: 65a1 9af9 1ed6 b5bf 0154 eead 33a0 c1bf
00000740: e698 3c64 dd56 bb3f bd8c d63b e9b5 d53f
00000750: 0a24 7b05 3a48 bb3f cc6c ea42 7ded cdbf
00000760: 62e5 7213 e4a4 d6bf 20e8 89a1 0b6a bbbf
00000770: 0c6c a455 ebb5 c13f 5e2a a2d3 a1f1 af3f
00000780: e28f 982a bfb6 ac3f f64d e335 5bee c3bf
00000790: f283 c8f5 a166 c93f a061 4fe3 518c 5d3f
000007a0: 9c93 7ffc c4f4 a03f c0e0 c714 e837 8bbf
000007b0: d40e 2ef2 a496 adbf 74fb 462a 7a8f c43f
000007c0: c0a0 0753 1847 a6bf 9e3a 2be4 726e b23f
000007d0: 32f1 8ad9 ca53 c1bf ae87 a461 4cc9 be3f
000007e0: 4b9f 6034 9f89 93bf 1a49 a515 30b8 afbf
000007f0: def3 1202 4a79 d0bf bad7 d476 beba b0bf

transformer_encoder.layers.0.self_attn.qlinear.bias f8 [32]
0.2460272362829771 0.16544651704882493 0.09940095196712682 -0.08536284146181178 -0.12378466848073293 -0.22769813583993764 -0.06826179595263918 -0.29488766500324304
0.10079805707624986 -0.17118082371396257 0.037835358127984 -0.25670499125663143 -0.35962354836375177 0.034431019557310094 -0.19920283230997388 -0.018740613468978425
-0.06984851941919484 0.25456118184652565 -0.23482294746161395 0.21430799064576223 0.29500240819535417 -0.16999711523493966 -0.006981752102792525 0.2203803678344018
0.0206145866561753 -0.010863780204023153 -0.23597728498239834 -0.14104257657396913 -0.024013619224780153 -0.18071739003768506 0.16998775383911022 -0.3608134659375878
00000000: 055d e10a d27d cf3f 931c fbf9 592d c53f
00000010: 0fdc e33d 5772 b93f e442 5fd4 56da b5bf
00000020: 93f6 de1e 5ab0 bfbf 1e77 6567 3625 cdbf
00000030: aacc 2ee5 9a79 b1bf e4b1 4b83 70df d2bf
00000040: ce90 a4c6 e6cd b93f 43e3 c6d3 40e9 c5bf
00000050: 4093 95f3 275f a33f 5fb3 8ac5 da6d d0bf
00000060: a000 c67c 1204 d7bf 00e4 ee4d f1a0 a13f
00000070: 4e5d 0579 7a7f c9bf 6f30 d347 bd30 93bf
00000080: ac57 94b2 97e1 b1bf f829 b7fb ba4a d03f
00000090: b156 d9a7 ad0e cebf b429 8cb9 716e cb3f
000000a0: b02d dcc7 51e1 d23f ac98 2c29 77c2 c5bf
000000b0: 9851 34cf e598 7cbf 06bd 4384 6c35 cc3f
000000c0: f80a 097e fd1b 953f d268 7fe5 bf3f 86bf
000000d0: 3494 ccf0 8034 cebf 7048 dde2 ae0d c2bf
000000e0: 3886 eab4 0697 98bf f8e1 0358 bf21 c7bf
000000f0: 23d0 baa1 28c2 c53f 6622 0a5d 9117 d7bf

transformer_encoder.layers.0.self_attn.klinear.weight f8 [32, 32]
0.043134710999509114 -0.06883102259904451 0.28563247235804023 -0.22501536629929322 -0.28820857994336646 -0.2758050963372236 0.04276072411313929 -0.002040711791577103
0.059257591688139405 -0.21240063490702682 0.09456050276223517 0.1073433332027213 0.5940926188188899 -0.13697479510217345 0.09434923233095707 -0.21479230760604054
-0.03610303966301727 -0.0756673080747508 -0.2424172477055544 0.12532697729071524 -0.07623320704348907 0.019165702950916113 -0.13574997564541308 -0.025914600853552565
-0.05447400160371591 -0.08519125310772324 -0.11245470698357846 0.09066676792112124 -0.315174519160196 0.17510901051021008 0.21240766877302594 -0.07559750850970515
0.2219851288772059 0.4809763432305749 -0.2159981005945763 -0.1898236233146957 0.11939380358617732 -0.11938636406406841 -0.03318142302084987 -0.05162660086653015
-0.1857317931634334 -0.22572972399659214 -0.2867142211686347 0.12034417090984714 0.10450124906253228 -0.15270839185455948 -0.029111672035164668 0.1961836956800498
0.01845688176092483 -0.17809579755464822 0.14361643757865175 0.030574252528081176 -0.03641222642630662 0.03283409417084232 -0.08128037025068055 0.05015584966868874
0.11970849702800221 -0.01957414631727107 0.23424612118523375 -0.07676773184709959 0.30015588225555034 -0.1710929050880426 -0.18535385389598122 0.1958580268634893
0.24310359841138177 0.013678912042502385 0.20872789958398513 0.11017368646162506 -0.17679108728582607 0.08431315088417307 -0.023962817012142847 -0.09365113783177703
-0.012963350148811704 -0.2242367192094037 -0.0970479290024702 -0.04281060409847148 -0.00014262820378038027 0.0966445808414017 -0.2990553097891935 0.054387315549704836
-0.03828678693783172 0.2615119279697701 0.01402777577581505 -0.21336864440995296 -0.0953205876038766 -0.12821737731124316 0.19994372138751265 -0.0639737247771199
-0.1164511608907344 0.0992342586796795 -0.14417245499090714 0.028096013408721386 -0.12701087714810202 -0.11464391363735549 0.17899931724200469 0.09114006278721956
0.34163837776352746 -0.42562318150672485 -0.27556649193053906 -0.012063655578993445 -0.05675916522237641 -0.1982174527583455 -0.059949256295828444 -0.07380705212229778
-0.15852204395850683 0.25237470710942844 -0.5780832944026336 0.40702433986947184 0.1439193973692403 -0.0698649069639359 0.15682056229717664 0.03662965447913841
-0.032554279511658527 -0.13000192531020313 -0.06893450123049097 0.1454623002775692 -0.18849764449579254 0.18927912869348243 -0.17327005493622089 -0.046358492136231846
-0.11718049844422979 -0.03871238817256184 0.2016612233177704 0.07670456101066872 0.12706046596461112 0.13045319952272233 -0.25900150086278734 0.17759701984996323
-0.16007772454504987 0.13091788810168295 -0.055473069116986795 0.08014804941151174 0.2450988394601914 0.0866965346037709 -0.21081790174211618 0.16185135984313478
-0.032302096027529925 0.15881016078472981 0.20530197019332297 0.26526102095217224 -0.093272155227763 -0.16755911463680637 0.043876931514199836 0.077569968305822
-0.26841188648700676 0.15778157903338813 0.25264611713902163 -0.07486386926650924 -0.003124017020091574 0.08542121287077373 0.0803571010450119 -0.15562813529953634
-0.043276694273001654 -0.13569306024111719 0.15793829834696554 -0.014881950674596245 0.09738343043044971 -0.4030248776729245 0.05414771857132519 0.016672469217298695
-0.06259354893093894 0.020706637169638536 0.028281481613393555 -0.028183528087592613 -0.016019391934394528 -0.2307549964284492 -0.22941967515723932 0.2491347483840494
-0.05309305386781821 -0.13440672711878582 0.1380746887350094 -0.23930854642726462 -0.09227389929549858 -0.2401750405039738 -0.08542512238582166 0.3484991605611078
0.12682814815030186 0.18390290011980942 0.09308811647266685 0.07843878033118505 -0.19078547107379476 -0.15919255405275554 0.011020838877941141 -0.24373941566956972
-0.19252657932835102 -0.037825602176392775 0.19659393700302358 0.06598521547872152 0.003396275105283883 -0.03009188751800226 0.17914844833676613 -0.3132631519276053
0.10730071533805205 0.07658631567797315 -0.17832957280456097 -0.15444479960238228 0.2047703599068066 -0.18642046229078316 0.17258989545758258 -0.011519421327080726
0.23070134915027213 0.02271152051686538 0.156908012273888 -0.3943539834558814 -0.08978189078355167 0.09348533148856117 0.14343767300670485 -0.12087821112440042
0.08550595900833366 0.11532949273666382 -0.22193575847079777 0.15493718662867084 0.32636111383107225 -0.28085942570833716 -0.3896743025313012 0.03212122748830949
-0.024654221144394993 -0.32150640550463866 0.2949729360115774 -0.20140071278952112 -0.13944375847182128 -0.25667247871300125 -0.03518394457754928 0.10393179366782496
0.00546171836176413 -0.12782253261186138 0.09693859370750983 0.2255267936391302 -0.2549598425497853 -0.24403611526816993 -0.06268944923923155 0.07329954757795154
-0.10181249140253866 -0.11467086252006377 -0.20426622638851732 -0.18257718311445809 -0.19812466661436612 -0.19883627545403587 0.07041373441610145 -0.31004850780539145
-0.14882694101328955 0.048044188564645485 0.29324416508799517 -0.14691360213756097 0.1292962235647621 0.002761783384523306 -0.2418190851453174 -0.02150304472417276
0.0772997414437277 0.007114610843758126 -0.09444713455690837 -0.010362795212857457 -0.07486800517833497 -0.13817810542382133 0.049806860677159226 -0.17054605423440794
00000000: 696f 21ba c015 a63f b15c 03ef e89e b1bf
00000010: 9e04 dd6b cd47 d23f a52c adb3 4dcd ccbf
00000020: 9422 5266 0272 d2bf 10aa 356b caa6 d1bf
00000030: 5609 3dcf bbe4 a53f 70ea f8cc aeb7 60bf
00000040: 3439 aed4 0257 ae3f f6a3 49aa f12f cbbf
00000050: 116c dbfa 1d35 b83f 2aa0 8c49 da7a bb3f
00000060: 75e8 1386 ce02 e33f 9389 abdc 6388 c1bf
00000070: 6aa0 4373 4527 b83f 29d7 4c78 507e cbbf
00000080: 5a17 47fd 187c a2bf 84b2 8ec5 ee5e b3bf
00000090: 20db 7043 8707 cfbf 7e94 62e2 b60a c03f
000000a0: b4f8 1efb 0484 b3bf db21 848d 2ca0 933f
000000b0: 6238 ea54 4160 c1bf 9e9e 9e6c 5b89 9abf
000000c0: 598c bd2e 04e4 abbf 00c0 000e 18cf b5bf
000000d0: 6496 c6e8 d4c9 bcbf 0e24 0ef3 ef35 b73f
000000e0: 18d6 14bf d12b d4bf b329 b0d8 f869 c63f
000000f0: 1b5e 66ab 2c30 cb3f e050 b5ba 5b5a b3bf
00000100: c0eb 5c3a 026a cc3f a4cc 1400 51c8 de3f
00000110: 26a2 0665 d3a5 cbbf 288a 12f7 234c c8bf
00000120: e667 bfa1 9790 be3f 8e57 3ed1 1a90 bebf
00000130: 4928 6bcd 27fd a0bf d099 a644 cd6e aabf
00000140: e670 bb34 0fc6 c7bf ca75 262b b6e4 ccbf
00000150: d5e9 cd9a 8659 d2bf 6e70 5226 e0ce be3f
00000160: bc5e 1d07 98c0 ba3f ee87 6bd6 f28b c3bf
00000170: eca8 4a3d 73cf 9dbf 3924 7a1e 8c1c c93f
00000180: 987e 325e 5ce6 923f 28b0 06d5 d7cb c6bf
00000190: 31bf 48ff 0562 c23f 75bd d45a db4e 9f3f
000001a0: 94df 5993 9fa4 a2bf a8aa 5061 a1cf a03f
000001b0: ce8f 0854 cace b4bf a76a 0f0c 07ae a93f
000001c0: 8ee0 c94f 37a5 be3f 6483 1eb9 3e0b 94bf
000001d0: 964b dae2 c6fb cd3f 3ee0 abd1 0ca7 b3bf
000001e0: dc55 7f04 c135 d33f a223 f74f 5fe6 c5bf
000001f0: d3dc 55d2 acb9 c7bf d8d5 0436 e011 c93f
00000200: 2dc0 5bca 041e cf3f c473 f07e b003 8c3f
00000210: 2eed 3c87 98b7 ca3f 0881 3bbc 5734 bc3f
00000220: b9f6 0e21 17a1 c6bf a494 abf1 8b95 b53f
00000230: 7a7a 8c6d b589 98bf e07d 385e 85f9 b7bf
00000240: d466 7c67 878c 8abf 688a c8ef c9b3 ccbf
00000250: b2cb 3511 22d8 b8bf c0c4 0c81 45eb a5bf
00000260: 00bb 02f1 ceb1 22bf a8a8 0c02 b3bd b83f
00000270: d057 cfe1 b823 d3bf 89d8 347b a7d8 ab3f
00000280: 10a8 8863 539a a3bf 7238 8986 9cbc d03f
00000290: c4be 8a31 98ba 8c3f e0c5 ddea a94f cbbf
000002a0: 36e7 6416 ee66 b8bf c853 2a51 6d69 c0bf
000002b0: 0230 3380 c197 c93f be95 b8ff 9460 b0bf
000002c0: 5260 9b47 becf bdbf 000a ac97 6a67 b93f
000002d0: d8c1 9535 3e74 c2bf 8628 f48a 33c5 9c3f
000002e0: 012f cb75 e441 c0bf 1805 c2b3 4d59 bdbf
000002f0: 4cc6 c71a 73e9 c63f 5ac8 0685 f454 b73f
00000300: cc61 e336 67dd d53f 2c6a 3f03 693d dbbf
00000310: 6ac4 ada3 e1a2 d1bf 71b4 7471 d4b4 88bf
00000320: 5ab9 c18c 890f adbf 6ef8 8b82 305f c9bf
00000330: eb92 6b3e abb1 aebf f155 14db 04e5 b2bf
00000340: 2699 3f49 734a c4bf 40d8 573e e826 d03f
00000350: 1358 7a89 a87f e2bf 6e95 1ad1 af0c da3f
00000360: 48ff 7a68 f36b c23f 0156 8ca2 aae2 b1bf
00000370: e30e 3439 b212 c43f b875 1a40 1fc1 a23f
00000380: 8ae0 b15b f4aa a0bf efea cf30 e7a3 c0bf
00000390: 22dd 5904 b1a5 b1bf 9f1d 3f37 829e c23f
000003a0: 5cc1 3dd9 b020 c8bf 9de5 c669 4c3a c83f
000003b0: 6ee1 a991 b62d c6bf fae5 3bdf 4cbc a7bf
000003c0: a404 8c88 8aff bdbf 706b 4d32 1cd2 a3bf
000003d0: e9b5 82f3 08d0 c93f 12af fefc e8a2 b33f
000003e0: 025d f770 8443 c03f 6ae8 cdc0 b0b2 c03f
000003f0: 8184 f407 7b93 d0bf 28b3 0fc8 7fbb c63f
00000400: 5c9a de47 6d7d c4bf bdd6 edd7 eac1 c03f
00000410: f018 5553 f766 acbf c685 0f23 9584 b43f
00000420: 1871 e215 665f cf3f ffba cc7c be31 b63f
00000430: c265 b2bc 14fc cabf 2f71 ab9c 8bb7 c43f
00000440: b89c 0f7c e689 a0bf aee4 6b2f e453 c43f
00000450: b070 e4bf 5547 ca3f 6129 795c 09fa d03f
00000460: 48a7 5418 afe0 b7bf 9b82 c1ba 9372 c5bf
00000470: e5fc cd83 0977 a63f 9277 061d a0db b33f
00000480: 5e70 940c a92d d1bf ba08 eed0 2f32 c43f
00000490: f2b3 a49e 5a2b d03f 49d4 264e 472a b3bf
000004a0: 00bf dedd 8997 69bf 0625 aa23 2ade b53f
000004b0: 8e5c fd70 4892 b43f e877 b96b 9feb c3bf
000004c0: a4be 29e5 5c28 a6bf 0dcf 03e4 635e c1bf
000004d0: 62d2 1779 5237 c43f e0a8 959b 6d7a 8ebf
000004e0: 9ffe ded8 1eee b83f 5a18 45db 28cb d9bf
000004f0: d46d d5f0 3fb9 ab3f 1ea1 2078 9612 913f
00000500: 5855 997d 2106 b0bf 0ba0 d0e5 1e34 953f
00000510: 30a3 721a d2f5 9c3f 003d b08d 24dc 9cbf
00000520: 4812 d731 6367 90bf a03e 8635 6189 cdbf
00000530: 1afd edb8 9f5d cdbf b9a7 4dbe a5e3 cf3f
00000540: 789b 0344 032f abbf de35 ab58 3d34 c1bf
00000550: ecd8 4270 6eac c13f a079 4796 a9a1 cebf
00000560: e1a1 bf23 439f b7bf 72d8 2344 0ebe cebf
00000570: 1766 e7ba 6bde b5bf 3fc7 526c cf4d d63f
00000580: ec46 429e e73b c03f baba d356 218a c73f
00000590: bc76 e56f 9fd4 b73f 93b4 425c 9014 b43f
000005a0: f52d 6887 a86b c8bf 9b2e b6ee 6b60 c4bf
000005b0: 0023 71f4 1792 863f 8502 8669 da32 cfbf
000005c0: efba e900 b6a4 c8bf 6425 9998 e05d a3bf
000005d0: 1e8b 0279 fd29 c93f c228 8036 68e4 b03f
000005e0: 6058 2c50 81d2 6b3f 7715 0f63 68d0 9ebf
000005f0: b426 5e1b 56ee c63f 598a 24e4 800c d4bf
00000600: eede 3647 0f78 bb3f 7174 2829 299b b33f
00000610: 8478 8de1 80d3 c6bf 3e2d aae1 d8c4 c3bf
00000620: 84b4 7e47 ea35 ca3f f50b 6c2e a0dc c7bf
00000630: ce20 4efa 6c17 c63f 4002 f38e 7e97 87bf
00000640: e22a df2e 9f87 cd3f 1311 7357 b041 973f
00000650: fa2d 99ce 8f15 c43f a961 7f7d 183d d9bf
00000660: de3a b02c f2fb b6bf b62a 6699 a7ee b73f
00000670: 7800 4a69 2a5c c23f 5e0a 94db dff1 bebf
00000680: 06cd 8df1 b7e3 b53f 3878 91cf 3b86 bd3f
00000690: caf6 3814 6468 ccbf d88f c052 fbd4 c33f
000006a0: 34cc a5b9 19e3 d43f 9b33 0cd0 99f9 d1bf
000006b0: c8aa 5d7c 6cf0 d8bf 32ab 238b 3172 a03f
000006c0: c617 18c6 f43e 99bf 3934 469a 8f93 d4bf
000006d0: 25fd 572a d6e0 d23f fd39 69a1 7fc7 c9bf
000006e0: 1e47 2207 4bd9 c1bf 18c2 7667 526d d0bf
000006f0: 6415 9c46 a103 a2bf bc63 d126 469b ba3f
00000700: 885b e6db 065f 763f 6042 a11e 7d5c c0bf
00000710: 13a9 b1b9 f7d0 b83f 8ca1 86dd 0fde cc3f
00000720: 56db 6216 4351 d0bf 8c51 0f4f 933c cfbf
00000730: 8d68 496e 6a0c b0bf 88ad a857 c2c3 b23f
00000740: 6fef e528 6210 babf c9e9 53d4 115b bdbf
00000750: c00c 024d 6525 cabf a277 3c6b b05e c7bf
00000760: 98de d129 265c c9bf 2ab1 2a92 7773 c9bf
00000770: 79a2 816e a206 b23f 0da8 4cb2 d5d7 d3bf
00000780: ed38 35de c20c c3bf e8c7 4b75 3f99 a83f
00000790: cded b22c 83c4 d23f 475a 429e 10ce c2bf
000007a0: 987d da55 c78c c03f 60d2 152a e19f 663f
000007b0: 2db7 1f83 edf3 cebf e342 6be7 e404 96bf
000007c0: fc74 7d75 eac9 b33f 3003 5dce 3524 7d3f
000007d0: fa71 1ffa af2d b8bf cd62 46d4 1639 85bf
000007e0: 1cf9 c1b1 8c2a b3bf 57c6 e8f5 d1af c1bf
000007f0: 901c 73eb 4880 a93f 2006 b3fe 73d4 c5bf
