experiments/fl_train_noise_0.5_max_grad_norm_1/20250427/model_round_48.pt (torch, 62806 bytes, 25 tensors)

embed.weight f8 [32, 8]
0.018521043136536224 -0.11492427958593385 0.09301968054057874 -0.1695482123708829 -0.07863460763541198 0.13999928018409646 0.2371054035114432 -0.1867969637743296
-0.0075948623453972255 -0.3514763995238338 -0.11195955421340495 0.22185511828167354 -0.12306938935706456 0.05982606124373695 -0.15580088190837796 0.1812451030316184
0.11806535508057103 -0.02725317180323896 -0.012004628391440404 -0.08588903157198569 -0.33194296351405805 0.2359149643012071 0.06275015814045114 -0.2315368673543349
-0.35843465482571746 0.07019016139721054 -0.09591834172008676 -0.0522222874858791 0.022657498955979863 0.3281384857376284 0.11619564728851986 -0.11431532435341854
-0.002809337568209287 0.04948017787908916 -0.10356208781884113 -0.25045112260522084 0.1799619099340684 -0.10197082624178974 -0.3441567726226969 0.11311953686688425
-0.19563493910782973 0.16312417446916294 -0.07487135595921508 0.009371359445429807 0.17178316438754837 -0.2646075512592322 -0.3258522631591601 -0.1520887772229872
0.16422238708118958 0.14147376383288487 -0.05588904218815566 0.025537501700640293 -0.1868206186848165 -0.2682646343442896 -0.1853948331642499 -0.09613230432238115
0.296291949668244 0.010396740863642881 -0.0646815415184975 0.12612695582401004 -0.1475782713075452 0.003925478173767649 0.1939506281739735 -0.08560550032145564
0.06130334855570985 0.049873582434615954 -0.16618583157168787 0.22090745840911724 0.06950095831125597 -0.4009793771742756 0.10802772937199606 -0.06989726801412686
-0.09698040829581048 0.033550283178594494 0.07859566785204275 -0.019729908688527666 0.01272252837332492 -0.006090015388633366 0.04497685375836801 -0.33523321772915027
-0.008775898163709335 0.0614057476586964 0.3691246249575375 -0.08559692554459804 0.10964520843595109 -5.3956916770403485e-05 0.05642158909168274 0.012346305978425773
-0.14889158611297232 0.16198055289767793 -0.3152379531335297 -0.25491226391700983 0.07575300794172943 -0.3415654252824072 -0.08603805403316209 -0.25686269200458034
0.19917282932123692 -0.1463138159453468 -0.13722348876724785 -0.2138819446015563 -0.053295853590921066 0.018812933360517148 -0.0427485642848562 -0.032926916867804384
0.16526574415478554 -0.1541151093718451 0.25092292800415067 0.042294306892095804 -0.36817913134837554 0.05653379583803502 -0.10339407878160692 -0.30630944423366935
0.042366578588947525 -0.4132292816401095 0.0012707077778526393 0.17172632319518866 -0.14191035725350293 -0.21058692093870546 0.09361762141269425 -0.12610473310257916
-0.27255070246538116 -0.08551819709272254 -0.12350420109552088 -0.2826943448220803 0.13683099709628369 -0.1951991139672058 0.18647099633855993 -0.14090060002659274
0.3223085544234522 0.07499722074531913 0.07512492226451169 -0.1453280360803099 -0.2402924310930739 0.03858860763241545 -0.3928294943715572 -0.04550336739550484
0.07949459483833998 0.05867845285685002 -0.06550505488948033 0.016269224974607296 -0.29260482682526473 0.019889009283543896 -0.2500726275643699 0.3992639297587477
0.04736867471372173 -0.138236886698841 -0.16571629616246633 -0.0435913889968724 0.10553461158745153 -0.07472789788102517 0.17121081785197806 0.2754552536346551
0.05652222565289311 0.10467380816034148 0.12528086144815354 -0.34048779550516706 -0.16218779018601795 0.3028399280391578 0.07152899391555231 -0.24919526070390996
0.04606940011745511 -0.04748296707751578 -0.10718882813913566 -0.18820037975137346 0.04135137029570319 -0.15237114440431948 0.0014860622874516421 -0.42311593807235137
-0.1320453907505682 0.059235923685816205 0.005091396374671833 -0.14428463850742834 -0.08582089509469554 0.09125734736245247 -0.16949938732887587 -0.29041592696670415
0.08987505991972662 0.05603131508016146 0.0226029841777383 0.020804207720899096 -0.18997617876237585 0.033435038370262384 0.1404315847756612 0.23184416140509784
-0.10540178528607937 0.19378086893578544 -0.006756158865193915 -0.29071719051061196 -0.10537426382811046 -0.0452497517060363 0.23291449858132351 0.32647451528575533
-0.026416634883769705 -0.009015582534214275 0.053740511079900403 0.1689946773012835 -0.2510299678609218 -0.0717135889122826 0.06875284446047134 0.038894117588227604
0.1452819936682328 -0.1829047655021088 -0.05719829947129334 0.09777031552113336 0.19880820768695334 -0.26804102874437186 0.01720852291265218 -0.021867092227324587
0.029997729435649073 0.14386079318082573 0.02711803919308052 -0.020602264256175104 0.11040566523017326 0.06277518918025796 -0.06601183420178065 -0.03598337268957926
0.16927742265683954 -0.12409984579212721 -0.20557365171568498 0.027813681179436833 0.06319378543783738 0.24692154005330205 -0.0652236839337505 0.1467255429660021
0.13206034685921691 -0.14628760831920545 0.21319301843346034 -0.14380983098980551 -0.0027413592757623076 0.11002770334523432 -0.24819371848095909 0.08962187819587145
0.28942964345977595 0.11769273197662852 -0.07564695105364638 0.07825012014519589 -0.11072080166268662 0.20268231415791058 0.025006942957517795 -0.11653055925219402
-0.22527956752495465 -0.1507151679638354 0.11779063826480429 0.05190688693935104 0.01977685307966287 0.008423886278244738 0.005572003198740905 -0.2275269519789998
0.12972378738402301 0.09525620826477371 0.09622945024410659 0.17130984412377004 -0.20176739160339402 -0.18457090653114533 0.23747980214685308 -0.15598216757373248
00000000: 5ba6 3c2a 2ef7 923f a683 5676 ad6b bdbf
00000010: 1060 ce45 23d0 b73f d035 9d7d c1b3 c5bf
00000020: 29bd 20cc 6521 b4bf 9457 ed14 7feb c13f
00000030: 16ad e448 7859 ce3f 5790 3381 f6e8 c7bf
00000040: 28f5 4156 ca1b 7fbf 1653 51de 967e d6bf
00000050: 9641 d29f 61a9 bcbf f228 bc9e bf65 cc3f
00000060: 6762 6dba 7981 bfbf 460e fb80 85a1 ae3f
00000070: 2d02 3e86 48f1 c3bf 9e5c 0a1f 0a33 c73f
00000080: 1097 dcf6 8739 be3f c6c0 6d66 41e8 9bbf
00000090: 2426 bcf2 e195 88bf 78d1 afd5 d2fc b5bf
000000a0: 6888 1bb3 8d3e d5bf c1c4 2728 7632 ce3f
000000b0: 7735 08f5 6410 b03f d575 8d04 00a3 cdbf
000000c0: 36b0 0ee8 97f0 d6bf 06b5 b37f fbf7 b13f
000000d0: 2a3a c6bc 1a8e b8bf 0192 bf31 e1bc aabf
000000e0: 94b0 1904 8733 973f 3855 3390 3800 d53f
000000f0: baaf 0a79 ffbe bd3f 9291 87e3 c443 bdbf
00000100: 9002 539f 9b03 67bf 7af7 9443 7755 a93f
00000110: 3893 4984 0b83 babf 8c7f 3525 6407 d0bf
00000120: 8aa4 d8ea fd08 c73f 1ec6 da93 c21a babf
00000130: 0921 c720 aa06 d6bf 70c6 61e7 66f5 bc3f
00000140: 7d27 b6d0 900a c9bf 501a 44c1 40e1 c43f
00000150: 4d83 40e9 c42a b3bf 548c b292 4a31 833f
00000160: fc21 86a0 fdfc c53f 06b7 bb82 54ef d0bf
00000170: c927 6673 c3da d4bf 3c74 2122 a577 c3bf
00000180: 1673 e43a 3d05 c53f 0fbf 73f2 cf1b c23f
00000190: f847 ce10 7d9d acbf 42d0 80ba 8026 9a3f
000001a0: 8921 bcef bce9 c7bf e4a7 cb6d 3f2b d1bf
000001b0: 99d7 a494 04bb c7bf ee5b 276f 209c b8bf
000001c0: f629 7982 72f6 d23f d864 f4ef e24a 853f
000001d0: 6a10 7a31 f88e b0bf 953e 3497 ed24 c03f
000001e0: 14dd 6e44 d8e3 c2bf 0037 0a86 2914 703f
000001f0: 25df 85ca 5fd3 c83f c805 3df8 3dea b5bf
00000200: 5037 5d0a 2763 af3f 0469 fbba 0789 a93f
00000210: ec58 d4cb 9345 c5bf 3ea2 a712 b246 cc3f
00000220: 0ccd fc96 d0ca b13f a55f d567 a5a9 d9bf
00000230: a4bf b68c b4a7 bb3f d74e 3390 c9e4 b1bf
00000240: 2ab5 fb41 b5d3 b8bf 9915 0cb2 802d a13f
00000250: 3024 087f d81e b43f c7fa 47c2 1334 94bf
00000260: 5672 49da 440e 8a3f d031 d20e d8f1 78bf
00000270: 6f36 f0c7 3407 a73f b67d ab06 7674 d5bf
00000280: 6469 d91c 19f9 81bf fa07 f6fb 9270 af3f
00000290: 20d1 15e4 bc9f d73f 7d29 da1b aee9 b5bf
000002a0: 5b40 6558 b511 bc3f 00a0 1a8b f949 0cbf
000002b0: 34cf df5f 4ae3 ac3f 38e0 3a23 0549 893f
000002c0: c29c 8026 e10e c3bf 8a4a a45c c7bb c43f
000002d0: c9a7 cace db2c d4bf 3cdd 3787 7b50 d0bf
000002e0: 6ef0 ae93 8c64 b33f b810 c23a 35dc d5bf
000002f0: 76ae 4804 9706 b6bf 6a38 6e37 7070 d0bf
00000300: 50df 17ca 7e7e c93f d917 383f 69ba c2bf
00000310: 07ca 3f0e 8a90 c1bf 7060 a2ca 7b60 cbbf
00000320: 14ee 5e18 9849 abbf c0da 1996 b243 933f
00000330: c2db 1bcb 23e3 a5bf e4ed 35fe cbdb a0bf
00000340: bf9e 258b 6d27 c53f 2728 493d 0bba c3bf
00000350: 7b0a 660a 1f0f d03f 022c d171 99a7 a53f
00000360: 6480 0d34 3f90 d7bf c777 7c68 fff1 ac3f
00000370: 8a90 f7ca 0878 babf 8421 5ced 929a d3bf
00000380: 5d44 f77a 12b1 a53f bc34 993a 5972 dabf
00000390: c047 5016 bcd1 543f 282a fece 20fb c53f
000003a0: 4e09 af5b 1e2a c2bf 70d3 3221 83f4 cabf
000003b0: 20fd 4b0e 53f7 b73f fbef 452c 3324 c0bf
000003c0: 06cd 6580 7871 d1bf 5ee3 b943 85e4 b5bf
000003d0: eab5 9fa8 f89d bfbf 4d99 7105 aa17 d2bf
000003e0: 25c6 cd98 ad83 c13f f841 59d9 48fc c8bf
000003f0: 7d9c 7617 48de c73f 53ed 8ce6 0709 c2bf
00000400: 9a10 1e0f b4a0 d43f a15c 6492 0433 b33f
00000410: 4599 3d0c 633b b33f 4d13 14ed 1b9a c2bf
00000420: f2b2 8202 e7c1 cebf 900d 8fcf e2c1 a33f
00000430: 35b9 ce51 1e24 d9bf 4ca4 a4a5 374c a7bf
00000440: c818 0afd c159 b43f 5f06 0028 1a0b ae3f
00000450: b816 7974 f0c4 b0bf 0cf0 c934 e1a8 903f
00000460: bb70 7798 09ba d2bf 28ce b0d1 c85d 943f
00000470: 64e1 409f 3001 d0bf 2052 324c 8a8d d93f
00000480: ed26 80f9 b440 a83f ee76 bc0d bfb1 c1bf
00000490: 314d 370c 3136 c5bf 9cef 414c 9c51 a6bf
000004a0: 0c3a 5df9 5004 bb3f d771 7f15 5e21 b3bf
000004b0: f2a4 b26f 3cea c53f 99d2 7712 0fa1 d13f
000004c0: 1045 5a2d 7bf0 ac3f cbe3 cb16 e7cb ba3f
000004d0: f804 5e09 3409 c03f e06f 9852 8dca d5bf
000004e0: 1569 54cb 91c2 c4bf ac79 b6b8 ba61 d33f
000004f0: be44 9561 b94f b23f 744f 855b a1e5 cfbf
00000500: 249d b38d 6896 a73f 3311 6efd af4f a8bf
00000510: b8a9 5a1f ba70 bbbf 3b3f 1036 f316 c8bf
00000520: 8931 21be 012c a53f ea0a 09cd e580 c3bf
00000530: 40c2 293b ff58 583f 9ef9 1bdf 5414 dbbf
00000540: d43c 6e05 dde6 c0bf a036 f5c5 2b54 ae3f
00000550: 9017 b94e b7da 743f e82f da45 eb77 c2bf
00000560: 14c3 beb1 5bf8 b5bf 8e02 713a a45c b73f
00000570: e680 a2ea 27b2 c5bf 28cf 23af 2c96 d2bf
00000580: ddcd 144b 0d02 b73f c06f a4f3 22b0 ac3f
00000590: db70 5797 3c25 973f e42e 1fbf b24d 953f
000005a0: 95d7 66b1 2351 c8bf fd7a aeb8 651e a13f
000005b0: e0ec f783 a9f9 c13f be70 80c9 11ad cd3f
000005c0: c164 be84 9cfb babf 72b7 55bf cfcd c83f
000005d0: 301f f695 58ac 7bbf 7632 6846 1c9b d2bf
000005e0: ea57 fbc8 cef9 babf 1187 75b7 f92a a7bf
000005f0: 14e4 156d 24d0 cd3f 2c4e 885d f5e4 d43f
00000600: ecab 955b f60c 9bbf ae57 1c01 c376 82bf
00000610: 6ff3 1d53 e083 ab3f cd81 1a1a 9ea1 c53f
00000620: 6cd4 91ff df10 d0bf 4e9a 0e5f d25b b2bf
00000630: 86f6 7652 c999 b13f c3af 1806 eee9 a33f
00000640: c059 c0b1 9998 c23f 099b 0e61 6c69 c7bf
00000650: d766 3b73 1849 adbf 80d0 aeb3 7907 b93f
00000660: 3a8e 181f 8c72 c93f 965e 1c8f 9527 d1bf
00000670: 403e 7d6c 1c9f 913f d25f e6b7 5364 96bf
00000680: 887f 858b b9b7 9e3f b6b2 f1cc 076a c23f
00000690: fc1b ddcd d4c4 9b3f acb6 d08c c218 95bf
000006a0: 80eb 74b1 8b43 bc3f 2288 87e8 0812 b03f
000006b0: e5ad 0bcd 26e6 b0bf 5b94 cda1 696c a2bf
000006c0: e492 21f1 e1aa c53f 02a7 1deb 01c5 bfbf
000006d0: 78e2 84c7 3c50 cabf 602e 308c 307b 9c3f
000006e0: 7815 c4c9 772d b03f 417b 9a01 209b cf3f
000006f0: 9c8b 6bd5 7fb2 b0bf e66e 4310 e7c7 c23f
00000700: 9eeb 6d7b 5ae7 c03f f640 c566 8db9 c2bf
00000710: 5a20 f4a8 e849 cb3f 71e5 784c 5c68 c2bf
00000720: 9097 f30d 0c75 66bf cc92 858b c62a bc3f
00000730: 8963 f9cf cfc4 cfbf 2a7c db9b 75f1 b63f
00000740: 7ac5 49e9 0386 d23f fe06 d162 1c21 be3f
00000750: 4049 d13c 995d b3bf 0c83 ee2a 3308 b43f
00000760: e1cd 20ce 3258 bcbf df95 647b 7ef1 c93f
00000770: 19b0 b388 6b9b 993f 0807 f95c f2d4 bdbf
00000780: a204 7dfb f5d5 ccbf 9739 b576 a24a c3bf
00000790: 184f 1ffb 8627 be3f faf0 ae1b 8a93 aa3f
000007a0: b0a0 c724 6240 943f 38f1 8fe0 8a40 813f
000007b0: c054 3038 abd2 763f c2ab da68 9a1f cdbf
000007c0: fcef 2900 ca9a c03f 94f8 3cfb b562 b83f
000007d0: 22e3 b545 7ea2 b83f 244a ff20 7bed c53f
000007e0: 92fb 2a8e 83d3 c9bf 6613 acfb 04a0 c7bf
000007f0: 5534 d7f7 bc65 ce3f ff82 3e42 39f7 c3bf

embed.bias f8 [32]
-0.1537547584860566 -0.11305409337454186 -0.03788019081931792 -0.01910681819137316 0.11922826218753661 0.0806950038811617 0.10991721749258057 0.009041260523118051
-0.13791134635083072 0.3021346136141645 -0.17807816258207076 -0.3023237435219718 0.10851713498239746 -0.10640818369260686 -0.06798061794884447 0.2730621458269638
-0.103814479244764 0.1160005271718288 0.09216704879432099 0.2872160974854079 -0.03682298976734437 0.2506097341904552 0.011876268524668311 -0.10335948537191211
0.09033965073985262 -0.11223090002358987 0.14614634650834119 -0.2597244672081408 0.1353365860058078 0.20951984780456928 -0.19316680269570569 0.021841699802256226
00000000: a9a7 a665 3cae c3bf 80fb b8f1 1cf1 bcbf
00000010: 6f6d 7849 0865 a3bf ffdd 0cdd bc90 93bf
00000020: dbb8 da4e be85 be3f 49c4 9e82 6da8 b43f
00000030: 3ae0 65e6 8823 bc3f 045d 1772 3984 823f
00000040: a57d 2939 14a7 c1bf 8098 1d6b 2c56 d33f
00000050: 64fc 35e6 43cb c6bf 56cb ceaf 4559 d3bf
00000060: 7015 ce69 c7c7 bb3f b98b fc14 913d bbbf
00000070: 0027 da82 2d67 b1bf 998d 86a6 d979 d13f
00000080: d420 35f1 9593 babf 5492 85e6 35b2 bd3f
00000090: 6527 577c 4298 b73f ac69 65a0 bf61 d23f
000000a0: f657 9581 76da a2bf 8410 1a69 fd09 d03f
000000b0: 14b4 4bc7 9552 883f 5a5c 6769 c475 babf
000000c0: d0b0 75d5 7f20 b73f ecb3 330d 2abb bcbf
000000d0: 6673 5769 ecb4 c23f be51 285f 539f d0bf
000000e0: 3972 6c91 b552 c13f aa7d 17df 8bd1 ca3f
000000f0: d21e 2096 b0b9 c8bf d8e4 5ba9 ab5d 963f

pos_enc.pe f8 [1, 12, 32]
0.0730808526412379 0.2443698835986792 -0.3234654993837623 -0.18724243962194018 -0.3447177868608252 -0.10809230763607947 -0.15629178056091908 -0.07612508485774973
0.11021182496962245 -0.02966384138563989 -0.16257762069903914 -0.15670837996361844 0.034429290543972604 0.15693678160012275 0.3521756787896908 -0.2134385203414249
0.08276009721071485 -0.24173784193317432 0.1029624352398088 0.10289485883019489 0.35903466184959126 -0.12239019277904761 0.014083144108434545 -0.10209336098340935
0.12625420451739616 0.2878406538435558 -0.2653742619721281 0.029314807420027192 0.0655401918628442 0.22552264650400589 -0.148070551917867 0.2856739105636086
-0.33738832459868795 0.005781803402039848 -0.14715471791574666 -0.15253587595126353 0.06094475659036502 0.30275192874514906 -0.2781244105447015 0.19329996533188912
0.41006926666116117 0.13687379737589933 -0.1746166673681861 0.08469948819436961 -0.013868636509861938 0.113425972563304 -0.10537108057877506 0.41728666901333084
0.16065331914946734 -0.2742440399794239 0.07708680964173927 0.009977978004336661 -0.47651825856962826 0.0023869888655708715 0.3577363880219381 -0.16927338941687536
-0.18584097261720836 -0.12901088352750828 -0.27266676935589484 0.04073185752676187 0.2501114312868511 0.06400987197522962 -0.01148046897086874 -0.09719417048933968
-0.5092172825720781 -0.18578729301781763 0.10229414412575392 -0.28974594338225873 0.29131316090537634 0.25242976853885446 0.12984340018829382 0.006737358485602779
-0.026436451663046187 0.007482603680996652 -0.25061794102580753 0.40329103059106375 0.20112064161329812 -0.0011154086872199528 -0.272725496576132 0.10048231288227474
0.19047605224012665 0.10192440754760684 -0.1330267134695562 -0.07551251172377835 0.03340725331838992 0.0643847556886602 0.17325043589369404 0.12073080875409697
-0.08781902674341817 -0.10461973733277201 0.04592580760005638 0.10438474119232322 0.09661928450325254 -0.1428698251648086 0.16307388058263755 0.2180421264056675
-0.17095864126742055 0.2187716835932285 -0.14212474166294176 -0.09076853576759508 0.2287175566823893 0.31066396731514934 -0.10829446666431473 0.23117674991145593
0.09985645489162934 0.07353546966645036 -0.33581798433977156 -0.08222003868628143 0.05975496037019376 0.1849705033826663 0.10376944282644097 -0.05744207088448369
0.37399987429249926 -0.02867078934401219 -0.18840835796158323 -0.09112081130354194 0.5044771832245476 -0.1435630634026601 0.11825568419467541 -0.0897901085169789
0.2788036870811237 0.05055071444426537 -0.15541623443118716 -0.04439932439469405 0.05184488103576115 0.10950210930474308 -0.03499540014638029 0.011911021339380747
0.2668223214993972 0.07217919086873831 -0.2548388579880156 -0.20882656405386163 -0.004811379671544722 -0.08620792433482441 -0.05270282294521175 -0.3512588021681535
0.04053892923122242 -0.21495531396949383 0.12684635105989275 -0.37554486361545225 -0.03765348611702781 0.11854660626164533 0.30979815777665864 -0.21213174291879838
0.048205308376159876 -0.012132168453931474 0.11711835726835801 -0.008331354662272666 -0.3142645565671919 0.0761130510514811 0.08587763698236567 0.08447493132332483
0.011526767435510343 -0.04014239875673295 0.209648114141666 -0.12718360392843656 -0.02163323152708313 0.20118404344366325 0.0107702036069081 0.37760061920873594
0.1006469626707008 0.08290552455005773 -0.3263011819937161 0.08585174280840896 0.004007919622401046 0.20938745268643832 0.0616977918488634 0.07590345062118434
0.04458526663178304 0.2624533259500413 0.29715901585226545 -0.010419062148502363 -0.15682439896207342 -0.03843334910487235 -0.08235246973084996 0.1247384185760732
0.036095220785684556 -0.18284024020390235 0.19516720662578096 -0.1597951654115593 -0.26064178426820095 -0.06160093672162556 0.09612629255968311 -0.0458615277978445
0.14995550134378538 0.23279141734535894 -0.17457573463971274 -0.034280712462713886 -0.020888648879546966 -0.08515323823949475 -0.23018142501467348 -0.0050785027545813405
0.1266752711133914 -0.34632224969064995 0.025310790847077415 -0.10199692614704059 0.0037172787226248255 -0.18415056415896644 -0.14506925655838557 0.13663808471967012
-0.3510386951582325 0.040000175691695686 0.5679676047752092 -0.16608655866723515 0.14106278758564744 -0.5175650416545143 0.1865010319996964 0.42399652715131
-0.055722279458969695 -0.06321010957085695 0.10621025377444251 -0.3142813990956582 -0.237996032622274 0.09228530380470107 -0.002515254092964471 0.011143537998484783
-0.18171222427600137 -0.038482149943770194 0.08285753642266058 0.052481717339993704 -0.13182369679610179 0.10379961192302639 0.03976739282227804 -0.19560426834576095
-0.05564257636030336 0.010230344962147015 -0.007818897112953672 0.07931803644903383 -0.13238068767751443 -0.034248051006609416 -0.13161906803019327 0.22347385442046994
-0.0800982053844925 0.04174438854119264 0.17378327735720536 -0.07859499224747739 0.15071997252615127 0.0924542278122594 0.1441225077001091 -0.16374251169870419
-0.025841056650501466 0.17303440281825436 0.06418596817288237 -0.029704201104156974 -0.0016998048272161767 -0.002369986787239195 0.26112927749200554 0.023343593876974378
0.026225393860565563 -0.04289479718076679 0.015210108318125467 0.11008147330673516 0.21271097412207485 0.1120492821178997 0.0022452410872526307 0.04192455454897307
00000000: 52d3 0e40 6db5 b23f f981 1729 8347 cf3f
00000010: 4d34 4fa3 a8b3 d4bf 03bc 4c6d 8ff7 c7bf
00000020: eaab 3a31 db0f d6bf 8802 3ffe efab bbbf
00000030: d445 127b 5e01 c4bf d187 defd ee7c b3bf
00000040: 6083 e097 d736 bc3f 540e 80b2 3260 9ebf
00000050: f45f fbed 57cf c4bf 11f8 792b 050f c4bf
00000060: 325a d249 b7a0 a13f ee89 4124 8116 c43f
00000070: ec4a b6db 0b8a d63f ba59 4914 f451 cbbf
00000080: 970d ef06 c42f b53f 3e80 a7fe 43f1 cebf
00000090: 9c4d 1204 bf5b ba3f 582b 9a45 5157 ba3f
000000a0: fd8f b184 6cfa d63f 204f 56b3 f654 bfbf
000000b0: 68f3 f69a 9fd7 8c3f befd 8f5e ca22 babf
000000c0: 3e3e b107 1929 c03f b7e8 ad34 fb6b d23f
000000d0: 12b5 1754 e4fb d0bf 1456 a16c b304 9e3f
000000e0: ffdd 9ff4 3dc7 b03f 48fc 9e13 eddd cc3f
000000f0: cc73 fed0 f9f3 c2bf 703b cc39 7b48 d23f
00000100: bc07 0d33 c597 d5bf 20ec 6008 a9ae 773f
00000110: f93a 733e f7d5 c2bf b5b4 56ab 4b86 c3bf
00000120: 302b d6b0 2634 af3f c1b9 30a0 4960 d33f
00000130: b28f e053 cacc d1bf 0d8e b5a2 0dbe c83f
00000140: 88e1 592a 933e da3f 2854 b4a1 1485 c13f
00000150: 4668 d7c5 d659 c6bf ab62 c89b ddae b53f
00000160: 8aef ffe1 2867 8cbf 8027 ad0a 7c09 bd3f
00000170: 5eaf 0761 99f9 babf a104 1e25 d3b4 da3f
00000180: f4d2 deb7 4990 c43f 2469 b5df 368d d1bf
00000190: 553f 5d0e f6bb b33f ccb0 ab89 556f 843f
000001a0: 1e38 2070 467f debf 0025 a2e3 e08d 633f
000001b0: 4e2d c929 27e5 d63f 6674 d01b c0aa c5bf
000001c0: 31e9 d211 a3c9 c7bf 4613 caba 6d83 c0bf
000001d0: 14bb 4552 5f73 d1bf 1c2e f757 ceda a43f
000001e0: d0e5 6e60 d301 d03f d437 c172 f362 b03f
000001f0: 8055 2e76 1283 87bf 6a12 9d97 b7e1 b8bf
00000200: e78f e60a 824b e0bf 050f c3c5 e0c7 c7bf
00000210: 13a9 97f3 f22f ba3f 156e be91 328b d2bf
00000220: 19e9 bef4 dfa4 d23f 9651 1a30 cf27 d03f
00000230: 3280 b462 b59e c03f 20a6 b6e5 a198 7b3f
00000240: 3ca1 423d 2812 9bbf a0b9 9421 14a6 7e3f
00000250: efc9 1fd5 1f0a d0bf 0829 ca2e 85cf d93f
00000260: a4cb 2339 52be c93f 6086 54f5 5c46 52bf
00000270: 361c 25a4 5574 d1bf 22e3 a777 35b9 b93f
00000280: ac71 85ef 8461 c83f 0cc6 14cd b717 ba3f
00000290: 384d ecf3 0407 c1bf a6dd 4ab8 c954 b3bf
000002a0: 9441 e768 c11a a13f e832 0bf4 847b b03f
000002b0: 4430 17fe 112d c63f 1cee 37db 36e8 be3f
000002c0: 1b5c d4c7 4e7b b6bf f340 5cee 5bc8 babf
000002d0: e087 5e63 9683 a73f 0859 9f59 f5b8 ba3f
000002e0: 41b9 1a9b 0abc b83f ff83 55f5 8e49 c2bf
000002f0: 1a95 f7db 9adf c43f 9604 08ed cde8 cb3f
00000300: 4c28 9b06 f9e1 c5bf 7f71 29e5 b500 cc3f
00000310: 4488 b2be 2431 c2bf 2cac a054 9b3c b7bf
00000320: d666 fcec 9d46 cd3f ea81 ea1e ebe1 d33f
00000330: e736 a9a8 2fb9 bbbf 1a8e 3b22 3397 cd3f
00000340: 0ad6 0d50 3190 b93f 443b 5075 38d3 b23f
00000350: 2978 09b7 0a7e d5bf 4dc2 3b59 5f0c b5bf
00000360: eca4 20c1 3398 ae3f 2869 600b 1dad c73f
00000370: 3982 435b a290 ba3f cc0b ba0f 0c69 adbf
00000380: 60d7 322b 9def d73f d207 551a e05b 9dbf
00000390: ca78 dedb c31d c8bf 8ca0 8888 b153 b7bf
000003a0: 5ce2 7055 ad24 e03f 172f 1d43 4660 c2bf
000003b0: f4a6 2e28 0146 be3f e9af 950b 7cfc b6bf
000003c0: 1421 816b ebd7 d13f 3cb5 a782 c8e1 a93f
000003d0: 2120 13de ade4 c3bf bdba 7a1c 82bb a6bf
000003e0: 34f7 0689 698b aa3f 4490 4e8a 5408 bc3f
000003f0: f63c 47c6 eaea a1bf 94b2 ea38 ce64 883f
00000400: 80b1 2bee 9d13 d13f 1ca4 3be0 557a b23f
00000410: b7be 33a4 474f d0bf 82dd 922f d4ba cabf
00000420: ca22 68e5 18b5 73bf b292 acf7 b811 b6bf
00000430: 9cc2 e949 ddfb aabf 7ca3 ef32 067b d6bf
00000440: 86a2 86be 84c1 a43f 83d9 ccdd a783 cbbf
00000450: 81a7 b550 803c c03f 7a2f da52 ed08 d8bf
00000460: d3f2 e756 5147 a3bf ed0f f204 1259 be3f
00000470: 48c1 00a7 bbd3 d33f d2cd 2309 2227 cbbf
00000480: 2f3b f0bd 5dae a83f f0e0 e915 c0d8 88bf
00000490: 5c95 3afa 77fb bd3f 505b 727e 0710 81bf
000004a0: bedf 2f16 e91c d4bf 9d9c 1019 257c b33f
000004b0: 8c09 4caa 13fc b53f 1f93 5d2b 26a0 b53f
000004c0: 601b 5089 589b 873f 8cb2 af63 8b8d a4bf
000004d0: 3209 f4d8 bfd5 ca3f fde2 ba65 8d47 c0bf
000004e0: d097 a997 0527 96bf 5ca6 8813 66c0 c93f
000004f0: d87b 1a42 b00e 863f 0fdb 9cc9 9b2a d83f
00000500: c6c5 1cd5 ffc3 b93f 38a8 99e4 4b39 b53f
00000510: 31c9 535a 1ee2 d4bf 24ae aa3b 61fa b53f
00000520: 4058 40bb 9b6a 703f 6891 bd42 35cd ca3f
00000530: 74db 735c da96 af3f 4a50 1296 686e b33f
00000540: 0a47 224c e1d3 a63f 85a3 eb08 09cc d03f
00000550: 7802 b33f a704 d33f a464 76d9 9656 85bf
00000560: 1fe4 6068 d212 c4bf ea5c f632 89ad a3bf
00000570: ff23 3d2c 0d15 b5bf 44c8 5664 dbee bf3f
00000580: 1801 a2a1 127b a23f 15c6 081a 4f67 c7bf
00000590: becd da30 3dfb c83f 0a33 c000 2b74 c4bf
000005a0: ecca d9e0 5aae d0bf 4ca4 3e71 288a afbf
000005b0: 825e d492 bb9b b83f c49a 1284 297b a7bf
000005c0: 5e3c 10eb bd31 c33f c1d6 24f2 1bcc cd3f
000005d0: 67f3 7967 7f58 c6bf 2c66 d2d5 3d8d a1bf
000005e0: 365e 2e7f d563 95bf ba1a 6345 9acc b5bf
000005f0: 6ad7 4abe 9576 cdbf 90ac e533 32cd 74bf
00000600: f16c 5231 e536 c03f 6c1a 13cc 242a d6bf
00000610: 9a45 b26b 12eb 993f c014 1876 781c babf
00000620: e0ba 66d1 b273 6e3f 9f25 4de5 3e92 c7bf
00000630: e161 4920 a191 c2bf e528 a154 5b7d c13f
00000640: a472 d500 6b77 d6bf 6234 dc2c e77a a43f
00000650: a34d f665 ca2c e23f 82f6 e308 5342 c5bf
00000660: 2a75 ae6d 580e c23f 44b0 ee8f e48f e0bf
00000670: edf1 8d0c 44df c73f 80e0 6e54 c222 db3f
00000680: 52a4 de6f a187 acbf f926 62a9 892e b0bf
00000690: 120a 765e 9830 bb3f b2d8 b6ba 2f1d d4bf
000006a0: 8d5f 586c a776 cebf 0c1c be79 02a0 b73f
000006b0: d0d1 40c2 de9a 64bf 842e 1f5a 6cd2 863f
000006c0: 7e40 469e 5842 c7bf 60fd f9ae eeb3 a3bf
000006d0: b896 29c9 2636 b53f ebf3 3937 e2de aa3f
000006e0: aadd 4951 99df c0bf fc00 8c82 9c92 ba3f
000006f0: 71dc 3c47 645c a43f fc63 c087 8f09 c9bf
00000700: 9322 770b 2f7d acbf 7752 50a8 a5f3 843f
00000710: 349d 209b 5a03 80bf c312 88d4 2f4e b43f
00000720: 8034 19b2 d9f1 c0bf 7ddd 0ce6 f588 a1bf
00000730: 731e 5cc4 e4d8 c0bf 279d 1f90 ca9a cc3f
00000740: 5e3d 98e4 5081 b4bf 8ce1 263f 855f a53f
00000750: 6da2 6bca 873e c63f e310 5529 cd1e b4bf
00000760: 924a 6dc4 ca4a c33f 66a1 d48c 14ab b73f
00000770: c640 9838 9b72 c23f 8afc 5abe 83f5 c4bf
00000780: 92fa d4f4 1376 9abf 35f9 97c6 fd25 c63f
00000790: f924 2ada 7d6e b03f e844 2f31 c76a 9ebf
000007a0: 6055 1e89 7fd9 5bbf e0d6 c7f7 386a 63bf
000007b0: 2ccd b692 57b6 d03f 8041 1711 62e7 973f
000007c0: e4c9 d263 d4da 9a3f 4ab1 1e8e 4ef6 a5bf
000007d0: 5e17 5c2e 7a26 8f3f fb77 bfa7 4c2e bc3f
000007e0: fc63 adfa 1c3a cb3f 8b95 3c02 43af bc3f
000007f0: c007 53a1 9c64 623f a5d9 5f9d 2277 a53f

transformer_encoder.layers.0.self_attn.qlinear.weight f8 [32, 32]
-0.13244209012654587 0.48101640123112827 -0.2433275318744343 -0.341912873120409 0.29923216893319793 -0.09680223926367675 0.13157076339354778 -0.17854924384547757
-0.04611523410342286 -0.11718008036813121 0.1998223136045305 0.0700250955906785 -0.06957151643749276 0.10748972272340679 -0.29719948946116537 -0.30638714674062373
0.03609347305790017 -0.16798282169173487 -0.28874199381644744 0.1587727141017822 0.050634182716057234 -0.12533523730621982 0.12893048670612658 0.2822271891585439
-0.16362855316852049 -0.010796595605065434 0.06880408401683785 -0.11475197971530816 0.011259652923123059 -0.2155659409627292 -0.01248636930549421 0.23958099552952372
-0.12734781530625516 0.039591589996298485 -0.0824708905774412 0.046094988776549765 -0.19839992072672846 0.07072272316858774 0.2411000733854947 0.07975355236928988
-0.13862772893545683 0.16158731611595806 0.3512323996034063 0.2513054984505918 0.07584072360953455 0.1015040867781926 0.05943662567799639 -0.4517224007516229
-0.24983181258602374 -0.19053634571938535 -0.053061813169736016 -0.1853666347222349 -0.006761179323215918 -0.1936877675679256 0.17212024020740363 -0.00874786644794251
0.07324091959937622 -0.12411227396848999 0.01923176418276404 0.0250544022628873 0.03370336606284708 -0.15397951113749525 -0.15413603864462036 0.15946891355461196
-0.049886491914599665 -0.07452397920156778 -0.049017972599168624 0.09189528470532221 0.2543071201663457 -0.047043870431283344 0.16511515610837846 -0.33147552777042455
-0.12683056866864525 -0.15438404472319328 0.13562576362363046 -0.11120643992829907 0.16406597085615973 0.16051606859709555 0.13255530982454541 -0.3488269819210222
-0.004992531430361671 0.10592222930360988 -0.0442848664742746 0.1623793582937369 -0.02974175882907175 -0.32805309027325213 -0.039053886445451984 0.11905979307855286
0.06477490727710296 -0.12632578085608037 0.2705974575735344 0.38545731016228785 -0.32491632362665246 -0.28055379903795946 0.238843370750576 0.0959108912176461
0.21249862304426625 0.08125702667954252 -0.11723078375458021 -0.07592254784805569 -0.031272875974927866 0.12966737527479935 -0.18747254712308103 -0.013942952943216812
-0.08659427709908851 -0.18595278283180017 -0.23889556029634576 -0.1161635536980885 0.08500626908056556 -0.23542109714284246 0.15354304121044987 0.03178650544859157
-0.4578909655664467 -0.005864635727387463 -0.08092918067286092 0.07981012434945464 0.06706097035775674 -0.3639117565732639 -0.15340684327096804 -0.08113941472154912
0.17490464823892132 -0.0960717721572884 0.0773005589016822 0.5089995552352483 -0.05221555846352163 0.035265851421850306 -0.1869314507242661 -0.23753238306715496
0.03504650011296623 0.15226041513807856 -0.28503819761285215 -0.07251788430190616 0.17026436379303164 -0.13530361641688526 -0.04349312014523633 -0.23222973629043175
-0.09662373559553494 -0.44529040367145556 -0.037870756123069435 0.17190571055468418 -0.09428322721111594 -0.001931695707627662 0.047347949628675334 -0.24119824474395182
0.14743807788856828 0.17370269698070007 0.09071212628698617 -0.11997682550734126 -0.25770622074797267 0.2700688071124561 -0.004676855484194119 0.23637901107788706
0.33437016985898477 -0.16419690659110456 0.07868159875037803 -0.2580599714228401 0.1920556525072137 -0.22198694546567999 -0.3483525286243484 -0.17282411704032166
0.1418750791635426 0.038381794943630206 0.11795337668109632 -0.10643667767637052 0.28844440710150915 -0.038383618017788446 0.06689159613465495 -0.1314776220967973
0.08857049149919287 -0.011264017496439169 -0.18725150285357367 -0.22693632887757875 -0.0860465464043829 0.1268738941802755 0.11439056563698646 0.0009735606771310995
0.11583846824249892 -0.19651332182697334 -0.1488768463683385 -0.2440393438377645 -0.04173826498741792 -0.15901131113115713 -0.16176587569914413 0.11791604058626473
0.12370070095863314 -0.07500519314174148 -0.24095430907202858 -0.18370564207477633 0.12947320411127955 -0.10828293359259089 -0.08252915592669895 -0.07972127385363148
-0.1707678105110774 -0.08900008963878411 -0.01100070702738852 -0.009998143485546368 -0.0036689499326213668 0.09570543998863087 -0.4547174829342708 -0.17513076977426328
0.1195320515624956 0.4735334985658981 -0.10089001628228089 0.0770260832974111 0.13066277973635992 -0.1774159040895929 0.012017240546878416 -0.2542553749625944
-0.03373574812752202 -0.1191196083194772 -0.05604063273822324 0.2973810440251339 -0.08803332032233861 0.19370463953083178 -0.23647558130472207 0.026827227343465387
-0.09557863391393423 0.12051716018851502 0.04166377655250323 -0.10594178457508155 0.18425305571359768 0.09295953837841121 0.12763282972671663 -0.14219659762495865
0.0781355628051408 0.45096507404796177 0.29639128492193245 -0.09068864712218355 0.0027662084411355925 -0.01502571128738759 0.05789565444349744 0.07096683515136573
0.1845384240407792 0.08648412961216412 0.05955261829169381 -0.0035355193685759137 0.16174224599223025 0.23938871667513317 -0.09476084374010241 -0.10249171723253166
0.13526967354291794 -0.15285622688486392 0.100407540138433 -0.19254012923315827 0.05392464314428698 -0.025406473532912935 0.18197588176816493 0.08659628902217233
-0.09841857584674153 -0.0689312708722931 0.028764538156841497 -0.037854807753998 -0.1458117490075139 -0.10170678946455723 -0.10741305379437868 0.22597381417406917
00000000: 0d8c dac6 dcf3 c0bf d925 0804 f9c8 de3f
00000010: e6fc ce47 5b25 cfbf 278c 0888 e6e1 d5bf
00000020: beab deae 9e26 d33f c32a d113 08c8 b8bf
00000030: 0c49 f18e 4fd7 c03f 855b 859d b3da c6bf
00000040: cca6 a47c 6a9c a7bf 887c ec84 83ff bdbf
00000050: 50a4 f80e c793 c93f b113 7627 2aed b13f
00000060: 4c08 d55b 70cf b1bf cccd c04b 7284 bb3f
00000070: 18e9 e701 5105 d3bf 5a9b cad5 d89b d3bf
00000080: 48f6 c3fc d77a a23f ad57 ba0a 7680 c5bf
00000090: 3b1a 1bb3 bf7a d2bf 653b 480f aa52 c43f
000000a0: 9f7a a63d b9ec a93f 6220 a22c fc0a c0bf
000000b0: 431a ee4f cb80 c03f c396 dea0 0210 d23f
000000c0: d279 46ca c7f1 c4bf 5051 4188 861c 86bf
000000d0: 74fd aefa 249d b13f 094c 07c0 6260 bdbf
000000e0: 1091 8d08 4d0f 873f 6d7f 482d aa97 cbbf
000000f0: 10c5 801e 7492 89bf 3c6e 450e 97aa ce3f
00000100: 8c8c fae6 ee4c c0bf ea23 7650 5945 a43f
00000110: 52f0 e6f1 cf1c b5bf 970a 9c2a c399 a73f
00000120: f26f 8629 2b65 c9bf 68d8 1767 e21a b23f
00000130: c97f 2001 5edc ce3f f479 2a93 ba6a b43f
00000140: 6c5b 0cad 8dbe c1bf 5a4e 15a7 e4ae c43f
00000150: 27e7 6575 977a d63f 089e 49a8 6315 d03f
00000160: 09a1 9b33 4c6a b33f 2b68 1ffd 2bfc b93f
00000170: 0674 f136 7a6e ae3f 2b53 8612 05e9 dcbf
00000180: 0158 4724 7dfa cfbf bf34 c8b6 7e63 c8bf
00000190: 4001 7600 eb2a abbf e066 f308 18ba c7bf
000001a0: 50ac 3541 9cb1 7bbf 6874 abc1 c2ca c8bf
000001b0: bad1 5539 0908 c63f 60f4 6dc2 66ea 81bf
000001c0: 7385 68ba eabf b23f 4713 ba6d d2c5 bfbf
000001d0: 5861 d6d8 7db1 933f 7016 5c79 dca7 993f
000001e0: 3195 024e 9141 a13f 5678 4bc2 99b5 c3bf
000001f0: a58b 8ece baba c3bf 020d 3934 7a69 c43f
00000200: 8a1c 92e6 b88a a9bf b442 70e5 0014 b3bf
00000210: 2095 753a e218 a9bf ac49 770a 7386 b73f
00000220: 0a48 105f 9146 d03f 3291 f559 2216 a8bf
00000230: 149b c751 7e22 c53f 2ab1 cc21 e536 d5bf
00000240: 174f 48ec fb3b c0bf da1e 8e3b dbc2 c3bf
00000250: 2917 a15d 2f5c c13f f2bc 9876 0678 bcbf
00000260: 5d5a 9b1d 1d00 c53f c4b2 8d60 ca8b c43f
00000270: dbc4 4d88 92f7 c03f 090b d467 2e53 d6bf
00000280: 5084 7b73 0c73 74bf 5b46 c71e b81d bb3f
00000290: e8f1 6d8a 81ac a6bf 6e62 b5c8 d8c8 c43f
000002a0: ac4b fca5 9f74 9ebf 98d2 8463 d2fe d4bf
000002b0: 673c 21fa defe a3bf 3079 8add b37a be3f
000002c0: 7549 5b9c 1695 b03f 5492 b574 712b c0bf
000002d0: 542e aaff 7751 d13f 85ac 4923 55ab d83f
000002e0: fe6e fad5 6dcb d4bf edbd e8eb 97f4 d1bf
000002f0: 7abc 1e69 6b92 ce3f 3229 1cbd 9d8d b83f
00000300: a8c7 35a6 2733 cb3f 62a9 28b0 42cd b43f
00000310: 6a74 4f2e d602 bebf 2451 09fc a86f b3bf
00000320: 1cdc 2097 ff02 a0bf 05eb 14c8 f098 c03f
00000330: 4c4e 65b5 19ff c7bf cccd 3477 1f8e 8cbf
00000340: 084e 29e4 0a2b b6bf 506f 6e00 4dcd c7bf
00000350: 85f2 5035 2194 cebf 80d4 1e08 e5bc bdbf
00000360: f3ef a789 f8c2 b53f 552b 824c 4722 cebf
00000370: 567d 4362 4ca7 c33f e82e b622 5246 a03f
00000380: d878 8fe8 154e ddbf e0ed 6e2a 8405 78bf
00000390: 0032 4858 c6b7 b4bf 4e79 f8b1 6f6e b43f
000003a0: 924b 8662 e82a b13f 582c 4789 544a d7bf
000003b0: 7e6b 6adf d5a2 c3bf 4c48 a57c 8dc5 b4bf
000003c0: ee61 0d88 4663 c63f 34fc 7bdf 2898 b8bf
000003d0: b1fb 712c f8c9 b33f f93e 6d6f b949 e03f
000003e0: 4ceb e267 ffbb aabf 8a7d 0b9d 5d0e a23f
000003f0: f82e baa9 5eed c7bf 08d7 810c 7667 cebf
00000400: 581e a667 9df1 a13f bd28 bfef 447d c33f
00000410: 3be9 36da 103e d2bf 15a9 7335 8890 b2bf
00000420: 1f29 1501 39cb c53f 2841 c5ff a051 c1bf
00000430: 52e4 3ff1 ba44 a6bf 8857 4339 b4b9 cdbf
00000440: c871 6648 55bc b8bf 6475 3f52 a37f dcbf
00000450: cef7 0bb6 cb63 a3bf 40fc 699e 0101 c63f
00000460: 59de 6e11 f222 b8bf 8024 f778 1ea6 5fbf
00000470: 6829 608e fd3d a83f 7991 8386 95df cebf
00000480: 52b6 5b3d 40df c23f 582a 61d5 e33b c63f
00000490: 85d3 c0ef e838 b73f 52f9 d41d cdb6 bebf
000004a0: b2a6 853b 427e d0bf 4fef 8dad ce48 d13f
000004b0: 4cca a4d5 0928 73bf 142a 05dd aa41 ce3f
000004c0: f558 1324 5266 d53f 75e2 f47b 6704 c5bf
000004d0: d60b 6e2d 7a24 b43f 1ebd 6af8 0d84 d0bf
000004e0: e9e4 4395 4795 c83f f8fe 7477 116a ccbf
000004f0: 26e9 7a67 684b d6bf 1dfa 52c5 191f c6bf
00000500: 51fa 8f6c f628 c23f f9de 1654 c7a6 a33f
00000510: d24e 4c47 3132 be3f fe03 b721 6f3f bbbf
00000520: 11c4 cd87 df75 d23f 7057 2d80 04a7 a3bf
00000530: 9c8c c6c1 ce1f b13f 3ae2 873b 42d4 c0bf
00000540: ab32 6144 8eac b63f 1875 26d6 9611 87bf
00000550: 7e04 7174 dbf7 c7bf 20d9 66e7 3f0c cdbf
00000560: 0f96 bd7e 2507 b6bf a437 1c5d 673d c03f
00000570: 88bd 613a b348 bd3f 80f1 6ca2 d1e6 4f3f
00000580: 7363 b800 97a7 bd3f 7cd2 3c39 5927 c9bf
00000590: ff4d 2481 650e c3bf 4439 5c64 ae3c cfbf
000005a0: 4cb9 39c6 b75e a5bf aa4e 808e 7b5a c4bf
000005b0: bc49 de84 beb4 c4bf a2e7 fde1 be2f be3f
000005c0: 160f 1c61 d9aa bf3f f0ed 9253 8a33 b3bf
000005d0: bab6 a53e 97d7 cebf e3a2 669e aa83 c7bf
000005e0: 36e2 aef4 9392 c03f 08c0 7e2a 6eb8 bbbf
000005f0: aff1 ab79 a120 b5bf c02e ff07 9d68 b4bf
00000600: 9d63 ad38 b8db c5bf 0ef3 56ba b5c8 b6bf
00000610: 78f7 52e7 8987 86bf b03f 541a e879 84bf
00000620: 30a5 147f 580e 6ebf f6ea ccd6 2680 b83f
00000630: ffd0 875b 171a ddbf 0215 5a60 af6a c6bf
00000640: 62e2 480c a799 be3f e8a9 7972 5f4e de3f
00000650: b8e0 6c98 edd3 b9bf d78b b33c fbb7 b33f
00000660: bed4 e2d6 8eb9 c03f 1273 ed78 90b5 c6bf
00000670: a097 18b9 7e9c 883f d8fa 1256 b845 d0bf
00000680: a2dd d3dd cf45 a1bf 4f63 0b66 9f7e bebf
00000690: a033 b799 5bb1 acbf 4873 a280 4a08 d33f
000006a0: fb23 be07 5a89 b6bf 7227 ef49 50cb c83f
000006b0: bed0 00f4 d444 cebf 9385 54c0 9878 9b3f
000006c0: f450 db62 d777 b8bf aad0 9d6d 36da be3f
000006d0: a513 715b f454 a53f 6aa4 0734 001f bbbf
000006e0: 0e2e 3da8 9a95 c73f a1c0 2f41 32cc b73f
000006f0: 583d c9c6 4556 c03f e169 3384 7f33 c2bf
00000700: 0213 e736 b100 b43f 5326 2b9d 9cdc dc3f
00000710: 96c8 e326 13f8 d23f 841d 8205 5f37 b7bf
00000720: c02e 3cd9 28a9 663f b4b3 a0d4 ccc5 8ebf
00000730: 42a7 d4cc 7fa4 ad3f a263 13ec e12a b23f
00000740: be25 0e80 f49e c73f 40a9 4eec d223 b63f
00000750: 3472 e847 ae7d ae3f 503f ff81 85f6 6cbf
00000760: 1a88 754c f8b3 c43f 7857 931a 4aa4 ce3f
00000770: 701b ce24 3f42 b8bf fde5 9fad e53c babf
00000780: 6ff3 0044 8450 c13f e9ef baf7 ca90 c3bf
00000790: b097 2afd 4eb4 b93f f6ac 1cab 27a5 c8bf
000007a0: 3aa1 81c5 029c ab3f 44e2 b893 2704 9abf
000007b0: a871 6d56 fc4a c73f 3121 4ea5 2c2b b63f
000007c0: 81a5 94b4 f531 b9bf 9f76 11d2 7aa5 b1bf
000007d0: f236 ac7a 7374 9d3f e57d 9992 b461 a3bf
000007e0: ff0e ae9a f5a9 c2bf d70b 88c6 7409 babf
000007f0: 2ed9 3501 6c7f bbbf 1da4 d0be b5ec cc3f

transformer_encoder.layers.0.self_attn.qlinear.bias f8 [32]
0.24325190425535564 -0.15302394442209585 -0.20950674973978278 -0.04714520197664052 0.0663175954631455 -0.0211038270073947 0.09154469828919118 -0.004367121960989047
0.1566810359940312 0.12783855937591293 0.03665392682873468 -0.13665960092054463 0.016791306526798375 -0.14985172154974227 0.08754098478421993 0.09123955863036122
0.35610916049231983 0.009338976667184251 -0.1702466330167349 0.18574558708707858 -0.24197713216711303 -0.33544514058710245 -0.1552380457250928 0.03541596833138267
-0.10119621818490086 0.12942130404205104 0.2803195668075834 0.004212150258579267 -0.06953661125578692 0.36711950735818244 -0.02183513309264041 0.07651699435723654
00000000: 7ab5 bbde e022 cf3f 131f 66e2 4996 c3bf
00000010: 4c39 36ff 1dd1 cabf 2154 4e79 6a23 a8bf
00000020: 96df a99f 30fa b03f 8cd0 44db 3d9c 95bf
00000030: 1e36 462d 796f b73f c85f 0060 42e3 71bf
00000040: b1b6 bfca 1f0e c43f 74f9 d78f 035d c03f
00000050: 5eb0 ffb1 4dc4 a23f ecae 51d2 0f7e c1bf
00000060: 3c10 8f81 bd31 913f b518 a759 572e c3bf
00000070: 3236 b502 1669 b63f 753b 6bc8 795b b73f
00000080: bfb6 8713 7eca d63f 60c8 e83a 5020 833f
00000090: 87ce 8744 a4ca c5bf 4929 f5ea 82c6 c73f
000000a0: bcd0 844e 1bf9 cebf 591e 1be5 ee77 d5bf
000000b0: 20fb bd1c d7de c3bf 899a 7ab3 0a22 a23f
000000c0: 6f41 95cf fee7 b9bf 8615 2296 e090 c03f
000000d0: 6e84 f77a c1f0 d13f 20f6 b379 c240 713f
000000e0: 90e0 37bf 26cd b1bf faed 74d1 e27e d73f
000000f0: 2294 25fa f25b 96bf 8d40 5a24 9e96 b33f

transformer_encoder.layers.0.self_attn.klinear.weight f8 [32, 32]
-0.216514317654377 0.07249576248738705 0.015019944560269984 0.1777033488565148 -0.05025531865091672 0.042959272390311 -0.08036669081775362 -0.012741236195377308
-0.0010712612978044933 0.11205138580950647 -0.021300942524063338 0.30848485539127757 -0.08603434102429056 0.04854454134319885 -0.1623251911474852 -0.05476275726867003
-0.14463928564459927 0.05262441468764154 0.07029137847824102 -0.2505984294252958 0.09972414579251612 0.01738816062222616 0.0446937407956996 0.13787603270437815
-0.26530731933806456 0.12544957966107623 0.05428653825715154 -0.20368829694794713 -0.11799989650717242 0.025288359072599163 -0.019657123829755874 0.017385841544055758
0.15124349765584433 -0.3966271257661736 0.2562806510237088 0.11316998568370146 0.15480279651394208 0.008526028012305058 0.1804875232336324 0.08601918914397488
0.17118386520749798 0.3024794706811016 -0.13775659601139745 0.15866412591235046 0.15970682497166036 -0.03650902833091418 -0.11542959356766513 -0.03270998546717646
-0.1038899361317596 -0.12254582787831617 -0.050324029944499096 0.2735628262686969 -0.08078342499982868 -0.08696947872584675 0.08125479687111395 0.09471874501938543
-0.12589202671388874 -0.3380785376051873 -0.08881294742071916 -0.18832559142594565 -0.19884555355269806 -0.06799534438972683 -0.16044259904582847 -0.10023418649835697
0.2893257844426841 -0.07454174545963918 -0.0655883310097176 0.28301004991192785 0.05390450030989688 0.3668742925427648 0.05390162880269192 -0.4433018333664528
0.1658234940052739 0.12397766682663908 -0.3293272257921193 -0.18831159057161206 0.1337929641966805 0.05850540105496094 0.17049659305061338 0.45266179111826765
-0.10531667923253688 -0.2903474512159761 -0.021532813469810785 -0.046726938014563034 0.10663859896859179 -0.007345512888435053 0.06020458721537145 -0.0011295620830647154
-0.21760129504459788 -0.0020114940476250523 0.3804146435552741 0.25728630174702394 -0.1906190193367488 0.020542146689127454 0.11711140270189081 -0.1011504939558361
0.09876004507560365 -0.09257866238016847 0.17918553371461057 -0.017419956247313996 -0.31103532342939144 0.006744984832525898 0.12324428978648101 -0.01602680472017151
-0.11562923042073149 0.10676416255378912 -0.46209819851837475 0.16176860424747042 -0.348229848785414 0.09567783749703013 0.026719841635811377 -0.09407809554340957
-0.08425114907879735 -0.039188206555911854 -0.010825674263056279 0.0740277356062096 0.10216259192814489 0.09422568505998777 0.04601660972671157 -0.13765622415532763
0.03159568933046551 0.09630339226523826 0.040129655034832734 -0.230172529256635 -0.3019769114338339 0.00429358692906634 0.06835057445607298 0.06043452306667421
-0.4242717961962723 0.002626211505652662 0.07969837740178137 0.023695651430640927 -0.02826870909020407 0.1227467520963752 0.05664395530095888 0.036526491387699256
0.03019069827829611 0.08658935317711879 -0.3066510939968932 -0.21653225383266717 -0.12043322922400862 -0.35010595996113053 -0.1991677950446669 0.07978962586051164
-0.10209479319804657 0.015740293766230866 0.16893591779535966 0.18137393298405646 0.4905211903566117 -0.0846117820863598 0.0728747455531354 -0.20789485600709595
-0.16356337290824668 -0.07040070239398727 -0.3185977357480003 0.06856924717839152 -0.1101750786078613 -0.17611066532181352 0.3168348872641465 -0.3039789723547406
0.08020069246555053 0.03101844579159516 -0.14887015275033216 0.19742125875738564 0.1172251283244474 -0.2010463703444629 0.007312176574862642 -0.12825847076792654
-0.11516868364378256 0.05740576655097476 -0.22922022441815892 -0.09250186628828914 -0.17872544583005145 -0.11326896351059612 0.18181923479520196 0.16032722503445224
-0.12368732608740785 0.14505026098289314 -0.10820720101831954 0.0527687373511183 -0.1685301141657691 -0.10053624760362834 -0.0053238146504118455 -0.025606345193165375
-0.01056778824334606 -0.15331813717320764 -0.1126207379577846 -0.010476460176321239 0.3948688980762727 -0.07275804429527029 0.39782262233677435 0.3260815270703644
0.35384223554889216 -0.19589712566495857 -0.03637963616950856 -0.14729098287402226 0.04661678016213183 0.10273155424935682 -0.2992959732625662 -0.003077059642297701
-0.019365669393975972 0.16430889994554743 0.07081109033828976 -0.0020769190668339377 -0.15243704223298393 0.11721689785973592 -0.023959077510827306 0.1592072157113381
0.07066933072770287 -0.14821361375069952 0.06401526867482657 -0.01418244351541659 0.045149307651805304 -0.09809030252484141 -0.09818319704975838 -0.054119544669167546
0.22406770997724362 0.25680037822941315 -0.09993235854908417 0.1685227180010398 0.3672801151532151 -0.0654272456029436 -0.12462153193817793 -0.05889266682225457
0.0675594131344755 0.12637233743771914 0.22686870288844158 -0.00836135366335106 0.2337893813520709 -0.0768277878743286 -0.07431930791178122 -0.17900487858374634
-0.18046984522658285 -0.21158872526919625 0.037985818548702435 -0.0567354930802663 0.22765356653510874 -0.051000732061343555 -0.16191109396492726 -0.21988635006377127
0.06819016118812438 0.10013908030709467 0.4503038564984159 0.05004606753726106 -0.16107458605804031 -0.18721582699277986 0.028379080507095204 0.1117953406286488
0.20409255308822766 -0.052249782359999455 -0.1359509893448823 -0.00538943173196816 -0.3342468995971903 0.18096187419064758 0.05788982433187351 0.0012895959118152528
00000000: ac7c b8bc bdb6 cbbf 855e fb10 158f b23f
00000010: b48a 64d5 c6c2 8e3f 8a3c ddbb fbbe c63f
00000020: c28a 1cac 10bb a9bf 08e3 f3fb c1fe a53f
00000030: b1ff bf54 e992 b4bf 5c76 28c6 1318 8abf
00000040: 00a3 540f 328d 51bf 90f7 854d 66af bc3f
00000050: 002f 0f0e eacf 95bf 7ce0 4d43 37be d33f
00000060: d240 08b9 5806 b6bf bfcc ef82 d4da a83f
00000070: 97cf a565 12c7 c4bf 69f4 0337 dd09 acbf
00000080: c0b9 c744 8a83 c2bf 9def 1b58 96f1 aa3f
00000090: cc3a c1a3 9dfe b13f 07e1 b3fe cd09 d0bf
000000a0: 8ae6 cc88 8587 b93f 0419 d7b4 33ce 913f
000000b0: 485b 1b16 19e2 a63f 3e0b affd eba5 c13f
000000c0: 1392 fc8c cbfa d0bf 827b f858 bb0e c03f
000000d0: bbe3 daf4 71cb ab3f 4d14 fc46 7512 cabf
000000e0: 2d00 6ec0 3d35 bebf 39ca be0c 31e5 993f
000000f0: 10cc ed3f ff20 94bf 0071 6113 98cd 913f
00000100: 780e 156a f25b c33f 09d2 77bd 5662 d9bf
00000110: 8ca4 aff5 e666 d03f 2479 664b b5f8 bc3f
00000120: 22a9 2dfa 93d0 c33f bc2f d21b 1876 813f
00000130: 55ef cf14 371a c73f d8a9 3384 5a05 b63f
00000140: 49a4 5557 5ae9 c53f a859 92da d25b d33f
00000150: acaf 5615 02a2 c1bf b8c5 eb27 1b4f c43f
00000160: 75c3 19f3 4571 c43f 7f49 61b5 4fb1 a2bf
00000170: 081b 5d39 cb8c bdbf c816 abfb 5cbf a0bf
00000180: 93c6 11e6 8798 babf 1aa5 ffd2 295f bfbf
00000190: 7a0c a13d 12c4 a9bf ac6c 0ea8 0d82 d13f
000001a0: cee1 6ef8 38ae b4bf 9baf e0ba a143 b6bf
000001b0: e25d 3447 1dcd b43f 142a 2dd8 7c3f b83f
000001c0: 8f1a c8dc 3a1d c0bf 2f9a 9f29 14a3 d5bf
000001d0: a423 a200 72bc b6bf 494f 1690 0d1b c8bf
000001e0: 985f bb66 c573 c9bf 6523 6f94 2468 b1bf
000001f0: d8be e411 6289 c4bf 949c f398 f2a8 b9bf
00000200: 3289 844b 5084 d23f 9697 eff6 2a15 b3bf
00000210: 0f9b af98 65ca b0bf 5fe8 332f d61c d23f
00000220: 8c5f e0e3 5e99 ab3f 48b7 0d50 de7a d73f
00000230: 4440 d189 fe98 ab3f 5a35 24a7 0e5f dcbf
00000240: 0a9f d449 b439 c53f b46d 7418 00bd bf3f
00000250: 6f69 1d80 b213 d5bf 8c3d 7b1d 981a c8bf
00000260: 236f d4ba 2020 c13f 7041 5780 6bf4 ad3f
00000270: ccab 9d15 d5d2 c53f 8e1c 4029 69f8 dc3f
00000280: f2ed 06ad 08f6 babf cdc5 dc79 0d95 d2bf
00000290: 9027 93a6 b20c 96bf cbc2 3add 97ec a7bf
000002a0: 5cb5 0fcf aa4c bb3f 4801 0d1a 5416 7ebf
000002b0: ac82 51ba 22d3 ae3f 60f8 270d ba81 52bf
000002c0: 6353 e4f6 5bda cbbf 501c d2a4 687a 60bf
000002d0: 5252 3fa9 b658 d83f 9895 edf6 6077 d03f
000002e0: ba01 063b 3466 c8bf 1eb4 e020 0009 953f
000002f0: f9e2 974c 03fb bd3f 51ba 83af ffe4 b9bf
00000300: e04e c09b 5648 b93f 9bf1 3a37 3cb3 b7bf
00000310: 3d3b 9c33 8def c63f 6a15 8579 89d6 91bf
00000320: d4eb 81b3 00e8 d3bf 488f 4814 a1a0 7b3f
00000330: 153b 0d12 f08c bf3f 08b2 87a8 5469 90bf
00000340: 7962 1e93 e099 bdbf 7ca8 8d6a e554 bb3f
00000350: e852 8b52 0493 ddbf 0898 6168 d5b4 c43f
00000360: 6b8f 01d9 6549 d6bf 7c72 00bf 577e b83f
00000370: b2a1 eb37 725c 9b3f 1400 a187 8015 b8bf
00000380: 7ea0 f1b9 7b91 b5bf 55d3 1703 7a10 a4bf
00000390: 50f7 5567 c52b 86bf 72f4 6c4f 7bf3 b23f
000003a0: d6ba 34df 5327 ba3f aa9d c6ab 2c1f b83f
000003b0: f9b2 b233 7d8f a73f d842 6b1a b89e c1bf
000003c0: cee3 bc68 4f2d a03f 1ce7 45d0 56a7 b83f
000003d0: 68e0 f2c7 df8b a43f 1024 cc1e 4b76 cdbf
000003e0: 8e58 b0f7 9653 d3bf 0002 16f7 2696 713f
000003f0: 1a9f f359 6c7f b13f 74cf 3d18 46f1 ae3f
00000400: 7ccd 51e4 4427 dbbf e0da ee90 9083 653f
00000410: 7c23 7ce4 1c67 b43f e9dd ce3f ac43 983f
00000420: 0096 2bf4 78f2 9cbf e0b3 f1c5 546c bf3f
00000430: ae41 11bf 6f00 ad3f 4045 e5ab 99b3 a23f
00000440: 5ca7 fe76 4fea 9e3f 47d8 1348 b82a b63f
00000450: 2df4 ffe8 2ba0 d3bf ecc7 5e32 54b7 cbbf
00000460: ec68 de4c b6d4 bebf 45bc 0ad4 2268 d6bf
00000470: 290f 118f 547e c9bf 7887 a1c9 176d b43f
00000480: 66a3 e065 e222 babf de52 d23b 391e 903f
00000490: 1481 0631 b19f c53f b0b7 41d3 4237 c73f
000004a0: a2e7 a4fd b264 df3f 3acd ea24 1ea9 b5bf
000004b0: c5e3 da58 eba7 b23f 424f c773 4c9c cabf
000004c0: 8a70 bb04 a5ef c4bf 64c9 65ca c705 b2bf
000004d0: 0882 e7c1 e763 d4bf f87c 2412 c18d b13f
000004e0: 747a 7417 6f34 bcbf cc59 0456 cb8a c6bf
000004f0: bd01 c2d5 0547 d43f f0db 3b38 6474 d3bf
00000500: 528f 4157 0888 b43f f997 fda8 4cc3 9f3f
00000510: c6e3 b45a 2d0e c3bf c2f5 f28c 1945 c93f
00000520: 7e43 6c4c 7702 be3f cff2 cd30 e3bb c9bf
00000530: aa9a 0674 5ff3 7d3f 3d0d b108 c66a c0bf
00000540: 9bfe c5e1 b17b bdbf f461 e0e3 4964 ad3f
00000550: 5098 ba9b 1657 cdbf 67f4 86ca 33ae b7bf
00000560: accb 66b4 79e0 c6bf 3009 eedd 31ff bcbf
00000570: 6254 9d49 da45 c73f 4638 173e 9a85 c43f
00000580: 70a0 79fc f8a9 bfbf 3651 99c7 0191 c23f
00000590: c4bc 9095 77b3 bbbf 7e39 5902 8104 ab3f
000005a0: 07d7 5d10 6592 c5bf 0828 8557 bebc b9bf
000005b0: 6008 049d 6cce 75bf f8ec b2bc 8c38 9abf
000005c0: d077 2b87 90a4 85bf e472 85c0 ed9f c3bf
000005d0: 504c 6172 b6d4 bcbf 1661 aeae ae74 85bf
000005e0: 507d dc32 8845 d93f 15e4 c46c 45a0 b2bf
000005f0: eae7 2204 ed75 d93f 7e34 a60d 85de d43f
00000600: b810 68e7 59a5 d63f 5542 0e32 2813 c9bf
00000610: 1f45 2d07 5aa0 a2bf 8645 3851 6eda c2bf
00000620: a87b 7b94 27de a73f 34ab c479 9d4c ba3f
00000630: 7c2e 3f4c aa27 d3bf 7021 02d1 0f35 69bf
00000640: 9a5e d912 98d4 93bf 3c9b daf3 1208 c53f
00000650: 4572 32f5 ac20 b23f 00e0 fd6e 9d03 61bf
00000660: 3879 8b97 0e83 c3bf 839c d836 ed01 be3f
00000670: acc3 6779 ba88 98bf a43a 62ec e660 c43f
00000680: d041 4ea0 6217 b23f 28cc f0e7 a9f8 c2bf
00000690: 322d 67fd 4d63 b03f a2d0 9b58 af0b 8dbf
000006a0: 4864 9a5f cf1d a73f f020 6631 721c b9bf
000006b0: 7d6e 58b4 8822 b9bf 7c62 db94 8eb5 abbf
000006c0: 568f 382f 40ae cc3f ee20 86da 6a6f d03f
000006d0: 64cc c7c3 2a95 b9bf 9047 3905 2792 c53f
000006e0: 9277 c374 8481 d73f ecca 2108 d7bf b0bf
000006f0: e848 0d5c 32e7 bfbf 0f9d f3fb 2d27 aebf
00000700: 1414 f3dd 924b b13f 9400 3500 f82c c03f
00000710: 6a26 b29d 080a cd3f 626a 46e4 c11f 81bf
00000720: 6a94 8779 cfec cd3f dd21 5864 fcaa b3bf
00000730: b144 f114 9706 b3bf e7ba abc1 a1e9 c6bf
00000740: 0dc8 94c9 a219 c7bf 34e4 9ddf 5615 cbbf
00000750: 72c6 c190 e072 a33f 15b7 9a3e 6f0c adbf
00000760: c103 8b87 c023 cd3f 2b12 8d98 c41c aabf
00000770: 5e2f b8b2 80b9 c4bf 962b 2e65 3c25 ccbf
00000780: 3043 3610 e974 b13f fc71 f8fa b6a2 b93f
00000790: 8d18 3b44 c7d1 dc3f f35c bb5e a39f a93f
000007a0: ba02 ab8f 179e c4bf 7521 1d2f b0f6 c7bf
000007b0: d191 acda 670f 9d3f c760 d893 9e9e bc3f
000007c0: 9a7f 6f6c b41f ca3f 622b ebc4 7bc0 aabf
000007d0: b22c 8c8e d766 c1bf 8876 8690 3a13 76bf
000007e0: 07cc a31b 4d64 d5bf 9860 bc39 c229 c73f
000007f0: 209c 8d2c bca3 ad3f c016 0b11 f520 553f
