experiments/fl_train_noise_0.5_max_grad_norm_1/20250427/model_round_88.pt (torch, 62806 bytes, 25 tensors)

embed.weight f8 [32, 8]
-0.03947425211261275 -0.10873469373319612 -0.0429899365215468 0.13003467746753689 0.15092226392950403 -0.11644568845580865 -0.026240962561847398 -0.42229823001636324
0.05694069109938815 -0.10196835030989776 -0.43731829207149886 -0.06788035984323172 -0.1501850094919085 0.08090315024580344 -0.0774489449945319 -0.20438059926697053
0.15127683804949302 0.0827073179213629 0.056579802740509125 -0.03924391749325977 -0.03664875594865878 0.38568212212778485 -0.06329684162596667 -0.030405460039995804
-0.13918469489301405 0.19453615319522172 0.18339162679373783 -0.02475286061534765 0.11906805068964832 -0.296338717183847 0.16582200287547924 -0.08466353174737466
-0.08278604203162265 0.25189951858589926 -0.06810092884527325 0.17928475622274664 0.39464821631619296 -0.07252438842208339 0.1290991802762923 0.04136061231729401
0.2501548143112765 0.05101010147356866 -0.03936368586072421 0.022908109201794886 0.37533914312373673 0.09522764282957302 -0.04272551508869858 0.23464270264630027
-0.014410376004421015 -0.08612136463893132 -0.0928652077045077 0.006985810884209721 -0.03823608809895576 0.006640515222240885 0.2923157846917508 -0.03398002868193652
-0.011672821904533129 -0.007564435453455892 -0.20515977319404338 -0.2382145663325357 0.19621951379830932 0.11134794899912148 -0.2604622910611075 0.04719087174374607
-0.09652484194886708 0.11380619692978058 -0.1678593816034204 -0.40609027859246716 -0.008277351594877316 -0.152142768335425 -0.12236254997462455 0.08910616945363675
0.18038630969025016 -0.1575352738205969 -0.248945898595335 0.07118885993748247 0.00833708182570781 0.07970531782487716 0.04921699637969397 0.03400403275573235
0.1411002680868561 0.03806054650163314 -0.37614965904402375 0.16864114965567953 -0.3215120836012211 0.40935793238654294 -0.020967691597756282 -0.17470733095721822
-0.3414049534492663 0.2678073701377886 0.04217553181612317 0.25859732746533753 0.031031645989484213 -0.030836025432164075 0.3434810999865684 0.19992967790302774
-0.12562607111887542 0.23674128899718194 -0.023441962670497522 0.09963535299930723 0.01421598659887674 -0.08978003494601809 -0.12089113721859186 -0.04248577472215778
-0.17850901730235608 0.2551887240446753 -0.012337157917149108 0.06139831894795067 -0.021182628704110917 -0.15257963871515468 0.08343723287819946 -0.12951008149832804
0.31159234126256224 0.18541281203456203 0.01883703989141982 0.07989890663489374 0.26455501219210137 -0.1408745489696384 0.30317504420393876 0.01742298429250339
-0.08380941405510015 -0.06568874417632832 0.061804863632803915 -0.06586644696537104 0.11827653712294614 -0.025377595375165915 0.010001572484324935 0.026161739022190586
0.27501892289476804 0.243865627162543 0.03671875838274766 -0.006074164813976903 0.06802283351726951 -0.009889788113317713 0.005595968987395547 -0.15735416533111904
-0.14121060547465905 0.02505164300283718 0.03744411341409679 0.013332841469484588 0.05669006054277055 -0.07432654881539755 -0.12102409197847633 0.01824283700021062
0.06099379455994146 0.10622043857594546 0.010682200936989808 0.07491937616934542 0.1313829109193288 0.06396867876835363 -0.052492913954385066 0.02462755170801914
-0.14272272552962914 0.15911723080310003 -0.026458386102730866 -0.29553191863922285 -0.07222310441849314 0.05070026479252778 -0.08560141948655235 0.15874583805369188
-0.06247660804920671 0.02880714580823361 -0.37636763670367135 0.11055534486571789 0.27481650213466247 -0.17208335828082202 0.16297975578158985 -0.02913674735963148
-0.22345703594296817 -0.1984309832820525 -0.22851337350854187 -0.15679942858148777 -0.0473967745759255 0.03326846652303539 -0.1977897867496763 0.32837342919119694
0.02039432703550145 0.16961911234795354 0.15438582511010024 -0.24197793068761955 -0.1801521823145245 0.05133219864232816 0.033975988460197726 0.29349481255787785
-0.16009115374337507 -0.28768345461402306 -0.35579324367660276 -0.19492143935629735 -0.09560813153089233 -0.16306326161876628 -0.11775076064272369 -0.09106907674416698
-0.16790986514857403 -0.2531541873917808 0.009605480476237507 -0.01952363692399436 -0.17071559876207265 0.1186728347549709 -0.11554126871647225 -0.07332550462407045
0.16018995481187112 0.2893231833705862 -0.22864697014091132 0.17232743000698447 -0.26310047002195713 -0.05419522920063975 0.19853285298834836 0.0843885846485552
-0.40710745594902964 0.03846951706766138 0.07652399773623829 0.183155867827639 -0.27269986866940815 -0.32982744567357525 -0.20338267734392199 -0.22099867689262093
0.0459800321930806 -0.22411662319092465 -0.11441809692624617 0.06625845986555895 0.30867687914494707 0.1796130675233185 -0.020987824108955205 -0.24002032844889662
-0.12937935580565033 -0.1819966263227651 0.015046327815838145 0.13160138048790604 0.32267918117221356 0.2631553983486388 -0.20364394744765035 0.28301754001013846
0.14431949856204113 -0.07869610141067512 -0.21175215849916595 0.12642548381597618 0.1669008017776537 0.4889073096417689 -0.24489069102394692 -0.25462522444387037
-0.1323948477606013 0.09137218334616976 -0.06790331330906996 0.07607398304244731 -0.2618064903167369 0.2739071998607494 0.018160684965549706 0.3449598932322491
0.2207126935449762 0.29496538716016696 0.18073844967083835 -0.11783192719829613 -0.02888009946093817 -0.40463188982464143 -0.22120668815424138 0.0027990347134652233
00000000: 7928 b71b f835 a4bf b14f 8671 09d6 bbbf
00000010: ee95 d5e6 c602 a6bf 4ed4 88ef f9a4 c03f
00000020: 5062 e8b5 6b51 c33f 0b8b ad77 62cf bdbf
00000030: c524 1330 e9de 9abf c60d c527 ef06 dbbf
00000040: e0c1 2a8c 5427 ad3f 7cde ce09 991a babf
00000050: 40f0 98dc 05fd dbbf 9940 9175 9b60 b1bf
00000060: 4c00 0f2c 4339 c3bf 3af8 72a0 11b6 b43f
00000070: be78 dcad b1d3 b3bf 39ee e4ba 2429 cabf
00000080: 5d4d 0818 0a5d c33f 72b4 9c89 4e2c b53f
00000090: a2ec c424 07f8 ac3f 66a4 665c c717 a4bf
000000a0: 7e26 7a30 a0c3 a2bf a834 4c11 04af d83f
000000b0: 0d3f b9c8 3834 b0bf 676a f7e1 9b22 9fbf
000000c0: 72a9 55d8 cdd0 c1bf d27a ee87 8fe6 c83f
000000d0: 563c b877 6079 c73f 602c 4d5b d058 99bf
000000e0: f8e3 b567 3e7b be3f 41f7 b5aa 36f7 d2bf
000000f0: ed58 a7c7 a739 c53f 2bd2 045c 82ac b5bf
00000100: 6052 174f 7731 b5bf dd17 8d28 1f1f d03f
00000110: 54b9 37fe 0f6f b1bf a0f2 528a cdf2 c63f
00000120: 962d a097 ea41 d93f 7e6c 6f54 f590 b2bf
00000130: 1411 9d6a 5286 c03f 9b99 7dda 372d a53f
00000140: 42d9 9956 8902 d03f e071 30fb fe1d aa3f
00000150: daf9 d71e 7a27 a4bf 85f1 562f 3975 973f
00000160: d801 2878 8e05 d83f bcd0 a0bb d660 b83f
00000170: 6e7c 0564 1ee0 a5bf 6032 0ea7 c508 ce3f
00000180: 9ce1 4bed 2f83 8dbf 1b71 9cbc 0c0c b6bf
00000190: 89f0 06a6 03c6 b7bf a81f 8a54 279d 7c3f
000001a0: 54f0 d237 ae93 a3bf 2870 54bb 1533 7b3f
000001b0: ecc2 d643 4db5 d23f 02e7 cf8f d465 a1bf
000001c0: c8f0 a7a2 ebe7 87bf 202c 2aae e2fb 7ebf
000001d0: 6a5e 29ea ac42 cabf c11e ea9d d07d cebf
000001e0: aee5 4c95 b81d c93f 088b 6d97 4c81 bc3f
000001f0: 56b7 7c07 6aab d0bf f544 9ee5 6629 a83f
00000200: 1d05 6c1f dab5 b8bf 5242 e525 6722 bd3f
00000210: f01f 288d 6a7c c5bf a0cd 7114 62fd d9bf
00000220: 0810 2e53 b7f3 80bf 3e6a 290b 6a79 c3bf
00000230: ed6b 65ee 2653 bfbf 2cda ac73 a9cf b63f
00000240: 2c04 620a e616 c73f aa4f 83a8 1d2a c4bf
00000250: a05b 788e 75dd cfbf 0861 45e1 6e39 b23f
00000260: 84af 482e 0813 813f bc08 6055 9167 b43f
00000270: 9a5d b75b f832 a93f 4b68 3c01 fa68 a13f
00000280: 92e7 71d6 920f c23f 0e1c fc04 ac7c a33f
00000290: 72b8 ff04 d612 d8bf 53f7 437f 0896 c53f
000002a0: 0c82 156b a793 d4bf 1e56 fd9c eb32 da3f
000002b0: ab6a bdf6 8d78 95bf ef95 6a50 cf5c c6bf
000002c0: b572 7029 94d9 d5bf 05a7 1786 c123 d13f
000002d0: 9aed ae03 0898 a53f f1fb 12ce db8c d03f
000002e0: 90dd a982 c2c6 9f3f 513e 14a3 7a93 9fbf
000002f0: 7621 cf26 98fb d53f d8f1 0bb2 4b97 c93f
00000300: 5682 7ddd 8314 c0bf 3c8a edde 894d ce3f
00000310: 6e69 187c 2b01 98bf fe4d a8d6 b381 b93f
00000320: a02e 2e6c 451d 8d3f 5348 ed09 d3fb b6bf
00000330: dde7 bab8 b8f2 bebf 142b f409 b2c0 a5bf
00000340: 6267 ad2b 62d9 c6bf 401c 0516 0355 d03f
00000350: d8e9 3c4e 3944 89bf b057 d2b7 996f af3f
00000360: 6020 1c26 e6b0 95bf 3c96 28c7 ba87 c3bf
00000370: c608 7b7a 245c b53f 86d0 444e c993 c0bf
00000380: 9f08 da00 21f1 d33f cb52 f965 9bbb c73f
00000390: 5efc 2559 044a 933f 98a7 fb36 4174 b43f
000003a0: c3e8 5625 78ee d03f 92e8 545e 2d08 c2bf
000003b0: f16e f44c 3867 d33f 11aa f0ae 54d7 913f
000003c0: 0aad 76a4 8874 b5bf 41e0 f33f fad0 b0bf
000003d0: 81c1 1218 e3a4 af3f 79b7 9e9b 9fdc b0bf
000003e0: 4ec2 d302 5f47 be3f 1cf5 bf98 95fc 99bf
000003f0: 647a d455 b47b 843f 6cf5 0696 24ca 9a3f
00000400: a24e e7f7 e899 d13f 280d a426 fd36 cf3f
00000410: 34a8 ce14 cdcc a23f 5ced 9f33 39e1 78bf
00000420: 4482 56c5 f169 b13f 68ab 16e4 1841 84bf
00000430: 700b a57c cceb 763f b946 fe68 2e24 c4bf
00000440: a556 2e6a 3013 c2bf 0e0d a24d 23a7 993f
00000450: 1d20 15f5 df2b a33f 58f0 97b0 3f4e 8b3f
00000460: 0a34 14c8 7a06 ad3f 76fd 6290 1007 b3bf
00000470: ea5d 1355 6ffb bebf 506a 3511 40ae 923f
00000480: 1eac c921 943a af3f eab7 d93d 4331 bb3f
00000490: 08ae 63bd 8ce0 853f 61eb 7b8e ea2d b33f
000004a0: 226e d3bc 27d1 c03f c645 4757 4060 b03f
000004b0: 0362 69e9 59e0 aabf a87c aa04 f737 993f
000004c0: dbda 45ff bc44 c2bf 54c3 4313 f45d c43f
000004d0: dc8e 103c e817 9bbf afb1 5eb5 fee9 d2bf
000004e0: a236 7e9f 367d b2bf b369 5d96 62f5 a93f
000004f0: 6b98 2f81 f9e9 b5bf 3f8a 689b c851 c43f
00000500: 7c36 ac18 effc afbf 1cc4 8cd4 9e7f 9d3f
00000510: a290 ba48 6816 d8bf 7ca4 98e6 5a4d bc3f
00000520: 8472 44f4 9796 d13f ed40 00d6 d306 c6bf
00000530: b4f9 7e48 85dc c43f 27f2 1504 06d6 9dbf
00000540: 98d3 b77a 3d9a ccbf 26d2 dabb 2f66 c9bf
00000550: 217b f51c ed3f cdbf 38fd e4f0 0012 c4bf
00000560: af9d 7ad9 6344 a8bf 40b5 687f 9008 a13f
00000570: 604d c9fc 2c51 c9bf 9a19 d0fc 1104 d53f
00000580: 17cd 901e 40e2 943f 2fcf 273e 14b6 c53f
00000590: 702c e82a eac2 c33f 391b 5401 22f9 cebf
000005a0: 5205 ac09 3a0f c7bf 2c18 cdc4 3648 aa3f
000005b0: 5857 92fe 4c65 a13f c1d4 5e77 9ec8 d23f
000005c0: 4675 daee dd7d c4bf cdb8 4add 6769 d2bf
000005d0: 21a4 6e06 51c5 d6bf ac8a a98b 2ff3 c8bf
000005e0: 4127 2846 c679 b8bf ec74 eac7 41df c4bf
000005f0: ae24 0af2 e924 bebf 5809 4b92 4d50 b7bf
00000600: 2294 be09 127e c5bf a35c ec9e ad33 d0bf
00000610: e8fc 0fc4 09ac 833f 77a2 5918 01fe 93bf
00000620: 0cd2 cc3c 02da c5bf f63a 32c8 5761 be3f
00000630: acc0 79d2 1c94 bdbf 54b5 52d4 75c5 b2bf
00000640: 3b48 88bc 1a81 c43f 2748 a362 4584 d23f
00000650: 89d7 8acd 4d44 cdbf 94b7 0a42 d30e c63f
00000660: 429e 935a a3d6 d0bf 7a2d 0822 7abf abbf
00000670: b91d 6247 8669 c93f 4ca5 3883 7d9a b53f
00000680: e290 506e 0c0e dabf 57a4 65cb 46b2 a33f
00000690: f7e5 a2a3 1397 b33f 57f2 31c7 a671 c73f
000006a0: 27c0 6326 ea73 d1bf 3070 1f93 e41b d5bf
000006b0: a7ed e18d 7108 cabf 2246 db44 af49 ccbf
000006c0: 269d 13dd b18a a73f 3128 8c7f daaf ccbf
000006d0: b968 5e20 814a bdbf 24b6 347e 50f6 b03f
000006e0: 7d5e 3dab 5cc1 d33f c733 799d 8ffd c63f
000006f0: 0b0e a608 d57d 95bf 9716 8872 fcb8 cebf
00000700: 8d3d fbb2 808f c0bf 22f1 045b aa4b c7bf
00000710: 80bf 26ef 9bd0 8e3f c4e9 a664 50d8 c03f
00000720: 9705 8f94 c6a6 d43f a116 6bbd 89d7 d03f
00000730: b872 283f 0111 cabf 386d a299 f51c d23f
00000740: 0ae2 3fb3 0f79 c23f 34ad e17d 6d25 b4bf
00000750: f03f ced9 b11a cbbf a86f 2fd3 b52e c03f
00000760: 72d5 a766 015d c53f 98f3 6be2 414a df3f
00000770: f576 8502 9458 cfbf fe46 ee98 c74b d0bf
00000780: 0c35 a57a 50f2 c0bf ec64 3cdb 2a64 b73f
00000790: d8d6 f38d 1c62 b1bf b267 3ea5 9579 b33f
000007a0: 879e 7202 70c1 d0bf 5c9d 6210 b287 d13f
000007b0: a8fe ffef b698 923f 6d4e f7a8 d213 d63f
000007c0: 2a3b 4b44 5040 cc3f 6883 d380 b6e0 d23f
000007d0: a6a5 3b01 7022 c73f 1ec8 bdb1 3b2a bebf
000007e0: 0084 c2aa be92 9dbf ebca 6d27 7de5 d9bf
000007f0: 38b4 a331 8050 ccbf 201e c051 00ee 663f

embed.bias f8 [32]
-0.06484411022432757 0.15829789542777828 0.006624416221882981 -0.30513104480807995 -0.18022628358260606 0.3657600234606076 -0.13807057481862117 -0.04066694884263086
-0.05501639182590333 -0.18066567559951335 -0.35089030176425084 -0.1705598713823151 -0.15144089816766307 -0.01067963273735504 -0.09866920747611113 0.15597380438251238
0.023136408259677062 0.005693057984014198 0.0739074529457148 -0.1003164621995323 0.22058883033985233 -0.09715317065038909 0.2762946509242521 -0.17717589886208662
-0.20682766895750565 0.05713986254046892 0.23870423091074955 0.03803551010706549 0.1211527978199593 0.3594663773052593 0.07567549912366431 -0.13787704200952502
00000000: d06f c0a4 9f99 b0bf e0a7 f1fd 1a43 c43f
00000010: 4303 7330 3422 7b3f 1c7b 9c5c 4487 d3bf
00000020: 10f7 eea4 a711 c7bf e1a3 bcba 9c68 d73f
00000030: 2465 b1ed 4bac c1bf ec49 9d5e 4cd2 a4bf
00000040: eeb8 45c7 1b2b acbf fad5 1a88 0d20 c7bf
00000050: e4e7 a398 fc74 d6bf d06a cce6 e7d4 c5bf
00000060: e517 7454 6a62 c3bf f4ca b80a 34df 85bf
00000070: 446d 3b9b 6242 b9bf 0b84 6d1a f3f6 c33f
00000080: 52f3 4913 12b1 973f f86c b09d 9a51 773f
00000090: fa1e 554d 99eb b23f c2bc 65f4 56ae b9bf
000000a0: 6416 163a 413c cc3f a868 a5ba 07df b8bf
000000b0: ace1 71c2 cfae d13f b043 a029 b3ad c6bf
000000c0: 964a 0a3d 5479 cabf 2689 d1a1 6f41 ad3f
000000d0: 24d9 9638 dc8d ce3f 5c38 feef 6379 a33f
000000e0: dca3 74a8 de03 bf3f 7069 a243 7f01 d73f
000000f0: ae38 d831 785f b33f 996a 2675 f4a5 c1bf

pos_enc.pe f8 [1, 12, 32]
-0.1762801261529515 0.09928189525738251 0.09310139958868108 0.08391691913641944 0.1968539335217397 0.17625512606680363 -0.0713018979920008 0.1544897110114439
0.2741618838884155 0.047563593586285854 0.2170234252432162 -0.04012923313776276 -0.0030425867769320186 -0.20531723810415564 0.0545203153981688 -0.218454910341971
0.046439343529644045 0.09168507262035488 -0.17136046638928426 0.2497329352333073 0.1894998455086338 0.08866607884513944 0.07562065228011186 0.05154506681304957
-0.05767501404172821 -0.11390531104533094 -0.09562759115139281 -0.02177517996223434 -0.23660719108765615 0.11645121668602018 0.06519368311127491 -0.02855501753356987
-0.03498749032712209 -0.000767935611883229 -0.08380701748593383 -0.16030238572987832 0.050608106912963594 0.01825848515325712 -0.10346932985490953 0.053709093621522305
-0.09279914376116254 0.03632274192252124 -0.10224572568890797 0.104097358264204 0.05504787411827203 0.284252025121555 0.08647759856952232 0.24774553457005236
0.02100111118505238 -0.007418963880851857 -0.0808303396308312 -0.3080978647537552 -0.049134159125969745 -0.23231621035502542 -0.1219543540710269 0.15614455271202635
0.16245158584465602 -0.1396345483558929 -0.08777324359048272 0.07328136440303606 -0.005752720326965166 0.020767371415137483 -0.13894426026927031 -0.11056028763825079
-0.0221236558588781 -0.21058876941973148 0.09148751100635197 -0.0764932847948928 -0.11188373913554912 0.1426709028415137 0.3777897708894614 0.057282855370779845
0.11984946910424277 -0.16503115294415668 0.11180444080926145 -0.11659993163604657 -0.06561523908424621 0.060453980538998184 -0.021122105813494357 0.06395814930857364
-0.12686601009497447 0.2037038069058709 -0.3317198753004817 0.0996094880829837 -0.04403527720027857 0.10673162893675284 0.1220756921375061 -0.004040801226067758
0.2931812541912258 0.1021750637482298 0.18017609455281008 -0.17079618003410457 0.20285091712441045 -0.13548307275073046 -0.07313064061234623 0.06666537378890354
-0.020693633569161665 0.06687844772862224 0.29524319774935354 -0.1551335032290728 -0.15344965057341187 0.14099690143106622 0.2238033234703553 -0.1674564026033977
-0.14615839564638183 0.03211566534354832 -0.3130608694715793 0.09983643780139217 0.011662317614344019 0.0028907121038934044 0.07397858817389208 -0.02005401834325843
0.30813690985253955 0.10441122172615674 -0.043353868858324485 -0.1255428000860786 -0.13529398216909766 0.08667198064873127 0.19165816623290316 0.12182547769740566
-0.04802836609134957 -0.04884783251131876 -0.14025714674927983 -0.24315015950353003 -0.1623271853396926 0.25640401102798915 -0.09887978233065361 0.18111320210431997
0.1872163880158606 -0.08386707274775367 0.057767602330325796 -0.1425873885205131 0.010136156906278726 0.1118685317067282 -0.3989164046396485 -0.03820636518540869
0.005002597891658852 0.02876379718057795 -0.10656932290270414 -0.24002187770233724 -0.2355996993920464 -0.10749297747224829 0.33060888282117373 0.12694147237856301
-0.043539810802704665 -0.03336761528700716 -0.04500478554748372 0.048757206023926684 0.056086301198854036 0.0977703757311707 -0.16880704858112763 -0.025269662214852447
-0.22549695594844105 -0.0893128965758262 0.03514616439848464 0.04478402867443529 -0.25034456993907206 0.07098808100131337 -0.05973083883224829 -0.12904145290704663
-0.009435264436149823 0.059163261428304095 0.16184080701356257 -0.21850740683967323 0.041942285796691625 0.1387421475785709 -0.20376763775079978 -0.1625443418448326
0.028682584274381244 0.045241462689003725 -0.03720636796130966 -0.14969699724427143 0.032977406100071965 0.07190095468223448 -0.02143488323062223 0.09251510505729148
0.11334196405350665 0.01577696241879116 0.07439074921582187 0.013259586775482148 0.06750434838724567 -0.2481140148039762 -0.19276504699698882 -0.0025727355343696245
-0.2225497904233839 -0.1079842175123526 0.09560222790365269 -0.05220872818112917 -0.006727286831102373 0.020269001071772236 0.044309970993359774 -0.0778192107346063
0.11327780483969621 -0.3789823872853421 0.040597648751906204 0.019438747832654476 -0.204609098364895 -0.21408360486050013 -0.10376525461975958 -0.02882474291008531
0.45305049831598715 0.24301419470420796 0.15571805942165645 0.16423879864032548 0.06259838930349532 0.05427491949083446 -0.17343243893542706 -0.3492902486519775
0.16158644700895636 0.05115277612234487 0.25018339032087145 -0.08534755670499083 -0.12627880130231317 -0.15163434017674945 -0.03926497257982713 0.07193479689758814
-0.02343572835458628 -0.11849152309954059 -0.1652346140934128 -0.06455219402097567 -0.16954911740071987 -0.2613026475957054 -0.20403791928130147 -0.020255947323455547
0.0710332846510712 -0.20672698176416493 -0.2344400699018067 0.30486136064323743 0.3425549874987758 -0.5266200740192722 -0.2066570097112319 0.17299957778003897
0.10009866583344094 0.06659325341173367 0.0966880668549421 0.22104833607569455 -0.08254660396490876 0.1254071749305517 0.1996026588896668 -0.05595444029845126
0.017270478977844336 0.16736591614788737 0.33354000731487676 0.0961696035459513 -0.0009037611326884465 0.032904849862616645 0.004375396867151039 -0.04910671929458914
-0.011617227019954941 0.09656470622878766 0.07668990702415635 -0.10808062287246334 -0.0509618767929819 -0.09258760190752177 -0.06667616602885934 0.05276438156828118
00000000: c37e 61e0 5890 c6bf 8821 37cd 896a b93f
00000010: 7cf9 714a 7ed5 b73f aaa1 4547 947b b53f
00000020: 5a4c 487b 8232 c93f a5c9 1a29 878f c63f
00000030: ffb3 0458 d740 b2bf 136b 2ea0 51c6 c33f
00000040: 5512 4749 de8b d13f d6dd dd5d 415a a83f
00000050: 8958 f170 6cc7 cb3f 8468 e19f d18b a4bf
00000060: e022 7856 c4ec 68bf b62f 7bd3 d547 cabf
00000070: 5e9a 3437 16ea ab3f 5ee1 c89b 54f6 cbbf
00000080: 6c41 6acb e5c6 a73f 3291 6f44 ac78 b73f
00000090: 7811 7cc7 23ef c5bf 78d3 c7b2 3ff7 cf3f
000000a0: ce3f 87eb 8741 c83f d088 e7f4 d1b2 b63f
000000b0: 1afd 7104 e05b b33f ace0 7670 1d64 aa3f
000000c0: 690c 3656 9487 adbf 8ec8 c701 e628 bdbf
000000d0: 6d2a 97c0 0c7b b8bf 0491 3597 3b4c 96bf
000000e0: e025 dcf9 2449 cebf 16f1 3e37 bfcf bd3f
000000f0: fe63 de80 88b0 b03f d007 c6c9 863d 9dbf
00000100: fcbd 725d e1e9 a1bf c00e 532b e929 49bf
00000110: c402 476f 6074 b5bf 0c1e 17e0 c984 c4bf
00000120: a211 3548 4ee9 a93f a053 6e32 5ab2 923f
00000130: d8a9 dd4b f77c babf de58 3421 c27f ab3f
00000140: 0b0e 8d47 afc1 b7bf ab09 51f9 e498 a23f
00000150: 7e59 fd9f c62c babf a341 58dd 1fa6 ba3f
00000160: 7cc7 1a26 3c2f ac3f a001 ee67 2f31 d23f
00000170: c155 b159 6523 b63f 41ad 5a2c 20b6 cf3f
00000180: 10ba e0b6 5081 953f 98bf d0f3 5863 7ebf
00000190: a02e 3d11 4cb1 b4bf 866d 451b e0b7 d3bf
000001a0: 0000 20cd 1c28 a9bf 521a e79e 89bc cdbf
000001b0: 6401 578a 6638 bfbf b560 ac71 8bfc c33f
000001c0: d86c 31ac 36cb c43f f646 4a7d 8bdf c1bf
000001d0: dc59 afaa 4e78 b6bf ac6d 8447 91c2 b23f
000001e0: 0077 ad1a 2a90 77bf 7725 35b4 0a44 953f
000001f0: 1866 e9ee ecc8 c1bf 1284 a4d3 ad4d bcbf
00000200: 2001 8769 95a7 96bf 5004 c8a2 92f4 cabf
00000210: cec4 c3bb b96b b73f 07c4 8e5c 1095 b3bf
00000220: cd97 8aa8 69a4 bcbf abc5 e546 0a43 c23f
00000230: cef2 ae25 b52d d83f 44c4 e0ac 2d54 ad3f
00000240: 38e5 3e6e 74ae be3f 9bb0 5ba6 bd1f c5bf
00000250: c9c6 d240 379f bc3f 4ab8 173d 7ed9 bdbf
00000260: 546e fc09 29cc b0bf eef1 a7fa d2f3 ae3f
00000270: 5835 c486 08a1 95bf 6dcf 97af 8f5f b03f
00000280: 657c 2a3a 253d c0bf fd9e 5d62 f712 ca3f
00000290: 3352 f6ff e53a d5bf 340e b0e5 0180 b93f
000002a0: 6217 e4b6 ca8b a6bf e26e bb97 c352 bb3f
000002b0: befd 5d41 5a40 bf3f 007d d951 168d 70bf
000002c0: 0d4d a34e 7bc3 d23f c6ee 431d 2528 ba3f
000002d0: 960a d0a0 0210 c73f 4c9c c333 a6dc c5bf
000002e0: 52a8 81d3 04f7 c93f fc1f 5063 8257 c1bf
000002f0: 82fb c38d b0b8 b2bf cdee 3260 fb10 b13f
00000300: 84ea a83d b630 95bf c53a cd29 f21e b13f
00000310: b9cb acb9 43e5 d23f dffe 7025 6adb c3bf
00000320: b4d0 65f7 3ca4 c3bf 03ec 3dbc 2f0c c23f
00000330: d648 8559 96a5 cc3f cdfc 571e 366f c5bf
00000340: 1624 ab7c 51b5 c2bf f9fc ade8 7671 a03f
00000350: a06a 0275 3009 d4bf b85d 4e7b e18e b93f
00000360: 0c4e fec5 69e2 873f 7013 593e 43ae 673f
00000370: 7ca5 cfc0 42f0 b23f f02e c063 0a89 94bf
00000380: 4575 a0df 83b8 d33f 1c35 a69e b1ba ba3f
00000390: 709b cd71 7a32 a6bf c219 4f56 c911 c0bf
000003a0: 5685 612e 5051 c1bf 10a8 5d8a 2230 b63f
000003b0: baa6 fd39 4188 c83f cda9 875a f42f bf3f
000003c0: f60a 498b 2c97 a8bf f2b2 3b46 9502 a9bf
000003d0: 4dc2 2839 f2f3 c1bf 34dc 8a5f 8b1f cfbf
000003e0: 2892 2420 23c7 c4bf 826b 7b5e ec68 d03f
000003f0: 7683 5877 2f50 b9bf e6b8 f4a7 b72e c73f
00000400: c0d4 e6e3 b4f6 c73f dbb0 a9fe 4f78 b5bf
00000410: c8dd 8d15 b793 ad3f 5742 42b5 4d40 c2bf
00000420: e052 5bf3 43c2 843f 9ac6 2185 6aa3 bc3f
00000430: ecf8 f0ab d887 d9bf 75d3 f0e1 c88f a3bf
00000440: 3c77 6fa5 9a7d 743f d824 ccc0 4174 9d3f
00000450: 07bd 9f8c 2048 bbbf a62c 8771 09b9 cebf
00000460: e80a eb85 2128 cebf 2800 cbe6 a884 bbbf
00000470: 78fa de28 b228 d53f 349e 2f40 9e3f c03f
00000480: 547b f19e d94a a6bf f070 ce60 8f15 a1bf
00000490: 180c 2e04 de0a a7bf d75a a25a b4f6 a83f
000004a0: 8e2c cefa 57b7 ac3f 5c73 48b6 7a07 b93f
000004b0: bdbf 7e28 789b c5bf f2ce 2c53 4ae0 99bf
000004c0: a2b3 9291 15dd ccbf e879 e7c1 35dd b6bf
000004d0: b4b8 5795 adfe a13f 0c64 14a5 eeed a63f
000004e0: e0a5 273b a505 d0bf d872 4e5e 462c b23f
000004f0: 12be b15e 0a95 aebf 1534 082a 6e84 c0bf
00000500: 3881 75c1 cb52 83bf b224 eba1 a54a ae3f
00000510: 2608 a416 33b7 c43f 6eb3 27fb 0cf8 cbbf
00000520: e8ee a193 7579 a53f 52a0 367d 4dc2 c13f
00000530: e1b9 0fd6 0e15 cabf 95cb 2fc4 40ce c4bf
00000540: 8e63 b1a5 f75e 9d3f ac4e 5895 e329 a73f
00000550: 788b 318b b60c a3bf 389d bc6d 4529 c3bf
00000560: 34d7 6921 6ae2 a03f e24f e9d8 1968 b23f
00000570: 185c e0a9 06f3 95bf 0369 9be6 11af b73f
00000580: cbcc df9c fa03 bd3f 8cc8 7906 d627 903f
00000590: b6c3 01ab 450b b33f 142e 799c d727 8b3f
000005a0: fc37 a908 f747 b13f 4894 a135 33c2 cfbf
000005b0: f8fc 546a 86ac c8bf c06b 67df 6a13 65bf
000005c0: aecf ccf3 827c ccbf dc1f b38a daa4 bbbf
000005d0: 785b 453a 6379 b83f 9b18 3538 1abb aabf
000005e0: 18e7 e24e 128e 7bbf 6845 e7a2 65c1 943f
000005f0: 923b 9be8 cbaf a63f f10c 1bb5 f5eb b3bf
00000600: ba2f 2633 c6ff bc3f 9fa2 c957 3f41 d8bf
00000610: 622c 5e0b 37c9 a43f efa2 dd48 c0e7 933f
00000620: 927b f884 a130 cabf 4729 be70 1767 cbbf
00000630: 1e90 0d17 5c90 babf a32b 75c0 3b84 9dbf
00000640: e508 6d84 c7fe dc3f e1f2 5bd1 161b cf3f
00000650: a669 4ec2 91ee c33f de7f 72e6 c605 c53f
00000660: ec3d d7b2 7206 b03f b88e 6918 ecc9 ab3f
00000670: cd86 a5be 0833 c6bf a767 b17c c55a d6bf
00000680: d2ad b05c ddae c43f d814 1759 b230 aa3f
00000690: 108e db31 0103 d03f b068 d764 56d9 b5bf
000006a0: 14c1 e25c e729 c0bf 1f3d 010a c168 c3bf
000006b0: c7a6 37da 891a a4bf 649a 1ea0 516a b23f
000006c0: bc11 5d1b 89ff 97bf 58d5 90e0 7555 bebf
000006d0: cd64 d967 6826 c5bf e083 341a 7e86 b0bf
000006e0: f49f 2615 c9b3 c5bf 7b08 72bd 2eb9 d0bf
000006f0: 8581 3a1f ea1d cabf b307 379d f9bd 94bf
00000700: aaf9 80c2 3c2f b23f 445e f09c 0776 cabf
00000710: ced3 8cd8 2102 cebf 8ab6 7139 d982 d33f
00000720: 3ee4 18c1 6bec d53f 538e 6a57 12da e0bf
00000730: 6875 19a5 bc73 cabf e5be 64a4 d924 c63f
00000740: 87bb 20f0 10a0 b93f 8ca2 8965 410c b13f
00000750: 2e31 0e95 8cc0 b83f b1e1 23d7 4f4b cc3f
00000760: 70d6 6c34 c621 b5bf 1a57 81a1 570d c03f
00000770: fd18 1076 948c c93f b8b0 4b76 0fa6 acbf
00000780: 6f9a 9539 5aaf 913f 1afe 2810 3f6c c53f
00000790: becc d42f b858 d53f aa61 1936 929e b83f
000007a0: 00bd 0f41 4c9d 4dbf 4e57 148c e7d8 a03f
000007b0: 7413 39a7 efeb 713f 66aa c412 8424 a9bf
000007c0: c4a1 f7d0 c5ca 87bf 5853 33ef 76b8 b83f
000007d0: c81e 9a22 f3a1 b33f d08b 91f4 2bab bbbf
000007e0: cd57 56d4 ac17 aabf 2e37 3532 d2b3 b7bf
000007f0: 0441 8470 b011 b1bf 3978 75da ee03 ab3f

transformer_encoder.layers.0.self_attn.qlinear.weight f8 [32, 32]
0.029986833348141104 0.08655730848996201 0.04027199932223466 -0.08457560687895174 0.25965540461981806 0.05907093836135137 0.1744033335896799 -0.15832073832902788
-0.029598842531175902 0.15325600501021663 -0.020589624137630158 -0.20015861417327818 -0.18426577440684735 -0.18505470346981015 -0.20448923821535459 0.19240868285508822
0.14706584224272073 0.18350159613264225 -0.02257350689338551 -0.13509530197603903 -0.06789169763560635 -0.10896474991551774 -0.03476754891702589 0.1590601492331808
0.20115109334368436 -0.15099985289268636 0.2787323509848036 0.04663371784877747 0.021109876390527596 -0.047768733185268544 -0.08502957193391407 0.11927638610058547
-0.20662587282199818 0.021248823286517747 0.28448371086634305 -0.054628193422512156 -0.3408675330754988 0.03957499817947904 -0.16344019915389413 0.03614498336329368
-0.03392650725651822 -0.061202261580398126 -0.03567424041011762 -0.19199011674050223 0.1601255765885905 0.18683114138973023 -0.05775336292794968 -0.2726706653639962
0.011693864724342001 0.35499982947803105 0.07219045937470578 0.004414077358382021 -0.19308851669508253 -0.01610718643719146 -0.03893603389020239 0.29664395786044534
-0.03543016237705731 0.005326843883856222 0.1512233606647005 -0.06777738353437157 -0.10938561222303457 0.033062486374106845 0.4643482117986748 0.08268617589787589
-0.03918334431586226 0.08433001269563625 0.3474107508136761 0.00012727057311595624 -0.15015228605166156 0.005587808688835308 -0.05110334100608738 0.07320573092897031
0.12769176960361334 0.1707674888896862 0.08241784428504843 -0.12250208526460395 -0.36516939534743 -0.003271500803886898 0.2111821650486146 -0.1708043332097018
-0.07565250820724174 -0.005549114608989242 -0.07604399160483985 -0.13677669313243604 -0.08810495184259232 -0.25386793115639705 0.0637327684363659 -0.06917539952648914
-0.011514209102754615 0.2421247367297249 0.22651409241311504 -0.09185706963093682 -0.15066803082905195 0.052926004511537686 0.20351924540122224 -0.2501295633076879
0.02512865216603195 -0.28422780692633104 -0.1530143295918373 -0.09867878428398169 -0.025145214532565074 -0.274852682425589 0.1544602122486358 -0.06352835467366175
0.22850540219180848 -0.040213601119998006 0.02876633723297297 0.05965000180021943 0.16653956412965487 -0.26152253913422474 0.05933636089831948 -0.30936995655371036
-0.15889032870230113 -0.015561634750917104 -0.18719079792683926 0.20821427351351485 -0.5225873589408381 -0.32480785021278324 -0.12093539683220525 0.10956490641327346
-0.13779224258911515 0.14955620663145652 -0.03994299436984733 0.010296849665721385 -0.05290969361839007 0.12793005741627303 0.03777607941348039 -0.08195472991572894
0.07590985217690119 0.1791238566021624 0.08794683964821778 0.16417183164464033 -0.059037382168341916 0.2288158332896244 0.2845636960469883 0.05065712790578997
0.008821599252417836 -0.2709372688793978 0.205548386542114 0.05589224115252625 0.5869806038685244 -0.28951560785935404 -0.07763304083885939 -0.18608528439962518
0.4181349149197218 0.23876270200213218 -0.09757422071426874 0.03724461496766138 0.12925390094083253 -0.20657219678433658 -0.11423093563867973 0.06482615289433485
0.045773492611460485 0.10133770166099816 -0.04031619577330663 -0.07172369098187864 -0.15669228530162166 0.16620100511614783 0.07499078607207948 0.19435173822876645
0.27385094876222393 -0.002666363183699231 0.2056247939543676 -0.2114602518798066 0.009512919785547094 -0.3037042648514185 0.09830051984993987 -0.17221594369443452
-0.08342584355653081 -0.216415021422928 0.17374420841681695 0.20824655338650827 -0.2189563007827331 -0.09268273382274445 -0.23889609234163747 0.029323320612495554
0.08488095487675101 0.10798429707643542 0.21996528106119623 -0.04201489756210538 0.1808273144483466 -0.02534299427924794 -0.22821481746274175 0.003201408377628334
0.04891477290753958 0.05685790278522834 0.11480931623774036 -0.13080608422609907 -0.1844087512146595 0.018024634098399005 -0.2416411540903616 -0.12229883234050527
-0.10835778714851138 0.11661542907573885 0.037285367925556354 0.03688634702997154 -0.18944644562216634 -0.06565613452201409 0.3221639468156292 -0.0762426488941381
-0.1914858920911751 -0.00236798970551156 -0.021810885538346057 -0.050822429391938144 -0.12718486897349823 0.13236557407634583 0.2813423185970921 -0.023540628946145014
0.04527524935460745 -0.018395623376216585 -0.006307036905708989 0.10786402709565286 -0.15311220786063842 0.1502087321323431 0.13300971276454548 0.19661404911407754
-0.1819486902398848 -0.05770762267090451 0.03495776968542462 -0.21224074665008968 -0.2782833244707236 -0.01951612206139309 -0.02114469917280394 -0.022933461696997497
0.15258790574662667 0.10525029733058683 0.12197066109289034 -0.2470549506495449 0.18725027158235544 0.2935833065993243 -0.12948330408247 -0.21643775896930156
0.17720091812747632 -0.13821244922138226 -0.10358600034357446 -0.0393008608325563 0.2259645180076249 -0.15833156892843883 0.012122052553315527 0.2268522786832349
-0.12974652914808796 0.18713589974863665 -0.19794322793241215 0.14150524307290613 -0.03913922295841156 -0.023570100149755673 0.15962428399656367 -0.2751999142585827
0.184662090060813 -0.24057736709075644 0.16853455226291886 -0.018857480545423667 0.12567297256510915 0.09180312752426836 -0.019588865565772117 -0.12649271444282825
00000000: 5cd9 2952 deb4 9e3f 20b5 31a9 9e28 b63f
00000010: 1c2b 1110 889e a43f 8a9e 9539 bfa6 b5bf
00000020: d097 c4b3 319e d03f f2e3 cfc8 8b3e ae3f
00000030: f65f 0a33 d952 c63f 7e6c b39c da43 c4bf
00000040: 72f4 aeb2 284f 9ebf 749d b78c e49d c33f
00000050: 7072 3b49 7215 95bf 5486 f126 cc9e c9bf
00000060: 2dbd 6c59 0596 c7bf 15d9 af5d dfaf c7bf
00000070: 5c6b 420f b42c cabf fa1d 2a04 d9a0 c83f
00000080: 6a45 65b3 0dd3 c23f d7a5 13f5 fa7c c73f
00000090: 14d6 7367 821d 97bf 5048 ea87 cd4a c1bf
000000a0: 32cd 03ad 5961 b1bf d0d0 4d25 1de5 bbbf
000000b0: e914 1f5b 0dcd a1bf 84d5 863d 155c c43f
000000c0: 469e bbab 51bf c93f b0fc ef92 f653 c3bf
000000d0: 7f48 f436 c0d6 d13f e24f 1aea 5fe0 a73f
000000e0: 5432 e1d2 d39d 953f 02aa 9ab5 2475 a8bf
000000f0: 8327 a67e 7fc4 b5bf 82b1 7cb1 e588 be3f
00000100: 7493 2373 b772 cabf b655 6064 40c2 953f
00000110: 3a9a 9a2a fb34 d23f a4e5 6000 3af8 abbf
00000120: 32f5 b40e c6d0 d5bf 3c1a d795 2c43 a43f
00000130: aadd 1bc3 9beb c4bf 466c eb62 9881 a23f
00000140: bcbc 44ae d05e a1bf 14ac db1f e755 afbf
00000150: 6700 bedf e443 a2bf 7f20 47d4 2193 c8bf
00000160: f0be 59b1 fe7e c43f cc55 1235 15ea c73f
00000170: 66e5 044a d991 adbf 7a48 94a9 6f73 d1bf
00000180: d06d 70f4 f3f2 873f e965 6c34 51b8 d63f
00000190: defa 18ee 127b b23f d019 57de 7e14 723f
000001a0: bc21 38e0 1fb7 c8bf a4ca e9fb 667e 90bf
000001b0: 1084 6380 6cef a3bf 6b43 64f0 36fc d23f
000001c0: ef21 67f9 e623 a2bf b05b 5ac4 99d1 753f
000001d0: da19 397e 495b c33f 7046 b0cd db59 b1bf
000001e0: 819f 260b b200 bcbf 3608 67f3 90ed a03f
000001f0: b068 e88f e1b7 dd3f d20b 50d5 eb2a b53f
00000200: e4e1 c4dc d60f a4bf 8a59 99d6 a696 b53f
00000210: c081 414d fa3b d63f 0088 07e6 7dae 203f
00000220: 9979 01ab 3038 c3bf 5098 32f9 3de3 763f
00000230: 50ca ac94 372a aabf 783e 385c 9cbd b23f
00000240: c23b 3533 3458 c03f d128 0086 b5db c53f
00000250: 7ba4 cff9 5519 b53f 313d e7f1 4b5c bfbf
00000260: 8c1b a174 ef5e d7bf a0de c49e d5cc 6abf
00000270: 5aee 3066 0408 cb3f f84b 9398 eadc c5bf
00000280: 1548 9c78 f65d b3bf 2020 471c abba 76bf
00000290: 9e05 0079 9e77 b3bf 7dee ed0f e681 c1bf
000002a0: 2493 c7ce 0b8e b6bf 5279 7447 5f3f d0bf
000002b0: b923 1e6c ca50 b03f db6c a79e 7ab5 b1bf
000002c0: d4fb 48fc c294 87bf 8444 e780 f1fd ce3f
000002d0: 78ac 7fed 69fe cc3f 0ca5 f8e5 f183 b7bf
000002e0: e653 7b0c 1749 c3bf 4a52 f804 1e19 ab3f
000002f0: a86b 8d2b eb0c ca3f 80d5 8a6d 1f02 d0bf
00000300: 1390 fb4c 53bb 993f 7731 d7d3 c930 d2bf
00000310: 8649 b53a f995 c3bf 9809 4f47 0343 b9bf
00000320: d0e8 45c8 aabf 99bf 0017 8fb4 2f97 d1bf
00000330: df0f 122c 5ac5 c33f 3c2b b1ed 6443 b0bf
00000340: 30c3 af3e aa3f cd3f 195e 548b e096 a4bf
00000350: c6b7 9036 ec74 9d3f b466 e0ed 718a ae3f
00000360: b4a6 b61e 2b51 c53f 62e5 2f08 c9bc d0bf
00000370: 1c3b 0be3 5561 ae3f 12d7 70a5 b7cc d3bf
00000380: 58aa b6ae 8456 c4bf 04b1 9e42 c7de 8fbf
00000390: 199d 9a39 def5 c7bf 6085 a6eb c3a6 ca3f
000003a0: 7486 fe1f 09b9 e0bf 5a78 89dd a6c9 d4bf
000003b0: eab6 5246 9ff5 bebf 5a95 d519 720c bc3f
000003c0: 2008 c81b 2da3 c1bf a4ad 3264 a824 c33f
000003d0: 48ad 0b7d 6873 a4bf 6c60 87c4 8316 853f
000003e0: 94f8 76b7 fa16 abbf 2b9f 631a 0360 c03f
000003f0: 92d2 4de3 6257 a33f e895 bd34 fcfa b4bf
00000400: 9a42 8bfc d36e b33f 4614 05d1 87ed c63f
00000410: e65d 1320 af83 b63f 7048 eb23 9503 c53f
00000420: 4718 4fd3 253a aebf 3099 6454 d649 cd3f
00000430: 0ea5 09a6 4a36 d23f e84d 5427 bbef a93f
00000440: 68e8 4c02 0f11 823f 4fb1 4645 0957 d1bf
00000450: 3ad3 f8d6 684f ca3f 6453 b367 e89d ac3f
00000460: 760d 208c 8bc8 e23f c6ff db78 6c87 d2bf
00000470: 5aef 7d4b c2df b3bf 26b2 6181 a4d1 c7bf
00000480: 3557 39f2 b8c2 da3f ba47 4db6 c68f ce3f
00000490: 3485 e6c6 9ffa b8bf acf7 79e6 b911 a33f
000004a0: 23ed b54e 648b c03f 18ce b92e f570 cabf
000004b0: d275 c214 3d3e bdbf 544e 9b5e 7298 b03f
000004c0: 7370 948b 9f6f a73f dd5c 7c82 44f1 b93f
000004d0: 77e3 b00c 53a4 a4bf 9496 1ddb 7b5c b2bf
000004e0: b6f6 7328 7e0e c4bf aaa1 c414 1346 c53f
000004f0: 5c50 ae9d 9832 b33f c680 ce8b 84e0 c83f
00000500: 8263 3a21 c686 d13f 883c 8bd5 c4d7 65bf
00000510: 88ef a3ca e951 ca3f 0225 1d29 2111 cbbf
00000520: a879 f27a 827b 833f fb52 4c03 e46f d3bf
00000530: 346f ef0d 392a b93f 4d39 020b 2c0b c6bf
00000540: 576d b765 655b b5bf 64f3 afc7 7cb3 cbbf
00000550: 7583 820e 403d c63f e65e 26b4 d2a7 ca3f
00000560: 98b7 8e93 c206 ccbf ec2c ac3e 0eba b7bf
00000570: 91f0 dfab 2594 cebf 24c5 29bc ee06 9e3f
00000580: bcb7 3f1d c2ba b53f 38c2 6ce0 dba4 bb3f
00000590: 8ee6 3484 d227 cc3f 6bb4 f205 fa82 a5bf
000005a0: 6abb e374 5925 c73f 69c6 728e 83f3 99bf
000005b0: ec87 bba4 2436 cdbf 80c7 0e09 d739 6a3f
000005c0: 76b9 db6b 5b0b a93f c8a1 f6a1 7a1c ad3f
000005d0: 4f68 84b2 2464 bd3f ac38 eff6 40be c0bf
000005e0: b815 c8b9 b49a c7bf d363 e6b7 0c75 923f
000005f0: 49c8 17eb 18ee cebf 25d0 3ded f94e bfbf
00000600: 76dd 1100 56bd bbbf c0dc 163e 82da bd3f
00000610: 6e1c b857 1117 a33f d444 536c c4e2 a23f
00000620: ea33 25f8 c73f c8bf 9dc7 8d26 d7ce b0bf
00000630: 907f e187 559e d43f 3e8c 8f63 a384 b3bf
00000640: 59a7 1616 9c82 c8bf 103e f5ca 0866 63bf
00000650: f602 56c0 9755 96bf 7f85 48c0 6505 aabf
00000660: a0c3 6402 9847 c0bf 0718 e3e9 5af1 c03f
00000670: 9dbd 5636 8301 d23f 73c9 cddd 081b 98bf
00000680: 8db2 9746 512e a73f 405a 2963 4dd6 92bf
00000690: f83a ea53 68d5 79bf 756a ca14 fa9c bb3f
000006a0: 299d b04a 2e99 c3bf 3880 0a2c 0a3a c33f
000006b0: bee1 2f57 7606 c13f 6086 702f a62a c93f
000006c0: f8ae 103d 184a c7bf 58f0 3380 da8b adbf
000006d0: be7a 141b fce5 a13f 1ed1 de6c b42a cbbf
000006e0: 37ee 67dc 64cf d1bf c263 fec7 08fc 93bf
000006f0: 444b b9bd f4a6 95bf 5e04 e48f de7b 97bf
00000700: c233 7920 0088 c33f 8cdc edf8 aef1 ba3f
00000710: a028 7720 7839 bf3f 7666 ad22 7f9f cfbf
00000720: c181 4e20 d1f7 c73f 8cb8 1fa3 11ca d23f
00000730: 04c4 34ae e892 c0bf 5e43 3284 3bb4 cbbf
00000740: 21df 160a 85ae c63f a627 a70e f2b0 c1bf
00000750: a091 ccb3 9c84 babf 0901 f60f 3e1f a4bf
00000760: 6a17 73c3 67ec cc3f f96a 3c77 3544 c4bf
00000770: b00e 375a 72d3 883f 65d9 fbd6 7e09 cd3f
00000780: 41f3 bac5 889b c0bf 94f9 a9b4 11f4 c73f
00000790: e499 3725 3456 c9bf fcf6 9a03 d81c c23f
000007a0: 22c8 3165 0e0a a4bf 3b01 3aa5 c222 98bf
000007b0: f3d1 b48b 916e c43f 4691 e619 e09c d1bf
000007c0: 33a4 cfe2 01a3 c73f ce02 e839 3dcb cebf
000007d0: f68c 1b4b 8a92 c53f 1a03 e918 604f 93bf
000007e0: 8141 944d 0d16 c03f d222 63e6 6880 b73f
000007f0: 8307 e283 1a0f 94bf 5f6b dbcb e930 c0bf

transformer_encoder.layers.0.self_attn.qlinear.bias f8 [32]
-0.019955977397318858 -0.07772381033240322 0.02300915862299381 -0.20351133751508108 0.07256774640106248 0.02831564816505508 0.23862723413537135 -0.4362307196479096
0.08789000575753164 -0.07938440645789 0.2534594594468681 0.07395502454049356 0.04508455698623204 0.040449638688279436 -0.08467174324519364 0.022868531801101717
0.13696041679622878 -0.13286224020967027 -0.25783228558424415 0.10673599528822827 0.27325326915380077 -0.07827872387678689 0.04187279940998586 -0.3333807851960072
-0.2409848612905512 0.1522037490870486 -0.049487511962992614 0.09535686264789472 -0.014289889443225581 -0.10691019633030385 -0.05100329317897688 0.134240656971474
00000000: d0f2 1ff9 566f 94bf a488 7f27 b5e5 b3bf
00000010: e44b 2d7f b68f 973f f309 7fd5 a80c cabf
00000020: da77 89c1 cc93 b23f 08f8 55fb c6fe 9c3f
00000030: f4ee 4553 568b ce3f 047e 9940 34eb dbbf
00000040: a4b4 5f9c f57f b63f d68b 8c55 8952 b4bf
00000050: aae9 4b06 ae38 d03f 6bbb c66b b7ee b23f
00000060: d0fb 9eb3 5215 a73f cf33 9aa6 d0b5 a43f
00000070: 8627 2220 0cad b5bf 02e8 c530 d96a 973f
00000080: 1e40 7e3f eb87 c13f 4373 4940 a101 c1bf
00000090: 15fc 9bfc 5280 d0bf bea6 11d9 0c53 bb3f
000000a0: 2c9a a247 fb7c d13f 76fe 050f 130a b4bf
000000b0: 7b9f 1d00 5a70 a53f 9606 625c 1c56 d5bf
000000c0: 4879 0989 97d8 cebf c427 5496 697b c33f
000000d0: 5007 e25a 6d56 a9bf 6499 85ae 4e69 b83f
000000e0: 28ae 937e 0444 8dbf f0fb d874 775e bbbf
000000f0: 8e4e 6288 1a1d aabf 6736 be3f cc2e c13f

transformer_encoder.layers.0.self_attn.klinear.weight f8 [32, 32]
0.3947591474567482 -0.050446720718643034 0.09286022791718969 0.13882129908160779 0.1307886319827274 -0.036610354006292145 -0.32995459609249034 -0.009592464545291765
-0.037753106421345106 0.4068387477458211 -0.1212873242767744 0.4049904929566615 0.29215263549471865 -0.0016029905474483838 -0.23155872035869 0.17605749531907544
-0.11281450730222495 -0.09311930072512767 -0.08906516224011363 -0.10653648954046797 -0.17164320103691547 0.1327357365745922 0.07381388488874756 0.07809175601556637
-0.14398256946011684 -0.11286963091542726 -0.15244876720973866 0.04964880183582697 -0.029687510470842157 -0.1622115450080855 0.10485729435876422 -0.023636137658870515
-0.1402822743711335 -0.15626000374137364 0.08629413400205496 0.08759206885829798 -0.11868507108522201 0.15301608846090792 0.15380796130250063 -0.1574950403965631
0.20589066375298615 0.038333240578005356 0.27038257750057504 -0.019164476429430928 -0.08643833955017467 -0.05700044624814023 0.21662857914845626 0.05875715588058884
0.014721691863494937 -0.1278611030846022 0.029689237995649098 -0.009013788223240018 0.12344414064553594 -0.06818543186661472 -0.1566023005758541 -0.12682855710155116
0.1436641500029085 -0.09180917315558229 0.06329466970329167 0.2852709963281681 0.08343623416110976 0.13912908899465432 0.03609176638343741 0.18988370217560036
-0.110355512935744 0.23794277292275812 -0.16202623466771085 0.25831884112171005 0.09509661690789349 -0.003250687908905474 -0.15898751839843994 -0.09979530017432361
-0.19103404251474412 -0.20906379597091596 -0.04826200759878616 0.17875865526716903 -0.052961358927647105 -0.043144173497899084 0.15408272903754144 -0.2501507130775991
0.016854836365327933 0.005946704362194938 0.015287931298856677 -0.0017570062783228355 0.23340087457209058 0.26658331305797445 0.2691516363165394 0.05308245190564145
0.13149181332861287 -0.2653942201836624 0.006795042639238764 0.3467185846018926 0.26825217081777897 0.05492835312304846 -0.1791287010968114 -0.28928872425818625
-0.37937286593090014 0.11054160401987281 -0.05485450928468241 -0.11765332487263419 0.26325234538859776 -0.0551035041223395 0.126491371817568 0.19084168460918094
-0.06038994856603537 0.15568377269643235 -0.2558978516930458 0.04852467785720643 0.0938611370841982 0.21115452381882038 -0.0928068096639399 -0.10133522053517943
0.046345031412747525 0.157053124764262 0.0390904934964726 -0.3104588415458475 0.25551953459577026 -0.0004520031687032487 0.037100677192357795 0.11563318919694232
-0.09715387715901047 -0.24540898327324304 -0.1842598925745824 0.10472094413040453 -0.14007180793960272 0.320910313774794 -0.15316067427081947 0.39782894610802844
0.18064995754636715 -0.04160408594015688 0.1969764221659454 0.04429832537428269 -0.02149326667468678 0.07069898727162084 -0.18887861555954358 0.10718333438378917
0.07372526597557646 0.31356368441312044 0.1438816084612507 -0.15218987579805543 -0.03547464440608507 0.07018338471170851 0.037425703254529985 -0.0676249129686428
-0.1454311902432666 0.036149085827417195 0.21828387534070542 -0.26234436864111377 -0.013878996741202562 -0.11911086332627727 0.11646543279226292 0.04225454284864837
0.15048309134523863 -0.10012229566984135 -0.020261472962776673 0.10110261518141092 0.08974897466610615 -0.034005495571280055 0.26259516679398154 0.30601052361281794
0.09565391615558501 -0.025093172919999546 0.1251625306649287 -0.19843395740618952 0.1453694414888016 -0.09336377512661195 0.1010237142817523 -0.2605633520357721
0.1983472295191795 -0.04948219112682088 0.25383185428853927 0.12344092149997234 -0.08230474843050994 0.20511512515542954 -0.399297105634977 0.22347816570807358
-0.18272133510863436 0.02544056677786033 0.15742232665885486 -0.030385796803763743 0.09092822123443225 0.1582271734376964 0.03366985882666154 -0.11183392791577693
0.10991559830882008 -0.24185195231899087 0.3683787335670343 0.0005235638646827467 -0.3180409607491585 -0.20293121852060775 0.010538837901931976 -0.13217543433053228
-0.2956250551180643 0.02644284768442913 -0.2845490097606679 0.2040567181920348 0.34561345683363676 -0.17389139122818856 -0.1760372125532536 0.22924017296377702
-0.0552391186532803 0.3036241930482047 -0.07131440007004063 -0.19429952748511403 -0.09014573717647675 -0.5462637054390174 -0.09045237709745862 -0.4373868464432845
0.11578032198632301 -0.21022472157746525 0.3426794309375197 0.2299489600256566 -0.07673751800473369 0.009735315185163646 0.043285365088927344 0.12067110665541188
0.11206562835234499 -0.14179897299964647 -0.020760673290816517 0.25568484047434914 -0.10780607850108864 -0.1827823947926498 0.1458723011065809 -0.04249579938310958
0.4000039203873025 -0.33044841481138487 0.11840377577947336 0.039502190946135884 -0.28759369681472124 -0.11940333723822079 -0.02840391047250418 -0.009913163661044909
0.2381190312434462 0.321194719610985 -0.3067519014710624 -0.024545114945027924 0.23260567905247526 0.09317381696665641 -0.041989688761693233 -0.16505066208394384
-0.21977469652674445 -0.012028175284935085 0.06342714249645484 0.18315289248491576 -0.08226417197495188 0.024173438472443562 -0.32775890866080726 -0.04769846914834626
0.008842721566525354 -0.005124841967646621 0.13797852429029014 0.14809042928834829 0.03032975698940401 0.07594168485814648 0.08176859456791244 -0.05445352294349933
00000000: a8e8 07df bb43 d93f 08a2 5a0f 27d4 a9bf
00000010: 2de1 001a b0c5 b73f 4899 c575 e5c4 c13f
00000020: 60f6 8690 aebd c03f e8d3 4da2 97be a2bf
00000030: e874 d8e1 f91d d5bf 589e 14cc 36a5 83bf
00000040: 10de cd0a 6054 a3bf dd16 1463 a509 da3f
00000050: db26 30a3 af0c bfbf 5925 9c3e 5deb d93f
00000060: 2df6 b8f7 a0b2 d23f e09b 88fe 6d43 5abf
00000070: c9a7 8555 b7a3 cdbf 9838 4e50 0d89 c63f
00000080: e69d 605b 69e1 bcbf e2a5 3d9f aad6 b7bf
00000090: c8c2 0877 f9cc b6bf 452e 68b2 f945 bbbf
000000a0: 1d64 8487 67f8 c5bf 8e96 cc0f 7cfd c03f
000000b0: 437f 967d 77e5 b23f c68f 2c42 d2fd b33f
000000c0: 663b 8355 056e c2bf 3a4c 7e2d 06e5 bcbf
000000d0: b49c bdf2 7083 c3bf be46 5758 916b a93f
000000e0: 9ca6 491a 6766 9ebf 32f3 6b10 59c3 c4bf
000000f0: 8f97 047a edd7 ba3f c091 fe58 1234 98bf
00000100: 54f6 5002 c5f4 c1bf 15fb deea 5300 c4bf
00000110: a61e 6053 5f17 b63f 9aa7 220f 6f6c b63f
00000120: 6b9f d512 2562 bebf dec8 d9fb 0796 c33f
00000130: 6c4f d4b1 faaf c33f 3689 e427 cc28 c4bf
00000140: a476 af11 a05a ca3f 10b4 431d 6aa0 a33f
00000150: 607b f1b9 f24d d13f f297 093e da9f 93bf
00000160: 3111 7db1 d220 b6bf 8a80 fc98 292f adbf
00000170: 1d29 693b 7cba cb3f 4282 d3fd 6a15 ae3f
00000180: 8895 c308 6826 8e3f 98e4 16ac c05d c0bf
00000190: d019 f008 db66 9e3f 281a 0e2d d275 82bf
000001a0: 2c95 f402 099a bf3f 6645 eeb7 9974 b1bf
000001b0: d7cf b94f 8b0b c4bf 9c9a 790c eb3b c0bf
000001c0: 6e60 ef3c 9663 c23f 1c10 2d54 ce80 b7bf
000001d0: b002 6358 1434 b03f 3084 ee47 e141 d23f
000001e0: 36fb 05b9 135c b53f 8ec0 9363 fbce c13f
000001f0: f720 8bb8 9e7a a23f 209d 71f1 1b4e c83f
00000200: 0a09 fe46 4240 bcbf 20eb 02a6 e874 ce3f
00000210: 99f4 7e91 46bd c4bf 3fbc a3bf 4b88 d03f
00000220: 7f63 947b 4058 b83f f098 43c8 2fa1 6abf
00000230: f02a fff7 b359 c4bf aa10 8b4e 2f8c b9bf
00000240: 0902 83b2 cd73 c8bf 7481 3c3b 9ac2 cabf
00000250: ad5b 8d40 ccb5 a8bf 4bed 1f49 90e1 c63f
00000260: 5388 1751 c01d abbf 4b73 5f3c fe16 a6bf
00000270: 261e 0c9d fbb8 c33f cd51 ef22 7802 d0bf
00000280: 64c2 dfeb 6442 913f a0df 124c 925b 783f
00000290: 56de 9d67 474f 8f3f 60d9 4520 6bc9 5cbf
000002a0: f88c 9271 14e0 cd3f b892 cf74 b30f d13f
000002b0: 383e e9c8 c739 d13f e439 da85 9f2d ab3f
000002c0: 9e14 f846 b9d4 c03f c51e 0f0a 38fc d0bf
000002d0: 543a 915e 1ed5 7b3f 55f4 7125 a330 d63f
000002e0: 5093 2f27 0b2b d13f 82c1 92b0 911f ac3f
000002f0: 862d 7e74 b0ed c6bf 1797 72da b483 d2bf
00000300: bc6e 0a21 a547 d8bf 42dc 1c5e 744c bc3f
00000310: e4e8 d4e6 e315 acbf f4f7 973e 871e bebf
00000320: 4884 825d 20d9 d03f 186e 33c8 8636 acbf
00000330: 7160 9788 de30 c03f c813 0e15 806d c83f
00000340: 0a4d 326c 6eeb aebf aee1 1f24 72ed c33f
00000350: bed9 0862 a160 d0bf 882a e400 3ad8 a83f
00000360: 615a 2492 4807 b83f 1026 1a87 1c07 cb3f
00000370: c44b 5ae4 2fc2 b7bf d2ac 21e2 1af1 b9bf
00000380: 76eb 7f34 89ba a73f 336e 4c19 511a c43f
00000390: 5abf 4d4e ab03 a43f ab61 ccc2 8ede d3bf
000003a0: 86fd 249b 6e5a d03f c0e3 c7d3 5a9f 3dbf
000003b0: f4b8 6626 dcfe a23f 38dc eefd 229a bd3f
000003c0: 68da 1395 13df b8bf edce a6c2 8f69 cfbf
000003d0: 4741 4902 d495 c7bf 860f 3fe6 fdce ba3f
000003e0: 9499 187d dfed c1bf 5d28 a769 cb89 d43f
000003f0: a463 83db c49a c3bf 88e9 3b8a 0776 d93f
00000400: 58bc d7ad 891f c73f 9463 fc78 214d a5bf
00000410: ea95 a4fd 8536 c93f 900e 8025 45ae a63f
00000420: 85d5 ceb5 5402 96bf 7122 312e 5419 b23f
00000430: bdf9 5eaa 2c2d c8bf 83c7 daf3 5d70 bb3f
00000440: 4e06 41b6 a8df b23f a420 716a 6d11 d43f
00000450: 2221 6b69 b66a c23f a4df aa35 f57a c3bf
00000460: 326b 1f8b bb29 a2bf 2a33 0fce 89f7 b13f
00000470: 8019 0437 7629 a33f df5c 98c5 dd4f b1bf
00000480: 39e3 f43e 7d9d c2bf 856f d10a 2282 a23f
00000490: 668e eadc b9f0 cb3f 509d e608 40ca d0bf
000004a0: 188a d668 976c 8cbf 06ae 95ae 0c7e bebf
000004b0: ad0e f5b8 add0 bd3f 6fe5 482f 63a2 a53f
000004c0: 48e2 f6a9 0743 c33f 029e 8061 9da1 b9bf
000004d0: 9ac4 f96e 6cbf 94bf 0e86 be69 dce1 b93f
000004e0: 7c5b 0aef c9f9 b63f bdd0 b916 2b69 a1bf
000004f0: b2f0 5df5 5bce d03f 6587 c929 ad95 d33f
00000500: 5560 9f69 c67c b83f 5855 2d54 06b2 99bf
00000510: c9fa f167 5305 c03f 40db bcae 4866 c9bf
00000520: c01e 8442 779b c23f 06c6 cc38 b0e6 b7bf
00000530: 32e8 f5ac b0dc b93f dae7 e1e8 11ad d0bf
00000540: 18bf 0428 7163 c93f 468c 3fd1 ba55 a9bf
00000550: 4e8c 36f6 c73e d03f a19a d400 d399 bf3f
00000560: 3086 d08a ec11 b5bf e98f 3a61 3641 ca3f
00000570: 60bd 8572 158e d9bf 110a 8bba ee9a cc3f
00000580: 6a59 49a7 6963 c7bf 80e0 3589 170d 9a3f
00000590: 3a7b 5430 6a26 c43f 80e8 234e 741d 9fbf
000005a0: 323f 7c68 1247 b73f 4370 a0bb c940 c43f
000005b0: 44fb 0afd 2c3d a13f 7e42 fbf6 25a1 bcbf
000005c0: f480 0ebc 6d23 bc3f 5287 d738 01f5 cebf
000005d0: 7c96 4d65 8493 d73f 000f 8dd6 f827 413f
000005e0: 0330 4d79 c85a d4bf 8e14 7171 a6f9 c9bf
000005f0: 745d 03e1 6295 853f b561 e4e7 1feb c0bf
00000600: e30e e759 85eb d2bf 7428 1278 d513 9b3f
00000610: 0e00 c20c 0d36 d2bf f2f9 94d1 871e ca3f
00000620: 4e1c 8ae7 871e d63f f9c4 30b7 1242 c6bf
00000630: eec9 652b 6388 c6bf f286 e7f2 bd57 cd3f
00000640: 79c2 2640 4d48 acbf c9a6 da2a 946e d33f
00000650: 17e1 0818 a941 b2bf f8a1 1692 cede c8bf
00000660: b6f9 0b81 ca13 b7bf 8246 bb05 fe7a e1bf
00000670: a4a2 7a11 e327 b7bf b22a 4b66 25fe dbbf
00000680: 869c 7378 c7a3 bd3f 9632 fec7 a4e8 cabf
00000690: cddd 38b5 75ee d53f a19a 87af f76e cd3f
000006a0: f6df 34ea 11a5 b3bf aa36 b1e2 1bf0 833f
000006b0: 229c e7d6 7f29 a63f 2539 a838 4de4 be3f
000006c0: 566d c740 55b0 bc3f 37e7 d1ff 7726 c2bf
000006d0: 78d8 4e33 4942 95bf 4ee6 faf2 235d d03f
000006e0: 14e1 78dd 2d99 bbbf 84a1 f5db 6965 c7bf
000006f0: 5490 528d f1ab c23f f5ba 2269 02c2 a5bf
00000700: c474 150b aa99 d93f f050 a81b 1126 d5bf
00000710: 001d b2b8 b54f be3f f8ce 7794 a139 a43f
00000720: c8b7 9664 ef67 d2bf cdae 7894 3791 bebf
00000730: b04e 3b2a ea15 9dbf 4cec ca4d 5a4d 84bf
00000740: 7e76 df35 af7a ce3f ec21 184c 748e d43f
00000750: 2f75 33ba d2a1 d3bf 70a0 dcc7 5a22 99bf
00000760: e676 32dc 05c6 cd3f 8a1c b740 3dda b73f
00000770: 985a 0028 ac7f a5bf 39b6 ea4d 6120 c5bf
00000780: 710c 09c7 9321 ccbf 54b6 d55b 3aa2 88bf
00000790: 1675 b3de c23c b03f 79fc b1d1 8d71 c73f
000007a0: fbd2 43c8 430f b5bf 1c1e affe ebc0 983f
000007b0: b0ee 6a80 00fa d4bf 6a71 1f0a ef6b a8bf
000007c0: 51a4 7cff 211c 823f 0012 5f4a c9fd 74bf
000007d0: 0d46 b0c0 47a9 c13f 7170 528f a0f4 c23f
000007e0: 66e1 7589 c30e 9f3f c26e de0c ea70 b33f
000007f0: 3a52 825f c9ee b43f 4b7d 6308 55e1 abbf
