experiments/fl_train_noise_0.5_max_grad_norm_1/20250427/model_round_66.pt (torch, 62806 bytes, 25 tensors)

embed.weight f8 [32, 8]
-0.13971564089241212 -0.020542526453897324 0.2883168520668458 0.2566228484523969 0.12316853404057074 0.2751937958179056 0.1981290121407681 0.11949034895489567
-0.1782244572457291 0.000599474533234446 0.1114444034080401 0.3186106027076717 0.3613465329954978 -0.06298291710084455 -0.0174721962573995 0.38256741058939236
0.028705161537826856 0.032991926752590356 -0.173830756332797 -0.05046329391016098 0.07862931048888089 -0.048626983038855084 -0.07919058893284661 -0.14816024627844754
0.037562564417174316 -0.006003989608802468 0.2688998028962748 0.023040025641972047 0.21304142723387665 0.15230851273864843 0.3277614418801482 0.06947659567996664
-0.19381373620443348 0.0036734954544709736 -0.19808871109292114 0.11061971010396762 0.2370050631908781 0.27036907170176944 -0.04329499214810231 -0.14185122819107182
-0.04171933012313557 -0.26904281014347986 -0.08760358336683038 0.15048913597282268 -0.24368939036557075 -0.14231229736423034 0.03774620352538262 -0.1179170904770632
0.022278600617844285 -0.0689760043217865 0.17168969512092214 0.2092886051602681 -0.028444052585217643 -0.06935070630847504 -0.10370541007021089 -0.05506117605461221
0.058764372632633066 0.1114211136990863 -0.09429868118441515 -0.2178949345586128 -0.10872383664208352 -0.26722588309246587 0.107496282662708 0.0012771458391075408
0.12726093133588445 -0.08384735952213927 -0.047391293799796966 -0.3038907876409832 -0.07182388127398111 0.15182349162945963 -0.2683806750402301 -0.010398106946893842
0.11052165838905079 -0.28986549072868045 -0.14199031513222693 0.05195931047570731 -0.11200669460444729 0.19699136732225064 -0.03155639735436916 -0.02746657881324873
-0.1490554474805242 -0.13173113107918766 0.5184474008603843 0.07942395601274817 0.2757481286686112 0.0641206552372308 -0.19617062581898997 -0.046620491638767324
0.08999687765576819 0.09896378289778351 0.46030819117431376 0.1100227812240096 -0.19601462891193758 0.0591058082647601 -0.127976935079982 -0.016489387007635616
0.12991341156018765 -0.004178996511195306 -0.05303036474918239 -0.019796859115414664 0.14356179809168587 -0.18812763509619396 0.26338180305668835 0.1531817167750244
-0.10403706054633421 -0.17717083934883565 0.22913701003865253 0.07573110057625018 0.09564407167476749 -0.22370303838037633 0.1310945787246241 -0.06380752437346657
-0.09309400117505193 -0.1304972135076308 -0.0027904791765037545 -0.0872660997075492 -0.2997946632060887 0.4376750750860792 0.04880641770673291 -0.01663936621940452
0.17552226723290376 -0.06321176862726219 0.08325040819096619 -0.15131175510679432 -0.23003064157910263 -0.003949311118137941 -0.015214733515455513 0.3954058682821449
-0.21658005637152009 0.09992879621763404 -0.22323473162747814 -0.08604382135902602 0.08865048889306242 -0.3991599526627958 0.010952257837481619 -0.554750222770328
0.2657563455573337 0.17337223267811414 -0.09199757517397371 0.09513366524975564 -0.19456012325169103 -0.4839169570020664 0.24463509828034724 0.1612872108963771
0.04487002743557996 -0.31396151976215914 0.022525067628727607 0.09392400405759135 0.37350231183293403 0.10839652048914068 0.1034892917076145 0.33970815713740504
-0.4786452403993673 0.1639209110325196 0.24072401585667114 -0.056436382224860714 0.015103878857311112 0.0009135031100801355 0.05282593427355 -0.19869213776558645
0.20745166111653054 -0.15180718567626938 -0.027168070568930024 0.08977135372815835 0.24865071540505404 -0.19562347349041478 0.18163084456303116 -0.16235208134876988
-0.21089927008989012 -0.3133124265352325 -0.3226644659459628 0.006600939799367163 -0.27806977506013686 -0.13679211347650333 -0.1110401050517206 0.29273752984862755
0.07141849847078915 -0.14026657799636902 0.1010372726964022 -0.07270531472305768 0.12298991013938543 0.26337489463352753 0.15658844387941678 -0.07143326445171824
0.09640424280671606 0.2771316267574273 0.11320067803778228 -0.06536457986582761 -0.402411025402214 0.12845055329835334 0.19156625959022125 -0.10559960079541761
0.21571483002317077 -0.16223853480175832 -0.02494482542017891 0.1782956801588373 0.20757170995465002 -0.18564984369523962 0.02385932033885622 -0.09968359261511778
-0.2727517303642917 0.10060668845361048 0.4262705806988918 -0.11818973602078275 0.0873584717385317 0.06985603676455082 0.06180538816044662 0.11987961685312779
-0.08823175457232571 0.30039047473100094 -0.25914665568194994 0.2201140092671091 0.11103838414932832 0.1118109240682185 0.19571852797364303 0.04319920333813117
-0.11011432585363272 0.029856591638260974 -0.019829513051152475 -0.11501132129237254 0.002942988693205334 -0.38392095652507396 0.2505169351704588 -0.17957140074802092
-0.03387765298853139 -0.1161535585385983 -0.21404407396921304 0.10431858501855767 0.09315247888196096 -0.01512215162525285 0.11562779446959305 0.14904722824483513
-0.2989237336595243 0.16731497319374466 -0.0432004090529268 0.03153417767986008 -0.11255375288262776 -0.03383265221503115 -0.11524986440928271 -0.1876805419979987
0.23274471668026614 0.24889302933440588 -0.42802393638915714 0.1948602901581861 -0.19960970479525103 -0.1556528030135606 0.07870527945478242 -0.18706639552914345
-0.11098514033727076 -0.2094666361809079 -0.14234778424103034 0.0021084166178488017 0.17623715461809247 -0.2460914998576136 -0.18013616554071576 -0.04515768573363166
00000000: 0ab1 2fbe 33e2 c1bf 23d3 2f9d 1909 95bf
00000010: 45d1 a086 c873 d23f 289a 603d 826c d03f
00000020: 4abb 9919 f987 bf3f 8066 4670 c69c d13f
00000030: fe45 c49d 4a5c c93f 6beb f264 eb96 be3f
00000040: 74df 9b1b 0fd0 c6bf 0666 ecc1 c1a4 433f
00000050: 0ab3 f5d3 9e87 bc3f 7e73 b2b9 1d64 d43f
00000060: 0246 6f35 4d20 d73f 66a1 2701 a61f b0bf
00000070: 242e 0f3e 3be4 91bf 4ccc 3f05 fc7b d83f
00000080: bb1d 20c8 e264 9d3f 146a de5c 51e4 a03f
00000090: e080 be12 1640 c6bf 1a33 fc29 53d6 a9bf
000000a0: b088 0eed 0c21 b43f 66c6 b5cb a2e5 a8bf
000000b0: 2218 9e9d d545 b4bf 8aa7 2a3a eaf6 c2bf
000000c0: 5089 7383 663b a33f 20cb 3eb0 a397 78bf
000000d0: 3cc8 d584 a735 d13f ff6b 86f2 cd97 973f
000000e0: 2cd2 5405 f144 cb3f dcb4 8e68 d87e c33f
000000f0: 70f6 7020 0bfa d43f 466a 48da 37c9 b13f
00000100: 12be 4175 e3ce c8bf 60bd d8da e017 6e3f
00000110: ece9 ec8b f85a c9bf ce85 30c5 9251 bc3f
00000120: fc13 b291 2e56 ce3f 4fc6 3314 ba4d d13f
00000130: 449e b6de c22a a6bf f231 fd58 2e28 c2bf
00000140: 82d3 fa6c 3c5c a5bf 5c92 b255 ff37 d1bf
00000150: 98ac 923d 306d b6bf 810a b45e 3a43 c33f
00000160: 7e4b 00c5 3631 cfbf 58be 7f13 4a37 c2bf
00000170: 821d 616b 7853 a33f ae0b 3d7f d02f bebf
00000180: e896 3794 33d0 963f f654 c552 69a8 b1bf
00000190: 9862 cd8c edf9 c53f 125e 4b11 f8c9 ca3f
000001a0: 3e13 7a0e 7020 9dbf 8ea5 8cc7 f7c0 b1bf
000001b0: a479 ab10 708c babf 9a22 de7c fa30 acbf
000001c0: 6815 4125 5d16 ae3f ace5 6b17 1886 bc3f
000001d0: d434 be57 f523 b8bf ba57 f230 fbe3 cbbf
000001e0: a063 ac4a 53d5 bbbf 14b8 2197 3a1a d1bf
000001f0: d457 7a5a e084 bb3f 00ba 1de7 bcec 543f
00000200: 3cb4 1211 164a c03f 27e8 0043 0577 b5bf
00000210: 6a73 f8f1 ab43 a8bf 2a51 9e58 f272 d3bf
00000220: c1be 24c5 0c63 b2bf 5012 a8c1 f36e c33f
00000230: ba46 8b23 262d d1bf d6be 374a 9a4b 85bf
00000240: 26d9 47bc 254b bc3f 8dcb bafc 278d d2bf
00000250: 24bb eb17 bd2c c2bf eb86 6e26 699a aa3f
00000260: 5c58 4282 78ac bcbf 6427 1f5c 0337 c93f
00000270: 88b2 3bfd 2828 a0bf 5692 f1e6 3220 9cbf
00000280: 7b18 1cb8 3f14 c3bf 5cd3 ecd1 90dc c0bf
00000290: 9a87 ec00 1f97 e03f 75fc 97dd 2055 b43f
000002a0: 1427 a47a dba5 d13f 8bf3 3d15 366a b03f
000002b0: 8209 2a7b 1e1c c9bf bbea d21d a4de a7bf
000002c0: 1c0d 460e 090a b73f 08d0 08c3 b055 b93f
000002d0: 8a2c cb7c b075 dd3f b40d 2cf7 732a bc3f
000002e0: c16f 5be2 0117 c9bf b267 00d3 1d43 ae3f
000002f0: 89c9 6757 8c61 c0bf ea2c b707 98e2 90bf
00000300: d83c fbae 00a1 c03f c8e9 87d5 fe1d 71bf
00000310: 6adb 95c4 cb26 abbf ec5d dbb9 a045 94bf
00000320: 971e e1a5 3b60 c23f fe21 1bfc 9014 c8bf
00000330: fc5b 9f59 3fdb d03f 266a f25f 759b c33f
00000340: 8854 9e3c 2ca2 babf 7270 67b8 88ad c6bf
00000350: 89a9 358e 5c54 cd3f 5edc 4308 1d63 b33f
00000360: 7e3f e63f 217c b83f b505 ee18 4da2 ccbf
00000370: 6a0f 2708 b5c7 c03f 1e3a 6c9e b055 b0bf
00000380: 8629 802a 02d5 b7bf f100 1ef8 21b4 c0bf
00000390: e03e b419 0fdc 66bf 321c 4b34 1257 b6bf
000003a0: 3212 7ff4 d52f d3bf 3138 7151 de02 dc3f
000003b0: 644a c59f 27fd a83f db3b f4f6 e809 91bf
000003c0: 9017 be7e 8377 c63f 00f6 f97e a52e b0bf
000003d0: d010 8f14 e64f b53f b58e d7ff 2e5e c3bf
000003e0: 967f 54e1 a471 cdbf 3090 8121 272d 70bf
000003f0: 6c0d eef6 e628 8fbf 5dc5 3a6a 544e d93f
00000400: 176f 8a31 e5b8 cbbf 6ef2 aeff ee94 b93f
00000410: faee d5a7 f492 ccbf b287 c2c6 f706 b6bf
00000420: 03f3 9166 ccb1 b63f c0d0 a32f d68b d9bf
00000430: e8b1 d529 236e 863f aae9 078a 83c0 e1bf
00000440: e3e2 37e7 2602 d13f 4e89 b1b2 0f31 c63f
00000450: 13fb ae30 278d b7bf 500e ff0c ae5a b83f
00000460: 0c62 3c9b 58e7 c8bf 0a70 13d4 7ef8 debf
00000470: e4ae 48f1 3350 cf3f 3410 0830 0fa5 c43f
00000480: bb18 d048 34f9 a63f fa2d e50e f217 d4bf
00000490: 38e8 38b3 cf10 973f 169a bc4d 670b b83f
000004a0: d261 933d 76e7 d73f 0545 80d6 dfbf bb3f
000004b0: 14d3 5e33 467e ba3f bdbb 4548 c7bd d53f
000004c0: 90af 79a5 1fa2 debf fcf1 0144 5cfb c43f
000004d0: 0cac bb67 0bd0 ce3f b3b0 ebbf 3ae5 acbf
000004e0: b811 e14d c8ee 8e3f 8075 c5fd 04ef 4d3f
000004f0: 43cc 2b38 000c ab3f 7377 d674 be6e c9bf
00000500: 2b89 ffa9 c68d ca3f 1481 e3f8 6a6e c3bf
00000510: 261c 5b5a f2d1 9bbf 6f4d 6164 41fb b63f
00000520: c556 6561 c9d3 cf3f 1152 7ca2 300a c9bf
00000530: fde9 abf4 ad3f c73f c44d eaf7 f3c7 c4bf
00000540: 16a7 e44d bffe cabf ec8c 5990 4f0d d4bf
00000550: 096e 34dc 88a6 d4bf 0875 fa48 9609 7b3f
00000560: 58eb 782b e5cb d1bf 18bc dd6a 6782 c1bf
00000570: dad5 bdd3 1f6d bcbf 5abf 4031 36bc d23f
00000580: 66ef 4293 7b48 b23f b1ad 9b56 41f4 c1bf
00000590: 0278 e825 94dd b93f 931d fbc4 d09c b2bf
000005a0: 3061 c949 447c bf3f e975 c25f 22db d03f
000005b0: 5a62 b212 170b c43f 86a9 aa4e 7349 b2bf
000005c0: d4ec 0cce f2ad b83f 4411 674a 86bc d13f
000005d0: 3cab 0e3a b8fa bc3f a42b d7ac bbbb b0bf
000005e0: d9bf 692c 1ac1 d9bf 71e6 c856 1171 c03f
000005f0: 8180 fa41 3e85 c83f be10 e34f 9308 bbbf
00000600: 8e19 1b26 8b9c cb3f f0ef 8f78 3bc4 c4bf
00000610: f450 89e5 228b 99bf a66f a691 64d2 c63f
00000620: 143e eab4 b591 ca3f 40db 96c3 5fc3 c7bf
00000630: 8b9e 3de2 936e 983f ccce 3a2a dd84 b9bf
00000640: 08e4 75ac c374 d1bf 3cc8 aa24 5cc1 b93f
00000650: 9850 d666 0448 db3f 68a0 eeba ae41 bebf
00000660: b641 25f3 1f5d b63f acf8 54d1 15e2 b13f
00000670: 883d bbb1 f4a4 af3f 8258 d739 6eb0 be3f
00000680: b259 5b34 5b96 b6bf d9f8 3ff8 9839 d33f
00000690: 5064 c1da db95 d0bf 54ca 9823 b22c cc3f
000006a0: 10a5 85f4 026d bc3f bb62 3506 a49f bc3f
000006b0: 861c 6f02 4e0d c93f bade 19bb 341e a63f
000006c0: dbc8 5cd4 7330 bcbf 4c1c a0f2 b992 9e3f
000006d0: 2b83 3318 304e 94bf 56d8 9ec7 6171 bdbf
000006e0: 40f6 1206 e51b 683f fe8c 2134 2992 d8bf
000006f0: 74ae e92e 7808 d03f 883c c116 32fc c6bf
00000700: 1e4d 4d67 6958 a1bf c6bf 3c57 3dbc bdbf
00000710: 16d9 ccd4 cb65 cbbf 1c0b 056f 9fb4 ba3f
00000720: d6df 5642 d7d8 b73f 70a8 67d5 5cf8 8ebf
00000730: 3969 c17b c899 bd3f 667d 6fc5 fa13 c33f
00000740: 3c37 0403 9121 d3bf a8c6 ffb8 936a c53f
00000750: c4be 1c30 5d1e a6bf 9cb8 ae6b 3f25 a03f
00000760: 9446 ac9f 52d0 bcbf 3cdb 996d 8352 a1bf
00000770: 1d9d 81de 0381 bdbf fd0c fd7e ea05 c8bf
00000780: 12b1 3a31 94ca cd3f 42c9 980e badb cf3f
00000790: 5495 2c82 be64 dbbf 8d5d c296 2ef1 c83f
000007a0: 1aa8 0791 cf8c c9bf 26ab 3c59 6eec c3bf
000007b0: 8ee4 4779 0726 b43f 0238 7da9 caf1 c7bf
000007c0: 2d2e 17ac 8569 bcbf 4104 0080 cdcf cabf
000007d0: c094 fcc2 7338 c2bf 40ab 708d ab45 613f
000007e0: ee5f b667 f08e c63f 1924 db1f ed7f cfbf
000007f0: ec7f e9ad b30e c7bf 302a c77e e81e a7bf

embed.bias f8 [32]
-0.12005687184885172 0.1775145811477429 -0.061588991874224716 -0.1394633243281771 0.016664101992684303 -0.34455801897693367 -0.004449746911791022 0.14654832761306913
-0.026047139692954732 -0.18014410156042954 -0.08502748538810342 -0.23894074022408507 -0.02195536290619024 -0.11126114834998774 0.014420120478921446 -0.16145802069159043
0.3485068875342893 0.18187388840780017 -0.20393970444936083 -0.02261074862937154 0.07368634498546674 -0.10716785853413077 -0.003197807774771348 0.12195363984735011
0.21055365476948992 -0.23428510619698373 0.24281772135621466 0.19627022094003993 -0.14961304482155668 0.3160969757051235 0.09709578722514675 0.15069503738594037
00000000: c039 4012 0cbc bebf 65dd 4b3c ccb8 c63f
00000010: 5e6c c9a3 9788 afbf 2890 7d28 efd9 c1bf
00000020: 3e9b 4df4 6410 913f 8b26 c513 3d0d d6bf
00000030: 10cb 62d7 e539 72bf 1cd9 3079 18c2 c23f
00000040: 8cd6 8af4 19ac 9abf fa79 6240 f60e c7bf
00000050: 0ec6 007d 5cc4 b5bf a0e4 7834 9c95 cebf
00000060: 9897 9d76 777b 96bf a485 7a51 9c7b bcbf
00000070: 240a e4ce 4b88 8d3f 040d 460b a8aa c4bf
00000080: 53fe 18d5 ef4d d63f 009b 5ac1 a447 c73f
00000090: f4a2 7b3c b21a cabf 68db 9aa7 4527 97bf
000000a0: 9dd5 dfb9 1bdd b23f 5621 964f 5a6f bbbf
000000b0: 701d f8f9 4932 6abf 9ac4 c58e 5a38 bf3f
000000c0: d7e4 a412 6cf3 ca3f c828 87ea 0dfd cdbf
000000d0: 8a9d 0eae a614 cf3f 86de 0ef2 611f c93f
000000e0: 0023 482f 8526 c3bf 1c27 41cf ee3a d43f
000000f0: fe1c b6fe 44db b83f 80fd 9e98 f949 c33f

pos_enc.pe f8 [1, 12, 32]
-0.10857648810825417 -0.20070175501618762 -0.07678200030273738 0.2243934726155059 -0.1542475093645308 0.013719352402653859 0.03426716943463337 -0.21663334028706688
-0.14088266451639653 0.07663103818193248 -0.12511896723558114 -0.04654240230713359 -0.25418959837870747 -0.2874845735969287 0.4028995575901301 0.1105745689650745
0.24918681982535928 -0.2923386978578161 -0.16706104945828903 0.24852993283196273 0.39690789637072293 -0.2502381860365552 -0.2983288686367596 0.09399455976891996
0.02048731302887417 -0.08461394489948254 -0.17694990040555275 -0.2742731204151208 0.36508209358216087 0.3285020867052768 0.3325707937546885 -0.12482146899826692
-0.23722609367058226 -0.12677812187126117 -0.2309431665772228 -0.01880745177100096 0.1763836865160101 -0.13471826448985402 -0.0021332919831427363 -0.017821938690595895
-0.03364145011354787 -0.022352495622594747 0.037911030904175136 0.06894146827853065 0.09212447107524169 -0.1404207111118089 -0.0714430062443788 0.16631901435128105
-0.04021004876239702 -0.20027604355086537 0.6730173090849279 0.017154579279171037 0.0013475527501971424 -0.012746309759988403 -0.051048677758547316 0.22422764895505826
-0.17441688075938924 -0.515461014931062 -0.08442084773855262 -0.04088051009265275 0.14504232279147333 -0.008804621120720196 -0.22988460660596471 0.017725269775530857
-0.08487217695401225 -0.0416962768177533 0.10129475528135867 0.08747568464992239 0.15486901790924076 -0.2548545010967964 0.12408635650421466 0.09679709355154228
-0.049327510812079506 -0.05877289632408237 0.15563813400940407 -0.3886121348313787 -0.015052831084655233 -0.20083938589412748 -0.1193673568091417 -0.07809121469837071
0.007181045299734297 0.1633773269357095 -0.2721210140332616 -0.10678104909493634 -0.2731777943089184 -0.28920292897928235 0.023281762915381185 -0.18228579751743998
-0.0590502039945994 0.20058980612881788 0.12921233460810447 -0.04338284571959067 -0.1251785942369762 -0.14494757099538724 -0.13702759318755403 -0.05592423750015454
0.020945308180229265 0.10981530228040522 0.19015483039326733 0.2957250201666428 -0.25884994560827934 0.2854450202598159 0.153525955942154 0.19847746228826804
0.4343230246054362 -0.14849315740316507 0.12752866217881678 0.04477337427722219 -0.19621760274685335 0.09259454742913492 0.0036342816140126077 -0.12269472941101953
0.06690493753876756 0.04142486619005496 0.12256815715079386 0.031752631987160995 -0.04353096010856536 0.04149753480630848 0.1424461245194083 -0.05179327370849853
-0.24940045355737783 0.14632862235577068 0.04188499987692214 0.06327822381990728 -0.11973166672429819 0.1540655580089983 -0.07186938835730464 -0.18577400967242105
0.10512525468109248 0.10151366628806753 0.037903976236204125 0.08395836111611363 0.13552938365384587 0.09640462906150546 0.0018207902982690094 0.13102745452552467
0.30122076397867004 0.10374437478056642 -0.20495192145382396 0.12646285168693966 -0.14221344879980485 0.06526060962740529 -0.09095463452717753 0.16889012601822687
-0.11016244605055982 -0.1268044517634831 0.11108893398642947 0.10887161962880308 -0.1715551732675471 0.3069589411534543 -0.2926443650656197 0.03840006565450954
0.008496611778514088 -0.1110509836152282 0.055582473367101634 0.3413716179185442 0.002833789207486573 0.11831249120924607 -0.18865816116744247 -0.12310620829832059
0.10726550863451856 0.12327963353223442 0.2726889437187982 -0.13156153419590838 0.2628941910531124 0.24169727690328863 0.05938327358123907 0.04604044400875565
0.3857232547066679 -0.3564652709846429 -0.17253514150332733 -0.0442541940528067 -0.08360766052421681 -0.014837303327712194 0.09278567158489125 0.15364879544989496
0.013326796057177626 -0.0565546221649334 0.18526632663202366 0.1263117522508742 -0.23997682274311766 0.1459781734614044 0.1694284670222066 -0.41020720227525836
0.23353048372425292 -0.22086567829678388 -0.33735684125313486 -0.16160189236579353 -0.08371604791715648 -0.36715862358058166 0.19853647704422997 0.05713850363300315
0.06179984071941093 0.15583914281323996 -0.16459561072408638 0.0731463796872821 -0.21490103799971064 0.08591240558649946 0.039069728593371475 0.3415756355268408
0.18956113223431587 0.02514851891516994 0.15474112948326668 0.2979107203150243 -0.13499654342740297 -0.0627667082125157 0.27997657213458327 0.00828887674855415
-0.006681593333422393 0.030167054618881695 0.30648841419217865 0.2542121792188298 0.17691857687947588 -0.08389879124777339 0.09945405130045487 -0.05390339187028703
-0.2794190508784691 0.1611755190883378 0.028327985587245894 0.0905834535847471 0.1077816157432526 -0.2632503323382184 -0.22782210564029806 -0.012257777268186096
-0.06622246608068166 0.12013578411396371 -0.25538901184687174 0.007973855113740665 0.07518061612262099 -0.2283742128774598 0.10972624583510131 0.01926278950822528
0.1363703087378424 -0.025919447208382795 -0.2277688614861524 -0.250206370088066 -0.2767901668450671 -0.1705425249228201 -0.053742306499438744 -0.08432780923334551
0.38178443902214065 -0.2592052494993183 0.06669407473351877 -0.053437433329731235 -0.2073780540137053 0.23700515718903248 -0.04104691122515105 0.11245813657307335
-0.31470881150901364 0.2952151272326117 -0.1616281478202775 -0.31252762531361206 -0.011993387174758098 -0.015806391403103213 0.31638343971361554 0.13523971892154585
00000000: a91b 8a31 abcb bbbf 99ac 0559 98b0 c9bf
00000010: 96c2 3834 fca7 b3bf 60e4 28e1 ecb8 cc3f
00000020: 00e5 1ae4 61be c3bf 3832 224f e418 8c3f
00000030: 10b3 1868 778b a13f e2ca e02b a4ba cbbf
00000040: f0eb 5572 7108 c2bf d694 d97a 179e b33f
00000050: 446c 31f8 e503 c0bf d2a4 92df 67d4 a7bf
00000060: 6c46 0173 a444 d0bf 1803 6db2 2566 d2bf
00000070: de09 db39 1bc9 d93f 2c6b 796d 9d4e bc3f
00000080: b840 df8c 5ae5 cf3f 12e4 a95e adb5 d2bf
00000090: d4ec eda7 4162 c5bf ce90 cb2e d4cf cf3f
000000a0: 2dee 9b60 f066 d93f 0b31 4f06 e703 d0bf
000000b0: 11d8 8ff7 d117 d3bf 1c9d 3508 0710 b83f
000000c0: 1b89 c44d a0fa 943f 94fa 206e 42a9 b5bf
000000d0: eeda a259 4ba6 c6bf 45b5 96d8 b08d d1bf
000000e0: 1199 1249 815d d73f 6c48 c49d 2d06 d53f
000000f0: 55fe b102 d748 d53f 0dad 2fbf 4cf4 bfbf
00000100: 8557 09b5 6c5d cebf f986 a4f7 433a c0bf
00000110: 7888 d7b1 8b8f cdbf 2035 1cb9 4242 93bf
00000120: cc2c 919a bd93 c63f d432 14b6 723e c1bf
00000130: 3004 9d69 d679 61bf e048 4f0f ea3f 92bf
00000140: 2a2f 0ec0 7339 a1bf 966b bb96 92e3 96bf
00000150: 503b c81b 1369 a33f d831 98e7 25a6 b13f
00000160: 28f1 6d26 7895 b73f 1501 f44c 4ef9 c1bf
00000170: c6f7 58bf 164a b2bf 0cbd ab03 f149 c53f
00000180: 1664 cf58 6996 a4bf 1493 9c38 a5a2 c9bf
00000190: 8e2c 8598 5b89 e53f 1437 ec53 f890 913f
000001a0: c087 78bf 0b14 563f 58bc 82bc bc1a 8abf
000001b0: c739 f462 0d23 aabf 167b 8fd9 7db3 cc3f
000001c0: 2daf 5dd7 4a53 c6bf 79bd 2f19 a87e e0bf
000001d0: ef3e 23cc 9a9c b5bf 5792 c84b 4aee a4bf
000001e0: b46e 7630 bf90 c23f f026 233e 2808 82bf
000001f0: 1efc 9cd9 db6c cdbf 92a6 feb7 9226 923f
00000200: 4699 5bd8 2eba b5bf 5a2c 98e2 3659 a5bf
00000210: 0894 30fd 73ee b93f 9841 c474 ce64 b63f
00000220: dbba 8a7b bfd2 c33f a8be dc40 894f d0bf
00000230: fbbd 109b 1fc4 bf3f 8ed7 26bf b1c7 b83f
00000240: 6c41 769b 7441 a9bf c5cd 3427 7b17 aebf
00000250: 7c59 ca4b f3eb c33f 287d 7b6e 05df d8bf
00000260: 2a36 c4c9 04d4 8ebf fefd 14e1 1ab5 c9bf
00000270: ba89 b4ed db8e bebf bc02 3c2d c9fd b3bf
00000280: 084e 6a2b df69 7d3f 0863 0c5a 8ce9 c43f
00000290: 1af1 f441 6e6a d1bf 9f00 b2b9 0056 bbbf
000002a0: cc36 23b7 be7b d1bf 40e6 7700 4d82 d2bf
000002b0: bc57 42a9 2cd7 973f 636c 6e19 2455 c7bf
000002c0: b436 f50d d43b aebf 02fc 9d40 edac c93f
000002d0: d9d8 b09f 078a c03f 8867 25bf 4636 a6bf
000002e0: c41a 3428 da05 c0bf 64a8 875a a48d c2bf
000002f0: 02f0 b1c3 1e8a c1bf 63da 3b06 1aa2 acbf
00000300: 2e0e 8ed6 af72 953f b50a e50b db1c bc3f
00000310: d595 db54 fe56 c83f 0461 8ea2 28ed d23f
00000320: 405f bd5c ff90 d0bf 1a9b b430 bb44 d23f
00000330: 80e9 ed0f bda6 c33f 2db6 c2a0 b567 c93f
00000340: 3521 a5cc f2cb db3f d5f9 5ce3 d201 c3bf
00000350: c929 aef4 db52 c03f 3325 8124 89ec a63f
00000360: a63f 598d a81d c9bf 7cfd feb8 46b4 b73f
00000370: 4005 a715 a4c5 6d3f f63e 36fa eb68 bfbf
00000380: 7e80 ab96 ae20 b13f 860f 0edb a335 a53f
00000390: ba5f 7e72 a060 bf3f 58c0 e487 e141 a03f
000003a0: dc3d 0fa4 b049 a6bf a226 b735 2a3f a53f
000003b0: d45b 20b3 ac3b c23f 8328 76e1 a584 aabf
000003c0: fc78 d1a3 5aec cfbf 774e be73 e5ba c23f
000003d0: fa24 5461 f371 a53f 1400 db6d 0033 b03f
000003e0: dc5d e008 bca6 bebf 8258 8b92 6bb8 c33f
000003f0: 6a01 9440 0866 b2bf f3b2 fe57 71c7 c7bf
00000400: 49c6 d61a 7de9 ba3f 1de7 cdb4 ccfc b93f
00000410: a14d a564 2668 a33f ee2e 388f 4b7e b53f
00000420: ea5b 38df 0659 c13f ae8e 0049 f9ad b83f
00000430: 8010 2cb2 f2d4 5d3f 4c5a 08f4 81c5 c03f
00000440: 8a87 8a74 3347 d33f 8095 d3c8 fd8e ba3f
00000450: a6c1 f253 dd3b cabf 3ec0 134a ef2f c03f
00000460: 92c1 d2df 0c34 c2bf 1e15 1158 ebb4 b03f
00000470: 86bf b68c cd48 b7bf 15cc ee0f 319e c53f
00000480: 39d6 0827 9b33 bcbf f4da a7d6 203b c0bf
00000490: d651 6b0a 5370 bc3f bfac c4ad 02df bb3f
000004a0: b065 5219 85f5 c5bf 0b02 5e1d 37a5 d33f
000004b0: 8131 546e afba d2bf 78fd 4c64 2ca9 a33f
000004c0: e865 b9ed ab66 813f cce7 d056 d66d bcbf
000004d0: 2e5b af52 4e75 ac3f 4c89 af57 08d9 d53f
000004e0: 2086 09ff e236 673f 3bb6 7338 ba49 be3f
000004f0: 8738 2b5c f325 c8bf f46a 9372 e383 bfbf
00000500: c8f5 929b c075 bb3f e4a7 480a 418f bf3f
00000510: 8731 d053 bc73 d13f be39 6423 02d7 c0bf
00000520: 646a 3828 42d3 d03f 127b eab5 efef ce3f
00000530: 90f3 eb03 7c67 ae3f 8431 9ff2 9c92 a73f
00000540: 7265 1197 b0af d83f 037c 42b6 53d0 d6bf
00000550: 6671 15ab a115 c6bf 3cd5 5558 7ca8 a6bf
00000560: 5c86 a5c7 4f67 b5bf d445 6d24 0563 8ebf
00000570: d797 fe40 cdc0 b73f c477 c383 c3aa c33f
00000580: e0ed ce49 144b 8b3f 28a5 4539 baf4 acbf
00000590: d3a0 f796 ceb6 c73f 7c4c 82c6 fb2a c03f
000005a0: 2266 bd7e 8fb7 cebf 7428 79ac 69af c23f
000005b0: e096 6ffe d4af c53f edc6 96b5 d540 dabf
000005c0: 297c 1baf 53e4 cd3f 3ef9 8b98 5345 ccbf
000005d0: a7e6 1026 4197 d5bf d665 57ed 5eaf c4bf
000005e0: c85d f437 6a6e b5bf 2f45 2ee2 867f d7bf
000005f0: 29e8 fbad a469 c93f 976a e408 4241 ad3f
00000600: e264 938d 3aa4 af3f a8e6 e87a 89f2 c33f
00000610: 3503 900e 7811 c5bf 88e2 939c b8b9 b23f
00000620: 2de8 0a91 e081 cbbf 5e90 50fc 5afe b53f
00000630: c6ed 248d f200 a43f 42af ec0d 60dc d53f
00000640: d201 c507 8a43 c83f ce4b 2289 88c0 993f
00000650: 8c05 3dad 8ece c33f 8e5f 3820 f810 d33f
00000660: a8ff 8b15 9147 c1bf 66e2 0c9f 7a11 b0bf
00000670: c8b5 3ddb 22eb d13f 38e6 7134 c2f9 803f
00000680: 48b2 a28d 285e 7bbf 40db 04c4 1ce4 9e3f
00000690: 58bb e394 819d d33f 4f58 ff28 0345 d03f
000006a0: 7048 e096 44a5 c63f 3447 9524 647a b5bf
000006b0: ec47 ca19 d275 b93f d0e4 73b2 3999 abbf
000006c0: acc0 5971 00e2 d1bf e33a b33f 66a1 c43f
000006d0: 5997 a2ee 0202 9d3f 7b89 b42a 7a30 b73f
000006e0: e630 ba72 9397 bb3f 1e71 03ec 17d9 d0bf
000006f0: c1f5 8356 4629 cdbf b878 e803 9b1a 89bf
00000700: 14b6 139e f4f3 b0bf 554a d9ff 37c1 be3f
00000710: ebf6 6827 4b58 d0bf 6412 7eb7 9854 803f
00000720: 832f 8a6f 093f b33f b27a c7bf 5d3b cdbf
00000730: dbe6 5fed 0417 bc3f ebc7 deeb 9fb9 933f
00000740: 9454 1610 9574 c13f 8092 5ca8 a08a 9abf
00000750: b1a9 90b1 8727 cdbf 0add 3194 6103 d0bf
00000760: 760d 9d1a eeb6 d1bf a175 8f63 56d4 c5bf
00000770: ea44 a791 1c84 abbf 92f0 ccde 8196 b5bf
00000780: fa31 eeff 276f d83f 1945 639d d196 d0bf
00000790: f243 d1e5 dc12 b13f aa16 11b9 265c abbf
000007a0: 6ed0 f233 5d8b cabf 241c 8e5b 2f56 ce3f
000007b0: 83af a0ca 1904 a5bf 981d c072 0eca bc3f
000007c0: 766e 4c6d 3024 d4bf 2ee8 2ffd cde4 d23f
000007d0: 8a25 802c 3bb0 c4bf 6562 74de 7300 d4bf
000007e0: 5487 782d fd8f 88bf f68f 93f8 8c2f 90bf
000007f0: cb38 a453 a03f d43f e4b2 f1fc 884f c13f

transformer_encoder.layers.0.self_attn.qlinear.weight f8 [32, 32]
-0.06888189629571316 0.05083217443788959 -0.25879473672399966 0.1732417190525967 -0.046578422994400744 0.11156549710762526 0.05980872692932282 -0.014948152628971652
-0.1511192699640067 -0.09699221016224041 -0.4189700352215372 0.1719819424734122 0.043807642482334264 -0.11383061581586792 -0.08177943248848864 0.04683870239452993
0.3311643904722531 -0.43259493039100383 -0.18245219352462602 -0.21489941453837805 -0.2381923888506771 0.09636242044097534 0.010110983778192605 -0.11603660745615968
0.13501242542210318 -0.020382662582781763 0.08945433846010276 -0.10506080209353075 -0.044275018040792355 -0.2695132445270616 0.05274457608519781 0.04643319893149951
-0.2562448781796494 -0.0776818261552405 -0.234600655302168 -0.006284076504608535 -0.10577371986724918 -0.08426206051183169 0.07899362787340583 -0.10231372103355355
-0.0861071226894736 -0.32275605068999996 -0.2910839457300094 0.2819120359639277 -0.09875539256231104 0.2356506064023694 -0.05041625608726201 0.24414456747897403
-0.0202181988189105 -0.0998055266441377 -0.2737655556918656 0.18969768142263183 -0.25710772338557725 0.22981712549445682 -0.1317066156264023 0.2785919255539112
-0.15906002358517055 -0.44956378698846633 0.1372661186531398 -0.2350927946391694 0.06547052492861866 -0.3849030443442123 -0.1381145521547808 0.0033485509253353626
0.1882719465176551 0.06830273982544349 0.2903979759779717 -0.13221978984218952 0.06500899583807554 -0.2414725314435089 -0.07630423185764837 0.1974344416403227
0.17901940983204012 -0.2015355639373506 -0.2607660342242143 -0.04242664902275836 -0.29829380508374037 -0.050549384015733334 -0.2750209857559809 0.008539362001438212
0.24601585393028647 0.011972898935097585 -0.268414414174461 -0.10591882951100479 0.13465694598173283 -0.2067361365155308 0.10010677899772133 0.11708318797977398
0.11301550283180117 0.25529861257822345 0.17978958015581925 -0.19239826272262447 0.2231657332390048 -0.15132206852153848 0.12321602961045058 0.14031629594855435
0.2831430046286527 0.1372297210636866 -0.09076928031929037 0.16378675476929264 -0.07597523024430186 -0.022757894182871673 0.024131959568686967 -0.14916743590459036
-0.046101650766345426 -0.17743189449297353 0.13799829371922095 -0.3456263098445409 0.044551528000487506 0.00520162138757237 0.08140761927884199 0.000942457396164928
0.07988825595739846 -0.09999545685319991 0.10552695029020341 -0.023649573121902558 -0.008167199623084126 0.06934767510117079 0.022636080587189005 0.09194733137132788
0.06781450070711538 0.13661682126524977 0.17223916409538448 -0.16213928492303833 0.2236513902539759 0.11211039063187031 -0.27289742829527475 0.14977533661952783
-0.11325664770676355 -0.034280375401225985 -0.04218693111269282 0.052983558174729675 0.2975513414381966 -0.18776026514182034 -0.14380826098574864 -0.09853141452542133
0.1009065618255246 0.10354548680692899 -0.092751462197864 0.034232013607207706 0.17817582084423922 -0.11229315517219907 0.06764333560584772 0.1025763524452333
-0.07777402653793998 -0.004699217680620718 -0.0948469706223434 -0.026690948716787538 0.06659621538639926 0.18015902248250387 -0.21900020042074453 0.10495860113218387
-0.021737373404473313 0.3191400974399697 -0.1421712063239764 0.006996703618198704 -0.08414834890057979 -0.1670772132564879 -0.17296974605535 -0.08624920665538327
-0.06842772157692861 -0.19889649949293509 0.24546709202871286 -0.09321742768154366 0.07203236907461356 0.30749335482647144 0.2713328285759268 -0.21596566890986837
-0.01017748538550435 -0.10839630574054757 0.06836190114166749 -0.028034485349514554 -0.17281416119535856 0.33416567502947486 -0.24884666639556885 0.19291637519345764
-0.1308379584661798 -0.014294913847293644 -0.025084309871098186 -0.14813925578188444 0.14099450597738275 -0.06182511651664442 0.14021362774642038 0.1346518632357399
-0.04134091905429861 -0.005050700538407997 -0.35575530190008703 -0.12736172508332283 0.18820238433458947 -0.036091508554346674 -0.11331124513069848 -0.19841798962843826
-0.03386752330191205 0.1262170500969768 0.11915981682154209 0.09758815286809386 -0.14420699979108256 -0.11914063534206389 0.08125790681185063 0.29544279192882755
-0.11316199139329805 -0.04407527413814466 0.07176971158648489 0.18367274731541505 -0.17447509320646112 -0.0416887154268359 -0.09284923592138146 -0.255175066730177
0.2747915259309998 -0.10451987300111454 -0.3676323045621009 0.020520093982239723 -0.06917941845166133 -0.1603587549541029 -0.07968731555526817 0.15495010183862815
-0.11947064136255409 -0.06929063147803873 -0.09686751208029093 -0.16498749036273114 0.28348366943670705 -0.060663043473733816 -0.11260337403411028 0.2371270001372583
-0.1190034608020826 0.018319952859132467 0.08180385370138832 -0.19306835441253836 0.3215714261415873 -0.2527107021081446 -0.16024944360259147 -0.2534580433024193
-0.28214701489104477 0.13827469328600084 -0.2268301258819252 0.1900800189773426 -0.09132003220841252 -0.11908206726010377 0.1304911717695884 0.13598146115632198
0.1594983662090963 -0.3268025487905027 0.06063472475292122 -0.2810397517388786 -0.14334433811832303 -0.16501886540437657 0.2424410349760434 -0.0032789941166672595
-0.2948314294367918 0.23758509077293802 0.014882756837065105 0.3656725425428656 0.10008497385260649 0.14451176500521834 0.20992902530305432 0.24673934259352032
00000000: af65 e073 3ea2 b1bf f431 97bd ac06 aa3f
00000010: 0ad1 a6cc 1790 d0bf d51d d1de c82c c63f
00000020: 11a0 eb86 20d9 a7bf 9471 7071 8e8f bc3f
00000030: 408a 5adc 3f9f ae3f 0499 6a15 239d 8ebf
00000040: 1039 2551 e057 c3bf ac13 9d42 7bd4 b8bf
00000050: 3af3 d1b1 67d0 dabf 8a82 3619 8103 c63f
00000060: 908f 8d8f f46d a63f 0e73 36d4 0024 bdbf
00000070: 0104 0634 7fef b4bf 5273 f10d 3efb a73f
00000080: 0266 ab20 cc31 d53f ea76 9ca5 a2af dbbf
00000090: 1bc8 22ee 975a c7bf c999 aff2 d281 cbbf
000000a0: ed87 2294 167d cebf fa7d 5b24 35ab b83f
000000b0: ac04 4345 11b5 843f 14ba 293a 93b4 bdbf
000000c0: d6eb de4f 1648 c13f a036 cb54 31df 94bf
000000d0: 90e4 2bc2 7ae6 b63f 684f 15c5 43e5 babf
000000e0: ceaf 0715 37ab a6bf 0049 c57a b43f d1bf
000000f0: f494 a74a 5601 ab3f 2a0a b89d 17c6 a73f
00000100: 6d24 e3ea 5066 d0bf 8c8f d4c6 f4e2 b3bf
00000110: 304d 12ef 6407 cebf b06a 2af1 54bd 79bf
00000120: 6a29 9b8b fc13 bbbf b61f 31ca 3292 b5bf
00000130: 2205 4f28 ed38 b43f 0a6c c565 3b31 babf
00000140: 2e69 e7cb 1d0b b6bf c32d 93fe 08a8 d4bf
00000150: 1044 d38e 1ea1 d2bf 0b16 b4c7 d80a d23f
00000160: 31d8 5b8d 0848 b9bf 72ef e38f cc29 ce3f
00000170: 16c1 29d6 28d0 a9bf b3bc 6812 2140 cf3f
00000180: fc50 d85a 14b4 94bf 6a89 e5e0 da8c b9bf
00000190: ebf0 1df7 5f85 d1bf 5e2a eb7c 0348 c83f
000001a0: 495d dff3 7374 d0bf 129b 07c7 a56a cd3f
000001b0: 7420 642b c3db c0bf fec1 4b3a 73d4 d13f
000001c0: 231c b32f 145c c4bf 3835 a530 a7c5 dcbf
000001d0: 5667 3ba9 ef91 c13f 9f0f 404c 8517 cebf
000001e0: 5c9d 6b23 adc2 b03f f0b5 e560 40a2 d8bf
000001f0: cea0 4dd6 bcad c1bf f066 d396 6b6e 6b3f
00000200: 6c17 868e 4b19 c83f b408 c7d1 497c b13f
00000210: 4e99 6964 e195 d23f 10cb a0fc 93ec c0bf
00000220: 7201 12f7 6da4 b03f 6852 b768 92e8 cebf
00000230: 1200 6094 ac88 b3bf 9a7f f922 8845 c93f
00000240: 70f6 49a7 1bea c63f 57c1 0bd8 eacb c9bf
00000250: b6a3 3905 64b0 d0bf 2c30 101c f2b8 a5bf
00000260: b2c7 5be6 3e17 d3bf 186d 5cde 9be1 a9bf
00000270: 9847 e29e f199 d1bf 74f5 32c4 157d 813f
00000280: c4cb 768f 727d cf3f 0c9d ea4a 3f85 883f
00000290: 32e0 a9a6 b32d d1bf 04c6 c714 7f1d bbbf
000002a0: 28dc 9555 703c c13f 0428 9e68 5476 cabf
000002b0: 6632 e70d 99a0 b93f 3dd8 48ef 29f9 bd3f
000002c0: 5084 9a80 95ee bc3f 8f35 effd cf56 d03f
000002d0: ec24 774f 5803 c73f b3b6 199b 81a0 c8bf
000002e0: acb8 ecda b190 cc3f 2b46 bb83 855e c3bf
000002f0: 1415 85f1 158b bf3f 6df2 1867 e2f5 c13f
00000300: cc28 3ed6 031f d23f 81fd 0056 be90 c13f
00000310: 43eb 73d2 a73c b7bf 4944 a0e1 f6f6 c43f
00000320: 9891 34d9 1c73 b3bf 830d f76c d84d 97bf
00000330: a02a 8b64 0cb6 983f 6c50 6b25 eb17 c3bf
00000340: c087 aab4 a29a a7bf a6ac 0e9c 16b6 c6bf
00000350: fec3 3697 eda9 c13f 88d8 5ad0 bd1e d6bf
00000360: b872 7f37 75cf a63f 54c9 ee9b 4b4e 753f
00000370: 00a6 7236 21d7 b43f 8027 e2d8 e7e1 4e3f
00000380: a8e7 ab86 8e73 b43f dadd ee60 4d99 b9bf
00000390: 8fd1 5770 d003 bb3f eae1 7dfc 9737 98bf
000003a0: 1097 3ffa f6b9 80bf 30f8 9cec c4c0 b13f
000003b0: 3b8e 53a7 e92d 973f 7cbf 313d dc89 b73f
000003c0: 114c bb86 4a5c b13f 0478 b5f5 a87c c13f
000003d0: 9aa5 70d4 ee0b c63f 5115 12e7 fac0 c4bf
000003e0: da41 6cd7 9ba0 cc3f 3e40 4e3d 44b3 bc3f
000003f0: 9834 6cc6 2677 d1bf 219e 4396 d62b c33f
00000400: 3e84 f43d 63fe bcbf 4259 7c86 328d a1bf
00000410: 852e e582 8699 a5bf 721f 2c33 a920 ab3f
00000420: 36e9 16c8 140b d33f 3dde 2243 8708 c8bf
00000430: c509 ea20 4f68 c2bf f6ea 03d3 5a39 b9bf
00000440: e80f fe2e 03d5 b93f e0f1 7bff f481 ba3f
00000450: 0fc7 cb50 8fbe b7bf 4c9f d6c5 db86 a13f
00000460: 2063 bb1d 77ce c63f d07c 0785 3ebf bcbf
00000470: 132f 38da 1251 b13f 1662 189f 7142 ba3f
00000480: 996c 75a4 ffe8 b3bf 50b0 14a4 7c3f 73bf
00000490: 6298 f21c e447 b8bf 58ec 593f df54 9bbf
000004a0: 9038 1f17 730c b13f aa22 d26a 730f c73f
000004b0: 08f1 4fd5 3208 ccbf 7df0 4b1f 91de ba3f
000004c0: d61b 7e6f 5242 96bf fd33 5696 ca6c d43f
000004d0: 9013 cc84 aa32 c2bf 7cfd 8453 93a8 7c3f
000004e0: da56 8a06 bf8a b5bf 9ef5 6b3f c962 c5bf
000004f0: dda8 4065 df23 c6bf 900c e491 6d14 b6bf
00000500: 3c0d 50aa 7a84 b1bf 7436 4ec4 7075 c9bf
00000510: 34f7 4036 776b cf3f c339 4feb 18dd b7bf
00000520: 3bca 6d9d b670 b23f a2e3 ad9b f8ad d33f
00000530: 5a25 445e 845d d13f 3969 8356 c3a4 cbbf
00000540: 080f 17f7 eed7 84bf c6b1 293c dcbf bbbf
00000550: 0623 b261 2a80 b13f 5807 f276 12b5 9cbf
00000560: 8d53 4f41 c61e c6bf 85a1 6c6d f862 d53f
00000570: 909c f122 35da cfbf 55cd 28d9 7bb1 c83f
00000580: de04 5858 4cbf c0bf 803e c9db a646 8dbf
00000590: f608 288a b3af 99bf eb21 6b25 3af6 c2bf
000005a0: 2155 0ba4 1b0c c23f 2a50 05ab 8aa7 afbf
000005b0: 22ec cf28 85f2 c13f 2ab3 78b2 453c c13f
000005c0: a24b a60e a32a a5bf 384e 261a 0bb0 74bf
000005d0: d986 c2e2 b1c4 d6bf a25c ff95 634d c0bf
000005e0: 4086 df06 0417 c83f 58f6 ce11 967a a2bf
000005f0: cafa 1a3c f701 bdbf ec33 32bc c265 c9bf
00000600: 96da f481 1557 a1bf 209b 2e5b e127 c03f
00000610: 98f1 3efc 4181 be3f a8a6 0b85 89fb b83f
00000620: 457e fafd 5f75 c2bf 3138 6b2c 0080 bebf
00000630: 505e 4c74 51cd b43f 7b16 4be2 88e8 d23f
00000640: 0638 2f2c 2ff8 bcbf 189c f8c9 0891 a6bf
00000650: 5578 1bf4 7f5f b23f 546e 71ad 9682 c73f
00000660: 17e7 a429 3355 c6bf 9ab3 bd2a 3958 a5bf
00000670: 0dad bdaf f7c4 b7bf 2a16 97cd c954 d0bf
00000680: 73dc 4532 2f96 d13f 7065 527c d0c1 babf
00000690: 8907 43a5 4987 d7bf 981d 4232 3803 953f
000006a0: 1962 ce0b beb5 b1bf f4db 13bc a286 c4bf
000006b0: ce45 374e 6366 b4bf d152 f4a9 67d5 c33f
000006c0: 0cfc 7bc1 a095 bebf 990b 1ee4 07bd b1bf
000006d0: 1403 6e2c 4fcc b8bf aab3 ad61 4f1e c5bf
000006e0: 1b91 4bb0 9824 d23f 7a4d 97f7 390f afbf
000006f0: 7a50 e520 93d3 bcbf 4047 4b73 2d5a ce3f
00000700: aa79 41c4 0277 bebf 82b2 9339 77c2 923f
00000710: 3090 55ec 18f1 b43f f514 0cbe 76b6 c8bf
00000720: eecb a651 a094 d43f e2d5 3982 692c d0bf
00000730: 82d7 bcc3 0d83 c4bf 3a17 b915 a838 d0bf
00000740: 7cbf 675a b20e d2bf 188f c332 fcb2 c13f
00000750: 0889 3402 c508 cdbf 48bc 90c4 8a54 c83f
00000760: 4507 cee7 bf60 b7bf 7b16 6c90 297c bebf
00000770: 8e63 9549 efb3 c03f 5aac 432c d767 c13f
00000780: 8816 5145 716a c43f 717f d33c 55ea d4bf
00000790: 13ab a1bf 830b af3f 590b a627 8efc d1bf
000007a0: b079 2476 1b59 c2bf e341 1193 561f c5bf
000007b0: 941a 37ce 4e08 cf3f 70e9 d58f 8cdc 6abf
000007c0: 99e4 d0a4 84de d2bf e987 7131 3069 ce3f
000007d0: 0eba 1dcf d97a 8e3f dd12 d1ce 2d67 d73f
000007e0: 0799 8439 2b9f b93f d0d5 4a8c 5c7f c23f
000007f0: f731 144d f4de ca3f dab0 899f 2795 cf3f

transformer_encoder.layers.0.self_attn.qlinear.bias f8 [32]
-0.24411743269078895 0.14592339780745656 0.12222491674514241 -0.06665518432568449 0.19784125548206669 -0.29634185973092736 -0.006090261218981902 -0.14635002964842925
0.010854965021469112 -0.12972442120283767 -0.06372921085385908 -0.09485340477907811 -0.22673136093461715 0.1736265752200939 -0.09428941533370612 -0.12013193310116105
-0.24167945368750496 -0.20842318482408712 -0.2147310729854216 -0.004312403233503417 -0.03429246778202712 0.2726087461416396 -0.2661265236215733 -0.22548074547459201
-0.1593029018518914 -0.02407755844218716 0.13127419955211067 -0.16804462388359323 0.22989266399019131 0.1709634598000846 -0.01818405781202246 -0.22440671732964546
00000000: 7a2c e572 3d3f cfbf d0f0 a62e 9ead c23f
00000010: d43c 2dd4 214a bf3f 86a4 c96c 5010 b1bf
00000020: d52a 0cbd dc52 c93f d1ba fed8 43f7 d2bf
00000030: e06b 270c 1af2 78bf b8e7 8d07 99bb c2bf
00000040: 08a8 21be 203b 863f 0884 4751 cf9a c0bf
00000050: 78ce 6abc 8e50 b0bf 70bd 700f 5048 b8bf
00000060: 5a8b 1882 8805 cdbf 72b5 2447 6539 c63f
00000070: 4d9c 37e3 5923 b8bf 64ef df63 f7c0 bebf
00000080: 43fb d932 5aef cebf 5618 4665 9cad cabf
00000090: dc24 f4cb 4e7c cbbf 5055 aeed e1a9 71bf
000000a0: 02f2 3e47 c88e a1bf c90a 52f4 6b72 d13f
000000b0: 8c61 e38a 3708 d1bf 1275 d895 8ddc ccbf
000000c0: 864e ce98 0964 c4bf 5c90 4e98 c9a7 98bf
000000d0: 2e44 f1cc 97cd c03f ada0 ec79 7c82 c5bf
000000e0: e2ce b670 1f6d cd3f fe80 5372 21e2 c53f
000000f0: fae0 7176 d79e 92bf 5c7e f7fb 5bb9 ccbf

transformer_encoder.layers.0.self_attn.klinear.weight f8 [32, 32]
-0.11409446580448468 0.06263608532172327 -0.20197708665092495 0.06351182226063458 -0.21804003945757602 0.0271788903142893 0.003334442929366223 0.1990911114914105
-0.1415637216081541 0.09140434194677605 -0.016745147339851742 -0.13957097908660354 0.028626639542025184 0.03284877320355986 0.2052288852367058 0.1701522994432456
0.03013013462611131 -0.31722501678330406 -0.17205757738383337 -0.10865123074873392 0.06223577910135976 0.19334824098724546 -0.22386306882189733 -0.33835703760579805
-0.059526703940664796 0.08235876658050989 0.08533870608845502 0.12101913560059935 0.12682981709183772 0.12333645943704868 0.21939838525865418 0.05900364972566148
-0.10791855861828963 0.060328948177408304 0.023056408018587077 0.399262589160052 -0.0638087617786618 0.1760292899935888 0.2747427314445494 -0.271074157849015
-0.3842954645399754 -0.041037654047948645 -0.02150166923030327 0.2514050471129866 -0.14949039859340568 -0.07668083523765991 0.09748633143164148 -0.04293430600618018
0.07496915044474023 0.2568222133096021 -0.2720229307994881 -0.026233672997921245 -0.061747874316372874 -0.011189808285566726 0.07518100901380315 -0.15798483245933254
0.05816649097793214 0.015408030067378398 -0.19375523478059908 0.45608696099122326 -0.1798404078002099 -0.043005256351146694 -0.01665023606245641 0.24087129755715592
0.04466732575328897 -0.09973278838138083 -0.3092245513682429 0.14920487107840444 -0.12624383305183395 0.3025493186858346 -0.17468901816826 0.11412763929630079
0.16161278336662124 -0.12674724274634075 -0.14934015670913403 -0.10066423333105451 -0.045820811182839864 -0.1512440148500512 0.058000832402546554 0.16535616754288443
-0.20389481253605737 -0.33596837282003666 -0.38966484981498556 0.2767048663126167 -0.0613819632958927 0.05495427426194628 -0.31366463186951443 -0.1729059456787334
0.07455526703685969 0.35916687162363636 0.06501107029656662 0.08987780867208191 0.038795022280084954 0.04249516121213371 -0.06255195042048224 0.3229842416432621
0.2756673520775202 0.041378680453686444 0.0211997555615435 -0.06189494889115199 0.09444994301385287 -0.06402861646161426 0.3102382069727552 0.32923304657555486
0.08990791578561083 0.20904730699809382 -0.002114572489447894 0.028195166555197285 0.07527354712956856 -0.012810468131691087 0.030462564595961715 0.1553968706824624
0.09286430667384914 -0.22745653345380282 -0.18941884034094986 -0.09860325612842658 -0.00390303433883038 -0.19739671763970762 0.07891301638730189 0.11971269737348615
0.062278554167399906 0.021333120272420847 0.2860277836164683 0.053780130874867854 0.09121130688135888 0.2743388570374943 0.08902794865888575 -0.1526637039246953
0.2339591523376966 0.39712657406414953 -0.1189141285640207 -0.20211360228271685 0.2605875218464264 0.08949942300613964 -0.0010127993701557862 -0.22557989119476396
0.11265961906551222 -0.05426443468868446 0.11082953786358338 -0.12729358569676993 -0.15768847741408853 0.09108819091379497 0.3607506361108678 -0.20118580309027373
0.07597715654262949 0.12763158135224026 0.1345162948714745 -0.004179703525234807 -0.17417813723258255 -0.08497318422153652 -0.18514632161394684 0.3032336840230856
-0.012678487300036963 -0.23064023628948785 -0.141790821024331 0.18100485448436943 0.3718260736771719 0.04067322966561662 -0.07119694914501327 -0.19636823044089521
-0.21729357872240396 -0.44875354942831847 0.13153459020509595 0.025070181533511118 0.016208902299271438 0.1238317492325919 -0.1144881456750377 -0.24898730524219842
0.1714435670379506 0.1986276301885001 0.26421426120419095 -0.17862007784671557 -0.21023741386381758 -0.20008943812522226 -0.24295777366116944 -0.15648129013289486
-0.07854024855395132 -0.375109956128038 0.004275246782905834 -0.2343119240828548 -0.030423574920422056 -0.08247581703688267 0.21538297320230662 -0.09192665380954135
-0.0478063102427711 0.1850147983763738 -0.2356610711873577 0.12055217019148126 0.001062837532648478 0.08321507873898851 -0.12663130295760383 -0.02194578145752274
-0.005219832612854136 -0.133419438673269 -0.09386094644780701 -0.12913660355794107 -0.15335217235588428 -0.11397752251774595 -0.07083573620991698 0.09673904372747452
-0.021275250123785488 0.05279263182540312 0.12076309989653852 0.02318920470168586 0.08390758669872561 -0.03977143634510333 0.06711075650129422 -0.20624235544687686
-0.02389608207684473 0.3029475463465754 0.05367713951708088 -0.01667178716380438 0.13054182177265497 -0.1614926954126382 0.07497711139116732 -0.1572027333182209
0.0007347543247841343 0.3263126431554776 -0.15399538220604048 0.0633659616610463 0.02928031674653216 0.017135460322951004 -0.10540589132284596 0.05911967746418492
-0.08218623619292387 -0.053910442764797895 -0.42767069109385775 0.21705945808485932 0.32441352335656626 -0.056880480525458924 0.05332400664176024 -0.07374762670814926
-0.07503591157428875 0.086730753002459 -0.013436460093896915 -0.2632054769848869 0.027672655901634147 -0.039134554030565094 -0.2878863670846491 -0.12378234364950688
0.25667001066195805 -0.12198682157302632 0.024306058395083787 -0.016567487365079937 -0.04716168419419135 0.005516244225501753 -0.23572605284058337 0.09380055348295971
0.19699106465298344 -0.31734754360479484 -0.03771844000519884 -0.3394212646105413 0.02557907434907741 0.12781580598656123 0.17776263811752424 0.05344667078057097
00000000: 10ec 487f 4b35 bdbf b89a 0122 eb08 b03f
00000010: a081 da9a 62da c9bf 71cf 848f 4f42 b03f
00000020: dd2b 586b bce8 cbbf 3870 2a74 c8d4 9b3f
00000030: d0cb 9f6a d550 6b3f b2d3 634a d17b c93f
00000040: 7cb4 4d91 c21e c2bf a0b1 5f63 4666 b73f
00000050: 17f5 c3d0 a325 91bf 98e6 523b 76dd c1bf
00000060: 886f 8242 4d50 9d3f 44fb 3eed 8dd1 a03f
00000070: d4a1 24ab f044 ca3f 1056 b9f0 8cc7 c53f
00000080: 7276 5f1b 6fda 9e3f 7eab 2328 6a4d d4bf
00000090: 323f f291 fb05 c6bf fe67 bc2a 91d0 bbbf
000000a0: 8a49 c337 5edd af3f 9cc1 e399 a2bf c83f
000000b0: c4a5 af87 8ba7 ccbf a4da b846 a4a7 d5bf
000000c0: 7ae1 53bd 487a aebf 608f 00d1 7615 b53f
000000d0: 659d bbe7 c1d8 b53f 6c42 982d 1cfb be3f
000000e0: e496 489e f53b c03f 0cc2 af6b fa92 bf3f
000000f0: 9c95 bd0c 3f15 cc3f 8a2c d5f3 b935 ae3f
00000100: a3a2 e5f7 8ca0 bbbf c01c d996 6fe3 ae3f
00000110: b8bc 9c59 199c 973f 765b bdac 848d d93f
00000120: a0a0 0961 c555 b0bf 5c8d d4b5 2088 c63f
00000130: 248e 9789 6295 d13f 0c25 b06c 4759 d1bf
00000140: 13d2 0c01 4c98 d8bf 9bbc 142c e302 a5bf
00000150: 5e3f 9d98 8804 96bf 5293 d931 0517 d03f
00000160: c628 835a 8022 c3bf f961 93ef 5aa1 b3bf
00000170: 9450 4e3d ddf4 b83f 7d93 5840 7cfb a5bf
00000180: ec7a 5ea1 2d31 b33f d844 c36f c66f d03f
00000190: 93ef e2dd d268 d1bf 64f3 51fe ffdc 9abf
000001a0: 239b 92d9 6a9d afbf cc84 14a5 aeea 86bf
000001b0: dc9b fe06 103f b33f c2a3 56d4 d838 c4bf
000001c0: 1054 f290 ffc7 ad3f 60a3 e1c9 3e8e 8f3f
000001d0: 68de 67b6 f8cc c8bf 9cb7 655d 8730 dd3f
000001e0: 7b27 00af 0205 c7bf 9d25 2bf3 c804 a6bf
000001f0: 5f8b 6f6d c20c 91bf faca c6e4 ded4 ce3f
00000200: 98cc 9ebe a2de a63f f4d9 6f88 1688 b9bf
00000210: cecc cfc5 55ca d3bf 29c3 d72c 2519 c33f
00000220: 74c0 2307 c228 c0bf 09b2 4bd1 f75c d33f
00000230: 2c63 00b2 355c c6bf 6ae8 580e 7837 bd3f
00000240: 016c 9649 baaf c43f 1013 3aef 4039 c0bf
00000250: 9cca 8508 941d c3bf 9ca6 0896 21c5 b9bf
00000260: 6f52 034b d375 a7bf 2394 bfc0 f65b c3bf
00000270: e892 9efc 48b2 ad3f 5df0 e411 642a c53f
00000280: 294d d5a7 3919 cabf 3427 707d 8180 d5bf
00000290: 95ca 96d6 44f0 d8bf 3e3b dd53 88b5 d13f
000002a0: 7a1b d7e9 746d afbf aa00 7675 f722 ac3f
000002b0: 04a7 f2d1 1413 d4bf b8af fc32 c821 c6bf
000002c0: d2f8 aad1 0d16 b33f 8e87 db0b 97fc d63f
000002d0: e93c cdc4 90a4 b03f 0dfb e168 3b02 b73f
000002e0: 9690 e1ef f0dc a33f d1e9 49ff ecc1 a53f
000002f0: 5963 5b95 6703 b0bf 86cb be18 c6ab d43f
00000300: 0ddd 6fad 88a4 d13f 23b6 991e 962f a53f
00000310: 3ab4 4783 63b5 953f 80d8 8cda b1b0 afbf
00000320: 0683 5a18 df2d b83f 66f4 b5ed 2d64 b0bf
00000330: fdba 3a5a f1da d33f 287c f37b 2712 d53f
00000340: 6e62 f385 3404 b73f e8d4 6fe9 0fc2 ca3f
00000350: e08a fd75 9452 61bf e414 0a99 31df 9c3f
00000360: c7e7 2c8f 2045 b33f cc62 60ed 5f3c 8abf
00000370: b68c c41a 9431 9f3f 77af bd6e 0be4 c33f
00000380: e740 2188 f4c5 b73f d909 39b2 4b1d cdbf
00000390: 2a5c 4166 e03e c8bf b8c7 5920 103e b9bf
000003a0: 80e5 e49a 41f9 6fbf 52d6 4caf 4b44 c9bf
000003b0: 6ab7 9cb8 a433 b43f d393 22c8 7da5 be3f
000003c0: 6f44 c882 f9e2 af3f 2015 9177 59d8 953f
000003d0: 7e53 187a 474e d23f ec76 90be 1189 ab3f
000003e0: fdb2 14cc 9f59 b73f 2ce0 bf90 c48e d13f
000003f0: 587d eb1f 89ca b63f 0c47 d2f7 7b8a c3bf
00000400: fcf4 f19d 5ff2 cd3f 4698 fe93 856a d93f
00000410: aefd 3605 2871 bebf 42c5 f0c7 dbde c9bf
00000420: 9cde 0449 77ad d03f 4e7e d226 6fe9 b63f
00000430: b0ca 050b fd97 50bf 408b a847 cddf ccbf
00000440: 6e58 77c3 42d7 bc3f becc a548 8cc8 abbf
00000450: e60c 8e18 535f bc3f 1b73 c7fd 274b c0bf
00000460: b08a b9d2 222f c4bf 3acc 0641 8e51 b73f
00000470: 36df 06d6 8916 d73f b69a 58d6 74c0 c9bf
00000480: 80fa 972a 3d73 b33f 031d ec4d 3b56 c03f
00000490: 0344 a077 d437 c13f a06e 2a9f bc1e 71bf
000004a0: 4fcb 8b1d 784b c6bf 46bb 4477 cdc0 b5bf
000004b0: a83e 27ea dfb2 c7bf 1c2f fb40 2e68 d33f
000004c0: 0402 88c2 2df7 89bf e5a5 0088 9e85 cdbf
000004d0: 2e14 969d 3326 c2bf c8bb 36c5 2a2b c73f
000004e0: 2896 8f96 ffcb d73f 3419 791e 1fd3 a43f
000004f0: 5f1e 2798 f639 b2bf dbc7 db1b 9822 c9bf
00000500: e02b 1fa7 46d0 cbbf 0a8c b0ce 60b8 dcbf
00000510: 88a0 9c1d 20d6 c03f d733 2a67 ffab 993f
00000520: e822 1e05 1199 903f 9913 2901 70b3 bf3f
00000530: 6e37 7459 184f bdbf 6634 91e6 d0de cfbf
00000540: 78cf c4e0 dcf1 c53f 6eec de53 a16c c93f
00000550: 3590 c0ee e2e8 d03f ea5b 61d0 05dd c6bf
00000560: 4d69 7840 0fe9 cabf 97ec 82dc 879c c9bf
00000570: 4083 1786 3d19 cfbf fe40 c733 9407 c4bf
00000580: 957c f5b6 361b b4bf ac54 7e30 cd01 d8bf
00000590: a0ab d6d1 eb82 713f 47d5 7fe1 eefd cdbf
000005a0: c912 3e8d 5b27 9fbf e060 e298 221d b5bf
000005b0: 8d73 0255 ab91 cb3f 3021 be53 8188 b7bf
000005c0: c8fc 1196 117a a8bf 44ba 269e 90ae c73f
000005d0: e152 d858 242a cebf 3a2a 6fcc 81dc be3f
000005e0: 405c 651c dd69 513f 32d0 b759 954d b53f
000005f0: c827 6d5c 7435 c0bf 70b5 9476 f478 96bf
00000600: 400a ce25 6461 75bf 984d e05e e313 c1bf
00000610: 9c6c 5d5f 4507 b8bf 57ba 7f58 8c87 c0bf
00000620: 8400 8542 0ba1 c3bf d05c b183 a12d bdbf
00000630: 8ee0 6872 4a22 b2bf 064a 0ed5 e3c3 b83f
00000640: 9bc7 fbdd 2dc9 95bf 29db 51c6 a207 ab3f
00000650: ce84 9e9c 54ea be3f a686 412f e9be 973f
00000660: 24df c1b4 f77a b53f 9896 d5f4 eb5c a4bf
00000670: 4c04 62a8 2b2e b13f 40e0 d845 2666 cabf
00000680: 2e1f 17ec 3678 98bf 2c91 fd1a 7e63 d33f
00000690: f291 89ed 917b ab3f 68a3 89b2 6812 91bf
000006a0: 550c a32b 98b5 c03f b38a abea caab c4bf
000006b0: 15a5 5f31 b331 b33f d9c6 381b 381f c4bf
000006c0: 8055 d4e5 9013 483f 2af1 a76c 4ee2 d43f
000006d0: e8ac 27e5 1eb6 c3bf 5487 036d c038 b03f
000006e0: 151b 5fcb a8fb 9d3f 0484 c146 f58b 913f
000006f0: 0190 0968 e1fb babf e479 8432 ef44 ae3f
00000700: b843 a13c 280a b5bf 48e5 2c49 269a abbf
00000710: 712c ede3 f45e dbbf b287 e1b4 9ac8 cb3f
00000720: d694 4cf0 30c3 d43f f274 4637 701f adbf
00000730: a970 3cc1 484d ab3f 777e dedc 1fe1 b2bf
00000740: c5b3 3cb2 8d35 b3bf cef8 b393 fc33 b63f
00000750: 581a 6b25 9384 8bbf 89cd f1c8 5bd8 d0bf
00000760: e029 5d80 3856 9c3f 70de 68bb 7109 a4bf
00000770: bef0 e5f0 ba6c d2bf 5eff cb1d 33b0 bfbf
00000780: 9e0d 6a0d 486d d03f 88fa 3241 873a bfbf
00000790: 3730 9bf7 afe3 983f dabf a341 11f7 90bf
000007a0: a606 7a86 9325 a8bf 5876 b988 3398 763f
000007b0: 09fb e173 452c cebf ba56 8e25 5003 b83f
000007c0: ecf6 24d2 0037 c93f e1e7 4f12 6c4f d4bf
000007d0: 3d93 8ed4 d44f a3bf 616e c4f7 13b9 d5bf
000007e0: cf3a 2a9f 6631 9a3f 86e4 4fb1 445c c03f
000007f0: 742d 9516 edc0 c63f a04e 2aae 5c5d ab3f
