experiments/fl_train_noise_0.5_max_grad_norm_1/20250427/model_round_63.pt (torch, 62806 bytes, 25 tensors)

embed.weight f8 [32, 8]
00000000: b9f4 ae5c 544f c23f 9470 6fb4 cdaf cd3f
00000010: a32a 0bef f9bb aebf 557f b21e 878a b23f
00000020: 3a42 f950 c29b c73f 9464 2fa6 10de b13f
00000030: 7c72 3dff 1aa2 d53f 4cf0 1d65 90d7 d33f
00000040: 301e 1112 5a37 73bf 7a1b 1579 5356 d93f
00000050: 00e0 5b5e 15a1 af3f bdaa fded 7855 a7bf
00000060: dd7e ab73 15e5 e43f 3087 b212 56c5 adbf
00000070: d278 d79a d1e4 acbf dad5 405f f8d2 a13f
00000080: 162c 4c66 3dd5 c3bf c1f0 2fe8 e21e c63f
00000090: deb9 c72d c3fd c33f 206e 8265 30a8 b03f
000000a0: a272 420b 4a01 c33f 0b8d b0e9 4fb9 bdbf
000000b0: 688a 2981 59cf d23f 7a2a 0dfc 0147 c03f
000000c0: 8743 58b5 df29 c33f ed56 f9cd f0e0 d1bf
000000d0: 84e7 b3f0 1daa a03f cff5 1a4d 38f0 b63f
000000e0: 099c 5b62 a392 cc3f a768 1829 d78e c7bf
000000f0: 0a42 f871 0894 bc3f 1c82 542d f2e2 b83f
00000100: 9147 514b 6ea5 d6bf f85b b4ab 82dd c53f
00000110: 4e2c 9d8a 7fa0 b5bf 64d0 9d46 f146 d13f
00000120: a058 e30e 8cb6 923f 65be ca2e 33ea b23f
00000130: 04af 9ed8 7ca5 cabf d00d 5d28 caf2 b13f
00000140: 185a 3fad ab9a b43f a4af 9cf6 e8ea 933f
00000150: 9568 f18a 57fc d7bf 1a69 9324 6c03 c53f
00000160: 2e06 d698 d56b c3bf ec54 bc6c ed13 973f
00000170: 14f3 8a3a fc8f b5bf d10b 380e 4d42 c23f
00000180: c71d d4c0 8938 bdbf a0d2 eaa5 d8f3 cfbf
00000190: b120 cfd8 430c c3bf 9563 e86c 581f a33f
000001a0: 5e12 1fe4 a66b c53f 8464 a31a 28ac 953f
000001b0: 9c31 0397 9533 c43f 2e77 2b91 ff63 c5bf
000001c0: 9fc5 512f 5eef c63f ea92 a135 0046 c6bf
000001d0: 2183 154b 9a6f c1bf 146a a53f 5d19 bbbf
000001e0: d5fe 5c45 5e91 babf 884c e131 43dd cfbf
000001f0: 81d2 59d5 26a6 c63f 3bd8 3e4a f668 c9bf
00000200: 8aa9 36f5 3b28 bfbf 00b2 033e 558f b4bf
00000210: 2475 8a77 4708 cfbf 3de9 2687 f797 a53f
00000220: ecf9 f863 12f8 c33f acda 36a5 3d15 cc3f
00000230: 3521 b2f4 81c6 c1bf 4799 a44f 541c a33f
00000240: e895 13e1 9788 d13f 5ae5 2265 2b99 973f
00000250: d1e0 a06b 36e2 d63f 4841 2ee7 cf64 b2bf
00000260: 30f0 6cce e644 b6bf 08a5 87ca 8aed b1bf
00000270: 8067 dede d5ac cdbf 78d3 1bc1 2fb6 833f
00000280: 5cf0 db7c f02c b5bf 92c7 e184 276f c63f
00000290: 719e 4e83 95eb c03f ae14 15c4 aacf c43f
000002a0: d24f 98b5 597f a0bf d868 9be7 6d04 cebf
000002b0: c8de 8563 c50c b63f 8170 674d 458d 903f
000002c0: dee9 82cd 730f c6bf acaa 64af 6c0c c03f
000002d0: 72cb a38b 09b6 dbbf 635c 56e1 8c15 ca3f
000002e0: 3512 a9d2 9ec7 c43f a6e0 4901 33d7 c43f
000002f0: 8a29 b41a 916e b9bf 8f75 6d89 361e d1bf
00000300: 98b5 f203 b233 cf3f 12c4 802b afd9 b53f
00000310: f5e5 f6cf 24a8 b03f f115 2d48 941f c73f
00000320: 766b 6d5d c06e c3bf e8c6 91b8 85c2 a73f
00000330: d81a 0531 4aee cf3f 8074 686a 89ce cc3f
00000340: b3f7 af96 aa77 c63f ba79 f3e0 5024 c33f
00000350: 1056 066e c77d bebf 8636 d2dd c7f5 943f
00000360: daa8 184f a826 983f ccfe 5840 d715 bbbf
00000370: 2993 fd6e 557a cebf 8e33 fee2 1bce ba3f
00000380: be81 4f03 cf4b aebf c0fd c95a 840b 9abf
00000390: e9fb 4dd0 ae1c d43f 52de 393e 6494 cebf
000003a0: f22c 4aab ab52 c6bf f216 6012 f2c1 b23f
000003b0: 80c9 eb69 b3fd ae3f 4057 c1cb 4335 bdbf
000003c0: 1149 e510 c705 cabf 8668 cbd8 ef5a a0bf
000003d0: 76f3 605f 621c acbf f85f 218d 9351 c93f
000003e0: 3495 5cad d6ce c2bf 3a0d c4de 2b38 c03f
000003f0: 6b61 991f 2b90 bd3f 3a1d 389b 270d d3bf
00000400: 4724 ed40 20d2 a83f 7837 9ea0 ae30 a03f
00000410: 5ce7 b389 ebe0 933f 298a bda7 37e4 a0bf
00000420: 1c50 16f1 390f d4bf b026 8f27 8ea2 b9bf
00000430: e94a bd83 393b ce3f 9fde f8e3 c888 bbbf
00000440: 7a1e dce8 1713 cc3f df44 5fa4 2a1f c0bf
00000450: a3ed c110 d042 c23f a80b df8b 915c b73f
00000460: 7a4a 27b8 a639 d13f 4d08 671a 3c34 b13f
00000470: 78a0 e11b c364 b93f ec5e 37bb b907 943f
00000480: 5acd b226 d7a0 a4bf e269 9253 e916 d43f
00000490: 9954 7567 c256 d43f da92 9ff9 2440 ad3f
000004a0: d3f5 65bc f8b8 b2bf b2ed 1dc1 5255 a8bf
000004b0: 482b 35b2 d810 dd3f 705a a56a 1932 c7bf
000004c0: f8c2 e63c ab11 ae3f f052 c1c5 762b c2bf
000004d0: 6f02 e830 cfb9 bd3f bdd1 a1c0 7e6e c13f
000004e0: 1676 3ab8 a36d cebf 365f 6d01 abf8 c6bf
000004f0: e63a cb7f 6172 abbf daa6 5603 f52f be3f
00000500: ec69 2d64 16ba b63f 0a2f 4474 40f5 d23f
00000510: 0649 c1f8 c1d9 bcbf 8d64 b263 5687 c93f
00000520: 7a8a d0f8 0c94 cbbf 0257 4e23 f950 b33f
00000530: d295 2612 d34d b83f 1720 0fc1 4e5f acbf
00000540: 8257 edd7 e910 c73f ae4c 81ca 9ce6 b43f
00000550: 507d d5b7 94e2 b33f c623 8964 100e a9bf
00000560: 24a8 9948 d422 b6bf 2ae2 b203 8194 c2bf
00000570: e24b b6ac 0bb0 83bf 58ea f847 5e24 c4bf
00000580: 5a9f 81f6 a801 d4bf 2355 94dc 7e4d c8bf
00000590: 4857 d684 44fe c4bf 906f d428 b1f5 b8bf
000005a0: e4d4 df73 bf35 c5bf 32f2 1c00 6dd5 bbbf
000005b0: b64d b021 0827 aa3f 5a59 07de de1a c33f
000005c0: b716 a8d0 f06f c5bf ea86 bd46 39b3 c4bf
000005d0: 6adb 83c5 d504 a03f 4e44 304d 4b0c bbbf
000005e0: aa3f 75eb ba67 d53f 8680 b462 7caf b4bf
000005f0: a64b 5be9 8ef6 c1bf 7021 0903 34a4 b73f
00000600: ec76 802c 0f8d c03f 725b 2871 e659 b3bf
00000610: 06dc b33c ce2d 99bf 302f 2753 fde5 b23f
00000620: 6a4d 2a1a a8b4 c4bf 60fe 98e9 ac89 6d3f
00000630: 740d 5374 3e6c 89bf 9e8a 065c dd0a 963f
00000640: aa4f 2177 4067 c83f 8655 0a69 2af4 b0bf
00000650: 2164 8baa 701d d33f 70e8 f245 7ea0 d33f
00000660: 8a65 4acd ad80 b13f 7474 25ab 5208 c03f
00000670: 1495 2941 323e b3bf 1054 cd10 201b a6bf
00000680: 3cbc 9027 8d28 c33f 9448 5c16 7121 c93f
00000690: 64aa 93a5 7d78 86bf f7ae 6d75 ac32 c83f
000006a0: a50f b9be 5a1b cc3f 4a9f 8603 4245 b53f
000006b0: ed85 05e4 e444 cbbf 2c45 3c70 21c9 c23f
000006c0: 1281 f653 adef c5bf 86cb 7e0e d2af cf3f
000006d0: d00b 9580 13f8 b53f ac3c 0091 c119 b53f
000006e0: 0bc0 06bc 5719 b6bf 1c80 58e6 2fe2 963f
000006f0: 2147 2831 f28e bc3f 027d 773c d91f c5bf
00000700: 5a39 86e2 b2de b43f fa2b 6b08 8ded bbbf
00000710: 5553 9141 4091 c2bf a87a e112 a639 75bf
00000720: b107 6ce8 36ba c93f 09d0 3201 886d b1bf
00000730: 4981 699a 9f66 a2bf 5af3 907c a081 b93f
00000740: e8b5 a5e8 c02d 993f 79f3 752a f390 c0bf
00000750: b901 2653 1fd8 d4bf 1c65 7d25 1b63 a03f
00000760: 53f5 984a 12c5 9b3f b25e f2f9 4482 b43f
00000770: e8e5 692c 6164 b33f c852 f792 b253 babf
00000780: 6093 9330 4343 b63f 0c3f 5998 f25f 933f
00000790: 5a35 ec90 1e07 b5bf 8001 01e6 831a bdbf
000007a0: e236 663f acc0 b13f e069 afd1 aef4 ca3f
000007b0: 06a2 cece b026 babf 1068 f2c9 643e c53f
000007c0: 0eeb e0c5 ad0b b53f 4004 96d6 f2b8 483f
000007d0: 38f1 d1cc 6adc c43f 5e47 a8ec 398c dabf
000007e0: 1d24 f83b 1656 abbf 8c17 80eb ac3a d2bf
000007f0: a8f8 8479 2fa8 b23f b6e6 4f4d 301d c23f
0.1430459454112787 0.23192759809797237 -0.06002789538395816 0.07242626666493142 0.18444088891784977 0.06979469353918183 0.3380191319063568 0.31003198504163687
-0.0046914595014367205 0.395893924946385 0.061775844353121556 -0.04557397751962842 0.6529643305948089 -0.058146180899042554 -0.05643324866444889 0.03481269991645393
-0.15494506354329535 0.1728175767638103 0.1561817143951449 0.06506636121996978 0.14847684430869373 -0.11610888915361188 0.29390561688902617 0.12716698462675763
0.1497153888199387 -0.2793542872872042 0.03254788935915001 0.08960296518758713 0.22322504332188967 -0.18404664522751554 0.11163380415406024 0.0972129212063994
-0.35384709696983757 0.1708224619294183 -0.08448025831346337 0.2699549855817678 0.01827448693151068 0.0738861073721125 -0.20817528321401124 0.07011092648922745
0.08048508624720119 0.0194507980842641 -0.3747767311921362 0.16416694436959106 -0.15172834360787263 0.022536954652498872 -0.08422829083697209 0.1426483458927508
-0.11414395292023648 -0.24962909795217048 -0.14881179891950105 0.0373485215133719 0.16734777582873311 0.021164538026685623 0.15782422898918191 -0.16711420620316048
0.1791799288799156 -0.1740112554426994 -0.13621834436619287 -0.10585577777730065 -0.10378064340056466 -0.24893989501524438 0.1769455472709929 -0.1985156881834785
-0.12170767532976448 -0.08031208766960418 -0.24244016015010417 0.04217504048161167 0.15600805169556453 0.2193982178411792 -0.13887047241247222 0.03732551071361683
0.2739619920742755 0.023045232818480123 0.3575569201525584 -0.07185077089366587 -0.08698885478673968 -0.07003085560394962 -0.23183701879753116 0.009624836998662664
-0.08271697090452917 0.17526716221214805 0.13218945418815367 0.16258749555905666 -0.03222160665259789 -0.23451017197550672 0.08613237075575875 0.016163905000084803
-0.1723465684388676 0.1253791672146084 -0.43298567425443146 0.2037826633720413 0.16234193121103294 0.16281735957068583 -0.09934336568782079 -0.2674690572801745
0.24376511757638464 0.08535284816822777 0.06506567075020782 0.18065122150635163 -0.15181736528287687 0.046405962734650974 0.24945952790786552 0.2250530023165176
0.17552692754537488 0.14954577430667176 -0.11910673557425633 0.02046882907284566 0.023584966495186467 -0.10580201455104116 -0.23810832900485338 0.10470747272320421
-0.05917212405597948 -0.02543455890781643 0.3142506632065634 -0.23890355146771697 -0.17439790595776788 0.07327187489144274 0.060529333762946 -0.11409400677197556
-0.20330131840689394 -0.03194379350107206 -0.05490405477801279 0.19780201331263902 -0.14693721260952375 0.12671421410787237 0.11548108598197408 -0.2976778999149762
0.04847813408429907 0.031621415239995565 0.019412689475735476 -0.03299116060840774 -0.31342934173267323 -0.1001366468982734 0.2361823933848293 -0.10755591932035678
0.21933268423184754 -0.1259511282537806 0.14266396349181062 0.09125623383356063 0.26914375289667414 0.0672032894572407 0.09919375830361499 0.019560720493102687
-0.04028961512940539 0.31389840279885395 0.3177953729949166 0.05713000819358678 -0.07313494300429761 -0.04752596480735906 0.45415322688193216 -0.18121640879936107
0.05872855299401708 -0.14195141464246985 0.11611647552491332 0.13618454366554814 -0.23772093291783908 -0.17946374482812083 -0.053607031678998315 0.11791926700120872
0.088776969392178 0.2962189803517822 -0.11269771884079569 0.19944267147073838 -0.2154556479373076 0.0754543029018713 0.09493750756390476 -0.055414639536650316
0.18020365756336437 0.08164386695834722 0.07767610061772712 -0.04893542506449182 -0.08646895191637377 -0.14515698128322302 -0.009613124092345108 -0.15735987200044366
-0.3126013190544562 -0.18986497660140697 -0.16400963293261328 -0.09749896284887272 -0.16570275457312456 -0.10872536900291932 0.05107903872717705 0.14925752488370386
-0.16747865856466657 -0.16171947435491713 0.03128688846657364 -0.10565634378896613 0.33445618623681617 -0.08080270204345838 -0.1403368606030117 0.0923492915545745
0.12930478737774054 -0.07559051764142824 -0.02458879704951402 0.07382186203102203 -0.16176320340728562 0.003605687827785961 -0.012413490223827074 0.021525820485872253
0.19065099541569214 -0.06622567238294694 0.29867188124404903 0.30667073088591845 0.06836973440149144 0.12525399548295335 -0.07516779032592452 -0.04317569928267784
0.14967503005888882 0.19633306114025528 -0.010972005477431775 0.1890464375859364 0.21958479225770336 0.0830880411727978 -0.21303998121133763 0.14676301937337521
-0.17137686347724262 0.24755311687257747 0.0858165921136298 0.08242425718366303 -0.08632419910895821 0.02234721034449204 0.11155618381624467 -0.16503444149473273
0.08152311354044653 -0.10909348922284315 -0.1450577087549855 -0.0051819312339761794 0.2009953150628099 -0.06807756451854642 -0.03593920478738483 0.09963419953505817
0.024588598441757897 -0.12942351887968664 -0.3256910621639935 0.03200611908568815 0.027118955424375212 0.08011275388923414 0.07575042089765527 -0.10283962333717078
0.08696384368847765 0.0189206986891 -0.08213988340522374 -0.11368584027605344 0.06934620426019536 0.21059212912116632 -0.10215287255289959 0.16596660481155867
0.08220945435543234 0.0007544694646385366 0.16297659874897774 -0.414808732138331 -0.05339116556212551 -0.2848312663849064 0.07287880627424903 0.14151576781278202

embed.bias f8 [32]
00000000: 0eba 96ce 79b2 c8bf f42b 733f c805 a23f
00000010: 25ac 42dd 9d07 9d3f 2c2d e4c0 a1d8 ca3f
00000020: c530 3a8e 6260 9f3f 02ec 1185 fe30 a33f
00000030: abc2 97c6 ac12 bb3f 4e83 7225 806e cc3f
00000040: 2663 8c65 7fcb c5bf 477c 3bc0 8073 e13f
00000050: 9aab 90be 0d78 e0bf 37bf 0774 1802 a83f
00000060: a604 d8e0 5a12 d63f 90b3 d16a b210 b5bf
00000070: f8b0 88cd 9f4c 8fbf 4647 a09b 7a09 d73f
00000080: 5002 4685 d92e c23f 40f9 8966 3725 66bf
00000090: c2e6 72e2 d3a3 c5bf 5574 4363 ea5d d0bf
000000a0: 66a7 d264 862c c73f 4270 3b73 dea7 cf3f
000000b0: 9a68 e9d9 d512 cebf e8ef b218 81b3 b7bf
000000c0: 58e7 d80a 4518 c23f ab4c 6e3e d996 bb3f
000000d0: 00d2 a7ea 8938 a93f 3977 a0fb 67b3 c4bf
000000e0: 2026 5895 f2b7 8a3f 4c59 7b37 c03e b53f
000000f0: 4d81 b05b 1b45 c6bf be92 aedb 4700 d1bf
-0.19294664943068124 0.035200364823673086 0.02834936774221943 0.2097360793926354 0.030641117030015836 0.03748317121877422 0.10575370644051911 0.2221222098205779
-0.17027275522630098 0.5453494791544323 -0.5146549913382501 0.046890987552500034 0.34487029988674534 -0.08228602512254057 -0.015282867870233904 0.3599535484109889
0.14205473906987942 -0.0027032930414058465 -0.16906212384292557 -0.2557321519250924 0.18104629443160575 0.24731045366832133 -0.23494980945799143 -0.09258276799204135
0.14136565236713738 0.10777051710310796 0.049259481329418264 -0.16172504221406728 0.013046164686801254 0.08298875193154237 -0.1739839742376809 -0.2656421323138537

pos_enc.pe f8 [1, 12, 32]
00000000: 74cb edf0 a62c b03f 508c 70bc cd6a b03f
00000010: b4b0 da4d 9f7f c03f ed5f cbe4 74c2 d33f
00000020: f8a6 eb64 44c3 b5bf 4a9d eb88 1b6b bb3f
00000030: 3adc 4cea cd6a abbf 583f 4e9e 2e03 903f
00000040: 68d3 ea8b 7b23 98bf 2473 68f3 b345 ca3f
00000050: f544 1c87 39a8 d6bf cdfc f8d4 78f6 af3f
00000060: 7317 6dc9 e1aa c73f 74f8 1408 8239 85bf
00000070: 7eda 6adc 8cd4 e0bf 3621 8623 0cac b33f
00000080: d308 3be1 aa1b c9bf 3229 891c 6da1 c03f
00000090: 59a7 7391 57aa c43f 11c0 d2cd 707f babf
000000a0: c01b 735c 5a90 bebf 58d4 d4cb ccb5 c8bf
000000b0: 1c0c 0e8c 23cb af3f 80fb 1451 ab21 d1bf
000000c0: f245 87d7 2b2d c7bf 4add a88c 01d1 b93f
000000d0: bd53 ef31 b6bb dcbf 02d1 c231 581a d43f
000000e0: 5560 8d2e 1d43 a1bf ecd6 9b31 e9b5 b23f
000000f0: 109f b919 6c7f 8e3f d118 cd38 8f57 aabf
00000100: 45d7 2d62 c88d c03f 79d2 ccc3 db46 cf3f
00000110: 40ba f98f 24c5 a1bf a46d bfb4 95e6 bb3f
00000120: 7b7a ac7f e920 a4bf 00c0 dc32 0e14 f1be
00000130: 4c51 c09f fa3d b0bf 83fb 393b cf77 c6bf
00000140: 6031 2608 95be b1bf 9034 681c 0a1d abbf
00000150: 9698 2363 763c bc3f a0f5 7cb5 8dfd 7fbf
00000160: 1d64 a0b0 7581 c13f ca9c b3f8 a7ac c73f
00000170: 6c68 8b7d c969 c73f 04a4 2c5e 7a74 babf
00000180: 2809 63ef c4ff cb3f 7475 0117 86a3 d2bf
00000190: ee5e f640 df28 b93f 08ce dcb1 0f8a 92bf
000001a0: 3e85 b836 fa28 d93f 485e 3c16 e563 7cbf
000001b0: 1d86 93e2 53e8 c83f bc6a 8509 8e13 c4bf
000001c0: 34e3 8fc7 bed1 bf3f 0095 d6f0 88ef 53bf
000001d0: aeb3 790d 9cde c7bf 3c7e 5db9 9a8c ba3f
000001e0: da8f 62f1 96e6 cfbf 61d9 4dcf 5ba0 c1bf
000001f0: 9f88 ace8 3a27 a83f 0719 90a2 b4bb a73f
00000200: a8ba cce0 c834 7b3f 582e d2ce b100 d3bf
00000210: 4a76 f543 8a60 a8bf 946b 02f7 a439 cfbf
00000220: dbd6 120e e020 b23f c070 8457 ee71 bcbf
00000230: 49a6 59af 85a4 b33f 00ee 1be1 bb95 38bf
00000240: 780a 2319 2145 c7bf c52f ed92 9150 9abf
00000250: d756 8fbd 6ea2 d0bf 2440 1bf6 ad02 92bf
00000260: eaaa b188 5857 b43f a06c cabb 9a62 cd3f
00000270: cfaf 4d8b 8da5 d7bf b04a 3d28 e911 70bf
00000280: 4043 7dca 7ba4 6dbf 18e0 c76d 7242 84bf
00000290: ccc5 e78b c1c8 d13f e030 66e6 6b91 9a3f
000002a0: c614 1b4f b322 c0bf ffdf ed01 e2ee c13f
000002b0: 1e72 658a 96e4 c83f 909a a5b3 8c19 d83f
000002c0: b663 786d c3b0 c9bf e97a a73c 0717 d03f
000002d0: 00d6 948c a629 bdbf d83b 4c85 041a cabf
000002e0: 9b90 60a1 63d3 c53f f1bc 17bc ef6f cbbf
000002f0: 495e 2137 d561 c63f f287 001f ea1c ba3f
00000300: 8066 6c9e ff5e d2bf 124c 0160 968e c3bf
00000310: 91a7 5670 76c3 c83f 6cd5 042d 2349 83bf
00000320: 7ef8 0309 2d72 903f 28a2 7313 74ee b63f
00000330: bb6d eac9 9c59 ad3f 424d d6c1 b5b7 d23f
00000340: a04c 452c a9c4 723f e256 1b92 9d81 c9bf
00000350: 68db 0b70 dc9f c9bf 287d 2f73 efad c53f
00000360: 2e32 d14e 2c85 a1bf 8ad9 6e1f 180c cfbf
00000370: 7127 ba32 b22e c83f 6723 d0b0 aae3 c8bf
00000380: 6214 904f f07f c53f 233a b18c 6105 d3bf
00000390: daa0 e0fc 5850 853f ce24 9bcf 2c9c a03f
000003a0: 182e eb8f acf2 c1bf 940c 9b92 f1cd 93bf
000003b0: 40e7 e5e2 c8d1 8abf 7a87 e5cd 265d bfbf
000003c0: 880f 14f3 3dec b63f e2b3 04c7 3b30 b53f
000003d0: eeb6 8f80 0274 c1bf 5216 cf5a 9efc c23f
000003e0: bed2 ade4 c717 bb3f f3a6 87de 6352 b73f
000003f0: 0620 769b 1d35 a93f c2c0 3ad5 f6b1 d5bf
00000400: 32b0 ac21 eec2 b83f 68c0 f95e 9b9d ab3f
00000410: f02f eb95 7aa8 b93f 4a35 d6d0 37dd c7bf
00000420: a157 6112 9409 c13f b187 6337 c324 c83f
00000430: 6e78 df3e 48bc a03f b855 f155 f0c3 cf3f
00000440: 046d a164 e868 cd3f 26cd fed3 923e a53f
00000450: 9f54 6a07 cefe c83f d8ed 2c62 b993 b0bf
00000460: 95d3 21c8 11a3 cabf 88cc 2a44 a252 d3bf
00000470: 028a 0c62 be45 a5bf fa81 ac1d bd13 cf3f
00000480: ec58 74fc 3a5e dc3f a30d c800 b07f c13f
00000490: 0676 239e 9eb4 c03f d8f7 8109 fd79 923f
000004a0: 8285 d672 879f ac3f accd 813d 5778 a23f
000004b0: b86f 3a64 feba c8bf 4ca4 0a43 203f c3bf
000004c0: fc43 c88e c154 bd3f a482 a9ba 4db4 b8bf
000004d0: 4316 a494 c9f5 d1bf 301f a3ac c026 98bf
000004e0: e27d 4e17 5918 b6bf 6e7d 62bc d79f c63f
000004f0: 28f3 42d9 0e03 b13f 30b7 e01e 850c c7bf
00000500: 1c3d eafa e880 a9bf 5c46 106f e4e3 bebf
00000510: 9db7 090c 2c1c c43f 82f0 2cc4 b4f8 a63f
00000520: b8f8 a3cf 8300 893f d64e d663 af4b c73f
00000530: d433 a62c 1e9e a73f b0d7 bfb9 4000 c2bf
00000540: 4b7e 5454 6d90 c03f 0b6e 6335 a4ad c83f
00000550: dd0f 663a 844b cf3f d126 6160 81cc c03f
00000560: 4da1 3939 f250 d5bf d4bd 92ed 3923 acbf
00000570: 2041 79c1 256b 9f3f 0ca6 f44d 55cf cabf
00000580: 1ed3 a323 41b8 d13f 3212 d889 e267 cdbf
00000590: e42c d822 dc2b 85bf af76 53c8 8b84 d03f
000005a0: 2c26 3de5 fea2 c73f 329c 7358 6fcf a43f
000005b0: e186 d78c a9e7 c5bf 0af4 fb5c aa65 c5bf
000005c0: 5234 ca3a 3aad a0bf 84ae 98da 2a08 b3bf
000005d0: 9034 05f6 2344 b1bf 4a66 8198 0f33 cabf
000005e0: 2093 e567 a7a4 65bf b0f7 f9b0 dee8 76bf
000005f0: 824e e377 04e2 a2bf 94b5 1f24 c6b0 d4bf
00000600: bd2d a0fc 031b b4bf 3ba2 23a8 e5de d1bf
00000610: 4dcc e9b6 27fb db3f 4714 b787 5985 b1bf
00000620: ca2d f6c7 4364 c7bf 707d ad61 8215 a63f
00000630: a411 8925 95b7 8ebf ec88 0b35 93d9 a5bf
00000640: 997a 0cbb a67a c13f 00b9 de36 280d c5bf
00000650: cc4a 6840 ed6d c23f 2991 5e1e bb6b b0bf
00000660: 66f8 8425 62d8 cc3f 5237 cd73 cb0b d73f
00000670: cc7a 2d6c bad8 c2bf 6acd 7efa 2b51 abbf
00000680: c471 3f54 71dd 8fbf da84 18f0 3417 b5bf
00000690: 40c4 4928 0613 53bf 38fb 0e50 4899 c53f
000006a0: 8ac7 bfa3 e50e d23f b87d 28f1 8189 c83f
000006b0: 7243 c55c 9047 a83f f41e 2ddf 6a17 b7bf
000006c0: dc4c 8b50 7cc4 b2bf a4a6 e546 fd1b b13f
000006d0: caed 8c7a 3ae1 b0bf 346b 2f76 77bf b8bf
000006e0: 60f5 e3f2 018d d1bf e0b0 c51f 3a1e cfbf
000006f0: ef62 d6f1 e598 d13f 04c6 1fa4 1d93 973f
00000700: 6e33 65b4 0782 b83f ae22 4c1e 9f21 b7bf
00000710: d070 43ac aa0b c6bf 4e77 21d3 391d d4bf
00000720: aee4 b79c 23f2 aabf 9494 d41e e128 acbf
00000730: af55 bead 2efc b93f c062 00cf 2845 bebf
00000740: 20c7 5eb8 d60e cbbf c899 7f77 1d9c b9bf
00000750: 78be dc2a a024 d1bf 0878 8665 5c2d d0bf
00000760: 4021 4335 ba44 9b3f 1464 3f3f 07cc b6bf
00000770: 3768 eac0 5602 b2bf c24a 904d 71bf c7bf
00000780: 9e02 2ec5 5229 c5bf e437 3385 7622 b7bf
00000790: e7b8 12cd ee3d cabf d548 b61a 7f3d dabf
000007a0: 619d 112c c832 913f ecf3 38c5 5737 a2bf
000007b0: 7c18 a7e9 c175 adbf 9d0d 179e 74de c03f
000007c0: 9048 f6d9 a3cd 8abf e846 6a20 c4d3 a0bf
000007d0: d593 491d c76c d63f a58e 527d 539e c43f
000007e0: b0a4 e022 fdda 77bf 5432 3ea8 dbc9 873f
000007f0: 80b3 d58e f294 6b3f 7a1c 97a5 b30a c73f
0.06318133718541025 0.06412969446732686 0.12889472295262794 0.3087436899490957 -0.08501079048042104 0.10710308163435403 -0.053549227572539285 0.015637138759813624
-0.023572855391381792 0.20525216469914043 -0.3540176219403997 0.06242730712664866 0.18490240416775414 -0.010363593932762628 -0.5259460740115427 0.07684398524555011
-0.19615684506977135 0.12992633717869634 0.16144842722070044 -0.10350708985311054 -0.11939015156813948 -0.19304809525206923 0.06209670147566035 -0.2676800052467385
-0.18106601737831302 0.10084542926857867 -0.44895701290561957 0.31410794124100516 -0.033715164120338294 0.07308824025298194 0.01489147618777012 -0.0514492756688455
0.12932686609172542 0.24434992847968198 -0.034707205367216165 0.1089871946600654 -0.03931359942929632 -1.6287175802875975e-05 -0.0634457244889905 -0.17553129569929746
-0.0693143029113279 -0.05295592877164623 0.11029758377444163 -0.007810166883982644 0.13676329731313866 0.1849565471995674 0.1829158652315671 -0.10333981322459357
0.21874295891581963 -0.2912306999840759 0.09827990852351906 -0.01810478709303534 0.393126061857476 -0.006931204672376241 0.19459007800382802 -0.15684676613712678
0.12429420826073284 -0.001216777545189729 -0.18648100526789108 0.10370795274274597 -0.24922453676583595 -0.13770625707884235 0.04717430200823113 0.04635395512018375
0.006642136268779332 -0.2969173927055855 -0.04761154250693929 -0.24394666729935166 0.07081413596719292 -0.11111344944623891 0.07672915965090356 -0.00037513577363743056
-0.18179715850245137 -0.02569797000187159 -0.2599140978976328 -0.017588346620698428 0.07945779168373304 0.22957166833370923 -0.36947954753736395 -0.0039233310415790895
-0.003618470935102286 -0.009892362570994392 0.27787817633278844 0.0259453639387609 -0.1260589729555816 0.14010262579154184 0.19447595365171905 0.37655942481652804
-0.20070689053752994 0.2514055340124473 -0.11391678745425082 -0.20391899594002783 0.17051358585115825 -0.21435352977957892 0.1748606223288667 0.10200370079886037
-0.287048248968496 -0.1527889221930257 0.1934650467422299 -0.009416842280738101 0.016060546565306748 0.08957601046461916 0.05732431378165922 0.29246276788144965
0.004582081634299545 -0.19926805147286247 -0.2001910731412082 0.16937058567325747 -0.034219154950367744 -0.24255658659758367 0.18892505146896668 -0.19444783814858654
0.1679668797006882 -0.2972034334133317 0.010407157151420088 0.032441521017582894 -0.14021832492140685 -0.019340300152873427 -0.013095445083979862 -0.12251513029835151
0.08954226669817278 0.08276723488661689 -0.13635283734713916 0.14833430704145428 0.10583161671622585 0.09110092337473556 0.04923336527559745 -0.3389870722121594
0.09672439882405184 0.05393682035799047 0.10022703323483007 -0.18643853852374043 0.1331048097369463 0.1886219044163773 0.03268647925845945 0.24816707798406212
0.2297640315399364 0.04149302327950925 0.19527602541044062 -0.06475409170973678 -0.20810148498608486 -0.3019185701079512 -0.04154772707831357 0.24278987835806715
0.4432513680816459 0.1367092136207307 0.13051207276923565 0.01804347391634295 0.05590461041289087 0.036074377306160116 -0.19320659536321982 -0.15036395333780417
0.11457452522178352 -0.09650121504956616 -0.28062667384833534 -0.023585329567850255 -0.08630902117737763 0.17675301264260262 0.06645291141735454 -0.18006958015160413
-0.049811630849143834 -0.12066486083519962 0.15710974300185124 0.044866227099618974 0.01220801331919251 0.18199722647533773 0.04612821860346342 -0.14063271589082893
0.12940756433180164 0.1927991162000214 0.2444920811796 0.1312410088160534 -0.33306556309118635 -0.05495625519813144 0.03068217271203466 -0.2094523077624192
0.2768709991499224 -0.22973281603494083 -0.010337562383048789 0.2580899673756489 0.18466173356346027 0.04064510302287551 -0.1711322725014304 -0.1671650842689874
-0.03257162063264531 -0.07434337460352408 -0.06744599109988969 -0.20468325563961037 -0.002641989674133774 -0.005593175781198598 -0.036880626330142455 -0.3232894280216325
-0.07853722493762567 -0.2792295591339415 0.4372042928945959 -0.06844100535734397 -0.18274733794929282 0.04313285295824698 -0.014998593528738287 -0.04267559072992974
0.13655552037467514 -0.1644640224380467 0.14397969860927728 -0.06414384356918802 0.22535349685671519 0.3600948935389755 -0.14723902017700252 -0.05335366661838743
-0.015559087165393566 -0.08238535749162015 -0.0011642036562558161 0.1687403098021265 0.2821592425453835 0.19169639849950015 0.04742098934605722 -0.09020107220305446
-0.07331063238534646 0.06683333378682704 -0.06593671314197205 -0.09667154918080884 -0.27423142165920034 -0.24310995627764154 0.27495716683328814 0.023022139685002344
0.09573410181219597 -0.0903567742317459 -0.17223103915501392 -0.31428380602107076 -0.052628624802261256 -0.05499938489291725 0.10150424711021942 -0.11824278882739758
-0.2113903427357906 -0.10003837745134725 -0.26786045251626645 -0.2527686110933023 0.026629361630314152 -0.0890507249272477 -0.07034818849425127 -0.18552986418997902
-0.16532358768383387 -0.0903696131892669 -0.2050150395711576 -0.41000344856833 0.016795280160662233 -0.03557848246098402 -0.05753904320913336 0.13178880423775477
-0.013087539757894256 -0.03286564727490121 0.35038926944826915 0.1610817300726143 -0.005824078381956685 0.01161548239886049 0.0033669221362999102 0.18001409135306173

transformer_encoder.layers.0.self_attn.qlinear.weight f8 [32, 32]
00000000: e0f7 eea9 9353 c7bf b4b1 8e44 edd8 b63f
00000010: 36cb 5217 689a b43f 1c92 5f7e 8f93 d0bf
00000020: 1c6e f6af edd2 a6bf fd75 7bfc c411 c3bf
00000030: a9d5 7525 766d b3bf 94df 5bf8 5418 b7bf
00000040: 2273 6929 11c9 c33f fc7e 7966 117b d23f
00000050: a5ae 8f66 6715 b5bf b3f2 da82 b447 a03f
00000060: 01d1 33a3 9450 c1bf 80b3 e02d d2cf b4bf
00000070: 2a6a ee27 d7d9 a83f eeab ecd2 a695 cf3f
00000080: 3833 b404 96e3 7d3f efe4 5f78 3dc4 ca3f
00000090: bc28 787b 74cf aa3f 9113 9220 380a c2bf
000000a0: 6835 4243 ca55 c83f 947a 71eb 3d6e a03f
000000b0: d7d0 16f4 e015 a9bf 6d74 db7b f86d c23f
000000c0: 2f83 4a9f e59b b9bf bd32 f1d5 9314 cc3f
000000d0: 206e 7b55 c6da babf 88ae c163 7e06 d53f
000000e0: a258 a175 a8a5 adbf 3151 be46 a3c3 cb3f
000000f0: 7e80 2a31 aaa2 98bf 73f4 7754 d2c1 c43f
00000100: 2407 0194 bac8 87bf e0a0 5c43 a297 a63f
00000110: 720b 2baf ab8b b43f a9ad f7b7 3622 d6bf
00000120: 2ef1 b30e cf6b a9bf fc39 fd24 b2c5 d0bf
00000130: f151 5af9 238e d3bf df0c f3e4 ebe4 c43f
00000140: 7466 32a1 ee12 873f 3152 0af2 5d99 d2bf
00000150: e413 1aa3 ed5c b73f 3c9e dbc7 a726 c5bf
00000160: 6296 a029 5730 cc3f 74b8 f1fe a544 a43f
00000170: f17c 57e6 9de6 b23f c418 c301 13dc a6bf
00000180: 3441 0381 db33 be3f b4bf 02d1 c448 bbbf
00000190: a82f 98e3 1712 cebf 6253 83d2 6c65 b43f
000001a0: 35ea 10d9 c768 d0bf d836 25c0 7e3f a63f
000001b0: 735f 05ef 66f5 a2bf 872a 4856 d862 b93f
000001c0: 2f94 8c6d 2dc3 ce3f ca7c 20ca d12a d8bf
000001d0: 06b5 7d41 84c3 d13f 148b b464 dc16 c83f
000001e0: 990c b29a 0b0e cbbf 0bfe f9d2 dc38 d1bf
000001f0: 1136 9d82 0b9a b3bf 0ccb 2919 5f41 a43f
00000200: fa76 45db 6b43 b73f 7cbe 1e89 86fe 963f
00000210: 6da2 25c6 7717 bebf 8654 ffa8 6f64 d0bf
00000220: 14af 6143 f1e9 d23f 49d6 01a9 c0d7 c3bf
00000230: e22f 1529 b484 9e3f b020 837c 391a 673f
00000240: 449c 4e20 bb5d bebf e823 1549 cc5b cf3f
00000250: 0a95 284d 8a71 993f e656 12c7 9f14 ca3f
00000260: af04 99ae 8095 ba3f 2770 371d 6289 d23f
00000270: 5329 171b 3a24 a9bf 2983 4412 ccb3 d13f
00000280: 8699 6a98 428f cc3f 1487 8581 7077 cb3f
00000290: 6e5e 4e7b c8eb ca3f 36af c439 a289 c93f
000002a0: 24e6 3956 651a 8cbf 2c3e 02c5 7b6e c53f
000002b0: 4be6 2c75 dbe2 cb3f b4a1 8d13 761d cf3f
000002c0: 5436 b624 f3eb bcbf 8634 c0c8 ee87 c93f
000002d0: 62ca 75a9 1051 e43f b6ca a238 9b12 bcbf
000002e0: 4ab3 7fde 3607 c3bf a993 58a6 db17 e1bf
000002f0: 6d9c 02b4 ae69 933f 70ed 1a16 ce81 a03f
00000300: bc37 c2be 9240 d3bf 698a abe2 49e2 d23f
00000310: 324e 0b7b 702d c8bf 555d 3674 45a2 d43f
00000320: 88d3 6478 aa06 bbbf 5b11 a428 bd64 a6bf
00000330: bd5b 0c81 bc1c b7bf 6dc0 8c55 0cd7 bdbf
00000340: d0db 7a7f fe36 c0bf 61f5 52bb c9cb a5bf
00000350: 9d11 5722 1b76 d43f e5dd b8b4 5fa7 b7bf
00000360: 9bae 5b3a c344 a4bf c400 4257 15d9 b5bf
00000370: 4899 8a50 aa02 79bf 3c1d 5f7b 6154 c13f
00000380: a8e9 2edc ebe9 b83f 4473 71c8 4c8f 933f
00000390: e7fe 06ed f0af b83f 022f 245c 34f1 ad3f
000003a0: 452a dfbf e45e 9c3f 3d21 761b 88c0 cc3f
000003b0: 2df5 5bd6 bef3 d9bf e621 88b3 6821 b5bf
000003c0: dd1f 5109 9812 cabf af1a 6868 28a7 a63f
000003d0: 635c 61ce aa75 c7bf 992b bb87 8ef5 a0bf
000003e0: fe9b 2f69 516b cb3f 78c5 bc91 f315 ca3f
000003f0: 049c 9ad3 e703 a13f 924f 5a72 7de1 c1bf
00000400: 1edb 9444 40ce c23f e4e3 a365 4190 c33f
00000410: c4ae 0d62 7e28 a93f 0416 89ad cd38 a73f
00000420: 3674 db04 fcef cdbf da2c 9fcf 16d6 cb3f
00000430: 0230 c29f 3f51 b2bf 3687 9b97 01ad c2bf
00000440: 70b8 9bcd abd3 79bf 7bb4 2e41 e4b2 b93f
00000450: 8a6b 9666 31ec c13f f15f 76f2 c576 a83f
00000460: 605b ae1f 91f2 82bf 6e8f 5d28 54f6 b6bf
00000470: 3eb4 eaaf 7ffd c6bf e4f5 151f 9c77 b13f
00000480: b69d a113 eae0 bfbf ac3e 2533 5767 c93f
00000490: 1d8f 0363 161e cdbf 4803 9e8f 2060 bcbf
000004a0: 88aa 9fdd 22f0 943f a4f5 2f80 1e15 9a3f
000004b0: cb99 41b5 4519 c7bf 62f2 1f0f 6273 a73f
000004c0: 5959 758c 48e2 c93f 15d1 6d97 1e00 b83f
000004d0: 4029 1230 185e 4f3f f5fe 36db a3f3 d3bf
000004e0: a874 46f2 6f50 bd3f 9fd9 903b cafb b23f
000004f0: 0629 efa3 0b50 d2bf 9363 c896 26d4 c93f
00000500: 183b a7c6 eb29 843f 6120 811f fd2d b53f
00000510: 710a c5db e59b c8bf 807a a16a 6865 b6bf
00000520: c2ff cff4 8063 bd3f fd3e 3ce5 3051 bdbf
00000530: 9851 9cb1 f42f b73f ab47 7802 87c5 b0bf
00000540: c230 64b0 f58d afbf 3cbf 0244 7e56 c03f
00000550: d25a 0e9b 04cb ce3f 7e4e d232 1c40 a13f
00000560: ec6c d4f0 25e4 c13f 12ca 3227 0cb7 913f
00000570: a877 5a72 5bf3 cf3f 2700 07b4 612c 873f
00000580: aa33 0ac8 71c2 c13f 0339 f482 65c0 a93f
00000590: 116c b35b da38 bebf e6a5 515b 7d83 a03f
000005a0: b4af c0f8 9b7e 803f e255 75d9 744c c9bf
000005b0: c01e 7fd1 36a3 bb3f e62b 476f ecc3 d43f
000005c0: 1eb4 27e7 5810 cb3f 96d8 4aaf d6eb a8bf
000005d0: 80fb 8426 5f5a c83f a0e9 a929 af21 b43f
000005e0: 8ba8 3b50 b5e7 b6bf 0415 8634 aea1 bfbf
000005f0: 4ce1 0c2a ba40 ce3f 648d e805 77e5 aebf
00000600: a5d6 6391 f507 ba3f b873 d2d5 ed2a bebf
00000610: f7b3 7355 fcbc b4bf 3e34 c931 0904 c3bf
00000620: 7cce be31 b24f 86bf 14e4 0ac2 448a b6bf
00000630: 6d16 a34b 8bd4 dbbf 40b1 ef58 bff5 c9bf
00000640: f42c 6771 9c26 c03f e64f aa40 2164 9b3f
00000650: 54fc e637 de6d ce3f 7422 3b70 191d babf
00000660: e4fd ad45 b6cc 94bf f0e3 ac4b 793c 7e3f
00000670: 0c32 4c0c d8e5 bdbf b5c5 1fb4 0e91 d83f
00000680: a008 4c97 8377 c1bf 122b 057d c48c c43f
00000690: 7afb ae2e 77b5 c53f 9dac 5c10 452f d8bf
000006a0: 9a84 473d 3df7 c1bf 10f2 e20f 36f7 ac3f
000006b0: 9c49 e6c9 76d8 81bf e844 248f 49ac c4bf
000006c0: cce1 b4a9 0f6a b4bf 87b2 62f3 5620 c83f
000006d0: 7a5e 498a 4ce3 c63f c11c dee8 da06 be3f
000006e0: 19c3 4aa9 02ad 9b3f f2cd beb6 0184 b7bf
000006f0: 0c9c 145f ab64 bb3f 0463 92f9 f88b b1bf
00000700: b831 79b8 8b9d bf3f 4a3f cc16 42a8 bbbf
00000710: 8163 518c 1d8e c1bf 4435 5f55 71cb cf3f
00000720: e1f8 7568 6ffd c1bf 4b87 1552 321f b63f
00000730: 3606 ec72 eebd c7bf d0e6 1a2b 56a4 943f
00000740: 0c2d b48d c9df 94bf 8412 2577 0a2f 943f
00000750: d42d db03 ad27 8dbf 3c4d 83d0 abe2 c93f
00000760: e040 cc16 6298 82bf ac47 d2a1 0b11 cf3f
00000770: 916c c3fd 2bda ba3f bc23 d14a e7ac cdbf
00000780: 061a 1397 e085 adbf a9d2 18d6 ad01 c53f
00000790: 3439 062a 4517 98bf 5873 4b8a 2c06 9d3f
000007a0: 12ba 52e6 b2c8 d03f 74ec 2c58 7f74 c43f
000007b0: b079 2ce3 1d42 7a3f a811 064d 0d2c c2bf
000007c0: 3a6f 79f2 f761 93bf 7224 ce65 09ae a73f
000007d0: 8487 cc20 4754 a1bf a0df e331 bead 6cbf
000007e0: aa1a c857 f58e a53f 989e fd76 edfa b73f
000007f0: 099f edab 0220 c63f a043 32a2 f910 633f
-0.18223806188137726 0.08924754070057511 0.08048105782908696 -0.25900637951989025 -0.044578006486713145 -0.1489797814200954 -0.07588900007779976 -0.09021502555321909
0.1545735790449721 0.28876147277149733 -0.08235784772812822 0.031797066663306416 -0.13527162522189687 -0.08129609699308382 0.04853699076121061 0.2467545061020639
0.007297121056819837 0.20911377313294774 0.05236400611109235 -0.14093686666833752 0.19011810573685328 0.03209107874930797 -0.048995046421085035 0.14398103759495787
-0.10003504885618207 0.21937797495265512 -0.10490073763815433 0.32852134458401183 -0.057904495581781804 0.21690789179104678 -0.024058017016273407 0.16216496586267545
-0.011613328592037293 0.04412562439239465 0.08025620485845567 -0.34583824124885126 -0.049650641007220706 -0.2620663987371754 -0.3055505690656722 0.16323612860842382
0.011266578955019237 -0.2906107772517173 0.09126172286967421 -0.16524216898618416 0.22022523434241054 0.03958624589073248 0.0738314330442227 -0.044647783246135414
0.11797878169750647 -0.10657911398698056 -0.2349271642018469 0.07967262401082345 -0.25639530370577585 0.043453179316754464 -0.037028519322745 0.09916450602046654
0.24033134316519653 -0.377613494290881 0.2775583877144786 0.1881976596569862 -0.21136612943164293 -0.2690956173246099 -0.07656928957768395 0.03956124479454645
0.09087251761726725 0.022455312842508665 -0.11754559123586157 -0.25613013747835855 0.29552871303779793 -0.15502174618056788 0.029803099639408866 0.0028201220303324046
-0.11861772097346185 0.24498895233617124 0.024847184142477587 0.203754398539494 0.10384372961654507 0.28963520863703923 -0.04910451489156977 0.2765989473719395
0.22312195245940475 0.21458250355049613 0.21032053013617563 0.19951274700849247 -0.013722221082605186 0.16743418807571808 0.2178606340547041 0.24308658556698293
-0.11297530790599214 0.19946083833966471 0.6348956403511006 -0.10965891010963955 -0.1486576639576021 -0.5341623543687223 0.018957833992911 0.0322403337463254
-0.3008162367703979 0.2950615609717376 -0.18888669975295752 0.32240425442565385 -0.10557046355536504 -0.04373732682327854 -0.09028223181336066 -0.11656262482279241
-0.12667828774075796 -0.04257040416403402 0.31970861772085774 -0.09239767229234237 -0.03958711707477144 -0.08534367924039815 -0.006106057445015196 0.13538759731293648
0.09731935620849319 0.019101333364562892 0.0964346483879087 0.058480869529459426 0.027705740176126054 0.22462560025111059 -0.4055020421363505 -0.08254103072261607
-0.20369244055677785 0.04424406313414885 -0.18327841832317224 -0.03312344939111895 0.21421258579286467 0.2037949048622456 0.033232922154006445 -0.13969390948898003
0.14691928242401614 0.15283982718372535 0.04913706728879455 0.04535525077202965 -0.23388624417467135 0.2174709810045446 -0.07155225420336822 -0.14590473082267302
-0.006305380922397061 0.10038591948860358 0.14002053746375182 0.04778116783853637 -0.009251722125368012 -0.08969617829785445 -0.17961116876304745 0.06823135146074538
-0.12452567080764862 0.1984662055715395 -0.2274806960550614 -0.11084178453712668 0.02044729688342753 0.025471188138899273 -0.18045874929812408 0.0458021777594453
0.2022181211311345 0.09375182339664818 0.0009572618584042028 -0.3117456093568614 0.11450862564966491 0.07415451006168049 -0.2861355877800097 0.20178682672920142
0.009845582961955965 0.08273298281813048 -0.19225762587491915 -0.08748486140528122 0.11479955651156984 -0.11452012631002258 0.09057549797245767 -0.06551402864741245
-0.06162994173254922 0.12763956375919772 0.2405706174001439 0.03369224663142932 0.13977503070132202 0.017299833195190635 0.24961417277967013 0.01131512003564701
0.1387464739567837 0.05029599402961262 -0.11805500735083309 0.03225318660481573 0.008053988007382752 -0.19764576547701923 0.10795920004522497 0.3244582258891441
0.21143637930745823 -0.048674305818552074 0.19025792485077986 0.07863898055248919 -0.08947308739485231 -0.12356079847639384 0.23635031750905922 -0.06034442851184954
0.10168394851265335 -0.11784254522576887 -0.08100869261006936 -0.1485606663794971 -0.010894195693118329 -0.08804731118551984 -0.43484766374999745 -0.2028121170291204
0.1261783174253207 0.026749152728896684 0.23772790650943654 -0.10200652112974656 -0.02031216430941453 0.007381891070331811 -0.11678839016185111 0.3838536032700078
-0.13645977866696501 0.16054588417531385 0.16960038928479176 -0.37788511846401623 -0.14035764209896656 0.056573571624060404 -0.00871365359924852 -0.16150779237117452
-0.07974336522318665 0.18848692783412366 0.17881161453509603 0.11729210076565534 0.02702716978336914 -0.09185801230960758 0.10700484343816202 -0.06854206173956007
0.12349770787950021 -0.1080361657770911 -0.13714951850377236 0.24839607876348613 -0.14054672814012917 0.0864135218048691 -0.18548374759125047 0.02015814436047131
-0.0203849308718818 0.019710696718237233 -0.014235831909352216 0.20222995454114734 -0.009079710312591194 0.24270768548427435 0.10489153809924036 -0.23183909562274418
-0.057662027780271116 0.16411374048188535 -0.023526268663368557 0.028343864384498957 0.2622496842622307 0.15980521970218187 0.006410710094114355 -0.14196935902522267
-0.01892840783544545 0.04624966972102919 -0.03384611392381401 -0.003500815843945973 0.04210631081155232 0.09367260127111832 0.17285188097888973 0.0023274303108071354

transformer_encoder.layers.0.self_attn.qlinear.bias f8 [32]
00000000: 2427 3ce6 5858 bf3f 92ce b456 45e3 c6bf
00000010: 1a69 f727 195a c03f fcea cc75 8dac c43f
00000020: 0eef cab0 6984 cd3f 94a0 1137 e1b3 b8bf
00000030: 2b09 b127 2410 d6bf 90f3 ad19 eec8 b83f
00000040: 2ab2 d4e9 569b c63f 58b6 0235 ecca c43f
00000050: c8e9 0cf3 2ad1 bebf 95ba f388 a22a be3f
00000060: de4b b838 5612 c63f c95b f3b6 56fe c6bf
00000070: 8d5c da05 bf3c c7bf c475 3a47 4297 acbf
00000080: 7bdf 0bec b3bb a23f 43e6 cb47 aae5 923f
00000090: 5a8c 47fe de92 b53f de19 12ec 897d ae3f
000000a0: 2edf c611 2ec6 993f da8b a59b 0550 b1bf
000000b0: 117e 403d fc7c d8bf fc3b 1b18 a247 c43f
000000c0: 4728 e2d3 7877 ba3f 608c 7061 d00f 82bf
000000d0: 1d8f 9bae 0a20 a93f 4ca0 6769 220f 92bf
000000e0: 0f78 c2a6 cefb cd3f c6c9 083c 762b bd3f
000000f0: 6010 1c12 a795 5c3f 60ee 85fb 530b cb3f
0.12244182225199701 -0.17881075605111058 0.12774958087431615 0.16151588680244078 0.23060341961342384 -0.09649474710897926 -0.3447351825344806 0.09681594969693053
0.176615585494248 0.16244270885856582 -0.12037914689873397 0.11783805697971624 0.17243459481741658 -0.17963680203567226 -0.18154132638730794 -0.05584151381956873
0.0365883088724663 0.018454228050336374 0.08427232463832138 0.05955153471682072 0.025170059046757114 -0.06762728738753712 -0.3826284979022328 0.15843607117719205
0.10338549778876525 -0.008819225286123167 0.049072583975229934 -0.017635858233831223 0.23424704687653317 0.11394442525560242 0.001744664340038525 0.21128320485501018

transformer_encoder.layers.0.self_attn.klinear.weight f8 [32, 32]
00000000: f72f 19fb b4f9 d5bf 3b21 81fa b67a d03f
00000010: 2643 ff26 80ad ca3f 70f8 b6af a297 bc3f
00000020: 800d 962e 138e 6c3f 1156 f7c8 e64d c6bf
00000030: f6c3 3b37 9286 83bf 6b12 2649 4ca5 d1bf
00000040: 9c73 c6a3 2ca9 c4bf 92c1 78ec 57c0 ac3f
00000050: 802d 4877 c3aa c33f 468a 5913 de44 c4bf
00000060: fd30 03f0 ddbc 85bf 0d62 9bbd 8cb8 a1bf
00000070: da88 081a e8b4 c23f 9b08 ae55 c651 d2bf
00000080: 6a20 3932 d771 d43f 40a8 21f1 78e6 a33f
00000090: e2df f0dd 03ed b1bf 3d34 53fc bbbc d4bf
000000a0: 7405 cee9 6d69 ce3f 323a 3522 4d3d c4bf
000000b0: faec ceb9 d871 b43f 6a72 171f e60d a8bf
000000c0: ab9f b9e7 ef25 c0bf da89 d29d 7f53 c43f
000000d0: ae48 ce9b 22fc a13f ceb3 228d 5fb1 c83f
000000e0: 2824 759b bd77 be3f 0edc 592e 2a0b b63f
000000f0: 40fe 6b08 4855 a7bf 5010 8ac0 a1e2 693f
00000100: 4c41 4423 05c3 9fbf 38ff 0948 e853 b93f
00000110: 1625 3811 06c5 c33f e5b1 48cb 31c1 c23f
00000120: 9271 60c2 f788 c73f 509b 19fe e227 b6bf
00000130: 089d 393f 443d a9bf 00bd fc9c 581e 3dbf
00000140: 2613 0c82 3b30 d03f 8a1b ac37 fe2a d83f
00000150: aaf8 a954 965a d03f 9c5b 5cc3 7c3a c2bf
00000160: 3d9d 3078 707f cebf 6a66 40f4 2a27 d13f
00000170: e0c5 26b6 8809 dabf 645b 0aaf a062 b5bf
00000180: eb0e 0a75 2ded c2bf 328b e841 a8c4 c8bf
00000190: 0129 94d8 d358 c33f b656 9975 efdb ba3f
000001a0: 3e27 87ef 9de0 c23f bcde 5eff 4637 d8bf
000001b0: 0488 5dbb c3a9 b8bf 0950 0eb0 e832 c63f
000001c0: 689e 20b2 c534 c03f f497 3edb 603d 8f3f
000001d0: 2693 9fe3 9754 bb3f 8c19 8f55 b604 d03f
000001e0: b01e a308 66a4 abbf a047 1ab2 1141 9d3f
000001f0: 60ed 6fba 6032 c93f 483f e1a1 db4b 93bf
00000200: 6114 1694 6729 c63f 42e7 9dd3 53f6 bfbf
00000210: 8e73 ba07 f160 d1bf bfb6 618c 34f6 b53f
00000220: b804 2a0f 272c c33f 5882 b72e f2cf b33f
00000230: 733b 28dc 06af d5bf 9cd3 b542 25ff aebf
00000240: 9a98 a837 b31e aa3f 1e28 d135 2b22 bfbf
00000250: 74f9 5fde dfb8 ce3f 446c 6766 9cad 9a3f
00000260: 00e0 dad2 cf43 793f b6c6 3351 fd4c afbf
00000270: 3885 8222 ad12 b93f 7209 a090 45e5 a83f
00000280: 2244 3ca6 0695 d43f 4f46 4d72 9f60 c13f
00000290: 43aa aedd 22a8 c43f c2d7 4acb 9f26 cabf
000002a0: 4a46 1800 082a b93f d4d6 b1b8 5430 d2bf
000002b0: e4ea 3bc6 55bb c5bf 748c 0def 72dd a4bf
000002c0: ecd0 7887 8b64 c6bf 0971 c196 d58c b2bf
000002d0: de00 d8b7 300e b63f e9ea 9ada 663b 92bf
000002e0: 5155 9b32 04f1 b83f e270 c340 c47a d5bf
000002f0: 29f0 7206 93ca 99bf 5446 4e9e 51af c53f
00000300: 447b e45d 552c a03f f7f9 d4a0 f629 d13f
00000310: a2b2 5980 73b8 cf3f 5acf 823e 4ef5 d1bf
00000320: 4453 952b 5e82 cbbf 9377 4ed7 357f c73f
00000330: c90e e6f5 a487 9ebf 4e46 40c0 8085 b73f
00000340: 344e 3ac4 0d41 bb3f f26a eb3d 935b adbf
00000350: 235a 96a4 819d 9e3f ae40 fd5c 2dbc 8f3f
00000360: 2208 0c70 6eff c63f 16f8 41ba 101b ae3f
00000370: b6ba e193 3e49 913f 9f74 7170 9c21 bc3f
00000380: bc62 8ae7 dc58 af3f edc8 e24e a164 b1bf
00000390: de19 9d94 d62b a2bf 8509 7606 0749 c8bf
000003a0: a6ac 634e cb82 a6bf 7c3b 49c7 a594 b9bf
000003b0: 78f5 a5dd 9bda d63f d2b5 7eec d01a af3f
000003c0: 7652 7696 aa6d b4bf e31c ea55 6776 a93f
000003d0: fe85 a4de f488 be3f 2cf9 eec6 f237 afbf
000003e0: 9eb1 f52c 914c 993f 69ad af32 41d1 cf3f
000003f0: c5db aada 6246 d83f 24f9 683b 5b4b ad3f
00000400: 3ec0 ac2d 1a32 cc3f 3f27 d211 ff7d c43f
00000410: c075 5f85 7c44 a0bf 8a53 59d3 2ea7 bb3f
00000420: 413b ad8c 5652 cabf 7126 55c6 0552 c5bf
00000430: a03b f17a d49e c6bf e809 3dc0 def3 8dbf
00000440: ccb7 f307 1882 b6bf bc2f 7c02 228c d23f
00000450: a0c1 8fd1 9de5 61bf 7491 7927 06d9 d63f
00000460: b88a 8450 8c37 c83f 9254 69b8 5d3c c63f
00000470: 28e6 5d97 93ef c8bf 9c74 8051 c999 acbf
00000480: 6a70 c2a9 8cc0 c2bf c115 8689 faa8 ce3f
00000490: 609c 53f1 fba0 b13f 287d 2dbf eb64 99bf
000004a0: 6946 567d 7c91 c5bf 1494 68c6 4aa6 a63f
000004b0: 8493 165a a222 9bbf ee21 7f34 8ac1 c83f
000004c0: 640d 5cd4 bcbd cf3f beb7 7aff 8319 ba3f
000004d0: 5985 3542 2722 b9bf 0e55 d99d 8a06 b63f
000004e0: 8d31 54bb 07cc bdbf 602e cab9 c11f a13f
000004f0: 27c0 7b98 fdbc cf3f c73d 0a6e 32f3 d53f
00000500: 20ea 85ad 24c6 783f c8af 2fc7 e1ce 80bf
00000510: 764d 83f3 3fc3 c43f c0ff 587a 36fd 5f3f
00000520: 5a11 7fb8 5e11 c53f c4bd 7205 54c3 a2bf
00000530: 7cce 7a0e 2e8e 923f 13b8 994a 2419 bd3f
00000540: 90d1 2f35 56ac 763f 2ed1 7f0e 03a9 d53f
00000550: eecc c5b3 176c c53f 0c06 f0bb 08ce d13f
00000560: 230d fe07 fda2 b13f 6ee0 6cda 279b c93f
00000570: 8b05 ec89 08a5 933f 0fd9 34ee 0222 c8bf
00000580: 2958 0c72 43cb dabf 4d66 db2a 7adb a43f
00000590: 041d 7ed6 8140 c53f c57a 2e2e b238 c5bf
000005a0: a4aa 705a 30c3 bdbf d8e9 90fa 9860 8bbf
000005b0: 8542 9838 debc b63f 100a ea93 536b 763f
000005c0: fafb 97c4 4374 a93f 7455 6a22 5f00 c4bf
000005d0: b9fc 05e2 68f4 afbf 17dc ef15 1dab d03f
000005e0: 3a80 9cfb 1fef 9bbf 6943 3deb d729 c2bf
000005f0: e5db b2fe 8b49 c53f 185c 776e dea2 9fbf
00000600: fed8 cbaf 86bf cabf 659b 847a 220e c83f
00000610: 37b8 3496 c354 c9bf fc6d 5c36 db2c 833f
00000620: 647d bead 9d33 c1bf f760 6372 26eb d6bf
00000630: a01e 44af ab0a 593f 0377 9d0b a65c d53f
00000640: c8b8 b6c4 77d3 cdbf 9fbb c035 41d7 9bbf
00000650: 5d06 bc7f 37dc d13f d6ef a4db ed8f babf
00000660: 0dbb 73f0 3be3 d8bf 9e10 4a2a fc25 b33f
00000670: 1d73 531c e549 d53f 1a99 7c3f a713 c23f
00000680: 5428 62b2 0c6c cbbf 2ea6 6ed5 1b87 ac3f
00000690: b815 7288 d107 b3bf d05d da55 9323 acbf
000006a0: 887a 77d5 e59a 903f 42d8 5e34 a08f b53f
000006b0: 70a6 a0ee ca02 c8bf c0bc 7672 9e0c 55bf
000006c0: 9948 4d6b 942d c33f 390f 4076 61d5 d43f
000006d0: 765a a7ca 52ad b3bf 48c8 f258 8100 75bf
000006e0: 5bd7 b235 4bb2 c73f 808a 7acc 6485 b93f
000006f0: 347f 0aa3 0ce5 bb3f e40c dc8a a19a bbbf
00000700: 679a 461e 8d5b cebf 04c5 c4f2 523b d13f
00000710: f69a ddce a91b c0bf be3f fe1a e20d cabf
00000720: 7b34 d619 2f74 bfbf 8afc 21e1 9c5a d33f
00000730: f4b0 4443 f275 a5bf ae6b eb02 bda2 bbbf
00000740: 6429 4f5c 42cf b1bf fdbb aa33 1765 d1bf
00000750: 9213 9b03 9f81 dd3f c71d 1342 5841 c4bf
00000760: aee4 02d1 54d9 bc3f 8d7b f970 6ec6 b7bf
00000770: fc17 8653 c349 92bf fd32 0b4a 3a6f c43f
00000780: 3b1f da5a ec48 d3bf feb4 5ffb 3fcd c23f
00000790: 1804 51e9 fbe6 b0bf c130 cd3b 1f50 e2bf
000007a0: c013 a3ae 77e0 483f 1e8c acc9 fe38 90bf
000007b0: e025 77f4 7724 63bf 2422 909c ae2c c13f
000007c0: a2ad 860d 556a a23f 310c 4cf9 bc1b aa3f
000007d0: e86a 6b21 d76a 733f 60b3 47a0 4e0c bdbf
000007e0: c694 9bc7 b2d0 bd3f 08ed 419f 7d42 9d3f
000007f0: 29dd 31c2 2336 d73f 70ef f765 a6b4 823f
-0.3433659031040856 0.25748991454431164 0.20841981796413583 0.11168877401266442 0.0034857153556814846 -0.17425236523438106 -0.009534017859069249 -0.2757139887183146
-0.16141279217563642 0.05615496408097721 0.15364878963769613 -0.15835166878521728 -0.010614141356562795 -0.034611127992040115 0.14614583274039356 -0.28624113433046156
0.319448279424711 0.03886774009227212 -0.0700228134963932 -0.3240194286452754 0.23759244838951654 -0.15812076731022412 0.07986216102920088 -0.046981040282592826
-0.12615774931623255 0.15879817205593733 0.035126763839018124 0.19291300193199706 0.11901459737158915 0.0861078608667045 -0.045572520282800344 0.0031598242970308013
-0.03101738002539038 0.0989365745426739 0.1544501861647311 0.14652082849478557 0.18386742583323873 -0.08654612258542937 -0.04929555198469343 -0.0004443136540314835
0.25294387531202955 0.3776240867304571 0.25552900569881365 -0.14240989245510327 -0.2382641398300879 0.2680156121510665 -0.40683191097477156 -0.08353618882607133
-0.1478630849343213 -0.1935015031641228 0.15114830088743506 0.10491844769543487 0.14747976489734954 -0.3783738607266789 -0.0963404018816903 0.17342861744384688
0.12661048123958385 0.015253788653193802 0.10675954158029963 0.25028761248940934 -0.05398863654550945 0.028568531508944894 0.1968499098146408 -0.018844062571872017
0.17313856821798182 -0.12485240856576943 -0.2715418410751277 0.08578804423606366 0.14978492966114287 0.07739175453708336 -0.338807787892555 -0.0605403560574935
0.05101547293115623 -0.12161512435810137 0.24001692159795207 0.026052898168796426 0.006168186007634802 -0.06113425842512525 0.09794122784162063 0.0486242045444837
0.32159582361151895 0.13576119500298708 0.16138110946970316 -0.20430371691116817 0.09829759599986079 -0.2841998866709734 -0.16977951220891108 -0.040752021485581574
-0.17494339098778455 -0.07246146135861777 0.08615402687428594 -0.017804724781607915 0.09742761836544857 -0.3356180794196587 -0.025186822193731615 0.1694128058411929
0.031588237487304244 0.26818624216312464 0.24781650321110243 -0.28059726814830344 -0.2149160111245242 0.18356965077412876 -0.029814317234481167 0.09188084310178476
0.10646139183727926 -0.05733928805212497 0.02989771430073963 0.015495638275439507 0.17967014761967542 0.05880024217275108 0.016880967880235707 0.10988786454386677
0.06122484518454516 -0.06794174362110868 -0.03549070896274363 -0.18972862067682797 -0.04396663028622898 -0.09992443194754047 0.35709282536830456 0.060751465672506236
-0.0797983758296342 0.04973147319565798 0.11927729068386125 -0.06097372702014278 0.024706142777561994 0.24857344603456547 0.37929602960815273 0.057215548517421305
0.2202789996167684 0.16009510393296897 -0.03177250984274904 0.1080197587956048 -0.20563775891283778 -0.16656562980851988 -0.17672210696261192 -0.014625301591540699
-0.0879225749410743 0.2898030304211223 -0.0021846849817778874 0.35699609618156747 0.18919519359140735 0.17371722702469988 -0.19481129542309472 -0.055860797118137046
-0.14650114335097736 0.2395318194868832 0.06886267320406736 -0.024799045127449265 -0.1685023891446236 0.044237457961834675 -0.026499306438967377 0.1934063679057227
0.24797783249969563 0.10195183741845334 -0.09817738882477069 0.08603731492742758 -0.11639450381716739 0.03344540970746546 0.24795503564337304 0.342968566380446
0.0060483391501926775 -0.008207095996077288 0.16220855131414752 0.0019524604807798912 0.16459259041415458 -0.036646485962929215 0.018120498307963903 0.1136648828630487
0.005535446881357223 0.3384406701654993 0.16736122396432712 0.2782003245666551 0.068893255664126 0.20004747548387364 0.01918423978623233 -0.18853794699834522
-0.4186562169792319 0.04073697827488996 0.16603110287926637 -0.1657927251335051 -0.11625959594736429 -0.013367838999433099 0.0888193977518857 0.005473448253385374
0.049715154407742504 -0.15626134090841115 -0.062411573019738716 0.2604439462879226 -0.027279376728188455 -0.14190196024221827 0.1663069718976821 -0.030894732944798248
-0.20896991332819675 0.18793135626148252 -0.19789929231905187 0.009362900349109353 -0.13438769324873612 -0.3581024281570672 0.0015284229858156043 0.3337798226765331
-0.23301598649181288 -0.02718831911641539 0.279065966358848 -0.10375868427666943 -0.3888692711033606 0.07479835541204458 0.33263519064148445 0.14122477149903362
-0.21423491201523126 0.05571829777120417 -0.07433805066292265 -0.054958919744588663 0.016215888170217713 0.08422280577255584 -0.18758522655234655 -0.0012847468695829506
0.14982848395681428 0.3255237250125336 -0.0768634552726811 -0.00512743498181762 0.18512859460832484 0.09969167701869175 0.10896376591199158 -0.1078282321941973
-0.23716892221746663 0.269245850638143 -0.125844217308632 -0.20354868238473317 -0.12286657696513885 0.30240556703206123 -0.041915484153237786 -0.10795193978576265
-0.06956877473490902 -0.2717950825271485 0.4610364470684597 -0.1582441637640228 0.11269121268095958 -0.0928715730492355 -0.017859508488548656 0.15964439978997538
-0.3013258826472229 0.14688873075593983 -0.06602453657343721 -0.5722805183409251 0.0007591804872154537 -0.015842419680790802 -0.0023367255086881172 0.1341760887592197
0.03596750059235922 0.05099287551095023 0.004740562776272418 -0.11346904194915686 0.11646573422656833 0.02857395443468838 0.36267942394575187 0.009133625017959196
