experiments/fl_train_noise_0.0_max_grad_norm_1/20250422/model_round_0.pt (torch, 35449 bytes, 25 tensors)

embed.weight f4 [32, 8]
0.2524948 -0.27220166 0.35183847 0.20227364 -0.28339136 -0.24702065 -0.28701684 0.17211474
0.0052259983 0.13814506 0.20952243 0.0673467 0.24238129 -0.036620006 -0.13750072 0.09352415
0.19204654 0.2813528 0.31968653 0.20752779 -0.18961799 0.13006054 0.049165014 0.24738333
-0.34131554 -0.31194842 -0.3100726 0.10030722 0.13981201 -0.051488485 0.10196637 -0.329545
0.3148757 -0.32246262 -0.24365443 -0.32829127 -0.034390565 0.30483833 -0.03138739 0.07411675
-0.08765794 0.17196925 -0.20891476 -0.1568178 0.23451552 -0.22593497 0.28195357 -0.31179774
0.21205728 -0.30014426 0.1088565 0.030630138 0.03376089 -0.30193007 0.04793631 -0.17206265
-0.05569651 0.3117837 0.08327399 -0.25129718 -0.28519768 0.10328675 -0.17730306 -0.2045314
-0.24894989 0.10644949 0.17017114 -0.15505306 0.089672685 0.12553392 0.18844678 -0.20107388
0.1277068 -0.014874381 0.19593045 -0.2653577 -0.28470862 -0.18811643 0.34320146 -0.28200093
-0.12085537 -0.2849926 -0.14762554 0.21357638 -0.203791 0.25833932 -0.34664118 -0.08764909
-0.0022432238 0.17561617 0.053779125 0.1936184 0.09248316 -0.04267946 -0.3490117 -0.16661778
-0.07986895 0.28274673 0.22371829 -0.17097995 0.19335625 0.18728289 0.055729218 -0.34702164
0.20191261 0.32631928 0.07202795 -0.20565331 0.06493539 0.03311832 -0.29563573 0.17481172
0.3500512 0.27609596 -0.10478486 -0.22370611 0.024676938 0.22921082 0.26509443 -0.019827943
-0.1398673 -0.25908193 -0.35256436 -0.025949182 -0.19753419 0.006939099 -0.18153027 -0.25130808
0.14634709 -0.10225306 -0.1754033 0.11255059 0.0034465585 0.15704426 -0.02594012 0.14046124
-0.26309398 0.0793846 -0.12799273 0.2756668 0.14529957 -0.11062056 0.1659723 0.07688837
0.27252176 -0.23666142 0.19840455 -0.16634189 0.062029835 0.13800125 0.17022084 0.2767872
0.21213503 0.027217548 0.042752918 0.0043302514 -0.0033504216 -0.3288281 0.20783205 -0.15438318
-0.25490287 -0.24555938 0.012299461 0.28091505 -0.023661282 -0.023320694 -0.17223726 -0.0045538824
0.056005362 -0.25933686 -0.1754589 0.09920993 0.03528901 -0.34980595 -0.34229288 0.17931782
-0.05981687 -0.35154092 0.2803127 0.3007633 -0.07449135 0.2981476 0.29279083 -0.1932261
0.18293734 0.0074999053 -0.34897637 -0.14881349 0.33689496 0.2697307 -0.29117256 0.2650355
0.3519532 0.32225075 0.06904223 -0.04134475 -0.35105416 0.17729539 -0.062011037 0.1500161
-0.007813436 -0.1731127 0.072725356 -0.1322432 0.19967781 0.04647912 -0.2389515 -0.33562347
-0.26143166 -0.16803308 -0.06259098 -0.19851397 -0.17602862 0.011289749 0.25395513 0.2531276
-0.082023285 0.1922246 0.27837807 -0.06499369 -0.16518512 -0.1791647 -0.24827081 0.05649751
0.34526756 -0.0742584 -0.34239656 -0.13911326 0.2341394 0.030756198 0.2224254 0.2597144
-0.04757456 0.15258263 -0.31530574 -0.11208444 0.20858935 0.25285968 -0.00091778976 0.0805865
0.09656593 -0.24981734 -0.10933554 0.04241815 -0.007996648 0.1430153 -0.21161751 0.14327791
0.25082263 -0.33860302 0.027014527 0.32274374 -0.07137168 0.15272968 -0.14256564 -0.2702644
00000000: 0047 813e 045e 8bbe 2c24 b43e d220 4f3e
00000010: ac18 91be fbf2 7cbe dff3 92be d93e 303e
00000020: da3e ab3b e675 0d3e 0c8d 563e 11ed 893d
00000030: cd32 783e dcfe 15bd fdcc 0cbe 9789 bf3d
00000040: d9a7 443e 790d 903e f4ad a33e 2a82 543e
00000050: 382b 42be 972e 053e 4161 493d 0e52 7d3e
00000060: e9c0 aebe b4b7 9fbe d6c1 9ebe df6d cd3d
00000070: e12a 0f3e 97e5 52bd bfd3 d03d 1fba a8be
00000080: 6337 a13e d219 a5be 8c80 79be cb15 a8be
00000090: 1fdd 0cbd c513 9c3e 1090 00bd 86ca 973d
000000a0: 0286 b3bd b518 303e c0ed 55be d894 20be
000000b0: d624 703e 7f5b 67be 385c 903e f4a3 9fbe
000000c0: 8b25 593e 82ac 99be 28f0 de3d 0eec fa3c
000000d0: dc48 0a3d 9496 9abe dd58 443d 3131 30be
000000e0: 0622 64bd 1da2 9f3e 8e8b aa3d 06aa 80be
000000f0: 6e05 92be 0188 d33d ef8e 35be ae70 51be
00000100: b8ec 7ebe 3102 da3d 5841 2e3e 3bc6 1ebe
00000110: 50a6 b73d f78b 003e 31f8 403e 50e6 4dbe
00000120: 92c5 023e adb3 73bc fea1 483e f7dc 87be
00000130: 54c5 91be 98a1 40be 1ab8 af3e 6d62 90be
00000140: 0583 f7bd 8dea 91be 262b 17be c4b3 5a3e
00000150: 97ae 50be 0d45 843e f47a b1be 5e81 b3bd
00000160: 0d03 13bb bad4 333e 8047 5c3d e743 463e
00000170: d067 bd3d a8d0 2ebd a9b1 b2be da9d 2abe
00000180: 5592 a3bd 2ec4 903e 6816 653e 5e15 2fbe
00000190: 2eff 453e 16c7 3f3e 5244 643d d2ac b1be
000001a0: 2ec2 4e3e 5213 a73e 6483 933d c896 52be
000001b0: d9fc 843d 13a7 073d 915d 97be d801 333e
000001c0: e939 b33e 735c 8d3e 7299 d6bd 3713 65be
000001d0: 4a27 ca3c 3eb6 6a3e 75ba 873e 366e a2bc
000001e0: 6039 0fbe 63a6 84be 5183 b4be 6193 d4bc
000001f0: 6746 4abe 6261 e33b 12e3 39be 74ab 80be
00000200: 03dc 153e 0d6a d1bd ec9c 33be ec80 e63d
00000210: a8df 613b 36d0 203e 6080 d4bc 12d5 0f3e
00000220: 41b4 86be 6594 a23d 8710 03be 3324 8d3e
00000230: 69c9 143e 088d e2bd a5f4 293e a677 9d3d
00000240: f987 8b3e 5f57 72be 902a 4b3e 8755 2abe
00000250: ff12 7e3d 3350 0d3e 5f4e 2e3e 0db7 8d3e
00000260: ed39 593e 56f7 de3c af1d 2f3d c8e4 8d3b
00000270: bf92 5bbb 285c a8be edd1 543e a016 1ebe
00000280: a182 82be eb73 7bbe ae83 493c 19d4 8f3e
00000290: 4ed5 c1bc 0a0b bfbc f75e 30be bc38 95bb
000002a0: e165 653d cdc7 84be 7fab 33be 932e cb3d
000002b0: 358b 103d c419 b3be 0341 afbe 179f 373e
000002c0: 8902 75bd 2cfd b3be 2585 8f3e a6fd 993e
000002d0: ec8e 98bd cda6 983e aee8 953e 10dd 45be
000002e0: ed53 3b3e c4c1 f53b 08ad b2be 9062 18be
000002f0: 7f7d ac3e 241a 8a3e 9214 95be bcb2 873e
00000300: 3633 b43e 0dfe a43e 0366 8d3d 1d59 29bd
00000310: 5fbd b3be ec8c 353e 49ff 7dbd d29d 193e
00000320: ed03 00bc 7544 31be 08f1 943d c36a 07be
00000330: 5778 4c3e e460 3e3d b4af 74be d7d6 abbe
00000340: 5fda 85be dd10 2cbe b32f 80bd 3f47 4bbe
00000350: d940 34be a4f8 383c 6806 823e f199 813e
00000360: d3fb a7bd 87d6 443e 9287 8e3e 691b 85bd
00000370: 4a26 29be f376 37be b43a 7ebe ef69 673d
00000380: e9c6 b03e ca14 98bd 9a4e afbe b573 0ebe
00000390: 3dc2 6f3e 6cf4 fb3c 7cc3 633e 49f9 843e
000003a0: 8bdd 42bd 9f3e 1c3e c16f a1be 878c e5bd
000003b0: 7298 553e d376 813e d497 70ba 890a a53d
000003c0: 5cc4 c53d 1ed0 7fbe 50eb dfbd a7be 2d3d
000003d0: 5f04 03bc 9a72 123e 43b2 58be 72b7 123e
000003e0: d36b 803e 605d adbe 924d dd3c ab3e a53e
000003f0: 512b 92bd 2b65 1c3e bafc 11be 1860 8abe

embed.bias f4 [32]
-0.326021 -0.051046323 -0.051801175 0.17273945 0.03310892 -0.01516001 -0.10861858 -0.21775384
0.1771961 0.1734809 -0.3385416 -0.18466334 0.04074888 0.31031507 -0.17325468 -0.25977015
-0.0149108805 -0.19551198 0.17654067 -0.25800762 -0.18046695 -0.10113979 -0.29577613 -0.043510213
-0.042708118 -0.32327488 -0.17640664 -0.13585657 -0.27178988 0.1844054 -0.22195208 -0.18997876
00000000: 39ec a6be f315 51bd 782d 54bd 9ce2 303e
00000010: 389d 073d b161 78bc 6b73 debd ddfa 5ebe
00000020: e572 353e faa4 313e 5355 adbe 6318 3dbe
00000030: 4ce8 263d 9ee1 9e3e ad69 31be 9800 85be
00000040: c44c 74bc 4b34 48be 14c7 343e 9319 84be
00000050: 54cc 38be 6122 cfbd f86f 97be c437 32bd
00000060: b5ee 2ebd 4984 a5be f1a3 34be fc1d 0bbe
00000070: 0b28 8bbe c5d4 3c3e 6847 63be cb89 42be

pos_enc.pe f4 [1, 12, 32]
0.0 1.0 0.0 1.0 0.0 1.0 0.0 1.0
0.0 1.0 0.0 1.0 0.0 1.0 0.0 1.0
0.0 1.0 0.0 1.0 0.0 1.0 0.0 1.0
0.0 1.0 0.0 1.0 0.0 1.0 0.0 1.0
0.84147096 0.54030234 0.68156135 0.731761 0.53316844 0.8460091 0.4093089 0.9123959
0.3109836 0.9504153 0.23492105 0.9720145 0.17689219 0.9842302 0.13295726 0.99112177
0.099833414 0.9950042 0.07491915 0.9971896 0.05620449 0.9984193 0.04215715 0.999111
0.031617504 0.99950004 0.023711512 0.99971884 0.017781857 0.99984187 0.013334819 0.99991107
0.9092974 -0.41614684 0.99748 0.070948265 0.9021307 0.43146282 0.7469035 0.6649324
0.5911271 0.8065784 0.45669332 0.8896242 0.34820527 0.93741834 0.26355368 0.96464473
0.19866931 0.9800666 0.1494172 0.98877424 0.1122313 0.9936821 0.08423935 0.99644554
0.063203394 0.9980007 0.04740969 0.9988755 0.03555809 0.9993676 0.026667267 0.99964434
0.14112 -0.9899925 0.7782725 -0.6279267 0.9932532 -0.11596616 0.95363444 0.3009673
0.8126489 0.58275366 0.652904 0.7574407 0.5085361 0.86104065 0.3894703 0.92103904
0.2955202 0.9553365 0.22307542 0.9748012 0.16790329 0.9858035 0.12617177 0.9920084
0.094726086 0.99550337 0.071081206 0.9974705 0.053323083 0.9985773 0.039994974 0.99919987
-0.7568025 -0.6536436 0.14153895 -0.98993266 0.7784717 -0.6276797 0.99328077 -0.115729704
0.95358074 0.30113748 0.81257087 0.58286244 0.652828 0.7575062 0.50847137 0.8610789
0.38941833 0.921061 0.29547977 0.955349 0.22304447 0.9748083 0.16787985 0.9858075
0.12615407 0.99201065 0.09471276 0.9955046 0.07107121 0.9974712 0.053315565 0.9985777
-0.9589243 0.2836622 -0.5711271 -0.82086164 0.32393527 -0.94607925 0.8588961 -0.51214993
0.99994653 -0.010342338 0.9267573 0.37566072 0.77652997 0.6300803 0.6184437 0.78582907
0.47942552 0.87758255 0.36622328 0.93052703 0.2774805 0.96073127 0.20928943 0.9778537
0.15745588 0.987526 0.11829105 0.992979 0.08879686 0.99604976 0.06662668 0.99777794
-0.2794155 0.96017027 -0.97739613 -0.21141617 -0.23036751 -0.9731037 0.5740256 -0.81883734
0.9471482 -0.3207964 0.9890721 0.14743277 0.8757405 0.48278204 0.7174347 0.69662577
0.5646424 0.8253356 0.43490836 0.9004747 0.3310393 0.943617 0.2503269 0.9681614
0.18860027 0.98205394 0.14180282 0.9898949 0.10649444 0.9943133 0.07992595 0.9968008
0.6569866 0.75390226 -0.8593135 0.5114493 -0.7137213 -0.7004298 0.18858118 -0.98205763
0.8004216 -0.5994375 0.9960274 -0.08904703 0.9473307 0.320257 0.8036866 0.5950528
0.6442176 0.7648422 0.5011489 0.8653611 0.38355154 0.9235195 0.29091927 0.9567476
0.2195561 0.9755999 0.16523485 0.9862543 0.12415834 0.9922624 0.093210995 0.99564636
00000000: 0000 0000 0000 803f 0000 0000 0000 803f
00000010: 0000 0000 0000 803f 0000 0000 0000 803f
00000020: 0000 0000 0000 803f 0000 0000 0000 803f
00000030: 0000 0000 0000 803f 0000 0000 0000 803f
00000040: 0000 0000 0000 803f 0000 0000 0000 803f
00000050: 0000 0000 0000 803f 0000 0000 0000 803f
00000060: 0000 0000 0000 803f 0000 0000 0000 803f
00000070: 0000 0000 0000 803f 0000 0000 0000 803f
00000080: a46a 573f 4151 0a3f ce7a 2e3f b054 3b3f
00000090: ba7d 083f 0d94 583f f090 d13e c792 693f
000000a0: 3e39 9f3e 6b4e 733f 258f 703e f1d5 783f
000000b0: 3a23 353e 83f6 7b3f f325 083e 28ba 7d3f
000000c0: 7675 cc3d 98b8 7e3f 366f 993d d147 7f3f
000000d0: ae36 663d 6898 7f3f faac 2c3d bdc5 7f3f
000000e0: 5b81 013d 3cdf 7f3f a53e c23c 93ed 7f3f
000000f0: 42ab 913c a3f5 7f3f 497a 5a3c 2cfa 7f3f
00000100: b7c7 683f 3311 d5be d95a 7f3f 534d 913d
00000110: 0af2 663f b2e8 dc3e 1135 3f3f 0339 2a3f
00000120: 1b54 173f ec7b 4e3f b5d3 e93e 69be 633f
00000130: f647 b23e a6fa 6f3f 82f0 863e f5f2 763f
00000140: f86f 4b3e a5e5 7a3f d300 193e 4f20 7d3f
00000150: 86d9 e53d f361 7e3f ae85 ac3d 0e17 7f3f
00000160: c870 813d f97c 7f3f aa30 423d 4eb6 7f3f
00000170: 5ca5 113d 8ed6 7f3f 5075 da3c b1e8 7f3f
00000180: c381 103e 2670 7dbf de3c 473f cebf 20bf
00000190: d745 7e3f ab7f edbd 6321 743f 6318 9a3e
000001a0: c209 503f 582f 153f b724 273f a2e7 413f
000001b0: 6c2f 023f 296d 5c3f a768 c73e 37c9 6b3f
000001c0: 6c4e 973e ef90 743f e26d 643e 928c 793f
000001d0: d7ee 2b3e 9e5d 7c3f 2c33 013e 43f4 7d3f
000001e0: c0ff c13d 4fd9 7e3f 0693 913d 3a5a 7f3f
000001f0: 4e69 5a3d c3a2 7f3f c5d1 233d 90cb 7f3f
00000200: cfbd 41bf 3055 27bf 96ef 103e 3a6c 7dbf
00000210: ec49 473f 9eaf 20bf a647 7e3f b203 edbd
00000220: de1d 743f b12e 9a3e a504 503f 7936 153f
00000230: bc1f 273f edeb 413f 2e2b 023f ab6f 5c3f
00000240: d761 c73e a7ca 6b3f 2049 973e c191 743f
00000250: c565 643e 098d 793f b2e8 2b3e e15d 7c3f
00000260: 882e 013e 69f4 7d3f c3f8 c13d 64d9 7e3f
00000270: c88d 913d 465a 7f3f 6c61 5a3d caa2 7f3f
00000280: 107c 75bf 2c3c 913e 6335 12bf fd23 52bf
00000290: d8da a53e 4032 72bf 9de0 5b3f 421c 03bf
000002a0: 7ffc 7f3f e972 29bc f73f 6d3f 9a56 c03e
000002b0: abca 463f f14c 213f 5452 1e3f 182c 493f
000002c0: 4377 f53e 40a9 603f 9e81 bb3e 0537 6e3f
000002d0: ed11 8e3e 7cf2 753f f84f 563e 9f54 7a3f
000002e0: 1d3c 213e 81ce 7c3f 9442 f23d df33 7e3f
000002f0: 21db b53d 1efd 7e3f 9273 883d 606e 7f3f
00000300: 8c0f 8fbe b8cd 753f a236 7abf 7b7d 58be
00000310: 76e5 6bbe 531d 79bf 57f3 123f 539f 51bf
00000320: 4e78 723f 6d3f a4be d433 7d3f 9ef8 163e
00000330: 8830 603f 352f f73e cda9 373f 1156 323f
00000340: 688c 103f 3249 533f 4fac de3e 8385 663f
00000350: fc7d a93e e290 713f d92a 803e 6dd9 773f
00000360: 6e20 413e e367 7b3f c234 113e c169 7d3f
00000370: c219 da3d 518b 7e3f 37b0 a33d 562e 7f3f
00000380: 4630 283f bdff 403f f8fb 5bbf 57ee 023f
00000390: 70b6 36bf 5e4f 33bf 6d1b 413e 2168 7bbf
000003a0: 6ee8 4c3f bc74 19bf a7fb 7e3f 4a5e b6bd
000003b0: 4484 723f baf8 a33e 68be 4d3f 6155 183f
000003c0: 72eb 243f b3cc 433f 4b4b 003f 4e88 5d3f
000003d0: de60 c43e c66b 6c3f 5ff3 943e 69ed 743f
000003e0: 50d3 603e eac0 793f 5333 293e 297b 7c3f
000003f0: ba46 fe3d e904 7e3f 68e5 be3d aee2 7e3f

transformer_encoder.layers.0.self_attn.qlinear.weight f4 [32, 32]
-0.036685523 -0.009882951 0.16013192 0.027277503 0.0405475 0.15964769 0.110046305 -0.027476057
-0.024758134 0.05548112 0.08307905 0.13278866 -0.047679886 0.009627752 0.0032263622 0.13932706
0.13886295 0.0027310946 -0.14106415 -0.035371322 0.042907957 -0.049748685 -0.012456543 -0.12068933
0.077975124 0.05833486 -0.15474978 0.015465575 -0.119115144 0.06542329 0.022104293 -0.04236093
-0.16340145 0.16236933 -0.13411373 0.03334726 0.083556674 0.078298114 -0.16553977 -0.0951554
-0.0739243 0.09636689 -0.15601571 -0.08703233 -0.021815166 0.05909298 0.07530852 0.11384776
0.043529432 -0.131289 -0.1268976 0.13469005 0.053024147 0.022825595 0.07738833 -0.10195063
0.07339366 -0.13870898 0.09083486 -0.08907182 0.030550627 0.17234367 0.03160076 -0.11170327
0.10001234 -0.10134212 -0.11140748 -0.070862316 0.11283486 -0.15261643 0.053594165 -0.15410434
0.16961603 0.044870354 0.1279114 -0.05879637 -0.038569614 -0.1680057 -0.032977633 -0.14712304
-0.07472935 -0.042576537 -0.00972391 -0.16397825 0.019833464 -0.14638636 0.09057297 0.12393127
-0.05868011 0.07403058 0.16920398 0.06758367 0.054510098 0.04342375 0.108902864 -0.028771652
-0.13044645 -0.15397295 0.03673749 0.15307303 -0.02102879 -0.13163254 -0.11528539 -0.1393013
-0.08555429 0.09533495 -0.08189147 -0.017074278 -0.041407086 -0.011523496 0.0061760093 -0.15640938
-0.16444613 -0.005778986 0.090993635 -0.03457681 0.01554755 0.11020079 -0.12207137 0.1519418
-0.10676764 -0.1752067 0.060959578 -0.17018764 0.002917152 0.013760862 -0.056344476 0.040684983
-0.17670667 -0.061602086 0.007017745 -0.066438355 -0.123677604 0.037095 0.14175484 0.17073336
-0.036508083 -0.076145 0.07390555 -0.120336056 0.07274986 -0.14778188 -0.06372437 -0.1530872
-0.14580677 -0.061584912 0.13090894 0.018643849 -0.020278998 0.053523842 -0.008000062 -0.108234204
-0.021118268 0.10028581 0.06428069 0.102414645 0.1408893 -0.12184567 0.05725525 0.046221014
-0.1703694 0.09094765 -0.0089943055 0.051274676 0.029461194 -0.012704661 0.09193719 0.063228786
-0.11599179 -0.08617861 0.016324423 -0.16080368 0.16032206 0.06733576 -0.16485517 0.12033465
-0.027057918 0.077024356 0.10790565 -0.004382682 -0.02609522 0.12658368 0.027273605 0.0067158053
0.16342828 -0.15359947 1.9661504e-05 -0.11725723 -0.12066141 0.05472707 0.13305463 -0.102694966
0.12565996 -0.038357466 0.05302594 0.020812599 0.010403401 0.14185491 0.12534538 0.05974223
-0.16571218 -0.08098112 -0.15219602 -0.1551603 -0.13433674 -0.056461222 -0.07235575 -0.10323588
0.13942455 -0.01292943 0.12503493 0.0062094317 -0.07574855 -0.04728516 0.037317134 -0.12943497
-0.11287442 0.08857031 -0.046226114 -0.111552045 -0.051438037 -0.05541065 0.14078672 -0.065983884
-0.045658145 -0.17562477 -0.043764442 -0.147559 0.16389021 -0.012366601 -0.16375294 -0.14151414
-0.12915726 0.15615563 -0.06595794 0.10890025 -0.061028868 0.15755868 0.16956194 -0.07311957
0.008120834 -0.03946085 0.16375698 0.011565263 0.035002347 -0.048358873 -0.11390108 0.07889167
-0.11580394 0.072834074 0.06858055 -0.14972484 0.16482836 -0.13202225 0.11347251 -0.062773876
00000000: 8f43 16bd 1aec 21bc 9ff9 233e 1275 df3c
00000010: 2315 263d af7a 233e f55f e13d 7815 e1bc
00000020: 92d1 cabc 2c40 633d 5925 aa3d c0f9 073e
00000030: fc4b 43bd b8bd 1d3c 6071 533b c1ab 0e3e
00000040: 1732 0e3e 2afc 323b 1f73 10be 85e1 10bd
00000050: 41c0 2f3d 47c5 4bbd 8716 4cbc f82b f7bd
00000060: 6cb1 9f3d 89f0 6e3d ba76 1ebe 5363 7d3c
00000070: a4f2 f3bd a5fc 853d 1014 b53c a882 2dbd
00000080: b652 27be 2544 263e 1c55 09be 2397 083d
00000090: c31f ab3d c35a a03d 4283 29be d6e0 c2bd
000000a0: a065 97bd 015c c53d 95c2 1fbe 023e b2bd
000000b0: b8b5 b2bc 7b0b 723d 5a3b 9a3d 0429 e93d
000000c0: eb4b 323d a070 06be 72f1 01be 30ec 093e
000000d0: d92f 593d befc ba3c c67d 9e3d 7ecb d0bd
000000e0: 6a4f 963d ba09 0ebe a107 ba3d 496b b6bd
000000f0: 4f45 fa3c dc7a 303e cc6f 013d afc4 e4bd
00000100: 45d3 cc3d 758c cfbd 9b29 e4bd 4320 91bd
00000110: f715 e73d 7b47 1cbe 8e85 5b3d 87cd 1dbe
00000120: d3af 2d3e fac9 373d 35fb 023e 76d4 70bd
00000130: 2cfb 1dbd b009 2cbe 8e13 07bd 6ca7 16be
00000140: b40b 99bd bc64 2ebd 0951 1fbc eae9 27be
00000150: ca79 a23c 4ee6 15be 527e b93d adcf fd3d
00000160: 8e5a 70bd 589d 973d cf43 2d3e 4f69 8a3d
00000170: fb45 5f3d 1add 313d 7708 df3d 87b2 ebbc
00000180: c193 05be 16ab 1dbe 0d7a 163d 2dbf 1c3e
00000190: 9244 acbc aeca 06be bf1a ecbd 00a5 0ebe
000001a0: 1637 afbd f83e c33d b7b6 a7bd 5bdf 8bbc
000001b0: 7a9a 29bd 0ccd 3cbc 1f60 ca3b c829 20be
000001c0: 9164 28be a65d bdbb df5a ba3d 6aa0 0dbd
000001d0: 27bb 7e3c f4b0 e13d 8e00 fabd a296 1b3e
000001e0: fea8 dabd 6369 33be c0b0 793d ab45 2ebe
000001f0: b02d 3f3b 3d75 613c 77c9 66bd 4ca5 263d
00000200: 98f2 34be 7852 7cbd 1df5 e53b d510 88bd
00000210: af4a fdbd edf0 173d 2e28 113e bad4 2e3e
00000220: 8089 15bd e9f1 9bbd cb5b 973d c072 f6bd
00000230: e1fd 943d 2254 17be ec81 82bd e4c2 1cbe
00000240: 5f4e 15be 7640 7cbd fe0c 063e fcba 983c
00000250: 2420 a6bc d13b 5b3d b112 03bc e5a9 ddbd
00000260: 3800 adbc a662 cd3d 98a5 833d c5be d13d
00000270: 4945 103e 398a f9bd 7b84 6a3d 3f52 3d3d
00000280: 5175 2ebe c342 ba3d da5c 13bc 6505 523d
00000290: 9a58 f13c 3627 50bc 9149 bc3d 187e 813d
000002a0: 1b8d edbd 697e b0bd ccba 853c b8a9 24be
000002b0: 772b 243e 55e7 893d cbcf 28be 0372 f63d
000002c0: 91a8 ddbc f2be 9d3d a3fd dc3d 9a9c 8fbb
000002d0: a5c5 d5bc 279f 013e e56c df3c 4210 dc3b
000002e0: be59 273e 2e49 1dbe c2ee a437 8f24 f0bd
000002f0: 541d f7bd 7e29 603d 793f 083e bd51 d2bd
00000300: 01ad 003e b81c 1dbd ba31 593d 2f7f aa3c
00000310: 0773 2a3c 6a42 113e 8a5a 003e 45b4 743d
00000320: 74b0 29be 6ed9 a5bd 46d9 1bbe 57e2 1ebe
00000330: 928f 09be e243 67bd 402f 94bd 556d d3bd
00000340: 4fc5 0e3e f6d5 53bc 2809 003e 7d78 cb3b
00000350: 0e22 9bbd 15ae 41bd dad9 183d 9a8a 04be
00000360: b42a e7bd 5a64 b53d 9857 3dbd 6675 e4bd
00000370: b1b0 52bd 47f6 62bd 652a 103e 8f22 87bd
00000380: 0904 3bbd fbd6 33be 5842 33bd b519 17be
00000390: d6d2 273e 499d 4abc daae 27be 15e9 10be
000003a0: cd41 04be 43e7 1f3e f514 87bd 1807 df3d
000003b0: 68f9 79bd 1057 213e a5a1 2d3e b7bf 95bd
000003c0: 3f0d 053c b3a1 21bd e9af 273e 3b7c 3d3c
000003d0: 9f5e 0f3d f413 46bd f844 e9bd f591 a13d
000003e0: 9e2a edbd 082a 953d f673 8c3d 7851 19be
000003f0: c4c8 283e d730 07be 4664 e83d 978f 80bd

transformer_encoder.layers.0.self_attn.qlinear.bias f4 [32]
0.1385079 -0.007434788 -0.06410141 -0.046508983 0.016746756 0.15068516 0.0001933908 -0.1398413
-0.13572682 -0.11156182 -0.0653316 -0.1270725 -0.12443433 -0.12955748 -0.09425978 1.9809018e-05
0.031176845 0.097027525 -0.07604807 0.15746383 -0.008533325 0.1258295 -0.17199126 -0.06494814
0.09815103 0.042194556 0.030571954 0.06309718 -0.06244283 0.14925109 -0.055514604 -0.09096963
00000000: 04d5 0d3e 869f f3bb 9a47 83bd 3480 3ebd
00000010: 7e30 893c 364d 1a3e f3c8 4a39 8f32 0fbe
00000020: f9fb 0abe 867a e4bd 93cc 85bd 4b1f 02be
00000030: 6dd7 febd b7aa 04be 460b c1bd 8b2b a637
00000040: 9566 ff3c 5eb6 c63d 17bf 9bbd 333e 213e
00000050: 5ccf 0bbc 73d9 003e 7a1e 30be 8803 85bd
00000060: 6803 c93d 33d4 2c3d 0972 fa3c 1839 813d
00000070: 0ec4 7fbd 47d5 183e 4863 63bd 494e babd

transformer_encoder.layers.0.self_attn.klinear.weight f4 [32, 32]
-0.068132594 -0.1032135 0.070159264 -0.17159855 -0.0003106012 0.1663059 0.042286586 0.009018646
-0.03118127 0.02913542 0.15353574 -0.09555192 0.04187304 0.025732126 -0.10707369 0.11864089
0.0704796 0.15172686 0.025149824 -0.08451065 -0.08846554 0.07186981 0.13629511 0.12797865
-0.0014190001 -0.084295616 0.08943468 -0.016845843 -0.025757898 -0.08875148 -0.13974822 0.145871
0.14050055 -0.032478023 -0.1172551 -0.05591808 0.06589206 -0.016479945 -0.1069189 -0.0010045702
0.0564957 0.06476727 -0.12681818 0.08145123 0.06272667 -0.13001929 -0.0023327859 -0.05868074
-0.014332878 -0.09735741 0.08176432 0.11930455 0.12963979 0.124020725 0.02606907 -0.09957979
-0.1688137 -0.05626832 -0.0872574 0.1625211 -0.14525169 -0.12501676 -0.08810451 -0.11690779
-0.14724785 0.022763724 0.048254937 0.0045934375 0.089436285 -0.11012002 0.036820456 0.13084926
-0.020269431 0.021472765 0.009431095 -0.08571213 0.14609313 -0.011001191 0.08279771 0.14947946
-0.12219202 -0.1257966 -0.119534805 0.16543724 -0.09344361 -0.12774958 0.115317844 0.059644196
0.078806095 -0.0020479152 -0.048703443 0.15843338 0.08886313 -0.17389286 -0.17427962 0.045927398
-0.011963382 0.09230333 -0.15115103 0.16842468 -0.07884552 0.11491964 -0.019562755 -0.0065468173
-0.101058446 0.08605632 0.13949107 0.012572869 -0.15004835 -0.01714477 -0.080325805 -0.08609191
-0.14948511 0.03696736 -0.0317755 -0.08573008 -0.011746053 -0.095229305 -0.14406206 0.16537866
0.085233994 -0.17229281 -0.14511871 0.009537241 -0.16166684 0.061876737 -0.17027295 0.16231567
0.1699182 0.17143698 0.067949444 -0.10391168 -0.08201206 0.08896409 -0.14282104 -0.10186183
0.17317875 -0.13730554 0.12919784 0.006079156 0.051170446 0.16607632 0.1496178 0.12449146
-0.16680172 0.044439677 -0.047526576 0.1645306 0.08608932 -0.055246487 0.09816465 -0.13307583
0.047702454 0.115372 -0.057814285 0.0755225 -0.028985336 0.002198253 0.13735843 0.10285565
0.029845553 0.08545025 -0.007060419 0.13951409 -0.1043931 -0.0995034 0.12881866 -0.13588837
-0.09268865 0.028182501 -0.16341892 -0.08412346 -0.1425102 -0.062395878 -0.15310961 0.16168374
-0.092483714 0.11656109 -0.07851726 -0.0009255026 0.13177572 -0.008047878 0.096884646 -0.1113824
-0.1608559 -0.062209655 0.0854953 -0.020657288 0.14707802 0.013437131 -0.15864497 0.17135526
-0.08521884 0.09086376 0.12732378 -0.10611369 -0.07582534 0.048491802 -0.058656402 -0.15285745
0.118426636 0.16021357 0.07559151 0.06279387 -0.14661348 0.072299756 0.114140116 -0.14660954
-0.059765812 0.015707266 -0.077018306 -0.13746709 0.16044281 0.089481615 0.116606966 0.11763358
-0.055944882 0.10664556 -0.11621656 -0.01645807 -0.052702274 -0.09735313 -0.034818016 0.01746774
-0.07537395 -0.050518833 -0.11029278 -0.14568648 0.102277316 0.06552638 0.13662872 -0.11186852
0.11207968 -0.069941096 -0.06633707 -0.14637873 0.058338232 0.014832319 0.066151924 0.042241637
-0.0012382322 -0.16145699 -0.0077712466 -0.04637287 -0.0038613467 -0.106944546 -0.013125287 0.070049345
-0.03255151 -0.16764012 0.11120935 -0.109160714 -0.17243552 0.06714286 -0.06804392 -0.055598248
00000000: 1a89 8bbd 9961 d3bd a9af 8f3d 88b7 2fbe
00000010: 30d8 a2b9 184c 2a3e b334 2d3d f1c2 133c
00000020: dd6f ffbc 68ad ee3c 7938 1d3e bab0 c3bd
00000030: 1183 2b3d 2ecc d23c 7349 dbbd fff9 f23d
00000040: 9c57 903d 495e 1b3e 0107 ce3c eb13 adbd
00000050: 6c2d b5bd 7b30 933d f290 0b3e d60c 033e
00000060: befd b9ba 2ea3 acbd 8829 b73d 4b00 8abc
00000070: 3a02 d3bc 56c3 b5bd 281a 0fbe 355f 153e
00000080: 60df 0f3e ad07 05bd 7123 f0bd 5b0a 65bd
00000090: 6bf2 863d f300 87bc 4cf8 dabd c8ab 83ba
000000a0: 0968 673d b4a4 843d a0dc 01be e7cf a63d
000000b0: d776 803d c723 05be a7e1 18bb 375b 70bd
000000c0: 73d4 6abc 5263 c7bd 0d74 a73d f255 f43d
000000d0: 4bc0 043e 94fe fd3d cd8e d53c 7df0 cbbd
000000e0: 80dd 2cbe 9c79 66bd 02b4 b2bd ee6b 263e
000000f0: dcbc 14be 6504 00be 2370 b4bd 5a6d efbd
00000100: 24c8 16be fd7a ba3c f8a6 453d 8c84 963b
00000110: 5f2a b73d 9b86 e1bd 0cd1 163d 59fd 053e
00000120: 140c a6bc a7e7 af3c e184 1a3c d789 afbd
00000130: 7099 153e 573e 34bc d991 a93d 2511 193e
00000140: cf3f fabd d3d0 00be aace f4bd 6168 293e
00000150: 5d5f bfbd c9d0 02be c32b ec3d 794d 743d
00000160: 1765 a13d 5136 06bb 437d 47bd 5c3c 223e
00000170: dffd b53d f810 32be 5b76 32be 5e1e 3c3d
00000180: 1002 44bc 8709 bd3d 56c7 1abe 8577 2c3e
00000190: c379 a1bd fd5a eb3d 1242 a0bc af86 d6bb
000001a0: bbf7 cebd 4c3e b03d bfd6 0e3e 6ffe 4d3c
000001b0: 46a6 19be 3073 8cbc db81 a4bd f550 b0bd
000001c0: a012 19be 166b 173d 0727 02bd 4193 afbd
000001d0: 8472 40bc 9507 c3bd 0185 13be 0659 293e
000001e0: 298f ae3d 876d 30be 009a 14be 1742 1c3c
000001f0: fe8b 25be 7672 7d3d 085c 2ebe 1436 263e
00000200: 09ff 2d3e 2d8d 2f3e 1429 8b3d a6cf d4bd
00000210: f0f5 a7bd ce32 b63d ae3f 12be ef9c d0bd
00000220: c555 313e d399 0cbe 704c 043e a833 c73b
00000230: 1a98 513d e90f 2a3e 6935 193e 61f5 fe3d
00000240: 12ce 2abe 6106 363d 3aab 42bd b67a 283e
00000250: 994f b03d 244a 62bd 8c0a c93d 0845 08be
00000260: a663 433d 2848 ec3d acce 6cbd 8aab 9a3d
00000270: a872 edbc 9110 103b b0a7 0c3e fca5 d23d
00000280: a97e f43c 8a00 af3d 165b e7bb c8dc 0e3e
00000290: 0dcc d5bd 70c8 cbbd 0ae9 033e 5226 0bbe
000002a0: 8cd3 bdbd fdde e63c 4a57 27be ec48 acbd
000002b0: 32ee 11be d292 7fbd c4c8 1cbe 6c90 253e
000002c0: 1a68 bdbd 95b7 ee3d a8cd a0bd 6e9d 72ba
000002d0: 37f0 063e 3fdb 03bc 756b c63d 751c e4bd
000002e0: 69b7 24be 8dcf 7ebd 2918 af3d 7939 a9bc
000002f0: 9f9b 163e 6a27 5c3c d473 22be c177 2f3e
00000300: 3787 aebd c716 ba3d 2a61 023e 2252 d9bd
00000310: 514a 9bbd 579f 463d b241 70bd aa86 1cbe
00000320: aa89 f23d 070f 243e b9cf 9a3d 139a 803d
00000330: d821 16be e511 943d 4bc2 e93d d020 16be
00000340: ffcc 74bd 86ac 803c c6bb 9dbd 2cc4 0cbe
00000350: 1f4b 243e 2342 b73d a2cf ee3d e0e9 f03d
00000360: 7626 65bd fd68 da3d f302 eebd 13d3 86bc
00000370: 57de 57bd 1461 c7bd 569d 0ebd 8218 8f3c
00000380: a85d 9abd d6ec 4ebd 2ee1 e1bd d62e 15be
00000390: c576 d13d b232 863d 66e8 0b3e 531b e5bd
000003a0: 088a e53d 473d 8fbd bbdb 87bd 4ee4 15be
000003b0: 12f4 6e3d 4103 733c a97a 873d 9105 2d3d
000003c0: 2e4c a2ba fb54 25be f1a5 febb 7bf1 3dbd
000003d0: a60e 7dbb be05 dbbd 720b 57bc 0876 8f3d
000003e0: bb54 05bd daa9 2bbe bac1 e33d a78f dfbd
000003f0: f092 30be 3282 893d 9c5a 8bbd fdba 63bd

transformer_encoder.layers.0.self_attn.klinear.bias f4 [32]
-0.07998197 0.17643836 0.16115399 -0.053866033 -0.087452136 -0.13210042 -0.07335975 -0.14988261
-0.16895784 0.067992724 0.00580615 -0.12830208 -0.020322304 0.054572266 -0.09643037 -0.11458992
-0.026223917 0.021191856 -0.0656607 -0.15582891 0.01119671 0.13841075 0.17370103 -0.15974924
-0.087118104 -0.055700935 -0.1676882 -0.0077972724 -0.13337795 -0.11733299 -0.0721456 0.15790667
00000000: 96cd a3bd 42ac 343e 8d05 253e a1a2 5cbd
00000010: 1b1a b3bd 5545 07be a33d 96bd d47a 19be
00000020: 4903 2dbe c53f 8b3d 8441 be3b 9f61 03be
00000030: f67a a6bc 2b87 5f3d 497d c5bd 1fae eabd
00000040: 8ad3 d6bc 8b9a ad3c 1e79 86bd 9d91 1fbe
00000050: 6872 373c 8cbb 0d3e afde 313e 4e95 23be
00000060: fa6a b2bd aa26 64bd 75b6 2bbe 4380 ffbb
00000070: 3b94 08be 474c f0bd 13c1 93bd 49b2 213e

transformer_encoder.layers.0.self_attn.vlinear.weight f4 [32, 32]
0.15070617 -0.1071167 -0.12469912 0.056096297 -0.06782391 0.014547448 0.083779104 0.104570925
-0.08025616 -0.12756114 0.16959777 -0.15402031 0.0846853 0.08390076 0.15668514 0.15014313
-0.055573337 -0.04869866 0.13773529 -0.13294163 0.051633786 -0.07627096 -0.166517 0.08873195
-0.08576835 -0.16297624 0.0057393047 -0.03273316 -0.0148917455 -0.11429732 0.02719163 0.11357711
-0.16963762 0.058517758 0.13295272 0.16704716 -0.1714511 -0.00088845554 0.052169897 0.17388014
0.0950493 0.15794066 0.14381796 -0.14577687 -0.099121965 0.12631686 -0.15907732 -0.07878283
-0.13559765 0.10160391 0.12972675 0.11639257 0.12616824 0.11288449 -0.084687516 0.02102072
-0.14341603 -0.017740598 -0.07969889 -0.11139802 -0.0109165395 -0.06627046 0.057287555 -0.13862543
-0.15884112 0.020049782 0.08194799 0.12276433 -0.027109401 -0.00277832 -0.1222121 -0.0665397
0.15517807 -0.06014372 -0.10631831 -0.14716682 0.02526537 0.15833582 -0.07622641 0.15840237
-0.031644445 0.046195686 0.12228931 0.022687184 -0.0026349155 -0.0404281 0.034604162 -0.15409032
0.035019457 -0.11910754 -0.08413326 0.052527174 0.05723624 0.006287235 0.17372954 0.15217821
0.030195266 -0.09239436 0.043411527 -0.067905866 0.13477664 0.14654231 -0.13162494 -0.15888955
-0.14827828 0.029331319 0.098304465 0.109046936 -0.013307761 0.07346773 0.07356163 -0.033972215
-0.080703415 -0.012134288 0.094623886 -0.05870942 -0.17671458 -0.04154478 -0.017710717 -0.09950291
0.013758649 0.023905186 -0.050964244 -0.031366486 -0.10046295 0.01597728 0.028088134 0.15051988
-0.14936295 -0.09001026 0.038841397 0.048426308 -0.108097054 -0.09640531 -0.1637479 -0.05640504
-0.046079107 -0.06467836 -0.12143482 0.010698977 0.01379538 0.14171772 0.011197722 -0.043872003
0.08006616 -0.0340795 -0.061440475 0.12809947 -0.14743923 -0.09263624 -0.03289966 0.14266455
-0.08814748 -0.13013959 0.08668024 0.011282648 0.076522574 0.03779605 -0.07005143 0.07898901
-0.117420614 0.14621058 -0.17146406 -0.049886085 -0.019815741 0.14795822 0.15659048 -0.12609755
-0.15497945 0.17306517 -0.13820946 -0.15117435 -0.089196555 0.022543358 -0.030404842 -0.13306698
-0.09456758 -0.08277561 -0.07773931 -0.16556607 -0.087240495 -0.1282403 -0.06381121 0.11330278
0.098711796 -0.05267692 0.17183538 -0.056139834 0.14468077 0.048948675 0.01159405 -0.10716367
0.048148897 0.07725707 -0.0020927384 0.16502002 0.09374032 0.026253061 0.008398181 -0.009719653
0.1332272 -0.14210387 -0.09466344 0.07454884 -0.060377486 -0.09519346 0.1687514 -0.13950722
0.1324019 -0.12330132 0.08609672 -0.10823559 0.13850094 -0.15392332 -0.008121866 -0.11976332
0.09990227 -0.1541388 0.059015933 0.049724262 -0.0015371798 -0.14096469 0.021097342 -0.051241
-0.071214914 0.10752287 -0.048319086 0.08183504 0.096829854 -0.078698725 0.076400645 0.14376433
-0.032063447 0.06732474 0.05344134 0.019583723 -0.023401426 -0.12462117 0.1218882 -0.02646369
-0.055330254 0.12760966 -0.17454141 -0.13149694 -0.08116221 -0.043608036 -0.060964234 -0.03680111
0.16664922 -0.045112006 -0.040824786 -0.13406649 -0.1430568 -0.062494375 0.15436995 0.07965807
00000000: b852 1a3e 0060 dbbd 4162 ffbd 3bc5 653d
00000010: 43e7 8abd 6b58 6e3c 6194 ab3d 4829 d63d
00000020: 575d a4bd 639f 02be 0aab 2d3e 80b7 1dbe
00000030: 7d6f ad3d 29d4 ab3d 1272 203e 1fbf 193e
00000040: dea0 63bd 3f78 47bd 7b0a 0d3e da21 08be
00000050: f37d 533d f333 9cbd 6f83 2abe 19b9 b53d
00000060: 51a7 afbd 3ee3 26be c710 bc3b 3513 06bd
00000070: 82fc 73bc b714 eabd fbc0 de3c 1e9b e83d
00000080: 7cb5 2dbe 51b0 6f3d c224 083e 690e 2b3e
00000090: e190 2fbe 3ee7 68ba 1ab0 553d a30d 323e
000000a0: 35a9 c23d 32bb 213e 0445 133e 8846 15be
000000b0: 7500 cbbd 3559 013e 2ae5 22be e458 a1bd
000000c0: 1cda 0abe b615 d03d 17d7 043e 3a5f ee3d
000000d0: 3f32 013e fc2f e73d a670 adbd a533 ac3c
000000e0: a7db 12be bb54 91bc 2c39 a3bd a524 e4bd
000000f0: 49db 32bc cfb8 87bd 5ba6 6a3d d3f3 0dbe
00000100: 3fa7 22be 713f a43c 59d4 a73d dd6b fb3d
00000110: 8914 debc 7a14 36bb 564a fabd f745 88bd
00000120: 00e7 1e3e 4359 76bd 6abd d9bd e6b2 16be
00000130: 52f9 ce3c c922 223e 981c 9cbd 3b34 223e
00000140: 9b9d 01bd b037 3d3d d172 fa3d 79da b93c
00000150: 8cae 2cbb ef97 25bd 18bd 0d3d dac9 1dbe
00000160: 9070 0f3d a7ee f3bd 0f4e acbd bc26 573d
00000170: 8c70 6a3d 2605 ce3b 28e6 313e 9bd4 1b3e
00000180: 105c f73c 4139 bdbd 49d0 313d 3b12 8bbd
00000190: e302 0a3e 300f 163e b0c8 06be f1b3 22be
000001a0: 43d6 17be 3c48 f03c da53 c93d 0054 df3d
000001b0: cc08 5abc 4076 963d 7ba7 963d 7326 0bbd
000001c0: d547 a5bd e5ce 46bc 2bca c13d 4a79 70bd
000001d0: abf4 34be dc2a 2abd 1116 91bc 2fc8 cbbd
000001e0: f56b 613c cfd4 c33c e2bf 50bd 257a 00bd
000001f0: 85bf cdbd c9e2 823c 1619 e63c e221 1a3e
00000200: 9af2 18be 4d57 b8bd 2818 1f3d aa5a 463d
00000210: fd61 ddbd 2670 c5bd 88ad 27be f908 67bd
00000220: 72bd 3cbd 1776 84bd d2b2 f8bd c34a 2f3c
00000230: 0406 623c 731e 113e a676 373c 21b3 33bd
00000240: baf9 a33d f296 0bbd 02a9 7bbd 822c 033e
00000250: 4ffa 16be 12b8 bdbd cbc1 06bd a816 123e
00000260: aa86 b4bd 5043 05be 6985 b13d dbda 383c
00000270: deb7 9c3d 08d0 1a3d 2077 8fbd fdc4 a13d
00000280: 387a f0bd 3ab8 153e 4694 2fbe 5a55 4cbd
00000290: 9f54 a2bc 5c82 173e 4159 203e b71f 01be
000002a0: efb2 1ebe ff37 313e c886 0dbe 73cd 1abe
000002b0: afac b6bd d9ac b83c 9313 f9bc b642 08be
000002c0: a6ac c1bd 4286 a9bd ca35 9fbd 278a 29be
000002d0: 25ab b2bd 6d51 03be 74af 82bd 4a0b e83d
000002e0: 6929 ca3d c1c3 57bd 9df5 2f3e e2f2 65bd
000002f0: 3227 143e 687e 483d f8f4 3d3c a078 dbbd
00000300: c737 453d f438 9e3d 5326 09bb 02fb 283e
00000310: edfa bf3d a910 d73c 8698 093c 2e3f 1fbc
00000320: b66c 083e ad83 11be e8de c1bd 10ad 983d
00000330: 624e 77bd caf4 c2bd 2bcd 2c3e fbda 0ebe
00000340: 5d94 073e 6785 fcbd 7a53 b03d 9faa ddbd
00000350: 31d3 0d3e 139e 1dbe 9311 05bc 7946 f5bd
00000360: 9099 cc3d 90d6 1dbe b1ba 713d abab 4b3d
00000370: 327b c9ba 0c59 10be 55d4 ac3c 15e2 51bd
00000380: 20d9 91bd f334 dc3d 3cea 45bd 2199 a73d
00000390: bb4e c63d cc2c a1bd f177 9c3d f536 133e
000003a0: f654 03bd 8ee1 893d 4ee5 5a3d 0b6e a03c
000003b0: 59b4 bfbc 6239 ffbd 85a0 f93d 61ca d8bc
000003c0: faa1 62bd 1bac 023e fcba 32be 22a7 06be
000003d0: 5f38 a6bd 579e 32bd a2b5 79bd c3bc 16bd
000003e0: 18a6 2a3e 5ec7 38bd e437 27bd ba48 09be
000003f0: 7b7d 12be 1afa 7fbd 2813 1e3e c523 a33d

transformer_encoder.layers.0.self_attn.vlinear.bias f4 [32]
-0.09781651 -0.14320785 -0.03970916 0.084308155 -0.072991766 -0.031872056 -0.14244847 -0.15780151
-0.04967358 -0.10031934 -0.17657848 -0.13091393 0.036298677 -0.12665926 0.17375802 -0.16336167
0.0070407786 -0.12368606 0.049331326 -0.1658201 -0.10802246 0.15114766 -0.023283921 -0.07342805
0.022512676 -0.13905604 -0.12986524 0.03442373 0.053214967 -0.013039729 0.045160685 0.0425664
00000000: 0654 c8bd 14a5 12be 12a6 22bd c1a9 ac3d
00000010: b57c 95bd 468c 02bd 03de 11be b896 21be
00000020: 8676 4bbd 3a74 cdbd fdd0 34be 4d0e 06be
00000030: ecad 143d f7b2 01be 9fed 313e 4848 27be
00000040: 55b6 e63b 1e4f fdbd a50f 4a3d bfcc 29be
00000050: e13a ddbd 74c6 1a3e ecbd bebc 7261 96bd
00000060: 816c b83c b564 0ebe 65fb 04be e6ff 0c3d
00000070: f0f7 593d 96a4 55bc 69fa 383d 1b5a 2e3d

transformer_encoder.layers.0.self_attn.out_proj.weight f4 [32, 32]
0.02422529 -0.0106815705 0.16971202 -0.12923457 0.15061685 0.12432955 0.15052018 0.06088089
-0.014053065 -0.061139062 0.10249032 0.159896 -0.085997336 -0.16730861 0.13873862 -0.054985516
0.17169778 0.044140667 0.09143769 -0.011774712 0.13687292 -0.076627225 0.04361067 0.16819796
0.1634265 -0.13584127 -0.017312765 0.07153812 -0.124783754 -0.14739142 0.028255817 -0.09142833
0.015907338 -0.06188386 0.031973757 0.12362954 -0.030071417 0.04261923 0.14044918 0.05616689
0.15320402 -0.11451117 -0.11606443 0.12809426 0.024711771 0.021954589 -0.08699335 0.03160156
0.1530147 0.045111395 -0.1732648 0.10709246 -0.041655857 -0.031557918 0.16620386 -0.06198809
0.040631417 -0.14016666 -0.1448308 0.15209387 0.13533098 0.15973397 0.014765853 0.1412703
-0.15877639 -0.046041787 -0.12035974 0.004114923 0.06798936 -0.025400536 -0.08723032 0.014443809
-0.078321554 0.044163868 -0.118448325 0.11465588 -0.07625517 -0.010417268 -0.046649102 0.026959822
-0.12706196 0.16760132 -0.047967516 -0.15383019 -0.0017843079 -0.025382454 -0.1705676 0.02435485
-0.048894685 0.04499882 0.13522856 0.016606512 -0.045201987 0.025954366 0.005544123 0.08385351
0.042413995 0.17003056 -0.074228756 0.018754778 0.11580028 -0.12357749 0.11152602 0.06914736
-0.0597059 0.1468822 0.0944595 0.12658282 -0.02995503 0.04282638 0.07132338 0.021375237
-0.12242195 -0.011019904 0.07270338 0.08417724 -0.16870326 0.03168324 -0.14383231 -0.1508994
0.14270084 0.11736869 -0.12337643 -0.033377837 -0.06927054 0.061098263 -0.09168069 0.17367753
0.11046282 0.13722707 -0.14739591 -0.13908757 -0.03997066 0.16677946 0.09777517 -0.07664472
0.03921568 -0.05494965 0.117677584 0.01991388 0.0077255806 -0.15170588 -0.10132098 0.07518433
-0.16411506 -0.06332172 -0.051461976 -0.04114799 -0.17278194 -0.15366404 -0.1468992 -0.1752176
0.09309878 -0.030602679 -0.158942 0.047532395 -0.10315403 -0.090358734 -0.06849583 -0.10814477
0.15351789 0.13521206 0.0031296143 0.04844721 -0.16724883 0.1254482 0.06594945 -0.047723636
0.11752486 -0.09596171 0.13523684 0.16640353 0.04499722 0.015524686 0.12052098 0.11992993
-0.08794662 -0.12275558 0.09665233 0.16238001 -0.056258496 0.08315997 0.07036315 0.16440147
-0.026034761 0.16146585 -0.10705272 0.0148025 -0.109050795 -0.054226894 0.062333565 -0.13114803
-0.07968709 0.080344364 -0.170306 0.049234767 0.010067849 -0.06333974 -0.11326325 0.11021133
0.14373417 -0.0877981 -0.027766807 -0.13986391 -0.00614343 -0.003190116 -0.03241476 -0.1431144
0.109016806 -0.012154013 -0.10196176 -0.04150731 0.063070334 0.17302492 -0.046086334 0.06523841
-0.14875604 0.1353101 0.07269004 -0.10782976 -0.08454295 -0.008762646 0.07359141 0.06343819
-0.15022926 0.06733037 0.12072545 0.039231088 -0.023158323 -0.1529854 0.05358921 0.085719526
-0.12494496 -0.041147735 -0.03169774 0.11488812 0.085175894 -0.06942584 -0.16670823 -0.15156913
0.03423428 0.027240034 -0.124824636 0.087587535 -0.07787581 -0.14627634 0.09222303 0.06448761
0.02194816 0.1616971 -0.1607554 0.10576458 0.099720836 -0.15910698 -0.1686357 0.026027722
00000000: 1e74 c63c c101 2fbc fdc8 2d3e 1156 04be
00000010: 4e3b 1a3e 7ea0 fe3d f621 1a3e 3d5e 793d
00000020: d43e 66bc f46c 7abd 72e6 d13d c7bb 233e
00000030: 5f1f b0bd f352 2bbe 7f11 0e3e 7e38 61bd
00000040: 8bd1 2f3e d8cc 343d af43 bb3d b9ea 40bc
00000050: 6a28 0c3e bcee 9cbd 1aa1 323d 163c 2c3e
00000060: 4759 273e f919 0bbe 80d3 8dbc 9482 923d
00000070: a08e ffbd c7ed 16be be78 e73c c73e bbbd
00000080: 1b50 823c ee79 7dbd eaf6 023d 7c31 fd3d
00000090: 5558 f6bc 8091 2e3d e9d1 0f3e 410f 663d
000000a0: 84e1 1c3e d584 eabd 30b3 edbd 242b 033e
000000b0: 5770 ca3c 1cda b33c 9229 b2bd a370 013d
000000c0: e3af 1c3e bac6 383d 546c 31be 4b53 db3d
000000d0: 559f 2abd e042 01bd 5831 2a3e 39e7 7dbd
000000e0: 216d 263d d987 0fbe 864e 14be 7fbe 1b3e
000000f0: 3494 0a3e 4d91 233e 7aec 713c 29a9 103e
00000100: 4796 22be 5096 3cbd 2b7f f6bd 7ad6 863b
00000110: 013e 8b3d c914 d0bc cfa5 b2bd baa5 6c3c
00000120: 0d67 a0bd 2ce5 343d 0995 f2bd b4d0 ea3d
00000130: ac2b 9cbd 30ad 2abc 2113 3fbd d8da dc3c
00000140: 881c 02be ae9f 2b3e 9679 44bd a985 1dbe
00000150: 70df e9ba ddee cfbc 46a9 2ebe d383 c73c
00000160: cb45 48bd af50 383d 5b79 0a3e 610a 883c
00000170: b825 39bd 409e d43c 79ab b53b 64bb ab3d
00000180: 4cba 2d3d 7e1c 2e3e 3f05 98bd 9fa3 993c
00000190: b228 ed3d 3216 fdbd c167 e43d 229d 8d3d
000001a0: 2c8e 74bd 4a68 163e fb73 c13d ed9e 013e
000001b0: 4064 f5bc b76a 2f3d fe11 923d 1f1b af3c
000001c0: 5cb8 fabd d48c 34bc 82e5 943d 1e65 ac3d
000001d0: 8cc0 2cbe 49c6 013d c748 13be 5f85 1abe
000001e0: 2b20 123e ff5e f03d c8ac fcbd 33b7 08bd
000001f0: b6dd 8dbd 2c42 7a3d 16c3 bbbd 86d8 313e
00000200: 553a e23d 4185 0c3e f4ee 16be f96c 0ebe
00000210: 46b8 23bd 3cc8 2a3e 593e c83d e8f7 9cbd
00000220: 9fa0 203d e212 61bd f200 f13d 6f22 a33c
00000230: de26 fd3b c958 1bbe 6081 cfbd 3efa 993d
00000240: c70d 28be d1ae 81bd cbc9 52bd cb8a 28bd
00000250: c0ed 30be 1b5a 1dbe be6c 16be 3e6c 33be
00000260: 93aa be3d 78b2 fabc b1c1 22be 54b1 423d
00000270: 6c42 d3bd 000e b9bd 8b47 8cbd 017b ddbd
00000280: cb33 1d3e 0875 0a3e 371a 4d3b 9570 463d
00000290: 4743 2bbe 7e75 003e 8110 873d dc79 43bd
000002a0: e0b0 f03d 9387 c4bd 877b 0a3e b065 2a3e
000002b0: 014f 383d 415b 7e3c b4d3 f63d d39d f53d
000002c0: 5c1d b4bd 4767 fbbd a8f1 c53d f246 263e
000002d0: 4f6f 66bd c64f aa3d 8e1a 903d dc58 283e
000002e0: da46 d5bc 4e57 253e 753e dbbd 2f86 723c
000002f0: 0656 dfbd 051d 5ebd 7b51 7f3d ab4b 06be
00000300: fc32 a3bd 968b a43d b264 2ebe 65aa 493d
00000310: 9ff3 243c 44b8 81bd 90f6 e7bd 7ab6 e13d
00000320: 0d2f 133e 7ecf b3bd 3777 e3bc 7c38 0fbe
00000330: d34e c9bb 4411 51bb 57c5 04bd 958c 12be
00000340: 3444 df3d a021 47bc 54d1 d0bd 9203 2abd
00000350: 052b 813d 722d 313e 06c5 3cbd b79b 853d
00000360: 8153 18be bb8e 0a3e 84de 943d d9d5 dcbd
00000370: db24 adbd 3391 0fbc 18b7 963d e2eb 813d
00000380: b3d5 19be 81e4 893d e83e f73d c7b0 203d
00000390: 86b6 bdbc 34a8 1cbe 5c80 5b3d b88d af3d
000003a0: 25e3 ffbd 878a 28bd 7dd5 01bd 764a eb3d
000003b0: b370 ae3d 232f 8ebd 90b5 2abe f034 1bbe
000003c0: 3f39 0c3d 7e26 df3c 0fa4 ffbd 1861 b33d
000003d0: 5a7d 9fbd 77c9 15be 6edf bc3d 1412 843d
000003e0: a1cc b33c ed93 253e 109d 24be 1a9b d83d
000003f0: 703a cc3d f1ec 22be d6ae 2cbe 1738 d53c

transformer_encoder.layers.0.self_attn.out_proj.bias f4 [32]
0.01756314 0.0031902003 -0.13660413 -0.022477947 0.079049595 0.12970066 0.10641611 -0.16308424
-0.09469933 -0.0018163816 -0.01997908 -0.11415122 0.088264816 -0.10481771 0.041175973 0.00033038913
0.112042926 -0.07058234 -0.15688004 -0.083207995 0.13989668 -0.0841402 0.084859036 0.066341184
-0.013600366 0.13065715 0.06784951 0.1756531 -0.16777185 -0.06603231 -0.089977264 0.007423282
00000000: 93e0 8f3c ae12 513b f4e1 0bbe ac23 b8bc
00000010: c1e4 a13d 40d0 043e b1f0 d93d 8eff 26be
00000020: b9f1 c1bd a713 eeba 2bab a3bc 1dc8 e9bd
00000030: 2fc4 b43d abaa d6bd 23a8 283d 1438 ad39
00000040: c376 e53d 798d 90bd 29a5 20be f468 aabd
00000050: 1341 0f3e b251 acbd 93ca ad3d e3dd 873d
00000060: 12d4 5ebc fdca 053e aff4 8a3d 68de 333e
00000070: 62cc 2bbe f33b 87bd 0046 b8bd 013f f33b

transformer_encoder.layers.0.linear1.weight f4 [16, 32]
0.06593012 -0.11821 0.17514779 -0.15873532 0.08976054 -0.08499106 0.057540245 -0.04278181
-0.07560228 0.1014277 -0.14691482 0.022442374 0.09387759 -0.10882588 -0.16125396 0.14236026
-0.109690435 0.010488939 0.098333105 0.04618717 0.10930441 -0.10325101 0.11226637 0.12326316
-0.06514086 -0.009557662 -0.10768583 -0.036922958 0.06396652 -0.06560471 0.14195754 0.17211825
0.15268713 0.11238769 0.1288312 -0.02206714 0.015782708 0.08051822 -0.0059211054 0.13150004
-0.15141584 0.029450363 -0.10945068 0.10092204 0.011255969 0.14239037 0.110686265 0.17492461
0.105346024 -0.11962129 0.0799142 0.016174674 0.0029604998 0.16225453 0.14030717 -0.15361886
0.058494154 -0.10155433 0.0500705 0.10233284 0.015425072 0.06846258 -0.16336732 0.1742699
0.009892076 -0.15333794 -0.011983086 -0.079604544 0.06991264 -0.046849616 -0.1202101 0.016853113
-0.13165347 -0.0804589 0.1704038 0.1341122 -0.025514416 -0.11578906 -0.11594699 0.08401165
-0.13201429 -0.117813 -0.04336607 0.05435565 0.14161107 0.12458891 -0.15577161 0.015731227
-0.052850083 -0.033494733 -0.024164937 -0.12169483 -0.16548418 0.03582674 0.0058627953 0.07507997
0.11965065 -0.03430239 -0.16828847 0.018622711 0.13159664 0.15263762 0.01483902 0.083041705
0.16971184 0.11171958 -0.084831424 0.15572017 -0.049748812 0.07187346 -0.013051846 0.09987292
-0.12603725 0.06500717 0.065961964 -0.05378747 0.14807248 -0.072529644 -0.13509806 -0.059353802
-0.13264987 0.11059177 -0.068104036 0.10281075 0.052760225 -0.010172837 0.010360096 0.11541455
-0.047491554 -0.110787205 0.15872374 0.17213677 -0.07469104 0.0223298 -0.17268856 -0.16184501
0.07247538 -0.1201701 -0.17155604 -0.031386483 -0.114042334 -0.17644453 0.054947644 -0.13794167
-0.026013013 0.10214767 0.17323522 -0.09511254 -0.03458901 0.1196784 0.0579257 0.078212515
0.08110467 0.157136 0.06180947 0.056250468 0.011037143 0.10657016 -0.16302064 0.1533669
-0.15738092 0.12575112 -0.15057206 0.109847285 0.025046628 0.16075872 -0.12298617 -0.17571309
0.14729257 0.12105121 0.15984407 -0.09340679 0.07670298 -0.13338277 -0.0047294665 -0.09866748
-0.15807065 -0.038080435 -0.032073855 0.07506607 -0.01480897 0.09620711 -0.00495354 0.030697256
-0.018729975 -0.09028397 -0.037868142 0.14857607 0.028074732 0.0072774542 0.0028350288 0.08871304
0.017457288 0.091356225 -0.019589897 0.002726332 0.03947617 0.084515534 -0.16323 -0.013202352
-0.012378318 0.016939787 -0.1363189 0.118143916 -0.0044792406 0.13189457 0.15454881 0.04536849
0.044659957 0.16667959 0.07282733 0.1331593 0.06851834 0.055294894 0.013249895 -0.09259498
-0.118311115 -0.12058776 0.012127355 -0.010389388 -0.1574743 0.096390136 0.124699645 -0.059464164
0.1432066 -0.12578073 0.16098721 -0.07897976 0.020962914 -0.058799256 0.15051505 -0.02883601
0.11761567 -0.1667814 -0.15714668 -0.03621763 0.00853067 0.08038902 0.031154485 0.05529106
-0.1530864 -0.13727131 0.05226565 0.11174322 -0.11913757 0.13441427 -0.08872057 0.0051832614
-0.12310909 -0.06183874 -0.09756997 -0.13356987 -0.1682109 -0.1575364 0.1417406 -0.13099352
00000000: 5f06 873d 1618 f2bd f159 333e 838b 22be
00000010: 60d4 b73d cb0f aebd 52af 6b3d fb3b 2fbd
00000020: 5ed5 9abd 53b9 cf3d d770 16be 12d9 b73c
00000030: e542 c03d 1ae0 debd c21f 25be e3c6 113e
00000040: 61a5 e0bd ccd9 2b3c de62 c93d c22e 3d3d
00000050: feda df3d 4475 d3bd e9eb e53d 6571 fc3d
00000060: 9268 85bd bd97 1cbc 638a dcbd 873c 17bd
00000070: e100 833d c35b 86bd 515d 113e c43f 303e
00000080: 045a 1c3e 842b e63d 53ec 033e 26c6 b4bc
00000090: bd4a 813c bde6 a43d d505 c2bb f2a7 063e
000000a0: c10c 1bbe e341 f13c ae27 e0bd 37b0 ce3d
000000b0: f56a 383c c8ce 113e 7baf e23d 701f 333e
000000c0: a8bf d73d 02fc f4bd 0eaa a33d c080 843c
000000d0: f204 423b 0d26 263e afac 0f3e 434e 1dbe
000000e0: 9197 6f3d b7fb cfbd b916 4d3d e193 d13d
000000f0: 71b9 7c3c 1c36 8c3d c349 27be cf73 323e
00000100: 6012 223c 9f04 1dbe b554 44bc b507 a3bd
00000110: 5c2e 8f3d 62e5 3fbd b730 f6bd 8a0f 8a3c
00000120: 2bd0 06be a3c7 a4bd 557e 2e3e b554 093e
00000130: 9c03 d1bc d122 edbd 9e75 edbd 4d0e ac3d
00000140: c12e 07be f147 f1bd 9fa0 31bd 08a4 5e3d
00000150: 7e02 113e 7828 ff3d 9882 1fbe c6de 803c
00000160: 5479 58bd c631 09bd 8cf5 c5bc 243b f9bd
00000170: af74 29be 0fbf 123d b11c c03b 87c3 993d
00000180: 660b f53d aa80 0cbd d053 2cbe a88e 983c
00000190: 45c1 063e 094d 1c3e 5c1f 733c c511 aa3d
000001a0: f1c8 2d3e 3ccd e43d 19bc adbd 1c75 1f3e
000001b0: 69c5 4bbd 6532 933d 69d7 55bc 2c8a cc3d
000001c0: e90f 01be 7b22 853d 1117 873d 4050 5cbd
000001d0: 50a0 173e 6c8a 94bd 2557 0abe f91c 73bd
000001e0: 5ed5 07be f07d e23d 217a 8bbd 718e d23d
000001f0: 1b1b 583d f9ab 26bc 64bd 293c 775e ec3d
00000200: 8186 42bd 67e4 e2bd 7a88 223e 9f44 303e
00000210: 9ef7 98bd fcec b63c 45d5 30be b3ba 25be
00000220: f96d 943d be1b f6bd 63ac 2fbe 1d8f 00bd
00000230: 078f e9bd e0ad 34be c810 613d 9540 0dbe
00000240: 3e19 d5bc cc32 d13d 9364 313e 5dca c2bd
00000250: 35ad 0dbd f319 f53d 8043 6d3d e22d a03d
00000260: 351a a63d 42e8 203e ed2b 7d3d e466 663d
00000270: 22d5 343c 7541 da3d e2ee 26be 360c 1d3e
00000280: 7728 21be e7c4 003e 902f 1abe 9df7 e03d
00000290: 962e cd3c ef9d 243e 2ce0 fbbd 22ee 33be
000002a0: ddd3 163e b2e9 f73d 2aae 233e 0f4c bfbd
000002b0: 7416 9d3d 7e95 08be a4f9 9abb 2d12 cabd
000002c0: 46dd 21be 3bfa 1bbd e05f 03bd 3dbc 993d
000002d0: 52a1 72bc 3c08 c53d 4e51 a2bb d078 fb3c
000002e0: 9b6f 99bc cde6 b8bd a01b 1bbd 5324 183e
000002f0: fbfc e53c b677 ee3b e4cb 393b 2faf b53d
00000300: 9602 8f3c f918 bb3d fe7a a0bc 43ac 323b
00000310: c4b1 213d 7b16 ad3d c425 27be ae4e 58bc
00000320: 6ece 4abc 4fc5 8a3c 2f97 0bbe 70f5 f13d
00000330: 98c6 92bb 5f0f 073e 0b42 1e3e 4fd4 393d
00000340: 5ced 363d 0eae 2a3e 7f26 953d e95a 083e
00000350: 5853 8c3d e67c 623d 1616 593c 70a2 bdbd
00000360: 194d f2bd b7f6 f6bd d0b1 463c 4038 2abc
00000370: f140 21be 3168 c53d 8762 ff3d b290 73bd
00000380: c0a4 123e aacc 00be d5d9 243e 24c0 a1bd
00000390: 6bba ab3c 7dd7 70bd 9e20 1a3e 7f39 ecbc
000003a0: 7ce0 f03d bec8 2abe 0feb 20be f058 14bd
000003b0: 39c4 0b3c 00a3 a43d b137 ff3c e178 623d
000003c0: aec2 1cbe da90 0cbe 8214 563d a1d9 e43d
000003d0: 66fe f3bd e5a3 093e 21b3 b5bd 59d8 a93b
000003e0: 9e20 fcbd 9e4a 7dbd c4d2 c7bd 8ac6 08be
000003f0: 7a3f 2cbe 3951 21be 7324 113e 2a23 06be

transformer_encoder.layers.0.linear1.bias f4 [16]
-0.060853895 0.08266773 -0.11170206 0.058177233 0.14693058 0.16050866 0.0566826 0.055958707
0.1677873 0.07003137 -0.04151395 0.14135064 -0.056752544 -0.15242559 0.11432351 0.020919904
00000000: ef41 79bd b34d a93d 0dc4 e4bd 404b 6e3d
00000010: f874 163e 625c 243e 042c 683d f534 653d
00000020: 6fd0 2b3e 9b6c 8f3d 880a 2abd 39be 103e
00000030: 5b75 68bd 7415 1cbe 7222 ea3d 3860 ab3c
