experiments/fl_train_noise_0.0_max_grad_norm_1/20250422/model_round_2.pt (torch, 62777 bytes, 25 tensors)

embed.weight f8 [32, 8]
0	0x3fa460c3f195f853	0.03980076145215663
1	0xbfa56d8d45171a1c	-0.04185143917452569
2	0x3fa5d964ef978e61	0.0426742117377017
3	0x3fa6ff73fd18cb6a	0.04491770233689503
4	0xbf98792dbe1a62a5	-0.02389975998684925
5	0xbfa73b2dc8990bcd	-0.04537337373451287
6	0xbfa716e3be98e4ae	-0.04509650899530847
7	0x3fa77000001944c0	0.04577636719899081
8	0x3f9bb1828d1ddb60	0.027044334281039695
9	0x3fa71666fd18e426	0.04509279098096668
10	0x3fa6353eda17f168	0.04337498104357246
11	0x3fa77000001944c0	0.04577636719899081
12	0x3fa69169d29854c6	0.04407816596737173
13	0xbf883567281a1993	-0.011820608054460979
14	0xbfa63269ff97ee5a	-0.04335337872541052
15	0x3fa77000001944c0	0.04577636719899081
16	0x3fa210df49137a32	0.03528497473756821
17	0x3fa4a5527b16423d	0.04032380821729873
18	0x3fa4b463a896527b	0.040438761071674066
19	0x3fa68fd02798530c	0.04406595691049206
20	0xbfa43622db95ca5e	-0.03947552614672099
21	0x3fa666db4a9826e4	0.0437534836347149
22	0x3fa6919a299854fa	0.044079606606979696
23	0x3fa77000001944c0	0.04577636719899081
24	0xbfa4e3436a168505	-0.04079638166445857
25	0xbfa5780c0997256d	-0.04193151108808988
26	0xbfa50230e516a65d	-0.04103234096994577
27	0x3fa3a6dc25952fe5	0.038382415378322134
28	0x3fa1d1b230933614	0.03480297892529563
29	0xbf78a9dba81a9721	-0.006021364244281264
30	0x3fa69caf139860ed	0.044164153234477734
31	0xbfa22bc19c13972d	-0.03549008398276352
32	0x3fa5aa35d5975b82	0.042314226458692
33	0xbfa710cfd618de20	-0.045050139317421634
34	0xbfa503945d16a7dc	-0.04104293476423468
35	0xbfa40499b49594f6	-0.03909759835623021
36	0xbfa13c7c31129536	-0.03366458987265235
37	0x3fa632544517ee43	0.0433527311651827
38	0xbf7b60433c1d83c8	-0.006683600078617631
39	0x3fa4da9e47967bb3	0.04073042510866944
40	0xbfa3eef2fb157d9e	-0.038932412290473936
41	0x3fa2c751d4143ee4	0.036676938189087044
42	0xbfa480fd36161b12	-0.040046608784043994
43	0xbfa674c7419835e7	-0.04385969806399342
44	0x3fa2f5619394708d	0.0370283596659827
45	0xbfa6aa8129986fd3	-0.044269596412248945
46	0x3fa5599b1197049b	0.041699262520986845
47	0xbfa63dc30717fa96	-0.04343995534508342
48	0x3fa77000001944c0	0.04577636719899081
49	0xbfa5cbd021177fbc	-0.0425705948252921
50	0x3fa768f44a193d26	0.04572261242412372
51	0x3f9c5920381e9016	0.027683738160377024
52	0x3f9b342d971d5442	0.026566231106091694
53	0xbfa77000001944c0	-0.04577636719899081
54	0x3fa3ac41019535b6	0.03842356819459829
55	0xbfa762b104993666	-0.045674831210459385
56	0xbfa720e0a118ef72	-0.045172710099420935
57	0x3fa4891ad91623d2	0.04010852718335624
58	0x3fa17e523212dc32	0.03416687833071598
59	0xbfa2a44338141918	-0.03640947398712252
60	0xbfa647d17d98056e	-0.04351668031814425
61	0x3fa642602e17ff90	0.04347515642802968
62	0xbfa27134e813e20d	-0.03601994832019182
63	0xbfa68467031846bf	-0.043978900077616505
64	0xbfa648516b9805f8	-0.04352049291993504
65	0x3fa5f91e4617b095	0.04291624646779827
66	0x3fa59d737a174dc0	0.0422168814217474
67	0xbfa77000001944c0	-0.04577636719899081
68	0x3fa0e328071234e7	0.032983065474675936
69	0x3fa5f8b0a797b01e	0.042912979562828676
70	0x3fa5daad4e178fc3	0.042683997900695235
71	0xbf9a6f7ffb1c8036	-0.02581596346055922
72	0x3fa77000001944c0	0.04577636719899081
73	0xbf9061dbee11a981	-0.015998302846506277
74	0x3fa5d7f67b178cd6	0.04266329052532007
75	0xbfa77000001944c0	-0.04577636719899081
76	0xbf9dafc19920017d	-0.028990769358644187
77	0xbfa77000001944c0	-0.04577636719899081
78	0x3fa34414cb14c566	0.03762879351632868
79	0xbfa602664017ba96	-0.042987056087317274
80	0xbfa77000001944c0	-0.04577636719899081
81	0xbfa550eda216fb40	-0.04163305858263877
82	0xbfa617e89917d1c7	-0.04315115803538876
83	0x3fa73bc1fa190c6d	0.04537779024078579
84	0xbfa336a9fa94b6ee	-0.037526428068629034
85	0x3fa608a42697c152	0.04303467722991407
86	0xbfa5f9904997b110	-0.04291964434000495
87	0xbfa5c2a91c9775de	-0.042500767460051256
88	0xbf9ac55b791cdcc6	-0.026143483416686285
89	0x3fa3b37adc153d80	0.03847869812545479
90	0x3fa26c401b93dcb5	0.03598213516846142
91	0x3fa667e5e4982804	0.04376142898043159
92	0x3fa409ec41159ab3	0.03913820547568516
93	0xbfa70d5dc198da6a	-0.045023851282555
94	0xbfa77000001944c0	-0.04577636719899081
95	0xbf9f134ab02180cd	-0.03034702968614127
96	0xbfa77000001944c0	-0.04577636719899081
97	0x3fa77000001944c0	0.04577636719899081
98	0x3fa4c392dd9662da	0.040554608868836176
99	0xbfa7510af3992360	-0.045540182338817514
100	0x3fa54c6b9496f664	0.041598665130987894
101	0x3fa73381ac190388	0.04531483865549207
102	0x3fa51515cf16babc	0.04117649224223416
103	0xbfa5d325921787a5	-0.042626546939359224
104	0x3fa3f414b3958326	0.03897156421840568
105	0x3fa6b0e90e1876bb	0.04431846901955568
106	0x3fa5b928fb976ba0	0.04242828437028057
107	0xbfa14a169d12a3e0	-0.03376837413208711
108	0x3fa2dbaff09454da	0.03683233081589217
109	0x3fa20821fb1370c5	0.03521829786197509
110	0xbfa5ca03ae177dcc	-0.04255687236922831
111	0x3fa72f522398ff05	0.04528290447751541
112	0x3fa642f6d0980032	0.04347964569387876
113	0x3fa604fc1d97bd60	0.04300678120841428
114	0xbfa5e9feb117a047	-0.04280086433192359
115	0xbfa77000001944c0	-0.04577636719899081
116	0x3f62ba9de0143132	0.002286251402102612
117	0x3fa3df6a6b156cdf	0.03881390149282437
118	0x3fa5a048161750ce	0.04223847646395172
119	0xbfa316ae7a949474	-0.037282421554018536
120	0xbfa3af9fcc953958	-0.038449281428813264
121	0xbfa502d43996a70d	-0.04103720858559088
122	0xbfa5e80784979e28	-0.04278586858327699
123	0xbf946b9a1d160402	-0.019941719079273675
124	0xbfa5f0321817a6f6	-0.04284817260834288
125	0x3f95b3103117650d	0.021190884586620707
126	0xbfa5556e7717001b	-0.04166741565450157
127	0xbfa567fea997141f	-0.041809042169497206
128	0x3fa64444cc98019a	0.04348959920389746
129	0xbfa6a6383d186b35	-0.04423690553468022
130	0xbfa6521665981080	-0.04359502782975344
131	0x3fa62defc217e986	0.043319218104403354
132	0xbf9b17dd8b1d35bb	-0.02645822679123964
133	0x3fa5d0401d978485	0.0426044498560794
134	0xbfa57dc908172b9d	-0.04197529052506541
135	0x3fa5893f1d1737f8	0.04206273298369462
136	0xbfa1fa53119361e2	-0.035112949271652885
137	0x3fa641cac417feee	0.04347070354196868
138	0xbfa4caf01e966acb	-0.04061079381354701
139	0x3fa3b709bf954156	0.03850584472332012
140	0x3fa77000001944c0	0.04577636719899081
141	0xbfa6a1f37718669a	-0.04420433834839095
142	0x3fa464feb515fce3	0.03983303032418364
143	0x3fa5134d4416b8ce	0.04116288620149221
144	0x3fa5f9b46b97b136	0.04292072118173211
145	0xbfa622bd4d97dd74	-0.043233791086033785
146	0x3fa35b91bb94deb9	0.03780799307645339
147	0xbfa5c954e0177d10	-0.04255166278357525
148	0x3fa68663119848e3	0.04399404134541542
149	0x3fa6cb52c6189335	0.04451998394168869
150	0x3fa72a593098f9a8	0.04524496763450553
151	0x3fa57c979c972a53	0.04196618830208778
152	0x3fa575bcf91722f0	0.04191389599470152
153	0x3f9060df0011a870	0.015994533900461183
154	0x3fa14f4d5492a97f	0.033808151792373835
155	0xbf89a257f61ba306	-0.012516677091711791
156	0xbf931eec96149d56	-0.01867265382784685
157	0xbfa4999e6316359f	-0.04023451766543506
158	0x3fa721ea0298f090	0.04518061906534954
159	0xbfa0b8de58120750	-0.03266043496206683
160	0xbfa6bd547f98841f	-0.04441322381558898
161	0xbfa44734f995dcc5	-0.039605765788047566
162	0x3fa253547813c1d6	0.03579200711999746
163	0x3fa691f44018555b	0.04408229143534
164	0x3f81f6cfe6135e18	0.00877153797993828
165	0xbfa00e58c7914f78	-0.03135945736053619
166	0xbfa6b7f6b8187e56	-0.04437228200208369
167	0xbfa3496e6c14cb2b	-0.0376696116385545
168	0x3fa37012c194f4d4	0.0379644261651976
169	0xbfa6b2a98a98789f	-0.044331834953696296
170	0xbfa6867afe9848fd	-0.04399475438926179
171	0x3fa6bd9a5298846a	0.04441530473946716
172	0x3f9d4ceb5a1f96ed	0.02861373651094017
173	0xbfa604463b17bc9c	-0.04300136061999035
174	0xbfa561bae7170d5e	-0.04176124640391764
175	0x3fa7012ca998cd44	0.04493083544039192
176	0xbfa754528d1926ea	-0.04556520435705898
177	0xbfa5752bf4172253	-0.04190957407587761
178	0x3fa6a0ab57186539	0.04419455946135504
179	0x3fa641d06197fef5	0.04347087088899385
180	0xbfa60edc3117c805	-0.04308212374952806
181	0x3fa565a131971192	0.0417909977946095
182	0x3fa5d5a76a978a58	0.04264567543193171
183	0xbfa57812df972574	-0.041931714814903126
184	0x3fa5ac3c25175db2	0.042329673316710795
185	0x3f967975be183af3	0.021947707869965204
186	0xbfa624462017df1c	-0.04324549810183795
187	0xbfa5cf720f9783a7	-0.042598308947851486
188	0x3fa77000001944c0	0.04577636719899081
189	0x3fa68c3686184f2b	0.04403849017049163
190	0xbfa69020b8985363	-0.044068357976505344
191	0x3fa77000001944c0	0.04577636719899081
192	0x3fa77000001944c0	0.04577636719899081
193	0x3fa52b886416d2ee	0.04134775373259979
194	0x3fa5a79efe1758b6	0.04229447223376452
195	0xbfa55cd53d970816	-0.041723884361559424
196	0xbfa4e37b14168541	-0.04079804058279502
197	0x3fa58d279a173c2e	0.04209254985800502
198	0xbfa6470a84180496	-0.04351075041268719
199	0x3fa46ebba0960762	0.03990732512740071
200	0x3f8879c1341a6344	0.011950978663024643
201	0xbfa6204ad697dad2	-0.04321512097879111
202	0x3fa618208197d203	0.04315282422968283
203	0xbfa0d40d5412249e	-0.03286782885795357
204	0x3fa602589417ba87	0.042986648633690776
205	0x3fa5a7c1a91758dd	0.042295505419746006
206	0xbfa65da5a0181cf6	-0.04368321971201709
207	0xbfa56d185397199e	-0.04184795399082762
208	0xbfa4e43aba96860e	-0.04080375220952358
209	0xbfa6ee7e3118b920	-0.044788306706651904
210	0xbfa5dc72ac9791ac	-0.04269750935398817
211	0xbfa606eea697bf79	-0.04302163871386617
212	0xbfa634952c97f0b2	-0.04336992425302934
213	0x3fa13036971287fb	0.033570962850049534
214	0x3fa5f306f297aa03	0.04286977492650481
215	0x3fa3e455b215722c	0.038851430882207744
216	0xbfa4c1cb8b1660ee	-0.04054103920788231
217	0x3fa6090d2197c1c2	0.04303780589168894
218	0x3fa62c3c3617e7b2	0.0433062377960164
219	0xbfa77000001944c0	-0.04577636719899081
220	0xbfa2c5b20e943d24	-0.03666454723326698
221	0xbfa561a089170d41	-0.041760460600495104
222	0xbfa52285fe96c938	-0.041279017761001346
223	0x3fa3a5cca9952ec1	0.038374324513453135
224	0x3fa5935cf51742e0	0.04213991634208525
225	0xbfa53462fe16dc7b	-0.04141530372310683
226	0xbfa637535297f3a6	-0.043390849907132975
227	0xbfa5b0e7f21762ba	-0.042365310957114
228	0x3fa727bcfa18f6d8	0.04522505333851051
229	0x3fa5a28072175332	0.04225541489328179
230	0x3fa6b77d23187dd3	0.04436865857519092
231	0x3fa6e412f498ade4	0.04470881686969699
232	0xbfa4ad75bb964b03	-0.04038589396363614
233	0x3fa4ee8d4e969130	0.040882507174759275
234	0xbfa6619c0798213c	-0.04371345131591162
235	0xbfa542898d16ebbc	-0.04152326438221318
236	0x3fa422ba9895b572	0.039327460409235196
237	0x3fa5a3092a1753c6	0.04225948942954676
238	0xbf679904001970f8	-0.00288058072400876
239	0x3fa361312f94e4ca	0.03785089212255739
240	0x3fa51aa4e796c0ba	0.04121890379917788
241	0xbfa7511ad2192371	-0.045540655276062554
242	0xbfa62dce8e17e963	-0.04331822857416758
243	0x3fa4c4a73b966404	0.0405628452528575
244	0xbf89a63e021ba73b	-0.012524113120395355
245	0x3fa655fc331814b4	0.043624764668530075
246	0xbfa5eede4017a588	-0.0428380444753414
247	0x3fa74426e719157a	0.04544183321972191
248	0x3fa4bdf3e6965ccb	0.040511724374647416
249	0xbfa52f9dcd16d756	-0.04137890938311155
250	0x3f992253031b1902	0.024544999184194623
251	0x3fa3dc5ee0956996	0.038790669360156446
252	0xbfa1f9a77013612a	-0.03510783427344884
253	0x3fa699e62f985dec	0.04414290743823898
254	0xbfa660baee98204a	-0.04370674288298966
255	0xbfa588192b1736bb	-0.04205397273072494

embed.bias f8 [32]
0	0xbfa65869c8181752	-0.043643289256620435
1	0xbfa54b6bf716f550	-0.04159104720336393
2	0xbfa5fae03997b27a	-0.042929656057684576
3	0x3fa0abf62511f965	0.03256196215169175
4	0x3f84cc890e166c84	0.010155745260638456
5	0xbf9662bae5182272	-0.021861000283055217
6	0xbfa5ade10b175f76	-0.04234221706764078
7	0xbfa4c23c5616616a	-0.04054440070030092
8	0x3fa49477c8963012	0.040195220218350994
9	0x3fa69d5b321861a6	0.044169282784597017
10	0xbfa47eab37961892	-0.040028906379164245
11	0xbfa143ae7a129cf8	-0.03371949424882276
12	0xbf6e443ec820a194	-0.003694651241876021
13	0x3fa49d9e8e9639ee	0.04026504030763421
14	0xbfa5e8cefb179eff	-0.04279181304064927
15	0xbfa5b188d5976368	-0.04237010581318296
16	0x3f9252df4813c159	0.01789425733017089
17	0xbfa4ed95fe169026	-0.04087513662969426
18	0x3fa1799fcd92d720	0.03413104423945712
19	0xbfa4f79d21969af5	-0.0409516433240266
20	0xbfa49876bb963460	-0.04022570648076207
21	0xbfa252808e13c0f3	-0.03578569158878677
22	0xbfa63ddc6b17fab2	-0.04344071204467549
23	0xbfa675ae751836e0	-0.04386658839585578
24	0xbfa6b9df7d188065	-0.044386848469230945
25	0xbfa5504d3b96fa93	-0.04162827827848505
26	0xbfa38bd95a1512c6	-0.03817633843076389
27	0xbfa17bca3f12d976	-0.03414756793920308
28	0xbfa77000001944c0	-0.04577636719899081
29	0x3fa1d39edd933827	0.03481766180776474
30	0xbfa4a14dac163de8	-0.040293147331904866
31	0xbfa399335215212b	-0.038278201837388025

pos_enc.pe f8 [1, 12, 32]
0	0x0000000000000000	0.0
1	0x3fa608a00017c14c	0.043034553538634585
2	0x0000000000000000	0.0
3	0x3fa608a00017c14c	0.043034553538634585
4	0x0000000000000000	0.0
5	0x3fa608a00017c14c	0.043034553538634585
6	0x0000000000000000	0.0
7	0x3fa608a00017c14c	0.043034553538634585
8	0x0000000000000000	0.0
9	0x3fa608a00017c14c	0.043034553538634585
10	0x0000000000000000	0.0
11	0x3fa608a00017c14c	0.043034553538634585
12	0x0000000000000000	0.0
13	0x3fa608a00017c14c	0.043034553538634585
14	0x0000000000000000	0.0
15	0x3fa608a00017c14c	0.043034553538634585
16	0x0000000000000000	0.0
17	0x3fa608a00017c14c	0.043034553538634585
18	0x0000000000000000	0.0
19	0x3fa608a00017c14c	0.043034553538634585
20	0x0000000000000000	0.0
21	0x3fa608a00017c14c	0.043034553538634585
22	0x0000000000000000	0.0
23	0x3fa608a00017c14c	0.043034553538634585
24	0x0000000000000000	0.0
25	0x3fa608a00017c14c	0.043034553538634585
26	0x0000000000000000	0.0
27	0x3fa608a00017c14c	0.043034553538634585
28	0x0000000000000000	0.0
29	0x3fa608a00017c14c	0.043034553538634585
30	0x0000000000000000	0.0
31	0x3fa608a00017c14c	0.043034553538634585
32	0x3fa608a00017c14c	0.043034553538634585
33	0x3fa608a00017c14c	0.043034553538634585
34	0x3fa608a00017c14c	0.043034553538634585
35	0x3fa608a00017c14c	0.043034553538634585
36	0x3fa608a00017c14c	0.043034553538634585
37	0x3fa608a00017c14c	0.043034553538634585
38	0x3fa608a00017c14c	0.043034553538634585
39	0x3fa608a00017c14c	0.043034553538634585
40	0x3fa608a00017c14c	0.043034553538634585
41	0x3fa608a00017c14c	0.043034553538634585
42	0x3fa608a00017c14c	0.043034553538634585
43	0x3fa608a00017c14c	0.043034553538634585
44	0x3fa608a00017c14c	0.043034553538634585
45	0x3fa608a00017c14c	0.043034553538634585
46	0x3fa608a00017c14c	0.043034553538634585
47	0x3fa608a00017c14c	0.043034553538634585
48	0x3fa608a00017c14c	0.043034553538634585
49	0x3fa608a00017c14c	0.043034553538634585
50	0x3fa608a00017c14c	0.043034553538634585
51	0x3fa608a00017c14c	0.043034553538634585
52	0x3fa608a00017c14c	0.043034553538634585
53	0x3fa608a00017c14c	0.043034553538634585
54	0x3fa520724196c6fb	0.04126317072531368
55	0x3fa608a00017c14c	0.043034553538634585
56	0x3fa0302b3a1173ee	0.031617499197387974
57	0x3fa608a00017c14c	0.043034553538634585
58	0x3f9847d4ee1a2d72	0.023711516411407847
59	0x3fa608a00017c14c	0.043034553538634585
60	0x3f9235685013a194	0.01778185833691877
61	0x3fa608a00017c14c	0.043034553538634585
62	0x3f8b4f4a821d717c	0.013334829421801635
63	0x3fa608a00017c14c	0.043034553538634585
64	0x3fa608a00017c14c	0.043034553538634585
65	0xbfa608a00017c14c	-0.043034553538634585
66	0x3fa608a00017c14c	0.043034553538634585
67	0x3fa608a00017c14c	0.043034553538634585
68	0x3fa608a00017c14c	0.043034553538634585
69	0x3fa608a00017c14c	0.043034553538634585
70	0x3fa608a00017c14c	0.043034553538634585
71	0x3fa608a00017c14c	0.043034553538634585
72	0x3fa608a00017c14c	0.043034553538634585
73	0x3fa608a00017c14c	0.043034553538634585
74	0x3fa608a00017c14c	0.043034553538634585
75	0x3fa608a00017c14c	0.043034553538634585
76	0x3fa608a00017c14c	0.043034553538634585
77	0x3fa608a00017c14c	0.043034553538634585
78	0x3fa608a00017c14c	0.043034553538634585
79	0x3fa608a00017c14c	0.043034553538634585
80	0x3fa608a00017c14c	0.043034553538634585
81	0x3fa608a00017c14c	0.043034553538634585
82	0x3fa608a00017c14c	0.043034553538634585
83	0x3fa608a00017c14c	0.043034553538634585
84	0x3fa608a00017c14c	0.043034553538634585
85	0x3fa608a00017c14c	0.043034553538634585
86	0x3fa608a00017c14c	0.043034553538634585
87	0x3fa608a00017c14c	0.043034553538634585
88	0x3fa608a00017c14c	0.043034553538634585
89	0x3fa608a00017c14c	0.043034553538634585
90	0x3fa5b65d6817689d	0.042406958538508045
91	0x3fa608a00017c14c	0.043034553538634585
92	0x3fa234ab5913a0ca	0.03555808508264276
93	0x3fa608a00017c14c	0.043034553538634585
94	0x3f9b4ea9dd1d70d0	0.026667265053547606
95	0x3fa608a00017c14c	0.043034553538634585
96	0x3fa608a00017c14c	0.043034553538634585
97	0xbfa608a00017c14c	-0.043034553538634585
98	0x3fa608a00017c14c	0.043034553538634585
99	0xbfa608a00017c14c	-0.043034553538634585
100	0x3fa608a00017c14c	0.043034553538634585
101	0xbfa608a00017c14c	-0.043034553538634585
102	0x3fa608a00017c14c	0.043034553538634585
103	0x3fa608a00017c14c	0.043034553538634585
104	0x3fa608a00017c14c	0.043034553538634585
105	0x3fa608a00017c14c	0.043034553538634585
106	0x3fa608a00017c14c	0.043034553538634585
107	0x3fa608a00017c14c	0.043034553538634585
108	0x3fa608a00017c14c	0.043034553538634585
109	0x3fa608a00017c14c	0.043034553538634585
110	0x3fa608a00017c14c	0.043034553538634585
111	0x3fa608a00017c14c	0.043034553538634585
112	0x3fa608a00017c14c	0.043034553538634585
113	0x3fa608a00017c14c	0.043034553538634585
114	0x3fa608a00017c14c	0.043034553538634585
115	0x3fa608a00017c14c	0.043034553538634585
116	0x3fa608a00017c14c	0.043034553538634585
117	0x3fa608a00017c14c	0.043034553538634585
118	0x3fa608a00017c14c	0.043034553538634585
119	0x3fa608a00017c14c	0.043034553538634585
120	0x3fa608a00017c14c	0.043034553538634585
121	0x3fa608a00017c14c	0.043034553538634585
122	0x3fa608a00017c14c	0.043034553538634585
123	0x3fa608a00017c14c	0.043034553538634585
124	0x3fa5f050db17a716	0.04284908937900249
125	0x3fa608a00017c14c	0.043034553538634585
126	0x3fa47a384d1613c5	0.03999496403688555
127	0x3fa608a00017c14c	0.043034553538634585
128	0xbfa608a00017c14c	-0.043034553538634585
129	0xbfa608a00017c14c	-0.043034553538634585
130	0x3fa608a00017c14c	0.043034553538634585
131	0xbfa608a00017c14c	-0.043034553538634585
132	0x3fa608a00017c14c	0.043034553538634585
133	0xbfa608a00017c14c	-0.043034553538634585
134	0x3fa608a00017c14c	0.043034553538634585
135	0xbfa608a00017c14c	-0.043034553538634585
136	0x3fa608a00017c14c	0.043034553538634585
137	0x3fa608a00017c14c	0.043034553538634585
138	0x3fa608a00017c14c	0.043034553538634585
139	0x3fa608a00017c14c	0.043034553538634585
140	0x3fa608a00017c14c	0.043034553538634585
141	0x3fa608a00017c14c	0.043034553538634585
142	0x3fa608a00017c14c	0.043034553538634585
143	0x3fa608a00017c14c	0.043034553538634585
144	0x3fa608a00017c14c	0.043034553538634585
145	0x3fa608a00017c14c	0.043034553538634585
146	0x3fa608a00017c14c	0.043034553538634585
147	0x3fa608a00017c14c	0.043034553538634585
148	0x3fa608a00017c14c	0.043034553538634585
149	0x3fa608a00017c14c	0.043034553538634585
150	0x3fa608a00017c14c	0.043034553538634585
151	0x3fa608a00017c14c	0.043034553538634585
152	0x3fa608a00017c14c	0.043034553538634585
153	0x3fa608a00017c14c	0.043034553538634585
154	0x3fa608a00017c14c	0.043034553538634585
155	0x3fa608a00017c14c	0.043034553538634585
156	0x3fa608a00017c14c	0.043034553538634585
157	0x3fa608a00017c14c	0.043034553538634585
158	0x3fa5f03e0e97a703	0.042848529130266065
159	0x3fa608a00017c14c	0.043034553538634585
160	0xbfa608a00017c14c	-0.043034553538634585
161	0x3fa608a00017c14c	0.043034553538634585
162	0xbfa608a00017c14c	-0.043034553538634585
163	0xbfa608a00017c14c	-0.043034553538634585
164	0x3fa608a00017c14c	0.043034553538634585
165	0xbfa608a00017c14c	-0.043034553538634585
166	0x3fa608a00017c14c	0.043034553538634585
167	0xbfa608a00017c14c	-0.043034553538634585
168	0x3fa608a00017c14c	0.043034553538634585
169	0xbf852e5d0016d5fc	-0.010342337193701027
170	0x3fa608a00017c14c	0.043034553538634585
171	0x3fa608a00017c14c	0.043034553538634585
172	0x3fa608a00017c14c	0.043034553538634585
173	0x3fa608a00017c14c	0.043034553538634585
174	0x3fa608a00017c14c	0.043034553538634585
175	0x3fa608a00017c14c	0.043034553538634585
176	0x3fa608a00017c14c	0.043034553538634585
177	0x3fa608a00017c14c	0.043034553538634585
178	0x3fa608a00017c14c	0.043034553538634585
179	0x3fa608a00017c14c	0.043034553538634585
180	0x3fa608a00017c14c	0.043034553538634585
181	0x3fa608a00017c14c	0.043034553538634585
182	0x3fa608a00017c14c	0.043034553538634585
183	0x3fa608a00017c14c	0.043034553538634585
184	0x3fa608a00017c14c	0.043034553538634585
185	0x3fa608a00017c14c	0.043034553538634585
186	0x3fa608a00017c14c	0.043034553538634585
187	0x3fa608a00017c14c	0.043034553538634585
188	0x3fa608a00017c14c	0.043034553538634585
189	0x3fa608a00017c14c	0.043034553538634585
190	0x3fa608a00017c14c	0.043034553538634585
191	0x3fa608a00017c14c	0.043034553538634585
192	0xbfa608a00017c14c	-0.043034553538634585
193	0x3fa608a00017c14c	0.043034553538634585
194	0xbfa608a00017c14c	-0.043034553538634585
195	0xbfa608a00017c14c	-0.043034553538634585
196	0xbfa608a00017c14c	-0.043034553538634585
197	0xbfa608a00017c14c	-0.043034553538634585
198	0x3fa608a00017c14c	0.043034553538634585
199	0xbfa608a00017c14c	-0.043034553538634585
200	0x3fa608a00017c14c	0.043034553538634585
201	0xbfa608a00017c14c	-0.043034553538634585
202	0x3fa608a00017c14c	0.043034553538634585
203	0x3fa608a00017c14c	0.043034553538634585
204	0x3fa608a00017c14c	0.043034553538634585
205	0x3fa608a00017c14c	0.043034553538634585
206	0x3fa608a00017c14c	0.043034553538634585
207	0x3fa608a00017c14c	0.043034553538634585
208	0x3fa608a00017c14c	0.043034553538634585
209	0x3fa608a00017c14c	0.043034553538634585
210	0x3fa608a00017c14c	0.043034553538634585
211	0x3fa608a00017c14c	0.043034553538634585
212	0x3fa608a00017c14c	0.043034553538634585
213	0x3fa608a00017c14c	0.043034553538634585
214	0x3fa608a00017c14c	0.043034553538634585
215	0x3fa608a00017c14c	0.043034553538634585
216	0x3fa608a00017c14c	0.043034553538634585
217	0x3fa608a00017c14c	0.043034553538634585
218	0x3fa608a00017c14c	0.043034553538634585
219	0x3fa608a00017c14c	0.043034553538634585
220	0x3fa608a00017c14c	0.043034553538634585
221	0x3fa608a00017c14c	0.043034553538634585
222	0x3fa608a00017c14c	0.043034553538634585
223	0x3fa608a00017c14c	0.043034553538634585
224	0x3fa608a00017c14c	0.043034553538634585
225	0x3fa608a00017c14c	0.043034553538634585
226	0xbfa608a00017c14c	-0.043034553538634585
227	0x3fa608a00017c14c	0.043034553538634585
228	0xbfa608a00017c14c	-0.043034553538634585
229	0xbfa608a00017c14c	-0.043034553538634585
230	0x3fa608a00017c14c	0.043034553538634585
231	0xbfa608a00017c14c	-0.043034553538634585
232	0x3fa608a00017c14c	0.043034553538634585
233	0xbfa608a00017c14c	-0.043034553538634585
234	0x3fa608a00017c14c	0.043034553538634585
235	0xbfa608a00017c14c	-0.043034553538634585
236	0x3fa608a00017c14c	0.043034553538634585
237	0x3fa608a00017c14c	0.043034553538634585
238	0x3fa608a00017c14c	0.043034553538634585
239	0x3fa608a00017c14c	0.043034553538634585
240	0x3fa608a00017c14c	0.043034553538634585
241	0x3fa608a00017c14c	0.043034553538634585
242	0x3fa608a00017c14c	0.043034553538634585
243	0x3fa608a00017c14c	0.043034553538634585
244	0x3fa608a00017c14c	0.043034553538634585
245	0x3fa608a00017c14c	0.043034553538634585
246	0x3fa608a00017c14c	0.043034553538634585
247	0x3fa608a00017c14c	0.043034553538634585
248	0x3fa608a00017c14c	0.043034553538634585
249	0x3fa608a00017c14c	0.043034553538634585
250	0x3fa608a00017c14c	0.043034553538634585
251	0x3fa608a00017c14c	0.043034553538634585
252	0x3fa608a00017c14c	0.043034553538634585
253	0x3fa608a00017c14c	0.043034553538634585
254	0x3fa608a00017c14c	0.043034553538634585
255	0x3fa608a00017c14c	0.043034553538634585

transformer_encoder.layers.0.self_attn.qlinear.weight f8 [32, 32]
0	0xbfa472d3f7960bcd	-0.03993856808940386
1	0xbfa48db8001628ca	-0.040143728266302484
2	0x3f9e6fa0bd20d05a	0.029722701590984314
3	0x3f962c72e617e7ec	0.02165393380526119
4	0x3fa2b3058a142902	0.03652207670718789
5	0x3fa7492dc4991ae5	0.04548018479231589
6	0x3fa17ee3b412dccd	0.03417121480145511
7	0xbf85c2492a177576	-0.01062447700217704
8	0xbf85a96036175a9c	-0.010576964998944498
9	0x3fa247114f13b49f	0.03569845285697081
10	0x3fa7259dc398f48e	0.04520886433281489
11	0x3fa76c9dca19411a	0.045750552101369205
12	0xbfa5d2983697870c	-0.04262233415989955
13	0x3f9108a726125d54	0.016634570788111105
14	0x3f83d7847215645b	0.009688410502962144
15	0x3fa585990817340a	0.04203489516985577
16	0x3fa6e736e918b147	0.044732776598126515
17	0x3f8e718e6420d26d	0.014865028792067048
18	0xbfa24e429e13bc60	-0.03575332812931076
19	0xbf98ad0c101a9a92	-0.024097622378259027
20	0x3f9df103a72047d8	0.029239708972518347
21	0xbf8bae61481dd802	-0.013516197217295915
22	0xbfa01a4257115c50	-0.03145034134711777
23	0xbfa6b673c1987cb5	-0.04436074960926232
24	0x3f9626f3ac17e1ff	0.02163296449541185
25	0x3fa1a46cd5930545	0.03445758921726364
26	0xbfa5e2fd3c1798b9	-0.042747415147276376
27	0x3f6d5df1c01fa94a	0.003584835213577585
28	0xbfa76a98b3193eed	-0.0457351416231385
29	0x3fa77000001944c0	0.04577636719899081
30	0x3f78765e041a5f9d	0.005972258806330813
31	0xbf9ec85c8f213004	-0.030061193691196322
32	0xbfa4c0690d165f72	-0.04053047451742388
33	0x3fa0136a631154ee	0.03139812907526528
34	0xbfa77000001944c0	-0.04577636719899081
35	0x3fa0b9d7db12085d	0.03266787099075039
36	0x3fa5fc0c0797b3bd	0.042938590933637034
37	0x3fa75f36261932a6	0.04564828124111857
38	0xbfa77000001944c0	-0.04577636719899081
39	0xbfa37df5b01503cd	-0.03807037138404432
40	0xbfa1c381dd9326c8	-0.034694727227884636
41	0x3fa6ff69fa98cb5e	0.044917404022632765
42	0xbfa411a9f195a30b	-0.03919726442365431
43	0xbf9fb23a30222c26	-0.030953320682368134
44	0xbf9b15aa111d335b	-0.026449830336150764
45	0x3fa0ee5da81240fd	0.03306858708049452
46	0x3fa60ba9d517c493	0.043057734739599195
47	0x3fa6e5223218af09	0.044716900458608384
48	0x3fa3952a5c951cd2	0.03824741726071469
49	0xbfa3f4594e158370	-0.03897360876249578
50	0xbfa5fe93fa97b678	-0.04295790132514993
51	0x3fa3f4a0599583bd	0.03897572606616204
52	0x3fa4f8e5be969c58	0.040961436762977754
53	0x3fa1aa1784930b61	0.03450082295741797
54	0x3fa43141d595c51b	0.039438302347557484
55	0xbfa60602cf97be7b	-0.043014610138809105
56	0x3fa4bbe2d9165a92	0.04049595737449353
57	0xbfa6fd884a18c956	-0.04490304855825637
58	0x3fa2d1132494496a	0.03675136395954122
59	0xbfa192909192f204	-0.03432132508303101
60	0xbf88ec841c1adefe	-0.012169868571944683
61	0x3fa77000001944c0	0.04577636719899081
62	0x3fa0478e0b118d25	0.03179592023004777
63	0xbfa17e3ee892dc1c	-0.03416630353006431
64	0x3fa6459b1598030b	0.043499800096475104
65	0xbf9f9bfc5722142c	-0.030868475740607845
66	0xbfa0f2f9581245f5	-0.03310374450769508
67	0xbfa65e959d981df9	-0.04369037197835363
68	0x3fa4e5320b16871a	0.040811122754588605
69	0xbfa77000001944c0	-0.04577636719899081
70	0x3fa77000001944c0	0.04577636719899081
71	0xbfa59b7ad6974ba0	-0.04220184201735511
72	0x3fa18afbe512e9d8	0.03426348849594135
73	0x3fa0eb2188123d80	0.03304390703226101
74	0x3f9b08b7201d2565	0.026400433859895673
75	0xbfa72b8a5d98faf1	-0.04525406258152554
76	0xbfa2e9aa4f1463ec	-0.036938974526670026
77	0xbfa59062fe973fab	-0.042117208078365685
78	0xbfa287733e13fa08	-0.03618965275562763
79	0xbfa3c4d34a155034	-0.03861103324257478
80	0xbfa4381b7f15cc7e	-0.039490565551113285
81	0xbfa488676796230e	-0.04010317935450845
82	0xbf914f8b9612a9c2	-0.016905003580782958
83	0xbfa38e5ca995157c	-0.038195510579082076
84	0x3f8ce1c1c21f2365	0.014102472054121138
85	0xbfa77000001944c0	-0.04577636719899081
86	0x3fa34867f894ca10	0.03766178998411729
87	0x3fa4c0b47d965fc3	0.04053272278832722
88	0xbf98227b681a052d	-0.02356903860937114
89	0x3fa632071f17edf0	0.04335043196257604
90	0x3fa23db9b513aa8c	0.035627177576164376
91	0x3f9e72e04820d3da	0.029735092546804377
92	0x3fa6687dbf9828a8	0.04376595462606875
93	0x3f951060bb16b5a8	0.020570289057720764
94	0x3fa63c842e17f93f	0.04343045294443692
95	0xbf8150701a12aab9	-0.008454204364473627
96	0xbfa5671831971326	-0.04180217366550769
97	0xbfa77000001944c0	-0.04577636719899081
98	0x3f93d09702155ce3	0.01935039472786294
99	0x3fa448793195de23	0.03961542825976163
100	0xbf9d0861741f4d0a	-0.028352282249966478
101	0xbfa35f6c8c94e2e1	-0.0378374024971373
102	0xbfa77000001944c0	-0.04577636719899081
103	0xbfa3213b68149fd4	-0.03736291547312445
104	0xbfa321ad6b94a04e	-0.03736631334533112
105	0x3fa6d933ff18a22c	0.0446258782288321
106	0xbfa0e3dd2e1235aa	-0.032988464235227014
107	0x3f6d6f7a081fbc30	0.00359319528887838
108	0xbfa52f335b16d6e3	-0.041375737065590966
109	0xbf977c4b76195202	-0.022935084422288206
110	0x3f899fc3ce1ba03e	0.012511758544363368
111	0xbfa56a0f78971659	-0.04182480189369348
112	0xbf9bed10281e1b95	-0.02727151150568437
113	0x3f827bd1b413ed7e	0.009025228794135694
114	0x3fa5911c0d974072	0.04212272325423862
115	0xbfa2ef9301146a4a	-0.03698405636005882
116	0x3f76f55d7818c089	0.005605092157154109
117	0x3fa77000001944c0	0.04577636719899081
118	0xbfa3133d601490be	-0.037256162622982356
119	0x3f90ec2c9f123ea0	0.016525933464946463
120	0xbfa1c7fdd0932b9e	-0.03472893878059512
121	0xbfa6e5dcf698afd2	-0.04472246656618463
122	0x3fa28c098f13fefa	0.03622465011176064
123	0xbfa06eb28d11b759	-0.03209455463443928
124	0xbf76308ac017ec56	-0.005417387002576287
125	0x3fa1463ef8929fbc	0.03373905929885221
126	0xbfa3157483949322	-0.03727306467252435
127	0x3f9bc6b1e41df238	0.02712514834228072
128	0xbfa4b0fc52164ed0	-0.04041279317894253
129	0xbf9f87d14121fe6d	-0.030791539764776155
130	0x3f99ed64da1bf3f0	0.025319648563698338
131	0xbfa4e8d011968b00	-0.04083872046182613
132	0xbfa47b23e59614c3	-0.040001985335985
133	0x3f9bac53e41dd5ca	0.027024565504196997
134	0x3fa743d982991526	0.04543952674115763
135	0x3fa306c05a948347	0.037160883958000705
136	0xbfa537179e96df65	-0.04143594561486345
137	0xbfa71a983b18e8ac	-0.04512477609064666
138	0x3fa03bd9f3118087	0.0317066296781841
139	0xbfa761cd7a993572	-0.04566805001796127
140	0x3fa56c97e8971914	0.041844126837121604
141	0xbfa214417f137dd6	-0.0353107898351898
142	0xbfa581167d972f2c	-0.04200048716628965
143	0xbfa297d7c6940bb5	-0.03631471919108923
144	0xbfa77000001944c0	-0.04577636719899081
145	0xbfa747959099192d	-0.045468019391181926
146	0x3fa545ec4016ef63	0.04154909403175002
147	0x3f9e6943d520c97d	0.029698428996377303
148	0xbf85732854172027	-0.010473551813348149
149	0x3f93c00e19154b0e	0.019287319451289746
150	0x3f72915b601404b6	0.004533154425417843
151	0xbfa445334d95da9b	-0.03959045717322348
152	0xbf852fdfb816d79d	-0.010345218472916968
153	0x3fa5558fe997003f	0.04166841246069496
154	0x3f9f8de5682204fa	0.030814728241698376
155	0x3fa1eed43293557d	0.0350252448785495
156	0x3fa714b71a98e255	0.04507991981194396
157	0xbfa6f41b7298bf2e	-0.04483114026913736
158	0x3fa4765d3d960f9d	0.039965547340244024
159	0x3f98ea567e1adca5	0.024331428000291883
160	0xbfa4fe5a3a96a239	-0.041003055240541326
161	0x3fa5f84c1197afb2	0.04290998186829088
162	0xbf5367cdd014ebea	-0.001184416760522162
163	0x3fa5a9f7d2975b3f	0.04231237836545753
164	0x3f9e086ec5206116	0.02932904318012771
165	0xbf5c07c8001e3864	-0.00171083956999809
166	0x3fa77000001944c0	0.04577636719899081
167	0x3fa247422313b4d3	0.03569990804849401
168	0xbfa7537caf192602	-0.04555883061818734
169	0xbfa5d5b228978a64	-0.042645995574066814
170	0x3f97fe131819dded	0.023430155130396747
171	0xbfa63c0ad797f8bc	-0.04342683679350176
172	0x3fa5bedbf79771c5	0.04247176549299384
173	0x3fa0e929de923b61	0.03302889673169918
174	0xbfa2955e3b14090a	-0.036295838081075685
175	0x3fa506330496aaae	0.04106292181980585
176	0xbf9956aa6d1b5170	-0.024744666013093164
177	0x3fa44f20ce95e54e	0.039666199892006135
178	0x3fa5833825173179	0.04201674893156144
179	0xbf7ce890ec1f2abc	-0.007057729819232857
180	0xbf8205db76136e52	-0.008800234356775825
181	0x3f8e7bd82e20dd86	0.014884652049757429
182	0x3f9ce34b501f250d	0.02821080853008078
183	0x3f8dfe14de2055ed	0.014644778279072812
184	0x3fa5b5290e976750	0.04239776900403902
185	0xbfa46fdde916089b	-0.039915976241006144
186	0x3f7324565414a32d	0.004673325748890273
187	0xbfa5597672970474	-0.04169817112734445
188	0xbfa282815f93f4b3	-0.03615192691538862
189	0x3fa4d8e1b31679d3	0.040717175589850683
190	0x3fa41910b815ab06	0.03925373313071216
191	0xbfa63cf24997f9b5	-0.043433734401321734
192	0x3fa72b788b18fade	0.04525353143661957
193	0xbf90ffca981253c6	-0.016600766689027123
194	0x3fa77000001944c0	0.04577636719899081
195	0x3f95f48d5417aba8	0.021440704591366405
196	0x3f892ad1541b222a	0.012288699511729357
197	0x3fa512cf0b96b847	0.04115912453140474
198	0x3fa77000001944c0	0.04577636719899081
199	0x3fa085d3b191d048	0.032271018434500365
200	0xbfa75f2f5019329f	-0.04564807751430532
201	0xbfa682937b9844c7	-0.043964966618781846
202	0xbfa6bb37f89881d8	-0.04439711484542713
203	0xbfa59ec1b4974f2a	-0.04222684220772373
204	0xbfa4cd6f09166d7c	-0.040629834994628106
205	0xbfa36c344714f0a8	-0.03793490760514945
206	0xbfa6503726180e7b	-0.04358074512495321
207	0xbfa7468653191809	-0.04545993580227054
208	0x3fa404e004959542	0.03909969383202362
209	0xbf9a4a65ef1c5836	-0.025674431533012597
210	0x3fa6f4777d18bf92	0.0448338833051586
211	0x3f86d4fe5c189da2	0.011148440537978758
212	0xbfa4ab485c1648aa	-0.04036928295239879
213	0xbfa71fa82118ee21	-0.04516339687367244
214	0x3fa23e914893ab75	0.03563360224673932
215	0xbfa6b36d19187972	-0.04433766299574672
216	0xbfa493b999162f44	-0.040189552247368115
217	0x3fa6a07ac1986504	0.04419311154578945
218	0xbfa41967a215ab64	-0.039256323371623464
219	0xbfa5de2f7f97938b	-0.04271076614876453
220	0xbfa3518e0314d3ed	-0.03773158824552767
221	0xbfa6e7124a18b120	-0.04473168520448412
222	0x3fa112199b126784	0.03334121721236641
223	0xbfa406c75295974e	-0.03911421664342517
224	0xbfa50e30ac16b34c	-0.0411238870686704
225	0xbfa77000001944c0	-0.04577636719899081
226	0xbfa77000001944c0	-0.04577636719899081
227	0xbfa5922e7797419a	-0.04213090143059901
228	0x3fa3f781a79586d8	0.038997699458162394
229	0xbf8096a78e11e26d	-0.008099850676658716
230	0xbfa72e514d98fdf0	-0.045275250170103365
231	0xbfa43d4f8715d21a	-0.039530263175866234
232	0xbfa269787013d9b6	-0.03596092575201075
233	0x3fa6f5c01a18c0f3	0.04484367674410974
234	0xbfa3f59efd1584ce	-0.03898331488995553
235	0x3fa64908c51806bd	0.04352595716410466
236	0xbfa577d365972530	-0.041929823065922966
237	0x3fa2f4a0f3146fbe	0.037022618935423676
238	0x3fa55a67a8970578	0.041705359773469064
239	0xbfa3f10e88157fe4	-0.03894849215680532
240	0x3f9927747d1b1e8a	0.02456457151018169
241	0xbf93cccbd11558cc	-0.019335922848164697
242	0x3fa478736b9611dc	0.03998146713550785
243	0xbf755ddd28170932	-0.005216468708967791
244	0x3f904dd3831193e8	0.015921883463665326
245	0xbf953d279f16e5ee	-0.02074109943871421
246	0xbfa62afbe617e658	-0.043296691739624193
247	0x3fa3ab483a1534aa	0.038416153993787575
248	0xbfa3666e7e94ea6e	-0.037890866233699735
249	0x3fa404a993159507	0.03909807129347525
250	0x3fa3db2e6f15684e	0.038781596241009283
251	0xbfa1cb9678132f7e	-0.034756376416765086
252	0x3fa3b023259539e6	0.03845319589401068
253	0xbfa3dbbb0f1568e6	-0.03878578719259611
254	0x3fa318132b1495f5	0.03729305172809553
255	0xbf9b7b67f71da10c	-0.026837944467303962

transformer_encoder.layers.0.self_attn.qlinear.bias f8 [32]
0	0x3fa3b4b0eb153ece	0.03848793859162712
1	0x3f6e8a38d820ed06	0.0037280187835030424
2	0xbfa5f91f7e97b096	-0.04291628284758635
3	0xbfa4e5e6769687dc	-0.04081649968726683
4	0x3fa24c0e2a13b9ff	0.03573650611530254
5	0x3fa49b788216379e	0.04024864757512535
6	0xbf6d76a5f81fc3eb	-0.0035966149889579044
7	0xbfa726a0cc18f5a5	-0.04521658412384547
8	0xbfa619db9f17d3e1	-0.04316603009275589
9	0xbfa77000001944c0	-0.04577636719899081
10	0xbfa65f1aac181e8a	-0.04369433737525437
11	0xbfa56b5ac51717be	-0.041834675368178406
12	0xbfa57c6978172a22	-0.04196481314609836
13	0xbfa59a7e65974a90	-0.042194318677180154
14	0xbfa77000001944c0	-0.04577636719899081
15	0xbf8bc06c6c1deb75	-0.01355061249681964
16	0x3f945def9415f546	0.019889586842954964
17	0x3fa619c33517d3c6	0.04316530249699428
18	0xbfa1537f4e12ae05	-0.03384015872992666
19	0x3fa59bcb29174bf6	0.04220423580741077
20	0xbf9430b66e15c485	-0.019717073887879372
21	0x3fa65e3628181d92	0.04368752707892577
22	0xbfa77000001944c0	-0.04577636719899081
23	0xbfa448992d15de45	-0.039616381410209324
24	0x3fa6f4df0118c000	0.044836968311187775
25	0x3fa34d73f694cf81	0.03770029435182121
26	0x3fa1acdacb130e5c	0.034521901406631555
27	0x3fa50a3c7716af0a	0.04109372094839443
28	0xbfa66ebd5b982f64	-0.04381362670036884
29	0x3fa6e4cef198aeae	0.044714419357061316
30	0xbfa6fbbc5418c766	-0.04488934065410781
31	0xbfa5e3ab4e979975	-0.04275260290505659

transformer_encoder.layers.0.self_attn.klinear.weight f8 [32, 32]
0	0xbfa63c41c617f8f6	-0.043428473883965354
1	0xbfa671d74d9832bc	-0.043837288114536105
2	0x3fa43f5af715d44e	0.03954586282899496
3	0xbfa5f61d3b17ad58	-0.04289332720130784
4	0x3f7a9cba981cb0fa	0.006497124560876916
5	0x3fa73b29a2190bc9	0.0453732500432334
6	0x3fa342a7cd94c3dd	0.03761791595969275
7	0x3f9078f40a11c267	0.016086400141320924
8	0xbf9b9d62b21dc5ad	-0.026967565652233173
9	0x3fa330507d94b016	0.03747798474282164
10	0x3fa77000001944c0	0.04577636719899081
11	0xbfa3b11843953aee	-0.03846050095545715
12	0x3f991b87c11b11ae	0.024519082223166393
13	0x3f996814ec1b6437	0.02481110278208495
14	0xbf9d2a3b781f7188	-0.028481415945735417
15	0x3fa77000001944c0	0.04577636719899081
16	0x3fa753dd9b99266b	0.0455617191733609
17	0x3fa77000001944c0	0.04577636719899081
18	0xbf67934f10196ad2	-0.0028778595158603726
19	0xbfa6c11d3f988834	-0.04444209481540931
20	0xbfa25d35c413cc7e	-0.03586738604089933
21	0x3fa6fa68ba98c5f9	0.04487921979706395
22	0x3fa446acfd15dc33	0.03960171307965545
23	0x3f9cfcef471f40b2	0.0283086192283128
24	0xbfa0c984cb921943	-0.032787465906084744
25	0xbfa77000001944c0	-0.04577636719899081
26	0x3fa6454cf59802b6	0.043497471790037975
27	0xbf94812b1c161b42	-0.020023988332037897
28	0xbfa608295917c0cd	-0.04303101742323321
29	0xbfa18bb3fa12ea9e	-0.03426897456798382
30	0xbf9dfac5b320525d	-0.029276932771681852
31	0x3fa60cbeee97c5be	0.04306599295149337
32	0x3fa53c90fc96e54c	0.041477709611579344
33	0xbf9deb08e4204166	-0.029216898845392157
34	0xbfa6b563c8987b90	-0.044352644192478086
35	0xbfa247478213b4d9	-0.035700068119561564
36	0x3fa3a9ab241532ed	0.03840384307350129
37	0xbf85b88df4176af9	-0.0106059160342986
38	0xbfa77000001944c0	-0.04577636719899081
39	0xbed0441000118961	-3.878085409333245e-06
40	0x3fa67d0d6b983ed2	0.043922824272269914
41	0x3fa6b66edf987cb0	0.04436060409011
42	0xbf95868caf173510	-0.021021078287778272
43	0x3fa77000001944c0	0.04577636719899081
44	0x3fa3c9d219155596	0.03864914470856744
45	0xbfa4cf55da166f8a	-0.04064434325411444
46	0x3f943cb3c415d172	0.01976281055745361
47	0xbfa399655e952161	-0.03827969340869931
48	0xbf876596f6193987	-0.011424235711413612
49	0xbfa372a4f594f79a	-0.037984042146930366
50	0x3fa2592ec293c826	0.035836659671886914
51	0x3fa3ca6418155634	0.038653495731221815
52	0x3fa5858a621733f9	0.0420344586123988
53	0x3fa77000001944c0	0.04577636719899081
54	0x3f7b31bf081d51a2	0.00663923856503282
55	0xbfa5e77bde979d92	-0.04278170673552063
56	0xbfa59fdfd697505d	-0.04223536963004968
57	0xbfa4db9615167cbe	-0.04073781020564969
58	0xbfa17e899d92dc6c	-0.0341685299730948
59	0x3fa77000001944c0	0.04577636719899081
60	0xbfa505c9cb16aa3e	-0.04105978588207336
61	0xbfa14f942192a9cc	-0.03381026182008248
62	0xbfa3e4f6571572da	-0.038856218462319084
63	0xbfa335235a94b54a	-0.037514786536443426
64	0xbfa68b33bc184e14	-0.04403077765541866
65	0x3f94720c04160af5	0.019966304540058172
66	0x3fa504da0c16a93b	0.041052640891694435
67	0x3f6c0ed0c81e3ffa	0.0034250333564571607
68	0x3fa1dc64b713419d	0.034884593341874416
69	0xbfa77000001944c0	-0.04577636719899081
70	0x3fa77000001944c0	0.04577636719899081
71	0x3fa60b6dc617c452	0.043055944854025655
72	0xbf9d1df2731f644a	-0.0284345515027307
73	0x3f90fed4031252bd	0.01659709233043104
74	0x3f81c6a6cc132a2c	0.008679679015036156
75	0xbfa77000001944c0	-0.04577636719899081
76	0x3fa77000001944c0	0.04577636719899081
77	0xbfa551a24c16fc03	-0.04163844279127462
78	0x3fa0766e0b11bfae	0.03215354809878988
79	0x3fa414760215a60e	0.03921860480734206
80	0xbfa4a4c6581641a6	-0.04031963181762714
81	0xbfa4fb6a08169f0e	-0.0409806380151264
82	0xbfa0d5ab2592265d	-0.032880161606112714
83	0x3fa3465fb514c7df	0.03764628491843757
84	0xbfa69b2ae4985f4a	-0.044152584461868274
85	0xbfa77000001944c0	-0.04577636719899081
86	0x3fa5fc719797b42a	0.04294161773200529
87	0x3fa3ce6964155a8a	0.038684171168530915
88	0x3fa67216c7983301	0.04383917986351627
89	0x3f77d74f4419b421	0.00582056964195224
90	0xbf9b86954b1dad1a	-0.026880581578933783
91	0x3fa32a4afc94a999	0.037432044346434164
92	0x3fa4330ec595c70c	0.03945203935553651
93	0xbfa77000001944c0	-0.04577636719899081
94	0xbfa69b30ff185f52	-0.044152766360808685
95	0x3fa397b6b4951f92	0.038266858619464675
96	0xbf9cc9e07a1f09a6	-0.028113849118889832
97	0x3fa3fdce72958da3	0.039045764434173756
98	0xbfa77000001944c0	-0.04577636719899081
99	0x3fa5b907c7976b7c	0.04242729484004479
100	0xbfa5d0c470978514	-0.04260839342510728
101	0x3fa738c64e190936	0.04535503104536291
102	0xbfa25a109713c91a	-0.03584338993268173
103	0xbf53dfa580156d1e	-0.0012129894460802325
104	0xbfa6487649180620	-0.04352159158953506
105	0x3fa753a10f99262a	0.045559914735872134
106	0x3fa3d03ceb955c82	0.03869810462736557
107	0x3f9ad4a6061ced43	0.026201814768893838
108	0xbfa77000001944c0	-0.04577636719899081
109	0xbf9c11600e1e42bc	-0.02741003118677797
110	0xbfa05d04ac11a44a	-0.031959672932153696
111	0xbfa2fc3ac01477ee	-0.03708060831762326
112	0xbfa15e7e3f12b9e0	-0.03392405052123926
113	0x3fa3175384949526	0.03728734010136696
114	0xbfa374b54794f9d3	-0.03799978731921141
115	0xbfa56d06fe17198c	-0.04184743739783689
116	0x3f87ad794e198707	0.011561343856729701
117	0xbf95d961c3178e5d	-0.021337058575126345
118	0xbfa6a50e249869f3	-0.044228021590431064
119	0x3fa46019c715f79c	0.03979569010969827
120	0x3fa1d8b6d2133da5	0.03485652269739185
121	0xbfa4bd8f50965c5f	-0.04050872668010962
122	0xbfa0d84a88922930	-0.032900170489556735
123	0xbf729973a4140d72	-0.004540874216448431
124	0xbfa51c633196c29b	-0.04123220424969994
125	0x3fa75349e71925cc	0.04555731721900322
126	0xbfa36e4a3694f2e8	-0.037950820124455664
127	0x3fa458e35795efd5	0.03974066204224839
128	0x3fa56b4be09717ae	0.04183423153476383
129	0x3fa674d1829835f2	0.04386000365421329
130	0x3fa77000001944c0	0.04577636719899081
131	0xbfa5f9aae617b12c	-0.04292043741938509
132	0xbfa5f43a1397ab4e	-0.04287892808118575
133	0x3fa39b680495238c	0.03829503112735386
134	0xbfa043023991883e	-0.03176123574009225
135	0xbfa24a557d93b824	-0.03572337301180564
136	0x3fa5f1a99517a88b	0.042859363031156304
137	0xbfa77000001944c0	-0.04577636719899081
138	0x3f99e5565a1beb42	0.025288914918728318
139	0xbf769c96e81860d3	-0.005520429114334219
140	0x3fa7634536193707	0.04567924771673231
141	0x3fa4d550db9675fb	0.040689970784324424
142	0x3f97bea9b219998f	0.023188258643494882
143	0x3fa4a352c3164015	0.04030855781013557
144	0xbfa75a0877192d12	-0.045608772791263644
145	0x3f972f5ca318ff10	0.022641608671846447
146	0xbfa259398093c832	-0.03583697981402202
147	0x3fa6cc8df5989489	0.04452937720297096
148	0x3fa29d8e6c1411de	0.036358309453166746
149	0xbfa77000001944c0	-0.04577636719899081
150	0x3fa69ba247185fcb	0.044156142405142505
151	0xbf9d73f6781fc106	-0.028762675363339894
152	0x3fa77000001944c0	0.04577636719899081
153	0x3fa77000001944c0	0.04577636719899081
154	0xbfa4d29b0296730e	-0.04066929251277972
155	0x3fa1c5aff8932922	0.03471136006699484
156	0xbf750b062016afe3	-0.005137466361173157
157	0xbf91d176601335d4	-0.017400598157839856
158	0x3f9a1a77ea1c248a	0.025491593994079888
159	0x3fa132702b928a61	0.033587937659167684
160	0x3f96aee2fd18748d	0.022151514718747257
161	0x3fa6c0bec41887ce	0.044439279019811914
162	0x3f548ed1401629fa	0.0012547534427961291
163	0x3fa485f2fc96206a	0.040084451039604854
164	0xbfa76800a3193c21	-0.04571535101842295
165	0xbfa6b57712187ba4	-0.044353218993129745
166	0x3fa77000001944c0	0.04577636719899081
167	0xbfa37e4a67950428	-0.038072896141337076
168	0xbfa77000001944c0	-0.04577636719899081
169	0x3f965bf773181b27	0.021835199737348845
170	0xbfa4d0a8f69670f6	-0.040654449559243064
171	0xbfa75f98c8193312	-0.04565122072799545
172	0xbfa32fc45a94af80	-0.03747380834315006
173	0xbfa560f94c970c8d	-0.04175547656952814
174	0xbfa73b420c190be3	-0.045373977638995
175	0x3fa0b1f0e811ffd8	0.032607582405944135
176	0xbfa77000001944c0	-0.04577636719899081
177	0x3f9ccd9e7c1f0dae	0.02812812454773244
178	0xbfa263e5ae13d3b4	-0.03591840505570279
179	0xbf749754f0163328	-0.0050271337398839835
180	0x3fa2a7939b941cab	0.03643475793983816
181	0xbf8589c56417388a	-0.010516683690095858
182	0x3fa6113d1417ca96	0.04310026998782239
183	0xbf95559c5d17004d	-0.020834391767266692
184	0xbf9a678bd91c77a3	-0.02578562271730046
185	0xbf95194bef16bf46	-0.020604311435533228
186	0x3fa1097090925e2d	0.03327514424125542
187	0xbf9c21e1271e5486	-0.0274729900480293
188	0x3fa6f54d5b18c077	0.04484025704403021
189	0x3f82b96c36142fea	0.00914272823367664
190	0xbfa77000001944c0	-0.04577636719899081
191	0x3f9f5341b021c5c3	0.030591036200751775
192	0xbfa552f08696fd6b	-0.041648403577250935
193	0x3fa6e9310398b36a	0.04474785965826451
194	0x3fa77000001944c0	0.04577636719899081
195	0xbfa77000001944c0	-0.04577636719899081
196	0xbfa2a23a779416e7	-0.036393954369527574
197	0x3fa264690713d441	0.0359223195209002
198	0xbf9f84468421fa9c	-0.030778028311483227
199	0xbfa77000001944c0	-0.04577636719899081
200	0x3fa04720ab118cae	0.03179266060103579
201	0x3fa5a9b1ff975af4	0.04231029744157935
202	0x3fa00ec145914fe8	0.03136257147039584
203	0x3fa3180a229495eb	0.037292782517663735
204	0xbfa378047294fd65	-0.038025034892138966
205	0x3fa21cf77a13873b	0.03537724843205444
206	0x3f99c1eb751bc513	0.025153807661756632
207	0xbfa63ff4cb97fcf4	-0.043456697323557864
208	0xbfa77000001944c0	-0.04577636719899081
209	0x3f97d62e3419b2ea	0.023277971200900284
210	0xbfa2cb9041144378	-0.03670931620047829
211	0xbfa52a2f2d16d17b	-0.04133746552853076
212	0x3fa59911a6974907	0.04218344839650184
213	0x3f9cfbe0c51f3f8e	0.02830458834779353
214	0x3fa61d187a97d75e	0.04319073196886224
215	0x3fa5d7b8f5178c93	0.04266145698400083
216	0xbfa0dd6a0e922eb6	-0.03293925693386994
217	0x3fa77000001944c0	0.04577636719899081
218	0xbfa63d790d97fa47	-0.04343775072992578
219	0xbf9127d1aa127eee	-0.016753459935556707
220	0xbfa473a7e1960cb2	-0.03994488362061456
221	0xbfa77000001944c0	-0.04577636719899081
222	0xbfa70e044298db1d	-0.04502881348564911
223	0xbf675962f0192c5f	-0.002850239980749999
224	0xbfa5fc515d97b408	-0.04294065730559998
225	0xbfa58924fd9737dc	-0.042061954456229705
226	0xbfa77000001944c0	-0.04577636719899081
227	0xbfa5c7d322177b70	-0.042540166770541954
228	0x3fa340570794c15e	0.03760024993460108
229	0x3fa69cc357186103	0.04416475713895986
230	0x3fa183416112e182	0.0342045241354212
231	0xbfa49c4037163875	-0.04025459930845524
232	0x3fa5087d3316ad27	0.0410803913940419
233	0xbfa45a7b0e95f18d	-0.03975281289146713
234	0xbf9b0f29841d2c5a	-0.026425026596637792
235	0xbfa11c2f64927263	-0.03341816046415571
236	0x3fa42fbb3595c376	0.03942666081537187
237	0x3f9b3527971d5550	0.026569956396391092
238	0x3fa73e13f8990eee	0.045395492645665544
239	0x3f9e85882920e7f6	0.029806258688246566
240	0x3f8c541dfe1e8ab0	0.013832315747838692
241	0xbf99b774421bb9ca	-0.025113884482317585
242	0xbf6cd122e01f117a	-0.003517692676697046
243	0xbfa58793de17362b	-0.0420500000578666
244	0xbf9767d993193bf7	-0.022857093432602196
245	0xbf99cb10c41bceed	-0.025188695878525392
246	0xbfa078978291c203	-0.03217004269470538
247	0x3f9812b84019f42e	0.023508910095632433
248	0xbfa45c71be15f3ab	-0.03976779408819849
249	0xbfa77000001944c0	-0.04577636719899081
250	0x3fa75ce80f99302a	0.045630695251560674
251	0xbfa27e1c5f93eff6	-0.036118399302694046
252	0xbfa77000001944c0	-0.04577636719899081
253	0x3fa718abcc98e69a	0.04511010048413518
254	0xbf8d0b0c121f4fea	-0.01418122701935683
255	0xbfa0e29a6d12344e	-0.03297884541925865

transformer_encoder.layers.0.self_attn.klinear.bias f8 [32]
0	0xbfa608a17717c14e	-0.043034597194380284
1	0x3fa6089f0617c14b	0.04303452443480412
2	0x3fa608a17717c14e	0.043034597194380284
3	0xbfa5f5a42317acd5	-0.042889718326330296
4	0xbfa6089f0617c14b	-0.04303452443480412
5	0xbfa6089f0617c14b	-0.04303452443480412
6	0xbfa6089f8317c14c	-0.043034538986719356
7	0xbfa6089f8317c14c	-0.043034538986719356
8	0xbfa6089d8f17c14a	-0.04303448077905843
9	0x3fa608a00017c14c	0.043034553538634585
10	0x3f77c7bafc19a356	0.0058057121365003485
11	0xbfa6089f4497c14c	-0.04303453171076174
12	0xbf94cf3bf9166f6d	-0.020321786001303566
13	0x3fa5fc915497b44d	0.04294256360649538
14	0xbfa608a0bb97c14d	-0.043034575366507434
15	0xbfa608a17717c14e	-0.043034597194380284
16	0xbf9ada578b1cf366	-0.026223533502377626
17	0x3f95b32f7117652e	0.02119135024790813
18	0xbfa608a07d17c14d	-0.04303456809054982
19	0xbfa608a13897c14e	-0.04303458991842267
20	0x3f86ee48f818b8e6	0.011196680136972902
21	0x3fa6089ec797c14b	0.04303451715884651
22	0x3fa6089f8317c14c	0.043034538986719356
23	0xbfa6089fc197c14c	-0.04303454626267697
24	0xbfa6089fc197c14c	-0.04303454626267697
25	0xbfa6079c7a97c035	-0.04302681919568877
26	0xbfa608a00017c14c	-0.043034553538634585
27	0xbf7fef490c226dfa	-0.00779655965939296
28	0xbfa608a13897c14e	-0.04303458991842267
29	0xbfa6089e8917c14b	-0.04303450988288889
30	0xbfa608a0bb97c14d	-0.043034575366507434
31	0x3fa608a0bb97c14d	0.043034575366507434
