experiments/fl_train_noise_1.0_max_grad_norm_5/20250423/model_round_10.pt (torch, 62806 bytes, 25 tensors)

embed.weight f8 [32, 8]
000000 72 31 02 9c f2 fc 00 40 a2 37 12 8b 6d 3e d5 3f
       2.1235096157235427 0.33193529683273415
000010 20 dd b0 4e 8e 20 02 c0 10 8a 01 99 10 5c f5 bf
       -2.265896429798559 -1.334976766280878
000020 d1 7c 1e 80 35 9e e6 3f 63 42 9d 9c 50 48 c1 bf
       0.7068126203847901 -0.13501937529737792
000030 8b d4 9a 11 ac 60 d8 bf a3 56 ed 4c 3c 1f f1 bf
       -0.3809003993913584 -1.0701258664097757
000040 61 07 f9 3e d6 35 f8 bf 23 76 15 4b 13 44 07 c0
       -1.5131437740205558 -2.9082399240421792
000050 72 ce 00 79 ce a2 e2 bf bd fa d5 4a 2b ba fa bf
       -0.5823738444655204 -1.6704514430308983
000060 d4 0a ae 43 89 55 13 c0 51 18 f0 a8 4a 70 c1 bf
       -4.833531434533786 -0.13623936890525326
000070 40 5f 7f 62 1a 83 69 bf bf 9d 12 a2 91 fe ee bf
       -0.0031142726256624675 -0.9685753026469043
000080 ed 09 e2 27 33 b9 e1 3f e5 1f f9 10 28 18 f8 3f
       0.5538574007953777 1.505897585202541
000090 3d 19 4e aa 6f 21 e4 3f 51 6c c2 5b 1d ef fb 3f
       0.6290815664549779 1.7458776077608216
0000a0 c8 e6 84 49 ec 56 10 40 b1 5c 3d 99 6f 39 e2 bf
       4.0848857390753395 -0.5695112221682362
0000b0 2d 36 52 d5 a0 1f eb bf d4 85 07 74 4c 3a e8 bf
       -0.8476108709743976 -0.7571165338705961
0000c0 80 96 44 94 70 57 e0 bf bf 61 85 c0 8a 60 e7 3f
       -0.5106737991197434 0.7305349121261812
0000d0 3a 5e bc 56 2d 22 03 c0 db 7c f7 35 f9 88 fd 3f
       -2.3916880394206403 1.8459407909465912
0000e0 b9 f3 69 78 df 05 ff bf b8 a2 2f dc ac 83 fc 3f
       -1.9389338210741995 1.782147274114477
0000f0 db 03 8c 2d db 83 ec bf dc 05 28 01 70 9f d0 3f
       -0.8910957231129218 0.25973129380153437
000100 4c 41 fa d6 c2 7d 02 40 f1 99 d5 5a c4 08 07 40
       2.3114067835923944 2.879280767100902
000110 f4 c7 40 62 16 94 f2 bf c2 95 5b 81 c1 9a eb 3f
       -1.1611541593560988 0.862641098644126
000120 34 ac d3 17 09 23 01 40 2c 5f ae 74 cd 06 cc 3f
       2.1421071874115345 0.21895759770699763
000130 72 73 77 db 29 95 bf bf 99 10 47 1a d9 2f f3 bf
       -0.12336980445929926 -1.1991816545933374
000140 15 2b 6f 16 4e ba ec bf 4a 46 7c c3 1a c8 fa bf
       -0.8977423132103889 -1.6738536487722677
000150 a0 19 ac bc 3f 14 02 40 63 bd 1d fb c7 4a e3 3f
       2.2598871936817915 0.6028785614598003
000160 3f a8 44 ec 4b 89 00 40 e3 f5 51 c9 a1 f2 d6 3f
       2.0670393427326696 0.3585590806977434
000170 70 77 62 d3 da c9 f9 bf 47 11 04 7b 80 03 cc 3f
       -1.6117809540951065 0.21885686880717456
000180 89 03 01 bf b0 cc eb bf a7 75 6e b8 28 24 bb bf
       -0.8687366228624437 -0.10602049353334185
000190 60 d6 8f d1 0c 12 05 c0 fb 9c 30 66 a0 9c fa 3f
       -2.633813512041158 1.6632389060776507
0001a0 79 3d 42 58 7d c5 09 c0 c0 aa ae 49 9a 78 f9 bf
       -3.2214304824080355 -1.5919440153326576
0001b0 f1 f3 eb df 13 31 00 c0 9b 14 23 04 6a 3e fb bf
       -2.0239636892206296 -1.7027378236391886
0001c0 56 94 ea 8d 5a 79 d7 bf 87 c0 f3 83 d1 b4 e7 bf
       -0.3667818437482472 -0.7408225609961087
0001d0 66 b5 e9 da 10 58 d7 bf 41 17 cf 6e ef cb e3 3f
       -0.3647501123258138 0.6186444439160611
0001e0 50 78 33 12 03 74 e0 bf 87 60 ea fb 8d b7 d1 bf
       -0.5141616206635806 -0.2768282852280283
0001f0 11 9c f1 cb 19 2e 00 40 80 73 c2 46 00 88 fa 3f
       2.0225101407154473 1.6582033885999579
000200 dc 7f e9 52 a2 2c fb 3f 12 94 e3 7e e9 f7 bb 3f
       1.6983969916109265 0.10925158832431262
000210 40 22 66 16 ac 79 46 bf 4d ae ff 1f 7a 48 fc 3f
       -0.0006858911772705326 1.767694592471247
000220 da be 98 f9 c0 8a c9 bf d6 03 21 ba 9a 64 d9 3f
       -0.19954693019234676 0.39676540543228833
000230 5d 56 f7 d0 30 08 e6 3f c6 e1 08 0a 65 53 f9 bf
       0.6884998399134009 -1.582860030363109
000240 57 b6 b5 ef 15 cd b3 bf 39 2a 83 dc 7e 9f 04 40
       -0.07734810926714296 2.5778786876228676
000250 e4 6c 9e d4 dc be 00 40 fd 87 d9 7e 2a b4 f2 3f
       2.09319463833309 1.1689858393733623
000260 c7 bd 25 d2 c8 ff fb 3f 76 22 9a 29 7c 29 fb bf
       1.7499473770984524 -1.6976281762200904
000270 bc 81 ed ce e7 45 d7 3f 07 32 42 83 55 22 01 40
       0.36364169318951745 2.1417646650863875
000280 55 40 0b a5 fa 9e f2 bf 1f 12 81 95 f1 76 02 40
       -1.1638132521657287 2.308077972413471
000290 a7 42 4a 00 e5 ea c8 3f 30 5c 49 31 2e 45 ee bf
       0.19466841234363594 -0.9459448778751547
0002a0 e4 a9 24 88 15 4b e5 bf c0 af 19 06 6f 43 02 c0
       -0.6654155406043256 -2.282926604899302
0002b0 89 3d 2f dc ae 43 01 40 fa 8c 76 2f 1f a9 e6 3f
       2.1580483629147165 0.7081447531712961
0002c0 44 4b d5 5e d1 c2 fa 3f 2a d5 f9 4e 8a ed c0 bf
       1.6725629524632533 -0.1322491536736064
0002d0 1b e0 30 88 93 7c 09 c0 b7 d3 0a 85 4f 8d f3 3f
       -3.1858282699504463 1.2219996640171595
0002e0 6a fd 37 2e b6 49 07 40 a5 7a df 6e b6 22 09 40
       2.9109920130574 3.141949526019135
0002f0 15 6d 2d d8 7a 92 c0 bf a3 86 ae b5 cf d8 e3 3f
       -0.12947021060504285 0.6202162312003633
000300 98 a6 97 a9 d1 8f 16 c0 ff 25 68 48 a1 9e fa 3f
       -5.640448236351993 1.663728030051402
000310 f7 1a c7 e4 05 f9 9f bf 11 a8 2b b1 9f 72 ff bf
       -0.031223384941564594 -1.9654843254779772
000320 2a 82 b0 d1 c2 2b f1 3f 44 89 a9 b8 b6 3e fc 3f
       1.0731838408465912 1.7653109753960772
000330 a9 a4 a5 13 35 a5 fd 3f be 04 68 2c da 46 f8 3f
       1.852833821054711 1.5172979101774184
000340 74 41 06 60 ef d1 ee 3f 96 3f 3c 82 07 40 06 c0
       0.9631268382527609 -2.781264321769366
000350 e3 05 42 53 8d 85 ed 3f 2d 5c dc 92 41 a4 f1 3f
       0.9225527406817345 1.102601598429611
000360 fa dd 21 4e 56 59 d7 3f 48 c8 50 d7 74 1c 10 40
       0.36482770567042133 4.027789463334621
000370 02 cd 06 39 7e 9d fd bf 8f 97 39 46 a5 d9 ea bf
       -1.850950453529379 -0.8390680667478011
000380 ad b0 5c 4c 6a b1 e1 3f a3 4e 1b 01 59 b4 ff bf
       0.5529071322867104 -1.9815301936368221
000390 fb bd 99 3c 81 c5 f5 3f da b7 17 28 d5 31 05 40
       1.3607189528664765 2.6493323452223025
0003a0 be 49 2c a2 06 c0 ec 3f 76 2b 39 27 80 cc e0 bf
       0.8984406630937014 -0.5249634519653756
0003b0 38 b5 e1 af 3d cc f1 bf 23 17 aa 3f bf 32 02 40
       -1.112363516843585 2.2747788404257263
0003c0 36 1d 04 2a 55 42 cb 3f 1c da f2 f7 7b 87 f9 3f
       0.2129618125111194 1.5955772099965833
0003d0 9b d0 9c b4 35 3e ce 3f 28 54 25 69 d3 f2 da 3f
       0.23627349204037248 0.4210709120573619
0003e0 b0 13 90 53 6f 50 04 40 0b 45 5e 2e 31 88 cd bf
       2.5392748382896215 -0.2307187534720828
0003f0 28 7c 38 e1 b9 a6 ef bf ca d7 bb 1b fc cc 0c 40
       -0.9891023062554085 3.6000902334880935
000400 26 0e 20 db 98 61 06 40 bb 90 ac e0 43 a4 fa 3f
       2.7976548308522693 1.6651037956553825
000410 6d ef 6a 8d 72 73 de bf 0d 09 8c 14 a4 8a fe bf
       -0.4757963543922788 -1.9088478853814792
000420 bd d2 ee 83 0e 05 01 40 a9 85 5b ba f7 15 f6 bf
       2.1274690921075874 -1.3803632049169698
000430 c4 a5 aa 2e 52 19 f4 bf 54 bf 0b 05 3b d8 11 40
       -1.2561818907655473 4.461162642328265
000440 7f 7a d6 c9 ee e3 e8 3f c6 db 97 8c e7 50 ea 3f
       0.7778238241333638 0.8223760362587818
000450 ac 12 f6 e1 92 b3 09 c0 38 e9 96 ac 21 c2 d8 bf
       -3.21268250019269 -0.38684884886210424
000460 58 f4 db 0a a0 c7 07 c0 06 b0 1c 01 98 33 f0 bf
       -2.9724732254385735 -1.0125961345138434
000470 dc 5f 71 98 63 35 01 40 6d be 5a b5 86 3f 01 c0
       2.15106886955253 -2.1560186546628786
000480 21 36 97 3f 36 cd c6 bf cf ec ec 87 46 45 ec bf
       -0.17813757042897385 -0.8834564833445259
000490 a0 cc 60 68 8d a0 eb bf 6f e4 3d 5f 84 1c 08 40
       -0.8633486784587099 3.0139243546259915
0004a0 0e b1 a3 c3 33 8c 0b 40 ea 24 7e 84 96 78 e0 bf
       3.443458107407543 -0.51472020986071
0004b0 40 cb 2c d4 a6 87 f2 bf 01 ea 5e e1 e8 50 f7 bf
       -1.1581180847249044 -1.457253342012905
0004c0 5f 94 d3 80 2a cd 05 c0 ac 36 2c 53 3d a2 01 40
       -2.7251787247246706 2.204218530451575
0004d0 ca 10 b9 73 c9 b5 f6 bf 3c 73 03 50 09 c9 ea 3f
       -1.4193815727640406 0.8370405733836388
0004e0 f9 a0 e9 33 1f d0 01 c0 cf c9 32 2f 74 cf fb 3f
       -2.2266220145867206 1.7381479114234144
0004f0 4c f1 ef d4 43 d4 f6 bf 5c 3c 67 67 52 b1 fb bf
       -1.4268225019323664 -1.7307914771261244
000500 9f 96 46 ea 7b 03 ce 3f 87 40 16 dc a7 e3 d3 3f
       0.23448132457013046 0.3107700013433789
000510 7b 0f 3b df 1a fb e8 3f 3c e7 62 fe e1 43 05 40
       0.780652462003203 2.658145892518318
000520 7b a1 05 b2 b2 bb 02 40 f6 67 d5 e0 9c cc fd bf
       2.3416494281738642 -1.8624542982638537
000530 ec fe 23 5c ee 2d e2 3f ea 33 7b cb 5f 2a e3 3f
       0.5681068229314099 0.5989226316684129
000540 18 7a 08 66 f6 c9 d1 3f 72 89 48 d7 ba 25 02 40
       0.2779518124024505 2.268422777081633
000550 36 42 72 9f 21 75 f8 bf 4a a2 28 ea a4 2e 00 c0
       -1.5285965183612809 -2.0227754872942443
000560 4e c4 bc 33 05 c0 00 40 17 14 24 ed 73 d9 eb 3f
       2.093759922216612 0.8702945357950992
000570 a7 9e f5 20 61 ce f8 3f 36 38 31 a1 bf 4c 00 c0
       1.5503855979422185 -2.0374748795648214
000580 81 d3 8f e7 ac d8 03 40 4a e0 0f 8e bd 59 fa bf
       2.4807985392348546 -1.6469092892930512
000590 9e 96 a2 e3 f6 16 09 c0 0f 48 43 a1 52 42 0d 40
       -3.136213091277411 3.6573841665895155
0005a0 c6 20 c4 de db 23 fc 3f 4e af 6d 27 66 65 f3 3f
       1.7587546064187776 1.2122556247877188
0005b0 c7 17 8f 08 5c 94 bf 3f be 6d fc e6 ac 3e fe bf
       0.1233575364013567 -1.8903016112225113
0005c0 30 5e 42 dc 4a b1 d2 3f e3 a0 bc 01 08 eb 07 40
       0.292071070763515 2.989761365479454
0005d0 3a 5a b6 fd 9b 23 ef 3f 1d 11 9c b6 31 7d 0d 40
       0.9730968432730329 3.6861299768808196
0005e0 64 93 d8 42 8d 21 be bf a9 9e 84 df 86 1e e8 3f
       -0.1176994598577728 0.7537264218890033
0005f0 fc c3 54 72 cb 5e 07 40 85 52 f2 82 ac 05 f2 3f
       2.9212864811056516 1.1263852229214149
000600 0a 9c 4f 43 51 c2 cf 3f 6f 6d c2 39 d4 42 e6 3f
       0.24811759745281875 0.6956578376879586
000610 ca e5 a3 1e dd 21 f5 bf 94 1b 23 60 d9 bd d4 3f
       -1.320767516792659 0.32408747089760337
000620 60 f6 60 82 5b 92 f3 bf be 0b 69 81 25 84 e2 3f
       -1.2232318013115204 0.578631165270387
000630 66 50 f8 73 90 bb 00 40 21 2f ca e5 f0 c7 eb bf
       2.091584115996784 -0.8681568611222908
000640 dc 98 9f 4b b3 3e f6 3f 29 32 0d 4d 7b 21 f1 bf
       1.3903077081718527 -1.0706742296052971
000650 94 f9 a4 aa 4b 71 fe 3f c7 da cc 15 f7 1c d9 3f
       1.9026600518987822 0.39239289406706884
000660 fe ea d6 7f 61 60 00 40 03 09 1e 5c 31 8c 07 40
       2.047060965296054 2.943453521410562
000670 00 04 6d f0 ef e9 e3 bf a7 04 03 8e 0b 1d 00 40
       -0.6223067947213394 2.014182195155246
000680 f7 68 25 2e ee fa fe bf 67 64 82 08 0e bd 00 c0
       -1.9362623026450458 -2.0923119225304165
000690 e0 a6 fb 56 99 54 cc bf 38 92 7c 32 c0 38 f0 bf
       -0.22133175608842404 -1.013855168546014
0006a0 2c c7 19 b6 8a 59 eb 3f 6d 13 36 9e 59 48 e9 3f
       0.8546804005293089 0.7900817956984675
0006b0 e8 b3 17 d0 dc 76 87 3f d2 9f 61 39 58 6b 0a c0
       0.011457181072694625 -3.3024143679540225
0006c0 e0 5b 6f e4 fc f6 f7 3f 7d d9 68 11 ee f2 fb bf
       1.4977997706644075 -1.7468090705930017
0006d0 38 d5 bb 29 c0 95 0b c0 83 08 2c d2 62 8b f8 3f
       -3.448120428127961 1.5340297899097386
0006e0 2d 78 f3 4f 96 31 e6 bf 0e bf 90 8d 0b f2 c0 3f
       -0.6935531198066706 0.13238663112996857
0006f0 e2 ea 67 32 84 d2 d3 3f 9a 6e 31 b5 38 69 de bf
       0.30972390100911984 -0.4751722115958984
000700 89 04 7f e8 dc 78 0a c0 17 ab 19 a2 ec fe e6 3f
       -3.3090150989306193 0.7186186948796117
000710 27 96 68 0f b8 3c 0b c0 6c 2f 4c a6 e7 95 f6 bf
       -3.404647941951015 -1.4115978713989206
000720 8c 93 17 39 7c f2 d0 bf ba 69 69 1e f7 92 f9 bf
       -0.2648001248874656 -1.5983802020988223
000730 38 38 7c 64 18 59 00 c0 53 fb 35 40 e1 35 d8 3f
       -2.0435035562905135 0.37828856726257704
000740 0c f5 51 66 4e 8b 06 40 ad d9 15 bc bf cb 00 c0
       2.818020629287849 -2.0994867986839467
000750 7f ba b5 02 34 15 d1 bf 05 2f 5d 9c 8f 18 fb 3f
       -0.26691913857113286 1.6934963329285335
000760 c0 5f ab d1 af 7c f9 bf 74 41 4e 6b d7 90 c4 bf
       -1.5929411115848637 -0.1606702112153574
000770 c1 4e 3e 42 c4 01 f7 3f 58 e8 7a b3 77 bb f5 3f
       1.4379313075668707 1.3582684527341566
000780 08 03 07 7d eb 18 ad 3f 04 54 ff ec 8a 3b e7 3f
       0.05683074856961495 0.7260183934073443
000790 b2 7a 87 b7 1e 92 f4 3f 74 17 38 8e 0e 2d df 3f
       1.2856738251790998 0.4871250523432231
0007a0 18 39 83 cc a5 3d f0 bf 00 ff 52 e1 73 f1 d5 3f
       -1.0150506962559742 0.342862100642364
0007b0 f4 5e 68 ee 09 0f f8 bf e4 84 89 52 17 b0 02 c0
       -1.5036715805817353 -2.3359819839684963
0007c0 57 47 1e 80 23 62 dd 3f 80 fa 7f 1c 85 58 4f 3f
       0.45911490928221127 0.000956597324147726
0007d0 44 0f 18 47 d1 26 cc bf c8 9f 68 0f 93 c4 d0 bf
       -0.21993461581598173 -0.261997952506587
0007e0 e4 a1 0e 45 a8 ef d9 3f a6 4e f6 89 ec f1 f6 bf
       0.405252520979529 -1.4340634717126846
0007f0 b7 eb 32 92 f5 d9 ed bf 9f 97 ee 66 b2 30 e6 3f
       -0.9328563552329489 0.6934444437399526

embed.bias f8 [32]
000000 ee 38 35 e8 12 14 f1 bf d9 2f 8a c4 44 d9 f2 3f
       -1.0674008436795321 1.1780440976462982
000010 0f 05 57 b3 d2 bf f7 bf 8d a0 9a c0 07 40 f7 bf
       -1.484331799074713 -1.4531323932260733
000020 f0 7d 73 d9 3d cd f6 3f ac 90 ed 91 d5 91 ff 3f
       1.4251078123269245 1.9731040668785154
000030 41 3f 8f 82 76 e0 05 40 ad 02 30 10 a8 d6 f7 bf
       2.7346010398831884 -1.489906371338445
000040 34 a3 09 a6 2d 2d dc 3f 17 28 98 21 33 8d d3 3f
       0.440257465501918 0.30549314766597163
000050 00 6a aa f3 1d f4 eb bf 75 cf 65 71 8a e0 0e c0
       -0.8735494383902846 -3.8596390589900076
000060 08 df 10 dc b1 b1 f1 3f 7c 6f 6d 97 4c 44 12 40
       1.105882510788378 4.566698423437511
000070 f0 a6 2c af 23 52 e3 bf 82 d6 50 47 30 88 c9 3f
       -0.603776781213325 0.19946864587989316
000080 96 79 21 0b 9f d6 b6 bf ce ea b8 ce 71 7b e6 bf
       -0.08921236058947665 -0.7025689160867274
000090 08 1d 2c be e1 e5 da 3f dc 01 59 2a 3d 15 00 c0
       0.42028087207332065 -2.010370570031439
0000a0 d3 de 77 b3 38 9d f2 3f 5c fc db 11 93 a5 11 40
       1.1633841524580262 4.411693839122645
0000b0 94 47 59 4a 55 e8 b2 3f a6 8e 1d 0a 00 e6 01 40
       0.07385762276797286 2.2373047628660343
0000c0 c9 fa 6f 2d bb ae 05 40 d2 96 d4 b5 21 18 f2 3f
       2.710317950229499 1.1308915236235646
0000d0 b3 54 7e 87 cb c7 f0 bf 74 70 96 f4 c9 d8 12 c0
       -1.0487780850137767 -4.71170789879044
0000e0 d8 40 27 1a 7e a9 f9 3f 2d 0a ae 55 44 14 d6 bf
       1.6038800260176256 -0.34498699538395067
0000f0 cb 21 1c f2 d1 bf fa bf 19 c3 25 e3 ae c8 f7 3f
       -1.6718310792367557 1.4864949105214633

pos_enc.pe f8 [1, 12, 32]
000000 94 e8 19 a5 17 ed d8 3f 3e c8 3c 2f 17 e5 dc bf
       0.38947096942104875 -0.4514825784018547
000010 d0 4f 12 61 5c 78 f0 3f cb 3f e5 4a 23 46 d4 3f
       1.0293849746567396 0.3167808753396428
000020 77 6a 61 88 38 44 ec bf 16 63 4e 9a 1f ed e2 3f
       -0.8833277381593935 0.5914457334320982
000030 ab 15 78 69 dd 42 04 c0 f1 6a db 81 6e fe f5 bf
       -2.5326488723537373 -1.3746171066802015
000040 9a e2 91 12 42 04 05 40 2c 57 dc 4d a9 fe bf bf
       2.6270791483660334 -0.12497957373520013
000050 09 fb e9 90 5e 87 f0 3f f0 56 e0 3e ff 08 cf bf
       1.033049169607411 -0.24246206827290662
000060 7f ca 3f bd ef 16 ea 3f 6a 10 3b 81 e2 ad ff 3f
       0.8152998634598844 1.9799523399424523
000070 9f 8f d5 8f 8f d9 f4 bf 84 73 76 d4 23 6c 00 40
       -1.3031154268764806 2.0528027151726196
000080 e0 2b cd 22 54 e7 01 c0 e1 88 fb 64 87 6c 07 40
       -2.23795344532617 2.927992619444112
000090 00 74 f9 9e 16 48 eb 3f 48 49 87 ce 03 1e d9 3f
       0.8525498490304244 0.3924569622878562
0000a0 f0 d2 04 79 01 2f f5 3f a8 15 77 58 b6 e0 0e c0
       1.3239760138796406 -3.8597227965680823
0000b0 f1 7b b2 6b 26 bc 03 40 cc 32 a7 0d 22 18 00 c0
       2.466870156654743 -2.011783701577178
0000c0 91 61 ea 77 cc bf fb bf a7 15 4c 9a 01 9f ff bf
       -1.7343258556557866 -1.9763198878511987
0000d0 8a ca e1 b3 d4 3b b4 bf 7f 6a ab a8 ac a7 d6 bf
       -0.07903794662142097 -0.3539840361751558
0000e0 ba 03 20 03 6d 39 f3 bf 63 cc 3e a6 8d 11 00 c0
       -1.2015199777672323 -2.008570956031279
0000f0 89 ef cd c8 3e e0 d6 bf 14 d4 3f 51 c2 cb ee bf
       -0.3574368439656089 -0.9623729311848614
000100 fa c4 2c 2c 41 4a 01 c0 0a 8e 00 b7 16 5b cd bf
       -2.1612571192896413 -0.22934230743076994
000110 6b de a1 af fa a3 f1 bf 00 e9 1e 6a aa a9 10 40
       -1.1025339947354051 4.165689142357451
000120 18 54 c1 74 c4 38 0c 40 e6 9a d8 eb cc be b5 3f
       3.52771846022598 0.0849426341816116
000130 ce 66 ea c9 f9 22 e6 bf 2a aa 58 35 98 10 fd 3f
       -0.6917694991745635 1.8165514072267208
000140 c0 82 c2 29 c0 cf 05 c0 36 fa 68 44 ec 71 f8 bf
       -2.726440740822312 -1.5278132126110342
000150 52 3f 2c fa ed 2c f0 bf 70 8c a4 6e 7e 9f f0 3f
       -1.0109691402794465 1.038938934515297
000160 40 e7 85 ad 1e ca d0 bf 0c d5 d4 dc e8 ac ec bf
       -0.2623364157258159 -0.8961071313011941
000170 bc b2 68 92 2f 3c bb 3f e1 dd 05 51 d7 fe f7 bf
       0.10638711285055086 -1.4997170605619135
000180 f0 d7 48 60 fe da e3 bf 5d 27 1e a7 b9 d6 f0 bf
       -0.6204826241071242 -1.05242314606081
000190 ab 0b f0 6c b1 ce f5 3f ba 9c 3b a5 e8 90 fe 3f
       1.362962174928479 1.9103781179817774
0001a0 97 e7 6c 62 88 a6 e5 bf 9d f8 33 80 5d 6f e5 3f
       -0.6765787050601259 0.6698443893399318
0001b0 9a ca 92 d0 d8 fb ef bf 49 c9 13 73 b2 cd f7 bf
       -0.999493033761911 -1.4877190108496328
0001c0 63 4b 24 69 4f 67 b9 3f 2e ac c7 3e 07 2e f6 bf
       0.09923263852060198 -1.3862373783438318
0001d0 f6 71 e2 12 d6 40 c1 bf 9e 82 86 7c a2 76 d7 3f
       -0.13479114458176839 0.36661588822065905
0001e0 79 c0 4f c0 c5 86 c4 3f af 07 6f d3 49 d1 e9 bf
       0.16036292925082643 -0.806797898251025
0001f0 8c 93 bb 29 4d 58 10 c0 de e3 d2 02 e7 a8 01 c0
       -4.086231853555443 -2.2074718685730508
000200 68 9f 9e fb 63 6a f8 bf 20 65 ba b6 d4 3f 95 3f
       -1.525974257363453 0.020751308110083078
000210 80 86 b8 14 ac 14 fb 3f cc 09 09 89 f0 e1 f5 bf
       1.6925469216734257 -1.3676610329572325
000220 81 c4 84 e0 f7 79 fc 3f 0a 01 6b 64 d1 49 de bf
       1.779777409578202 -0.4732554894108182
000230 8a 13 e5 b2 03 b1 00 c0 56 9b 6a 90 19 ed fb 3f
       -2.086432836166243 1.745385707976046
000240 54 a8 f9 d1 0c fb ee 3f 5b 5f 82 5f ef d7 08 c0
       0.9681457615927322 -3.1054370366727375
000250 c3 7e 6e 1e 0b 02 ea 3f 59 09 bd 83 e1 58 e9 bf
       0.8127494425170528 -0.7920997212425319
000260 a7 2c ef dd be ff f3 bf 50 cd ff 30 86 bc ed 3f
       -1.249937884264719 0.9292632061973709
000270 17 5a 14 b2 45 e3 06 c0 bf df a8 63 75 6b c3 bf
       -2.860972777601329 -0.15171687475389992
000280 e1 3f 2b 02 ec 93 f1 3f 95 a1 2d 3f 73 ba 04 c0
       1.098613747093616 -2.591040128307393
000290 5c 51 68 03 75 3d f3 bf a0 31 26 08 c7 31 00 c0
       -1.2025041707139144 -2.0243054043441617
0002a0 1f 69 a9 a4 51 9b f3 bf da 83 08 2f d4 f1 05 c0
       -1.225419657907487 -2.7430804895852647
0002b0 f2 50 e7 6f e7 36 ff 3f 5b 51 56 af 70 83 f7 3f
       1.9509043093904066 1.469589886580329
0002c0 e8 12 22 a2 c4 ba 84 bf 02 78 77 a6 7b ed ef 3f
       -0.010121856878194405 0.9977396251013035
0002d0 59 fa d0 0e 5b 87 db bf f7 e6 3f 60 1a 1d ef 3f
       -0.43013645598322153 0.9723026161074974
0002e0 3c 02 44 3e 80 18 17 c0 bd a9 58 ab db e7 d6 3f
       -5.773926709080623 0.35790149434128776
0002f0 f5 c8 58 c2 96 fa dc bf 4f 60 36 d2 44 c5 e4 3f
       -0.4527947328489426 0.6490806680403781
000300 18 49 19 2f 2f 7e cb 3f ed a6 1f d2 bb 8d f4 3f
       0.2147883396124335 1.2846029479937286
000310 7a 66 07 e7 c9 c3 ed bf 7c 5a 5a 4a d1 95 00 40
       -0.9301499855311726 2.0731530960868536
000320 34 7b 24 ef 2e 7d d3 bf 96 04 a3 00 c8 ac 02 40
       -0.30451558450470206 2.3343658494710082
000330 ab 80 da 4c 11 a4 f4 bf cd 31 6f 08 eb f6 ec 3f
       -1.290055561265073 0.9051413693173856
000340 61 a0 4f 89 51 f0 f9 3f f1 7a 0a 37 56 e1 fc bf
       1.6211715091431176 -1.805013861659685
000350 a7 d6 e3 c7 13 5f fc 3f 10 eb e6 1b c8 f5 f3 bf
       1.7732122238352674 -1.2475052919314216
000360 58 b1 81 25 2d 60 e6 bf 55 fb c7 62 06 f0 06 c0
       -0.6992402775336286 -2.867199680068931
000370 91 42 ea 7b c4 db 00 40 04 4d 03 cd ee e5 cf 3f
       2.1073083573213087 0.24920449266810618
000380 ba e7 2b b7 d8 f1 f9 3f 8e 60 d1 b3 cb 8b 11 c0
       1.6215445666443729 -4.386519250540131
000390 4a c5 17 d9 28 c5 fb 3f 1a 0b 38 4b e1 8e de 3f
       1.7356346588315597 0.4774707064208755
0003a0 2e 23 e1 7b 9e 5e d1 3f d2 31 a7 06 73 66 ee 3f
       0.2714000901947199 0.9500060205405652
0003b0 39 bc e7 85 ec 32 00 40 82 40 db 58 b0 ae f0 bf
       2.0248651944489464 -1.04264864644577
0003c0 e5 0a b5 d0 fe a9 0c 40 42 56 56 cb 5f 74 dc bf
       3.5830055527925304 -0.44460291726258927
0003d0 a2 9c ce c4 11 cb f3 bf 91 78 71 2d 30 42 e6 bf
       -1.2370774925018755 -0.6955796134532354
0003e0 39 96 78 1e df 5e f9 3f b0 45 90 fd 77 fc fa bf
       1.5856620016360365 -1.686637869341535
0003f0 26 db 59 e3 c4 a1 d0 bf 81 06 15 f2 26 4c dc 3f
       -0.25987360193487274 0.4421479572375589
000400 6a f1 c0 3d a7 05 d0 3f a9 52 72 db dc f4 fb bf
       0.25034504919655964 -1.7472809383518018
000410 6f 77 8e 43 e1 55 f4 bf f4 f2 49 f5 be 76 e7 3f
       -1.2709667815138024 0.7332453528211702
000420 4f 88 55 56 5e 73 f3 3f 47 9e 1a 78 0f 9e 05 40
       1.215666138880369 2.7021779425738575
000430 65 d9 1b 13 51 cc e1 3f 89 74 f1 7c 99 36 f4 3f
       0.5561910031527019 1.263329971370043
000440 fe 0f 4a ca cf 01 bf 3f 5d fa d3 ee 61 3c f6 bf
       0.12112139404968045 -1.389741833612468
000450 53 6a d0 d7 9d ad fb 3f 0f 71 44 6f c9 11 d5 bf
       1.7298868589629322 -0.3292106234164444
000460 58 c0 d8 dd 55 f3 f8 3f de cd 98 e1 c8 4c be 3f
       1.5594080606351977 0.11835914142357448
000470 b9 98 4f 7b c9 5d ea 3f fa 2e 05 23 84 2b 09 40
       0.8239486130157935 3.146248124690712
000480 20 b5 8e ef ae dd fa bf 38 f1 71 59 58 cc f1 bf
       -1.6791219098771037 -1.1123889440487584
000490 d2 d3 c2 7b c0 37 f6 3f f6 1a 60 17 f0 53 e8 3f
       1.3886113008895689 0.7602463203955654
0004a0 ca 2c ea c2 75 f2 cd bf 1c 8f 30 77 2c 89 01 40
       -0.23396179215737894 2.1919793426221883
0004b0 ec 49 c0 b7 03 3e 04 c0 bd ab 2e 0d dc eb f6 bf
       -2.530280528598487 -1.4325829043325335
0004c0 23 ec 22 ae 11 5d e9 bf 8d bf 5b d4 2c 9e fb 3f
       -0.7926109696485394 1.7261169715165778
0004d0 47 f9 4b 24 ab 61 ee bf 3e d4 90 6e 04 6d fc bf
       -0.9494224270745598 -1.7766155547117388
0004e0 d3 5f ce ca 4c 50 f1 3f 7c 88 ef a6 b2 2f ef 3f
       1.0821044847598287 0.9745724926435879
0004f0 d9 16 4d 75 19 a7 f8 bf 30 0e a9 78 46 19 e2 3f
       -1.5407957632136713 0.5655853611610322
000500 90 10 39 56 80 ab e8 bf 0c cc 9a 94 3c ec f0 3f
       -0.7709352191964332 1.0576749615545422
000510 fc 91 ac 99 34 51 11 c0 ce 9d f8 c6 78 73 cf 3f
       -4.329302216680386 0.24571141925228662
000520 cd b4 fe cd 26 cb de bf 66 e1 d4 79 7a 3e e4 bf
       -0.4811493884724996 -0.6326267604372731
000530 09 89 8c ba 93 84 f5 bf ca 34 aa ca 1b 56 f9 bf
       -1.344867447573565 -1.5835225979420096
000540 fe 99 ea 5e db ee ef 3f 11 2e d5 b0 d1 41 f0 3f
       0.9979073385082413 1.016069117310398
000550 8c b6 42 e0 34 72 f7 bf 4c 5d fb 4c ee ec de 3f
       -1.465382457750283 0.48321111219180035
000560 28 6b a2 ae 5d dd bc 3f 88 4c bc ee 02 d0 f7 3f
       0.11275277627502744 1.4882840467078342
000570 f1 c8 20 5c d8 1b fb bf f9 eb 01 77 4b 9a f0 bf
       -1.6942981337311347 -1.0376696251612414
000580 51 5b 43 5c 23 d0 e3 3f 63 11 7d fc ea a9 e2 bf
       0.6191574861539754 -0.583241933004086
000590 62 3c 71 be 39 bb f6 bf 63 7c 0f 77 47 78 01 c0
       -1.4207093657639907 -2.1837300588227193
0005a0 eb e4 99 84 33 4d f6 bf a0 45 4a ed 19 12 01 c0
       -1.3938479594929116 -2.1338385141650207
0005b0 4c 98 ae 0a d1 90 01 c0 5e 84 22 83 29 d3 04 40
       -2.1957112154514444 2.603106522074582
0005c0 43 3c 57 b6 49 b3 fa bf e2 ef d2 d8 c3 51 f5 bf
       -1.668771469372374 -1.3324621648489416
0005d0 22 7e 7d 01 a2 09 ce 3f bf cf 13 9e 26 41 c6 bf
       0.23466897080196342 -0.17386324614164825
0005e0 ba b8 a7 7f b4 19 e4 3f 15 c1 64 7c 45 23 e0 3f
       0.6281378262772457 0.504305594402498
0005f0 05 af 24 5c 60 0c 07 40 f8 97 09 8f 43 4f e2 3f
       2.8810431669898002 0.5721757692051588
000600 78 a4 5f 95 cc 4f a6 bf 63 5a fb 56 02 e6 e2 3f
       -0.043577569231111946 0.5905772875656335
000610 23 0a 47 8d 5d 42 f1 3f eb c9 a5 c4 9b b2 d0 3f
       1.07870249926112 0.2609013958346213
000620 a1 06 57 58 cd 2a 03 40 16 e7 4c 91 9f 56 0c 40
       2.395899477153606 3.5422965385049663
000630 85 04 d8 ce 8e 77 e4 3f fc 66 61 80 b7 3c e6 bf
       0.6395944633406009 -0.6949117190772252
000640 c6 44 ad a3 29 ee f2 bf b2 6b 94 a0 79 58 c0 3f
       -1.183145179140682 0.12770004597481727
000650 b4 20 84 15 b1 eb fe 3f 2e 6e fa 10 3c 20 04 40
       1.932541927382812 2.515739567415742
000660 59 c7 bb e5 83 da f8 bf 82 bf 94 c0 c9 28 d3 bf
       -1.5533484434094673 -0.2993645077394761
000670 28 1a 64 99 42 3a d4 3f 61 38 ff 22 22 89 04 40
       0.3160559175452442 2.5669596418511422
000680 12 8a f8 1b b3 21 01 40 72 e7 f3 1a 2c dc fb bf
       2.1414549050543963 -1.7412529995767412
000690 dc 54 03 14 d8 ad 0d 40 dc 14 b0 66 0f a0 e7 bf
       3.7098847926632583 -0.7382885938283397
0006a0 5a 1b 3c cf fb fa df bf 65 56 67 0d c9 28 04 c0
       -0.49969382512829486 -2.5199147269402595
0006b0 42 5a 70 a4 22 c2 16 c0 f6 47 c4 82 9f 9e ef 3f
       -5.689585275037247 0.9881131700551566
0006c0 d9 51 f7 fa 3d fb 00 40 c3 b7 8b af 6c ed ee bf
       2.122676811859702 -0.966482489455068
0006d0 54 e2 5e 19 bd fb ee bf ce 50 c6 24 91 88 aa bf
       -0.9682298179169018 -0.051823173274131315
0006e0 74 a4 a4 f6 2f fe bf bf 55 8e 2f 87 28 d2 e5 3f
       -0.12497234126625917 0.6819040909144386
0006f0 68 ea a1 46 41 95 fb 3f 22 ed 68 49 f2 66 04 40
       1.72393920508207 2.5502668128152814
000700 a5 da 3e 95 29 31 f1 bf 9f 2d e2 f6 e6 dc f1 3f
       -1.0745025472548744 1.116431202305513
000710 1c 71 c7 6d 41 19 05 c0 44 af 1a 34 6b 69 ca bf
       -2.637331826828939 -0.20634212536003294
000720 f1 bc 6a f9 ef 15 f6 bf 26 28 6c b2 59 47 d4 bf
       -1.3803558104371485 -0.3168548815161806
000730 de d9 93 5a bf 60 c4 3f 94 85 8a 09 e6 37 d5 bf
       0.15920249865275954 -0.33153677875278587
000740 d2 a4 fc 51 93 87 e2 bf d4 f1 b1 0a 34 c6 0b 40
       -0.5790497399622387 3.471778949313583
000750 b0 f9 eb a2 81 3f ea 3f 47 96 03 85 67 15 07 c0
       0.820252245146369 -2.885451354190795
000760 de 49 e7 0f de 57 e3 bf 11 54 41 bf 7e 96 f7 bf
       -0.604476004659144 -1.4742419691949673
000770 88 e3 a5 61 10 ed f0 bf 94 c7 cd 41 80 13 f0 bf
       -1.0578769506812211 -1.0047609873258567
000780 28 16 72 6b c5 63 dc 3f ee 94 37 fe 17 6b f3 bf
       0.44358954899539293 -1.2136459284168342
000790 69 36 5b 7b c2 7c e6 3f 1a fa a3 7d 6a f7 03 40
       0.7027294549277033 2.4958085838000104
0007a0 10 5c 8f 99 4f 5a 0b c0 28 f1 b9 c2 21 6b c9 3f
       -3.4190971371531376 0.19858190544244647
0007b0 56 2e c1 66 26 b8 f0 bf ba 11 2f ff c7 40 01 c0
       -1.0449584974147874 -2.156631463645877
0007c0 40 d3 2c 7d 98 ab e1 3f c4 f1 80 a4 4c 78 04 c0
       0.5521967358423368 -2.5587399341440875
0007d0 61 8f 79 aa 56 63 fd bf a3 9d f3 d7 48 5b f2 3f
       -1.8367525729344936 1.1472862659082714
0007e0 0b 91 95 65 f1 6a 02 40 5b 35 6a d8 15 33 05 c0
       2.3022182403821083 -2.64994401048777
0007f0 60 4a 09 e2 ff 15 00 c0 b2 a7 be 6c 21 a7 e0 bf
       -2.010741964252972 -0.520401680366595

transformer_encoder.layers.0.self_attn.qlinear.weight f8 [32, 32]
000000 1d b1 1e 94 6c fb d1 bf 23 cb e1 39 08 b1 01 40
       -0.2809707113726903 2.2114414712936123
000010 21 97 5a 26 70 39 f1 3f c6 82 5d f0 2c 2d 9c 3f
       1.076522970027732 0.027516081019146175
000020 2a 62 33 a0 93 b5 fc 3f c5 54 1e 00 e0 9f 03 40
       1.7943302400436871 2.453063965726502
000030 a5 91 03 3f f4 50 06 40 5a 46 4a c7 6e 94 00 c0
       2.789528362556853 -2.0724769181768297
000040 4c b8 c2 2a 38 b1 f2 bf 4c b5 50 ac b7 6a f0 3f
       -1.168266455682459 1.0260540705742924
000050 66 9a 4d 66 27 ea f0 bf 3d 79 36 99 35 1d f1 3f
       -1.0571664806572243 1.0696311936258802
000060 0e a4 18 3d 89 83 ef 3f 46 f2 d4 c5 29 29 ea bf
       0.9848066514288136 -0.8175248016264696
000070 7a c3 7c 73 8b 85 07 c0 d3 da 80 89 9a d7 f3 bf
       -2.9402073881578277 -1.2401376124595813
000080 62 b1 ea 71 64 69 02 c0 da c6 11 e3 ec fb ba bf
       -2.301461114859351 -0.10540657561957847
000090 00 ef 10 b2 d5 e4 e8 bf ad 6f f9 ee 56 65 01 c0
       -0.7779339292387419 -2.174482218730154
0000a0 3e d5 4a 68 0f 34 0b c0 c0 6f f1 e6 90 93 dd 3f
       -3.4004200122678006 0.46213171532667374
0000b0 e4 96 03 64 4f e1 f0 3f 51 1e 9d 24 06 bb e4 bf
       1.0550073534772588 -0.6478300776588616
0000c0 48 d4 cd 91 68 49 06 c0 1a 87 a7 2d bf 9f db 3f
       -2.785843981832418 0.4316251703113366
0000d0 e4 7c e2 c8 25 54 ae 3f b8 5e ca 30 c3 87 d0 bf
       0.05923574521261246 -0.25828628315637614
0000e0 be ec df 7f 1d 1b b5 bf e5 8f 9e 1c d7 a7 03 c0
       -0.08244499561253613 -2.4569532619370755
0000f0 8c 00 8c 8b f0 e5 c0 3f ef 3b 18 38 4f 19 0b c0
       0.13201720060169853 -3.387358129729811
000100 0c e4 81 84 4c 2d fe 3f dd 5c 2e 88 14 f5 fb bf
       1.8860593010015263 -1.7473340339254755
000110 0b 56 6a 20 27 e8 f2 3f 98 05 0e 51 a9 a7 0f 40
       1.1816779390550234 3.9568659145740632
000120 ee 24 bb 83 1a 0b 04 40 c4 5d 03 74 56 3a fb bf
       2.505421666287126 -1.7017426044238713
000130 d7 3a 22 db f3 41 02 40 69 ee 5b 29 47 23 f1 3f
       2.2822033996411437 1.0711127868261434
000140 cd 1d 2c 3e ed 51 b5 bf 36 b3 90 29 6f 73 fa bf
       -0.08328135269049781 -1.653182184566686
000150 2b 1e 39 e9 f2 23 e6 bf 51 d0 71 e9 b2 e8 e7 3f
       -0.6918882899416919 0.7471556243385838
000160 81 ec 0a e8 97 84 00 c0 d2 45 fd 6d 5a 8f de bf
       -2.064742863496179 -0.4774995874514306
000170 fc a9 be e5 5e 62 f6 3f 59 42 f1 45 81 64 f5 bf
       1.399016282501747 -1.33703734704263
000180 44 eb 91 2c aa 26 f5 bf 2e 9f 5a 14 20 7b f3 bf
       -1.3219396344199632 -1.2175598902776517
000190 bd 39 bf 27 94 aa 02 40 ac 86 64 7a 56 98 ec bf
       2.3332903962356952 -0.893595923469737
0001a0 55 8e 21 b7 3a f5 f8 3f b0 f5 1f 3f 7f 0a b6 3f
       1.55987044845178 0.08609767237790922
0001b0 ba ad b5 7b 3a e1 f2 bf 57 e5 f6 e8 d3 de f0 3f
       -1.1799874145898301 1.0544013118909186
0001c0 b8 48 ba 4c 49 02 03 c0 a0 f3 f7 aa 9f ad f4 3f
       -2.3761163706159003 1.2923885992488309
0001d0 45 3e 13 ff b8 51 f3 3f 52 4d 6f eb e0 c8 04 40
       1.2074518169282709 2.5980852502195058
0001e0 cc 64 d6 ec 78 fa dc bf c1 13 39 6b 6f 39 f1 3f
       -0.45278761986407967 1.076522272910765
0001f0 21 0e ee 87 89 b8 c1 bf c6 3e 3d 61 90 89 01 c0
       -0.1384441293449621 -2.192169913941913
000200 c5 fd 0a ed f3 96 c2 bf fe 6e 2f e0 f4 9a ef 3f
       -0.14523171495782897 0.9876655939692396
000210 5b 8f bd d8 6e 9f fb bf ca ce 79 f4 48 79 fa bf
       -1.72642407097097 -1.6546105909191504
000220 dc 2e 9a ab b9 a2 f6 bf af ce ed d4 eb 57 ee bf
       -1.4147278502668348 -0.9482325705307256
000230 0e 8d 57 4a 01 22 ac bf 12 eb 4c 25 ac 35 06 40
       -0.054946937870932286 2.7762072481249414
000240 c4 38 90 59 13 ec e8 3f b4 ee 40 4b d8 5d ed bf
       0.7788178204807754 -0.9177056760595037
000250 9f 86 1f c0 2f 02 f4 bf 71 66 f6 74 85 4b e8 bf
       -1.25053381965737 -0.7592189106391755
000260 e4 c0 2f 12 a7 7b f3 bf fe f7 6f a3 cc bd f0 3f
       -1.2176886282359698 1.0463377365372248
000270 20 f7 47 0b f4 54 04 40 41 22 0a d9 63 e1 00 c0
       2.5414811021172596 -2.1100537258355705
000280 e1 49 55 bd 4e e2 e0 bf 33 37 9e 39 8e 70 ee 3f
       -0.5276254365838292 0.9512396931984085
000290 00 7f 4b d6 ab 6a e6 bf c3 ed 56 00 22 42 00 c0
       -0.700521391434421 -2.0322914148834754
0002a0 11 70 f9 40 99 b0 e4 bf d1 d6 48 81 c5 72 e8 3f
       -0.6465574521093932 0.7640101933563647
0002b0 4d 60 d6 31 70 3a ea bf 92 b4 28 16 bc b7 f2 bf
       -0.819633576716123 -1.1698571076952118
0002c0 38 f6 de 9d d3 b8 f6 3f d9 9c 08 43 e8 42 f8 bf
       1.4201236883958597 -1.5163347834111873
0002d0 96 e2 f8 e3 ab 37 f4 bf d6 c5 d9 49 6f 75 cd bf
       -1.2635916619457581 -0.23014632326116552
0002e0 a0 35 d3 0b 43 d1 81 bf c0 9b 4b 83 f6 46 f8 bf
       -0.008699916647311678 -1.517324936745112
0002f0 67 45 d0 95 8c ee e1 3f f3 d4 84 1b 7b 5a f5 bf
       0.5603697706266474 -1.3345900607067136
000300 28 e3 7f 71 b5 b5 dd bf 0a 71 b2 ce 34 d4 00 c0
       -0.4642156227487697 -2.103616347141842
000310 80 6d 74 73 f0 4f a6 3f 23 4c 21 97 75 71 d6 3f
       0.04357863816604901 0.3506750083808489
000320 32 57 63 f0 27 e1 f3 3f 1c 73 23 71 8a 7d 04 40
       1.2424697294386076 2.561299213308656
000330 65 69 e8 0d b2 9b dc 3f a5 7c 3c 24 34 ec e2 bf
       0.4470029006785324 -0.591333456777552
000340 3a 13 95 11 39 66 b1 3f 4e 1b ca d6 de dc f2 3f
       0.06796604804283116 1.178923453351405
000350 62 63 5e 7f 8d 9e da 3f b5 c9 c0 96 f2 c4 0b c0
       0.4159272903285026 -3.471165826567097
000360 f8 f8 4d 8b 60 91 fa 3f 3a df bc b7 fc 01 bc 3f
       1.6604924623093762 0.10940532193933175
000370 4c 38 f7 05 ae 5b df bf 88 01 85 b0 f2 d6 f9 3f
       -0.48997068960750734 1.6149775405211546
000380 ae e0 fa 67 93 13 f1 bf a7 ab 95 e7 4e 14 f2 3f
       -1.0672792493551628 1.1299580618167313
000390 ea 92 88 aa db c0 f0 3f d6 9a 6b fb 3e bd fb bf
       1.0470844899620553 -1.7337026425463384
0003a0 5c 57 a3 18 a2 58 00 c0 fd ee 73 82 21 4c f8 bf
       -2.043277924046306 -1.5185866447272354
0003b0 b6 78 b5 88 ac 09 00 40 5c 1c ca 75 68 07 f2 bf
       2.0047236137753215 -1.12680860530397
0003c0 59 28 83 e5 89 eb e5 3f 52 e7 b3 13 00 83 f6 bf
       0.6850022776282102 -1.4069824952734575
0003d0 03 a9 28 be 8a 08 f5 3f 41 54 8b 85 bf e4 03 c0
       1.3145854404525046 -2.4866934235710976
0003e0 41 c7 22 75 d8 5d 08 40 30 e0 e1 68 52 16 f3 3f
       3.0458230162848 1.1929496857610609
0003f0 45 cd 2a a6 56 25 d1 3f 57 be 9c 2f 47 16 df 3f
       0.2679039595343123 0.4857347454990068
000400 36 31 97 20 5f e9 f4 3f 60 c4 ca b0 b0 80 d9 bf
       1.3069754860944847 -0.3984796263203574
000410 2b 8a 31 b6 63 4d d6 bf b2 83 f7 b8 22 b1 01 c0
       -0.3484734801515141 -2.2114920092139636
000420 63 35 74 c9 81 d4 05 c0 01 3d 3e 00 26 e6 c4 3f
       -2.7287631739224465 0.16327357303496373
000430 9f b8 61 69 8c 1e fe bf 6e d9 6b e6 8a 41 0b 40
       -1.8824581257318085 3.407003212133694
000440 87 89 02 d7 d8 b9 06 c0 de 5c a8 da 5b 9f ee 3f
       -2.8407456205033585 0.9569529791505393
000450 88 ab da b6 28 e5 00 c0 3a 6e b1 73 7c 77 d3 bf
       -2.111894062565117 -0.30416785524514334
000460 a0 90 c4 7e 58 45 05 40 c2 49 66 b5 d3 0b ef bf
       2.6588601974236354 -0.9701937239608969
000470 46 8a 38 0c 06 9a e5 3f d3 f8 4d d8 85 e1 d3 3f
       0.6750517119110746 0.310639821276607
000480 f0 60 c5 b9 5f c3 b3 bf ca ed 38 fe a9 e7 e9 3f
       -0.07719991956162509 0.8095293011933162
000490 78 08 df 75 5c df 07 c0 4f 82 48 8c ae 4d d2 bf
       -2.9840630730332656 -0.2859913225129604
0004a0 92 9b 57 7c d9 3e c0 3f 55 20 f9 46 9d 81 d2 bf
       0.12691801616093962 -0.28916103297206536
0004b0 b6 9a 51 a0 55 80 e8 bf 6e 54 78 96 6b 3b d0 3f
       -0.7656658297754209 0.25362672514285733
0004c0 28 33 0c 08 aa c5 e6 3f f9 9a 4e 04 59 e7 02 40
       0.7116289288693212 2.36296275486836
0004d0 9b 8a 7a 14 25 73 e3 3f ad 4a 10 3a 02 8b e2 3f
       0.6078057670568627 0.5794688352637728
0004e0 b2 f3 b1 17 f3 06 b2 bf e9 d3 f0 92 25 cb 03 c0
       -0.07041854218000657 -2.474192760443192
0004f0 6c 77 9f df 6d 63 0c 40 36 10 02 17 60 e7 0b 40
       3.5485494108715354 3.4879762456421544
000500 b5 d7 82 a9 f8 1b e3 3f 09 67 1f 26 a3 29 03 40
       0.5971644697917698 2.3953307131131436
000510 ea 7f 4e 15 55 d9 f2 bf 2f 83 93 7e fe 62 02 40
       -1.1780596573153113 2.2983369721190665
000520 8a f2 58 c7 ee 2a eb bf 21 bf a5 f8 86 ec ec 3f
       -0.8489908116822147 0.9038729530711614
000530 b0 f1 49 bd c2 f9 04 40 c4 f8 88 6a 27 df e8 bf
       2.6219534671965548 -0.7772404747736563
000540 94 f1 df b6 38 7d f7 bf 7d b4 a5 f9 76 ab e5 bf
       -1.4680716651483623 -0.6771807552264729
000550 28 61 db a0 34 7d 0b 40 cf 13 02 67 b8 46 de bf
       3.436135536856586 -0.4730664258898373
000560 cb 8d 3b 00 fd 62 e4 bf bd 8e 40 9a 2f ff e7 bf
       -0.6370835308593369 -0.7499006283510067
000570 1c 2b a2 9b 9c a3 e9 bf 94 4a f6 d8 6b 0c f0 bf
       -0.8012221374241082 -1.0030325388985704
000580 23 60 06 f6 6a 2c f5 bf a7 3f 27 7e f5 99 f0 bf
       -1.3233441934917287 -1.03758763579024
000590 d0 58 db 37 d5 39 06 40 14 b2 c7 67 71 c2 ee 3f
       2.7782387126745576 0.9612357165293042
0005a0 8b 83 3f c3 c5 c4 f4 bf dd a5 b4 56 28 b9 d4 bf
       -1.2980401636961882 -0.3238011214003487
0005b0 cb de 70 0a 5d c0 d7 bf b5 40 66 24 bf 37 f9 3f
       -0.3711159326517019 1.5761100217678579
0005c0 48 9e a7 62 e6 cb 01 c0 32 8d f3 be 79 af ef bf
       -2.2245605189707796 -0.9901703576582916
0005d0 c2 ff 75 83 37 74 06 40 ff b3 62 28 0a 64 f1 3f
       2.8067465086350873 1.0869237496910953
0005e0 ee d9 73 b9 a4 76 de 3f 03 3a 26 9a b2 03 04 c0
       0.4759914218006135 -2.5018055003085933
0005f0 fe 04 a3 d7 b6 21 f0 bf c1 18 d8 a4 83 b4 dc 3f
       -1.008231012660246 0.44851771448191974
000600 5c d6 cb 5f a5 41 0e c0 25 e1 7c 0c 61 53 03 c0
       -3.782053707512018 -2.415712449608821
000610 65 f4 b3 28 08 17 f3 3f bb 6c ed 73 ea 4e f8 3f
       1.1931230153998282 1.519266560403408
000620 26 3b 06 a4 db c5 c3 3f 56 53 1c a4 f4 ce ac bf
       0.15447564610482195 -0.05626644614509384
000630 9b 11 f7 4e ba fa f9 bf 1e a9 de be 92 0f d6 3f
       -1.6237128338408187 0.3447005142176226
000640 9e fc aa 63 13 cd fb 3f 2b 74 38 f6 b9 9a e7 bf
       1.7375673192289365 -0.7376375016207296
000650 14 56 e2 57 9f ca ef 3f ff d9 d0 7b 4b f2 0b 40
       0.9934841839300952 3.4933080361472544
000660 e6 b5 2e dc d5 d9 d7 bf 6d 8c 23 d4 ac c6 02 40
       -0.372670617124497 2.347009332022529
000670 d7 9a b8 59 4a d6 fd bf ce 47 22 df 52 7c ee 3f
       -1.8648169998866047 0.9526762350162643
000680 3e 61 13 10 11 65 f8 bf df 05 86 ec a1 d3 e9 bf
       -1.5246744754750376 -0.8070840472793711
000690 90 c3 fc b9 ad db f8 bf 7c 57 03 6b 7e 07 d9 bf
       -1.5536324753886426 -0.39108238649838944
0006a0 16 69 be b4 3a 75 cd 3f 06 9d 70 ed 6c e1 fe bf
       0.23014005494480533 -1.9300355219837129
0006b0 f9 eb 71 14 ce 97 03 40 37 47 c8 2b ff 15 05 40
       2.449123534895531 2.635740606355195
0006c0 77 f9 7a 10 97 5e e3 bf bb 9a 52 83 f0 47 f6 bf
       -0.6052966424829681 -1.392563355426019
0006d0 b7 84 fc be 03 62 d3 bf 52 cc a6 a6 f2 35 ea 3f
       -0.30285733843818313 0.819085431567496
0006e0 60 e5 1f 0d f0 a5 fe 3f 1e 30 22 89 e7 df f8 bf
       1.9155121338538592 -1.554664169004361
0006f0 10 f2 c0 45 7e 49 dd 3f 51 25 76 33 8e 71 0b 40
       0.4576106721104063 3.430447008173964
000700 5d 38 5e a8 75 95 eb bf 97 4e f8 9d 68 0c 01 40
       -0.8619945801199368 2.131058916225651
000710 f9 1f 9a f0 2d 1f f0 bf ec 5b 9e f9 38 97 02 c0
       -1.0076121710317223 -2.3238391400768617
000720 00 92 78 10 e3 d3 ba 3f 83 3c 27 07 52 03 db bf
       0.10479563858149987 -0.42207766245423545
000730 68 f7 bf 07 23 2e 07 40 e8 5a f3 c6 09 b3 d4 3f
       2.897527752443171 0.3234276240231524
000740 70 70 b3 a1 77 ae 95 3f e4 1d c1 2a 32 a2 0e c0
       0.021173352474633977 -3.829197248476463
000750 4e 73 ed 1a a6 69 04 c0 ad b5 1b ca b7 d5 f6 bf
       -2.551586351748859 -1.4271772284367714
000760 72 4e a0 2c ee 60 b9 bf 3d 5b ff 30 6f 13 fb 3f
       -0.09913529004580271 1.69224471225398
000770 ea 0c fc c5 ac af f7 3f 37 14 70 6a 56 ab d2 3f
       1.4803893789074274 0.29170761484448654
000780 df 94 77 9f 6b 00 0a 40 e7 e6 ba f9 d3 6d ff 3f
       3.2502052744263064 1.9643134837228275
000790 5a a0 50 3b 38 61 0c c0 3a 90 2f b3 ec ed e2 3f
       -3.547470534704229 0.5915435313913868
0007a0 a4 b9 6d 54 0f f5 88 bf e2 fa 22 c9 e8 01 f9 bf
       -0.012186164630944081 -1.5629661423587824
0007b0 b3 61 02 f1 42 f3 c1 3f f4 1e e5 a5 5e f2 c8 bf
       0.14023625152618777 -0.1948965368303487
0007c0 e1 54 5b 96 5d e7 f6 bf 39 e3 c5 16 69 e5 e2 3f
       -1.4314857362090196 0.5905042118821263
0007d0 76 83 c1 8d 33 74 03 c0 d0 5d 16 79 47 1a f7 3f
       -2.4317389559441223 1.4439158182120657
0007e0 c3 b7 71 06 2c ac e8 3f ae 12 d0 4b ca 48 e9 bf
       0.7710170865882379 -0.7901355248182733
0007f0 5c 5b 7a fd 76 59 f3 bf 21 3f 91 8d 59 db d3 3f
       -1.2093419934733083 0.3102630503171771

transformer_encoder.layers.0.self_attn.qlinear.bias f8 [32]
000000 1a 80 a1 11 72 25 f9 bf 6d ed 4e 8d 67 54 eb 3f
       -1.5716419876771455 0.8540532836845337
000010 ed d7 b8 ed e4 92 09 40 00 2c f9 b5 35 30 f2 3f
       3.1967257091555354 1.1367699726422416
000020 b1 e8 1d c5 f5 fa 01 c0 3f 8c 5d da 6f cc fe 3f
       -2.2475390815498817 1.9249113588237063
000030 55 54 35 d3 81 b4 d4 bf 8c 24 d0 d3 a8 10 0a c0
       -0.32351728082477865 -3.25813451270057
000040 5a 60 b2 5b 7c 2e f3 3f 81 c5 9e 2c f2 40 05 40
       1.1988490659623694 2.6567119108155457
000050 98 5d a0 c3 8d 5f f0 bf b9 2d 01 fe d7 37 f0 bf
       -1.023328556218848 -1.013633720593914
000060 c4 7a f8 f0 a5 8a b9 bf b6 95 e6 24 fb 67 f5 3f
       -0.09977185376235825 1.3378859940943193
000070 3f 4d dc 43 50 f7 fa bf 6c 1a 19 41 1b 69 f7 3f
       -1.6853792811205748 1.4631607573407122
000080 a8 66 fc 46 db 8d 00 c0 92 1b b1 d3 6d fb fc bf
       -2.0692658944870637 -1.8113840359889974
000090 44 3b 02 25 ed 1e e0 3f 77 86 7e 72 a6 96 cb 3f
       0.503775188715601 0.21553497877635028
0000a0 5a 84 3a c9 33 ef f4 bf 80 30 39 4a 30 09 06 40
       -1.308398996400021 2.7544866369917713
0000b0 2f 9b ea 54 4f 7a 02 c0 96 c1 8e 70 de da 0e c0
       -2.309721625718701 -3.8568695825162633
0000c0 b7 ae 6e e9 06 f8 f4 3f a4 12 02 63 1e d6 b7 3f
       1.31055346664918 0.0931109420508372
0000d0 ff 42 1e 07 be 9a d3 3f d2 60 46 86 c0 e1 e6 3f
       0.30631972022187876 0.7150576231533938
0000e0 a0 4b 43 3e 1a 91 f1 3f 84 96 11 32 f2 49 ad 3f
       1.0979254181045022 0.05720478879156324
0000f0 cd 45 d9 a7 db f6 c2 bf 35 d8 4b 9e 7e 74 bc 3f
       -0.14815850921381327 0.11115256657271362
