experiments/fl_train_noise_1.0_max_grad_norm_1/20250423/model_round_0.pt (torch, 35449 bytes, 25 tensors)

embed.weight f4 [32, 8]
-0.22698526 0.31102332 0.053059425 -0.13201106 -0.3104012 0.007491012 -0.010691854 -0.16349946
0.30077684 0.27733752 -0.24759541 0.17641722 0.32099232 -0.2874123 0.033957295 0.020692078
-0.23433116 -0.08810748 -0.26369175 -0.08302735 -0.3083847 -0.19302712 -0.10322804 -0.3139232
0.14572757 0.060364738 -0.31437865 0.111522794 0.089323334 0.26877585 -0.025819581 -0.11547625
-0.3515222 0.104405455 0.20189503 -0.13803868 -0.19019507 -0.008545737 -0.1145333 0.05299102
0.21072593 0.037137568 0.019527478 0.19542679 -0.008263901 0.030444564 0.23735204 0.27251887
0.023195349 -0.06385833 -0.16554414 -0.23448487 0.27473128 0.117957056 -0.09520969 0.18723269
-0.16065 -0.1412035 -0.34852952 0.08079804 -0.08065103 0.09248982 -0.3519175 -0.121610895
0.035585046 0.027364304 0.07816512 -0.023473518 -0.12911746 -0.2964758 -0.3235427 0.054452546
-0.3180578 0.069221854 0.110657774 -0.1525665 0.030931488 -0.21819414 0.20573385 0.2981028
0.12310319 -0.032300163 -0.09307074 0.28014785 -0.24391375 -0.010284716 0.15301633 0.27014017
0.33102176 -0.25051087 0.22425811 -0.006876132 0.298419 0.32176113 -0.19163628 -0.32525957
-0.039249633 -0.01371117 0.111819044 -0.06694694 -0.08871789 -0.13984218 -0.040981025 -0.15386933
0.014802942 -0.0885021 0.047799245 0.11578178 -0.26773858 -0.34522066 -0.16471165 0.040171087
-0.015329989 -0.14939472 -0.14929712 0.0019281761 -0.09087914 -0.15380506 -0.11268503 0.20640601
-0.10910925 0.109879486 -0.071176164 -0.06881775 -0.22600442 0.09249518 -0.27340132 -0.3311368
-0.0392702 0.21579447 -0.21968223 0.18667184 -0.2531927 0.319167 0.0066906437 0.13120419
-0.18512388 -0.3064634 0.29321828 0.26968703 -0.032631353 -0.3504569 -0.2609886 0.1731006
-0.0777952 -0.029843045 -0.23262835 -0.1169264 -0.2514631 0.27227807 -0.09993945 0.10594242
-0.18776189 -0.31157893 -0.24229439 -0.08255994 0.1562521 0.30044296 -0.31439766 -0.13588098
0.011946186 0.08522729 -0.26343486 0.33397907 0.20835172 0.0018729637 0.16244373 -0.15029287
0.2816169 0.05584293 -0.3132134 0.18830799 -0.00666957 0.1805793 -0.09573813 0.33188543
0.23086643 0.022569468 0.1742535 -0.14360894 0.31449974 0.24226864 -0.08786526 -0.20848241
0.28553325 0.2606919 0.012477448 -0.07456604 0.19953974 0.32147157 -0.123979166 -0.31789753
-0.30716124 0.30187288 0.24543825 -0.2137898 -0.30178073 0.017973945 -0.07724055 -0.34086913
-0.18900818 -0.18706512 -0.1518242 -0.0064338427 -0.25389376 -0.33316 -0.21568535 0.07118573
-0.08296472 0.067989655 0.3123365 -0.11562111 -0.2275658 0.33790794 0.18752658 0.011251438
0.26105133 -0.049135007 -0.3228444 -0.32966688 -0.086080045 0.21728365 -0.3038395 -0.24485746
0.20256516 -0.09588724 -0.24639924 0.24052885 0.28542906 0.21621068 -0.13312735 -0.27503386
0.29032192 -0.19938709 -0.14190856 -0.05821879 0.017619574 -0.35344356 -0.025341382 0.30443406
-0.31833383 0.33554628 0.09739551 -0.31415427 -0.25386286 -0.025114717 -0.030906495 0.014117719
-0.30533364 0.23602517 -0.23102596 0.04588877 -0.24345246 0.21964122 -0.24378365 0.0058482965
00000000: d36e 68be 733e 9f3e d754 593d e82d 07be
00000010: e8ec 9ebe 2a77 f53b e32c 2fbc 676c 27be
00000020: 6cff 993e 2fff 8d3e a789 7dbe b7a6 343e
00000030: 1b59 a43e b427 93be ce16 0b3d 6f82 a93c
00000040: 82f4 6fbe b271 b4bd 9b02 87be 3e0a aabd
00000050: 99e4 9dbe e7a8 45be 3969 d3bd 8bba a0be
00000060: 9c39 153e 0441 773d 3df6 a0be 1066 e43d
00000070: 27ef b63d fd9c 893e 9683 d3bc d07e ecbd
00000080: b8fa b3be 87d2 d53d 92bd 4e3e 035a 0dbe
00000090: 7fc2 42be 6b03 0cbc 6f90 eabd 1d0d 593d
000000a0: 8ac8 573e 901d 183d 17f8 9f3c f61d 483e
000000b0: 5065 07bc e166 f93c 6a0c 733e 9887 8b3e
000000c0: 2c04 be3c 28c8 82bd 6784 29be cd1c 70be
000000d0: 94a9 8c3e 7893 f13d 4cfd c2bd edb9 3f3e
000000e0: 6f81 24be a697 10be 7672 b2be 7179 a53d
000000f0: 5e2c a5bd 4e6b bd3d 882e b4be 220f f9bd
00000100: a0c1 113d 1b2b e03c 0915 a03d 894b c0bc
00000110: 5e37 04be adcb 97be 64a7 a5be a209 5f3d
00000120: 79d8 a2be 30c4 8d3d 8ba0 e23d 643a 1cbe
00000130: 0864 fd3c 496e 5fbe e5ab 523e eea0 983e
00000140: 861d fc3d 2d4d 04bd df9b bebd 8a6f 8f3e
00000150: 87c4 79be 3a81 28bc 50b0 1c3e d04f 8a3e
00000160: af7b a93e f642 80be eba3 653e 2d51 e1bb
00000170: 60ca 983e e0bd a43e 4d3c 44be 6c88 a6be
00000180: 39c4 20bd d1a4 60bc 6201 e53d 7a1b 89bd
00000190: bab1 b5bd ca32 0fbe b8db 27bd ec8f 1dbe
000001a0: 0a88 723c 9740 b5bd 24c9 433d ff1e ed3d
000001b0: 0815 89be c3c0 b0be 2caa 28be 708a 243d
000001c0: a22a 7bbc eefa 18be 58e1 18be dbba fc3a
000001d0: d81e babd 137f 1dbe 69c7 e6bd 195c 533e
000001e0: ac74 dfbd 7f08 e13d cfc4 91bd 52f0 8cbd
000001f0: b46d 67be 1d6e bd3d 42fb 8bbe c38a a9be
00000200: cad9 20bd 3af9 5c3e 61f4 60be e726 3f3e
00000210: 79a2 81be db69 a33e 303d db3b 645a 063e
00000220: 1d91 3dbe c5e8 9cbe b520 963e 6b14 8a3e
00000230: 74a8 05bd 166f b3be 4ca0 85be 4941 313e
00000240: 1753 9fbd 6779 f4bc 2036 6ebe 1c77 efbd
00000250: c5bf 80be 0868 8b3e 0ead ccbd 57f8 d83d
00000260: a744 40be 4687 9fbe 051c 78be 3015 a9bd
00000270: 8d00 203e a9d3 993e bbf8 a0be 6224 0bbe
00000280: f0b9 433c a58b ae3d efe0 86be 4eff aa3e
00000290: 275a 553e 3c7e f53a a657 263e 60e6 19be
000002a0: 1730 903e 8ebb 643d 825d a0be cfd3 403e
000002b0: 698c dabb c8e9 383e 5a12 c4bd e3ec a93e
000002c0: 4068 6c3e 9be3 b83c 826f 323e 390e 13be
000002d0: 1c06 a13e 4515 783e b4f2 b3bd 6a7c 55be
000002e0: 6a31 923e 6979 853e 366e 4c3c 14b6 98bd
000002f0: 2554 4c3e ec97 a43e cae8 fdbd 77c3 a2be
00000300: 3d44 9dbe 158f 9a3e 2a54 7b3e b7eb 5abe
00000310: 0183 9abe 183e 933c 4b30 9ebd 6686 aebe
00000320: 5c8b 41be 008e 3fbe ce77 1bbe fcd2 d2bb
00000330: 5dfe 81be f393 aabe 9fdc 5cbe d3c9 913d
00000340: 68e9 a9bd 293e 8b3d 92ea 9f3e c3ca ecbd
00000350: 0207 69be 4502 ad3e f806 403e f457 383c
00000360: 85a8 853e ca41 49bd dc4b a5be 19ca a8be
00000370: bc4a b0bd 9b7f 5e3e da90 9bbe eabb 7abe
00000380: 3e6d 4f3e 8760 c4bd 1550 7cbe 324d 763e
00000390: c223 923e 5566 5d3e 8952 08be 3dd1 8cbe
000003a0: 13a5 943e 212c 4cbe 7a50 11be d376 6ebd
000003b0: ed56 903c 8ef6 b4be bb98 cfbc c8de 9b3e
000003c0: a7fc a2be b9cc ab3e 4c77 c73d d4d8 a0be
000003d0: 50fa 81be 61bd cdbc 9e2f fdbc 014e 673c
000003e0: b154 9cbe 95b0 713e 1292 6cbe ddf5 3b3d
000003f0: 9a4b 79be a1e9 603e 6ca2 79be 11a3 bf3b

embed.bias f4 [32]
0.14300488 -0.083073966 0.17098032 -0.060611214 0.06063574 0.18985815 -0.018373203 0.00013272042
-0.18176232 -0.08222142 -0.29725197 -0.24534485 0.12792377 -0.17831817 0.25752735 0.1348324
-0.01266576 0.037432723 -0.23625314 -0.045669775 -0.3483828 0.0358963 0.33047602 0.003473111
0.32727617 -0.027123984 0.14575551 0.065866336 0.15985645 -0.17866714 0.28181127 0.25980186
00000000: df6f 123e af22 aabd 7715 2f3e 7743 78bd
00000010: 2f5d 783d 2d6a 423e 6683 96bc de2a 0b39
00000020: e71f 3abe b463 a8bd 6931 98be ae3b 7bbe
00000030: 73fe 023e 0a99 36be a0da 833e 8111 0a3e
00000040: 0c84 4fbc 0e53 193d 58ec 71be 3b10 3bbd
00000050: 3b5f b2be 0008 133d 2734 a93e 229d 633b
00000060: be90 a73e 1e33 debc ef40 153e eee4 863d
00000070: 69b1 233e 85f4 36be 9149 903e c004 853e

pos_enc.pe f4 [1, 12, 32]
0.0 1.0 0.0 1.0 0.0 1.0 0.0 1.0
0.0 1.0 0.0 1.0 0.0 1.0 0.0 1.0
0.0 1.0 0.0 1.0 0.0 1.0 0.0 1.0
0.0 1.0 0.0 1.0 0.0 1.0 0.0 1.0
0.84147096 0.54030234 0.68156135 0.731761 0.53316844 0.8460091 0.4093089 0.9123959
0.3109836 0.9504153 0.23492105 0.9720145 0.17689219 0.9842302 0.13295726 0.99112177
0.099833414 0.9950042 0.07491915 0.9971896 0.05620449 0.9984193 0.04215715 0.999111
0.031617504 0.99950004 0.023711512 0.99971884 0.017781857 0.99984187 0.013334819 0.99991107
0.9092974 -0.41614684 0.99748 0.070948265 0.9021307 0.43146282 0.7469035 0.6649324
0.5911271 0.8065784 0.45669332 0.8896242 0.34820527 0.93741834 0.26355368 0.96464473
0.19866931 0.9800666 0.1494172 0.98877424 0.1122313 0.9936821 0.08423935 0.99644554
0.063203394 0.9980007 0.04740969 0.9988755 0.03555809 0.9993676 0.026667267 0.99964434
0.14112 -0.9899925 0.7782725 -0.6279267 0.9932532 -0.11596616 0.95363444 0.3009673
0.8126489 0.58275366 0.652904 0.7574407 0.5085361 0.86104065 0.3894703 0.92103904
0.2955202 0.9553365 0.22307542 0.9748012 0.16790329 0.9858035 0.12617177 0.9920084
0.094726086 0.99550337 0.071081206 0.9974705 0.053323083 0.9985773 0.039994974 0.99919987
-0.7568025 -0.6536436 0.14153895 -0.98993266 0.7784717 -0.6276797 0.99328077 -0.115729704
0.95358074 0.30113748 0.81257087 0.58286244 0.652828 0.7575062 0.50847137 0.8610789
0.38941833 0.921061 0.29547977 0.955349 0.22304447 0.9748083 0.16787985 0.9858075
0.12615407 0.99201065 0.09471276 0.9955046 0.07107121 0.9974712 0.053315565 0.9985777
-0.9589243 0.2836622 -0.5711271 -0.82086164 0.32393527 -0.94607925 0.8588961 -0.51214993
0.99994653 -0.010342338 0.9267573 0.37566072 0.77652997 0.6300803 0.6184437 0.78582907
0.47942552 0.87758255 0.36622328 0.93052703 0.2774805 0.96073127 0.20928943 0.9778537
0.15745588 0.987526 0.11829105 0.992979 0.08879686 0.99604976 0.06662668 0.99777794
-0.2794155 0.96017027 -0.97739613 -0.21141617 -0.23036751 -0.9731037 0.5740256 -0.81883734
0.9471482 -0.3207964 0.9890721 0.14743277 0.8757405 0.48278204 0.7174347 0.69662577
0.5646424 0.8253356 0.43490836 0.9004747 0.3310393 0.943617 0.2503269 0.9681614
0.18860027 0.98205394 0.14180282 0.9898949 0.10649444 0.9943133 0.07992595 0.9968008
0.6569866 0.75390226 -0.8593135 0.5114493 -0.7137213 -0.7004298 0.18858118 -0.98205763
0.8004216 -0.5994375 0.9960274 -0.08904703 0.9473307 0.320257 0.8036866 0.5950528
0.6442176 0.7648422 0.5011489 0.8653611 0.38355154 0.9235195 0.29091927 0.9567476
0.2195561 0.9755999 0.16523485 0.9862543 0.12415834 0.9922624 0.093210995 0.99564636
00000000: 0000 0000 0000 803f 0000 0000 0000 803f
00000010: 0000 0000 0000 803f 0000 0000 0000 803f
00000020: 0000 0000 0000 803f 0000 0000 0000 803f
00000030: 0000 0000 0000 803f 0000 0000 0000 803f
00000040: 0000 0000 0000 803f 0000 0000 0000 803f
00000050: 0000 0000 0000 803f 0000 0000 0000 803f
00000060: 0000 0000 0000 803f 0000 0000 0000 803f
00000070: 0000 0000 0000 803f 0000 0000 0000 803f
00000080: a46a 573f 4151 0a3f ce7a 2e3f b054 3b3f
00000090: ba7d 083f 0d94 583f f090 d13e c792 693f
000000a0: 3e39 9f3e 6b4e 733f 258f 703e f1d5 783f
000000b0: 3a23 353e 83f6 7b3f f325 083e 28ba 7d3f
000000c0: 7675 cc3d 98b8 7e3f 366f 993d d147 7f3f
000000d0: ae36 663d 6898 7f3f faac 2c3d bdc5 7f3f
000000e0: 5b81 013d 3cdf 7f3f a53e c23c 93ed 7f3f
000000f0: 42ab 913c a3f5 7f3f 497a 5a3c 2cfa 7f3f
00000100: b7c7 683f 3311 d5be d95a 7f3f 534d 913d
00000110: 0af2 663f b2e8 dc3e 1135 3f3f 0339 2a3f
00000120: 1b54 173f ec7b 4e3f b5d3 e93e 69be 633f
00000130: f647 b23e a6fa 6f3f 82f0 863e f5f2 763f
00000140: f86f 4b3e a5e5 7a3f d300 193e 4f20 7d3f
00000150: 86d9 e53d f361 7e3f ae85 ac3d 0e17 7f3f
00000160: c870 813d f97c 7f3f aa30 423d 4eb6 7f3f
00000170: 5ca5 113d 8ed6 7f3f 5075 da3c b1e8 7f3f
00000180: c381 103e 2670 7dbf de3c 473f cebf 20bf
00000190: d745 7e3f ab7f edbd 6321 743f 6318 9a3e
000001a0: c209 503f 582f 153f b724 273f a2e7 413f
000001b0: 6c2f 023f 296d 5c3f a768 c73e 37c9 6b3f
000001c0: 6c4e 973e ef90 743f e26d 643e 928c 793f
000001d0: d7ee 2b3e 9e5d 7c3f 2c33 013e 43f4 7d3f
000001e0: c0ff c13d 4fd9 7e3f 0693 913d 3a5a 7f3f
000001f0: 4e69 5a3d c3a2 7f3f c5d1 233d 90cb 7f3f
00000200: cfbd 41bf 3055 27bf 96ef 103e 3a6c 7dbf
00000210: ec49 473f 9eaf 20bf a647 7e3f b203 edbd
00000220: de1d 743f b12e 9a3e a504 503f 7936 153f
00000230: bc1f 273f edeb 413f 2e2b 023f ab6f 5c3f
00000240: d761 c73e a7ca 6b3f 2049 973e c191 743f
00000250: c565 643e 098d 793f b2e8 2b3e e15d 7c3f
00000260: 882e 013e 69f4 7d3f c3f8 c13d 64d9 7e3f
00000270: c88d 913d 465a 7f3f 6c61 5a3d caa2 7f3f
00000280: 107c 75bf 2c3c 913e 6335 12bf fd23 52bf
00000290: d8da a53e 4032 72bf 9de0 5b3f 421c 03bf
000002a0: 7ffc 7f3f e972 29bc f73f 6d3f 9a56 c03e
000002b0: abca 463f f14c 213f 5452 1e3f 182c 493f
000002c0: 4377 f53e 40a9 603f 9e81 bb3e 0537 6e3f
000002d0: ed11 8e3e 7cf2 753f f84f 563e 9f54 7a3f
000002e0: 1d3c 213e 81ce 7c3f 9442 f23d df33 7e3f
000002f0: 21db b53d 1efd 7e3f 9273 883d 606e 7f3f
00000300: 8c0f 8fbe b8cd 753f a236 7abf 7b7d 58be
00000310: 76e5 6bbe 531d 79bf 57f3 123f 539f 51bf
00000320: 4e78 723f 6d3f a4be d433 7d3f 9ef8 163e
00000330: 8830 603f 352f f73e cda9 373f 1156 323f
00000340: 688c 103f 3249 533f 4fac de3e 8385 663f
00000350: fc7d a93e e290 713f d92a 803e 6dd9 773f
00000360: 6e20 413e e367 7b3f c234 113e c169 7d3f
00000370: c219 da3d 518b 7e3f 37b0 a33d 562e 7f3f
00000380: 4630 283f bdff 403f f8fb 5bbf 57ee 023f
00000390: 70b6 36bf 5e4f 33bf 6d1b 413e 2168 7bbf
000003a0: 6ee8 4c3f bc74 19bf a7fb 7e3f 4a5e b6bd
000003b0: 4484 723f baf8 a33e 68be 4d3f 6155 183f
000003c0: 72eb 243f b3cc 433f 4b4b 003f 4e88 5d3f
000003d0: de60 c43e c66b 6c3f 5ff3 943e 69ed 743f
000003e0: 50d3 603e eac0 793f 5333 293e 297b 7c3f
000003f0: ba46 fe3d e904 7e3f 68e5 be3d aee2 7e3f

transformer_encoder.layers.0.self_attn.qlinear.weight f4 [32, 32]
0.14119455 -0.12573493 0.16678005 -0.16741826 -0.047672298 -0.119366765 -0.14804253 0.1369455
0.0077485293 0.16755573 -0.10028912 -0.11540721 -0.07718138 0.13745376 -0.06702531 0.17303212
-0.13405775 -0.09901978 -0.1630094 -0.12815133 -0.16684932 -0.106776066 -0.04010323 -0.06713015
0.074532844 -0.029986765 0.15051503 -0.12900807 -0.07729011 0.10132766 0.17611234 0.08668414
0.17355631 -0.15089135 0.03951347 -0.09928278 0.10207204 -0.1205323 0.023623982 -0.087358005
0.013185557 0.08020827 -0.14016567 -0.09058066 -0.0018956809 0.0038725366 -0.05127383 0.050133634
-0.1647381 -0.015365055 0.010428247 0.16525343 0.10082811 0.09938819 -0.093266904 -0.101271585
0.050359435 -0.122075625 -0.1662631 -0.1361908 0.052276507 -0.15445232 0.13366696 0.11364931
0.05665497 0.092137665 -0.03006908 0.09212572 -0.16360755 -0.08604941 0.047827862 -0.11026926
-0.048562672 0.1503653 -0.058340445 0.12445088 0.13169026 -0.02456744 -0.17621468 0.10513792
0.15986829 -0.0042105755 0.07955555 -0.08640658 -0.014300489 0.1552354 -0.16125184 -0.03683898
-0.111326955 -0.10996159 -0.10866709 0.0020546166 -0.060380816 0.069175646 -0.15546313 0.025379967
-0.09907245 0.02689561 -0.1523898 -0.08711233 0.043941986 0.06580427 -0.043398652 -0.072415136
-0.021161363 0.047328632 -0.009763254 -0.026373327 0.09493198 0.030196067 -0.1705489 -0.0994171
-0.13119772 -0.056795258 -0.17568474 -0.052368786 -0.007964954 -0.15473695 -0.13740782 -0.09483789
-0.04203619 0.053516254 0.15989469 0.11286266 -0.020970248 0.09569634 0.15882894 0.010481584
-0.15429612 0.16238886 -0.060043264 0.02397924 0.06371326 -0.0402467 -0.10418136 0.08728345
0.1172864 -0.16377717 -0.0770869 0.0015019872 -0.13478458 0.008784351 -0.12683553 -0.15135333
0.1542736 0.17090724 0.008645436 -0.0778285 -0.034992293 0.12356251 -0.043594338 0.011817365
0.16520175 0.15822034 -0.0061690975 0.16278611 0.0703747 -0.098078474 -0.115660414 -0.008559603
-0.023269907 -0.1385843 -0.13936347 0.07386195 -0.12166444 0.121993504 0.04166378 0.16370061
-0.013308794 -0.07057083 0.16696076 0.11652853 -0.016295657 -0.108334236 0.1110395 -0.04177001
0.10360907 0.054656856 -0.05872312 -0.111153714 -0.17591123 0.07394976 -0.11367774 0.12316027
0.08065541 0.08050404 0.09391635 0.01598731 -0.04486319 -0.07206331 -0.09584671 -0.114955276
-0.11752568 -0.023113964 0.043173417 -0.113685936 -0.034635942 -0.029489687 0.010241747 -0.14158879
-0.13430734 0.112673424 -0.11620364 -0.06460284 0.16881776 -0.08632081 0.14362955 0.07773618
-0.056415156 -0.05505274 0.16448079 0.113203354 -0.11593245 -0.06027568 -0.12381773 0.12756829
0.065941796 0.1285677 -0.1350079 -0.15250042 0.16682607 0.06415005 -0.031921476 0.0625294
0.041894324 0.114434086 -0.11423827 0.10240727 0.15790977 0.16155355 -0.023180787 -0.11044756
0.088172704 -0.04613944 -0.01749619 -0.14592703 -0.111889474 0.15122095 -0.118278995 0.1507622
0.052728783 0.05551231 0.15418108 -0.100007914 0.067902215 0.12201447 0.10259824 -0.114127
-0.1373051 -0.107631736 -0.16729586 0.12062767 0.02309034 0.17672512 -0.021625422 0.11795128
00000000: 4e95 103e a8c0 00be 64c8 2a3e b16f 2bbe
00000010: 0744 43bd 9076 f4bd 7698 17be 713b 0c3e
00000020: 60e7 fd3b bb93 2b3e 6264 cdbd 9e5a ecbd
00000030: 4511 9ebd aec0 0c3e 9144 89bd 552f 313e
00000040: 6f46 09be e2ca cabd f0eb 26be 1a3a 03be
00000050: 8cda 2abe 69ad dabd 4943 24bd 887b 89bd
00000060: ada4 983d cea6 f5bc 9d20 1a3e b11a 04be
00000070: 474a 9ebd e084 cf3d cb56 343e 7487 b13d
00000080: bfb8 313e 4383 1abe e0d8 213d c554 cbbd
00000090: 250b d13d a3d9 f6bd 1587 c13c c1e8 b2bd
000000a0: 3c08 583c 3c44 a43d 9787 0fbe 5a82 b9bd
000000b0: 7f78 f8ba 62ca 7d3b 8204 52bd ed58 4d3d
000000c0: 1bb1 28be b6bd 7bbc 3ddb 2a3c 3238 293e
000000d0: f87e ce3d 098c cb3d b802 bfbd 7a67 cfbd
000000e0: b245 4e3d c902 fabd e040 2abe 9a75 0bbe
000000f0: e41f 563d c028 1ebe fedf 083e f8c0 e83d
00000100: 0b0f 683d acb2 bc3d 6e53 f6bc 69ac bc3d
00000110: bd88 27be ac3a b0bd 26e7 433d dad4 e1bd
00000120: a7e9 46bd 5cf9 193e 64f6 6ebd 1ae0 fe3d
00000130: d0d9 063e a841 c9bc 9f71 34be 8d52 d73d
00000140: 83b4 233e def8 89bb 05ee a23d eff5 b0bd
00000150: 994c 6abc 07f6 1e3e 341f 25be 78e4 16bd
00000160: 63ff e3bd 8b33 e1bd da8c debd bfa6 063b
00000170: e051 77bd f6ab 8d3d ba31 1fbe a6e9 cf3c
00000180: 7fe6 cabd 2f54 dc3c 120c 1cbe f367 b2bd
00000190: 83fc 333d 64c4 863d c9c2 31bd 634e 94bd
000001a0: 985a adbc abdb 413d 0ef6 1fbc e00c d8bc
000001b0: b36b c23d be5d f73c 5fa4 2ebe 319b cbbd
000001c0: b258 06be 25a2 68bd b3e6 33be a780 56bd
000001d0: 707f 02bc 5d73 1ebe a3b4 0cbe 5e3a c2bd
000001e0: 242e 2cbd dc33 5b3d 6fbb 233e 8a24 e73d
000001f0: ccc9 abbc 71fc c33d 0ea4 223e f3ba 2b3c
00000200: cdff 1dbe 4449 263e edef 75bd 1c70 c43c
00000210: 197c 823d b9d9 24bd 095d d5bd aac1 b23d
00000220: da33 f03d 34b5 27be bddf 9dbd 54de c43a
00000230: f804 0abe 3dec 0f3c 2ce1 01be 5efc 1abe
00000240: e6f9 1d3e 4f02 2f3e 96a5 0d3c 8c64 9fbd
00000250: 1454 0fbd 570e fd3d fa8f 32bd 9f9d 413c
00000260: a62a 293e 8304 223e 2426 cabb 67b1 263e
00000270: 9c20 903d 5edd c8bd 5edf ecbd 943d 0cbc
00000280: 88a0 bebc 0be9 0dbe 4cb5 0ebe ef44 973d
00000290: 352b f9bd bbd7 f93d a4a7 2a3d 22a1 273e
000002a0: 210d 5abc 7087 90bd c3f7 2a3e 83a6 ee3d
000002b0: 787e 85bc 57de ddbd ad68 e33d 0817 2bbd
000002c0: fe30 d43d dedf 5f3d a787 70bd 8fa4 e3bd
000002d0: 1322 34be f972 973d e0cf e8bd 743b fc3d
000002e0: aa2e a53d 4ddf a43d 3757 c03d d2f7 823c
000002f0: 77c2 37bd ee95 93bd 484b c4bd ac6d ebbd
00000300: 4eb1 f0bd 7f59 bdbc 9cd6 303d 2cd4 e8bd
00000310: 6bde 0dbd 5b94 f1bc 00cd 273c a7fc 10be
00000320: dd87 09be 53c1 e63d 2dfc edbd 7e4e 84bd
00000330: 90de 2c3e f7c8 b0bd a013 133e 2534 9f3d
00000340: 9413 67bd fb7e 61bd a76d 283e 29d7 e73d
00000350: fe6d edbd a2e3 76bd 2694 fdbd 43a1 023e
00000360: 7e0c 873d 40a7 033e 833f 0abe 1229 1cbe
00000370: 74d4 2a3e 1a61 833d 18c0 02bd 6a0f 803d
00000380: 6299 2b3d 6b5c ea3d c1f5 e9bd e7ba d13d
00000390: 19b3 213e 4b6e 253e a2e5 bdbc 5532 e2bd
000003a0: e493 b43d b6fc 3cbd 2b54 8fbc e56d 15be
000003b0: 4f26 e5bd aad9 1a3e 423c f2bd 6861 1a3e
000003c0: 23fa 573d e060 633d a5e1 1d3e f3d0 ccbd
000003d0: 5110 8b3d b9e2 f93d 071f d23d 6bbb e9bd
000003e0: b599 0cbe 076e dcbd 9b4f 2bbe a40b f73d
000003f0: f427 bd3c 6ef7 343e cc27 b1bc 7190 f13d

transformer_encoder.layers.0.self_attn.qlinear.bias f4 [32]
0.004904692 -0.098803274 0.08329355 -0.12847994 0.11379902 -0.114494376 -0.14655381 0.05949312
0.020382594 -0.17301096 -0.124313116 -0.06644124 -0.16841313 -0.15329632 -0.12450876 -0.00439834
0.07461556 -0.08309369 -0.12073569 -0.04448579 -0.072296634 0.10089106 -0.015727201 -0.018438002
-0.12783381 0.10988269 -0.11209949 0.0061748293 0.016751286 -0.16736253 -0.08419585 -0.12171382
00000000: 8ab7 a03b 5f59 cabd cf95 aa3d 3f90 03be
00000010: 760f e93d 077c eabd 3412 16be 0faf 733d
00000020: 66f9 a63c c929 31be e097 febd 5812 88bd
00000030: 7e74 2cbe b6f9 1cbe 73fe febd f31f 90bb
00000040: 0bd0 983d 062d aabd 4644 f7bd bb36 36bd
00000050: 4210 94bd f99f ce3d 55d6 80bc 4b0b 97bc
00000060: dee6 02be 2d0a e13d 6b94 e5bd 3956 ca3b
00000070: fe39 893c 1561 2bbe e06e acbd 1845 f9bd

transformer_encoder.layers.0.self_attn.klinear.weight f4 [32, 32]
0.11625323 0.0789378 0.06919547 0.016099611 -0.09315031 -0.051887028 -0.07920714 0.1741751
-0.09792445 0.17466545 -0.12830609 -0.07034648 0.038606618 0.06389163 -0.08139435 0.10225263
0.025333479 -0.022253009 -0.11229667 -0.1413981 0.01718348 -0.101913944 0.02893731 -0.14273268
0.11474066 -0.17001773 0.004340725 -0.05855529 -0.16951859 -0.0046719783 -0.15562302 0.06424452
0.010389683 -0.07894604 0.060341664 0.14053392 0.04102142 0.105263226 0.15537697 -0.13313468
-0.053672913 0.11099122 -0.10672079 -0.121073246 -0.15818821 -0.042354546 0.071064115 0.021492131
-0.11519821 -0.08607442 -0.13699862 -0.12926076 -0.09310249 0.113054305 0.028513523 0.0408518
0.11846723 0.02784558 -0.10003601 0.06783811 0.17364371 0.007928096 0.118739136 0.0012470409
-0.1618644 0.079286754 0.15425618 0.013804336 -0.12175575 -0.07838692 0.09692901 0.1049367
0.16418618 -0.06116892 0.12643097 0.0054751285 0.013327529 -0.11166103 0.0028433106 0.13697045
0.075184055 -0.042456437 0.07574998 0.013609323 -0.12749335 -0.15105325 0.1135152 -0.082805514
0.068136156 -0.024610514 -0.048391093 -0.11127577 0.027826676 -0.062236965 0.1509101 0.035141516
-0.16292277 0.17241645 -0.0494082 0.08810535 -0.12072058 0.02091902 -0.051389124 -0.14369829
0.07453055 -0.014348557 0.008172547 0.13359772 0.036243908 -0.011815152 0.17407449 -0.10310067
-0.12740198 0.17217076 -0.13647185 -0.14450464 0.10475681 0.13143292 -0.12938398 -0.08479468
-0.0933877 -0.08012744 0.040680747 0.1047451 0.032479372 0.031729516 0.062619954 0.008046929
-0.005630292 0.13095991 0.14382778 -0.10890185 -0.060717233 0.0035195358 0.11066734 -0.04129529
-0.07349546 -0.03619569 0.12291726 -0.03960944 -0.007007082 0.08997153 0.00864691 0.124952145
0.16620688 -0.05109633 -0.031490438 -0.033334028 0.16012639 -0.16383156 -0.088512026 0.07792181
0.15982755 0.15642299 0.045622613 -0.12385951 -0.12019535 0.12861876 -0.09884637 -0.079384305
0.041475892 0.10139628 -0.142472 -0.02309287 0.09263542 -0.11516148 0.09437832 -0.10707101
0.020071741 -0.121890895 0.057224713 0.070921786 -0.13598716 -0.021031909 -0.024328403 -0.036601186
-0.04595726 0.09449964 0.084014535 0.048843812 0.14161296 -0.045272943 -0.01548197 0.095413506
0.07694716 -0.016989563 0.07084196 0.069694385 0.06376715 0.052647315 -0.11563009 0.0679086
-0.05189516 -0.01805453 0.036901526 -0.027468724 -0.024740389 -0.16036269 0.08261368 -0.001575976
-0.1449442 0.15609235 0.10607228 -0.10846542 0.09763041 -0.15280958 -0.040814124 -0.007008599
-0.10594613 -0.020165939 0.06808092 0.022294143 -0.06446649 -0.02302927 0.08247455 0.15032126
-0.037952773 -0.06377832 0.058028497 -0.13026136 0.15376854 -0.067174256 0.061324507 -0.045608222
0.0479487 0.07949378 0.033806745 -0.08695373 0.03817162 0.065354064 -0.032231443 -0.04147568
-0.027870487 0.16443907 0.056613836 0.06750789 -0.060820915 0.14091843 -0.0014296633 -0.13173054
0.010245625 -0.15789722 -0.050850384 -0.106919765 0.11394982 -0.10321497 0.13604821 0.05043431
-0.07942257 0.15743023 -0.06696841 -0.122743085 0.11230228 0.055541936 -0.028658614 0.1459083
00000000: 2c16 ee3d 24aa a13d 5bb6 8d3d 55e3 833c
00000010: 97c5 bebd 7e87 54bd 5a37 a2bd f55a 323e
00000020: 9d8c c8bd 80db 323e ac62 03be d111 90bd
00000030: f921 1e3d 9dd9 823d 15b2 a6bd d469 d13d
00000040: 2888 cf3c f14b b6bc ccfb e5bd aaca 10be
00000050: 5fc4 8c3c 42b8 d0bd f00d ed3c 8428 12be
00000060: 27fd ea3d 2119 2ebe a43c 8e3b acd7 6fbd
00000070: 4896 2dbe 6517 99bb a45b 1fbe a292 833d
00000080: 7d39 2a3c 76ae a1bd d228 773d 20e8 0f3e
00000090: 1406 283d 3f94 d73d 241b 1f3e 7554 08be
000000a0: 21d8 5bbd 5d4f e33d 6e90 dabd 40f5 f7bd
000000b0: 17fc 21be f67b 2dbd 108a 913d 4410 b03c
000000c0: 0aed ebbd c947 b0bd 5e49 0cbe ef5c 04be
000000d0: 85ac bebd 0489 e73d 3195 e93c 3854 273d
000000e0: f29e f23d 6a1c e43c aedf ccbd b5ee 8a3d
000000f0: a8cf 313e d8e4 013c 812d f33d c073 a33a
00000100: c8bf 25be 1861 a23d 55f5 1d3e 952b 623c
00000110: 145b f9bd 5289 a0bd b782 c63d 0de9 d63d
00000120: 6c20 283e 438c 7abd 1f77 013e b568 b33b
00000130: b55b 5a3c 8aae e4bd d656 3a3b fb41 0c3e
00000140: 19fa 993d cde6 2dbd ce22 9b3d a3f9 5e3c
00000150: 9e8d 02be b4ad 1abe a87a e83d f095 a9bd
00000160: f88a 8b3d fd9b c9bc bd35 46bd 8de4 e3bd
00000170: c5f4 e33c 30ec 7ebd 2d88 1a3e 8df0 0f3d
00000180: 3ad5 26be f08d 303e 4160 4abd 9470 b43d
00000190: 5a3c f7bd 5d5e ab3c 677d 52bd a525 13be
000001a0: 79a3 983d 3616 6bbc 26e6 053c d7cd 083e
000001b0: 7e74 143d 5794 41bc 9540 323e 7226 d3bd
000001c0: aa75 02be 884d 303e 47bf 0bbe 06f9 13be
000001d0: bd8a d63d 5a96 063e 3c7d 04be d5a8 adbd
000001e0: 0d42 bfbd db19 a4bd dba0 263d 9984 d63d
000001f0: 1709 053d cff6 013d e43e 803d 44d7 033c
00000200: 507e b8bb 5b1a 063e 9747 133e ef07 dfbd
00000210: a2b2 78bd 03a8 663b 8fa5 e23d 4025 29bd
00000220: ca84 96bd ef41 14bd 0bbc fb3d 823d 22bd
00000230: aa9b e5bb fe42 b83d c5ab 0d3c e9e6 ff3d
00000240: 2332 2a3e 634a 51bd 1efc 00bd 4389 08bd
00000250: 2cf8 233e 76c3 27be cb45 b5bd 7895 9f3d
00000260: d5a9 233e 592d 203e c7de 3a3d 0eaa fdbd
00000270: fb28 f6bd a3b4 033e f76f cabd 3d94 a2bd
00000280: a0e2 293d daa8 cf3d 2ee4 11be 422d bdbc
00000290: a4b7 bd3d c8d9 ebbd 6c49 c13d 0c48 dbbd
000002a0: 7e6d a43c efa1 f9bd 7664 6a3d 713f 913d
000002b0: 3840 0bbe 1c4b acbc 5c4c c7bc 20eb 15bd
000002c0: ae3d 3cbd 0789 c13d d00f ac3d 7310 483d
000002d0: fd02 113e 1f70 39bd 17a8 7dbc 2868 c33d
000002e0: 7996 9d3d b22d 8bbc 9715 913d eebb 8e3d
000002f0: 5a98 823d b6a4 573d 78cf ecbd aa13 8b3d
00000300: 0590 54bd 18e7 93bc 0e26 173d 1706 e1bc
00000310: 5bac cabc 1e36 24be 5c31 a93d fb90 ceba
00000320: 416c 14be acd6 1f3e 6c3c d93d 1e23 debd
00000330: 74f2 c73d 1d7a 1cbe b62c 27bd 64a8 e5bb
00000340: 49fa d8bd 0a33 a5bc 026e 8b3d 35a2 b63c
00000350: 0207 84bd e1a7 bcbc 6be8 a83d d1ed 193e
00000360: 5e74 1bbd 359e 82bd 4aaf 6d3d 3c63 05be
00000370: 8075 1d3e a892 89bd 682f 7b3d b0cf 3abd
00000380: db65 443d a3cd a23d f178 0a3d cc14 b2bd
00000390: d859 1c3d 5ad8 853d 1e05 04bd 67e2 29bd
000003a0: a650 e4bc b762 283e e9e3 673d 9441 8a3d
000003b0: 5a1f 79bd ec4c 103e 8a63 bbba 5fe4 06be
000003c0: 44dd 273c cfaf 21be 7e48 50bd c0f8 dabd
000003d0: 865e e93d 5f62 d3bd 3950 0b3e 3594 4e3d
000003e0: 4da8 a2bd 6435 213e bc26 89bd ba60 fbbd
000003f0: bdfe e53d f17f 633d 78c5 eabc fc68 153e

transformer_encoder.layers.0.self_attn.klinear.bias f4 [32]
-0.009129829 -0.16432044 -0.15672757 -0.08935134 -0.04401608 0.10917026 0.019327132 -0.09973234
0.103501596 -0.08698418 0.06803578 0.052624974 0.044342488 0.17614833 0.1590883 -0.01712222
-0.15876347 -0.16689534 0.13847747 0.029707838 0.013204565 0.11873825 -0.06912791 -0.12780437
0.108404934 0.043922074 -0.040435642 0.019291287 -0.16525486 0.05457705 0.017105151 -0.080454454
00000000: 4795 15bc 9e43 28be 317d 20be d6fd b6bd
00000010: 354a 34bd a894 df3d ef53 9e3c 7840 ccbd
00000020: a5f8 d33d c324 b2bd 5856 8b3d 498d 573d
00000030: 78a0 353d 3a60 343e 0be8 223e e643 8cbc
00000040: e492 22be 9de6 2abe 0acd 0d3e da5d f33c
00000050: f657 583c 0a2d f33d ef92 8dbd 26df 02be
00000060: 6803 de3d a2e7 333d d89f 25bd c308 9e3c
00000070: 9238 29be 2f8c 5f3d 1a20 8c3c 4ec5 a4bd

transformer_encoder.layers.0.self_attn.vlinear.weight f4 [32, 32]
-0.13884827 -0.0033751195 0.09425196 -0.014210779 -0.12964834 -0.12285644 -0.1231321 0.033801224
0.03876686 0.0005727546 -0.059149668 0.018259406 0.107684396 0.17308183 0.04941779 -0.016195895
0.037354268 -0.028441114 -0.13493092 -0.095172495 0.10835173 -0.107892245 -0.10062608 -0.0027660977
0.122956835 -0.031519227 -0.041039187 0.17155729 0.10274736 0.10357211 -0.08106183 -0.10067662
0.14261603 -0.04889892 0.13755734 0.04945545 -0.15632749 -0.1402822 0.013979709 0.07367874
0.12544474 -0.026530303 0.004978449 -0.16512692 0.08022633 -0.13497488 -0.006771734 0.09007011
-0.11055028 0.08541204 -0.07566697 0.14882313 0.041339714 -0.06364625 0.04398405 -0.06100849
-0.08954755 0.15263532 0.07582382 0.048620373 0.057352062 0.13369744 0.1460964 -0.1629066
-0.082837835 -0.07498872 0.12562561 -0.13978387 0.0851827 -0.033794753 -0.048716698 -0.16382714
-0.10996399 0.030458746 0.1312934 -0.022314396 -0.026232682 -0.009339257 -0.15383545 -0.15460986
0.15065713 -0.12595905 0.096487895 0.011070417 -0.10065504 0.018399144 -0.13590689 0.10411203
0.1463058 0.03066885 0.079303406 0.038410593 0.0029770215 -0.11258417 -0.12259614 -0.05194207
0.06457 0.10230134 -0.1506516 0.03573366 -0.07167653 -0.097191684 -0.16137274 -0.07611613
-0.15352105 -0.06986441 0.054839794 0.063873254 -0.06389148 -0.062874116 0.04248908 -0.10316252
0.09194461 0.17570621 -0.019057898 0.100195006 0.1306193 0.013358949 -0.14004688 -0.16073923
0.054692805 0.08026313 -0.12180715 -0.1191071 -0.03249737 0.04898863 -0.1343621 -0.033454884
-0.048101943 -0.12669922 0.078094445 0.15161742 0.095712855 -0.114122644 0.14318384 -0.032096744
0.059413128 0.032619048 -0.0482181 -0.12147531 0.057230614 0.122601576 0.17546587 0.10651217
0.024417903 -0.090760835 0.14500345 0.13401951 0.15377037 -0.13124101 -0.16816582 0.06064352
0.023965793 0.17614186 -0.11673067 -0.05422624 0.10537357 0.048442766 0.11134289 0.09294963
0.098400876 0.09940498 -0.1178397 -0.013593517 -0.062062584 0.1426333 0.14605185 -0.10206209
0.005142758 0.12245322 0.0049249223 0.12459929 -0.09644592 -0.14510623 -0.0113714095 -0.030701302
0.15782152 -0.16662346 -0.1328694 -0.17253996 -0.017109534 0.08586712 0.11589028 -0.17420253
0.09078248 0.037071902 -0.045248117 0.14177121 -0.01111208 -0.10794261 -0.120195605 -0.15698688
-0.023783382 0.15936604 -0.17359371 0.17655316 -0.15323597 -0.0600271 -0.07902949 -0.13707864
0.014182267 0.14022474 -0.09517102 -0.003789128 -0.0144524705 0.021152955 0.0359332 -0.023861248
0.11901532 0.06334661 0.10636689 0.028996209 0.1354634 -0.027015055 -0.047313966 -0.085193425
-0.103207596 0.14891008 -0.03712088 -0.08385802 -0.067753226 0.045369584 0.035427228 0.0034580436
0.14861634 0.07044462 0.06978852 -0.010657168 0.064607136 0.0708396 -0.12923108 -0.06076471
-0.14256844 0.08845146 -0.046942357 0.020224081 -0.08559119 -0.043545976 -0.021041518 0.13750666
0.14374469 -0.052489072 -0.15246509 -0.12048753 -0.13160667 0.07420953 0.015688637 0.09351825
0.16680546 -0.16723378 0.08825611 -0.06951931 -0.060181588 -0.013662828 0.10029892 0.01905242
00000000: 3e2e 0ebe 1c31 5dbb 2c07 c13d 54d4 68bc
00000010: 89c2 04be 289c fbbd af2c fcbd 2773 0a3d
00000020: 00ca 1e3d e924 163a ec46 72bd c094 953c
00000030: a389 dc3d 5d3c 313e 4f6a 4a3d 41ad 84bc
00000040: ca00 193d 57fd e8bc 552b 0abe cce9 c2bd
00000050: 83e7 dd3d 9cf6 dcbd 0c15 cebd 6b47 35bb
00000060: cbd0 fb3d 4e1a 01bd b518 28bd b7ac 2f3e
00000070: 356d d23d 9d1d d43d bf03 a6bd 8b2f cebd
00000080: f009 123e 3c4a 48bd d5db 0c3e cc91 4a3d
00000090: 5014 20be 23a6 0fbe 260b 653c e1e4 963d
000000a0: 9674 003e 1456 d9bc 4222 a33b 0817 29be
000000b0: b44d a43d db36 0abe 6ce5 ddbb ae76 b83d
000000c0: 2f68 e2bd 82ec ae3d 49f7 9abd 1765 183e
000000d0: d553 293d f758 82bd 9f28 343d 0ae4 79bd
000000e0: b564 b7bd 6f4c 1c3e 8549 9b3d 2826 473d
000000f0: ffe9 6a3d fbe7 083e 4b9a 153e fdd0 26be
00000100: e2a6 a9bd b093 99bd 00a4 003e 8123 0fbe
00000110: 4474 ae3d 5e6c 0abd 298b 47bd 4dc2 27be
00000120: cd34 e1bd 9f84 f93c c771 063e aecc b6bc
00000130: ece5 d6bc af03 19bc 0a87 1dbe 0c52 1ebe
00000140: dd45 1a3e 69fb 00be 729b c53d b260 353c
00000150: 3b24 cebd cdb9 963c 2d2b 0bbe b038 d53d
00000160: 30d1 153e 3d3d fb3c d369 a23d 6d54 1d3d
00000170: 221a 433b 8892 e6bd af13 fbbd 35c1 54bd
00000180: 473d 843d 5d83 d13d 6a44 1abe 755d 123d
00000190: 25cb 92bd 6f0c c7bd e53e 25be c6e2 9bbd
000001a0: 9f34 1dbe 1215 8fbd b19f 603d fbcf 823d
000001b0: 89d9 82bd 25c4 80bd 0809 2e3d df46 d3bd
000001c0: 754d bc3d 54ec 333e 4f1f 9cbc 0a33 cd3d
000001d0: 11c1 053e 7edf 5a3c 7368 0fbe d398 24be
000001e0: 9005 603d ff60 a43d 0776 f9bd 6cee f3bd
000001f0: f61b 05bd 4da8 483d 3896 09be fd07 09bd
00000200: 8b06 45bd 71bd 01be fbef 9f3d 9941 1b3e
00000210: 1a05 c43d 22b9 e9bd c99e 123e e077 03bd
00000220: 2e5b 733d 8d9b 053d 5880 45bd 0cc8 f8bd
00000230: a66a 6a3d 8916 fb3d 53ad 333e 0d23 da3d
00000240: 0e08 c83c d1e0 b9bd c97b 143e 693c 093e
00000250: fb75 1d3e 0b64 06be a933 2cbe 5765 783d
00000260: e953 c43c 885e 343e 7d10 efbd 551c 5ebd
00000270: 19ce d73d ec6b 463d be07 e43d 605c be3d
00000280: 6686 c93d d794 cb3d f155 f1bd 58b7 5ebc
00000290: 5635 7ebd 770e 123e 9e8e 153e ee05 d1bd
000002a0: 9584 a83b c1c8 fa3d 3e61 a13b ea2d ff3d
000002b0: 7085 c5bd ba96 14be 264f 3abc 4c81 fbbc
000002c0: f79b 213e 579f 2abe ea0e 08be 51ae 30be
000002d0: 4b29 8cbc 1adb af3d e257 ed3d 2662 32be
000002e0: 2aec b93d b5d8 173d 1756 39bd 792c 113e
000002f0: 710f 36bc 0411 ddbd 1d29 f6bd 2bc1 20be
00000300: 5ed5 c2bc da30 233e 8dc2 31be 5aca 343e
00000310: e4e9 1cbe fade 75bd 37da a1bd 585e 0cbe
00000320: bd5c 683c 1397 0f3e 06e9 c2bd 0553 78bb
00000330: 0eca 6cbc f648 ad3c b12e 133d aa78 c3bc
00000340: 4ebe f33d debb 813d e2d6 d93d 7589 ed3c
00000350: ebb6 0a3e ad4e ddbc 4acc 41bd e479 aebd
00000360: 815e d3bd e27b 183e 100c 18bd c1bd abbd
00000370: 34c2 8abd 75d5 393d 241c 113d 58a0 623b
00000380: e22e 183e 4545 903d 49ed 8e3d 679b 2ebc
00000390: bf50 843d 5a14 913d 2755 04be 6be4 78bd
000003a0: 76fd 11be 0a26 b53d a146 40bd f9ac a53c
000003b0: 6f4a afbd 445d 32bd 435f acbc 8cce 0c3e
000003c0: cf31 133e c8fe 56bd cf1f 1cbe 2bc2 f6bd
000003d0: e6c3 06be 2bfb 973d 7585 803c 7f86 bf3d
000003e0: 0dcf 2a3e 553f 2bbe 9fbf b43d 2460 8ebd
000003f0: f880 76bd 0eda 5fbc 8569 cd3d d213 9c3c

transformer_encoder.layers.0.self_attn.vlinear.bias f4 [32]
0.051679473 -0.0006274612 -0.110221595 -0.006978696 -0.13713373 0.14010389 -0.09836729 -0.16827163
0.047902167 -0.10379953 -0.096115105 -0.05551783 -0.07588563 0.07818769 -0.019646458 -0.06511498
0.043693762 -0.09795047 0.05074116 0.09089256 -0.17309476 0.12833233 0.10276721 0.089738965
0.044560682 -0.11489239 -0.025811404 -0.10925885 -0.04506678 0.048407383 -0.15682293 -0.11774795
00000000: dbad 533d 357c 24ba dcbb e1bd 8cad e4bb
00000010: c96c 0cbe 6577 0f3e ca74 c9bd 664f 2cbe
00000020: 1035 443d d994 d4bd ffd7 c4bd aa66 63bd
00000030: ed69 9bbd de20 a03d 9cf1 a0bc 015b 85bd
00000040: 3bf8 323d 429a c8bd f6d5 4f3d e125 ba3d
00000050: c13f 31be 8d69 033e 9d77 d23d 10c9 b73d
00000060: 4385 363d b44c ebbd 7072 d3bc 1bc3 dfbd
00000070: f297 38bd d246 463d 3196 20be d625 f1bd

transformer_encoder.layers.0.self_attn.out_proj.weight f4 [32, 32]
0.13274507 -0.09855676 0.113499224 0.13096401 0.017414719 0.0060234377 -0.13110976 -0.058874384
-0.032343134 -0.14401211 0.0452906 -0.033044983 -0.04607563 0.09126681 -0.052177884 0.16340467
-0.15067686 0.12791741 0.122618966 0.16248815 -0.16331227 -0.102072604 0.03175154 0.13857776
0.0535662 -0.04823321 -0.009680098 -0.020693934 0.1420966 0.0044596842 -0.05666283 0.0029149393
-0.12207373 -0.16771324 -0.0030409794 0.00932853 -0.15454136 0.059038926 -0.008946342 -0.12019577
-0.112317935 0.12557524 0.05362862 0.012224567 -0.16618308 -0.038954455 -0.07706819 -0.09947999
0.015365033 -0.053207025 0.0118165435 0.10685164 -0.11422972 0.071619675 -0.13162433 -0.05758391
0.023509406 0.061319366 0.14738767 0.10887593 0.09621308 -0.12715712 0.03117128 -0.11665145
0.06839215 0.090446085 0.16416197 -0.040916707 0.008434132 0.093278185 -0.016829068 0.08042097
0.07975764 -0.016294688 -0.11979792 0.094693094 -0.024773369 -0.14231347 0.024518613 0.16206141
0.16735889 0.15164785 0.043638173 0.051156644 -0.02477474 0.063189164 -0.13520464 -0.08864685
0.1123848 0.004548235 0.15176016 -0.05629388 0.04225978 -0.16019014 0.033301722 -0.023264216
0.02414732 0.078987174 0.0769836 -0.015553978 0.12336237 -0.1505022 -0.025935294 -0.12148163
0.09942627 -0.10454884 -0.1105649 -0.118041776 -0.045560934 0.16975655 -0.059940487 0.103756286
0.037738476 -0.032049645 0.124826364 -0.13572764 0.11223783 0.11720337 0.139312 0.1631495
-0.14822981 0.07318945 -0.15359633 -0.052108783 -0.0890074 0.0561977 0.17418334 -0.03297624
0.084570915 0.10309853 -0.0610625 -0.018598266 0.1285414 -0.048413895 -0.014018885 -0.08320469
-0.113003984 -0.12849465 -0.14903988 0.14979118 -0.0116750775 -0.050344113 -0.10140597 -0.10993215
-0.16083798 0.024059044 -0.033666544 0.15056944 0.05066955 -0.12194181 0.037841547 0.073049046
-0.061984062 -0.05385128 -0.11758741 -0.1322953 0.08700827 0.032295864 -0.072604164 -0.14390016
-0.15655527 0.117273584 0.0049955393 0.07939623 0.121565 -0.027807878 -0.11206139 -0.08085352
-0.06968121 -0.04540054 0.010405424 0.089763574 0.11498404 -0.12057149 -0.062533766 0.023892753
0.005995284 -0.020448133 -0.12820876 0.111249365 0.0913221 -0.085481375 -0.049320176 0.022628412
0.12082235 -0.0012044515 0.15892166 -0.15064631 -0.0060132802 0.079678655 0.009353882 -0.01599005
0.083766736 0.010638771 -0.11115805 -0.03465575 -0.102235734 0.05662016 -0.027906714 -0.1079852
-0.094400026 -0.0021429353 -0.1697281 -0.022261165 0.102241635 0.006368178 -0.14744927 0.09606718
0.14830098 0.015348133 0.11080893 -0.13333216 0.054142494 -0.16937436 -0.16695493 -0.045130275
-0.11781096 0.006623398 0.15343043 -0.15209588 -0.12132305 0.1608599 0.09992651 -0.17052217
0.16631149 -0.044875897 -0.089798495 0.112781994 -0.15429632 0.060667228 0.008054642 -0.028021522
0.17046101 0.0074592754 -0.122034214 -0.08505051 0.10022495 -0.042552404 0.09903245 -0.07252834
-0.10412762 0.025883496 -0.16736601 -0.017998727 -0.08970303 -0.026549015 0.074985586 0.13355082
-0.097320504 -0.023615448 0.031471346 0.114354685 0.059074517 -0.05131566 0.07084626 0.112116516
00000000: 53ee 073e 20d8 c9bd 4872 e83d 6e1b 063e
00000010: 50a9 8e3c 4260 c53b a341 06be 4426 71bd
00000020: 3c7a 04bd e977 13be a382 393d 2d5a 07bd
00000030: cdb9 3cbd 18ea ba3d 7ab8 55bd 8e53 273e
00000040: 094b 1abe c8fc 023e a71f fb3d 4b63 263e
00000050: 553b 27be 710b d1bd e70d 023d 54e7 0d3e
00000060: 3b68 5b3d 3090 45bd 4699 1ebc 5386 a9bc
00000070: c581 113e 8b22 923b 4917 68bd 9108 3f3b
00000080: cb01 fabd 05bd 2bbe 2b4b 47bb b1d6 183c
00000090: 1740 1ebe cdd2 713d ae93 12bc 3329 f6bd
000000a0: f206 e6bd cc96 003e afa9 5b3d 8d49 483c
000000b0: e62b 2abe b58e 1fbd edd5 9dbd 2abc cbbd
000000c0: 9fbd 7b3c 9cef 59bd 2d9a 413c 08d5 da3d
000000d0: 45f1 e9bd 56ad 923d 87c8 06be 1bdd 6bbd
000000e0: cc96 c03c 042a 7b3d cbec 163e 58fa de3d
000000f0: 5d0b c53d 7a35 02be ea5a ff3c f5e6 eebd
00000100: 2f11 8c3d cc3b b93d 131a 283e 4798 27bd
00000110: 502f 0a3c a208 bf3d 1ddd 89bc c0b3 a43d
00000120: f957 a33d 707c 85bc 9d58 f5bd 74ee c13d
00000130: 85f1 cabc 9fba 11be 42db c83c 6df3 253e
00000140: 2160 2b3e 9349 1b3e f1bd 323d a189 513d
00000150: 65f4 cabc 5269 813d 1673 0abe 7b8c b5bd
00000160: 012a e63d 5c09 953b 0467 1b3e 6994 66bd
00000170: 9718 2d3d e208 24be 6367 083d 9994 bebc
00000180: 9ad0 c53c 07c4 a13d 94a9 9d3d 1dd6 7ebc
00000190: 69a5 fc3d 401d 1abe 4176 d4bc 5ccb f8bd
000001a0: 00a0 cb3d b41d d6bd da6f e2bd e3bf f1bd
000001b0: 1a9e 3abd a9d4 2d3e 2884 75bd 2d7e d43d
000001c0: a993 1a3d 7d46 03bd f7a4 ff3d 30fc 0abe
000001d0: f3dc e53d 5208 f03d cea7 0e3e aa10 273e
000001e0: 8ec9 17be 5ae4 953d 5b48 1dbe 0570 55bd
000001f0: 8349 b6bd 8f2f 663d 1e5d 323e 1812 07bd
00000200: 8433 ad3d 5225 d33d ac1c 7abd 645b 98bc
00000210: 5ba0 033e a64d 46bd 77af 65bc 3867 aabd
00000220: a26e e7bd 1a94 03be e99d 18be dc62 193e
00000230: d348 3fbc a135 4ebd efad cfbd 1b24 e1bd
00000240: b6b2 24be 7917 c53c eee5 09bd e02e 1a3e
00000250: e08a 4f3d a1bc f9bd bdff 1a3d bd9a 953d
00000260: 00e3 7dbd 2993 5cbd abd1 f0bd 6b78 07be
00000270: 6431 b23d ab48 043d 7eb1 94bd 905a 13be
00000280: 0650 20be 222d f03d 9fb1 a33b 7e9a a23d
00000290: 12f7 f83d 59cd e3bc 7180 e5bd 8896 a5bd
000002a0: 06b5 8ebd ebf5 39bd 837b 2a3c f7d5 b73d
000002b0: c17c eb3d 2fee f6bd b411 80bd bcba c33c
000002c0: 1674 c43b d882 a7bc 2849 03be b5d6 e33d
000002d0: 1507 bb3d dc10 afbd f403 4abd 385f b93c
000002e0: b571 f73d b0de 9dba 5cbc 223e 0743 1abe
000002f0: 0d0b c5bb 902e a33d 0641 193c 91fd 82bc
00000300: e58d ab3d 3d4e 2e3c d5a6 e3bd 30f3 0dbd
00000310: f860 d1bd 8aea 673d 9f9c e4bc 5827 ddbd
00000320: cd54 c1bd 7d70 0cbb 34cd 2dbe 0c5d b6bc
00000330: 1064 d13d 26ac d03b f1fc 16be dfbe c43d
00000340: 36dc 173e bc76 7b3c cbef e23d 3a88 08be
00000350: 85c4 5d3d 7970 2dbe 3cf6 2abe 86da 38bd
00000360: df46 f1bd 1709 d93b de1c 1d3e 06bf 1bbe
00000370: 3878 f8bd 75b8 243e 45a6 cc3d 5d9d 2ebe
00000380: 8f4d 2a3e cacf 37bd 46e8 b7bd 3ffa e63d
00000390: dbff 1dbe 337e 783d 9ef7 033c 648d e5bc
000003a0: 558d 2e3e f06c f43b 13ed f9bd f62e aebd
000003b0: bd42 cd3d 6e4b 2ebd 86d1 ca3d bd89 94bd
000003c0: dd40 d5bd a009 d43c ff61 2bbe 1172 93bc
000003d0: 39b6 b7bd 527d d9bc 0b92 993d 8cc1 083e
000003e0: f94f c7bd 2f75 c1bc 19e8 003d ca32 ea3d
000003f0: 1ff8 713d 5f30 52bd d817 913d 589d e53d

transformer_encoder.layers.0.self_attn.out_proj.bias f4 [32]
0.1255465 -0.11103745 0.013277438 0.09405326 -0.089664444 0.14384677 -0.08715962 -0.10514142
0.0061970195 -0.03327087 0.10574366 -0.053446945 -0.13554128 -0.10073368 -0.149182 -0.017571906
0.15450744 0.107905395 -0.05716141 0.07832105 0.06240039 0.060448 -0.12452318 -0.04639628
0.15956925 -0.17179725 -0.06470304 0.080617435 0.14193 0.038501397 -0.055556353 0.032855216
00000000: 438f 003e 9a67 e3bd 9c89 593c ff9e c03d
00000010: fea1 b7bd 914c 133e be80 b2bd 6354 d7bd
00000020: 5e10 cb3b 0947 08bd 2290 d83d 2feb 5abd
00000030: 55cb 0abe 764d cebd 2bc3 18be f5f2 8fbc
00000040: 3337 1e3e 81fd dc3d 1522 6abd c966 a03d
00000050: 8d97 7f3d 5298 773d 0206 ffbd 070a 3ebd
00000060: 1f66 233e 9eeb 2fbe 0783 84bd c11a a53d
00000070: 1956 113e a4b3 1d3d 0f8f 63bd 3193 063d

transformer_encoder.layers.0.linear1.weight f4 [16, 32]
-0.11308916 0.15140705 0.054530837 0.096588925 -0.021004261 0.13746293 0.054084186 -0.11045197
-0.02326763 0.14110109 0.10121743 0.10244206 0.17377216 -0.033632047 -0.1444483 -0.08337502
-0.15128917 -0.0473845 0.10004106 -0.009440282 -0.1257082 -0.17196086 -0.102379374 0.047099564
-0.17093916 0.1642595 0.036533415 -0.08041728 -0.013833902 -0.063815325 0.14124788 0.15668261
0.078513026 -0.12051234 0.11541615 -0.17268312 -0.16887738 -0.17098574 0.017709853 0.13807529
0.17195505 0.06727971 0.087710224 0.040697187 -0.12836887 0.17092605 -0.028375197 -0.13157345
-0.031274058 -0.05434242 0.14226376 0.03728506 0.007394854 -0.07342093 -0.11980275 0.094129145
-0.009244174 -0.017976874 0.03408896 0.08960091 -0.01617676 0.059789456 0.10246672 -0.05095931
-0.10977606 -0.011638747 0.16534965 0.0018063296 0.10734903 0.08704215 0.0258871 0.09216159
-0.013808972 0.07680627 0.17404945 0.029964155 -0.10695568 0.019944267 -0.04619817 0.15467842
-0.065604076 0.11038348 -0.006219526 -0.04199316 0.099345535 0.028430598 -0.03399605 -0.16238476
0.10757867 0.14291874 0.021030013 0.061221816 -0.101340644 -0.01608977 0.13852265 -0.17294057
0.09983654 0.13024807 0.14225042 -0.12338595 0.0012064114 0.07678957 -0.08066666 -0.17525454
0.103784524 -0.044411924 -0.15432124 -0.018496986 -0.14051664 0.092569 -0.09411798 -0.07079992
0.04492968 0.10309989 0.10993824 0.08161478 0.14864264 0.16623004 -0.13914636 -0.123717755
-0.13848807 0.0024133706 -0.04433174 -0.15256442 0.06994609 0.16483492 0.006076943 -0.006009719
0.16866527 -0.083669476 0.13599005 -0.08980332 0.026153762 0.060386844 -0.13947049 -0.07068231
-0.022724736 0.023117125 -0.017449448 -0.100829124 -0.05620297 0.14443839 -0.16490416 0.15620144
-0.08824987 -0.112531096 -0.036088344 -0.05158477 0.13164338 0.091388315 -0.045255072 0.08312195
0.14459407 -0.11005261 0.16878636 -0.1521917 0.10080462 -0.049470726 0.08399675 0.021346219
0.016429663 -0.039561182 0.096548274 0.04058383 -0.17269914 0.12966156 -0.010970087 0.0874635
0.05505335 0.0899689 -0.12862824 0.11109504 -0.0953658 -0.10117947 0.07254284 0.05029668
0.13414775 -0.14307995 0.0934977 -0.110224165 0.118314885 -0.06623264 0.116102256 0.14358306
0.03621464 0.11678757 -0.059082106 -0.13553649 0.089791246 -0.0028360193 -0.026902333 0.061416343
0.052629 -0.04119926 0.15187417 -0.05476458 0.14532958 0.16066423 0.09829962 0.07505829
-0.15081261 0.14298776 0.0762392 0.16210169 0.1761215 -0.11577109 -0.009454381 -0.039658036
-0.04648319 -0.059431247 -0.002446477 -0.15995863 0.09931125 0.1536113 0.1414295 0.12367004
-0.1484274 -0.019257864 0.09890367 -0.11525835 -0.1383743 -0.026512453 -0.09312426 -0.017960563
0.13766442 0.016072195 -0.06740305 0.07732613 -0.096807495 0.023610832 -0.011046878 -0.12047255
-0.029325966 -0.040569376 0.0745431 0.13061254 0.092061125 -0.100531735 -0.11249832 -0.07864317
-0.083376095 0.16118097 -0.034435704 0.056276977 -0.016326847 -0.1669906 -0.047231738 0.16084227
0.11184494 0.071600035 0.11847705 0.069292955 0.09117453 -0.087701246 -0.015344466 0.12982371
00000000: 4a9b e7bd 730a 1b3e ba5b 5f3d 6ad0 c53d
00000010: 2111 acbc 15c3 0c3e 6187 5d3d a434 e2bd
00000020: c29b bebc ce7c 103e 154b cf3d 25cd d13d
00000030: 54f1 313e c2c1 09bd 41ea 13be 86c0 aabd
00000040: 8ceb 1abe 4016 42bd 54e2 cc3d 6aab 1abc
00000050: a6b9 00be 8216 30be 47ac d1bd 79eb 403d
00000060: ad0a 2fbe a433 283e 10a4 153d d1b1 a4bd
00000070: 97a7 62bc 9cb1 82bd 49a3 103e 6871 203e
00000080: 70cb a03d 2ccf f6bd 4d5f ec3d d8d3 30be
00000090: 31ee 2cbe e316 2fbe 4114 913c 9c63 0d3e
000000a0: fc14 303e f2c9 893d 6ba1 b33d 18b2 263d
000000b0: 2173 03be 3d07 2f3e 1a73 e8bc 31bb 06be
000000c0: 3a19 00bd 2896 5ebd 97ad 113e 38b8 183d
000000d0: 8850 f23b b65d 96bd 255b f5bd c8c6 c03d
000000e0: e074 17bc 3d44 93bc dea0 0b3d af80 b73d
000000f0: 2085 84bc cae5 743d 12da d13d b6ba 50bd
00000100: 45d2 e0bd 71b0 3ebc 6b51 293e 5dc2 ec3a
00000110: cfd9 db3d 2843 b23d 2f11 d43c 37bf bc3d
00000120: 073f 62bc 9b4c 9d3d 053a 323e 6377 f53c
00000130: 940b dbbd 2962 a33c 4b3a 3dbd 0564 1e3e
00000140: 6e5b 86bd bc10 e23d 2acd cbbb 0501 2cbd
00000150: ac75 cb3d 49e7 e83c 713f 0bbd 3148 26be
00000160: 3552 dc3d 4a59 123e 2247 ac3c bac3 7a3d
00000170: af8b cfbd b1ce 83bc e2d8 0d3e 5517 31be
00000180: 1a77 cc3d c05f 053e 18aa 113e c6b1 fcbd
00000190: 7320 9e3a da43 9d3d 9034 a5bd ed75 33be
000001a0: fb8c d43d 47e9 35bd 6306 1ebe fe86 97bc
000001b0: 98e3 0fbe d194 bd3d edc0 c0bd 8cff 90bd
000001c0: 2f08 383d 0926 d33d 4d27 e13d a625 a73d
000001d0: c735 183e 3538 2a3e 627c 0ebe bc5f fdbd
000001e0: d1cf 0dbe a429 1e3b 3395 35bd d939 1cbe
000001f0: e53f 8f3d 7cca 283e 1821 c73b 2ded c4bb
00000200: 97b6 2c3e e75a abbd fa40 0b3e ceea b7bd
00000210: 6a40 d63c 3258 773d 5ad1 0ebe e3c1 90bd
00000220: 3a29 babc 2060 bd3c 25f2 8ebc 807f cebd
00000230: 1635 66bd a8e7 133e a3dc 28be 45f3 1f3e
00000240: 59bc b4bd b476 e6bd 5fd1 13bd 8d4a 53bd
00000250: 86cd 063e cc29 bb3d 625d 39bd d73b aa3d
00000260: 7810 143e 4363 e1bd 55d6 2c3e 24d8 1bbe
00000270: a772 ce3d d1a1 4abd 7d06 ac3d 44de ae3c
00000280: 8097 863c e80a 22bd 1abb c53d 3b3b 263d
00000290: 0bd8 30be 00c6 043e e1bb 33bc 1020 b33d
000002a0: 9f7f 613d 9d41 b83d 1fb7 03be cc85 e33d
000002b0: 254f c3bd 2f37 cfbd 5791 943d e403 4e3d
000002c0: 075e 093e 8d83 12be b97b bf3d 35bd e1bd
000002d0: 134f f23d faa4 87bd 05c7 ed3d 7007 133e
000002e0: cd55 143d 522e ef3d 1400 72bd 14ca 0abe
000002f0: 79e4 b73d 82dc 39bb 4862 dcbc b48f 7b3d
00000300: 8291 573d 8ec0 28bd e784 1b3e d350 60bd
00000310: 47d1 143e 2a85 243e 5051 c93d 29b8 993d
00000320: 9f6e 1abe 626b 123e 4c23 9c3d fcfd 253e
00000330: 3259 343e 6519 edbd 8ce6 1abc 7770 22bd
00000340: 2865 3ebd 2e6e 73bd 1355 20bb 32cc 23be
00000350: b263 cb3d 484c 1d3e e5d2 103e b846 fd3d
00000360: 5afd 17be abc2 9dbc 028e ca3d 920c ecbd
00000370: feb1 0dbe a530 d9bc efb7 bebd 0822 93bc
00000380: e7f7 0c3e d6a9 833c 9c0a 8abd 295d 9e3d
00000390: 0243 c6bd 816b c13c f7fd 34bc 50ba f6bd
000003a0: 023d f0bc 132c 26bd 0eaa 983d 4bbf 053e
000003b0: 8b8a bc3d 95e3 cdbd 8565 e6bd ac0f a1bd
000003c0: 16c1 aabd a00c 253e 740c 0dbd b082 663d
000003d0: e1bf 85bc 95ff 2abe 1176 41bd d6b3 243e
000003e0: f60e e53d 0aa3 923d 18a4 f23d 77e9 8d3d
000003f0: b6b9 ba3d b69c b3bd 5b67 7bbc 82f0 043e

transformer_encoder.layers.0.linear1.bias f4 [16]
0.11081694 0.14553685 -0.10092589 0.12359696 -0.11664865 0.09924284 -0.16604602 0.08177106
0.12167892 -0.04560717 -0.06061193 0.17107621 -0.084926024 0.0054076724 0.050113782 -0.07040127
00000000: fef3 e23d 9d07 153e 3cb2 cebd 6720 fd3d
00000010: 7de5 eebd d53f cb3d f807 2abe 9677 a73d
00000020: cc32 f93d 95ce 3abd 3744 78bd 9a2e 2f3e
00000030: b2ed adbd d832 b13b 1c44 4d3d 8b2e 90bd
