experiments/fl_train_noise_0.5_max_grad_norm_2.5/20250423/model_round_6.pt (torch, 62777 bytes, 25 tensors)

embed.weight f8 [32, 8]
0	0x3fd09c74dc4dbc48	0.2595493461039422
1	0xbfda4f150b114c66	-0.4110767944413908
2	0xbfdfdd6443e1fff0	-0.497887674609955
3	0x3fd2d0d402de0904	0.2939958599091741
4	0x3fc188196c4e3338	0.1369659212909029
5	0xbfd7083494ab31fd	-0.3598758174746591
6	0xbfcdd24b2ecd60d6	-0.2329801538969664
7	0x3fe5eab5a99e3501	0.6849010765887728
8	0x3fac6f289a9e76df	0.05553557288588506
9	0xbfb8d0e27a1280ae	-0.09693732719688583
10	0xbfbe8585728e7fbe	-0.11922487303536308
11	0xbfb27550ae3c89ae	-0.07210258725948535
12	0x3fd6205e7fd65a5e	0.3457256554042142
13	0x3fb32670063b756b	0.07480526115565105
14	0xbfdb172b69cd2fef	-0.42328915912798853
15	0xbfce15610d6ee295	-0.23502743869700696
16	0xbfc26b4f77b02106	-0.14389985412731948
17	0x3fb34f51d1c1d630	0.07542907115006225
18	0xbfe01931d6e01ba6	-0.5030755230699142
19	0xbfc4c3ce284077ab	-0.16222550359173957
20	0x3fafad87756e879a	0.06187079723828433
21	0x3fd81a67376c3b11	0.37661152279263016
22	0xbfb9bfa888f29462	-0.10058072417685218
23	0xbfe0c1a1baf0cb9f	-0.5236366892989855
24	0xbfa461d3777e7871	-0.039808853470490464
25	0x3fd55fdcb6b405d0	0.3339759620867797
26	0xbfb4d21c96a02755	-0.08133104970343415
27	0x3fe4dbb863506c2b	0.6518213214616301
28	0xbfcb4387a8f68eb5	-0.212998349668046
29	0xbfd0684c1537f168	-0.2563657958233052
30	0x3fb9798ac40d7fdc	0.09951083456462534
31	0x3fe3c44c043e24d8	0.6177120287767606
32	0x3fc348300f966d12	0.15064049492944115
33	0x3fb7de06e021d23c	0.09323161098456806
34	0xbfe0eb0edf08d073	-0.5286936145917153
35	0xbfd12593d912a715	-0.2679185504772346
36	0xbfc3f216b2d74bad	-0.1558254597899497
37	0x3ff132baea63e5bd	1.0748852878444801
38	0xbfe220c3369b78e2	-0.5664993349598968
39	0x3fdde3b80800381c	0.46702385693868265
40	0xbf97c41a890f23e2	-0.02320901357214556
41	0xbfd86fb7012efecb	-0.381818534046016
42	0xbfe632b97ae9e7ef	-0.6936919594438659
43	0xbfe0ca1a712d4fc2	-0.5246708116997001
44	0x3fd18bbb861d7408	0.2741535958974173
45	0x3fe4cb59abc91411	0.6498230319199384
46	0x3fe0add51aa61c31	0.5212197800145814
47	0xbfe1f45d8c491d7b	-0.5610797634080166
48	0xbfe2a64241bc621b	-0.5827952655700445
49	0x3f94a7395a824d93	0.020169159077864384
50	0x3fee0bae6c8a2971	0.9389259452739634
51	0x3fa4713b40fd0216	0.039926387484687506
52	0x3fdaf798f5e07240	0.42136215220833506
53	0x3fde6d35eb586be5	0.4754156873984228
54	0x3fe06a0b55940948	0.5129448577356834
55	0xbfe7685695ae9795	-0.7314865993000575
56	0x3fab4f198867f948	0.053337858105794
57	0x3fe8066dc9fc5bc4	0.7507847733530686
58	0xbfba94014f1da4d2	-0.10382087880647653
59	0xbf7de22e13f68818	-0.007295780174361631
60	0xbfe24f7881a578ac	-0.5722010166316713
61	0x3f7d2f46f9b98648	0.007125165222164727
62	0xbfced9c6e4f7f84a	-0.24102102451428414
63	0xbfe06d3ab9363a2a	-0.5133336656015832
64	0xbfdbbb0c1aefb522	-0.43329146032813715
65	0xbfc560ff3e637a5f	-0.1670226149207847
66	0xbfea740ffbbcf650	-0.8266677777061862
67	0xbfc8cf0037a12aa5	-0.1938171645764061
68	0xbfc9dbda1e2068d4	-0.2020218512632882
69	0x3fe6593cf89649df	0.6983933310714824
70	0xbfdd4a0ed296966e	-0.45764513554818265
71	0x3fb7ae443ea4a17c	0.09250284699795047
72	0x3fdf3c852fe63592	0.4880688636556779
73	0x3fd5a33a4b88f826	0.3380876290938225
74	0xbfbf6f217cbec3bc	-0.12278947158371428
75	0x3fcdf8a8a48608e9	0.23415096314790354
76	0x3fcc959de38d41c5	0.22331594096114152
77	0x3f988ffd288a81b4	0.02398677406256562
78	0xbfcb7beb86ec18f4	-0.21471923912049073
79	0xbfc6de3d85390c62	-0.1786572361471342
80	0xbfa910bd2aaa6a7d	-0.048955832918371
81	0x3fc327f2de94a43e	0.14965663784212951
82	0x3fc477eeac8384f4	0.1599100439407618
83	0xbfc6c0dbb6a25a6c	-0.17776056688008468
84	0xbfe76b6f9643e40b	-0.7318647322528035
85	0x3fd63e7b6ece7785	0.3475636083693348
86	0xbfc899d9ef54ff3a	-0.1921951693166138
87	0x3fcc19b3f978d734	0.21953439408542297
88	0xbfe441f194c3de2b	-0.6330497651642352
89	0x3fdaaef6088155ce	0.4169287760790582
90	0xbfe2a093776dcbea	-0.5821015675159036
91	0x3fca8ce8f322ea93	0.207425230711881
92	0x3fe722a98efa35b7	0.7229812424208636
93	0xbfbd69586458f2a0	-0.11488869142426461
94	0xbfc7a9106dc2e2cb	-0.18484692916333353
95	0x3fd47a59f497eaa0	0.31996773611141727
96	0xbfe6536ca3dd100b	-0.6976836395701879
97	0xbfd5e94d73385f71	-0.34236465694402
98	0x3fd1231d95276911	0.2677682835179818
99	0xbfc7dc73cb5c5afb	-0.18641517095303314
100	0xbfc739077ccbffc8	-0.18142789453122377
101	0x3fd2b13dc2c0cd32	0.2920679475675626
102	0xbfc7d1ac96c16d80	-0.18608624802696383
103	0x3fcc922580906e50	0.22321003701732645
104	0xbfe320212a62e715	-0.5976720645769286
105	0x3fe4c01f8f6adac2	0.6484525490876296
106	0x3fbb090770ff7e88	0.1056065226434787
107	0x3fabff71f70448ea	0.05468326702443156
108	0xbfd30b994534b121	-0.29758292921430224
109	0x3fcdd0fc4a8fddea	0.23294023171159434
110	0x3fafe0eaa02a7b2f	0.06226285176420842
111	0x3fdb0e0e95af5937	0.42273296945258515
112	0xbfe3eba50630e23c	-0.6225152131001503
113	0xbfeede1e47cee61b	-0.964614048242939
114	0xbfc781062e4c4001	-0.1836250043929795
115	0x3fd2ca9cc4d252d3	0.293616478165217
116	0x3fb033c241917a56	0.06328977680957712
117	0x3fc3b3161d3b998e	0.1539027827013339
118	0xbfa2dbc601245c1a	-0.036832988395126345
119	0xbfb551cdaefd5570	-0.08327947160917915
120	0x3fb2851c30edc648	0.07234359926749179
121	0x3fdf4b28ce563df4	0.488962365628111
122	0xbfd51951adf4499d	-0.32967035281867557
123	0xbfef866ced1798e5	-0.9851593619066789
124	0x3fadb5f19798c182	0.05802874541803062
125	0xbfd21b8489decd9a	-0.2829295488729372
126	0xbf9602a39db6a332	-0.021494442463935566
127	0x3fe5af3111bfbda1	0.677635702768317
128	0x3fe7d5c7d81cee07	0.7448462696988266
129	0xbfca48d42d4d80ab	-0.20534755909011912
130	0x3fd6743b7cb8f7f8	0.3508442609780782
131	0x3fd3e52106deea3a	0.31085992499325565
132	0xbfd5ac36b81782ba	-0.33863609292715646
133	0xbfc239bc0f58320c	-0.14238692044490653
134	0x3fdc88ebe07036f3	0.4458570186405801
135	0x3fe72a167f970557	0.7238876811972358
136	0xbfc40769253f830a	-0.15647615736727288
137	0x3fc957337f55a18b	0.1979736682653875
138	0xbfb0c821d8de9b12	-0.06555377525965536
139	0x3f9e3081228184bd	0.029481904727053577
140	0xbfbcaf5f7f572655	-0.11205098017594513
141	0x3fdfad7dea5876f7	0.4949641026049529
142	0xbfdb6a22883f6a03	-0.4283529596847588
143	0x3fed93ecf09a4ab3	0.9243073176642923
144	0x3fe7f65aea0aeec9	0.7488226481577495
145	0xbfcf57717cc268d0	-0.24485605804222255
146	0x3fb153e085378b17	0.06768611194960915
147	0x3fd09094850ca634	0.2588244723616271
148	0x3fc653b358724437	0.17442933863324736
149	0x3fe7fc1bcb90fb8b	0.749524972525124
150	0xbfd65a578cbe958d	-0.3492640375573835
151	0x3fd4a7cf5597891b	0.32274230345332605
152	0x3f919d54428449a2	0.017201725540027753
153	0x3fc3bdd18c33d6c4	0.1542303022940158
154	0xbfc6efe866d224d0	-0.17919640560675143
155	0x3ff0cd2265cf18aa	1.0500816323197264
156	0xbfe0a92b67812220	-0.5206505796023215
157	0xbfc232cd7cf24a20	-0.14217537499332966
158	0xbfb16f5e6f212353	-0.06810560429688665
159	0x3fa0821aaf3630c6	0.032242616546768896
160	0x3fb512e43f21b4c0	0.08231951276111982
161	0x3fc3f0f04af9c98e	0.15579036389278794
162	0xbfe23182f0f522e2	-0.5685438829615033
163	0xbfca86225324d618	-0.20721844730148642
164	0x3fe45a2e0cbcc8d7	0.6360082863596074
165	0xbfdbabded3d95840	-0.4323651379430693
166	0xbfe85345f2821a02	-0.7601651894081558
167	0xbfdfa1b8d3346509	-0.4942457258744786
168	0x3fde598324832004	0.4742133957447552
169	0x3fc9e3a1d672ae69	0.2022592827901122
170	0x3fec338c3956973b	0.8812924499404525
171	0xbfccd2aad8ba6ddc	-0.22517905790742432
172	0xbfd00ea9604496af	-0.25089487458385923
173	0x3fdf6a13287761f8	0.4908492942027176
174	0xbfe124bf4f7d6187	-0.5357357552084502
175	0xbfd3725cdbc6769b	-0.3038551470034265
176	0x3fd2756d7b2671b1	0.2884172155989076
177	0x3fd8aeb7855196f6	0.3856638719501996
178	0xbfc93ce754748711	-0.19717113136089684
179	0x3fb1c1062e95100c	0.06935156476271248
180	0x3fc09fbf1024523b	0.1298750714128277
181	0x3fe2763bb97a7d00	0.5769327757479061
182	0x3fe9bfa5614c118e	0.8046442890486547
183	0x3fb5e7c32982315c	0.08556766284363476
184	0x3feaf79a099143e5	0.8427248179306132
185	0x3fc112cee8e5f524	0.13338648197160652
186	0xbfd66bc9784f429f	-0.35032879590020544
187	0x3fdb310a28979b2c	0.4248681446464839
188	0xbfe22d57e936842b	-0.5680350832882416
189	0x3fc8b1248c5b6522	0.19290596822137568
190	0xbfdf89c6a1db7ade	-0.49278417402631003
191	0x3fe10d63c50de574	0.5328844879833654
192	0x3fcb5ae4c8885e36	0.213711355129577
193	0xbfc0d541a08842d8	-0.13150806749810928
194	0xbfe2524231ac1a15	-0.5725413293992597
195	0xbfd6bdb4512827a3	-0.35532863545869925
196	0x3fe16d393ce59d96	0.5445829572098997
197	0xbfcdbad13fc39cb2	-0.23226371396524353
198	0xbfe1632108b49e00	-0.5433507127790449
199	0x3fba5a7ff8e2da58	0.10294341875383262
200	0x3fe792063a666059	0.7365752354262539
201	0xbfa10beb23ea3216	-0.03329405606664097
202	0xbfe031683a1d7ff6	-0.5060311446250114
203	0xbfd4eb43f97faf08	-0.32685946812738154
204	0x3fc2be800c5b10e7	0.14643860438639608
205	0x3fd2649af015a126	0.28739045568228716
206	0x3fd4336fdd255612	0.3156394633891476
207	0xbfcf821d662a94c0	-0.24615828980055277
208	0x3fc71013b0c4aa41	0.18017812854061968
209	0x3fd53368f074fabb	0.3312628124439631
210	0x3f7c760bf4ca8c90	0.006948515609710118
211	0x3f9804f2fad744c0	0.023456379470933042
212	0xbfc66699bf46d3b6	-0.1750061210601907
213	0xbfbcbb3ed5ab7c02	-0.11223213879155483
214	0xbfbd016b69682471	-0.11330291102798797
215	0x3fec6aaaa8bddb2c	0.8880208297476648
216	0xbfdb97d472b5d8a5	-0.4311419601648459
217	0x3fe71262e9a9905a	0.7209944308965632
218	0x3fd451301d83a08f	0.31745531923525844
219	0xbfd034f21ae74439	-0.2532315504768721
220	0xbfeec0b07fa8be97	-0.9610216611235555
221	0xbfd532791dacca9c	-0.33120563409753756
222	0x3fedea7980eb5de6	0.9348723905522405
223	0xbfce7cf97b5ca567	-0.23818892024545876
224	0xbfd4c4b4861ecceb	-0.3245059308785147
225	0xbfc15962af90001d	-0.13554032871616153
226	0xbfbed943c15518be	-0.12050269575147163
227	0x3f4bb853975ed140	0.0008459480438803083
228	0x3fec141d8133efb5	0.8774554751866989
229	0x3f9d4b74e1f40cf0	0.028608156481834734
230	0xbfe1752d4f59d7bb	-0.5455538320372776
231	0x3fbb2b2b02e42fcd	0.10612744160260874
232	0x3fd5d74d0dabf096	0.3412659295570476
233	0x3fab4206e775773e	0.053238120798353425
234	0x3fd7d08ab38b9520	0.3721033814784551
235	0x3fd1092eca87a490	0.26618547228151446
236	0xbfd23eaff397f197	-0.2850761298029964
237	0xbfeeff3d26536b92	-0.9686570881416279
238	0x3fdc5977aa2375e0	0.44296065917100513
239	0x3fd24b09ee3dcbe0	0.2858300043655486
240	0x3fbb51de40082cb9	0.10671795905379867
241	0xbfd5e8e52094c536	-0.34233978444816004
242	0x3fd1904540a3a899	0.27443057358198925
243	0xbfe071b901f61840	-0.5138821638399875
244	0xbfe072499bca469e	-0.5139511149192975
245	0xbfaecd59a960c579	-0.06016044800379467
246	0xbfd7d191a8dffff7	-0.372166075627319
247	0xbfce17f508003c98	-0.23510611429853578
248	0x3fd8a3b7f62d2b69	0.3849925903384049
249	0xbfe60611aea4e7ba	-0.6882408534067885
250	0xbfecee10c1ad6a99	-0.9040607245218154
251	0x3fc90021210bff97	0.19531644929520262
252	0xbfde9c8e16eb951a	-0.47830536115937294
253	0x3fd7156eb3a621ca	0.3606831316360767
254	0x3fcb77838017b202	0.2145847678615525
255	0x3fec9e98772d4e8e	0.8943598106074704

embed.bias f8 [32]
0	0xbfd571d96dfa6020	-0.3350738119129364
1	0x3febc8ebdc8b84c9	0.8682765300292427
2	0xbfcb4c3f1001a514	-0.21326435357631424
3	0xbfe25e4421c692eb	-0.574007097213863
4	0xbfe098672c158727	-0.5186038838403179
5	0x3fb3641559e8fafd	0.07574590153761203
6	0x3fa1658592ebedf2	0.0339776746604591
7	0xbfd0eb399a4f435c	-0.26435699528979284
8	0x3ff50fa7db343a0c	1.3163221895844144
9	0x3fd618c37b9ab692	0.3452614504884447
10	0xbfd615752b9237b9	-0.34505967383381236
11	0xbfcada68733ea6f6	-0.209790283462375
12	0x3fd2e51a2508547e	0.29523328415354644
13	0x3fd4cd7085d41ede	0.32503903454970196
14	0x3fd24bd9f43d15cb	0.28587960101534965
15	0x3fe753fd30ae9757	0.7290025664158105
16	0xbfd1eddd96f8a880	-0.2801431631402309
17	0xbfc56129281ca35a	-0.16702761133754046
18	0x3fdf18048a546dbb	0.4858409262539813
19	0xbfd07cbc7b5c3618	-0.25761329695601054
20	0xbfdb7e01c3047fa2	-0.42956584973034684
21	0x3fb6dcb06dcf777c	0.08930494957846052
22	0xbfbdaf594a782d67	-0.1159568602380908
23	0x3f955f140c0c4e67	0.020870507464748302
24	0xbfd714055fc40bea	-0.36059698440675325
25	0x3fc3b277c9333542	0.15388390850277217
26	0xbfda64630c65a47a	-0.41237713060997516
27	0x3feafd50f13e91ac	0.8434223853878868
28	0x3fd400cc71863e95	0.31254874311796615
29	0x3fe1a5a3e79bfacb	0.551469757425218
30	0x3fe2571b2de0e8b9	0.5731330772462321
31	0x3fc011523f32c38e	0.12552860341886823

pos_enc.pe f8 [1, 12, 32]
0	0x3fe06402c2f82d43	0.5122083480831993
1	0x3fecf2094d2ad4be	0.904545450894737
2	0xbfcce2894c115782	-0.2256633397507209
3	0x3fb2e30ccc7ca66f	0.07377700798374474
4	0x3fb73b6044fb7032	0.09074975666175147
5	0x3fcc0dcac1912d33	0.21917089892881733
6	0xbfda16bdcd52ec3b	-0.4076380257717493
7	0xbfdfc9c4ba2ffc48	-0.4966899698483229
8	0x3fc8bcd106a31535	0.1932622225196298
9	0xbfa7bf98579cb430	-0.04638362950786534
10	0x3fb226a6474c7360	0.0709022449559149
11	0x3fc82dffcfcd13e1	0.188903786149381
12	0xbf924238d317167c	-0.017830741771624123
13	0xbfce59936d753652	-0.237108639188977
14	0x3fd2f34213fba38c	0.29609729720555644
15	0x3fd3e5932c82aadf	0.3108871397659367
16	0x3fbb5361994b0252	0.10674104683403954
17	0xbfabfaaf2f20f171	-0.054646944525731274
18	0xbfd3907fcdaab035	-0.30569453320163414
19	0xbfbe89f78c0e75e8	-0.11929270905826395
20	0xbfe3968f5fe6ee23	-0.6121289132201507
21	0xbfb4ab1d28516338	-0.0807359908516333
22	0xbfa2bc3c06ed6f10	-0.0365923651176826
23	0x3fbc119366061616	0.10964318505110557
24	0xbfa8588542563456	-0.047550358150240044
25	0x3fd2be589d1364e2	0.2928678068106604
26	0x3fc002b26d1b0ec2	0.12508230521608793
27	0xbfcf83afcff74464	-0.2462062612017092
28	0x3fd5c250050c743c	0.33998489850074853
29	0xbfcfbb303eb280dc	-0.24790003835096897
30	0x3fdee9e9749ccf3b	0.48302685153906894
31	0xbfe320cd2554a25b	-0.597754071151097
32	0xbfbc71fc3a210ce7	-0.1111142770687824
33	0x3fdaf392294be39b	0.42111639054160727
34	0xbfc4e85df427159d	-0.16334127828137648
35	0x3f80d5ec71854b38	0.008220526899696531
36	0xbfcfabd0034bb05e	-0.2474308029262628
37	0xbfdc7219f3f754fd	-0.4444641954881517
38	0xbfc6f2401ff65f84	-0.17926789818443123
39	0xbfcb572b8537a8e5	-0.21359771733052138
40	0xbfe27a0440e541c7	-0.5773946063509862
41	0xbfe52de6a1305207	-0.6618531368463331
42	0x3fc76ca14caba360	0.18300262683558355
43	0x3fe7099e6edf61ea	0.7199241795997839
44	0x3fd8da26aec338d4	0.3883148867288473
45	0x3fd5797cf3976d0a	0.33554004467232856
46	0xbfea58f0ee4fc6f1	-0.8233570723079692
47	0x3fb5214d4fe95eb2	0.08253939820257974
48	0x3fb3740ae6548e91	0.07598941920564985
49	0xbfe09a07c1e98efe	-0.5188025271749834
50	0xbfe1f7ca7b5c1ff6	-0.5614979180691069
51	0x3fcae5158f913120	0.21011609563937217
52	0x3f4a60c25669da80	0.0008049916185218359
53	0x3f848e9f6667108e	0.010037656128482089
54	0xbfdd5c1731254500	-0.45874576377271126
55	0x3fde0ec1b9e427e0	0.46965068009796873
56	0x3fd1ae6381d84af8	0.276268841554312
57	0xbfeef72bf4de624e	-0.9676723272887757
58	0xbfcadd8281110821	-0.20988494207455324
59	0x3fab1b18dae40154	0.05294110939030597
60	0xbfd8b4eb8e5eae23	-0.3860424890833391
61	0x3fdf64c9556b0bb1	0.49052651731124813
62	0x3fd3f388dc6ce4b2	0.3117391731826259
63	0x3fe7555465742c8c	0.7291662198562263
64	0x3f9c1f1c66a97cc3	0.027462428823466178
65	0x3feddf26434ee401	0.9334899248707417
66	0xbfe882426e1b3f62	-0.7659008169666601
67	0xbfbae9b7c90c597c	-0.10512875231174762
68	0x3fb930ec1e15e21a	0.09840274557598896
69	0x3fbff80ee42e0c82	0.1248788172797948
70	0xbfb51ac028af11cc	-0.08243943207987242
71	0xbfa427207d98494d	-0.03936101468220219
72	0x3fa1657b188e167e	0.03397736239189174
73	0x3fc5defd8e8151d4	0.1708676286531402
74	0xbf95eb493df18467	-0.021405357747770994
75	0x3fc7d23a305f88d8	0.18610312807056206
76	0xbfdf56535eef4078	-0.48964390059428053
77	0x3fa761c999a83626	0.04566793442436916
78	0x3fd6ed365f42939e	0.35822829535237044
79	0x3fd2efb631ef6428	0.2958808410308529
80	0x3f930005c3dcab88	0.018554773406474406
81	0xbfbd6ae999d1874a	-0.11491260533651118
82	0xbfd36b347e324232	-0.3034182770143473
83	0xbfd805e0a17f50d6	-0.3753587319490753
84	0x3fdbda85c907d348	0.43521256095782634
85	0xbfcb8b772f8976e2	-0.2151936514009583
86	0xbfe85b174bb320ae	-0.7611195066938501
87	0xbfd0d3294e0ac98e	-0.26288826581289804
88	0xbf7e9c77adad0928	-0.007473437780222171
89	0xbfce1b855ffbbaea	-0.235214874140602
90	0xbfb51f69331e079f	-0.08251054285031366
91	0x3fc3bbceead6ab4c	0.15416895357824456
92	0x3fcd10156f90ebda	0.22705333659709376
93	0xbfd65ab3e81957b3	-0.34928605714719224
94	0xbfbd25bc5d0294c3	-0.11385705252412763
95	0xbfd4bc75cfd59014	-0.3240026979094648
96	0xbfc43cc51b8d0bf6	-0.15810455174695875
97	0x3f5a941c914a4980	0.0016222266178017308
98	0xbfe1e433bd2eeefb	-0.5591067023264878
99	0xbfe93d55d94b41b1	-0.7887372249625085
100	0xbfe41b70ff2b1f92	-0.6283497794874953
101	0x3fe3cd32403fe9f1	0.618798375594734
102	0x3fa3e9e27516fb30	0.03889377288168416
103	0xbfcab8ad9c7159ba	-0.20876093043143645
104	0x3f85dbcf4d26b460	0.010673160116164648
105	0x3fd532064692fff1	0.3311782540513369
106	0xbf9a2c10628f7994	-0.02555871583523979
107	0x3fd7332344a5c2d1	0.36249620155198864
108	0xbfe6d82144733606	-0.7138830506243614
109	0x3fcbcf366f455f5a	0.21726112778810142
110	0xbfcdd3ef30d4874e	-0.23303022274290658
111	0x3fa2d71b5b19f958	0.03679738509252911
112	0xbfa134a8c16c3f9f	-0.03360488282316897
113	0xbfe3eb9c1b5d22f4	-0.6225109610032562
114	0x3fab5e4493fd01d5	0.053453581871966506
115	0x3fdcf923f5ba5170	0.4527063274083707
116	0x3f9095561fb0ac5d	0.01619467323704914
117	0x3fd1db94a2741140	0.2790271364649648
118	0xbfc0be77f69fc07e	-0.13081264059247028
119	0xbfdb3784b4ecaf5a	-0.42526357334530973
120	0x3ff24f728181dd12	1.1443963106992823
121	0x3fe71ad8aa6437d5	0.7220271423300298
122	0x3fc4bb92b9e02042	0.1619742782206704
123	0xbfa588db44ed2d0c	-0.04205975738894993
124	0xbfbd4ff2579561e7	-0.11450113905210167
125	0x3fc3cbaa2f4d4480	0.15465285596522804
126	0xbfd6b0b0286223b7	-0.3545341867798543
127	0xbfb5cc8514fcdfe2	-0.08515197527310606
128	0xbfd352e2c4a61238	-0.30193394855476496
129	0x3fe26bfa65a210d4	0.5756809220333943
130	0xbfe449500f1dd7f7	-0.6339493079419743
131	0xbf93d5d3da88c684	-0.019370374882959243
132	0x3fab025fddba974b	0.05275249082232721
133	0x3fc42ca455f94274	0.1576123637955963
134	0xbfd3e6c34438837e	-0.3109596410959553
135	0x3f8867fcae219c60	0.011917089523377722
136	0x3fea23fdfd42967e	0.8168935724722386
137	0xbfe28fccd0541e9c	-0.5800537175100149
138	0xbfbf2c357ff4c37a	-0.12176832555702602
139	0x3fda996c10ad2276	0.4156141436438142
140	0xbfe0ccc44d4d0c75	-0.5249959478172871
141	0xbfe97c9c4ce8e4e9	-0.7964612486022392
142	0xbf7d661d05cc3fd0	-0.007177461023061896
143	0xbfe3de5c56343929	-0.6208936389610119
144	0xbfdc5470e398d18a	-0.4426538679720343
145	0x3fe32fc68fd48499	0.5995819863493522
146	0x3fd39a121fdbdc51	0.3062787352677719
147	0x3fdcea9a5df8ddd1	0.451819030542052
148	0x3fcf5e448cdb3280	0.24506432416673718
149	0x3fe9c5729fd2470d	0.8053525086890844
150	0x3fd2d0ff3ca4309a	0.29400616571434457
151	0x3fc5dbad134f61a6	0.17076648180842574
152	0xbfe288728ec39827	-0.5791561878547825
153	0xbfbfe50da47eb73f	-0.12458882585516749
154	0x3fcb225d722b0aee	0.21198623728385918
155	0xbf4fd82e60afe9c0	-0.0009718157247101053
156	0x3fd77035337d567f	0.3662236216381202
157	0xbfc93e4d6e308da3	-0.1972138202701049
158	0xbfd028afe26d54f0	-0.25248334037799136
159	0x3fee2fce1980482a	0.9433355806415922
160	0xbfcc57ea579deab0	-0.22143296507041077
161	0x3fe63f14107a500b	0.6951999971229282
162	0x3fe77537538fc55b	0.7330586082518197
163	0x3feeca5026e37251	0.9621964225330634
164	0x3fd3592309e0d839	0.3023154827564017
165	0x3fd3241ffbbdfa76	0.29907989105405564
166	0x3fe8181d511dfa4a	0.7529436668699614
167	0x3fa789032fe29e6d	0.04596719703232286
168	0x3fe2a8c8f9a96aa5	0.5831036449629506
169	0xbfd84f5adc9f711a	-0.37984344048688146
170	0x3fc79b6dd508adf8	0.18443081762357827
171	0xbfd6e4246ab9c35a	-0.35767469808984276
172	0xbfe7eafec604f10b	-0.7474359386028778
173	0x3fd23ca2f2849ca1	0.28495095904731654
174	0xbfbba0fb0b919a58	-0.10792511970940077
175	0x3fc0189905aec5e2	0.1257506635425179
176	0xbfc706dff8567a7a	-0.1798973047816224
177	0xbfcc7fe370c921d0	-0.22265284545052433
178	0x3fe5cbe5148d6531	0.6811395074284176
179	0x3fd428c5b10985e0	0.314988539588823
180	0xbfda32466bfe625a	-0.40931854768999687
181	0x3fd4618bcf00d4ea	0.31845374312554375
182	0x3fd5a46b1891e5a9	0.33816029929547625
183	0x3fe41b3d35d6f440	0.6283250857883402
184	0xbfe99e882c93d439	-0.8006020422604997
185	0x3fd2734eb8ec244a	0.28828781184035235
186	0xbf951879adbdf38d	-0.020601178387994735
187	0xbfd86daba417d96a	-0.38169375443194176
188	0x3fb8e95c680e6d76	0.09731080570639059
189	0xbfca2be2699c2218	-0.20446424633725324
190	0xbfe8e8f920f8e980	-0.7784391063681113
191	0x3fd85c518b7785b9	0.3806346761685649
192	0xbfb922ecd2e61570	-0.0981891646279871
193	0x3fd7e78963b1cada	0.37350687728682674
194	0x3fd0c8bfe1db00ac	0.2622527795429146
195	0x3feb4304e9754c92	0.8519310531359159
196	0x3fc1621d4af6ed9e	0.135806714633742
197	0xbfdc410fcb8abe51	-0.4414710509981648
198	0x3fe17df4d42efb82	0.5466255325517155
199	0x3fd3abc19128993c	0.30735816169398666
200	0x3fdd073ecb77b8cb	0.4535672175396825
201	0x3fd20e229c760fe2	0.2821127441350183
202	0xbf9486fb1ae18374	-0.02004616118972842
203	0x3fbd234c32278958	0.11381984924768085
204	0x3fabde8c95d37633	0.054432290353116385
205	0xbfcd5b261bcecba8	-0.22934414251139157
206	0xbfd4e1a67e030f44	-0.32627260499815613
207	0xbfe4dc0ec89ebed9	-0.6518625181542702
208	0x3fbea4c849b308c2	0.11970187949467273
209	0x3fc7bd7ba14ee8ce	0.18547006012324235
210	0x3fcc566304643ece	0.22138631548340587
211	0x3fd05b0f558d1c92	0.2555578551732164
212	0xbfd9390b67554b81	-0.3941067227471465
213	0x3fba3099580d58ec	0.10230406188688662
214	0xbfe4903f5faa46df	-0.642608343931183
215	0xbfc426f80939f396	-0.15743923616892336
216	0xbf88077784d5b550	-0.011732991925522157
217	0x3fe092fed232e72e	0.5179437737890333
218	0xbfd0891f8ca51f37	-0.2583693383680727
219	0x3fe41a835db05776	0.6282364683017778
220	0x3fb25422bec0d499	0.07159630925237294
221	0xbfe370b630ddd0e5	-0.6075087503836839
222	0x3fe023fc9ffbef91	0.5043929218950202
223	0xbfcd11e322b0139e	-0.22710837548961832
224	0x3fca309b5a8bfd62	0.20460836335403615
225	0xbfe02e53c3bafc6c	-0.5056551764354373
226	0xbfdd977480c43ca3	-0.4623690850721209
227	0x3fda6ce81365535b	0.4128971280491009
228	0x3fb75b5964e15956	0.09123762810609057
229	0x3fdca68774302540	0.4476641306542497
230	0x3fe9d21a6aafe968	0.8068973621114255
231	0xbfc5aaaf9b5c261f	-0.1692714222520388
232	0xbfc685e13f6fbbd8	-0.17596068952067756
233	0x3fe16e9dad66138e	0.5447529207891522
234	0x3fee80010a84305a	0.9531254964254103
235	0x3fc1fdcd4d8ba3ba	0.1405579212799049
236	0xbfe9acba9b3bff7f	-0.802335074607967
237	0x3fc2601dff4522d9	0.1435582634387831
238	0x3fc4f1724a717ef4	0.1636183608525169
239	0xbfe5a182dc837a30	-0.6759657198816225
240	0x3fe8fb5ec70da26c	0.7806848418959595
241	0x3fd10331398f556a	0.2658198415859575
242	0xbfc85c876e0c9e99	-0.19032376168728574
243	0x3fb1734c1c1bbc0f	0.06816554723967293
244	0xbfe6d81f3128c743	-0.7138820610182183
245	0xbfe3036c3de9bc66	-0.5941678246725928
246	0x3fe10bbcc0cbe04c	0.5326827779345051
247	0x3feb1ac04dde0363	0.8470155258984103
248	0xbfbd6e0f9c800da0	-0.11496064730459077
249	0x3fe3cc77b602735d	0.6187094263910741
250	0x3f9ff2cc5e928e38	0.031199639580007793
251	0xbfdf599a4926f1f8	-0.48984391349566136
252	0x3fcd07c51e257d3a	0.22679962131494752
253	0x3fe2229f7ada1271	0.5667264365625454
254	0x3fc4d05f6a13d7dd	0.16260903052869838
255	0x3fea119622ce0375	0.8146467857151111

transformer_encoder.layers.0.self_attn.qlinear.weight f8 [32, 32]
0	0x3fb409caaa7aa174	0.0782744089325485
1	0xbfcdf7d4a8030289	-0.23412569240283101
2	0xbfb43acc5a4fa892	-0.07902219014036607
3	0xbfd5fa56b4a48eb5	-0.3434044612970227
4	0x3fc512e7ffdef3ef	0.1646394729013134
5	0xbfc58705af40caca	-0.16818305070190426
6	0x3fd013470bfa2e24	0.25117660684256493
7	0xbfe439023355425f	-0.6319590571020618
8	0x3fd7df87f6e1a566	0.37301825627817775
9	0xbfc348561fe6935c	-0.1506450324788159
10	0x3fe167d9335fc4df	0.5439268115425441
11	0xbfbb1597096f661e	-0.10579818706846608
12	0x3fb053dc44566a19	0.06377960842511533
13	0xbfca8961f9c64c7e	-0.20731758781457538
14	0x3fcd612110659f5a	0.22952664662011096
15	0x3fa023c88eb2338c	0.03152300588508358
16	0xbfd37e937be04c18	-0.3046005925872932
17	0xbfbffd2d3f56c9d8	-0.12495692058909158
18	0x3fb42b4065c35205	0.07878496632049099
19	0xbfd678f19af29f65	-0.35113182193389597
20	0x3fe7d994a8ee12c6	0.7453101443685106
21	0xbfb3360477d3445c	-0.07504299092694694
22	0x3fe298cd2a37ce5f	0.581152517754571
23	0xbfe29b58e9ab3b0a	-0.5814632953496084
24	0xbfbcaca74329febb	-0.11200948133227488
25	0xbfde3c8f45832036	-0.47244626797010214
26	0x3fd8aa67ade91ffe	0.38540069564305657
27	0x3fd23bc2dd4a05c6	0.28489753351467717
28	0xbfe0f1f306904028	-0.5295348289673756
29	0x3f972d0df289b385	0.022632806709612225
30	0xbfc2602deb81527c	-0.14356016158366802
31	0xbfd370883778c1f8	-0.30374341408881333
32	0x3fe6cc6a5b384f1b	0.71245305839918
33	0xbfdcca5dce12b718	-0.44985146641089235
34	0xbfd59fccb2c1d550	-0.33787839371446626
35	0xbfc1e15a99b36952	-0.13968975548670898
36	0x3fe402b87bbdeb2b	0.6253321091493026
37	0x3fb1b9e39a46e196	0.06924269215131171
38	0xbfb7259655a3aa0e	-0.09041728583148531
39	0x3fa38f797e7e92dc	0.03820399922486725
40	0x3fdc7fe6540357ab	0.4453063793601994
41	0x3fe647d07144715c	0.6962663852932951
42	0xbfb377739d713391	-0.07604143708995383
43	0x3fd9862ac1d70794	0.3988139050453523
44	0xbfb0b6b42860ae10	-0.0652878378465902
45	0x3fe18ce9e5c047ac	0.5484513747526214
46	0xbfe365f45e248a58	-0.606195625183612
47	0x3fd5bfbe37257625	0.33982806573280505
48	0xbfe12472f15e5a8e	-0.5356993402700299
49	0x3fc42a692bd4380e	0.15754427566611223
50	0xbfd3ed6d0ad17702	-0.3113663297316266
51	0xbfb4dd0e3ec279e4	-0.08149804146021428
52	0xbfe2f25c31bf0a88	-0.5920849773031742
53	0xbfd4909e297c334c	-0.32132677127156195
54	0x3fd00a81ad04e568	0.2506412686958215
55	0xbfc0bf520b194415	-0.1308386377518508
56	0x3fe020a6a8d2f199	0.5039857194274645
57	0xbfd075b7b18e8700	-0.25718490924383275
58	0x3fe356782bf40b9d	0.6043053492033895
59	0x3ff2b0ce333165a5	1.1681653976178066
60	0xbfb333c0d4c730dc	-0.07500844187524386
61	0x3fe2df8b287fb6b2	0.5897880354875353
62	0xbfddb1cffeeffd30	-0.4639778127311329
63	0x3fa53ee297112d92	0.04149540037232237
64	0x3fc0cdc582464a26	0.13127964840948997
65	0xbfcc1bee012aca83	-0.21960234696378586
66	0x3fd6913e9a32be2f	0.3526150232164324
67	0xbfd03df9e3c499a1	-0.25378272288289777
68	0xbfc7c2804e7fd805	-0.18562320549943948
69	0xbfb65b6a0b57a880	-0.08733237053789544
70	0xbfe1593a79b168f2	-0.5421421410385661
71	0x3fe2619635d00ad0	0.5744124461201299
72	0xbfc327b31dc6db8e	-0.14964903787560185
73	0xbfa6e1c23140e336	-0.04469115115393267
74	0x3fe82ae0af99b31f	0.7552340917296511
75	0xbfba7f9d3e545da0	-0.10350973865239732
76	0xbfe6c2d5bf5440ff	-0.7112835633179485
77	0xbfd177d3b3d4fc45	-0.27293865739551776
78	0xbfd8d2d654452ef7	-0.38786848287121195
79	0x3fe0d4b7354d33f2	0.5259662667318692
80	0xbfec2e64362733c5	-0.8806630189588921
81	0xbfc22fe964c98ccc	-0.14208714886908635
82	0xbfd628574dee7c79	-0.3462122212458279
83	0x3fd94ed1e5d173d7	0.39543578570538557
84	0xbfc77638b410c01c	-0.1832953337884654
85	0x3fef68c0e5e4e4a4	0.9815372934455309
86	0x3fe3bd784387f5ac	0.6168786353079461
87	0xbfd19f6dee511ae3	-0.2753557994187032
88	0x3fdb0f09784906ec	0.4227927851353417
89	0x3febaf5ec7b9761f	0.8651574993961652
90	0xbfd03b63599efc30	-0.25362476112417465
91	0xbfec2f38fa0a259f	-0.8807644733034755
92	0xbf6c7581ed797560	-0.003474000706588029
93	0xbfcf83a49c880d99	-0.24620492594850132
94	0x3fd486ba50b061e7	0.3207231319406944
95	0xbfbee783a1828bf7	-0.12072012608636827
96	0xbfd7f7378849963c	-0.37446392354317815
97	0x3fdc1402e5ce2260	0.4387213939849399
98	0xbfe0d5f65f6e2775	-0.5261184562561839
99	0xbfacd993e4bd748c	-0.056347486183519896
100	0xbfe49db82796727a	-0.6442528508374175
101	0x3fe11b6f68c6d95a	0.5345990225239732
102	0xbfd493e6cc2a7a32	-0.3215271943862802
103	0xbfe18e6bc9778b80	-0.5486353812124065
104	0x3fda3a59648caeb7	0.4098113519600974
105	0x3fd4947bfd508ce4	0.32156276452788135
106	0xbfdd328b6c434a1b	-0.45620999882263086
107	0x3fa45f07790f4b86	0.03978751518993477
108	0x3ff5b9c100c4267d	1.3578500776224296
109	0xbfd1127c333ccbd4	-0.2667532444349352
110	0x3fe20b54e56f7033	0.5638832551153484
111	0x3fbacbace6365576	0.10467033977905324
112	0x3fabbe05b33d93dc	0.054184129838894285
113	0x3fd89162afd0a225	0.3838736264174563
114	0xbfd099263436a171	-0.2593474874397748
115	0x3fdbe132bc540978	0.4356200064795739
116	0xbf9180b3246cb91c	-0.01709251317805026
117	0x3fd0f9d4d80facc0	0.26524849986772026
118	0x3fc4c5bcff2dbb00	0.16228449306387205
119	0x3fca5123adede9d6	0.20560117714542397
120	0x3fde5827d1fec41b	0.4741305876478365
121	0x3fc08d032522da6a	0.12930335343635885
122	0xbfb97c877e703210	-0.09955641590949704
123	0x3fb7a9bb4d8a30b6	0.09243364947377838
124	0x3fe03f349d686d86	0.5077155184148274
125	0x3fe8101a94df9d11	0.751965800064598
126	0xbfb62765a057efc2	-0.08653865017544063
127	0x3fc2a54087658b56	0.145668092834138
128	0x3fc1b3b6090bc108	0.13829684678740528
129	0x3fac59ebdc8a568c	0.05537354533332203
130	0xbfa9021a93ca9118	-0.04884417585461359
131	0x3fd7fe35fdfddf2d	0.3748908024203839
132	0x3fdca31e6bd26a28	0.44745598344312265
133	0xbfe8964c9d79c991	-0.7683470798204316
134	0x3f895339f5d80ec0	0.012365773024618831
135	0xbfe024d4e36c455a	-0.5044960443357625
136	0x3fdb609e44675410	0.42777210884133954
137	0xbfb4b6115e374915	-0.08090313482469853
138	0xbfd194072fea4f84	-0.27465991667963174
139	0xbfd0694a98e9f608	-0.25642647679328023
140	0x3fe3f2fa1a1584c0	0.6234102734998928
141	0xbf7adde9ae9ebcf0	-0.006559288807621785
142	0xbfd1332a098b7983	-0.2687478154383813
143	0xbfaf026e695f460a	-0.06056542431145935
144	0x3fd915b7c26467e2	0.3919505499230792
145	0xbfca73e36242f49d	-0.20666162774970057
146	0xbfc7664f232a6179	-0.1828097268778597
147	0x3ff0af50a5f6b00f	1.0428015215829907
148	0x3fdad9b3c28514f0	0.4195374869926374
149	0x3fc63881dada8e8e	0.17359946428506529
150	0xbfd7ddc8f24ac530	-0.372911678899146
151	0xbfc0f6c34b4be26f	-0.13253060509284206
152	0xbfd20e3c8330fb3a	-0.2821189194836965
153	0x3fec0d6afc5e87bd	0.8766379288756451
154	0x3fc9be70f8646bde	0.20112430695084432
155	0xbfdf7e3c9b72cbce	-0.492079879574871
156	0xbfe0ff733c21c334	-0.5311828779650569
157	0xbfd92b3de359b2e2	-0.3932642669886218
158	0x3fba39cce235effc	0.10244446299287796
159	0xbfc42a9cf10138e6	-0.15755044715701344
160	0xbfe8d449c79af16f	-0.775914087156293
161	0x3fc06d585bc38918	0.12833694916395966
162	0x3fcf43b0b6e54786	0.244253243736747
163	0xbfd1e5a0ccf52c04	-0.2796403886356418
164	0x3fcf953d7868d038	0.24674194697729646
165	0x3fe86cebf025a050	0.7632960977907803
166	0x3f7db587fed362b0	0.007253199798662166
167	0xbfa0bf9a3aca1e67	-0.03271181075711809
168	0x3fd2794be95358f9	0.2886533526010591
169	0xbfbbb512a4abddf0	-0.10823170204445609
170	0xbfcccae931aa7150	-0.22494234967315174
171	0x3fd4c0bdd7760b4d	0.32426401177524583
172	0x3fa4d21b3d99c9c8	0.04066548468553638
173	0xbfbda8961a5e23ce	-0.11585367339843275
174	0x3fb655a85ba4a7ba	0.08724453198797635
175	0x3fc12b30e8210b42	0.13413058599879873
176	0xbfc3bb3c795fca9f	-0.15415149618600751
177	0xbfea8c36b216a596	-0.8296159246721568
178	0xbfe6d35a8be331cb	-0.7133000118424716
179	0xbfd99954f93ecc19	-0.3999836381946707
180	0x3fdd4380b90539f1	0.4572450453605646
181	0xbfb985a64f275b66	-0.09969558174576107
182	0xbfdfd4fd1e890618	-0.4973748014636796
183	0x3fcc93ed139753d9	0.22326434570882617
184	0xbfcba946c042e1ee	-0.21610340488201935
185	0x3fdbd7594da95557	0.43501885017515945
186	0x3fc9bbd178bf981e	0.20104425807875342
187	0x3fd6c76abfe90010	0.35592144719339647
188	0x3fb23d980115497a	0.07125234629100943
189	0xbfa9b3b091d00794	-0.05019904880465656
190	0x3fd95c8097d25b44	0.3962708933481063
191	0x3fd1f3854c43d965	0.2804883236671201
192	0xbfc7d68d210f4b8f	-0.18623508562322086
193	0xbfc810c7c8d72c1c	-0.1880120974222742
194	0xbfd80d563c8cfbaa	-0.3758140174213006
195	0x3fcdcaae589b01f8	0.23274783445778247
196	0xbfd079d059dd6091	-0.2574349286637779
197	0xbfbf70d9e983c114	-0.12281572295228599
198	0x3fdd43f057247627	0.45727165708544465
199	0x3fdaa8b521e070be	0.41654709156297176
200	0xbfa19c70a49a42df	-0.03439666756924508
201	0x3faf7de3d7527dd7	0.06150733951039527
202	0xbfd680c82eeba320	-0.3516102274139019
203	0x3fba96051f09cdc6	0.10385162360926534
204	0x3fd04d66af8dd55e	0.25472418922375606
205	0x3fd411250b4093bc	0.31354642962315515
206	0xbfc248c051e7b334	-0.1428451919486179
207	0xbfb8d280878bfa08	-0.0969620066571012
208	0xbfb06e78b02c7fd6	-0.06418566037291326
209	0xbfd7696c6f74227a	-0.36580954441209423
210	0x3f9138312eb1b062	0.0168159184217277
211	0xbfe290474e2b2237	-0.5801121260383927
212	0x3fd22b44d09571d0	0.28389091844090064
213	0x3fe150ff6a39a4a9	0.5411374163351371
214	0x3fd4edc116142276	0.32701136737936254
215	0x3fd32f54685236eb	0.299763776661037
216	0xbfe4d64c03adb6f0	-0.651159293350899
217	0xbfdb323feda582dd	-0.42494199950855976
218	0xbfb2b16df79149e7	-0.07301986021165129
219	0xbfe33716c072f4ad	-0.6004747160692624
220	0x3fb56cc9b977bcf2	0.08369122293492007
221	0xbfa54d7dca3f5d3c	-0.04160683721391442
222	0xbfbea42c21166e0a	-0.11969257171443118
223	0xbff24afbf198ae3f	-1.1433066785201758
224	0xbfd3358561394945	-0.30014166349896626
225	0x3fd09ebd9a905546	0.25968875974770744
226	0x3fd852a48823b397	0.3800441102492242
227	0x3fe1eab3278b11c5	0.5598998806313423
228	0xbfc6f2d656c674ef	-0.17928580510207534
229	0xbfe39b8fb47d8b2a	-0.6127394223406999
230	0x3fdd214bed02a80f	0.455157262282797
231	0xbfe77d56722b43d1	-0.7340500097144461
232	0xbfdd30a324338dd5	-0.4560935834435587
233	0xbf903a3b5c70d67c	-0.015847136990677843
234	0xbfce029c662ecc49	-0.23445467938799627
235	0x3fa83fcdc8a46880	0.04736178468938679
236	0xbfd58e9eca8a3216	-0.33682985095291096
237	0xbfdb60a36653d2c8	-0.4277733325282438
238	0xbfbddd5c31999e60	-0.11665893755854873
239	0x3fcfdb8a350a8e6d	0.24888732519058313
240	0x3fced0dcb7f79502	0.2407489679600659
241	0x3fc269662e52e8ef	0.14384152662189062
242	0xbfe2d10dba21c427	-0.588019240893236
243	0xbfd7ace05532973d	-0.36992653198318576
244	0x3fd5956130d86675	0.33724241037416586
245	0xbfa790ecb5d94d42	-0.04602756233057416
246	0x3fc6615a71563c53	0.17484598669077175
247	0xbfd197b892e55ec2	-0.2748853144198443
248	0x3fc63ad6dbac5dd6	0.1736706326125687
249	0xbfcba915509d3f42	-0.21609751163713936
250	0xbfe127825ff94266	-0.5360729097829562
251	0xbf9148e287ce62dc	-0.016879596270515815
252	0xbfd00a4156bf1976	-0.2506259295590988
253	0xbfce4458302b9a24	-0.23646070816103404
254	0xbfe153ca22e55bde	-0.5414782220421974
255	0xbfd4f5227684944e	-0.327461829891324

transformer_encoder.layers.0.self_attn.qlinear.bias f8 [32]
0	0x3fe2f9229a2a162a	0.592912007429452
1	0xbf6cd4802c2742b0	-0.0035192969673761496
2	0xbfc482a9ab3a17c0	-0.16023751125993435
3	0x3fbdf76dca54c42a	0.1170567149136025
4	0xbfdd368581567f0e	-0.45645272856380437
5	0xbfe8c2702e572f93	-0.7737351327027561
6	0xbfe450ae95b3293a	-0.6348488735032227
7	0x3fd51891b1a43f00	0.32962457988558924
8	0x3f905fe80bfe3482	0.015990854007715168
9	0xbfda0aeb7f64b259	-0.4069164985728882
10	0x3fe44996b30c8d1a	0.633982991891034
11	0x3fb9aeee4e1926a8	0.10032548338599645
12	0x3fe840df214daaa9	0.7579188967186684
13	0x3fe98861ad1f9a56	0.7978981381718977
14	0xbfa61e18627833f9	-0.04319835855503835
15	0x3fdb97878da07505	0.4311236270021513
16	0x3fe03c71c9408c13	0.5073784762101944
17	0xbfe46b0cf10d412b	-0.638067694477319
18	0xbfcf78503ab1ff45	-0.24585917345029365
19	0x3f7b86d7ec4a05b0	0.006720393609272277
20	0xbfe623bc5f53d47e	-0.6918622838844752
21	0xbfbf86aeb507bf12	-0.1231488410919577
22	0x3fd04a3da9456a6f	0.25453130274187336
23	0x3fd8e34b480e4fdd	0.3888729289694746
24	0x3fe7e49d104f5725	0.7466569250634377
25	0x3fd965836da1bd47	0.3968208857176773
26	0x3fdbb2a66af238cd	0.4327789348980218
27	0x3fec4e2d88c035b5	0.8845431967653697
28	0xbfe741178138f13e	-0.7266957782626731
29	0xbfd43ed2cd37544a	-0.3163344387115258
30	0xbfe939ae69bc2e8e	-0.7882911744249712
31	0x3fd6dd4bd040d365	0.3572568448756129

transformer_encoder.layers.0.self_attn.klinear.weight f8 [32, 32]
0	0xbfca3c0e0686169c	-0.20495772665542666
1	0x3fbfb30c533b2498	0.12382580787665842
2	0x3fd9c35684f715dd	0.40254748330002404
3	0x3fc4ce7378aaaafc	0.16255038635184593
4	0x3fd7e6cc3b8919f4	0.37346177877444053
5	0x3fd6435622014350	0.3478598911361148
6	0xbf8c028e62162b30	-0.013676750534406062
7	0xbfb25ebbf3ac9fd0	-0.07175802897529526
8	0xbfc033ef4aa4720b	-0.12658492226263748
9	0xbfb18bac280990e4	-0.06853748300051482
10	0xbfd3cf351e7c0d1c	-0.3095219419194153
11	0xbfe28c6b25966140	-0.5796409353379559
12	0x3faedae78b3fd0d4	0.06026385855503383
13	0x3fd66bb3da4826a9	0.3503236419352143
14	0x3fd3456f36f819e0	0.30111294143753575
15	0x3f985f645b9361b4	0.02380139168676161
16	0xbfa5e4c05bde0818	-0.04276085969378601
17	0xbf91385752cea7aa	-0.016816486767914952
18	0x3fd18bd28a2a165e	0.2741590832959896
19	0xbfd6dddd64210fa1	-0.3572915532897643
20	0xbfe2434b6284249b	-0.5707146572250567
21	0x3fdcbfb5107d58f7	0.4492008839637402
22	0x3fba08fe906913d4	0.10169974351545302
23	0xbfd1b89ab1600127	-0.2768923504045397
24	0x3fe43d1dc74482bf	0.6324604885049537
25	0xbfc49e02e90f8552	-0.16107212428964118
26	0xbfd4d052b19c3334	-0.32521502823583437
27	0xbfec13127eb307a2	-0.8773281550022498
28	0xbfd199bcb50c5556	-0.27500837021337554
29	0x3f93b9a6e27f443c	0.01926289327076723
30	0x3fb8db28386c21da	0.09709407212734025
31	0x3fd62235c921f8e9	0.3458380188166204
32	0x3fe06ecbcf989893	0.5135249189959431
33	0x3fe752e844f60523	0.7288705202956048
34	0x3fca243e4d91d518	0.20423105990963886
35	0xbfdf13f03edf5c10	-0.48559194698231156
36	0x3fc126c57499fe02	0.13399570649561104
37	0xbfec7bd882ca64a5	-0.8901178888801452
38	0xbfca5fd79530fb26	-0.20604986939175624
39	0xbfca6c39ea6e60ee	-0.20642780253252319
40	0x3fc36a673ceb40e4	0.15168467020567455
41	0xbfb22e258020718c	-0.07101663950056131
42	0xbfe41b551d368218	-0.6283364840092558
43	0x3fc12da7c3912dcd	0.1342057900350099
44	0xbfb6080517a8e10c	-0.08605987384442332
45	0x3fe7a14b01001d16	0.7384390849628371
46	0xbfc75c1c8f1fc046	-0.18249852169492636
47	0xbfcd5fc4cffc5550	-0.22948513179350494
48	0x3fb411f8ce726475	0.07839922943311868
49	0xbfd951812c6aace3	-0.39559964501923
50	0xbfe00c1e068965a2	-0.5014791610403118
51	0x3fd28dabbc193562	0.2898969017886285
52	0x3f720af52079b4c0	0.004404981161866661
53	0xbfc989c04a8aab6c	-0.19951633109789257
54	0xbfd1a68e58a87989	-0.27579077394502655
55	0x3fdf2c3b63f616da	0.4870747066673694
56	0x3febbf01a690907e	0.8670662167755976
57	0xbfd360d3d78ec5d1	-0.3027848820739481
58	0xbfb517ecd23cc358	-0.08239631779430334
59	0xbfe1b3db16563f41	-0.5532050548808699
60	0xbfe24350ab4a617a	-0.5707171769636681
61	0x3fdc90c22c4b99ef	0.4463353569575749
62	0x3fdce33daa4574d9	0.4513696825795939
63	0x3fde0f17137070dc	0.4696710290752557
64	0x3fdcbfb5db5f7684	0.4492010729135034
65	0x3fc624354363e32d	0.17297998228584657
66	0x3fc41e3a13b143c2	0.15717245065255098
67	0x3fbcbe91c41af67a	0.11228285825469611
68	0x3fec42c31048af1e	0.8831496542020181
69	0x3fd63c6432d243b1	0.3474359985639764
70	0x3fd30a6a4a11577e	0.29751069291284427
71	0xbfd6e4ade8ce4a34	-0.3577074788565
72	0x3fe21a11bb211a93	0.5656822829121942
73	0xbfcb1b1027b9cf29	-0.21176340045678302
74	0xbfdfbdbd2db53efa	-0.49595574821158517
75	0xbfccd21ba7072c15	-0.225161987835549
76	0xbfc0e234049312ef	-0.13190317366947776
77	0x3fc03d55f6471b9e	0.12687181973725797
78	0xbfcb0e143bbf4e10	-0.2113671581015386
79	0x3fdbcba253a603cd	0.43430383843229664
80	0x3fccfa46017bc4ce	0.22638773987231392
81	0xbfa6c44de1918231	-0.044466432366565896
82	0x3fc098c91cb2d0c8	0.12966264630597935
83	0xbfcb59e1666807ee	-0.21368043422995647
84	0x3fd374b9468005a0	0.30399925122045524
85	0x3fd9dcafacb9d29e	0.40409461848984474
86	0xbfc76eee7d55f61a	-0.18307286376868676
87	0x3fe9e5a70dc67bf4	0.8092837590264694
88	0x3fe3047f7dabf327	0.594299073650835
89	0xbfba568dd2d07fc2	-0.10288320919835228
90	0xbfdac4662baea034	-0.418237250002224
91	0xbfd5cdf3e9737bff	-0.3406953601642612
92	0xbfb24a0035eab678	-0.07144166294411913
93	0xbfca5890c4046bc7	-0.2058278042903494
94	0x3fe1dedf3f178095	0.5584560615789252
95	0xbfe34d8f7b084bdd	-0.6032178309418402
96	0x3fdea66933340051	0.47890691757493636
97	0x3fa6747c443d2e3e	0.04385746319766469
98	0x3fb30d9b8059a3f9	0.07442638286160265
99	0x3fe4db73c243f3a3	0.651788596558266
100	0xbfce5e10d1fa5fe7	-0.23724565747102064
101	0xbfdf6e8887a35a82	-0.4911214184370821
102	0x3fd1b8190eb75868	0.27686144292000003
103	0x3fa6ddf9cfb78864	0.04466229115111345
104	0x3fcf57d3a26bbc05	0.24486775809006658
105	0xbfe0112fc362a433	-0.5020979705924503
106	0xbfc6b5e4d767f48b	-0.17742596166491284
107	0x3fca5707ec01a330	0.20578097366094417
108	0xbfae72a426cb86ac	-0.05946839307376925
109	0xbf5897847bfcaea0	-0.0015009683410864075
110	0xbfc492709c92c233	-0.16071899075679283
111	0x3ff14e4ecbd739ef	1.0816181147125652
112	0xbfd8ba92e14c0c53	-0.38638755799928964
113	0x3fd053406def65c7	0.2550812791428964
114	0xbf801b41323dc3b4	-0.007864484163038067
115	0x3fc202b74e31e6b3	0.1407078868685879
116	0x3f953d82ecb34b3f	0.02074245996193302
117	0xbfa5157bba98a590	-0.04117952969347549
118	0xbfaa1f276e4b52a4	-0.05101893636098012
119	0x3fc4df01339fb926	0.16305556317042508
120	0x3fd539730ed36f3f	0.33163143585055715
121	0xbfe38160b022c04b	-0.6095431747580816
122	0xbfed4c98c1bb7baf	-0.91560018385268
123	0x3fe69585611ee2db	0.7057520768058468
124	0xbfc1b9001f4bd4c7	-0.13845826652656099
125	0xbfd2427e059a236c	-0.2853083662708318
126	0x3fd1c572f20f3ff7	0.2776763309348093
127	0xbfe2278ba503e25d	-0.5673273299172014
128	0x3fe96ae8388dbf74	0.7943001846851829
129	0x3fe259535b1506cb	0.5734040049503276
130	0x3fa597148894d613	0.04216827552083315
131	0x3fafd54affd56858	0.06217417118996654
132	0xbfd72901f7fa76e9	-0.36187791077268955
133	0x3f94db12daf8af24	0.02036694966788767
134	0xbfcecc795e39c88c	-0.24061505413880402
135	0xbfd8e509a4354d08	-0.3889793494792717
136	0xbfe286afaa9945f6	-0.5789411861425708
137	0x3ff415838f0ceb05	1.2552524173649442
138	0xbfc3da69bf9b902a	-0.1551029382309264
139	0xbfdb687e4aa29acf	-0.42825276650038985
140	0x3fdec63fccd619f6	0.480850172076685
141	0xbfc2c5ea7a0b9f10	-0.14666491469619602
142	0x3fca160f60bb9afc	0.2037982199028291
143	0x3fb6bf1b17c306c3	0.08885354356882673
144	0xbfcc70cbd23edd1f	-0.22219226613899765
145	0xbfdf0e7673480fa9	-0.4852577329440871
146	0x3fd5016d76fc29dc	0.3282121335948014
147	0xbfc604f51c2339bd	-0.17202628969103087
148	0x3fb91e40ed769a34	0.09811788365787139
149	0x3fef4b32d1d373d6	0.9779295061267657
150	0xbf6baa8ff0b45630	-0.003377228864006175
151	0xbfd8ef299d08dd1d	-0.3895973237553834
152	0x3fc98a37fe6b6d6c	0.19953060076555162
153	0xbfd9bbead108985d	-0.4020945588439469
154	0xbf925a97b650029d	-0.017923708441233022
155	0x3fb8787c0db83056	0.09558844885776926
156	0xbfe41499d60f3a40	-0.6275147610520619
157	0xbfd9b7c87e94fcc8	-0.4018422351982278
158	0xbfdc0bc4b080684c	-0.4382182811401705
159	0xbfd84c5b95c4180b	-0.3796605074461474
160	0xbfd3dc5c96261175	-0.3103248087211548
161	0xbfa95e1470f3a26d	-0.04954589728169343
162	0x3fde9da8dcb0b09d	0.4783727793862996
163	0xbfc8642db2f401a7	-0.19055720556208408
164	0xbfe5345d1408315d	-0.6626420394182265
165	0x3fe0b7c24f6b2586	0.5224315215247521
166	0x3fb909aba99c1203	0.09780381098614303
167	0x3fb4754c19fb7f42	0.0799148143228168
168	0xbfec8ef4e59f8f90	-0.8924507603482983
169	0x3fbc62e7a1c19302	0.1108841676628565
170	0xbfcbdecc2a50f565	-0.2177367407438552
171	0x3fab3f6000dc75ba	0.05321788797867151
172	0xbfa9ee20bcdcf6b9	-0.050644896559317094
173	0xbfeb77669dc2dfc0	-0.8583252984308203
174	0x3fb05c13d87763a3	0.06390499148200361
175	0x3fa15092868026a8	0.03381784335949806
176	0x3fe1acf93fa8e64e	0.5523649447779435
177	0x3fd3ad6c7dce32d8	0.30745994840326096
178	0xbfc14016c2d93694	-0.13476833833776836
179	0xbfab9e5ac5f19746	-0.05394252458863362
180	0x3fe687e0b231096f	0.7040866356185641
181	0xbfbb4563c85864c4	-0.10652755395166752
182	0x3fab4f47ab5c179c	0.053339233081757004
183	0x3fe00b23212ffdd6	0.5013595245545115
184	0xbfd3f686004fed04	-0.31192159681786813
185	0xbff1d2a9947b5959	-1.1139312553474012
186	0x3fe2d6044d4963e2	0.588625098181293
187	0xbfc16dbe986cf469	-0.1361616367593428
188	0xbf90a6524cb8385c	-0.01625946610698069
189	0x3fe06f81a2b1e361	0.5136116197237294
190	0x3fb7bd3a20334c18	0.09273112569944464
191	0x3fa50d6a763f2576	0.04111797994080295
192	0xbfb6f9cbcee3a41d	-0.08974908638960284
193	0x3fcf2718de8c411e	0.2433806502017512
194	0x3fe3e8669e6cf65d	0.6221192449808758
195	0x3fb6b9b4715017a8	0.08877113119532842
196	0xbfddc644e968bcf4	-0.4652263907800738
197	0xbfdb3040566dae96	-0.4248200267818246
198	0x3fe633424d2566bd	0.6937572008857483
199	0xbfd4491cb63c07ea	-0.3169624118455646
200	0xbfb0a636b76df3a2	-0.06503622034320114
201	0xbfaf79811f6f8df6	-0.06147387989747337
202	0x3fdf36d48a0b8f0f	0.4877215717408356
203	0x3fd54f5dbc9c9701	0.33296912592992106
204	0xbfdc61ff1ce40387	-0.4434812338004623
205	0x3fa3d1e5c5399225	0.038710766148856636
206	0x3fca95333d9ac7bc	0.20767822750127418
207	0xbfc87d10e311df1f	-0.19131671035187822
208	0x3fd320333ab5db4c	0.29884033902583407
209	0xbfb31d2b28ee396d	-0.07466382741242734
210	0x3fd38b951a861113	0.30539443578915487
211	0xbfd7e32068ecf26c	-0.37323770758283703
212	0x3fce85fa959016f4	0.23846370985864207
213	0xbfeb56323e445fe2	-0.8542720047143997
214	0x3fd469d1e5a9e6cf	0.3189587347802502
215	0x3fe939e58cfad710	0.7883174661171513
216	0x3fef207465039200	0.9727117512634891
217	0xbff263385557fab4	-1.1492236455666616
218	0x3fd7b1f4b4a53cfb	0.3702365650287473
219	0x3fd352533ec78732	0.3018997300224441
220	0xbfd181f9da529c3d	-0.2735581047113021
221	0xbfc5e1844939d71b	-0.1709447248028305
222	0xbfa28febdfdb30da	-0.03625428302402307
223	0x3fe25c21d6b70fcc	0.5737466043142319
224	0xbfe67b21bebb0d5c	-0.7025307393272828
225	0xbfecc4c189463a08	-0.899018066514885
226	0xbfd2af822569fae5	-0.29196218160352166
227	0x3fd61242b5f99cfb	0.34486453791619426
228	0xbfe6afbd85dfb15d	-0.7089526762697848
229	0x3fe476c9cfb8c7ad	0.639500528055796
230	0x3fe6d26a9ae42f7a	0.7131855988713902
231	0x3fd5cfa47201954a	0.34079848416725567
232	0x3fce8628fd78fdd3	0.23846924187271998
233	0x3fe97f17c10c7056	0.7967642565231567
234	0xbfe5c85b37ab95ed	-0.6807075583753296
235	0x3fb2f2a2129b2567	0.07401478723763476
236	0x3fd5ea806fee0405	0.34243784838332686
237	0x3f95719f66831b10	0.020941248542636848
238	0xbfb2441528f5a05c	-0.07135135889041194
239	0x3fc612ad2b5cec96	0.1724449598058057
240	0x3fc1cbadc124fbb4	0.1390282815063678
241	0xbfc36949e68b14c0	-0.15165065533634525
242	0xbf9616f6fa883a02	-0.021571978608387006
243	0x3fc0398e06a95f15	0.12675643277429374
244	0x3fd3a0fe5d7f9524	0.30670127039623396
245	0xbfe227a89c87eb86	-0.5673411423916697
246	0xbfbe2bc12aad8576	-0.11785514156283292
247	0xbff28ec7873c678f	-1.1598582537321567
248	0x3f97ea4449a66bb4	0.023354594226116368
249	0x3fd5fa77a0a8b33b	0.3434123104987525
250	0x3fe8350c2d04b27b	0.7564755324616067
251	0xbfe3ad4b56eebdd6	-0.6149040887739214
252	0x3fe12715e0fd98f6	0.5360211748455004
253	0x3fee8ebe33674914	0.9549246791814618
254	0x3fd30a6fd09c9e93	0.29751201030965396
255	0x3fc5eae75ee76e4c	0.1712311948202675

transformer_encoder.layers.0.self_attn.klinear.bias f8 [32]
0	0xbfd4f1a2cbe0833f	-0.32724828634131947
1	0x3fcbd2b5d1c08b6d	0.21736786596110438
2	0x3fa05e2fd13278e4	0.031968588148844096
3	0x3fded6cd55b19de4	0.48186047905480067
4	0x3fa628d49c089074	0.043280262038280976
5	0xbfc574fa2bbd3073	-0.1676323617524563
6	0xbfd9ed1bcc97e5fd	-0.4050969598752941
7	0xbf9d5f1386ac8325	-0.028682999701348372
8	0xbfd397ce3be51653	-0.3061404786024912
9	0xbfd8a8cd1378f3a6	-0.38530280019386465
10	0x3fcfa476ac2bd4de	0.24720652968213747
11	0xbfb9223778189b50	-0.09817835504564454
12	0x3fe114397e34e90e	0.53371882104628
13	0xbfa93d71d729fce6	-0.04929691077722413
14	0x3fcefccf363a8767	0.24209013126261
15	0x3fddc3eed349170d	0.46508379586553944
16	0x3fc684c359a64010	0.1759266078702244
17	0x3fd8caa30c106fff	0.38736797502656367
18	0x3fd7d2f4b2ff4312	0.3722507236498568
19	0x3fca368e8923b43c	0.20478994079840784
20	0x3fb03bf47790c343	0.06341483992652024
21	0x3fb3e284f74f5f68	0.07767516172259337
22	0x3fe23e8189c061a1	0.5701301279505523
23	0x3fe692f5641afa13	0.7054392771895571
24	0x3fdbe4ac80bf0e90	0.4358321435249559
25	0x3fdcde1d45d7057e	0.4510567838697951
26	0xbfd1a94c99da8322	-0.2759582045055585
27	0x3fc2215e3609d617	0.1416433109149444
28	0xbfcd69a202de8668	-0.22978615894412546
29	0x3fda15a7338dade1	0.40757160219683725
30	0xbfcc36c87362efd6	-0.2204218448076733
31	0x3fa73fd8a8cb4cb2	0.04540898380732851
