experiments/fl_train_noise_0.0_max_grad_norm_5/20250422/model_round_4.pt (torch, 62777 bytes, 25 tensors)

embed.weight f8 [32, 8]
00000000: dabc 98b6 f2f1 a63f 0cf6 15af a65e 94bf
00000010: c044 1900 0070 a73f c044 1900 0070 a73f
00000020: 4e5b 9662 92bc a43f 7ef1 1c6b 92d8 9abf
00000030: c29e 18fc 07d6 963f d32a 2129 8bc3 9ebf
00000040: 443b 18f0 c079 a63f 16e7 1eef d1a9 9cbf
00000050: 28c3 11c0 a679 503f 460f 2080 8cbc 7d3f
00000060: 1eea 140e 2366 a33f 5fd4 13dc 8464 92bf
00000070: 8f65 190a 6e8e 873f 4508 94db a794 a23f
00000080: 3280 1311 7116 923f 62cf 9150 fe84 a03f
00000090: bd5f 910f 701d a03f a6b7 1270 6d5c 61bf
000000a0: c044 1900 0070 a73f ac58 1740 94a7 a53f
000000b0: c044 1900 0070 a73f d0ea 1d20 d2bf 6bbf
000000c0: 0b8f 152a 1dff a33f 76a3 139a 2637 823f
000000d0: 240c 93b1 cbaa a1bf 877a 1bc0 c77c 993f
000000e0: 7fa6 1741 c3ef a53f e516 1a70 ea32 58bf
000000f0: c044 1900 0070 a7bf b703 995f ad33 a7bf
00000100: 4788 95fc d5f8 a33f 33a9 18f1 b8df 96bf
00000110: 8ca7 2043 c849 9e3f 3854 19da 587e 87bf
00000120: 04cc 20ee 9b6b 8e3f 5e41 139c 2adc 713f
00000130: 3671 1805 caab a63f c621 213c 26bb 9e3f
00000140: 644d 11dc 6b0c 70bf 25ea 17bb 822e 963f
00000150: c044 1900 0070 a73f c044 1900 0070 a73f
00000160: c044 1900 0070 a73f 7562 92ad 680d a13f
00000170: 6437 97a9 b588 a53f c044 1900 0070 a7bf
00000180: c044 1900 0070 a73f 6af9 1cc4 ebdf 7a3f
00000190: e0e9 1e88 68ac 8c3f 4bef 1802 bc20 97bf
000001a0: 2e5c 9664 62bd a4bf c2ee 95f8 e357 a43f
000001b0: fab6 2175 8a45 9f3f e835 187a c874 963f
000001c0: ad96 13f5 4a2b a23f 8e6c 210c 8400 7f3f
000001d0: 1e71 17f0 40be 95bf 0a90 1230 af37 713f
000001e0: 0233 221e 96b8 8fbf c044 1900 0070 a73f
000001f0: c044 1900 0070 a73f 466b 1cc4 155c 9a3f
00000200: d5c4 175b e70b a63f 550e 15aa ba87 83bf
00000210: a244 95f9 17ba a3bf 2af0 1262 d890 813f
00000220: c044 1900 0070 a73f c044 1900 0070 a7bf
00000230: c044 1900 0070 a7bf 3997 1902 7fbc 973f
00000240: 88ee 1620 2145 95bf c898 1804 7ed0 86bf
00000250: e2be 17c2 6206 a6bf fac2 12e4 ee66 81bf
00000260: 30ef 1e40 56b1 3cbf a377 92f9 0d21 a13f
00000270: df08 1ad9 e825 98bf e6aa 1ef1 fd71 9c3f
00000280: c044 1900 0070 a73f 8ace 91a1 3584 a03f
00000290: c4f8 164d 9f4e a53f d62e 1332 fbca 91bf
000002a0: 2d49 18ac a786 76bf 9425 9963 1653 a73f
000002b0: ea04 1d3c 96ea 9abf 3ccc 1e78 e990 8c3f
000002c0: 7b65 92f0 3610 a1bf 10ea 14df 1566 a33f
000002d0: 6eb1 188e 5ae7 a63f c044 1900 0070 a73f
000002e0: 507c 1f87 3b34 9d3f 1ea1 1e30 eb68 6c3f
000002f0: d6ec 1529 1c56 a43f ebbb 1a7f fbcb 98bf
00000300: c044 1900 0070 a73f bd30 1596 a4a7 833f
00000310: 8a24 9287 fad3 a03f c044 1900 0070 a73f
00000320: 8b18 2151 97b2 9e3f 2d8b 1654 f9e8 84bf
00000330: 2a2e 1664 b392 94bf 3816 1be7 bc1f 99bf
00000340: c044 1900 0070 a73f 130b 14a1 4197 92bf
00000350: c044 1900 0070 a73f c044 1900 0070 a73f
00000360: 1c5e 1bb4 6b62 793f 07be 11fa e474 a0bf
00000370: 6547 1efd b215 9c3f c044 1900 0070 a7bf
00000380: ea0f 9681 a576 a43f de0a 97e2 695f a53f
00000390: 4877 228b e9f7 9f3f 59ad 1735 1ef6 a53f
000003a0: 7bf7 1a90 3a03 793f bd6c 2220 22ee 4f3f
000003b0: fdd5 1aed 29e4 983f f5f4 1f03 22a4 9dbf
000003c0: e0ee 215c 6579 8f3f e605 1539 e87f 93bf
000003d0: b227 9210 e7d6 a0bf 982d 17bc 9f7f 753f
000003e0: 3309 1b98 a913 993f 0cc2 1230 1266 a1bf
000003f0: 4b24 1975 e551 973f 3ecc 209e d26b 9ebf
00000400: 32e8 94c1 5a64 a33f 6add 16ac 4035 953f
00000410: ece5 123b 5987 91bf e1a5 17c5 30ef a5bf
00000420: 07e4 1325 0a73 a23f c044 1900 0070 a73f
00000430: b262 1728 dfb0 753f cb21 1545 c799 a3bf
00000440: c494 14f1 f816 a33f 3b77 1a70 458c 883f
00000450: 2ba0 96f2 71fc a43f 03a8 179b 2bf1 a53f
00000460: cb2f 17b5 a981 953f 94d6 1a10 b6e4 983f
00000470: 8e86 14f1 c909 933f 509f 9417 c120 a3bf
00000480: ca08 1310 afa7 81bf 2406 1676 946d 843f
00000490: 84bf 1e73 1d85 9cbf d020 1711 c573 953f
000004a0: 6b4e 19e6 f778 87bf 92c8 1edd 828d 9c3f
000004b0: 3a08 9926 dd37 a73f 1d52 11f4 cc10 803f
000004c0: c044 1900 0070 a73f 26bc 1520 f328 84bf
000004d0: c044 1900 0070 a73f 6765 1340 97fd a13f
000004e0: f456 16f0 88b8 943f ec4d 1668 28b0 94bf
000004f0: 593a 14ba 1ac3 82bf e29a 176b fee4 95bf
00000500: aa45 15d9 0cbb a3bf 1041 204d b9ea 9d3f
00000510: 33aa 1214 f44f a1bf 75c5 1c5d baaf 9a3f
00000520: f683 1709 bccf 953f ea14 191d a143 97bf
00000530: a00d 1d92 abf2 8abf 1d44 9454 29cc a23f
00000540: d208 9318 b8a7 a1bf 5c02 1b0f 520d 993f
00000550: 9e31 9791 5a83 a53f 188e 9671 aeeb a43f
00000560: 7b59 1c34 934b 8abf f03d 171b c88e a53f
00000570: 866b 98ad 83a6 a63f 43e4 1114 5c98 703f
00000580: d444 13e0 60df 813f 5e27 1854 4c67 86bf
00000590: c044 1900 0070 a73f 60e2 18a0 c014 573f
000005a0: 00b1 2100 0040 8fbf 4075 12d6 d61e 81bf
000005b0: c044 1900 0070 a73f d548 1bf8 ae4e 793f
000005c0: c044 1900 0070 a73f dd6b 148a 08f1 a2bf
000005d0: 345b 16b4 7abc 94bf fd31 1ba7 7e39 99bf
000005e0: 8b45 2160 54dc 8ebf 4433 22a4 d3b8 9fbf
000005f0: 0b06 1c31 2ffe 99bf 78e5 1252 ed86 81bf
00000600: 2dcc 2004 c26b 8e3f ea07 1be8 7812 893f
00000610: 5a61 1c58 e052 8abf c044 1900 0070 a73f
00000620: e7d1 12d0 c774 813f 3e31 1924 e95d a73f
00000630: cd4a 1477 5dd2 a23f b85c 1ba0 2161 99bf
00000640: c044 1900 0070 a7bf 1cfd 1f89 b2ab 9d3f
00000650: 55d9 16ec 7731 753f 1adb 1da2 40b1 9b3f
00000660: b49d 151f b60c 943f 5da7 11a1 df5f 90bf
00000670: 646d 15f4 e5df a33f 3230 956f 23a7 a33f
00000680: dc8a 2040 2c2f 4ebf 425a 1618 9abb 74bf
00000690: 5603 9472 1590 a23f 90c1 2088 e861 9e3f
000006a0: ea3c 22a8 c6c1 8f3f 4d65 1e10 7031 7c3f
000006b0: b830 141b 2cba 923f c044 1900 0070 a73f
000006c0: 52ba 1594 3f27 a43f 1bca 20d4 d569 8ebf
000006d0: dc1c 98f7 8c5d a6bf 6bae 1f80 b462 3d3f
000006e0: b571 1558 e7e3 73bf fbdc 12b2 0d7f a1bf
000006f0: 9802 1a20 1620 683f 1237 12b3 29e5 a0bf
00000700: 330b 134e eca9 a13f 5b57 12b1 1c03 a1bf
00000710: f3d0 135c 5861 823f 987a 17f0 0ac7 85bf
00000720: 0a09 170c b85d 853f 6288 91f0 2243 a0bf
00000730: 0da1 17c6 b6ea 85bf 8d29 1df1 910c 9bbf
00000740: 0a4c 9701 dc9b a5bf 18ea 1ada cff6 88bf
00000750: b685 1b89 2687 99bf 3b7a 1700 b5c6 15bf
00000760: 1a75 1b2d bf77 993f 0664 1f70 b41d 9d3f
00000770: 16b4 95cb 7921 a43f d5e9 2002 4487 8ebf
00000780: 650a 1b49 c514 993f 600a 15b9 0e84 93bf
00000790: b3a3 184d 9eda 96bf 967c 935a 1913 a2bf
000007a0: 28b8 97db 2400 a63f 0481 1400 a704 53bf
000007b0: c044 1900 0070 a73f 20cf 118c c084 703f
000007c0: 6cee 1ea2 9fb0 9c3f 06cb 1f78 3d7d 6dbf
000007d0: 8a29 1401 84b3 923f c223 2283 71aa 9fbf
000007e0: 5dd5 19e4 21f6 97bf f6f2 1da0 63c7 7bbf
000007f0: abf9 158c 0262 74bf a070 1c4c 0b61 7abf
0.04481466750109471 -0.01989231532706097 0.04577636719899081 0.04577636719899081 0.040501188788019435 -0.02621678141370997 0.02230083919690063 -0.030042814622258284
0.04389765673487614 -0.027991562099237553 0.001005566446363024 0.00725989230159369 0.0378886179627964 -0.017961574490034212 0.011502132113650613 0.03629040294073652
0.01766373316502285 0.03226465924754397 0.03147459211385193 -0.0021192681748151863 0.04577636719899081 0.04229415209162943 0.04577636719899081 -0.003387365723879078
0.0390557397720653 0.008894254281089902 -0.03450619261413859 0.024890061474133886 0.042844869323585215 -0.0014769830162619177 -0.04577636719899081 -0.04531614105190534
0.03900784214307911 -0.02233780833754757 0.029578332039967445 -0.011471456676341515 0.01485368557414369 0.004360357707995225 0.04427939712715771 0.030010793132790224
-0.003918095900263683 0.021661799115444098 0.04577636719899081 0.04577636719899081 0.04577636719899081 0.033305426776853254 0.042058636619556805 -0.04577636719899081
0.04577636719899081 0.006561203919601114 0.014000717786861239 -0.022585809352889268 -0.040507387903908273 0.039733051390582044 0.03053871478953505 0.021929867221890748
0.03548654786736214 0.0075688512898423165 -0.021233572629953838 0.00420349533775167 -0.015488789362529957 0.04577636719899081 0.04577636719899081 0.02574190148798585
0.04305956828091843 -0.009536226573465681 -0.038529156891521824 0.008577051632862338 0.04577636719899081 -0.04577636719899081 -0.04577636719899081 0.023179993155643095
-0.02077152021750675 -0.011139854907991867 -0.043017469590152194 -0.008497110686535237 -0.0004378161976281601 0.033455311503743056 -0.02358211350520711 0.027778594819816947
0.04577636719899081 0.032258678410383615 0.04161546531712326 -0.01737587445386065 -0.00549951073618819 0.04555578199194624 -0.026285502833393183 0.013948272684365041
-0.03332683264415955 0.037888225061085135 0.04473383888793846 0.04577636719899081 0.028519563791516156 0.0034679978861796986 0.03971946717771295 -0.024215631134833087
0.04577636719899081 0.00959709723488122 0.03286726860921714 0.04577636719899081 0.029978145910967185 -0.01020998752466581 -0.020090868934444263 -0.024535132985667313
0.04577636719899081 -0.01815512223857769 0.04577636719899081 0.04577636719899081 0.006197376934970158 -0.03214183380702811 0.027426525782693462 -0.04577636719899081
0.03996770102369836 0.041743573102868345 0.031219147793869056 0.042893356305138304 0.006106594811795203 0.0009744326237241179 0.02430787572548886 -0.028946429672932223
0.015368263124620751 -0.019042614444748106 -0.03288957669526783 0.005248664821418635 0.024489068898000354 -0.033981865280456075 0.02277334716044192 -0.02970818605554037
0.037875019198012075 0.020710955146311084 -0.01711787627275456 -0.04284050374901561 0.03603393271072979 0.04577636719899081 0.0052956311278299795 -0.03828261106770333
0.03728464072109142 0.011986296161292756 0.04098850332530931 0.04285560863702644 0.021002437284366054 0.024309963925324654 0.01859202894150385 -0.03735927021835883
-0.00862061279110939 0.009974632123660739 -0.027851543570875062 0.020949439209091036 -0.01146119757610294 0.02788357233630074 0.04534808250583962 0.007844544599870546
0.04577636719899081 -0.009843730370191105 0.04577636719899081 0.035137869426487715 0.020235194829715433 -0.02020323882386592 -0.00916119461410607 -0.021381354605092613
-0.03853645467701068 0.029215712864300747 -0.03381312127142557 0.026060974057320736 0.021300256781504566 -0.02271892299747417 -0.013158169170884915 0.03671387822590353
-0.03448272037486934 0.02446487633892712 0.042017774841585295 0.04086060654233509 -0.012839460399430838 0.04210496264169794 0.04423915380558356 0.0040515515148565355
0.00872684177230313 -0.010939213100772779 0.04577636719899081 0.0014087563616965934 -0.01525878906633027 -0.008359602363550267 0.04577636719899081 0.006178554032617541
0.04577636719899081 -0.036995188575211314 -0.02025024151006534 -0.02463338751731391 -0.015068682845739164 -0.03097849549571953 -0.025383698818592076 -0.008558134143060711
0.014853969336490714 0.012242264350223981 -0.01285338658230788 0.04577636719899081 0.008523522412681351 0.045638356834930324 0.03676120833019567 -0.024784589192532208
-0.04577636719899081 0.028975286120837315 0.00517412991160023 0.027043352026761537 0.019579740187877184 -0.01599072857462801 0.03881758312737807 0.03838453995794601
-0.0009211507861020779 -0.005061723642390494 0.036255521999925364 0.029670365627852358 0.015506317144426924 0.0068830850085757735 0.01828831591869637 0.04577636719899081
0.03936194117237747 -0.014850302253852246 -0.04368248484029788 0.00044838816404422246 -0.004856017768670663 -0.03417246626616507 0.002944987500825679 -0.03299837408950003
0.03449953511291994 -0.033226868262473196 0.008974733648280586 -0.010633550121324206 0.010432660931546173 -0.0317622107184128 -0.010701587600991514 -0.02641513857023763
-0.04220473784848629 -0.012189506381550294 -0.024929620855692135 -8.306960810198435e-05 0.024870860221985237 0.028433627456113462 0.039317899800927744 -0.01490643626685976
0.024493296229375256 -0.019058446928520545 -0.02231833787496713 -0.035301964098601576 0.042969848447555414 -0.001160777174227746 0.04577636719899081 0.004032852303783391
0.02801751544005386 -0.0035997582026480205 0.01826292282661649 -0.0309236274993372 -0.023399858042883682 -0.006781949197713235 -0.004976282072105691 -0.00644020474444687

embed.bias f8 [32]
00000000: fab7 9489 a137 a3bf 68a4 202b de46 9ebf
00000010: 9218 1947 0547 a7bf 65e7 9298 b688 a1bf
00000020: 6605 1f2d f0c5 9cbf bbdb 175e 2421 96bf
00000030: e80a 99e4 583a a7bf 9688 1457 ad0b 93bf
00000040: d2a5 1448 c926 633f 44dd 1c2c d0c5 9a3f
00000050: aeab 925f 5451 a1bf 0e42 1d4d 4c23 9bbf
00000060: 24df 9103 9c93 a0bf 9270 170e bfbd 95bf
00000070: 40aa 1249 0050 91bf 8692 1f7a d448 9dbf
00000080: eaab 15a2 e419 a4bf 3632 95f3 01a9 a3bf
00000090: 74c1 1d4d 7699 9bbf c044 1900 0070 a7bf
000000a0: 7a67 2220 40e9 5fbf 2e97 9628 1cf4 a4bf
000000b0: 185b 137f 07f4 a1bf bb62 1415 90e8 a2bf
000000c0: fe65 2174 6dfa 9ebf c044 1900 0070 a7bf
000000d0: a267 961e 02c8 a4bf 4ab9 15f3 4a26 94bf
000000e0: 32be 17b8 bd05 66bf 3064 1568 5cd7 93bf
000000f0: 2bac 98c6 79e2 a6bf 5d73 1724 56c0 a5bf
-0.037533805889651675 -0.029567214376730183 -0.04546371930023087 -0.03424616444085763 -0.028098824266412768 -0.021610801928513484 -0.04536702909947171 -0.018599232139543696
0.0023378306656425063 0.026145222370556512 -0.03382362047826547 -0.026501838881190003 -0.03237617057396694 -0.02123163722522798 -0.016906742534653185 -0.02859813685781145
-0.039260048661922856 -0.03839880083487339 -0.026952599007417047 -0.04577636719899081 -0.0019477010942296744 -0.04092491145574538 -0.0350649206754296 -0.036930563519665914
-0.030252180302658964 -0.04577636719899081 -0.04058844207175062 -0.019677325331423114 -0.0026882844401752365 -0.019376224377399776 -0.04469662236473256 -0.04248303595134104

pos_enc.pe f8 [1, 12, 32]
00000000: 0000 0000 0000 0000 6af7 1680 5e4d a53f
00000010: 0000 0000 0000 0000 6af7 1680 5e4d a53f
00000020: 0000 0000 0000 0000 6af7 1680 5e4d a53f
00000030: 0000 0000 0000 0000 6af7 1680 5e4d a53f
00000040: 0000 0000 0000 0000 6af7 1680 5e4d a53f
00000050: 0000 0000 0000 0000 6af7 1680 5e4d a53f
00000060: 0000 0000 0000 0000 6af7 1680 5e4d a53f
00000070: 0000 0000 0000 0000 6af7 1680 5e4d a53f
00000080: 0000 0000 0000 0000 6af7 1680 5e4d a53f
00000090: 0000 0000 0000 0000 6af7 1680 5e4d a53f
000000a0: 0000 0000 0000 0000 6af7 1680 5e4d a53f
000000b0: 0000 0000 0000 0000 6af7 1680 5e4d a53f
000000c0: 0000 0000 0000 0000 6af7 1680 5e4d a53f
000000d0: 0000 0000 0000 0000 6af7 1680 5e4d a53f
000000e0: 0000 0000 0000 0000 6af7 1680 5e4d a53f
000000f0: 0000 0000 0000 0000 6af7 1680 5e4d a53f
00000100: 6af7 1680 5e4d a53f 6af7 1680 5e4d a53f
00000110: 6af7 1680 5e4d a53f 6af7 1680 5e4d a53f
00000120: 6af7 1680 5e4d a53f 6af7 1680 5e4d a53f
00000130: 6af7 1680 5e4d a53f 6af7 1680 5e4d a53f
00000140: 6af7 1680 5e4d a53f 6af7 1680 5e4d a53f
00000150: 6af7 1680 5e4d a53f 6af7 1680 5e4d a53f
00000160: 6af7 1680 5e4d a53f 6af7 1680 5e4d a53f
00000170: 6af7 1680 5e4d a53f 6af7 1680 5e4d a53f
00000180: 6af7 1680 5e4d a53f 6af7 1680 5e4d a53f
00000190: 6af7 1680 5e4d a53f 6af7 1680 5e4d a53f
000001a0: 6af7 1680 5e4d a53f 6af7 1680 5e4d a53f
000001b0: a295 967b acf2 a43f 6af7 1680 5e4d a53f
000001c0: ee73 9178 2b30 a03f 6af7 1680 5e4d a53f
000001d0: 712d 1a71 d447 983f 6af7 1680 5e4d a53f
000001e0: 94a1 1350 6835 923f 6af7 1680 5e4d a53f
000001f0: 7c71 1d82 4a4f 8b3f 6af7 1680 5e4d a53f
00000200: 6af7 1680 5e4d a53f 6af7 1680 5e4d a5bf
00000210: 6af7 1680 5e4d a53f 6af7 1680 5e4d a53f
00000220: 6af7 1680 5e4d a53f 6af7 1680 5e4d a53f
00000230: 6af7 1680 5e4d a53f 6af7 1680 5e4d a53f
00000240: 6af7 1680 5e4d a53f 6af7 1680 5e4d a53f
00000250: 6af7 1680 5e4d a53f 6af7 1680 5e4d a53f
00000260: 6af7 1680 5e4d a53f 6af7 1680 5e4d a53f
00000270: 6af7 1680 5e4d a53f 6af7 1680 5e4d a53f
00000280: 6af7 1680 5e4d a53f 6af7 1680 5e4d a53f
00000290: 6af7 1680 5e4d a53f 6af7 1680 5e4d a53f
000002a0: 6af7 1680 5e4d a53f 6af7 1680 5e4d a53f
000002b0: 6af7 1680 5e4d a53f 6af7 1680 5e4d a53f
000002c0: 6af7 1680 5e4d a53f 6af7 1680 5e4d a53f
000002d0: c5d4 96ab 3c2d a53f 6af7 1680 5e4d a53f
000002e0: caa0 1359 ab34 a23f 6af7 1680 5e4d a53f
000002f0: d070 1d5a aa4e 9b3f 6af7 1680 5e4d a53f
00000300: 6af7 1680 5e4d a53f 6af7 1680 5e4d a5bf
00000310: 6af7 1680 5e4d a53f 6af7 1680 5e4d a5bf
00000320: 6af7 1680 5e4d a53f 6af7 1680 5e4d a5bf
00000330: 6af7 1680 5e4d a53f 6af7 1680 5e4d a53f
00000340: 6af7 1680 5e4d a53f 6af7 1680 5e4d a53f
00000350: 6af7 1680 5e4d a53f 6af7 1680 5e4d a53f
00000360: 6af7 1680 5e4d a53f 6af7 1680 5e4d a53f
00000370: 6af7 1680 5e4d a53f 6af7 1680 5e4d a53f
00000380: 6af7 1680 5e4d a53f 6af7 1680 5e4d a53f
00000390: 6af7 1680 5e4d a53f 6af7 1680 5e4d a53f
000003a0: 6af7 1680 5e4d a53f 6af7 1680 5e4d a53f
000003b0: 6af7 1680 5e4d a53f 6af7 1680 5e4d a53f
000003c0: 6af7 1680 5e4d a53f 6af7 1680 5e4d a53f
000003d0: 6af7 1680 5e4d a53f 6af7 1680 5e4d a53f
000003e0: 2ded 9697 df43 a53f 6af7 1680 5e4d a53f
000003f0: c513 968b 387a a43f 6af7 1680 5e4d a53f
00000400: 6af7 1680 5e4d a5bf 6af7 1680 5e4d a5bf
00000410: 6af7 1680 5e4d a53f 6af7 1680 5e4d a5bf
00000420: 6af7 1680 5e4d a53f 6af7 1680 5e4d a5bf
00000430: 6af7 1680 5e4d a53f 6af7 1680 5e4d a5bf
00000440: 6af7 1680 5e4d a53f 6af7 1680 5e4d a53f
00000450: 6af7 1680 5e4d a53f 6af7 1680 5e4d a53f
00000460: 6af7 1680 5e4d a53f 6af7 1680 5e4d a53f
00000470: 6af7 1680 5e4d a53f 6af7 1680 5e4d a53f
00000480: 6af7 1680 5e4d a53f 6af7 1680 5e4d a53f
00000490: 6af7 1680 5e4d a53f 6af7 1680 5e4d a53f
000004a0: 6af7 1680 5e4d a53f 6af7 1680 5e4d a53f
000004b0: 6af7 1680 5e4d a53f 6af7 1680 5e4d a53f
000004c0: 6af7 1680 5e4d a53f 6af7 1680 5e4d a53f
000004d0: 6af7 1680 5e4d a53f 6af7 1680 5e4d a53f
000004e0: 6af7 1680 5e4d a53f 6af7 1680 5e4d a53f
000004f0: 25ed 9644 d843 a53f 6af7 1680 5e4d a53f
00000500: 6af7 1680 5e4d a5bf 6af7 1680 5e4d a53f
00000510: 6af7 1680 5e4d a5bf 6af7 1680 5e4d a5bf
00000520: 6af7 1680 5e4d a53f 6af7 1680 5e4d a5bf
00000530: 6af7 1680 5e4d a53f 6af7 1680 5e4d a5bf
00000540: 6af7 1680 5e4d a53f fcd5 1600 5d2e 85bf
00000550: 6af7 1680 5e4d a53f 6af7 1680 5e4d a53f
00000560: 6af7 1680 5e4d a53f 6af7 1680 5e4d a53f
00000570: 6af7 1680 5e4d a53f 6af7 1680 5e4d a53f
00000580: 6af7 1680 5e4d a53f 6af7 1680 5e4d a53f
00000590: 6af7 1680 5e4d a53f 6af7 1680 5e4d a53f
000005a0: 6af7 1680 5e4d a53f 6af7 1680 5e4d a53f
000005b0: 6af7 1680 5e4d a53f 6af7 1680 5e4d a53f
000005c0: 6af7 1680 5e4d a53f 6af7 1680 5e4d a53f
000005d0: 6af7 1680 5e4d a53f 6af7 1680 5e4d a53f
000005e0: 6af7 1680 5e4d a53f 6af7 1680 5e4d a53f
000005f0: 6af7 1680 5e4d a53f 6af7 1680 5e4d a53f
00000600: 6af7 1680 5e4d a5bf 6af7 1680 5e4d a53f
00000610: 6af7 1680 5e4d a5bf 6af7 1680 5e4d a5bf
00000620: 6af7 1680 5e4d a5bf 6af7 1680 5e4d a5bf
00000630: 6af7 1680 5e4d a53f 6af7 1680 5e4d a5bf
00000640: 6af7 1680 5e4d a53f 6af7 1680 5e4d a5bf
00000650: 6af7 1680 5e4d a53f 6af7 1680 5e4d a53f
00000660: 6af7 1680 5e4d a53f 6af7 1680 5e4d a53f
00000670: 6af7 1680 5e4d a53f 6af7 1680 5e4d a53f
00000680: 6af7 1680 5e4d a53f 6af7 1680 5e4d a53f
00000690: 6af7 1680 5e4d a53f 6af7 1680 5e4d a53f
000006a0: 6af7 1680 5e4d a53f 6af7 1680 5e4d a53f
000006b0: 6af7 1680 5e4d a53f 6af7 1680 5e4d a53f
000006c0: 6af7 1680 5e4d a53f 6af7 1680 5e4d a53f
000006d0: 6af7 1680 5e4d a53f 6af7 1680 5e4d a53f
000006e0: 6af7 1680 5e4d a53f 6af7 1680 5e4d a53f
000006f0: 6af7 1680 5e4d a53f 6af7 1680 5e4d a53f
00000700: 6af7 1680 5e4d a53f 6af7 1680 5e4d a53f
00000710: 6af7 1680 5e4d a5bf 6af7 1680 5e4d a53f
00000720: 6af7 1680 5e4d a5bf 6af7 1680 5e4d a5bf
00000730: 6af7 1680 5e4d a53f 6af7 1680 5e4d a5bf
00000740: 6af7 1680 5e4d a53f 6af7 1680 5e4d a5bf
00000750: 6af7 1680 5e4d a53f 6af7 1680 5e4d a5bf
00000760: 6af7 1680 5e4d a53f 6af7 1680 5e4d a53f
00000770: 6af7 1680 5e4d a53f 6af7 1680 5e4d a53f
00000780: 6af7 1680 5e4d a53f 6af7 1680 5e4d a53f
00000790: 6af7 1680 5e4d a53f 6af7 1680 5e4d a53f
000007a0: 6af7 1680 5e4d a53f 6af7 1680 5e4d a53f
000007b0: 6af7 1680 5e4d a53f 6af7 1680 5e4d a53f
000007c0: 6af7 1680 5e4d a53f 6af7 1680 5e4d a53f
000007d0: 6af7 1680 5e4d a53f 6af7 1680 5e4d a53f
000007e0: 6af7 1680 5e4d a53f 6af7 1680 5e4d a53f
000007f0: 6af7 1680 5e4d a53f 6af7 1680 5e4d a53f
0.0 0.041605904708815825 0.0 0.041605904708815825 0.0 0.041605904708815825 0.0 0.041605904708815825
0.0 0.041605904708815825 0.0 0.041605904708815825 0.0 0.041605904708815825 0.0 0.041605904708815825
0.0 0.041605904708815825 0.0 0.041605904708815825 0.0 0.041605904708815825 0.0 0.041605904708815825
0.0 0.041605904708815825 0.0 0.041605904708815825 0.0 0.041605904708815825 0.0 0.041605904708815825
0.041605904708815825 0.041605904708815825 0.041605904708815825 0.041605904708815825 0.041605904708815825 0.041605904708815825 0.041605904708815825 0.041605904708815825
0.041605904708815825 0.041605904708815825 0.041605904708815825 0.041605904708815825 0.041605904708815825 0.041605904708815825 0.041605904708815825 0.041605904708815825
0.041605904708815825 0.041605904708815825 0.041605904708815825 0.041605904708815825 0.041605904708815825 0.041605904708815825 0.04091395386357567 0.041605904708815825
0.03161750647334559 0.041605904708815825 0.02371150913545023 0.041605904708815825 0.01778185833691877 0.041605904708815825 0.013334829421801635 0.041605904708815825
0.041605904708815825 -0.041605904708815825 0.041605904708815825 0.041605904708815825 0.041605904708815825 0.041605904708815825 0.041605904708815825 0.041605904708815825
0.041605904708815825 0.041605904708815825 0.041605904708815825 0.041605904708815825 0.041605904708815825 0.041605904708815825 0.041605904708815825 0.041605904708815825
0.041605904708815825 0.041605904708815825 0.041605904708815825 0.041605904708815825 0.041605904708815825 0.041605904708815825 0.041605904708815825 0.041605904708815825
0.041605904708815825 0.041605904708815825 0.0413607558688596 0.041605904708815825 0.03555808508264276 0.041605904708815825 0.02666727232950522 0.041605904708815825
0.041605904708815825 -0.041605904708815825 0.041605904708815825 -0.041605904708815825 0.041605904708815825 -0.041605904708815825 0.041605904708815825 0.041605904708815825
0.041605904708815825 0.041605904708815825 0.041605904708815825 0.041605904708815825 0.041605904708815825 0.041605904708815825 0.041605904708815825 0.041605904708815825
0.041605904708815825 0.041605904708815825 0.041605904708815825 0.041605904708815825 0.041605904708815825 0.041605904708815825 0.041605904708815825 0.041605904708815825
0.041605904708815825 0.041605904708815825 0.041605904708815825 0.041605904708815825 0.04153345799883321 0.041605904708815825 0.039994971312843165 0.041605904708815825
-0.041605904708815825 -0.041605904708815825 0.041605904708815825 -0.041605904708815825 0.041605904708815825 -0.041605904708815825 0.041605904708815825 -0.041605904708815825
0.041605904708815825 0.041605904708815825 0.041605904708815825 0.041605904708815825 0.041605904708815825 0.041605904708815825 0.041605904708815825 0.041605904708815825
0.041605904708815825 0.041605904708815825 0.041605904708815825 0.041605904708815825 0.041605904708815825 0.041605904708815825 0.041605904708815825 0.041605904708815825
0.041605904708815825 0.041605904708815825 0.041605904708815825 0.041605904708815825 0.041605904708815825 0.041605904708815825 0.04153323972010473 0.041605904708815825
-0.041605904708815825 0.041605904708815825 -0.041605904708815825 -0.041605904708815825 0.041605904708815825 -0.041605904708815825 0.041605904708815825 -0.041605904708815825
0.041605904708815825 -0.010342337193701027 0.041605904708815825 0.041605904708815825 0.041605904708815825 0.041605904708815825 0.041605904708815825 0.041605904708815825
0.041605904708815825 0.041605904708815825 0.041605904708815825 0.041605904708815825 0.041605904708815825 0.041605904708815825 0.041605904708815825 0.041605904708815825
0.041605904708815825 0.041605904708815825 0.041605904708815825 0.041605904708815825 0.041605904708815825 0.041605904708815825 0.041605904708815825 0.041605904708815825
-0.041605904708815825 0.041605904708815825 -0.041605904708815825 -0.041605904708815825 -0.041605904708815825 -0.041605904708815825 0.041605904708815825 -0.041605904708815825
0.041605904708815825 -0.041605904708815825 0.041605904708815825 0.041605904708815825 0.041605904708815825 0.041605904708815825 0.041605904708815825 0.041605904708815825
0.041605904708815825 0.041605904708815825 0.041605904708815825 0.041605904708815825 0.041605904708815825 0.041605904708815825 0.041605904708815825 0.041605904708815825
0.041605904708815825 0.041605904708815825 0.041605904708815825 0.041605904708815825 0.041605904708815825 0.041605904708815825 0.041605904708815825 0.041605904708815825
0.041605904708815825 0.041605904708815825 -0.041605904708815825 0.041605904708815825 -0.041605904708815825 -0.041605904708815825 0.041605904708815825 -0.041605904708815825
0.041605904708815825 -0.041605904708815825 0.041605904708815825 -0.041605904708815825 0.041605904708815825 0.041605904708815825 0.041605904708815825 0.041605904708815825
0.041605904708815825 0.041605904708815825 0.041605904708815825 0.041605904708815825 0.041605904708815825 0.041605904708815825 0.041605904708815825 0.041605904708815825
0.041605904708815825 0.041605904708815825 0.041605904708815825 0.041605904708815825 0.041605904708815825 0.041605904708815825 0.041605904708815825 0.041605904708815825

transformer_encoder.layers.0.self_attn.qlinear.weight f8 [32, 32]
00000000: ddcd 148f ee4b 933f c044 1900 0070 a73f
00000010: c044 1900 0070 a73f 8822 1cd7 9b18 9a3f
00000020: 4e13 1670 ca79 a43f c044 1900 0070 a73f
00000030: c044 1900 0070 a73f c044 1900 0070 a73f
00000040: 15c9 19e0 bdea 473f c044 1900 0070 a7bf
00000050: 8489 152d fcf9 933f c044 1900 0070 a73f
00000060: c044 1900 0070 a73f c044 1900 0070 a73f
00000070: c044 1900 0070 a73f 8ac8 21de d455 9fbf
00000080: 8984 1a9e 9c98 88bf ac94 2170 b925 8f3f
00000090: 2cbf 1b11 73bc 993f c044 1900 0070 a73f
000000a0: 8e0c 16e6 8773 a4bf c044 1900 0070 a73f
000000b0: 1e1c 1990 4f4a a73f 00b1 2100 0040 8f3f
000000c0: c044 1900 0070 a73f 9bba 2140 e948 8f3f
000000d0: 0bf2 949f 7d6d a33f 26bb 1ed4 1081 7cbf
000000e0: 7e9c 1c50 bb89 5abf c044 1900 0070 a7bf
000000f0: dd0e 1488 c59a 623f 3026 1266 81d5 90bf
00000100: 8e6e 92b9 a118 a13f 02c0 1878 e0f4 76bf
00000110: 7591 1e6a 655a 8c3f 8d74 1f44 082d 7d3f
00000120: e084 2170 1317 9fbf 634e 20e0 14f7 9d3f
00000130: 8ed2 121c 6275 91bf 7ab9 9246 1f5e a1bf
00000140: c4a2 1390 8136 523f 863b 16c1 179f a43f
00000150: 7082 215c cf14 7f3f 7047 22a8 8acb 7f3f
00000160: 44eb 1993 720a 98bf e397 1ec8 5b60 7c3f
00000170: bb5b 186f dd97 a63f 7cf6 1b58 c1ef 69bf
00000180: 3242 13ec eddc a13f d50e 1944 fd3d a73f
00000190: d283 1ab8 f197 88bf 3ecc 952b e037 a4bf
000001a0: a176 1adc b68b 883f 9b7b 13b6 2f12 82bf
000001b0: 1e74 198f ef9b 973f 00b1 2100 0040 8f3f
000001c0: d2e1 980e 3c14 a73f fc1b 21b3 c8b5 9ebf
000001d0: c044 1900 0070 a7bf e344 16e0 c7a7 443f
000001e0: 06a4 20dc 8246 8ebf c044 1900 0070 a73f
000001f0: 5368 1edc 3c34 7cbf 5614 22ea 229c 9f3f
00000200: 42fa 9609 0250 a5bf 1b83 12e0 b02b 61bf
00000210: 8484 1253 002d a1bf 442d 1680 de91 443f
00000220: 568c 190c 66b2 77bf 22c1 1148 c677 60bf
00000230: 60c4 219c f751 7f3f 3e20 1a24 973b 983f
00000240: 4493 1bc6 b993 893f 2a72 92a8 fa1b a13f
00000250: 0e13 1384 36b1 813f fa27 17c0 697a 95bf
00000260: 2c5c 1cda 124e 9abf d3dd 1c85 53c6 9abf
00000270: c582 163c 2de1 74bf 9558 17c4 7ea7 853f
00000280: 00b1 2100 0040 8f3f 1ec4 1144 8b7a 903f
00000290: 00b1 2100 0040 8f3f 00b1 2100 0040 8fbf
000002a0: 00b1 2100 0040 8f3f c044 1900 0070 a7bf
000002b0: 7859 91c7 9f17 a0bf 8b5d 19b8 fe86 77bf
000002c0: 1a05 1780 105a 753f c044 1900 0070 a73f
000002d0: 3eaa 1cf0 7c96 9abf 2815 22bd e59c 9f3f
000002e0: 2a16 2160 62b0 7ebf c044 1900 0070 a73f
000002f0: 00b1 2100 0040 8f3f 5baf 19fd e0d2 973f
00000300: c044 1900 0070 a7bf c044 1900 0070 a7bf
00000310: e5b6 174c f9fe a5bf e67b 16e3 cdda 943f
00000320: c044 1900 0070 a7bf b66d 16bf a4cd a4bf
00000330: 0a45 1453 04cd a2bf 00b1 2100 0040 8fbf
00000340: e44a 1d72 7e2b 9bbf c044 1900 0070 a73f
00000350: a3e9 1449 b165 a3bf 9b6b 1874 97a6 86bf
00000360: c044 1900 0070 a7bf c044 1900 0070 a7bf
00000370: c044 1900 0070 a7bf c044 1900 0070 a73f
00000380: 8855 1689 37b7 94bf 9006 1b9e 3711 89bf
00000390: 84f4 15ea 3a5d 84bf 6c15 922c f5c5 a0bf
000003a0: c044 1900 0070 a73f 9d63 17e2 bab1 a5bf
000003b0: b2df 13d9 046f a2bf 00b1 2100 0040 8fbf
000003c0: 3688 21eb 2b1a 9fbf 364a 168c b7ac 943f
000003d0: c044 1900 0070 a7bf eb3d 1b26 9044 993f
000003e0: c3b0 13ce 7c43 923f c044 1900 0070 a73f
000003f0: be11 1ac8 232e 68bf 8e97 140d 8f19 a33f
00000400: bb77 1f26 fb2f 9d3f 80cf 1ae9 24de 983f
00000410: d361 1288 d20c 81bf a018 981b 9f59 a6bf
00000420: 38fb 9184 a6ad a03f 10ef 1cc8 50d6 8abf
00000430: 105e 22c0 85e0 3f3f cd82 913b f63d a03f
00000440: 625c 19d1 eb85 97bf 6a1e 9705 8a71 a5bf
00000450: 7a8f 1c84 a77d 8a3f ff54 1850 9e91 86bf
00000460: 529e 1640 bafa a43f 9d04 1a9e f521 88bf
00000470: 1bf5 1fa8 45a4 6dbf e386 187b e5bf a6bf
00000480: 862b 22c0 a5b1 7fbf 1683 1daf 9e5f 9bbf
00000490: 3aac 2014 204e 8e3f c044 1900 0070 a73f
000004a0: 8a6e 117d 292b a0bf 2049 1fbe c004 8d3f
000004b0: 9a86 1ada 869a 88bf 00b1 2100 0040 8fbf
000004c0: 8a5e 1e9e 292b 9cbf fa90 20dd d934 9ebf
000004d0: c044 1900 0070 a73f 462e 21fc bec6 9ebf
000004e0: 1ff4 11b4 11a7 703f c044 1900 0070 a7bf
000004f0: 9676 1fa4 ec2e 7d3f f097 9301 772c a2bf
00000500: c044 1900 0070 a7bf 063a 960a b49d a4bf
00000510: 95fe 1a99 d009 99bf 6a8e 1c90 ab7c 8abf
00000520: 9ab2 9702 fefa a5bf c044 1900 0070 a7bf
00000530: ab51 17a7 15a1 95bf b20f 156b fd88 93bf
00000540: 1a76 224b d0f6 9fbf c044 1900 0070 a73f
00000550: bcf8 143f b273 a3bf 5b2d 9911 4d5a a7bf
00000560: c044 1900 0070 a7bf 8751 97b7 f3a0 a5bf
00000570: c044 1900 0070 a7bf 9e4d 989a c68a a63f
00000580: cde8 16c6 d03f 85bf 3ce9 19a4 9008 883f
00000590: 539e 186c a2d5 763f aa89 21b1 821b 9fbf
000005a0: d637 21f5 9ecf 9e3f 00b1 2100 0040 8fbf
000005b0: 2ed7 1357 2067 a2bf 7434 1450 a3bd 823f
000005c0: 1688 1bf7 5b89 99bf 8cd7 15fc 5c42 743f
000005d0: c044 1900 0070 a7bf 9ad1 128c 7f74 913f
000005e0: 48b6 1e94 8c7c 7c3f c044 1900 0070 a73f
000005f0: eac6 1940 bae8 67bf c64f 2110 d2e5 6e3f
00000600: c044 1900 0070 a7bf c8c2 166e 8d1c a5bf
00000610: 6138 1471 47c1 92bf 4e54 14ca 2edb 92bf
00000620: 6edc 983f 3d0f a7bf c044 1900 0070 a7bf
00000630: e3ae 1533 a61c 94bf aa3c 20e4 a3e6 8dbf
00000640: 9dfb 1e78 dbbc 9cbf c044 1900 0070 a73f
00000650: c044 1900 0070 a7bf e8c0 1bb0 0ebe 99bf
00000660: c044 1900 0070 a7bf c044 1900 0070 a7bf
00000670: c044 1900 0070 a7bf 5bec 1603 1d43 953f
00000680: 24b1 1a6a fcc1 983f 4894 21aa 5c25 9fbf
00000690: b35c 12bc 1108 81bf c044 1900 0070 a7bf
000006a0: b843 97e8 2494 a53f 00b1 2100 0040 8fbf
000006b0: 8231 1eb9 6501 9cbf 00b1 2100 0040 8f3f
000006c0: c044 1900 0070 a7bf 356d 118c ee29 70bf
000006d0: 6606 15e0 5e80 a3bf 4e22 224c 18a9 7f3f
000006e0: f216 9795 9c6a a5bf c044 1900 0070 a73f
000006f0: a03b 20cc ade5 7dbf 7657 117c c215 703f
00000700: 9bff 1537 8467 a4bf 15ff 1924 d41c 883f
00000710: a681 1c4a d570 9abf cbfa 13e8 2788 823f
00000720: 1a67 1669 83c7 a4bf c044 1900 0070 a7bf
00000730: b032 17b8 5884 95bf c044 1900 0070 a7bf
00000740: d8a8 1640 7e04 45bf c044 1900 0070 a73f
00000750: 9c6c 1568 2cdf a3bf fa29 17d9 447c a5bf
00000760: c044 1900 0070 a7bf 32bf 1783 ab06 96bf
00000770: 4a36 1730 b087 a5bf ca42 1380 7cdd a13f
00000780: d82b 15fd 19a3 a33f e5e0 192c d400 983f
00000790: 15b2 12a9 4357 a1bf c044 1900 0070 a7bf
000007a0: ec83 942f 5907 a33f 6a6f 20ac b615 8ebf
000007b0: 2793 922d 933a a1bf 00b1 2100 0040 8f3f
000007c0: 3afa 13a1 a187 a2bf a851 13c6 46eb 913f
000007d0: 6b9c 160e f8f8 a4bf e1f1 14d4 556d 933f
000007e0: 1663 136c 72fb a1bf c044 1900 0070 a73f
000007f0: 56ff 12e6 eb9e 91bf 20de 1582 7648 943f
0.018844344599711838 0.04577636719899081 0.04577636719899081 0.025484499935404276 0.03999168985595834 0.04577636719899081 0.04577636719899081 0.04577636719899081
0.0007298876882500272 -0.04577636719899081 0.0195083048360032 0.04577636719899081 0.04577636719899081 0.04577636719899081 0.04577636719899081 -0.03060085874353339
-0.012009833884180547 0.015208672270271194 0.025132940215313912 0.04577636719899081 -0.03994393047016685 0.04577636719899081 0.0454888213540061 0.01525878906633027
0.04577636719899081 0.015275785703321268 0.037944722871973445 -0.006959024178214068 -0.0016197518566032627 -0.04577636719899081 0.0022710664785579996 -0.016439458708680188
0.033391050246078455 -0.005604626495866684 0.013844291974074644 0.00712302426287893 -0.03036146518605143 0.029262853793694876 -0.017049344027969364 -0.03392122017372663
0.0011116280805315995 0.040276281662150956 0.007588205337100903 0.007762471797961953 -0.023477354267451803 0.006927832147914234 0.044127387820644036 -0.00316608202490337
0.03488868243005462 0.04539481598160725 -0.012008560591597748 -0.039488797493412595 0.011985233871480818 -0.008823750251790765 0.02305578528318019 0.01525878906633027
0.0450762527293055 -0.029990325864016384 -0.04577636719899081 0.0006303525880630125 -0.014782926886327995 0.04577636719899081 -0.00688575528502085 0.03086905054125951
-0.04162603728353932 -0.002096028766189651 -0.03354645742479881 0.000627740519278865 -0.005785368559005985 -0.002010237949939279 0.007646529413350839 0.02366481931542829
0.012488795622127243 0.03341658885731065 0.008638788133234179 -0.0209747813694676 -0.025688452303338646 -0.026147179603155223 -0.005097557733649343 0.010573377951839805
0.01525878906633027 0.016092468289972676 0.01525878906633027 -0.01525878906633027 0.01525878906633027 -0.04577636719899081 -0.03143023787622473 -0.005743975636128505
0.0052128452820750185 0.04577636719899081 -0.025964691310188075 0.0308719536483483 -0.007492431907001365 0.04577636719899081 0.01525878906633027 0.023265376518266972
-0.04577636719899081 -0.04577636719899081 -0.04296092084756057 0.02036592196020228 -0.04577636719899081 -0.04063143570530363 -0.0367204047598851 -0.01525878906633027
-0.026533103671065997 0.04577636719899081 -0.037885227366547335 -0.011059935789537614 -0.04577636719899081 -0.04577636719899081 -0.04577636719899081 0.04577636719899081
-0.02023016714300277 -0.012239870560168314 -0.009943447369318521 -0.03276029748034656 0.04577636719899081 -0.04237159738449423 -0.0360032572734207 -0.01525878906633027
-0.03037327406526221 0.020190112996326635 -0.04577636719899081 0.024675609899359612 0.017835569456040156 0.04577636719899081 -0.002951688657790024 0.037304373118146036
0.02850334568199007 0.024284912803252734 -0.008325238015729852 -0.04365250789491992 0.03257484787262971 -0.013104086977925117 0.00048640504258787385 0.031722731372388326
-0.022971806180376204 -0.04188185995331824 0.012934979171013817 -0.011019932574564793 0.04097539932564288 -0.011783522498492177 -0.003618370102229774 -0.04443280341753366
-0.007737777197813217 -0.026731948316753927 0.014797449697729548 0.04577636719899081 -0.031579300419903936 0.014169221689290412 -0.012013486414903785 -0.01525878906633027
-0.027508402133746425 -0.02949848568108935 0.04577636719899081 -0.03005503095509556 0.004065579561140203 -0.04577636719899081 0.007124828700367699 -0.03549549001927221
-0.04577636719899081 -0.040265680591904426 -0.024451503128828895 -0.012933101973948886 -0.04293054372451373 -0.04577636719899081 -0.0211223014101322 -0.01907726255491555
-0.03121495684228224 0.04577636719899081 -0.03799206752818082 -0.045610817335353736 -0.04577636719899081 -0.042243591462155776 -0.04577636719899081 0.0440275253023643
-0.010375624699794273 0.0117350864486424 0.005574831449429124 -0.03037838178750866 0.03008888598588285 -0.01525878906633027 -0.03594304144819059 0.009150768166842328
-0.02493804641461147 0.004946101399914481 -0.04577636719899081 0.017045967983635536 0.006954716811305391 0.04577636719899081 -0.002918590326594796 0.003771696357071949
-0.04577636719899081 -0.04123346299036751 -0.01831542613677362 -0.018414240917156648 -0.045038141263312834 -0.04577636719899081 -0.019640538089716563 -0.014600067519522437
-0.02806418343220295 0.04577636719899081 -0.04577636719899081 -0.02513907384758421 -0.04577636719899081 -0.04577636719899081 -0.04577636719899081 0.020763829530306626
0.02417749784096758 -0.030415962108595346 -0.008316172172540303 -0.04577636719899081 0.042145875351372764 -0.01525878906633027 -0.027349080489828655 0.01525878906633027
-0.04577636719899081 -0.003946239304322409 -0.03808876500489759 0.00772962084932567 -0.04182900739719554 0.04577636719899081 -0.0072991169891016006 0.0039270016723856795
-0.03985226795612037 0.011773736335498644 -0.02582104935493281 0.00904875924106587 -0.04058466584974792 -0.04577636719899081 -0.02101267455673178 -0.04577636719899081
-0.0006414047676817315 0.04577636719899081 -0.0388120533995899 -0.041963721752455954 -0.04577636719899081 -0.021509818912760888 -0.04205084406895006 0.03489293158930236
0.03835374082935744 0.023440661613194264 -0.033868898762509904 -0.04577636719899081 0.03716543870746833 -0.014689852836503998 -0.03365001612954748 0.01525878906633027
-0.036191035187574674 0.01749907096821493 -0.04096198245979895 0.01897176844544102 -0.035121513073766916 0.04577636719899081 -0.017207799832930824 0.019807674112113927

transformer_encoder.layers.0.self_attn.qlinear.bias f8 [32]
00000000: a028 2240 f6ae 3f3f 940a 1e12 4add 8b3f
00000010: fc94 1f70 1d4b 9d3f e4f9 1bf0 e9f2 793f
00000020: 59b9 939f 734b a2bf caa4 20fd 3847 9e3f
00000030: d338 2200 fabd 8fbf 66ad 1d8f dd86 9b3f
00000040: de26 139e 96c3 81bf ba3c 1f62 41f9 8c3f
00000050: 3587 1160 0c42 403f 6a04 1261 2db6 903f
00000060: b344 1284 cef1 a03f 5649 17a6 5a99 85bf
00000070: e6af 117c ca67 803f 56db 116d 1590 a0bf
00000080: c51b 17d3 166f 95bf 835b 1166 8419 a0bf
00000090: e2a3 1568 7112 743f b2a3 9388 5d37 a23f
000000a0: f002 190c f532 87bf 6c08 1320 59a7 613f
000000b0: a804 127c 67b6 a0bf 20e3 1b27 cddd 993f
000000c0: 95ee 1c80 dfd5 4abf 6430 1904 1e5d 873f
000000d0: acfa 127a 989a 91bf b663 1636 5fc4 84bf
000000e0: 50e9 1307 f177 a2bf ce7f 13c8 1416 923f
000000f0: 82cf 1ff2 6481 8dbf 9ddb 1944 eefb 77bf
0.0004834510037957738 0.013605669668099986 0.028606853455035428 0.006335176296259768 -0.03573190043413161 0.02956856770484676 -0.015499070290641381 0.026881658420660946
-0.008673836421070499 0.014147291953035757 0.000496154825793327 0.01631995110483723 0.03309483873557308 -0.010546405976957256 0.008010465537346034 -0.032349271358660545
-0.02093158400910135 -0.031444680652092515 0.0049004011101283235 0.035578654214823216 -0.011327661925976312 0.0021549931267097946 -0.03264163388758706 0.025260167610187456
-0.0008189526854276036 0.011408075809548453 -0.017191297961057714 -0.010140174711340193 -0.03607133113287608 0.017662358009033423 -0.01440695632843592 -0.005855494238509088

transformer_encoder.layers.0.self_attn.klinear.weight f8 [32, 32]
00000000: fffc 14f7 a577 a33f c505 19ec 9435 873f
00000010: 0a30 2287 d5b5 9f3f ca4a 20df bef3 9d3f
00000020: fb50 18b3 e48d a63f c044 1900 0070 a73f
00000030: 00b1 2100 0040 8f3f ca64 2274 c1e6 7f3f
00000040: 269b 1530 570a 74bf c044 1900 0070 a7bf
00000050: fe92 1920 92b8 473f c044 1900 0070 a73f
00000060: 00b1 2100 0040 8f3f bfab 95dc bb19 a43f
00000070: c044 1900 0070 a73f 907f 19d8 8ca6 87bf
00000080: c94a 1aba 0b63 883f c044 1900 0070 a73f
00000090: 00b1 2100 0040 8f3f 00b1 2100 0040 8f3f
000000a0: 1236 97ac 7c87 a5bf c044 1900 0070 a73f
000000b0: ba6a 1f42 eb23 8dbf feee 1326 367d 82bf
000000c0: ae8f 9549 b4ff a33f c044 1900 0070 a73f
000000d0: c044 1900 0070 a73f 682e 167f ed92 94bf
000000e0: 1573 1191 612f 903f c044 1900 0070 a7bf
000000f0: 612f 97ce 4781 a53f 00b1 2100 0040 8fbf
00000100: 00b1 2100 0040 8fbf adbe 1810 a4f3 76bf
00000110: c292 12ac 353a 71bf 23d6 1bb4 bfd1 893f
00000120: c044 1900 0070 a7bf 00b1 2100 0040 8fbf
00000130: 00b1 2100 0040 8fbf 00b1 2100 0040 8fbf
00000140: 00b1 2100 0040 8f3f 474d 1ba2 ce52 993f
00000150: a091 1b20 3492 79bf 00b1 2100 0040 8fbf
00000160: c044 1900 0070 a7bf c044 1900 0070 a7bf
00000170: 00b1 2100 0040 8f3f d0bf 1e40 6485 5c3f
00000180: c044 1900 0070 a73f 94dc 1d38 9fb2 8b3f
00000190: 8c78 13a9 580f a2bf c044 1900 0070 a7bf
000001a0: 00b1 2100 0040 8fbf d679 12b4 1723 a1bf
000001b0: 786c 180b 64a7 96bf 35bc 14b0 8d3b 83bf
000001c0: 00b1 2100 0040 8f3f 00b1 2100 0040 8fbf
000001d0: 9212 161f 1c79 a4bf 9c1b 9424 98a6 a2bf
000001e0: 926d 14d0 9df2 823f 00b1 2100 0040 8f3f
000001f0: 00b1 2100 0040 8fbf 00b1 2100 0040 8f3f
00000200: c044 1900 0070 a7bf 865d 16ff a0be a4bf
00000210: c044 1900 0070 a7bf a2f1 1d38 27c6 7b3f
00000220: 04b0 16e3 240b a5bf c044 1900 0070 a7bf
00000230: 90d4 13c8 b164 a23f 6e70 16be 2ad0 84bf
00000240: d810 94fd 9b9c a23f c044 1900 0070 a73f
00000250: 00b1 2100 0040 8fbf c044 1900 0070 a7bf
00000260: 02e9 96d8 0140 a5bf c044 1900 0070 a7bf
00000270: 96af 93ba 6642 a2bf 72a6 1b7c 83a5 79bf
00000280: 36ba 191d f3dc 97bf c044 1900 0070 a7bf
00000290: ca05 1e5a d9d8 8b3f de68 1c80 d959 2a3f
000002a0: d862 9312 38fb a13f 9e6a 1da6 eb48 8b3f
000002b0: 79f1 1420 f66c 93bf 2a94 1cc6 0182 9a3f
000002c0: a0b0 1fe4 c164 8dbf a0dc 1fa5 918d 9dbf
000002d0: 4685 194a d9ab 97bf 503c 20d6 52e6 8dbf
000002e0: db0c 21ed bfa7 9e3f 0e33 1564 caa9 833f
000002f0: c044 1900 0070 a7bf 00b1 2100 0040 8f3f
00000300: c044 1900 0070 a7bf c044 1900 0070 a7bf
00000310: c044 1900 0070 a7bf fcbb 12bc 7260 813f
00000320: c044 1900 0070 a7bf c044 1900 0070 a7bf
00000330: f45d 1451 21e4 a2bf 908a 1c80 1979 8abf
00000340: 00b1 2100 0040 8f3f c044 1900 0070 a73f
00000350: c044 1900 0070 a7bf c7c9 1104 cb7f 90bf
00000360: c044 1900 0070 a7bf c044 1900 0070 a7bf
00000370: c044 1900 0070 a7bf b2a6 9643 7f02 a53f
00000380: 4264 17b7 53b2 a5bf c044 1900 0070 a7bf
00000390: 5e56 12d4 3102 713f cd96 1ddc e671 9bbf
000003a0: 7e59 143c fedf a23f 00b1 2100 0040 8fbf
000003b0: 2bb4 151b 8c21 a4bf 00b1 2100 0040 8fbf
000003c0: 6e52 17d4 c9a1 a5bf c044 1900 0070 a7bf
000003d0: c044 1900 0070 a7bf 14aa 1e9b 3b71 9c3f
000003e0: fcb3 1645 d30e a53f c044 1900 0070 a73f
000003f0: 0ede 96bf d935 a5bf 5551 1168 1310 903f
00000400: 00b1 2100 0040 8f3f e8c2 1bc9 e9bf 993f
00000410: 00b1 2100 0040 8f3f aa27 9865 9267 a6bf
00000420: c044 1900 0070 a73f 00b1 2100 0040 8f3f
00000430: c044 1900 0070 a73f 00b1 2100 0040 8f3f
00000440: c044 1900 0070 a7bf c044 1900 0070 a7bf
00000450: 482d 958a 6fa4 a33f 2002 1e3c 73d5 8bbf
00000460: c044 1900 0070 a73f c044 1900 0070 a73f
00000470: 00b1 2100 0040 8f3f 9dc6 941f 3545 a3bf
00000480: 4a65 21f9 c5f9 9ebf 46ac 12c1 e051 913f
00000490: 00b1 2100 0040 8f3f d493 15e8 8c03 a43f
000004a0: 5847 1f61 1a03 9dbf 0232 1af0 0f4c 983f
000004b0: 2ac1 92fb 3f65 a13f ed41 1ea0 a110 4cbf
000004c0: b441 14cc edc9 823f 9f4c 1a40 c064 783f
000004d0: c044 1900 0070 a73f 0db4 2080 6155 2ebf
000004e0: add1 2025 dd70 9ebf 00b1 2100 0040 8fbf
000004f0: 1089 1898 e9c1 663f c044 1900 0070 a7bf
00000500: 00b1 2100 0040 8fbf c044 1900 0070 a7bf
00000510: 0581 123f c229 91bf 7257 1620 feb8 84bf
00000520: c044 1900 0070 a7bf 5862 15e8 a6d5 a3bf
00000530: c044 1900 0070 a7bf 00b1 2100 0040 8fbf
00000540: e01c 1940 034b 673f c044 1900 0070 a73f
00000550: d84a 94f6 67d2 a2bf 00b1 2100 0040 8fbf
00000560: c044 1900 0070 a7bf c044 1900 0070 a7bf
00000570: 00b1 2100 0040 8fbf 96c1 916f 3278 a03f
00000580: fe58 199e c782 97bf 2067 15a6 16da 93bf
00000590: 00b1 2100 0040 8fbf 3429 930f c1c5 a1bf
000005a0: 812f 1405 0cb9 a23f c044 1900 0070 a7bf
000005b0: f6c9 9527 c335 a4bf aeed 1710 cb31 56bf
000005c0: 8cd5 179e 671b 863f 00b1 2100 0040 8fbf
000005d0: ac46 9714 e296 a5bf b42c 159a e5a3 833f
000005e0: 70ce 21c5 4c5b 9f3f c044 1900 0070 a73f
000005f0: 00b1 2100 0040 8fbf c044 1900 0070 a73f
00000600: e3fb 20a1 0298 9ebf acb8 9493 4638 a3bf
00000610: 9ae3 1c14 b0cb 7a3f 1a43 1180 e002 20bf
00000620: 6d51 1709 dca0 a5bf b039 9203 98e7 a0bf
00000630: 4ef6 9335 ff83 a2bf 4d54 1298 4700 81bf
00000640: 9b47 2080 cbf0 4d3f c044 1900 0070 a73f
00000650: c044 1900 0070 a7bf 0bef 1f34 a69e 7dbf
00000660: c044 1900 0070 a7bf c044 1900 0070 a7bf
00000670: c044 1900 0070 a7bf 8b71 193b 8c99 973f
00000680: 7615 150c 578e 73bf fc74 152d f1e6 a3bf
00000690: fecc 93a9 ac5d a2bf c044 1900 0070 a7bf
000006a0: a374 9840 f7ae a63f 5d25 1d50 af08 9bbf
000006b0: fdd2 941c af50 a3bf debb 1812 09f1 86bf
000006c0: 6327 201c e9d2 9dbf 00b1 2100 0040 8fbf
000006d0: 664a 1169 a509 a0bf 87cc 15cc 2338 a4bf
000006e0: 1edc 1dd8 31b2 8bbf c044 1900 0070 a73f
000006f0: ee0b 1554 8185 83bf c044 1900 0070 a73f
00000700: 00b1 2100 0040 8fbf 5cc3 1194 d779 90bf
00000710: ed52 1a52 996a 883f 0b34 17fc 9a85 753f
00000720: c044 1900 0070 a7bf 4ebb 1c35 50a6 9abf
00000730: a5f3 19cf 3812 98bf c044 1900 0070 a7bf
00000740: bc3d 1979 7e69 97bf c044 1900 0070 a73f
00000750: 99e7 1195 739b a0bf ce08 1d10 32ee 7abf
00000760: c044 1900 0070 a7bf c044 1900 0070 a7bf
00000770: 00b1 2100 0040 8fbf 2375 16ee 87d4 843f
00000780: 1c4c 1dff 9f2c 9b3f 2d2a 196e 5a57 97bf
00000790: c044 1900 0070 a7bf c044 1900 0070 a7bf
000007a0: f22b 940c bfb5 a23f 63a5 1164 0a5e a0bf
000007b0: ec38 1730 218a 95bf 9afb 16a4 4051 953f
000007c0: bced 1fa8 6f9d 7dbf 3b03 1298 15b5 70bf
000007d0: 0c46 983d c183 a6bf 5baa 1cd1 9696 9abf
000007e0: caed 1420 8b69 73bf c044 1900 0070 a73f
000007f0: 50b0 16b0 6b0b 75bf c044 1900 0070 a73f
0.03802221909654157 0.011332667784816128 0.03096707951822001 0.029250128143824473 0.04405131040781104 0.04577636719899081 0.01525878906633027 0.007788425138778263
-0.004892674043140121 -0.04577636719899081 0.0007239068510896671 0.04577636719899081 0.01525878906633027 0.03925883357700099 0.04577636719899081 -0.011548137993656643
0.011907664887336538 0.04577636719899081 0.01525878906633027 0.01525878906633027 -0.04204930884189308 0.04577636719899081 -0.014228666263013213 -0.009027884518665538
0.03906024358982961 0.04577636719899081 0.04577636719899081 -0.020091734773400566 0.015805744628198577 -0.04577636719899081 0.042001956909728085 -0.01525878906633027
-0.01525878906633027 -0.005603447790732891 -0.004205903679722569 0.012607095417005948 -0.04577636719899081 -0.01525878906633027 -0.01525878906633027 -0.01525878906633027
0.01525878906633027 0.024729946750835976 -0.006242946257519227 -0.01525878906633027 -0.04577636719899081 -0.04577636719899081 0.01525878906633027 0.0017407874115455864
0.04577636719899081 0.013524288082164916 -0.03527333320538259 -0.04577636719899081 -0.01525878906633027 -0.03347086022516847 -0.022122920205316338 -0.009390932975831582
0.01525878906633027 -0.01525878906633027 -0.03998649482222051 -0.03642726370349367 0.009251816666213473 0.01525878906633027 -0.01525878906633027 0.01525878906633027
-0.04577636719899081 -0.04051688302859717 -0.04577636719899081 0.006780770492579443 -0.04110064766004487 -0.04577636719899081 0.035924487756269774 -0.010162671972288897
0.03635108442725404 0.04577636719899081 -0.01525878906633027 -0.04577636719899081 -0.04150396126665791 -0.04577636719899081 -0.03566285159635567 -0.006261361706245349
-0.023303793574479502 -0.04577636719899081 0.01359720045343495 0.0002010419848879679 0.035119774119896696 0.013322678572582899 -0.01897034235774828 0.025886562077307364
-0.01435233571461253 -0.028860355094334822 -0.02311648859757056 -0.014599463615040303 0.029936789367877786 0.009601193599019033 -0.04577636719899081 0.01525878906633027
-0.04577636719899081 -0.04577636719899081 -0.04577636719899081 0.00848474155858802 -0.04577636719899081 -0.04577636719899081 -0.0368967448686667 -0.0129262916776203
0.01525878906633027 0.04577636719899081 -0.04577636719899081 -0.016112491725331936 -0.04577636719899081 -0.04577636719899081 -0.04577636719899081 0.04103467655234051
-0.042376152133961856 -0.04577636719899081 0.0041524835989058245 -0.026801688370503386 0.03686518176452845 -0.01525878906633027 -0.039318445497748954 -0.01525878906633027
-0.04224997247698502 -0.04577636719899081 -0.04577636719899081 0.027775698988685774 0.04112873285644267 0.04577636719899081 -0.0414264723180474 0.015686324335847008
0.01525878906633027 0.025146153354344586 0.01525878906633027 -0.04375894060292691 0.04577636719899081 0.01525878906633027 0.04577636719899081 0.01525878906633027
-0.04577636719899081 -0.04577636719899081 0.03836391989406224 -0.013590717575199085 0.04577636719899081 0.04577636719899081 0.01525878906633027 -0.03763738642227319
-0.030249684649196674 0.01691390207694734 0.01525878906633027 0.03908958752689498 -0.028332149675242974 0.02372765448540016 0.033975600680948695 -0.0008564747988533662
0.009174211302281111 0.0059554586201954465 0.04577636719899081 -0.000231426383892425 -0.02972741641151948 -0.01525878906633027 0.0027780115494958693 -0.04577636719899081
-0.01525878906633027 -0.04577636719899081 -0.016760859584452188 -0.010118470529771637 -0.04577636719899081 -0.03873941023875166 -0.04577636719899081 -0.01525878906633027
0.002843386028675718 0.04577636719899081 -0.03676152119637316 -0.01525878906633027 -0.04577636719899081 -0.04577636719899081 -0.01525878906633027 0.03216703044825235
-0.022959822678182633 -0.019386628996790667 -0.01525878906633027 -0.034711869384027955 0.03656804620740584 -0.04577636719899081 -0.03947267397133551 -0.001354645064906328
0.010794457924002264 -0.01525878906633027 -0.042166771901645944 0.0095899522445023 0.030621718914018492 0.04577636719899081 -0.01525878906633027 0.04577636719899081
-0.029876748165630473 -0.0375387244370001 0.006541908080003456 -0.00012215605241518921 -0.04224288569426702 -0.03301692050546323 -0.036163306513100055 -0.008301314667088411
0.0009137147574185158 0.04577636719899081 -0.04577636719899081 -0.007231377823696548 -0.04577636719899081 -0.04577636719899081 -0.04577636719899081 0.023046675784244946
-0.0047744179040071135 -0.03887132335032992 -0.03587092943225832 -0.04577636719899081 0.04430363334197664 -0.026400317444573818 -0.037724945296224256 -0.011201926102414047
-0.029124872533464862 -0.01525878906633027 -0.031323594165446875 -0.03949081293367223 -0.013523473174911923 0.04577636719899081 -0.009531984690175545 0.04577636719899081
-0.01525878906633027 -0.016089790737569984 0.011922071283416236 0.005254369172189586 -0.04577636719899081 -0.02602505993052811 -0.023507011070694656 -0.04577636719899081
-0.022863365308067193 0.04577636719899081 -0.03243600077344339 -0.006574817236300668 -0.04577636719899081 -0.04577636719899081 -0.01525878906633027 0.010170995667801613
0.02653741831393229 -0.022794163675181323 -0.04577636719899081 -0.04577636719899081 0.03654286411809683 -0.03196747275871805 -0.021034735260223522 0.02081776620411411
-0.0072302209464356025 -0.0040789454952808125 -0.04397395970239523 -0.025965076935941727 -0.004739325960425098 0.04577636719899081 -0.005137844710969189 0.04577636719899081
