experiments/fl_train_noise_0.0_max_grad_norm_5/20250422/model_round_2.pt (torch, 62777 bytes, 25 tensors)

embed.weight f8 [32, 8]
000000 c0 44 19 00 00 70 a7 3f 39 a5 14 a8 3c 26 73 3f
       0.04577636719899081 0.004675137462336659
000010 7c a8 15 b1 b5 16 a4 3f b6 1e 15 50 ec 96 a3 3f
       0.03923576151540062 0.03826082685060099
000020 c0 44 19 00 00 70 a7 3f 16 b0 97 5a a8 f8 a5 bf
       0.04577636719899081 -0.04291273218026974
000030 6e b4 1b c6 7c b2 99 3f c6 f0 1b e6 74 ea 99 3f
       0.02509493788868549 0.025308443588969685
000040 c0 44 19 00 00 70 a7 3f cc fb 19 5b c8 19 98 bf
       0.04577636719899081 -0.02353585296668452
000050 76 70 17 aa a5 bd a5 bf 7b df 17 fe 9e 24 96 3f
       -0.04246251775086389 0.021624073275205085
000060 c0 44 19 00 00 70 a7 3f 2d e2 12 95 df 83 a1 bf
       0.04577636719899081 -0.03420923895595638
000070 85 96 14 72 99 18 a3 3f c0 44 19 00 00 70 a7 3f
       0.03729705350478433 0.04577636719899081
000080 18 2a 1b a1 2c 32 99 3f 96 46 96 70 5b a9 a4 3f
       0.024605462391983662 0.04035459279397206
000090 8d c9 21 97 c5 56 9f 3f 9c 0a 15 e0 46 84 93 3f
       0.03060444579063808 0.019059283663646384
0000a0 c0 44 19 00 00 70 a7 3f 14 87 14 74 46 0a a3 3f
       0.04577636719899081 0.037187768621391865
0000b0 0a a0 16 eb 53 fc a4 3f d5 8f 15 b0 d7 ff 93 bf
       0.040987608382522536 -0.01953064930184197
0000c0 db eb 97 39 19 30 a6 3f dd 04 1e a0 fd d7 9b bf
       0.04333571270031885 -0.027191126725942694
0000d0 f4 bf 96 cc ed 19 a5 bf 6a 51 22 5b c9 d4 9f bf
       -0.041213446830965866 -0.03108515375841262
0000e0 44 8c 1b aa 3b 8d 89 3f 16 72 14 0e cf f6 a2 3f
       0.012476411942264794 0.03703925177453386
0000f0 41 23 12 99 c9 d2 a0 bf 6a 66 18 8b c6 a1 96 bf
       -0.03285818093815474 -0.022101499786094804
000100 07 36 92 5c 33 e4 a0 3f 7a 3b 15 64 9a b1 83 bf
       0.032991032648265466 -0.009616094760216621
000110 dd 02 18 df 6f 45 96 bf cb 2a 13 bf 3a c7 a1 bf
       -0.021749256125988537 -0.03472312529045992
000120 00 b1 21 00 00 40 8f 3f a7 00 14 05 97 8d a2 3f
       0.01525878906633027 0.03623649537075951
000130 c0 44 19 00 00 70 a7 3f 3a 10 16 7b ef 76 94 3f
       0.04577636719899081 0.019984952819428005
000140 fc b4 1b 1f 00 b3 99 bf 4d 57 21 2c cd ec 9e 3f
       -0.0250968951212842 0.03020020086145019
000150 3c 4a 94 6e d7 d1 a2 3f 4e 55 91 7f c3 13 a0 3f
       0.03675721382946448 0.03140078479979512
000160 c0 44 19 00 00 70 a7 3f e3 9f 16 4c 2f fc a4 3f
       0.04577636719899081 0.04098651698888014
000170 22 c8 95 12 11 34 a4 3f c0 44 19 00 00 70 a7 bf
       0.039459737318694246 -0.04577636719899081
000180 e8 a8 18 1e 73 df a6 bf 9b 82 18 64 ec bb 96 3f
       -0.044673535751216964 0.022201245889052684
000190 36 84 95 24 11 f5 a3 bf a0 ad 1c 35 9e 99 9a bf
       -0.038979087558580636 -0.025976631156635954
0001a0 00 b1 21 00 00 40 8f 3f c0 44 19 00 00 70 a7 3f
       0.01525878906633027 0.04577636719899081
0001b0 3d 75 16 58 a0 d4 84 bf 3d dc 1e 40 c2 9f 3c bf
       -0.010171177566742013 -0.0004367684597314547
0001c0 ed 5e 1b 10 2d 63 69 3f 3f f3 14 06 9b 6e 83 3f
       0.0030990486273870716 0.00948830711660664
0001d0 ee 5b 12 9b 5b 07 a1 bf 95 cc 1c 42 56 b6 9a bf
       -0.033259260825779666 -0.02608618525046021
0001e0 44 c2 11 d0 d3 78 70 bf 99 67 14 d8 13 ed 92 3f
       -0.004021479982029567 0.018482503951510052
0001f0 1b 54 15 89 72 c8 a3 3f 39 97 95 d0 b2 06 a4 3f
       0.03863866732960038 0.03911360546298543
000200 0b 8c 97 bc 3a d7 a5 3f ad 80 17 46 af cc a5 bf
       0.042657695313913356 -0.04257724505055314
000210 a3 c1 98 6e 63 f6 a6 bf 78 b0 92 9a c4 55 a1 bf
       -0.04484854435975485 -0.033857482785010384
000220 90 d2 98 79 16 06 a7 3f ca 9f 15 43 a4 0e a4 bf
       0.0449683211740296 -0.03917420691396918
000230 70 e8 18 91 60 1a a7 bf 55 56 16 f7 f5 b7 94 3f
       -0.04512311717231021 0.020233004766473012
000240 ce 88 16 ce c7 e6 94 bf dc d7 16 50 1a 30 85 bf
       -0.0204116076980732 -0.010345655030373928
000250 86 fe 92 c8 2a 9e a1 bf 46 67 19 44 05 90 87 bf
       -0.034409844383387386 -0.01150516618797649
000260 a5 e0 1f 42 4b 91 9d bf e1 be 17 4b 61 06 96 3f
       -0.028874565039558892 0.02150871296720325
000270 9d 39 14 69 6c c2 a2 bf c0 44 19 00 00 70 a7 3f
       -0.03663958342268645 0.04577636719899081
000280 a2 63 11 9f 0c 21 90 3f 8c 43 95 29 16 b9 a3 3f
       0.01575107308267188 0.03852147348027932
000290 b9 5e 94 b0 d7 e4 a2 3f f9 eb 1a a7 8d f8 98 bf
       0.036902180009005865 -0.024385655712404006
0002a0 0d 03 15 f4 43 7d 93 bf b6 a4 95 73 35 13 a4 3f
       -0.019032537243449933 0.03920905147499225
0002b0 71 31 99 cb 16 5e a7 bf 53 8c 16 ca 09 ea 94 3f
       -0.04563971743900453 0.020424035033681353
0002c0 0a 17 22 7e a5 9e 9f bf c0 44 19 00 00 70 a7 3f
       -0.030878625701482178 0.04577636719899081
0002d0 da 0e 99 ed 00 3e a7 3f c0 44 19 00 00 70 a7 3f
       0.0453949251209715 0.04577636719899081
0002e0 d0 ce 1d b0 d9 a5 8b bf 7c 15 95 26 5d 8e a3 bf
       -0.013499928176066517 -0.038195525130997304
0002f0 e7 0d 12 c6 fb be a0 3f c0 44 19 00 00 70 a7 bf
       0.03270708840230068 -0.04577636719899081
000300 c0 44 19 00 00 70 a7 3f f3 f3 11 b0 e8 a6 70 bf
       0.04577636719899081 -0.004065426766030267
000310 cb ad 14 53 2f 2e 93 bf dd 0f 97 eb 0b 64 a5 3f
       -0.01873086876473255 0.04177891970496692
000320 c0 44 19 00 00 70 a7 3f 30 40 14 ef 85 c8 92 bf
       0.04577636719899081 -0.018343060223799224
000330 c0 44 19 00 00 70 a7 bf 9d 64 1c c2 e6 55 8a bf
       -0.04577636719899081 -0.012859156416697376
000340 ca cb 15 04 74 37 a4 3f 9c 84 12 4c 16 2d a1 bf
       0.039485574244188706 -0.03354711226098425
000350 9e 1a 17 e0 05 6e a5 3f c0 44 19 00 00 70 a7 3f
       0.041855033497588 0.04577636719899081
000360 86 b2 1d d8 9e 8b 7b bf 96 45 13 13 14 e0 a1 bf
       -0.006724949345749414 -0.03491270764210268
000370 e2 42 15 34 78 b8 73 bf 63 e7 1f de 8a 97 8d bf
       -0.00481459574196272 -0.014449200538354473
000380 aa e0 93 12 eb 6f a2 3f 24 db 15 80 b2 45 a4 3f
       0.036010118501452595 0.03959424794714142
000390 9c 1b 1f 20 89 da 9c 3f 6c b8 17 17 64 00 a6 3f
       0.028177397332708062 0.04297173292057796
0003a0 bb 46 1c 0e 2f 3a 8a bf 82 5e 1a 58 56 75 68 3f
       -0.012806289308659449 0.0029856382760263265
0003b0 ed 42 15 75 82 b8 a3 3f 56 ee 16 b7 f3 44 a5 bf
       0.03851707152592163 -0.041541687106896916
0003c0 32 0f 21 97 eb a9 9e 3f d6 06 1a f0 05 24 98 3f
       0.029945069407644805 0.023574917583124876
0003d0 2b b7 1c c9 79 a2 9a bf 70 11 20 af 8d be 9d bf
       -0.026010420703804698 -0.029047216237829188
0003e0 14 7f 18 fd a6 b8 96 3f 45 d3 96 bc d7 2b a5 bf
       0.022188767621741226 -0.041350118418825
0003f0 e0 47 22 af f1 cb 9f 3f a6 11 22 38 a5 99 9f bf
       0.031051422418904795 -0.030859548140613
000400 66 23 20 5b 35 cf 9d 3f a1 ee 96 ce 38 45 a5 3f
       0.02911074989973219 0.04154374620290225
000410 92 71 94 c3 53 f6 a2 bf 06 f7 98 30 e8 27 a7 bf
       -0.037035577415937784 -0.04522634118300854
000420 d0 0d 1f c2 bc cd 8c bf f6 db 1d b6 0d b2 9b 3f
       -0.014064287828552319 0.027046407928960257
000430 c2 c6 1c 78 ee b0 8a bf c0 44 19 00 00 70 a7 bf
       -0.01303278259328822 -0.04577636719899081
000440 4e 12 98 1b c3 53 a6 3f 50 dd 1d 0c 4d b3 8b bf
       0.04360780441132715 -0.013525583202620567
000450 c0 44 19 00 00 70 a7 3f 00 b1 21 00 00 40 8f 3f
       0.04577636719899081 0.01525878906633027
000460 9c 28 14 d0 a6 b2 82 bf 18 de 20 e6 60 7c 8e 3f
       -0.00912981340890822 0.014885670683823668
000470 e7 98 91 ca 75 52 a0 3f a4 09 1e 6a 6b dc 9b bf
       0.031879120805386844 -0.02720802149952707
000480 42 e9 1f 34 47 99 8d bf ad d9 17 93 3c 1f 96 3f
       -0.014452511099069757 0.02160353324685509
000490 8e ac 94 22 09 2d a3 bf 0c eb 91 ac a6 9e a0 3f
       -0.03745297000053781 0.032460411611245105
0004a0 ea 80 16 51 74 df 94 3f cc f1 1a f4 f4 fd 78 bf
       0.020383660744870115 -0.00610156712508254
0004b0 ea 2a 20 06 2e d6 9d 3f 0b a5 98 64 dd db a6 3f
       0.029137343524818705 0.044646185426538386
0004c0 c0 44 19 00 00 70 a7 3f 92 09 94 73 dc 95 a2 3f
       0.04577636719899081 0.03629959975116316
0004d0 c0 44 19 00 00 70 a7 3f e0 67 12 8b 6f 12 a1 bf
       0.04577636719899081 -0.03334377834944724
0004e0 ba d3 1f e6 4e 85 8d 3f c0 44 19 00 00 70 a7 bf
       0.014414421460949945 -0.04577636719899081
0004f0 a7 1b 94 e8 a1 a6 a2 bf d2 51 16 30 c6 b3 94 bf
       -0.03642755474179831 -0.020217034039505873
000500 c0 44 19 00 00 70 a7 bf 22 5c 97 c8 c9 aa a5 3f
       -0.04577636719899081 0.0423186356890073
000510 b8 43 1d 52 d7 24 9b bf 4a 76 12 ee cc 1f a1 3f
       -0.026507725130901355 0.03344574361947801
000520 60 99 1f 62 31 4f 9d 3f e6 bc 13 a4 be 4e 92 bf
       0.02862240945241845 -0.017878512157889846
000530 9a 04 20 5e a4 b2 9d bf 16 0b 14 06 46 97 a2 3f
       -0.02900177788251721 0.03631037544439246
000540 c0 44 19 00 00 70 a7 bf 3e 78 1d 00 8f 55 9b 3f
       -0.04577636719899081 0.02669356764032948
000550 2c 24 13 7b 16 c1 a1 3f aa dd 98 3d 61 10 a7 3f
       0.03467626812341282 0.04504684330862159
000560 13 18 14 8b 50 a3 92 bf c0 44 19 00 00 70 a7 3f
       -0.018201120842626105 0.04577636719899081
000570 c0 44 19 00 00 70 a7 3f 9d 3a 98 65 26 79 a6 3f
       0.04577636719899081 0.0438930510537052
000580 2d 55 1b 1f 22 5a 99 bf 55 b8 12 09 10 5d 91 bf
       -0.02475789370403907 -0.01695656829240762
000590 c0 44 19 00 00 70 a7 3f 3c 93 1b f6 b1 93 99 bf
       0.04577636719899081 -0.02497747482893263
0005a0 b5 8e 1c 5d f2 7c 9a bf f2 47 11 ea 5d 07 a0 bf
       -0.02586725896175209 -0.03130620462674462
0005b0 b0 20 99 c4 8c 4e a7 3f 4e 3a 96 72 f6 9d a4 bf
       0.045521162985609265 -0.040267659652375984
0005c0 6e 1a 12 df 9a ca a0 3f 0a 11 98 53 96 52 a6 bf
       0.03279575322180937 -0.04359884043154423
0005d0 2a c8 13 6c 32 59 a2 bf 59 bb 12 db db 5f 91 bf
       -0.035836768811251155 -0.016967234846272692
0005e0 54 a4 1d c6 72 7e 9b bf 1f 28 17 6b 8c 7a 95 bf
       -0.0268495496197015 -0.020975297962458336
0005f0 81 10 18 21 17 52 a6 bf 4b 8c 15 5b 8f fc a3 bf
       -0.04359504965762629 -0.03903625475756963
000600 ed 64 1c 71 32 56 9a bf a2 56 1b 50 7c 5b 99 3f
       -0.02571944060682523 0.02476305235798882
000610 b7 90 1a 32 e9 a3 98 bf ea 4f 1f 0c 0d 0b 9d 3f
       -0.024062770541278335 0.028362468590628888
000620 fe 9f 18 e8 2e d7 76 3f c0 44 19 00 00 70 a7 3f
       0.0055763084688251734 0.04577636719899081
000630 19 19 12 7d 5d c9 a0 3f d0 0d 14 82 cc 99 a2 bf
       0.03278629447690857 -0.03632964218015966
000640 c0 44 19 00 00 70 a7 bf a6 61 93 e4 1b fa a1 3f
       -0.04577636719899081 0.03511130490523166
000650 ba c2 19 16 d9 e4 97 bf c0 44 19 00 00 70 a7 3f
       -0.0233339233149674 0.04577636719899081
000660 c4 2d 16 a4 55 92 74 3f ac 78 16 c6 cf d7 94 bf
       0.0050223679876454964 -0.02035450598270276
000670 c0 44 19 00 00 70 a7 3f 61 1f 17 3f 70 72 a5 3f
       0.04577636719899081 0.041888721181350126
000680 d2 52 93 68 5a ec a1 3f 52 23 17 4e 17 76 95 3f
       0.03500635649257834 0.020958294049509725
000690 80 fe 91 d0 b1 b0 a0 3f 23 06 13 28 3a a5 91 3f
       0.03259807272934001 0.017231854148809355
0006a0 00 b1 21 00 00 40 8f 3f 14 06 1b 62 c4 10 99 3f
       0.01525878906633027 0.02447802399433925
0006b0 a1 cd 95 c2 29 39 a4 3f c0 44 19 00 00 70 a7 3f
       0.039498620036194206 0.04577636719899081
0006c0 c3 5e 18 a6 ad 9a a6 3f 18 e9 15 7d a3 52 a4 bf
       0.04414885189561126 -0.039692982691990675
0006d0 52 5f 96 05 4b c0 a4 bf 86 00 1d 3e 84 e6 8a 3f
       -0.04052957957463711 0.013134987969920308
0006e0 9e 4d 1e 04 79 1b 9c bf a8 54 14 cc 81 db a2 bf
       -0.027448550106397122 -0.03683095565990274
0006f0 0a 11 21 17 a1 ab 9e 3f f8 e4 95 c0 cf 4e a4 bf
       0.02995158866566875 -0.03966378427407763
000700 c8 8f 21 4e 30 21 8f 3f 0e 95 91 b4 e4 4e a0 bf
       0.015200021156665758 -0.031851908723902964
000710 ec 5f 1a 42 a7 76 88 3f b8 37 17 08 04 89 95 bf
       0.011945063309482827 -0.02103048610097577
000720 96 b4 1a 49 2e c5 98 bf e8 5c 20 1e 8d 04 9e 3f
       -0.024189685069974397 0.029314236606379135
000730 6e c8 12 d0 fd 6b 71 3f 36 d3 13 f5 71 63 92 bf
       0.004253379303167033 -0.017957478125896396
000740 dd 33 13 11 a4 cf a1 bf c6 7c 92 36 d1 25 a1 bf
       -0.03478729923663313 -0.03349164763607741
000750 c0 44 19 00 00 70 a7 bf 1a 31 12 af a1 df 90 bf
       -0.04577636719899081 -0.01647808676766358
000760 30 01 1e 8e 95 d4 8b 3f ed 1c 20 b6 35 c9 9d 3f
       0.013589065932820249 0.029087867013029834
000770 6a bd 1b 96 d1 ba 99 3f cc 3f 1d ae 33 21 9b bf
       0.025126719271552224 -0.02649384260377001
000780 0a e7 18 0c 14 19 a7 3f 72 de 15 ae c2 48 84 bf
       0.04511320731803721 -0.009904404580751012
000790 87 4a 91 70 c3 09 a0 bf b9 13 16 12 2d 7a 94 bf
       -0.03132448910823365 -0.019997314671417608
0007a0 00 b1 21 00 00 40 8f 3f 23 08 22 6e d2 90 9f bf
       0.01525878906633027 -0.03082588956068134
0007b0 6e 07 18 52 ad 49 a6 3f d5 3d 1f 1a 47 fa 9c bf
       0.043530861159537845 -0.0282984838193537
0007c0 41 74 96 b3 b6 d3 a4 3f 64 44 17 d2 c4 94 95 bf
       0.04067774717552953 -0.021075320551805624
0007d0 a0 8b 21 fa 55 1d 9f 3f e0 45 1e a3 4a 14 9c bf
       0.030385344878947174 -0.027421156125972845
0007e0 ce f2 94 49 32 6e a3 bf c0 44 19 00 00 70 a7 bf
       -0.037950107080609294 -0.04577636719899081
0007f0 26 09 1f 50 6a c9 9c bf 0e 12 17 a6 15 66 95 3f
       -0.028112088337146755 0.020897234213196163

embed.bias f8 [32]
000000 fa 43 21 cb e0 da 9e bf 9d 08 22 b0 44 91 8f bf
       -0.030131828687732544 -0.015413796067381741
000010 c0 44 19 00 00 70 a7 bf ae d6 11 78 c3 8b 60 bf
       -0.04577636719899081 -0.0020197694544162514
000020 6b 33 14 38 ad bc 92 bf 52 ac 18 aa 9d e2 a6 bf
       -0.01829786925104619 -0.04469769193050212
000030 ad c2 20 ab f1 62 9e bf 32 8b 14 81 17 0e 93 3f
       -0.029674316472837848 0.01860844350188557
000040 2e f5 93 a1 f3 82 a2 3f 23 7a 14 b3 45 fe 92 bf
       0.03615533206355291 -0.01854809670941838
000050 72 6b 1d f0 af 49 9b bf 52 35 15 80 e3 ab 63 3f
       -0.026648282080127435 0.00240129884392696
000060 23 11 1c 78 79 08 9a bf eb f3 92 b7 54 94 a1 bf
       -0.02542295260993045 -0.03433480015653586
000070 e1 7e 11 d6 52 3a 80 bf 63 9c 1f 40 fb 51 7d bf
       -0.007923743398520812 -0.007158261725613266
000080 12 42 13 a0 d0 dc 41 3f c0 44 19 00 00 70 a7 bf
       0.0005451220205490734 -0.04577636719899081
000090 2e 90 12 d5 d2 37 91 bf b3 d0 91 d0 36 86 a0 bf
       -0.01681451249591264 -0.032273972473292466
0000a0 6d 08 15 52 40 82 93 3f c0 44 19 00 00 70 a7 bf
       0.019051556596658182 -0.04577636719899081
0000b0 84 ff 18 8c c8 2f 97 3f 6a c3 1d 9c 48 9b 9b bf
       0.022643216658479584 -0.026959547546940334
0000c0 30 cc 13 80 ed 5c 82 bf c0 44 19 00 00 70 a7 bf
       -0.008966308089361247 -0.04577636719899081
0000d0 06 b6 19 7c 10 d9 77 bf 8b 71 19 3b 8c 99 97 bf
       -0.005822243112203923 -0.023046675784244946
0000e0 bb 5a 91 95 cb 18 a0 3f 9d 97 12 81 b6 3e a1 bf
       0.03143917275217719 -0.03368158650964335
0000f0 d9 27 18 19 be 67 a6 bf 56 5f 21 dd 41 f4 9e bf
       -0.04376024299934018 -0.03022864257977117

pos_enc.pe f8 [1, 12, 32]
000000 00 00 00 00 00 00 00 00 4c c1 17 00 a0 08 a6 3f
       0.0 0.043034553538634585
000010 00 00 00 00 00 00 00 00 4c c1 17 00 a0 08 a6 3f
       0.0 0.043034553538634585
000020 00 00 00 00 00 00 00 00 4c c1 17 00 a0 08 a6 3f
       0.0 0.043034553538634585
000030 00 00 00 00 00 00 00 00 4c c1 17 00 a0 08 a6 3f
       0.0 0.043034553538634585
000040 00 00 00 00 00 00 00 00 4c c1 17 00 a0 08 a6 3f
       0.0 0.043034553538634585
000050 00 00 00 00 00 00 00 00 4c c1 17 00 a0 08 a6 3f
       0.0 0.043034553538634585
000060 00 00 00 00 00 00 00 00 4c c1 17 00 a0 08 a6 3f
       0.0 0.043034553538634585
000070 00 00 00 00 00 00 00 00 4c c1 17 00 a0 08 a6 3f
       0.0 0.043034553538634585
000080 00 00 00 00 00 00 00 00 4c c1 17 00 a0 08 a6 3f
       0.0 0.043034553538634585
000090 00 00 00 00 00 00 00 00 4c c1 17 00 a0 08 a6 3f
       0.0 0.043034553538634585
0000a0 00 00 00 00 00 00 00 00 4c c1 17 00 a0 08 a6 3f
       0.0 0.043034553538634585
0000b0 00 00 00 00 00 00 00 00 4c c1 17 00 a0 08 a6 3f
       0.0 0.043034553538634585
0000c0 00 00 00 00 00 00 00 00 4c c1 17 00 a0 08 a6 3f
       0.0 0.043034553538634585
0000d0 00 00 00 00 00 00 00 00 4c c1 17 00 a0 08 a6 3f
       0.0 0.043034553538634585
0000e0 00 00 00 00 00 00 00 00 4c c1 17 00 a0 08 a6 3f
       0.0 0.043034553538634585
0000f0 00 00 00 00 00 00 00 00 4c c1 17 00 a0 08 a6 3f
       0.0 0.043034553538634585
000100 4c c1 17 00 a0 08 a6 3f 4c c1 17 00 a0 08 a6 3f
       0.043034553538634585 0.043034553538634585
000110 4c c1 17 00 a0 08 a6 3f 4c c1 17 00 a0 08 a6 3f
       0.043034553538634585 0.043034553538634585
000120 4c c1 17 00 a0 08 a6 3f 4c c1 17 00 a0 08 a6 3f
       0.043034553538634585 0.043034553538634585
000130 4c c1 17 00 a0 08 a6 3f 4c c1 17 00 a0 08 a6 3f
       0.043034553538634585 0.043034553538634585
000140 4c c1 17 00 a0 08 a6 3f 4c c1 17 00 a0 08 a6 3f
       0.043034553538634585 0.043034553538634585
000150 4c c1 17 00 a0 08 a6 3f 4c c1 17 00 a0 08 a6 3f
       0.043034553538634585 0.043034553538634585
000160 4c c1 17 00 a0 08 a6 3f 4c c1 17 00 a0 08 a6 3f
       0.043034553538634585 0.043034553538634585
000170 4c c1 17 00 a0 08 a6 3f 4c c1 17 00 a0 08 a6 3f
       0.043034553538634585 0.043034553538634585
000180 4c c1 17 00 a0 08 a6 3f 4c c1 17 00 a0 08 a6 3f
       0.043034553538634585 0.043034553538634585
000190 4c c1 17 00 a0 08 a6 3f 4c c1 17 00 a0 08 a6 3f
       0.043034553538634585 0.043034553538634585
0001a0 4c c1 17 00 a0 08 a6 3f 4c c1 17 00 a0 08 a6 3f
       0.043034553538634585 0.043034553538634585
0001b0 fb c6 96 41 72 20 a5 3f 4c c1 17 00 a0 08 a6 3f
       0.04126317072531368 0.043034553538634585
0001c0 ee 73 11 b7 2b 30 a0 3f 4c c1 17 00 a0 08 a6 3f
       0.0316175137493032 0.043034553538634585
0001d0 71 2d 1a 71 d4 47 98 3f 4c c1 17 00 a0 08 a6 3f
       0.02371150913545023 0.043034553538634585
0001e0 95 a1 13 cd 68 35 92 3f 4c c1 17 00 a0 08 a6 3f
       0.017781865612876386 0.043034553538634585
0001f0 7c 71 1d 82 4a 4f 8b 3f 4c c1 17 00 a0 08 a6 3f
       0.013334829421801635 0.043034553538634585
000200 4c c1 17 00 a0 08 a6 3f 4c c1 17 00 a0 08 a6 bf
       0.043034553538634585 -0.043034553538634585
000210 4c c1 17 00 a0 08 a6 3f 4c c1 17 00 a0 08 a6 3f
       0.043034553538634585 0.043034553538634585
000220 4c c1 17 00 a0 08 a6 3f 4c c1 17 00 a0 08 a6 3f
       0.043034553538634585 0.043034553538634585
000230 4c c1 17 00 a0 08 a6 3f 4c c1 17 00 a0 08 a6 3f
       0.043034553538634585 0.043034553538634585
000240 4c c1 17 00 a0 08 a6 3f 4c c1 17 00 a0 08 a6 3f
       0.043034553538634585 0.043034553538634585
000250 4c c1 17 00 a0 08 a6 3f 4c c1 17 00 a0 08 a6 3f
       0.043034553538634585 0.043034553538634585
000260 4c c1 17 00 a0 08 a6 3f 4c c1 17 00 a0 08 a6 3f
       0.043034553538634585 0.043034553538634585
000270 4c c1 17 00 a0 08 a6 3f 4c c1 17 00 a0 08 a6 3f
       0.043034553538634585 0.043034553538634585
000280 4c c1 17 00 a0 08 a6 3f 4c c1 17 00 a0 08 a6 3f
       0.043034553538634585 0.043034553538634585
000290 4c c1 17 00 a0 08 a6 3f 4c c1 17 00 a0 08 a6 3f
       0.043034553538634585 0.043034553538634585
0002a0 4c c1 17 00 a0 08 a6 3f 4c c1 17 00 a0 08 a6 3f
       0.043034553538634585 0.043034553538634585
0002b0 4c c1 17 00 a0 08 a6 3f 4c c1 17 00 a0 08 a6 3f
       0.043034553538634585 0.043034553538634585
0002c0 4c c1 17 00 a0 08 a6 3f 4c c1 17 00 a0 08 a6 3f
       0.043034553538634585 0.043034553538634585
0002d0 9d 68 17 68 5d b6 a5 3f 4c c1 17 00 a0 08 a6 3f
       0.042406958538508045 0.043034553538634585
0002e0 c8 a0 93 1a ab 34 a2 3f 4c c1 17 00 a0 08 a6 3f
       0.03555807780668513 0.043034553538634585
0002f0 d0 70 1d 5a aa 4e 9b 3f 4c c1 17 00 a0 08 a6 3f
       0.02666727232950522 0.043034553538634585
000300 4c c1 17 00 a0 08 a6 3f 4c c1 17 00 a0 08 a6 bf
       0.043034553538634585 -0.043034553538634585
000310 4c c1 17 00 a0 08 a6 3f 4c c1 17 00 a0 08 a6 bf
       0.043034553538634585 -0.043034553538634585
000320 4c c1 17 00 a0 08 a6 3f 4c c1 17 00 a0 08 a6 bf
       0.043034553538634585 -0.043034553538634585
000330 4c c1 17 00 a0 08 a6 3f 4c c1 17 00 a0 08 a6 3f
       0.043034553538634585 0.043034553538634585
000340 4c c1 17 00 a0 08 a6 3f 4c c1 17 00 a0 08 a6 3f
       0.043034553538634585 0.043034553538634585
000350 4c c1 17 00 a0 08 a6 3f 4c c1 17 00 a0 08 a6 3f
       0.043034553538634585 0.043034553538634585
000360 4c c1 17 00 a0 08 a6 3f 4c c1 17 00 a0 08 a6 3f
       0.043034553538634585 0.043034553538634585
000370 4c c1 17 00 a0 08 a6 3f 4c c1 17 00 a0 08 a6 3f
       0.043034553538634585 0.043034553538634585
000380 4c c1 17 00 a0 08 a6 3f 4c c1 17 00 a0 08 a6 3f
       0.043034553538634585 0.043034553538634585
000390 4c c1 17 00 a0 08 a6 3f 4c c1 17 00 a0 08 a6 3f
       0.043034553538634585 0.043034553538634585
0003a0 4c c1 17 00 a0 08 a6 3f 4c c1 17 00 a0 08 a6 3f
       0.043034553538634585 0.043034553538634585
0003b0 4c c1 17 00 a0 08 a6 3f 4c c1 17 00 a0 08 a6 3f
       0.043034553538634585 0.043034553538634585
0003c0 4c c1 17 00 a0 08 a6 3f 4c c1 17 00 a0 08 a6 3f
       0.043034553538634585 0.043034553538634585
0003d0 4c c1 17 00 a0 08 a6 3f 4c c1 17 00 a0 08 a6 3f
       0.043034553538634585 0.043034553538634585
0003e0 16 a7 17 db 50 f0 a5 3f 4c c1 17 00 a0 08 a6 3f
       0.04284908937900249 0.043034553538634585
0003f0 c5 13 16 ca 38 7a a4 3f 4c c1 17 00 a0 08 a6 3f
       0.03999497858880078 0.043034553538634585
000400 4c c1 17 00 a0 08 a6 bf 4c c1 17 00 a0 08 a6 bf
       -0.043034553538634585 -0.043034553538634585
000410 4c c1 17 00 a0 08 a6 3f 4c c1 17 00 a0 08 a6 bf
       0.043034553538634585 -0.043034553538634585
000420 4c c1 17 00 a0 08 a6 3f 4c c1 17 00 a0 08 a6 bf
       0.043034553538634585 -0.043034553538634585
000430 4c c1 17 00 a0 08 a6 3f 4c c1 17 00 a0 08 a6 bf
       0.043034553538634585 -0.043034553538634585
000440 4c c1 17 00 a0 08 a6 3f 4c c1 17 00 a0 08 a6 3f
       0.043034553538634585 0.043034553538634585
000450 4c c1 17 00 a0 08 a6 3f 4c c1 17 00 a0 08 a6 3f
       0.043034553538634585 0.043034553538634585
000460 4c c1 17 00 a0 08 a6 3f 4c c1 17 00 a0 08 a6 3f
       0.043034553538634585 0.043034553538634585
000470 4c c1 17 00 a0 08 a6 3f 4c c1 17 00 a0 08 a6 3f
       0.043034553538634585 0.043034553538634585
000480 4c c1 17 00 a0 08 a6 3f 4c c1 17 00 a0 08 a6 3f
       0.043034553538634585 0.043034553538634585
000490 4c c1 17 00 a0 08 a6 3f 4c c1 17 00 a0 08 a6 3f
       0.043034553538634585 0.043034553538634585
0004a0 4c c1 17 00 a0 08 a6 3f 4c c1 17 00 a0 08 a6 3f
       0.043034553538634585 0.043034553538634585
0004b0 4c c1 17 00 a0 08 a6 3f 4c c1 17 00 a0 08 a6 3f
       0.043034553538634585 0.043034553538634585
0004c0 4c c1 17 00 a0 08 a6 3f 4c c1 17 00 a0 08 a6 3f
       0.043034553538634585 0.043034553538634585
0004d0 4c c1 17 00 a0 08 a6 3f 4c c1 17 00 a0 08 a6 3f
       0.043034553538634585 0.043034553538634585
0004e0 4c c1 17 00 a0 08 a6 3f 4c c1 17 00 a0 08 a6 3f
       0.043034553538634585 0.043034553538634585
0004f0 03 a7 97 0e 3e f0 a5 3f 4c c1 17 00 a0 08 a6 3f
       0.042848529130266065 0.043034553538634585
000500 4c c1 17 00 a0 08 a6 bf 4c c1 17 00 a0 08 a6 3f
       -0.043034553538634585 0.043034553538634585
000510 4c c1 17 00 a0 08 a6 bf 4c c1 17 00 a0 08 a6 bf
       -0.043034553538634585 -0.043034553538634585
000520 4c c1 17 00 a0 08 a6 3f 4c c1 17 00 a0 08 a6 bf
       0.043034553538634585 -0.043034553538634585
000530 4c c1 17 00 a0 08 a6 3f 4c c1 17 00 a0 08 a6 bf
       0.043034553538634585 -0.043034553538634585
000540 4c c1 17 00 a0 08 a6 3f fc d5 16 00 5d 2e 85 bf
       0.043034553538634585 -0.010342337193701027
000550 4c c1 17 00 a0 08 a6 3f 4c c1 17 00 a0 08 a6 3f
       0.043034553538634585 0.043034553538634585
000560 4c c1 17 00 a0 08 a6 3f 4c c1 17 00 a0 08 a6 3f
       0.043034553538634585 0.043034553538634585
000570 4c c1 17 00 a0 08 a6 3f 4c c1 17 00 a0 08 a6 3f
       0.043034553538634585 0.043034553538634585
000580 4c c1 17 00 a0 08 a6 3f 4c c1 17 00 a0 08 a6 3f
       0.043034553538634585 0.043034553538634585
000590 4c c1 17 00 a0 08 a6 3f 4c c1 17 00 a0 08 a6 3f
       0.043034553538634585 0.043034553538634585
0005a0 4c c1 17 00 a0 08 a6 3f 4c c1 17 00 a0 08 a6 3f
       0.043034553538634585 0.043034553538634585
0005b0 4c c1 17 00 a0 08 a6 3f 4c c1 17 00 a0 08 a6 3f
       0.043034553538634585 0.043034553538634585
0005c0 4c c1 17 00 a0 08 a6 3f 4c c1 17 00 a0 08 a6 3f
       0.043034553538634585 0.043034553538634585
0005d0 4c c1 17 00 a0 08 a6 3f 4c c1 17 00 a0 08 a6 3f
       0.043034553538634585 0.043034553538634585
0005e0 4c c1 17 00 a0 08 a6 3f 4c c1 17 00 a0 08 a6 3f
       0.043034553538634585 0.043034553538634585
0005f0 4c c1 17 00 a0 08 a6 3f 4c c1 17 00 a0 08 a6 3f
       0.043034553538634585 0.043034553538634585
000600 4c c1 17 00 a0 08 a6 bf 4c c1 17 00 a0 08 a6 3f
       -0.043034553538634585 0.043034553538634585
000610 4c c1 17 00 a0 08 a6 bf 4c c1 17 00 a0 08 a6 bf
       -0.043034553538634585 -0.043034553538634585
000620 4c c1 17 00 a0 08 a6 bf 4c c1 17 00 a0 08 a6 bf
       -0.043034553538634585 -0.043034553538634585
000630 4c c1 17 00 a0 08 a6 3f 4c c1 17 00 a0 08 a6 bf
       0.043034553538634585 -0.043034553538634585
000640 4c c1 17 00 a0 08 a6 3f 4c c1 17 00 a0 08 a6 bf
       0.043034553538634585 -0.043034553538634585
000650 4c c1 17 00 a0 08 a6 3f 4c c1 17 00 a0 08 a6 3f
       0.043034553538634585 0.043034553538634585
000660 4c c1 17 00 a0 08 a6 3f 4c c1 17 00 a0 08 a6 3f
       0.043034553538634585 0.043034553538634585
000670 4c c1 17 00 a0 08 a6 3f 4c c1 17 00 a0 08 a6 3f
       0.043034553538634585 0.043034553538634585
000680 4c c1 17 00 a0 08 a6 3f 4c c1 17 00 a0 08 a6 3f
       0.043034553538634585 0.043034553538634585
000690 4c c1 17 00 a0 08 a6 3f 4c c1 17 00 a0 08 a6 3f
       0.043034553538634585 0.043034553538634585
0006a0 4c c1 17 00 a0 08 a6 3f 4c c1 17 00 a0 08 a6 3f
       0.043034553538634585 0.043034553538634585
0006b0 4c c1 17 00 a0 08 a6 3f 4c c1 17 00 a0 08 a6 3f
       0.043034553538634585 0.043034553538634585
0006c0 4c c1 17 00 a0 08 a6 3f 4c c1 17 00 a0 08 a6 3f
       0.043034553538634585 0.043034553538634585
0006d0 4c c1 17 00 a0 08 a6 3f 4c c1 17 00 a0 08 a6 3f
       0.043034553538634585 0.043034553538634585
0006e0 4c c1 17 00 a0 08 a6 3f 4c c1 17 00 a0 08 a6 3f
       0.043034553538634585 0.043034553538634585
0006f0 4c c1 17 00 a0 08 a6 3f 4c c1 17 00 a0 08 a6 3f
       0.043034553538634585 0.043034553538634585
000700 4c c1 17 00 a0 08 a6 3f 4c c1 17 00 a0 08 a6 3f
       0.043034553538634585 0.043034553538634585
000710 4c c1 17 00 a0 08 a6 bf 4c c1 17 00 a0 08 a6 3f
       -0.043034553538634585 0.043034553538634585
000720 4c c1 17 00 a0 08 a6 bf 4c c1 17 00 a0 08 a6 bf
       -0.043034553538634585 -0.043034553538634585
000730 4c c1 17 00 a0 08 a6 3f 4c c1 17 00 a0 08 a6 bf
       0.043034553538634585 -0.043034553538634585
000740 4c c1 17 00 a0 08 a6 3f 4c c1 17 00 a0 08 a6 bf
       0.043034553538634585 -0.043034553538634585
000750 4c c1 17 00 a0 08 a6 3f 4c c1 17 00 a0 08 a6 bf
       0.043034553538634585 -0.043034553538634585
000760 4c c1 17 00 a0 08 a6 3f 4c c1 17 00 a0 08 a6 3f
       0.043034553538634585 0.043034553538634585
000770 4c c1 17 00 a0 08 a6 3f 4c c1 17 00 a0 08 a6 3f
       0.043034553538634585 0.043034553538634585
000780 4c c1 17 00 a0 08 a6 3f 4c c1 17 00 a0 08 a6 3f
       0.043034553538634585 0.043034553538634585
000790 4c c1 17 00 a0 08 a6 3f 4c c1 17 00 a0 08 a6 3f
       0.043034553538634585 0.043034553538634585
0007a0 4c c1 17 00 a0 08 a6 3f 4c c1 17 00 a0 08 a6 3f
       0.043034553538634585 0.043034553538634585
0007b0 4c c1 17 00 a0 08 a6 3f 4c c1 17 00 a0 08 a6 3f
       0.043034553538634585 0.043034553538634585
0007c0 4c c1 17 00 a0 08 a6 3f 4c c1 17 00 a0 08 a6 3f
       0.043034553538634585 0.043034553538634585
0007d0 4c c1 17 00 a0 08 a6 3f 4c c1 17 00 a0 08 a6 3f
       0.043034553538634585 0.043034553538634585
0007e0 4c c1 17 00 a0 08 a6 3f 4c c1 17 00 a0 08 a6 3f
       0.043034553538634585 0.043034553538634585
0007f0 4c c1 17 00 a0 08 a6 3f 4c c1 17 00 a0 08 a6 3f
       0.043034553538634585 0.043034553538634585

transformer_encoder.layers.0.self_attn.qlinear.weight f8 [32, 32]
000000 15 e7 1c 40 ea ce 7a bf c0 44 19 00 00 70 a7 3f
       -0.0065449858100750284 0.04577636719899081
000010 3d aa 18 09 af e0 a6 3f 10 55 21 6f b9 ea 9e 3f
       0.044682950840372083 0.030192277343606355
000020 c0 44 19 00 00 70 a7 3f cc 15 12 49 4e c6 a0 3f
       0.04577636719899081 0.032762953204876405
000030 dd ed 95 91 0f 57 a4 3f 2d 9c 1c 18 71 89 8a bf
       0.039726721307456116 -0.012957461880047283
000040 7d fe 1b 3f 2d f7 99 3f 32 38 98 33 e7 76 a6 bf
       0.025356966950310856 -0.04387590889756189
000050 c0 44 19 00 00 70 a7 3f a2 2d 1b f6 74 35 99 3f
       0.04577636719899081 0.024617984315040815
000060 00 b1 21 00 00 40 8f 3f d2 54 16 9d 8d b6 94 3f
       0.01525878906633027 0.020227635109752402
000070 c0 44 19 00 00 70 a7 3f c0 44 19 00 00 70 a7 bf
       0.04577636719899081 -0.04577636719899081
000080 21 2a 18 9a db 69 a6 3f e0 c6 13 45 00 58 a2 3f
       0.04377638107333249 0.03582764476040068
000090 9e f3 1a 15 a5 ff 98 bf 36 f4 1f be 71 a3 9d 3f
       -0.02441270772282033 0.02894380305223284
0000a0 36 b7 19 39 2a da 97 bf 00 b1 21 00 00 40 8f 3f
       -0.02329317067636013 0.01525878906633027
0000b0 20 83 18 70 67 bc 56 3f 9e b7 12 a0 65 5c a1 bf
       0.001387692464398245 -0.03390805796639927
0000c0 ca 91 95 c6 a8 01 a4 3f c0 44 19 00 00 70 a7 3f
       0.03907515930294243 0.04577636719899081
0000d0 c0 44 19 00 00 70 a7 3f 56 f9 15 6c b4 61 94 3f
       0.04577636719899081 0.019903964135204198
0000e0 67 ca 13 ac 45 5b a2 bf fd a5 1a fa a3 b7 98 bf
       -0.035852601295023594 -0.024138033046858343
0000f0 00 b1 21 00 00 40 8f bf 00 b1 21 00 00 40 8f bf
       -0.01525878906633027 -0.01525878906633027
000100 f8 cc 18 1b e6 00 97 3f 06 c4 21 11 a6 51 9f bf
       0.022464366344320447 -0.030584902568481474
000110 f8 ad 17 28 b2 f6 65 3f 62 22 15 e5 53 9a a3 3f
       0.00268111034596585 0.03828680201929015
000120 1b 07 93 61 20 a6 a1 bf 87 d1 15 4c c7 3c 94 3f
       -0.034470569525650606 0.01976310159575825
000130 f3 b0 1d d8 27 8a 7b bf a0 c0 16 bc 8c 1a a5 3f
       -0.006723552361887142 0.04121818347937389
000140 d5 a2 1c 2c 9d 8f 9a 3f 13 0c 1e 90 ac de 5b 3f
       0.025938468758939976 0.0017010388550893249
000150 c0 44 19 00 00 70 a7 bf c0 44 19 00 00 70 a7 3f
       -0.04577636719899081 0.04577636719899081
000160 ba af 11 fb a0 67 90 bf 4a 13 15 6c 53 8c 83 3f
       -0.01602031261829471 0.009544994102392974
000170 d0 1c 95 e5 28 95 a3 3f e7 f2 11 a4 f0 a5 70 3f
       0.03824737360496899 0.004064502719413033
000180 66 76 1c 64 66 66 7a 3f 66 60 1f 16 58 1a 9d bf
       0.006445312466693309 -0.02842080721879405
000190 fe 07 20 02 cb b5 8d 3f 3e cf 1d 2e 42 a6 8b 3f
       0.014506898882249427 0.013500706703531425
0001a0 ae 4a 1e c0 bf 18 3c bf 16 81 1c 80 4f 70 7a bf
       -0.0004287212506081478 -0.006454763935636506
0001b0 76 01 15 83 ca 7b a3 bf d2 d4 18 e0 2d 08 87 3f
       -0.03805382585642551 0.01124606933727038
0001c0 6b 66 14 92 fb eb a2 3f 78 41 1b ec da 47 89 bf
       0.036956655103676926 -0.012344084101102423
0001d0 c0 44 19 00 00 70 a7 bf 00 b1 21 00 00 40 8f bf
       -0.04577636719899081 -0.01525878906633027
0001e0 7b eb 94 07 67 67 a3 3f c0 44 19 00 00 70 a7 3f
       0.03789827315855284 0.04577636719899081
0001f0 46 be 1a 94 2a ce 78 bf c0 44 19 00 00 70 a7 bf
       -0.006055990526575855 -0.04577636719899081
000200 95 61 1a d0 30 78 58 bf 1e 4a 1d da c6 2a 9b 3f
       -0.00149349944005026 0.026530367911002377
000210 3f 66 12 56 ec 10 a1 bf dd e6 1a 46 d0 f3 98 bf
       -0.03333223868066825 -0.024367574957728223
000220 a4 4c 1e 98 90 1a 9c 3f 7b aa 11 60 c3 62 40 3f
       0.027445086750571904 0.0005000547390755084
000230 44 b8 93 46 73 4a a2 3f c0 44 19 00 00 70 a7 3f
       0.035724260678634795 0.04577636719899081
000240 a6 2e 16 a0 26 93 a4 3f f8 e9 1b b0 24 e4 89 bf
       0.04018517212088328 -0.012642180084630347
000250 32 3a 17 ec 4f 8b 95 3f 00 b1 21 00 00 40 8f bf
       0.021039246353945447 -0.01525878906633027
000260 f5 40 1b 57 61 47 99 3f 00 b1 21 00 00 40 8f bf
       0.02468635648875846 -0.01525878906633027
000270 00 b1 21 00 00 40 8f bf 87 7e 13 12 e5 14 92 3f
       -0.01525878906633027 0.017657832363396266
000280 39 52 17 00 99 a1 15 bf 0d fd 1f 60 a4 ab 9d bf
       -8.25166353231676e-05 -0.028975075118066452
000290 d6 05 1a a2 18 23 88 bf 0d 1d 15 c8 61 95 63 3f
       -0.011785690733861747 0.002390566806443345
0002a0 43 20 15 80 5b 98 93 3f 8d 5a 19 45 38 84 97 bf
       0.01913588494542774 -0.022965316026182726
0002b0 68 9b 1f 57 12 51 9d bf 67 d0 13 fd d5 60 92 3f
       -0.028629576270670226 0.0179475246158777
0002c0 c1 39 93 3c 1b d5 a1 bf da ec 17 cc 05 31 76 bf
       -0.03482899774973048 -0.005417845387906095
0002d0 9a 7d 98 28 48 b7 a6 bf 3a 4f 22 50 c2 d2 7f bf
       -0.04436707969238825 -0.0077693548538667005
0002e0 64 8f 91 00 a3 49 a0 bf b9 e5 18 8c db 17 87 3f
       -0.03181180364552352 0.01127597352307218
0002f0 f2 b9 16 d2 59 14 a5 3f c3 46 17 52 f7 96 a5 bf
       0.041170889754869835 -0.04216740490995854
000300 1d 1a 20 be 99 c6 9d bf c0 44 19 00 00 70 a7 bf
       -0.029077913503011133 -0.04577636719899081
000310 c0 44 19 00 00 70 a7 bf 7a d6 1e 9f 68 9a 9c 3f
       -0.04577636719899081 0.0279327723617002
000320 62 c6 15 d0 70 32 a4 bf 46 70 22 f8 69 f1 7f bf
       -0.039447331810958955 -0.007798589651567827
000330 b6 54 1f b8 7f 0f 8d bf c6 d0 20 ca 06 70 8e 3f
       -0.014189718061894712 0.014862111133063027
000340 ae ff 17 80 7c 42 76 3f c0 44 19 00 00 70 a7 3f
       0.005434500054889142 0.04577636719899081
000350 c0 44 19 00 00 70 a7 bf 07 da 11 6a dd 8e 90 bf
       -0.04577636719899081 -0.016169986342413647
000360 c0 44 19 00 00 70 a7 bf c0 44 19 00 00 70 a7 bf
       -0.04577636719899081 -0.04577636719899081
000370 c0 44 19 00 00 70 a7 bf 40 15 14 a5 b1 a0 a2 3f
       -0.04577636719899081 0.03638224735372342
000380 68 62 1e 0d c1 2e 9c bf 5e d6 14 9a d1 53 a3 bf
       -0.027522102761937367 -0.03774886136890808
000390 c0 e0 11 18 1a 95 80 3f 45 7e 12 70 34 27 81 3f
       0.008096889361908999 0.008375558538602177
0003a0 eb 31 1e de c7 01 9c 3f 61 fe 13 78 7b 8b 92 bf
       0.02735054295730947 -0.01811020775221406
0003b0 0a 75 16 78 71 d4 94 3f fd 4b 18 21 44 89 96 3f
       0.020341656641552887 0.022008003730729076
0003c0 f3 c9 92 e5 66 6d a1 bf ab 1a 13 28 45 b8 91 bf
       -0.03403779556665034 -0.017304497309647598
0003d0 00 b1 21 00 00 40 8f bf ea fb 15 c0 17 64 74 3f
       -0.01525878906633027 0.004978268408534861
0003e0 50 a3 17 e2 cf ec 85 3f 66 dd 1f c0 48 8e 3d 3f
       0.010705589377680319 0.00045098568091313793
0003f0 ee ec 93 a5 4c 7b a2 bf 00 b1 21 00 00 40 8f 3f
       -0.03609694977964205 0.01525878906633027
000400 2d a4 18 95 0f db a6 3f c0 44 19 00 00 70 a7 3f
       0.04464005179426809 0.04577636719899081
000410 20 85 1d 98 81 61 9b bf 21 d7 12 0c a0 79 a1 bf
       -0.026739144238836166 -0.03413105151541474
000420 c0 44 19 00 00 70 a7 3f 6c 19 1e 7c 0e eb 7b 3f
       0.04577636719899081 0.006815964299568083
000430 c0 44 19 00 00 70 a7 bf 7b 30 13 d8 80 cc 81 3f
       -0.04577636719899081 0.008690840334019114
000440 dc 70 11 bc 51 2d 80 bf 72 08 1b e2 f6 12 99 bf
       -0.007898939659007835 -0.024486405897512893
000450 00 b1 21 00 00 40 8f 3f c0 44 19 00 00 70 a7 bf
       0.01525878906633027 -0.04577636719899081
000460 06 f6 1f 68 20 a5 6d 3f 5c 77 19 94 f1 9e 87 3f
       0.00361877755585627 0.011533629734170318
000470 5e 94 96 b3 7f f1 a4 bf c0 44 19 00 00 70 a7 bf
       -0.04090498988379275 -0.04577636719899081
000480 10 41 12 b9 6f ee 90 3f c0 44 19 00 00 70 a7 3f
       0.01653456275067905 0.04577636719899081
000490 21 43 91 17 e7 02 a0 3f c0 44 19 00 00 70 a7 3f
       0.03127214586914407 0.04577636719899081
0004a0 c0 44 19 00 00 70 a7 bf fe e8 12 bf 31 8a a1 3f
       -0.04577636719899081 0.034257464003035296
0004b0 35 28 13 00 d4 c4 91 bf 02 d1 1d 26 e4 a7 9b bf
       -0.017352402214591407 -0.02700764162678216
0004c0 50 2b 1f a4 19 e9 7c bf 00 b1 21 00 00 40 8f 3f
       -0.0070582391362659785 0.01525878906633027
0004d0 60 55 15 51 9f c9 93 3f 4a be 13 b8 08 50 62 bf
       0.019323815654691656 -0.0022354288381547837
0004e0 cb 97 11 5d 6e 51 90 3f d4 4d 97 4c 85 9d a5 bf
       0.015935635023559585 -0.04221741256665337
0004f0 d4 11 18 12 52 53 96 3f 00 b1 21 00 00 40 8f 3f
       0.02180221782147547 0.01525878906633027
000500 20 46 98 4e d3 83 a6 bf c0 44 19 00 00 70 a7 bf
       -0.04397449812325882 -0.04577636719899081
000510 c2 b1 1c 24 74 9d 8a 3f 0c 97 18 e8 e1 ce 96 3f
       0.012995631553700874 0.022273568907755822
000520 ce de 18 f8 70 11 77 bf c0 44 19 00 00 70 a7 bf
       -0.005631867681181025 -0.04577636719899081
000530 53 13 19 29 28 42 97 3f 94 a7 13 a1 f8 3a a2 bf
       0.022713305958194607 -0.03560616461056934
000540 3d 16 20 d8 00 c3 6d bf c0 44 19 00 00 70 a7 3f
       -0.0036330238808684177 0.04577636719899081
000550 33 34 17 9b bf 85 a5 bf 30 ec 12 06 29 8d a1 bf
       -0.042036044771159096 -0.03428009223122108
000560 aa 69 1a c2 af 7f 98 bf 56 41 18 52 63 7f 96 bf
       -0.02392458555423508 -0.02197032154623576
000570 c0 44 19 00 00 70 a7 bf cb 2c 20 50 ec d7 6d 3f
       -0.04577636719899081 0.0036429992187599672
000580 a6 b4 92 47 a5 59 a1 bf c0 44 19 00 00 70 a7 bf
       -0.03388706682867708 -0.04577636719899081
000590 ee ca 16 00 1c 24 05 3f 8c f6 1b 81 cf ef 99 bf
       4.0323357107926536e-05 -0.025328867201997826
0005a0 c0 44 19 00 00 70 a7 3f 00 b1 21 00 00 40 8f bf
       0.04577636719899081 -0.01525878906633027
0005b0 76 35 1f cc 83 f2 7c 3f 1a ad 13 27 18 40 a2 3f
       0.007067217667964134 0.035645251054882546
0005c0 1e b9 93 ef 3c 4b a2 bf c0 44 19 00 00 70 a7 bf
       -0.03573027061962562 -0.04577636719899081
0005d0 c0 44 19 00 00 70 a7 bf c0 44 19 00 00 70 a7 bf
       -0.04577636719899081 -0.04577636719899081
0005e0 63 ac 91 be 88 64 a0 3f 85 06 1f cd f9 c6 9c 3f
       0.03201701475412546 0.02810278238735588
0005f0 16 23 1f 7e 79 e1 9c 3f 00 b1 21 00 00 40 8f 3f
       0.028203867266515102 0.01525878906633027
000600 2e 90 18 06 84 c8 a6 bf be a1 97 14 5b eb a5 bf
       -0.04449856352246716 -0.04281124712344163
000610 72 61 15 04 d2 d4 73 3f 3e fd 1e 30 5e be 9c bf
       0.004841633200463812 -0.02806994599063483
000620 c0 44 19 00 00 70 a7 bf c0 44 19 00 00 70 a7 bf
       -0.04577636719899081 -0.04577636719899081
000630 16 7d 18 d2 ce b6 86 bf 01 3b 13 de 43 d6 91 3f
       -0.01109086588536327 0.017418919019116966
000640 02 4b 1b 98 b2 50 69 3f 72 34 15 fb 13 ab 93 3f
       0.003090237442714084 0.019207298469428875
000650 f5 00 12 11 f9 b2 90 bf a3 af 1b 97 0a ae 99 3f
       -0.01630772749604233 0.025077977631482572
000660 c0 44 19 00 00 70 a7 bf c0 44 19 00 00 70 a7 bf
       -0.04577636719899081 -0.04577636719899081
000670 c0 44 19 00 00 70 a7 bf d8 86 91 b4 b5 41 a0 bf
       -0.04577636719899081 -0.03175132588581925
000680 35 34 1b 82 8d 3b 89 bf ad f4 21 56 c5 7e 9f bf
       -0.012320619137790792 -0.030757029897803424
000690 ba c6 1e e0 cc 8b 5c 3f 26 ab 1c c2 54 97 9a bf
       0.0017423153626449487 -0.02596790728345435
0006a0 c0 44 19 00 00 70 a7 3f e3 a5 12 aa f3 4b 91 bf
       0.04577636719899081 -0.0168912956766344
0006b0 34 cf 1f a8 1d 81 8d bf f2 d3 94 2f 91 51 a3 3f
       -0.014406425183529949 0.03773168283297669
0006c0 a8 21 1f 29 25 e0 9c bf b6 87 17 2c 36 d3 a5 bf
       -0.028198795924056747 -0.042627041704477106
0006d0 fb 46 1c a0 6a 3a 5a bf 30 4e 93 cc 0e e8 a1 bf
       -0.0016008416427592531 -0.03497358557947583
0006e0 56 26 18 36 57 66 96 bf 1a 2f 1a ff 5d 49 98 bf
       -0.02187477367082232 -0.023717373557288736
0006f0 58 02 1e fe a6 d5 8b 3f fc 1a 1d 78 0e ff 8a bf
       0.013591103200952734 -0.013181794205264101
000700 84 5c 98 33 98 98 a6 bf ba ee 1f fc 5b 9e 9d 3f
       -0.04413295392822028 0.028924405349228556
000710 d5 f7 18 d7 a7 28 97 3f 4e 69 1a cc 5a 7f 98 3f
       0.022616026404868556 0.023923319537609893
000720 33 cc 18 00 2f 00 47 bf c0 44 19 00 00 70 a7 bf
       -0.0007019261831317014 -0.04577636719899081
000730 52 f8 13 04 dc 85 72 3f 64 c9 11 b5 6f 7f a0 bf
       0.004522189557290517 -0.03222226224251548
000740 5e 1d 94 9f 39 a8 a2 bf d6 3a 18 60 5b 79 76 3f
       -0.036439705591017044 0.0054868287420634845
000750 c0 44 19 00 00 70 a7 bf e3 d8 1f 7c 18 8a 7d 3f
       -0.04577636719899081 0.007211776393879018
000760 7d 28 17 55 e3 7a 95 bf fa 96 1c be 9d 84 8a 3f
       -0.020976593082913986 0.012948257793663032
000770 00 b1 21 00 00 40 8f bf c0 44 19 00 00 70 a7 3f
       -0.01525878906633027 0.04577636719899081
000780 80 79 11 7e 55 35 80 bf 4c 9c 12 cf 0e 43 91 3f
       -0.007914226445959072 0.016857367886270944
000790 00 b1 21 00 00 40 8f bf c0 44 19 00 00 70 a7 bf
       -0.01525878906633027 -0.04577636719899081
0007a0 ad ba 15 07 95 27 a4 3f 00 b1 21 00 00 40 8f bf
       0.03936448775754307 -0.01525878906633027
0007b0 c0 44 19 00 00 70 a7 bf 39 77 12 96 ab 20 81 3f
       -0.04577636719899081 0.008363094823205951
0007c0 08 32 92 24 7e e0 a0 3f b9 64 17 11 c2 b2 95 3f
       0.03296274372505442 0.021189720433402146
0007d0 6a 4b 13 60 7b e5 61 3f c4 48 12 56 94 f5 90 3f
       0.002184620826122187 0.016561811211951008
0007e0 02 3f 1e 50 ea 0d 6c 3f c0 44 19 00 00 70 a7 3f
       0.0034246040749578164 0.04577636719899081
0007f0 7a e1 16 84 05 39 95 bf 2c 3a 21 2e c8 d1 9e bf
       -0.02072533243856032 -0.030097129645861795

transformer_encoder.layers.0.self_attn.qlinear.bias f8 [32]
000000 c0 44 19 00 00 70 a7 3f 00 b1 21 00 00 40 8f bf
       0.04577636719899081 -0.01525878906633027
000010 98 84 18 8f c4 bd a6 3f 82 c0 11 55 32 77 90 3f
       0.04441656348013473 0.01607969898435658
000020 23 95 20 b4 b3 38 8e bf 56 6d 14 20 67 f2 62 bf
       -0.01475658791975804 -0.0023128523031467436
000030 27 12 14 c8 d2 9d a2 bf 64 0d 13 d0 f4 ab 71 3f
       -0.03636034672129922 0.004314380931819659
000040 6a 78 1c e8 44 68 7a 3f 05 39 1f 03 d1 f5 9c bf
       0.006447095076309231 -0.02828146535448985
000050 00 b1 21 00 00 40 8f bf 00 81 1a c0 55 95 88 3f
       -0.01525878906633027 0.012003583836588394
000060 c6 7f 11 c0 26 3b 90 3f 3e 43 20 58 c0 ec 9d bf
       0.015850644562646975 -0.02922344720724656
000070 5e 9f 14 8b cd 20 a3 3f c6 fe 13 bb d8 8b a2 bf
       0.03735964129219725 -0.03622319492023744
000080 50 6a 15 7c 0b dd 83 3f c0 44 19 00 00 70 a7 bf
       0.009698953365547741 -0.04577636719899081
000090 36 53 94 4a 2a da a2 bf e3 49 14 ab 84 d1 a2 3f
       -0.03682071838753702 0.036754747279832654
0000a0 e2 0e 1a 18 7c 2b 68 3f 00 b1 21 00 00 40 8f bf
       0.0029504226411648385 -0.01525878906633027
0000b0 30 d4 93 ab 58 64 a2 bf 33 d7 21 50 6e 63 7f 3f
       -0.03592183203173993 0.0076631840803338845
0000c0 ca c5 1f 54 61 78 8d bf 18 04 93 0c 55 a3 a1 3f
       -0.014389763240589288 0.0344492509698357
0000d0 00 b1 21 00 00 40 8f bf 79 7d 18 21 2a b7 96 bf
       -0.01525878906633027 -0.022183092374800737
0000e0 10 39 1e b1 66 08 9c bf f6 38 12 e5 eb e6 a0 bf
       -0.027375797806194646 -0.03301179095534394
0000f0 c0 44 19 00 00 70 a7 bf 0b fb 96 12 bc 50 a5 bf
       -0.04577636719899081 -0.041631581563242724
