experiments/fl_train_noise_0.0_max_grad_norm_2.5/20250422/model_round_7.pt (torch, 62777 bytes, 25 tensors)

embed.weight f8 [32, 8]
00000000: 7bd6 1591 5f41 a4bf d23d 1e10 d10c 7c3f
00000010: 4621 97b5 3174 a5bf 5ad4 98ca be07 a7bf
00000020: ca79 1395 7f10 92bf 78e8 18e4 671a a73f
00000030: 3e07 1905 f336 97bf 7e0b 1a62 5828 983f
00000040: 1518 9833 1e59 a63f b0d5 21f0 0662 9f3f
00000050: 1845 1b46 374b 993f 5a08 1be9 e012 993f
00000060: ae1d 1be0 a826 79bf 2633 1679 5397 a43f
00000070: 0e19 17c8 926c a53f b535 181d 9974 96bf
00000080: 9a93 188c afcb a63f 2dc0 16c7 221a 953f
00000090: 3395 151a d204 943f b5d0 1734 ea16 863f
000000a0: 001b 1342 94b8 a13f 86cc 1278 ca6f 913f
000000b0: 84b3 94f7 7d33 a3bf c044 1900 0070 a73f
000000c0: 5d1e 9863 f25e a63f dbe2 18e2 3215 873f
000000d0: 449b 926c 1a42 a13f e671 1660 87d1 64bf
000000e0: 6226 1b48 bb2e 993f 6aa7 181d 11de 96bf
000000f0: 0cfd 985d 7e2d a7bf ca1d 1635 8383 a43f
00000100: 3c4d 17eb f89c a53f 34a5 1ee4 b56c 7cbf
00000110: 80ab 13c8 9b3e 823f 8e54 17b0 c3a3 a53f
00000120: de0e 967b ac75 a43f 5bb5 182c ffea 86bf
00000130: 1383 1326 1d19 a23f 0ebc 9178 1073 a03f
00000140: ccba 182a 0bf0 a63f a035 15be 2cac a3bf
00000150: 94f7 13b9 2c85 a2bf 7883 1485 ed06 933f
00000160: ac18 1da4 e9fc 7a3f c044 1900 0070 a73f
00000170: c044 1900 0070 a73f ab81 1568 b4f2 633f
00000180: ac8d 1d61 6f69 9b3f 706b 20cd 0712 9e3f
00000190: 42f4 1af0 3c00 79bf 9f64 1b9a 7568 89bf
000001a0: c044 1900 0070 a7bf 6dcf 98d8 2d03 a73f
000001b0: c044 1900 0070 a73f 63df 9865 fb11 a73f
000001c0: c044 1900 0070 a73f 9821 1b90 4a2a 693f
000001d0: d3fe 15ab ca66 a43f dc61 932f 4efa a13f
000001e0: c044 1900 0070 a73f 3ae8 1dd8 6cbd 9b3f
000001f0: 46e9 17b3 b32d a6bf c044 1900 0070 a73f
00000200: b039 18f0 4978 a63f 225e 132d d9f6 a13f
00000210: 4a41 16eb 6fa4 a43f 1952 161b 08b4 a43f
00000220: eb77 14d8 36fc 92bf e631 1461 44bb a23f
00000230: 52fa 14b6 2a75 a33f c432 9275 2ce1 a0bf
00000240: d22e 17c0 c280 a53f 85f4 1600 af4a 85bf
00000250: be96 154a 4106 843f f602 13b7 49a2 913f
00000260: dcfc 1c20 1ee3 4a3f 12c5 142e c643 a33f
00000270: 023a 997c 0866 a73f 95e9 1536 1753 843f
00000280: a670 1cab 1061 9abf 16b5 14bf f334 933f
00000290: 200b 17ad a65f a53f 3b28 931a dac4 a13f
000002a0: 762a 9875 2a6a a63f a3d0 1833 4d04 97bf
000002b0: 1b89 12ae 4131 a13f d347 942a 9bcf a23f
000002c0: ce4e 9619 fbb0 a4bf ad0f 1de0 92f4 9a3f
000002d0: 3500 1764 8655 95bf 0058 1dc0 a637 7bbf
000002e0: 8631 1fb7 ddee 9c3f f2ad 1d77 5e87 9b3f
000002f0: 4674 1148 7c30 a03f 32fe 1da4 cdd1 7bbf
00000300: c044 1900 0070 a73f 0d0c 1258 43bd 603f
00000310: ad1e 96e6 5584 a4bf 3c09 99eb cb38 a7bf
00000320: aa27 9472 c6b1 a23f 7b22 1ff6 e8e0 8cbf
00000330: 527d 1e30 b747 7c3f dae9 960a ca40 a5bf
00000340: 72ea 21a0 4875 8f3f 6252 128a 7ffe a03f
00000350: bd38 185a 6877 863f 3307 9985 e836 a73f
00000360: c044 1900 0070 a7bf e4bd 11c0 c474 703f
00000370: c044 1900 0070 a73f 6848 1260 3ff5 503f
00000380: 6799 932c d22d a23f eab3 9395 6946 a23f
00000390: 9b25 16a7 c38a a43f 22cd 139f cd5d 92bf
000003a0: 15f4 1b8b 86ed 993f 6c61 2101 30f6 9e3f
000003b0: 2a8b 96aa f5e8 a43f c044 1900 0070 a7bf
000003c0: 1319 226d 87a0 9fbf 72df 169b 2237 95bf
000003d0: cb48 203d e5f1 9dbf 4edb 9789 bf20 a63f
000003e0: 4c84 1f86 a33b 8d3f 2a7b 19e6 78a2 973f
000003f0: 6bed 18b2 fe1e a73f ab15 19cd 5444 973f
00000400: 2db9 1cd6 56a4 9abf ae33 1828 b872 963f
00000410: 190b 9792 a05f a5bf bb76 1f55 0e2f 9d3f
00000420: e2f7 19ab 2616 98bf 90be 18b2 89f3 86bf
00000430: dc8d 1b15 b68e 99bf f8a3 15ea 8512 a43f
00000440: ce2d 1397 05ca a13f 6a41 9315 36dc a13f
00000450: 3fab 1690 b806 a53f 9256 173a a1a5 853f
00000460: 0b12 13cb 45b0 91bf 5e8b 13e6 cd20 a23f
00000470: b3c4 9643 541e a53f dc17 1f80 0ed7 9cbf
00000480: 5ee0 9732 7125 a63f 8dc8 17ae 590f a63f
00000490: f388 1602 e9e6 943f c044 1900 0070 a73f
000004a0: f2ab 1108 1f64 60bf 1487 17c8 9fd2 75bf
000004b0: 7e2c 1394 cdc8 a1bf d3ca 1580 8f36 54bf
000004c0: 420c 9657 4173 a4bf 27c2 1294 2b66 813f
000004d0: c71c 9598 2095 a3bf ddf9 9372 4b87 a23f
000004e0: c044 1900 0070 a73f 9d86 19a6 17ad 97bf
000004f0: c4ae 1564 891c 843f 2e89 1a28 eb9c 883f
00000500: 9d5c 158e 56d0 833f 3e91 1fbe a547 8dbf
00000510: 0509 9414 5a95 a23f 908e 195e 76b4 873f
00000520: 6585 93af 431b a2bf 45b9 13cd 614b a2bf
00000530: 5279 169b 68d8 a4bf 4f80 1994 3ea7 97bf
00000540: 96db 17b3 0121 a63f 38b6 1298 195b 913f
00000550: ea59 97ed baa8 a53f dbd5 124a 7278 91bf
00000560: 2a25 1474 74af 823f ffb7 1156 4d6f 90bf
00000570: 8a9d 162b 02fa 943f f0b2 1d80 008c 4bbf
00000580: a623 995b 4d51 a7bf 96f5 1787 1f39 a63f
00000590: b2f0 9571 af59 a4bf 06e8 1f30 2498 9dbf
000005a0: a50b 9381 56aa a13f db35 1297 0ae4 90bf
000005b0: e3cb 2147 f058 9f3f 944c 1966 4277 97bf
000005c0: 1de5 2067 e382 9e3f e1b9 158d d826 a4bf
000005d0: d320 1782 c773 853f f29e 1d74 7479 9bbf
000005e0: 900c 1818 6f4e 66bf 2165 197a 088e 87bf
000005f0: 2617 1570 e78f 733f b9a3 923c f249 a13f
00000600: e582 18c0 30bc 463f f6fc 189d 692d a7bf
00000610: d201 19ef ea31 973f 038e 1628 9beb 743f
00000620: a536 1455 abbf a23f f0eb 16e4 b942 753f
00000630: c044 1900 0070 a73f e2ac 13e8 e33f a2bf
00000640: 944e 1863 aa8b a6bf 07de 13d4 796d 82bf
00000650: 7c04 934f b2a3 a1bf 7ef0 212c e47a 9f3f
00000660: eb3e 1fea 48fb 9c3f c686 211f d618 9f3f
00000670: 7c0c 1414 9198 723f 5e55 91a8 d113 a0bf
00000680: 383b 1b09 0f42 993f 5c04 17b8 6059 a53f
00000690: 66c0 96c7 561a a53f 28da 17d5 ae1f a63f
000006a0: 8b6e 11ee 2b2b 90bf bda7 11fc 3860 70bf
000006b0: 483f 141d aec7 a2bf 95c0 1aeb 4ed0 98bf
000006c0: 7338 99db 9664 a7bf 02e8 1abc e0f4 78bf
000006d0: ac82 1256 4a2b 913f 2e23 1b01 c42b 993f
000006e0: 52ce 11a7 0084 90bf 40e3 9199 6b97 a03f
000006f0: cc01 228c f18a 8fbf c044 1900 0070 a73f
00000700: c044 1900 0070 a73f 8ac0 13e0 1f52 a2bf
00000710: 6ee7 1456 a663 83bf 3d1f 9511 6997 a3bf
00000720: 10fb 174f 343e a63f 26e5 988f 5317 a7bf
00000730: 750b 966c 8272 a4bf ec46 1768 1d97 753f
00000740: 33ca 1980 c7eb 47bf 62c6 15d0 7032 94bf
00000750: e60c 1710 4c61 95bf b64e 15c6 71c3 933f
00000760: 9069 1fea d522 9dbf 1666 1c58 4557 8abf
00000770: 8e33 2045 32de 9d3f dee8 1d30 05be 7bbf
00000780: c044 1900 0070 a7bf e534 20a1 70df 9d3f
00000790: 8d85 189c a7be 76bf 1ac5 159d 4031 a43f
000007a0: fa36 2280 44bc 8fbf e282 145c 6206 833f
000007b0: 8c74 1cf6 ad64 9a3f c044 1900 0070 a73f
000007c0: f61f 9845 6e60 a63f 4a88 17e4 bed3 a53f
000007d0: fd2b 1b56 ee33 89bf 765f 18aa 539b a63f
000007e0: 4aba 9850 92ef a63f ad57 1498 4ede a23f
000007f0: 3343 18ba 1c81 a6bf d0dd 12f0 d37f 813f
-0.039561258755310434 0.006848160412018927 -0.0419021162193212 -0.04498096678836623 -0.017641061281091365 0.04512333545103869 -0.022670552431242934 0.02359140490308275
0.04364866618929867 0.030647381216530156 0.024700988439524257 0.02448607847942017 -0.006140384358963953 0.04021702626332617 0.041843974042011664 -0.021929161454001995
0.04452274880558278 0.02060751285688427 0.019549639551219754 0.01078589412188822 0.03461135202956278 0.01702801092023922 -0.037502228233598195 0.04577636719899081
0.043693136842247716 0.01127090218061382 0.03370745253896826 -0.002541317372289453 0.024592329288486765 -0.022331492806336874 -0.04526896374272313 0.04006586096789595
0.04221322889102416 -0.006939611923294554 0.0089084787782292 0.04226504826116538 0.03996027954693003 -0.011190408261507903 0.03534785356328576 0.03212787124436299
0.044800137413735536 -0.03842296429011616 -0.03617229232075583 0.018581115005079835 0.0065888525585419515 0.04577636719899081 0.04577636719899081 0.0024350665632228616
0.026769390394645917 0.029365655798851475 -0.0061037426364097275 -0.01240627171084646 -0.04577636719899081 0.04494612950330077 0.04577636719899081 0.04505906691741648
0.04577636719899081 0.0030719238573945866 0.0398467382283322 0.03511280375250056 0.04577636719899081 0.027089787188266913 -0.04331742821882982 0.04577636719899081
0.04388648086397795 0.035086428406142525 0.04031705612863108 0.04043603258756807 -0.018540245951150707 0.036584984636735915 0.03800328705482471 -0.03296793875879225
0.04199799151282736 -0.010396353903042286 0.009777555535673495 0.017220641898123078 0.0008205315682302777 0.03762645065797633 0.045700326165945895 0.009924107873975166
-0.025760899013321258 0.01875668386235415 0.041745384816314735 0.03470498632812321 0.04377873120764246 -0.022477346652707408 0.03357892274768145 0.03674015898481255
-0.040412756799154445 0.026323599747470606 -0.02083406434917397 -0.006644870156227611 0.028254951764937107 0.026883579273471576 0.031619914815316494 -0.00679188087985909
0.04577636719899081 0.002043372660922588 -0.04007214011931857 -0.04535519839238808 0.03651256703058377 -0.014100856791530383 0.0069043308048145225 -0.04150992755190304
0.015360419642310694 0.03319166717952694 0.01096993946978519 0.04534079199630838 -0.04577636719899081 0.00401760917257785 0.04577636719899081 0.0010350340747078638
0.035505836431002184 0.03569345427408861 0.04012118734960809 -0.017935955843268243 0.025320150604773845 0.030236005848878575 0.040839840959299004 -0.04577636719899081
-0.030885807071649184 -0.020718136516478088 -0.029243070464936943 0.04321859888653155 0.014273908167469561 0.023080719989930255 0.045158347359086935 0.022721600549876857
-0.02601752931439554 0.021921994635750224 -0.04174520291737433 0.028499816842546304 -0.02352199954338364 -0.011206699130610148 -0.024958462751681995 0.03920382006146633
0.0347444292943596 0.03488320363396975 0.041066901768621815 0.010569820008565576 -0.017273989219363666 0.03540652688550126 0.04124701809940614 -0.02816412598601646
0.04325441114991756 0.04308586359174269 0.020412102463191095 0.04577636719899081 -0.0020008665165298584 -0.005327819964323206 -0.03473513062052634 -0.0012337113733706287
-0.039941827718415826 0.008495655495012034 -0.03824712622241005 0.03618846677453622 0.04577636719899081 -0.023121232521936198 0.00982005440410861 0.012018048440329023
0.009674717150728812 -0.01429681288204476 0.03629571438979621 0.011574673411082231 -0.03536426084770986 -0.035731369289225635 -0.04071356671487315 -0.02309892443588551
0.0432205706710455 0.01694908133202075 0.042302934172471954 -0.017061029215900674 0.009123716156426005 -0.016049583795783914 0.0204849566268002 -0.0008406641429537769
-0.04554216139928906 0.04340456508723915 -0.03974674474281538 -0.028900685727400365 0.0345027001544829 -0.016494908781671796 0.030612711278489867 -0.02291587589418194
0.02979617421099078 -0.0393588707182635 0.010474737794439559 -0.026830501162662786 -0.002722947102257907 -0.011501375414058547 0.004775909475318396 0.033767290014402325
0.0006938207663474664 -0.04526834528632577 0.022651358455051902 0.005107503967710428 0.036618570457091416 0.005190588127727644 0.04577636719899081 -0.03564369399995272
-0.04403431377082004 -0.008997871193499497 -0.03445203038564501 0.03074223060001246 0.028302325524974952 0.030368180894931006 0.004540030205364972 -0.031401206805336854
0.024666056567009792 0.04169752356711662 0.041216575492740756 0.04321047164187447 -0.015789686589740042 -0.003998015018717935 -0.0366796885010659 -0.024232133006706198
-0.04568931036611525 -0.006092908735519488 0.016766702178417844 0.024581015174393865 -0.016128549763790474 0.032405245300600516 -0.015401732529654398 0.04577636719899081
0.04577636719899081 -0.035782810309570826 -0.009467410566333458 -0.038264544864942775 0.04344333138941725 -0.0450998413838966 -0.03993613791956011 0.005271067494918329
-0.0007300113795294993 -0.019723665905479477 -0.020878971559579983 0.019300248827973397 -0.028453199782100536 -0.012861768485481522 0.029167924374678793 -0.006773014321760777
-0.04577636719899081 0.02917266829904443 -0.0055529162650897025 0.039438265967769406 -0.015495810661629406 0.009289520678579636 0.025774686953003598 0.04577636719899081
0.043704458232298224 0.042631116240742076 -0.012306081774474004 0.04415379954679015 0.04479653581471561 0.03685231787146335 -0.04395379802384127 0.008544593585937316

embed.bias f8 [32]
00000000: 9686 14c1 d109 933f c044 1900 0070 a7bf
00000010: 4bb4 14c8 3634 833f 59b6 16cb 0411 a53f
00000020: b88d 15b6 e2fd a3bf 0e2c 14af d8b5 a2bf
00000030: 96e1 211c 116d 7fbf 65b3 96dd 470e a5bf
00000040: c044 1900 0070 a7bf faef 9740 eb33 a6bf
00000050: 2725 18f6 3d65 a6bf 4ad3 1544 693e 74bf
00000060: 2a62 1dd0 1441 5b3f c044 1900 0070 a7bf
00000070: 8e52 959d 02c7 a3bf c044 1900 0070 a7bf
00000080: 1a49 2197 a1df 9e3f c044 1900 0070 a7bf
00000090: c23a 19fa b966 a7bf d57e 1b3c c580 893f
000000a0: e2f6 18be c627 973f c044 1900 0070 a7bf
000000b0: 4288 19c9 9dae 973f c6fa 1be6 bbf3 893f
000000c0: ab9b 1890 2bd3 a6bf 985b 1af0 a272 78bf
000000d0: c044 1900 0070 a7bf a86b 1a64 8981 883f
000000e0: e070 1d00 b94e 8bbf 3a36 1397 d5d1 a1bf
000000f0: f393 9185 dd4d a0bf 2478 1eb2 e942 9cbf
0.018592145356825705 -0.04577636719899081 0.009376934033378378 0.04114546755895949 -0.03904636833865588 -0.036543628093646516 -0.0076723736148029045 -0.04112457828464392
-0.04577636719899081 -0.04336486018652859 -0.043741165438471 -0.004942332453869389 0.0016634658099602497 -0.04577636719899081 -0.038627702461473054 -0.04577636719899081
0.03014996037411164 -0.04577636719899081 -0.04570561578713274 0.01245264138873329 0.022612672188407575 -0.04577636719899081 0.02312704601207139 0.012671916923406978
-0.04457985052095322 -0.005968700863056585 -0.04577636719899081 0.011965821616561303 -0.01333374530411685 -0.03480403393914995 -0.03184406524159291 -0.027599002357980976

pos_enc.pe f8 [1, 12, 32]
00000000: 0000 0000 0000 0000 9895 1673 a3f2 a43f
00000010: 0000 0000 0000 0000 9895 1673 a3f2 a43f
00000020: 0000 0000 0000 0000 9895 96b1 a3f2 a43f
00000030: 0000 0000 0000 0000 9895 96b1 a3f2 a43f
00000040: 0000 0000 0000 0000 9895 1673 a3f2 a43f
00000050: 0000 0000 0000 0000 9895 96b1 a3f2 a43f
00000060: 0000 0000 0000 0000 9895 9634 a3f2 a43f
00000070: 0000 0000 0000 0000 9995 16f0 a3f2 a43f
00000080: 0000 0000 0000 0000 9895 96b1 a3f2 a43f
00000090: 0000 0000 0000 0000 9995 16f0 a3f2 a43f
000000a0: 0000 0000 0000 0000 9895 96b1 a3f2 a43f
000000b0: 0000 0000 0000 0000 9895 1673 a3f2 a43f
000000c0: 0000 0000 0000 0000 9895 96b1 a3f2 a43f
000000d0: 0000 0000 0000 0000 9895 1673 a3f2 a43f
000000e0: 0000 0000 0000 0000 9895 9634 a3f2 a43f
000000f0: 0000 0000 0000 0000 9895 1673 a3f2 a43f
00000100: 9895 96b1 a3f2 a43f 9895 96b1 a3f2 a43f
00000110: 9895 96b1 a3f2 a43f 9895 1673 a3f2 a43f
00000120: 9895 1673 a3f2 a43f 9895 96b1 a3f2 a43f
00000130: 9895 96b1 a3f2 a43f 9895 1673 a3f2 a43f
00000140: 9895 96b1 a3f2 a43f 9895 1673 a3f2 a43f
00000150: 9895 1673 a3f2 a43f 9995 16f0 a3f2 a43f
00000160: 9895 96b1 a3f2 a43f 9895 1673 a3f2 a43f
00000170: 9895 96b1 a3f2 a43f 9895 1673 a3f2 a43f
00000180: 9995 16f0 a3f2 a43f 9895 9634 a3f2 a43f
00000190: 9995 16f0 a3f2 a43f 9895 96b1 a3f2 a43f
000001a0: 9895 96b1 a3f2 a43f 9895 96b1 a3f2 a43f
000001b0: b97d 167b 7fdc a43f 9895 1673 a3f2 a43f
000001c0: f073 1134 2c30 a03f 9895 1673 a3f2 a43f
000001d0: 732d 1ae8 d547 983f 9895 1673 a3f2 a43f
000001e0: 96a1 134a 6935 923f 9895 1673 a3f2 a43f
000001f0: 7c71 1d82 4a4f 8b3f 9895 1673 a3f2 a43f
00000200: 9895 1673 a3f2 a43f 9895 9634 a3f2 a4bf
00000210: 9895 1673 a3f2 a43f 9895 1673 a3f2 a43f
00000220: 9895 96b1 a3f2 a43f 9895 1673 a3f2 a43f
00000230: 9995 16f0 a3f2 a43f 9895 96b1 a3f2 a43f
00000240: 9895 1673 a3f2 a43f 9895 1673 a3f2 a43f
00000250: 9895 1673 a3f2 a43f 9895 1673 a3f2 a43f
00000260: 9895 1673 a3f2 a43f 9895 1673 a3f2 a43f
00000270: 9895 1673 a3f2 a43f 9895 1673 a3f2 a43f
00000280: 9895 96b1 a3f2 a43f 9895 1673 a3f2 a43f
00000290: 9895 96b1 a3f2 a43f 9895 96b1 a3f2 a43f
000002a0: 9895 1673 a3f2 a43f 9995 16f0 a3f2 a43f
000002b0: 9995 16f0 a3f2 a43f 9895 1673 a3f2 a43f
000002c0: 9895 1673 a3f2 a43f 9995 16f0 a3f2 a43f
000002d0: 238d 9664 cbea a43f 9895 1673 a3f2 a43f
000002e0: caa0 9314 ac34 a23f 9995 16f0 a3f2 a43f
000002f0: d070 1ddd a94e 9b3f 9895 1673 a3f2 a43f
00000300: 9895 1673 a3f2 a43f 9895 96b1 a3f2 a4bf
00000310: 9895 96b1 a3f2 a43f 9895 96b1 a3f2 a4bf
00000320: 9895 1673 a3f2 a43f 9895 96b1 a3f2 a4bf
00000330: 9995 16f0 a3f2 a43f 9895 96b1 a3f2 a43f
00000340: 9895 96b1 a3f2 a43f 9895 96b1 a3f2 a43f
00000350: 9895 1673 a3f2 a43f 9895 96b1 a3f2 a43f
00000360: 9895 1673 a3f2 a43f 9895 1673 a3f2 a43f
00000370: 9895 1673 a3f2 a43f 9895 1673 a3f2 a43f
00000380: 9895 9634 a3f2 a43f 9895 1673 a3f2 a43f
00000390: 9895 9634 a3f2 a43f 9895 1673 a3f2 a43f
000003a0: 9895 1673 a3f2 a43f 9895 1673 a3f2 a43f
000003b0: 9895 96b1 a3f2 a43f 9895 96b1 a3f2 a43f
000003c0: 9895 1673 a3f2 a43f 9895 96b1 a3f2 a43f
000003d0: 9895 96b1 a3f2 a43f 9895 1673 a3f2 a43f
000003e0: 1893 96f1 51f0 a43f 9895 1673 a3f2 a43f
000003f0: c513 9608 397a a43f 9895 96b1 a3f2 a43f
00000400: 9895 1673 a3f2 a4bf 9895 96b1 a3f2 a4bf
00000410: 9895 1673 a3f2 a43f 9995 16f0 a3f2 a4bf
00000420: 9895 1673 a3f2 a43f 9895 96b1 a3f2 a4bf
00000430: 9895 1673 a3f2 a43f 9895 96b1 a3f2 a4bf
00000440: 9895 96b1 a3f2 a43f 9895 1673 a3f2 a43f
00000450: 9895 1673 a3f2 a43f 9895 1673 a3f2 a43f
00000460: 9895 9634 a3f2 a43f 9895 96b1 a3f2 a43f
00000470: 9895 96b1 a3f2 a43f 9895 96b1 a3f2 a43f
00000480: 9895 96b1 a3f2 a43f 9895 1673 a3f2 a43f
00000490: 9895 1673 a3f2 a43f 9895 1673 a3f2 a43f
000004a0: 9895 96b1 a3f2 a43f 9895 1673 a3f2 a43f
000004b0: 9895 96b1 a3f2 a43f 9895 1673 a3f2 a43f
000004c0: 9895 96b1 a3f2 a43f 9895 1673 a3f2 a43f
000004d0: 9895 96b1 a3f2 a43f 9895 1673 a3f2 a43f
000004e0: 9895 1673 a3f2 a43f 9895 96b1 a3f2 a43f
000004f0: 1693 163c 50f0 a43f 9895 96b1 a3f2 a43f
00000500: 9895 1673 a3f2 a4bf 9895 1673 a3f2 a43f
00000510: 9895 1673 a3f2 a4bf 9895 1673 a3f2 a4bf
00000520: 9895 96b1 a3f2 a43f 9895 1673 a3f2 a4bf
00000530: 9895 96b1 a3f2 a43f 9895 1673 a3f2 a4bf
00000540: 9895 96b1 a3f2 a43f fcd5 1600 5d2e 85bf
00000550: 9895 1673 a3f2 a43f 9895 96b1 a3f2 a43f
00000560: 9895 1673 a3f2 a43f 9895 96b1 a3f2 a43f
00000570: 9895 1673 a3f2 a43f 9895 96b1 a3f2 a43f
00000580: 9895 1673 a3f2 a43f 9895 1673 a3f2 a43f
00000590: 9895 1673 a3f2 a43f 9895 1673 a3f2 a43f
000005a0: 9895 1673 a3f2 a43f 9895 1673 a3f2 a43f
000005b0: 9895 1673 a3f2 a43f 9895 1673 a3f2 a43f
000005c0: 9895 1673 a3f2 a43f 9895 9634 a3f2 a43f
000005d0: 9895 1673 a3f2 a43f 9895 96b1 a3f2 a43f
000005e0: 9895 1673 a3f2 a43f 9895 1673 a3f2 a43f
000005f0: 9895 1673 a3f2 a43f 9895 96b1 a3f2 a43f
00000600: 9895 96b1 a3f2 a4bf 9895 96b1 a3f2 a43f
00000610: 9895 1673 a3f2 a4bf 9895 96b1 a3f2 a4bf
00000620: 9895 96b1 a3f2 a4bf 9895 1673 a3f2 a4bf
00000630: 9895 1673 a3f2 a43f 9895 96b1 a3f2 a4bf
00000640: 9895 96b1 a3f2 a43f 9895 1673 a3f2 a4bf
00000650: 9895 96b1 a3f2 a43f 9895 1673 a3f2 a43f
00000660: 9895 96b1 a3f2 a43f 9895 1673 a3f2 a43f
00000670: 9895 96b1 a3f2 a43f 9895 96b1 a3f2 a43f
00000680: 9995 16f0 a3f2 a43f 9895 1673 a3f2 a43f
00000690: 9895 1673 a3f2 a43f 9895 1673 a3f2 a43f
000006a0: 9995 16f0 a3f2 a43f 9895 96b1 a3f2 a43f
000006b0: 9995 16f0 a3f2 a43f 9895 1673 a3f2 a43f
000006c0: 9895 96b1 a3f2 a43f 9895 1673 a3f2 a43f
000006d0: 9895 1673 a3f2 a43f 9995 16f0 a3f2 a43f
000006e0: 9895 96b1 a3f2 a43f 9895 96b1 a3f2 a43f
000006f0: 9895 1673 a3f2 a43f 9895 1673 a3f2 a43f
00000700: 9895 1673 a3f2 a43f 9895 96b1 a3f2 a43f
00000710: 9995 16f0 a3f2 a4bf 9895 1673 a3f2 a43f
00000720: 9895 1673 a3f2 a4bf 9895 96b1 a3f2 a4bf
00000730: 9895 96b1 a3f2 a43f 9895 96b1 a3f2 a4bf
00000740: 9895 96b1 a3f2 a43f 9895 1673 a3f2 a4bf
00000750: 9895 1673 a3f2 a43f 9895 1673 a3f2 a4bf
00000760: 9895 1673 a3f2 a43f 9895 1673 a3f2 a43f
00000770: 9895 96b1 a3f2 a43f 9895 1673 a3f2 a43f
00000780: 9895 1673 a3f2 a43f 9895 1673 a3f2 a43f
00000790: 9895 1673 a3f2 a43f 9895 1673 a3f2 a43f
000007a0: 9895 9634 a3f2 a43f 9895 9634 a3f2 a43f
000007b0: 9895 1673 a3f2 a43f 9895 96b1 a3f2 a43f
000007c0: 9895 96b1 a3f2 a43f 9895 1673 a3f2 a43f
000007d0: 9995 16f0 a3f2 a43f 9995 16f0 a3f2 a43f
000007e0: 9895 1673 a3f2 a43f 9895 96b1 a3f2 a43f
000007f0: 9895 1673 a3f2 a43f 9895 96b1 a3f2 a43f
0.0 0.04091368465314388 0.0 0.04091368465314388 0.0 0.04091369192910149 0.0 0.04091369192910149
0.0 0.04091368465314388 0.0 0.04091369192910149 0.0 0.040913677377186264 0.0 0.04091369920505911
0.0 0.04091369192910149 0.0 0.04091369920505911 0.0 0.04091369192910149 0.0 0.04091368465314388
0.0 0.04091369192910149 0.0 0.04091368465314388 0.0 0.040913677377186264 0.0 0.04091368465314388
0.04091369192910149 0.04091369192910149 0.04091369192910149 0.04091368465314388 0.04091368465314388 0.04091369192910149 0.04091369192910149 0.04091368465314388
0.04091369192910149 0.04091368465314388 0.04091368465314388 0.04091369920505911 0.04091369192910149 0.04091368465314388 0.04091369192910149 0.04091368465314388
0.04091369920505911 0.040913677377186264 0.04091369920505911 0.04091369192910149 0.04091369192910149 0.04091369192910149 0.04074476602113059 0.04091368465314388
0.031617528301218445 0.04091368465314388 0.02371153096332308 0.04091368465314388 0.017781872888834004 0.04091368465314388 0.013334829421801635 0.04091368465314388
0.04091368465314388 -0.040913677377186264 0.04091368465314388 0.04091368465314388 0.04091369192910149 0.04091368465314388 0.04091369920505911 0.04091369192910149
0.04091368465314388 0.04091368465314388 0.04091368465314388 0.04091368465314388 0.04091368465314388 0.04091368465314388 0.04091368465314388 0.04091368465314388
0.04091369192910149 0.04091368465314388 0.04091369192910149 0.04091369192910149 0.04091368465314388 0.04091369920505911 0.04091369920505911 0.04091368465314388
0.04091368465314388 0.04091369920505911 0.0408538399017522 0.04091368465314388 0.0355581069105156 0.04091369920505911 0.026667265053547606 0.04091368465314388
0.04091368465314388 -0.04091369192910149 0.04091369192910149 -0.04091369192910149 0.04091368465314388 -0.04091369192910149 0.04091369920505911 0.04091369192910149
0.04091369192910149 0.04091369192910149 0.04091368465314388 0.04091369192910149 0.04091368465314388 0.04091368465314388 0.04091368465314388 0.04091368465314388
0.040913677377186264 0.04091368465314388 0.040913677377186264 0.04091368465314388 0.04091368465314388 0.04091368465314388 0.04091369192910149 0.04091369192910149
0.04091368465314388 0.04091369192910149 0.04091369192910149 0.04091368465314388 0.04089599680017936 0.04091368465314388 0.039994985864758394 0.04091369192910149
-0.04091368465314388 -0.04091369192910149 0.04091368465314388 -0.04091369920505911 0.04091368465314388 -0.04091369192910149 0.04091368465314388 -0.04091369192910149
0.04091369192910149 0.04091368465314388 0.04091368465314388 0.04091368465314388 0.040913677377186264 0.04091369192910149 0.04091369192910149 0.04091369192910149
0.04091369192910149 0.04091368465314388 0.04091368465314388 0.04091368465314388 0.04091369192910149 0.04091368465314388 0.04091369192910149 0.04091368465314388
0.04091369192910149 0.04091368465314388 0.04091369192910149 0.04091368465314388 0.04091368465314388 0.04091369192910149 0.040895945868476044 0.04091369192910149
-0.04091368465314388 0.04091368465314388 -0.04091368465314388 -0.04091368465314388 0.04091369192910149 -0.04091368465314388 0.04091369192910149 -0.04091368465314388
0.04091369192910149 -0.010342337193701027 0.04091368465314388 0.04091369192910149 0.04091368465314388 0.04091369192910149 0.04091368465314388 0.04091369192910149
0.04091368465314388 0.04091368465314388 0.04091368465314388 0.04091368465314388 0.04091368465314388 0.04091368465314388 0.04091368465314388 0.04091368465314388
0.04091368465314388 0.040913677377186264 0.04091368465314388 0.04091369192910149 0.04091368465314388 0.04091368465314388 0.04091368465314388 0.04091369192910149
-0.04091369192910149 0.04091369192910149 -0.04091368465314388 -0.04091369192910149 -0.04091369192910149 -0.04091368465314388 0.04091368465314388 -0.04091369192910149
0.04091369192910149 -0.04091368465314388 0.04091369192910149 0.04091368465314388 0.04091369192910149 0.04091368465314388 0.04091369192910149 0.04091369192910149
0.04091369920505911 0.04091368465314388 0.04091368465314388 0.04091368465314388 0.04091369920505911 0.04091369192910149 0.04091369920505911 0.04091368465314388
0.04091369192910149 0.04091368465314388 0.04091368465314388 0.04091369920505911 0.04091369192910149 0.04091369192910149 0.04091368465314388 0.04091368465314388
0.04091368465314388 0.04091369192910149 -0.04091369920505911 0.04091368465314388 -0.04091368465314388 -0.04091369192910149 0.04091369192910149 -0.04091369192910149
0.04091369192910149 -0.04091368465314388 0.04091368465314388 -0.04091368465314388 0.04091368465314388 0.04091368465314388 0.04091369192910149 0.04091368465314388
0.04091368465314388 0.04091368465314388 0.04091368465314388 0.04091368465314388 0.040913677377186264 0.040913677377186264 0.04091368465314388 0.04091369192910149
0.04091369192910149 0.04091368465314388 0.04091369920505911 0.04091369920505911 0.04091368465314388 0.04091369192910149 0.04091368465314388 0.04091369192910149

transformer_encoder.layers.0.self_attn.qlinear.weight f8 [32, 32]
00000000: c044 1900 0070 a7bf c044 1900 0070 a73f
00000010: 80d4 143e 1652 a33f 1b02 1aea a11f 883f
00000020: 25bc 983b 4bf1 a63f 8a9c 1312 ba30 923f
00000030: 7542 124a baef 903f 5546 96e4 1ea9 a43f
00000040: c044 1900 0070 a73f 4d94 984b 56cc a63f
00000050: e7b0 153a 841e 943f c044 1900 0070 a7bf
00000060: c044 1900 0070 a7bf 7e0e 99f1 ac3d a73f
00000070: 2023 22a2 daa9 8fbf 8e1f 17c0 9972 a53f
00000080: 6d90 2084 5634 9ebf 7662 2196 26f7 9e3f
00000090: 64e8 1502 fc51 a43f 9666 1380 b0fe 313f
000000a0: 86d7 1520 5742 44bf c044 1900 0070 a73f
000000b0: bdd7 14cc 1655 a3bf 9bff 1260 2b9f 81bf
000000c0: 3068 1e9c 1d34 7c3f 900e 1676 6475 94bf
000000d0: 679c 14ee 0d1e 833f 1ca1 11c4 125a a0bf
000000e0: 5f41 98e3 6a7f a63f e5f6 1b06 22f0 893f
000000f0: ab44 215e 84db 8ebf 55a3 12b5 9549 a13f
00000100: 0804 19d0 f833 a7bf c044 1900 0070 a73f
00000110: fe82 1ca0 1472 6abf 7dbe 93d0 3850 a2bf
00000120: 38c5 11fc 907b 903f 0778 143c 50fc 923f
00000130: 27a6 1224 334c 713f 3a42 2260 b4c6 8fbf
00000140: aae4 9466 1361 a33f 3cac 18a5 89e2 a63f
00000150: 5de9 1f92 6199 9d3f c044 1900 0070 a7bf
00000160: b52d 1288 7bdc 80bf 27ec 1120 ad9f a03f
00000170: f546 14de ccce a23f 549d 934d 7631 a23f
00000180: 7409 9653 a770 a4bf c044 1900 0070 a73f
00000190: fe97 1768 4fe2 a53f be06 21c1 14a2 9e3f
000001a0: e657 1b12 aa5c 89bf f6d6 97c6 b81c a63f
000001b0: e1cb 1735 7012 a6bf dcee 1994 c80d 88bf
000001c0: eee2 1129 2097 a03f 3822 1f76 aae0 8c3f
000001d0: 5adf 989b f211 a73f 760e 13b8 f2ac 813f
000001e0: e698 914d 7552 a03f f2a1 1578 a410 74bf
000001f0: 0016 18d1 2f57 963f b483 1706 7ecf 85bf
00000200: 6aed 1564 a456 a4bf 79cb 97c5 0f12 a63f
00000210: 5f78 1560 15ea 73bf 1c18 97ed b16b a5bf
00000220: 8a69 9135 8726 a0bf 4d8b 169a 17e9 843f
00000230: 0879 16bc 24d8 a4bf 75eb 1232 7b8c a1bf
00000240: c044 1900 0070 a73f 1490 17fd f8da a53f
00000250: 420d 1667 2e74 943f c044 1900 0070 a7bf
00000260: 8e97 1374 1b2c 82bf 7b6a 95ca 32dd a33f
00000270: 265b 1176 2e19 903f ce7a 95be 57ec a33f
00000280: c3da 12d7 fe7c a1bf c044 1900 0070 a73f
00000290: 9ed8 975a 411e a63f 00b1 2100 0040 8f3f
000002a0: 6dd9 1ad8 59e7 88bf c044 1900 0070 a73f
000002b0: 4d9c 9799 4ee6 a5bf 1c1f 14f4 d6a9 82bf
000002c0: 33ac 17bf 0df5 a53f 8667 1b0e 276b 893f
000002d0: c044 1900 0070 a73f 3ffb 1238 209b 813f
000002e0: 22a1 174e caea 953f 150c 1f9a 22cc 8cbf
000002f0: eb34 2083 75df 9d3f 7223 1202 f7d2 803f
00000300: d684 1c20 ca73 6abf b8db 1d9b d3b1 9b3f
00000310: 87b1 191a e5d4 873f de7e 1713 02cb 95bf
00000320: f4a1 11f6 da5a 803f f355 1c50 4d48 7a3f
00000330: 2804 217f ae9f 9e3f 9c64 1581 c0d7 93bf
00000340: ce64 1b8c a168 993f 7215 1878 ac56 963f
00000350: 022b 1896 ac6a a63f c044 1900 0070 a7bf
00000360: 2031 1f80 7eee 3cbf a094 209c 3a38 8e3f
00000370: c044 1900 0070 a73f c044 1900 0070 a73f
00000380: 861b 22f8 cca2 6fbf dbb1 142b f431 a33f
00000390: c044 1900 0070 a73f e00b 221a 4b94 8fbf
000003a0: 164f 18f8 238c 663f 7b91 1dad f76c 9b3f
000003b0: c044 1900 0070 a7bf 98b7 1e14 c57d 7cbf
000003c0: 7c7c 14d4 7200 933f 80cf 2130 4a5c 5fbf
000003d0: c044 1900 0070 a73f 52f2 1452 be6d 93bf
000003e0: 2c62 1b8c 3066 893f 8d1b 1c9d 2212 9abf
000003f0: c9a8 184f 56df 963f d246 93cc 38e1 a13f
00000400: b859 94b3 33e0 a2bf c044 1900 0070 a73f
00000410: f25e 94ef 0be5 a23f f666 13e1 08ff a1bf
00000420: aa1d 2245 c9a4 9fbf b230 13a0 b3cc 51bf
00000430: 82ac 2198 d53b 6fbf 4bbf 19a8 a9e1 773f
00000440: c044 1900 0070 a73f 8e21 994f 5b4f a73f
00000450: 58dc 1e27 db9f 9c3f c044 1900 0070 a7bf
00000460: ebbb 1570 bc28 84bf 5e1c 1c76 e412 9a3f
00000470: 28ae 15dc f81b 84bf 50c6 9574 6032 a43f
00000480: 8468 1a4c 9f7e 98bf c044 1900 0070 a73f
00000490: 3425 14bb 7daf a23f 1f3d 16a3 93a0 a43f
000004a0: a232 1ed0 7002 5cbf aaca 948c f648 a33f
000004b0: c044 1900 0070 a7bf 27f7 14c2 3a72 a33f
000004c0: 55ad 18e6 8de3 a63f 6dae 19c6 04d2 873f
000004d0: 6ed5 954c 6640 a43f e075 21f0 2809 5fbf
000004e0: 36c9 164f 8322 953f 943d 21c6 f0d4 8ebf
000004f0: 38a8 1fd2 f45c 8d3f 4de9 1a60 13f6 68bf
00000500: 9000 9328 0fa0 a1bf 9bbb 1538 7228 943f
00000510: b2bb 1d9a 1f94 8b3f c044 1900 0070 a7bf
00000520: e8aa 20a0 e54c 9ebf 479c 16e0 d5f8 943f
00000530: 9f50 92d0 ddfc a03f 8e92 1cf0 8380 9a3f
00000540: 2e21 1817 8f61 a63f f5b9 13e3 044c 923f
00000550: aee6 1539 6750 943f 6439 997d 7665 a7bf
00000560: 247e 1346 8914 82bf 3bce 9163 ec83 a03f
00000570: eb03 14e6 9e90 a23f 0abb 20ae dc5b 9e3f
00000580: c044 1900 0070 a7bf c044 1900 0070 a73f
00000590: eac2 1c5c 5ead 7a3f e408 2224 8591 8f3f
000005a0: 36a3 17f5 b7ec 95bf c044 1900 0070 a73f
000005b0: c044 1900 0070 a7bf 00b1 2100 0040 8fbf
000005c0: e6fd 21c4 5387 9f3f 829d 15bc 870c 843f
000005d0: edf6 97a4 5d3a a63f 1d91 13a5 2226 92bf
000005e0: 927a 1327 3811 923f 1670 1fb8 e328 7dbf
000005f0: 9c52 135c 28ec 813f 2b2b 1558 79a2 93bf
00000600: c443 1b55 fc49 99bf 4241 99a7 c26c a73f
00000610: 922d 148c 40b7 82bf aa28 1914 f255 a7bf
00000620: 10b8 1f84 a76b 7d3f ab9a 1ef0 ef62 9c3f
00000630: 1643 197e 746e 973f 466d 13e7 e304 a2bf
00000640: 5369 98b4 79a4 a63f c044 1900 0070 a73f
00000650: 3c01 1943 6031 973f c044 1900 0070 a7bf
00000660: 6ac4 1194 d17a 80bf 52d5 9339 6565 a23f
00000670: ba89 1f9c ab40 9d3f 0b68 156c f0da a33f
00000680: 36e7 9339 ff75 a2bf c044 1900 0070 a73f
00000690: 6a1f 97d0 7772 a53f 00b3 1153 aa6a 903f
000006a0: 00fe 1284 ae9d 91bf c044 1900 0070 a73f
000006b0: 7864 98df f89f a6bf 4260 1392 d1f8 81bf
000006c0: 6e8f 129c 2037 a13f 3419 149c 5ca4 823f
000006d0: c044 1900 0070 a73f 4eb5 1520 9a22 743f
000006e0: 1d3d 1e12 2a0c 9c3f b05e 211a a6f3 8ebf
000006f0: 9ac0 1a50 53d0 983f 88af 1115 7367 903f
00000700: 0028 9409 16b2 a2bf 6e5d 98f9 7199 a63f
00000710: d64d 1154 d50c 903f dbed 16f8 8044 a5bf
00000720: 4eed 13c8 a47b a2bf 10e7 1fb8 3d97 7dbf
00000730: c410 1b78 ae1a 99bf 7415 16b1 c87b a4bf
00000740: c044 1900 0070 a73f 7b70 16f3 36d0 a43f
00000750: aefc 1320 e989 72bf c044 1900 0070 a7bf
00000760: c749 195c a974 87bf 14a1 15e7 d60f a43f
00000770: 2a19 184e 1e5a 863f 1eca 16a4 5a23 a53f
00000780: 96ce 9159 4184 a0bf 36df 962f eb36 a53f
00000790: 53cd 1acc 20dc 983f add1 20ae db70 8e3f
000007a0: 4f74 19f8 1c9c 77bf 13e2 1f9d 9e92 9d3f
000007b0: c044 1900 0070 a7bf 6e95 193a d5ba 973f
000007c0: 9072 1733 98bf a53f b94d 18c0 df8a 863f
000007d0: 6d2b 128a 5dda a03f 8e7a 1b9c cd7c 89bf
000007e0: c9d4 1a48 0ce3 68bf 9247 18d6 2985 86bf
000007f0: e5bb 1904 83de 873f 5f6a 12d4 bf14 a1bf
-0.04577636719899081 0.04577636719899081 0.037735648229877405 0.011779084164346412 0.044809676194170124 0.017764003136929087 0.01653948857398509 0.040352788356483295
0.04577636719899081 0.04452771828463451 0.01964766125222264 -0.04577636719899081 -0.04577636719899081 0.04539242219155158 -0.015460689614216927 0.04188995809414485
-0.029496528448490645 0.03023968020747466 0.039687991385066096 0.00027458008851297935 -0.0006182599465052042 0.04577636719899081 -0.03775855294445261 -0.008604372853710454
0.006885638869698993 -0.019979066569716653 0.009334667995586977 -0.03193720477503545 0.04394086864715762 0.012665048419417466 -0.015067133066766955 0.033764532426465856
-0.04531838932280868 0.04577636719899081 -0.00322822597890171 -0.03576829477412689 0.016096368203254857 0.018540624300946742 0.0042230603877811195 -0.015515717681666808
0.03785000445572824 0.0446970953019776 0.028905415099850774 -0.04577636719899081 -0.008233037080819775 0.032468233265682316 0.03673401080062703 0.03553361603718011
-0.03992197890603935 0.04577636719899081 0.04274223466545378 0.029915165221843003 -0.012383774449897755 0.043187879793476755 -0.04310942314250333 -0.0117450399586611
0.032402997029697164 0.014100391130242959 0.045058804982942305 0.008630653612619481 0.03187910625347161 -0.004898683984130946 0.021816966187563125 -0.010649666367443668
-0.03972352716206269 0.043106549139245005 -0.004861911294339632 -0.04183727288504732 -0.03154394654184774 0.010210213079351904 -0.0407115439986559 -0.034274911749398486
0.04577636719899081 0.042686253447556194 0.019974446336630487 -0.04577636719899081 -0.008873190383791554 0.038796984891367146 0.01572105975750584 0.03891252709830938
-0.03415676474962972 0.04577636719899081 0.043199579533323304 0.01525878906633027 -0.012160016925332607 0.04577636719899081 -0.042772728203822476 -0.009113005946815238
0.042885236336438835 0.012411408536923362 0.04577636719899081 0.008596660338637483 0.021403466240287668 -0.014061231926353593 0.029172741058620593 0.00821488356656783
-0.0032290408861547033 0.027045542090003954 0.011636533602733546 -0.021282226958532095 0.007985792765070145 0.00641660881389815 0.029906012067162063 -0.019377715948711058
0.02481319825787836 0.021815008954964417 0.04378260929305179 -0.04577636719899081 -0.00044146145239378105 0.014755685701013654 0.04577636719899081 0.04577636719899081
-0.0038618090921462315 0.03749049211396357 0.04577636719899081 -0.015419565901771237 0.0027523710748570502 0.026782865468150768 -0.04577636719899081 -0.006955880964523951
0.01855639857705825 -0.0019140934460013248 0.04577636719899081 -0.018973325500370848 0.012401942516064933 -0.025459805335255537 0.022336338594109138 0.034921431515284276
-0.03686677519924636 0.04577636719899081 0.036903737063935696 -0.03514888522631836 -0.03090204700904812 -0.0010864023354768934 -0.0038127109301533966 0.005830443116437166
0.04577636719899081 0.045527318445752404 0.027953552496651518 -0.04577636719899081 -0.009843322916564609 0.025462693890429093 -0.00981897756238144 0.03944684432179868
-0.023920525569885345 0.04577636719899081 0.03649514111209343 0.040287603052201464 -0.0017095662774152883 0.03766603914336504 -0.04577636719899081 0.0379808771053674
0.04470485147279627 0.011631047530691075 0.039553830002584486 -0.001894273737455314 0.02063946886273379 -0.015054589315836954 0.014337456381287791 -0.003047025530432601
-0.03442427988329755 0.019685539887571584 0.013466116801024917 -0.04577636719899081 -0.02959021367875439 0.020480481912866357 0.033179218016045946 0.025880872278451643
0.04371306569015797 0.017868114814456566 0.01983796392366937 -0.04569597514329152 -0.008828232241682228 0.03225649562309881 0.03625961836406318 0.029647300842209602
-0.04577636719899081 0.04577636719899081 0.006512993424437433 0.0154142762805844 -0.021410822233437453 0.04577636719899081 -0.04577636719899081 -0.01525878906633027
0.030789669843668842 0.009789524485951832 0.043414045660012814 -0.017723599744287378 0.01764381159307022 -0.007119073417893437 0.008751216230316765 -0.019174476624623054
-0.02469629544686193 0.045751650770969224 -0.009138588213793129 -0.045577588036921426 0.007182745322991138 0.027721165686353782 0.022882290073826438 -0.03519355960608066
0.04422359780820053 0.04577636719899081 0.022649292083088954 -0.04577636719899081 -0.008046758013934691 0.035929835585117545 0.02856701031113016 0.038779748147774816
-0.03605649545529703 0.04577636719899081 0.04188894673603623 0.016031895942819396 -0.01720307046048042 0.04577636719899081 -0.04418924073633773 -0.0087753651336443
0.033623713542765596 0.009102557671678647 0.04577636719899081 0.0049158115883590325 0.027390153270571028 -0.015113160774645834 0.024232198490324743 0.016019628678278802
-0.03651493899276659 0.044139444082413756 0.01567395520789979 -0.041538267406817396 -0.036099576400341435 -0.007224312868851404 -0.02451584442202727 -0.0400068966073758
0.04577636719899081 0.04065105168703639 -0.004526053090784616 -0.04577636719899081 -0.011452983019954467 0.039183345516734885 0.010914074667209468 0.041285355120084896
-0.03225902765634918 0.04143462139057734 0.02427722211605261 0.01486369729182332 -0.00576411548680962 0.02887962183010202 -0.04577636719899081 0.023173648520601935
0.042477375256315786 0.011007068681499687 0.03291599569737156 -0.01244507439281264 -0.0030379524112854367 -0.010996176572948522 0.011654876291883507 -0.03336142982262368

transformer_encoder.layers.0.self_attn.qlinear.bias f8 [32]
00000000: a84d 1f6d f408 9d3f 1b8e 122e e535 913f
00000010: 9de4 13cb 9573 923f 9b15 22ac 509d 9fbf
00000020: c044 1900 0070 a7bf 42c0 137e dc51 923f
00000030: a296 144d b418 933f c044 1900 0070 a7bf
00000040: d680 1402 7d04 a3bf cbf9 923f c799 a13f
00000050: 83ec 1e88 d9ae 8cbf c044 1900 0070 a73f
00000060: 1d7c 21e5 f10e 9fbf c03b 97d1 c08c a53f
00000070: 1d12 12cc e2c2 a03f 44d0 1340 b660 52bf
00000080: 940e 130a 0fad 81bf 02c8 150b f333 943f
00000090: 9d40 1878 b67e 96bf 94ba 12c0 245f 913f
000000a0: 00a5 9391 9438 a23f c623 20b0 8fcf 8d3f
000000b0: 6a16 94c4 c5a1 a2bf 9509 222e 2a92 9fbf
000000c0: e233 968b 0198 a43f 4722 1620 ad87 843f
000000d0: f3b5 15f5 3223 94bf 6783 134c 6a19 923f
000000e0: 1639 227a 39be 8f3f da62 1190 5320 60bf
000000f0: ad24 94f9 00af a23f fe46 1acd 885f 983f
0.028354472313208895 0.01680715650276286 0.018019047279243073 -0.030873547083066204 -0.04577636719899081 0.017890401072634406 0.018648926930061045 -0.04577636719899081
-0.03714361811057791 0.03437636042643851 -0.014005374399735487 0.04577636719899081 -0.030330447778734382 0.04208948667984869 0.0327368616208654 -0.001121690729914541
-0.008630864615390345 0.01972942118795374 -0.021967745857239696 0.01696450636216669 0.035587923784826 0.014556047975945573 -0.03639047646178713 -0.03083101183484301
0.04022221402110639 0.010024406949711863 -0.019665523728169942 0.01767507638294621 0.015499543227886419 -0.0019685394368419264 0.03649142309775164 0.023801934736701995

transformer_encoder.layers.0.self_attn.klinear.weight f8 [32, 32]
00000000: c044 1900 0070 a7bf 94f4 1861 a325 a73f
00000010: 7f11 17dc 8f65 a53f ae74 156c a8e6 a33f
00000020: c044 1900 0070 a73f e6bf 973c 5307 a63f
00000030: becc 162d ca25 95bf c044 1900 0070 a73f
00000040: f33f 183e 197e a63f 878c 97fe acd7 a53f
00000050: c044 1900 0070 a73f 41f2 142f af6d a3bf
00000060: 5596 1ea4 ea5e 8c3f 5ef1 1b86 01eb 89bf
00000070: c044 1900 0070 a73f b691 1455 2414 a33f
00000080: c044 1900 0070 a7bf d3ed 9666 7944 a53f
00000090: 34ad 18a0 6fe3 a63f 1eb5 1418 fa34 83bf
000000a0: 0a84 1327 021a a2bf c044 1900 0070 a73f
000000b0: f30b 1813 de4d 96bf 9444 94ae 97cc a2bf
000000c0: 7443 913d 3403 a03f c27a 130d 6611 a2bf
000000d0: d5c7 989f 22fc a63f 4e0b 1b98 9d15 69bf
000000e0: b63b 1868 2a7a 963f e3b6 9204 b95b a1bf
000000f0: a6fa 1eee f7bb 9cbf c044 1900 0070 a73f
00000100: 52f8 94db 4f73 a3bf c044 1900 0070 a73f
00000110: c044 1900 0070 a73f fec4 1b64 d9c1 993f
00000120: 7a7f 95a1 acf0 a33f c044 1900 0070 a73f
00000130: 721e 155f ab96 a33f 2130 12ba bade 903f
00000140: cacc 97c8 4713 a63f c044 1900 0070 a73f
00000150: 411b 13ce d0b8 913f c044 1900 0070 a7bf
00000160: 2632 215f 58ca 9ebf 6b38 9988 8f64 a73f
00000170: 8a47 12db 6ff4 903f c044 1900 0070 a73f
00000180: d688 9665 cee6 a4bf c044 1900 0070 a73f
00000190: c044 1900 0070 a73f 6d19 1f09 84d8 9cbf
000001a0: 2d47 15bc 73bc 733f c044 1900 0070 a73f
000001b0: 3590 12b7 d737 a1bf bd84 924d 352d a1bf
000001c0: a057 1f1a 3412 9d3f a16f 1927 c597 97bf
000001d0: c044 1900 0070 a73f bee6 1175 a89a 903f
000001e0: f809 150b ae83 a3bf 8e0e 213f 53a9 9ebf
000001f0: 42b1 2109 3d40 9f3f c044 1900 0070 a73f
00000200: a33b 1de3 571d 9bbf c044 1900 0070 a73f
00000210: 323a 17f2 4e8b a53f 2b37 1964 6763 973f
00000220: a6e2 1a40 e9ef 983f 88b6 1408 4a36 a33f
00000230: b278 1509 62ea 933f d26f 15a3 25e2 933f
00000240: c044 1900 0070 a73f c044 1900 0070 a73f
00000250: bdf7 1861 9128 a73f 085e 1224 4e09 a1bf
00000260: 90b7 2076 a458 9ebf c044 1900 0070 a73f
00000270: 7b25 1ec4 3df6 8b3f c044 1900 0070 a73f
00000280: fed9 162c 1432 a5bf c044 1900 0070 a73f
00000290: c044 1900 0070 a73f bebc 114a b473 803f
000002a0: 240d 18ca f84e 963f c044 1900 0070 a73f
000002b0: 3f9b 1484 fb1c a3bf 9562 9669 52c3 a4bf
000002c0: f04f 1d2d 2d30 9b3f 863c 19e0 5e68 97bf
000002d0: c044 1900 0070 a73f ac85 927e 122e a13f
000002e0: aa0b 92d0 e6bc a0bf fe28 20f8 65d4 9dbf
000002f0: 76ff 914e 97b1 a03f 46dc 111b f390 a03f
00000300: d330 163a 2b95 94bf c044 1900 0070 a73f
00000310: e690 190e a1b6 87bf 799e 969a dffa a4bf
00000320: 4ed2 2095 7171 9ebf f8d0 12a5 e973 913f
00000330: bc18 92cb 07c9 a03f d6e5 2163 0271 9fbf
00000340: c044 1900 0070 a73f 7aca 988d 96fe a63f
00000350: 0565 1c70 4756 5a3f c044 1900 0070 a7bf
00000360: cbbd 181a d2f2 96bf 36ee 1555 6257 a43f
00000370: 4715 13dc 45b3 713f 8734 1500 28ab a33f
00000380: fa8b 148a d10e a3bf c044 1900 0070 a73f
00000390: 61f5 161a 7b4b a53f e305 2240 bc8e 7fbf
000003a0: 05b6 119c 776d 80bf c044 1900 0070 a73f
000003b0: 7ca9 20b6 944b 8ebf b854 1118 3813 a0bf
000003c0: dafa 1820 752b 673f 4105 132c 69a4 a1bf
000003d0: 473e 1845 8c7c a63f c66c 1578 53df 73bf
000003e0: 430a 9245 9bbb a0bf b6c6 1960 8be8 573f
000003f0: 022f 1f1b 86ec 9c3f 301a 163a 2c80 843f
00000400: e6d5 1e64 e099 9cbf c044 1900 0070 a73f
00000410: c044 1900 0070 a73f 5aa3 156e f311 843f
00000420: bd98 1298 c13f a13f c044 1900 0070 a73f
00000430: 6c88 2020 ea2c 4ebf 60f2 20dd 2e8f 9e3f
00000440: c044 1900 0070 a73f c044 1900 0070 a73f
00000450: 3bbe 181b 3af3 a63f a6f3 91a4 a1a6 a0bf
00000460: 7487 13b3 2c1d 92bf d515 1219 56c6 903f
00000470: 4537 1719 9988 953f c044 1900 0070 a73f
00000480: d23a 12d0 a4e8 a0bf c044 1900 0070 a73f
00000490: c044 1900 0070 a73f 7b56 1503 a6ca 933f
000004a0: c802 1580 037d 333f c044 1900 0070 a73f
000004b0: 7d13 9230 2ac4 a0bf 3aef 158b 5358 94bf
000004c0: aae7 15a5 4f51 943f 202f 16e8 9793 84bf
000004d0: c044 1900 0070 a73f a197 12e6 ba3e a13f
000004e0: f014 1e02 e7e6 8bbf c044 1900 0070 a7bf
000004f0: ff25 12fd 53d5 903f 689f 92d8 f045 a13f
00000500: c044 1900 0070 a7bf c044 1900 0070 a73f
00000510: 4bd5 1c1b 6bbe 9a3f fd0b 2040 7fb9 4dbf
00000520: a281 91e3 e03c a03f c044 1900 0070 a73f
00000530: dbb1 92b4 0d57 a13f a589 202a 0c2e 9e3f
00000540: c044 1900 0070 a73f c044 1900 0070 a73f
00000550: 5dda 2144 5e66 8f3f c044 1900 0070 a7bf
00000560: ca34 942b f2bd a2bf c0fa 1833 5d2b a73f
00000570: b0b6 1fdb 606a 9d3f c044 1900 0070 a73f
00000580: c483 17ac 8ccf a5bf c044 1900 0070 a73f
00000590: c044 1900 0070 a73f 35e1 976a 3826 a6bf
000005a0: e682 19d6 a4a9 873f 0ccb 16d5 3724 a53f
000005b0: 92aa 946e 322b a3bf e24f 9324 a1e9 a1bf
000005c0: 7640 1f1a b8fc 9c3f a788 16b2 a2e6 94bf
000005d0: c044 1900 0070 a73f 8a68 1fba e321 9dbf
000005e0: 93ef 1980 720e 98bf d805 150a db7f 93bf
000005f0: 6aaa 12e2 2550 81bf c044 1900 0070 a73f
00000600: 5c93 11a1 514d a0bf c044 1900 0070 a73f
00000610: 6e5f 173b d9ad a53f a3d8 1820 b80b 773f
00000620: 10f6 1f2c 2aa5 7d3f c044 1900 0070 a73f
00000630: 65ac 20a1 474e 9e3f b0f9 1336 2187 923f
00000640: c044 1900 0070 a73f c044 1900 0070 a73f
00000650: bb74 163a 28d4 a43f fb69 171d a2b7 a5bf
00000660: 13bf 15f3 a92b a4bf c044 1900 0070 a73f
00000670: e75e 1586 75d2 933f c044 1900 0070 a73f
00000680: c4c0 97c7 2108 a6bf c044 1900 0070 a73f
00000690: c044 1900 0070 a73f 5a21 1bf2 102a 89bf
000006a0: a41c 1874 595d 863f c044 1900 0070 a73f
000006b0: 8702 9377 e1a1 a1bf 5253 9547 b7c7 a3bf
000006c0: 46cd 19fe a0ee 973f e219 1557 7192 a3bf
000006d0: c044 1900 0070 a73f d4a7 2144 7e37 8f3f
000006e0: 90d4 110d cc89 a0bf 33c0 9393 ce51 a2bf
000006f0: 4e9c 17d2 4fe6 953f 1495 11d5 e94e a03f
00000700: 7526 2068 0cd2 9dbf c044 1900 0070 a73f
00000710: 8072 1671 16d2 a43f 9561 1bec a365 793f
00000720: 3b63 947d 06e9 a23f c044 1900 0070 a73f
00000730: 553e 205a 31e8 9dbf a88b 1a89 379f 983f
00000740: c044 1900 0070 a73f c044 1900 0070 a73f
00000750: fb58 93c9 11f2 a13f a174 91ff d030 a0bf
00000760: 565c 2060 0504 4e3f 85e8 1bf0 cce2 59bf
00000770: 2799 17cc 62e3 953f c044 1900 0070 a73f
00000780: 32f7 1138 eaa9 a0bf c044 1900 0070 a73f
00000790: c044 1900 0070 a73f 8634 134b 41d0 913f
000007a0: bbcc 15a0 5438 743f c044 1900 0070 a73f
000007b0: 72cf 9334 f25f a2bf 7b78 922b d621 a1bf
000007c0: 304b 1ca6 513e 9a3f b2be 136c 6850 823f
000007d0: c044 1900 0070 a73f a021 1fdc 1ce0 8c3f
000007e0: 86ad 1694 d508 75bf 10b9 1653 8913 a5bf
000007f0: ff07 1700 c05c d5be d6f2 1104 e1a5 a03f
-0.04577636719899081 0.045209031679840056 0.04179048120161876 0.03886915511496035 0.04577636719899081 0.04302463640840397 -0.020651968957918092 0.04577636719899081
0.04393080599777468 0.042661100462077654 0.04577636719899081 -0.0379461998913695 0.013852913983849616 -0.012655269532381549 0.04577636719899081 0.037263045678887094
-0.04577636719899081 0.0415380418521313 0.04470394925405188 -0.00937838922490158 -0.035354678411529575 0.04577636719899081 -0.021781415858651298 -0.03671716695874597
0.03127444507175073 -0.03528899106617224 0.04489238928034892 -0.0030620649348248935 0.02195039997428313 -0.033902913864364746 -0.028060792835953884 0.04577636719899081
-0.03798913531726157 0.04577636719899081 0.04577636719899081 0.025153538451324835 0.0389455744978013 0.04577636719899081 0.038258891445875146 0.01647464523971121
0.04311584781307827 0.04577636719899081 0.017306578233525775 -0.04577636719899081 -0.030068760687116967 0.04568909208738677 0.016557452913339023 0.04577636719899081
-0.04082341184700204 0.04577636719899081 0.04577636719899081 -0.028169692093592703 0.004818393791838277 0.04577636719899081 -0.033629170510977614 -0.03354803630760148
0.028389753431688924 -0.023039894591746827 0.04577636719899081 0.016214973588353436 -0.03811401257782515 -0.02994279930886861 0.03051848762736254 0.04577636719899081
-0.026479123341512822 0.04577636719899081 0.04207846360406044 0.022840133175399274 0.02435268834844586 0.03752356861728595 0.01944878750270424 0.019417369917718315
0.04577636719899081 0.04577636719899081 0.04523138342163644 -0.03327411833123156 -0.029635019025753773 0.04577636719899081 0.013653261706866307 0.04577636719899081
-0.04139769590567609 0.04577636719899081 0.04577636719899081 0.008033188352980832 0.021785628638110968 0.04577636719899081 -0.03733049380598751 -0.04055268801602555
0.0265509661470133 -0.022859079769031364 0.04577636719899081 0.03355462832520159 -0.03269120498682494 -0.02913054778040535 0.03260491212949905 0.03235587792817589
-0.02010028402359938 0.04577636719899081 -0.011578806155008125 -0.040976512547158124 -0.02972962830263475 0.01704373426464742 0.032783740615785345 -0.03070453386360391
0.04577636719899081 0.0449111030433373 0.0016074845920626701 -0.04577636719899081 -0.02241066250115668 0.03972918785708794 0.004321358575173412 0.03841519356738226
-0.037222431283474536 0.04577636719899081 0.041591498312736126 -0.007704482415762356 -0.008021292162278657 0.04577636719899081 -0.01479259663399967 -0.03139663022799638
0.002828339348325809 -0.0344574800778994 0.04391897529069105 -0.004851652194101058 -0.03268132423638239 0.0014592515075517016 0.028246016888984656 0.010010095141081171
-0.02793074236952533 0.04577636719899081 0.04577636719899081 0.009799863621724181 0.03368954640727526 0.04577636719899081 -0.0009208815756702854 0.029843075033783584
0.04577636719899081 0.04577636719899081 0.04482442456025778 -0.03252129682457587 -0.017689417295407364 0.01638159301776006 0.021028892666257865 0.04577636719899081
-0.03302493133479846 0.04577636719899081 0.04577636719899081 0.01932773011988907 0.0002973683877663222 0.04577636719899081 -0.03274661868002846 -0.01986818825160628
0.019841427279494596 -0.010047137041304277 0.04577636719899081 0.03368171747688043 -0.013624005081292329 -0.04577636719899081 0.0164387820446219 0.03373673099241509
-0.04577636719899081 0.04577636719899081 0.02611701348287924 -0.0009071227398184109 0.03171446588453654 0.04577636719899081 0.03386729077587677 0.029472532340273045
0.04577636719899081 0.04577636719899081 0.015331970648032095 -0.04577636719899081 -0.03660542280167929 0.04525271652936658 0.028726113676319442 0.04577636719899081
-0.04259910202723163 0.04577636719899081 0.04577636719899081 -0.04326034833133222 0.011554038795283227 0.041291947137685 -0.03743894195425414 -0.034985576357627016
0.02830779704510219 -0.02041105472529439 0.04577636719899081 -0.02844959090712299 -0.023492611950572572 -0.019042417993892474 -0.008453651391694812 0.04577636719899081
-0.031839896117878935 0.04577636719899081 0.042341984236997074 0.005626410712969018 0.0072375914915006195 0.04577636719899081 0.029595488748025995 0.018093604016934328
0.04577636719899081 0.04577636719899081 0.04068113049582097 -0.04241663556213734 -0.039395628856139585 0.04577636719899081 0.01935752516632663 0.04577636719899081
-0.04303079186854711 0.04577636719899081 0.04577636719899081 -0.012287266148079002 0.010920237403310225 0.04577636719899081 -0.03443817696234413 -0.03863308667010891
0.0233712344256223 -0.03822664440172098 0.04577636719899081 0.015242563680846567 -0.032301308246055815 -0.0357803874156847 0.021386382291805277 0.0318520615190129
-0.029121583800622425 0.04577636719899081 0.04066534166779423 0.006200447389084114 0.03693409235910968 0.04577636719899081 -0.0292060576685443 0.024044864409585337
0.04577636719899081 0.04577636719899081 0.0350499685825287 -0.03162243957260925 0.0009160066840675589 -0.0015799523684436889 0.02137522097282232 0.04577636719899081
-0.032546347946647805 0.04577636719899081 0.04577636719899081 0.01739599247666892 0.004936533515649428 0.04577636719899081 -0.035888260763299665 -0.033461277788988185
0.025628352893430406 0.008942428396465505 0.04577636719899081 0.014099336116388639 -0.005135378161337361 -0.041164676087065755 -5.0931703312068885e-06 0.03251555609401684
