experiments/fl_train_noise_1.0_max_grad_norm_2.5/20250423/model_round_7.pt (torch, 62777 bytes, 25 tensors)

embed.weight f8 [32, 8]
0	0xbff8778f751a5784	-1.5291895460445355
1	0xbfe93ca5a91cdf0c	-0.7886532118781999
2	0x3fdb5bdf40a3abf1	0.4274824267619684
3	0xbfdbc5645618b616	-0.43392284782280066
4	0x3f9505b881042d58	0.02052963530972582
5	0x3fc98da5e51939e0	0.19963525473072163
6	0x3fe9ef7c23e13a8a	0.8104839993264517
7	0xbfd2e5cfcac5db12	-0.2952765922740791
8	0x3fe951ee499a1698	0.7912513196503879
9	0xbff65f66003a3802	-1.3982906350024682
10	0x3ff173377a51215d	1.0906290796284204
11	0xbffdc5537493c258	-1.860675292377115
12	0xbf8306c00af321d0	-0.009290218671950706
13	0x3fd08c3604315e59	0.2585578003831635
14	0x3fd3e297cb1ff4df	0.31070513569268415
15	0x3febd8dd544e9dfb	0.8702227255461702
16	0xbff10e97fa6ff37f	-1.0660629065234557
17	0xbfba1751ecec6f12	-0.10191833528773156
18	0x3fcfb4052ff40842	0.24768128243892035
19	0x3fe42a0f404d4b29	0.6301342254540475
20	0x3fdc493ca44ee1cc	0.44197002454486944
21	0xbfb89d40080f1fd6	-0.0961494464564788
22	0xc000c6b3e29491d8	-2.0970227910604358
23	0x3fcbda7f7b5c38f0	0.21760552905511288
24	0xbfd07e9d570b44d1	-0.25772794247047864
25	0xbfd91129fe78afaa	-0.3916726098129809
26	0x3fee00f06ba5e5c9	0.9376146414280636
27	0xbfc29732f07920fb	-0.14523922674039355
28	0xbfe3663fd3cfdcc7	-0.6062316071464914
29	0xbfd654136a296853	-0.3488815819488355
30	0xbfe3f0d8c390a470	-0.6231502360943875
31	0x3ff4cfa9aeb77f2b	1.3006989312052137
32	0xbf8a64906fd64a98	-0.012887123501774497
33	0x3ff2affe94bd1bf0	1.1679673967462314
34	0x3ff77891816755d0	1.4669356398420526
35	0x3fe55c004113f8e0	0.6674805899672513
36	0x3fda878a35b50ac5	0.4145226978763897
37	0x3fdc904e8cbd4f70	0.44630779022303724
38	0x3fd2b80f9e79c77f	0.29248419262068376
39	0xbfe2eb79f1e2e8ce	-0.5912446712821067
40	0x3fea0ebe9bcfa7a1	0.8142998736559443
41	0x3fd2ddb3205d0922	0.2947814765976934
42	0xbfa91d4e1d46da8e	-0.04905170543081737
43	0xbfd5fb3ef8150fc6	-0.3434598372152745
44	0x3fc9218ab4323a2d	0.19633611487047756
45	0xbfe2f5c8a1658618	-0.5925028946186925
46	0xbfd0d6618a252c87	-0.26308477869742614
47	0x3fe87bee6f46a0ff	0.7651283429486567
48	0x3fe19faed0adeba7	0.5507425380486567
49	0xbfcd56da590a4f70	-0.22921304080648097
50	0xbfdf44f8be8fa077	-0.4885846959064177
51	0x3fb5733793ecef9a	0.08378932343924675
52	0x3ffb063df38afc0d	1.689023925151335
53	0xbff1dad72d4b522c	-1.1159278649621553
54	0x3fe587ec49f3a002	0.6728421635025372
55	0x3fe90bb3e3b05626	0.7826785513922843
56	0xbfe5a5f21107ab59	-0.6765070278755544
57	0x3fe5cee8c266ab45	0.6815074726958775
58	0x3ff0134f481200c6	1.004714280628876
59	0xbff0f4728f6571a7	-1.0596795655647868
60	0xbff293d7ec7fde0a	-1.1610945928822525
61	0xbff0ffbe076c2a86	-1.0624370851461733
62	0x3fe116ef6713cb46	0.5340497029522815
63	0xbff600941082fe2d	-1.37514120530967
64	0x3fe0c00649ad3646	0.5234404982563283
65	0xbff06cf731b1728d	-1.0266029301775774
66	0xbfee0b68b21eb0a8	-0.9388926962760893
67	0x3fe09e5131960fc8	0.5193258255462689
68	0xbff5db91df414298	-1.3661059113402754
69	0x3fc2eec307fc2377	0.14791143312347874
70	0x3fcb8c7c16c28b99	0.21522475348782846
71	0x3ffadb076a76c862	1.678473869204503
72	0x3fd513402da69aa0	0.3292999692734302
73	0x3ff257c1959d6fd5	1.1464248508773285
74	0x3fae8a484cb947c6	0.05964876114434463
75	0xbfd14eead1448938	-0.2704417270307604
76	0xbfed05ebaf007eae	-0.9069727342611793
77	0xbfbc3b88aedec579	-0.11028341550151834
78	0xbfbcabb687185aa2	-0.11199513242932338
79	0xbffd2d101f014abd	-1.823501702416862
80	0xbffda0f19275c77f	-1.8517928811165516
81	0xbfca33dd7eb98564	-0.20470780074814876
82	0xbfd29babfdb05746	-0.29075145506191225
83	0x3feeac79a01ec250	0.9585540892931679
84	0xbfab7b00e4f63e4c	-0.053672817182015636
85	0x3fe53679bbc7472d	0.662899843935724
86	0xbff60fc86aae4844	-1.378853241655194
87	0x3faf72fa3941abb6	0.061424083222696366
88	0x3fa3ca75b154ba40	0.03865402021107345
89	0xbfe19d28d46405d7	-0.5504345081573615
90	0xbf9177cd6c940fcc	-0.017058572532746827
91	0xbfefd6dcb8d435b5	-0.9949782953205416
92	0x3fda5fff8f9ff259	0.41210927034243167
93	0x3ff38f70aaf5aec5	1.222519557772942
94	0x400078c96c114e22	2.0589779322415476
95	0x3ff2205f70a964a4	1.1329035187575665
96	0x3fe18654d43e7cc9	0.5476478715317167
97	0xbfe3da315d8267cd	-0.6203848673205755
98	0x3ff8497ec5bfe1fd	1.5179431652633177
99	0xbfc13e8af57db760	-0.13472115504140003
100	0x3ff6e36d8d3b1862	1.4305243985013694
101	0x3fe55143d717bd9d	0.6661700440435429
102	0x3fc6751613b0ff06	0.17544818841451376
103	0x3ff0d56ec2af2323	1.052107582554705
104	0x3ff0c1afa8dba47f	1.0472866626753612
105	0xbff63f9b4192acc4	-1.3905289231723126
106	0xbfe088ca9afd3458	-0.516698172295615
107	0x3ff366a748687dc6	1.21256187710229
108	0x3ff1ca560b5ed667	1.1118984645994716
109	0x3fd974c0a0be1ac8	0.397751004195396
110	0x3fbc2e5ca68774db	0.11008242669727812
111	0xbfc287427f5b7392	-0.14475280016531805
112	0xbfed7794618e0200	-0.9208471207967364
113	0xbfdcdad14b14fad5	-0.45085556347104944
114	0x3fcac468667d674c	0.20911889080417223
115	0xbfe5adc0b8e52e67	-0.6774600611910956
116	0xbffb7085887f2e72	-1.714971097174296
117	0xbfcf2233177a7502	-0.2432311882629748
118	0xbff29d11841ead96	-1.163346782773123
119	0xbfec8ea3fe50cf17	-0.8924121825316175
120	0xbff4e2f106abab86	-1.3054056416101232
121	0xbff767cc856821b8	-1.4628415309144724
122	0x3ff3ac92c04c18e1	1.2296321403132924
123	0xbfd71896436fdc3c	-0.3608756693424231
124	0x3fd5a953ab505be4	0.33845988969681984
125	0x40009fc6c0c4fa71	2.078015810023594
126	0xbff0e7389db0ce17	-1.0564504775801475
127	0x3fc5d30c1509b3b0	0.1705031492923843
128	0xbfdbbab7d69b6db9	-0.4332713695309525
129	0x3ff2ab4e7cad5a61	1.1668228979302955
130	0x3ffcede2ca686dce	1.808077612548789
131	0x3fec3b18c962182e	0.882213967634703
132	0x3fe9c4673f96ace3	0.8052250139202467
133	0x3fe388328f9464f3	0.6103756717958774
134	0xbfd3be809a3212a5	-0.3085023408714654
135	0xbffec72722b670d1	-1.9236213069880714
136	0x3fe5f497b11ffe1d	0.6861074885818571
137	0xbf075cb752b72400	-4.455980737422954e-05
138	0x4002a26660480268	2.3292968294120335
139	0x3febea2e2f717af8	0.8723364760042776
140	0xbfcee6758e29886c	-0.24140805665507814
141	0xbfc3af4ee7dbda86	-0.1537874824641287
142	0x3fd50e04f94df0ba	0.3289806780446828
143	0x3fdad7b1c3880ba6	0.4194149407850837
144	0x3fe0d2803befe1b2	0.5256959124226823
145	0xbfd6e802a57ee3b4	-0.3579107872170042
146	0x3fda8b513b66547e	0.4147532539439637
147	0x3fb0a8416b007b28	0.06506737577772681
148	0x3fc576c525f60f6a	0.16768707612584005
149	0xbfd3f166001ed35d	-0.3116087914634614
150	0x3fd020ffca0a1fe7	0.2520141099016641
151	0xbfa00d9c8a878b64	-0.03135384741815164
152	0xbfd3206e3b51426a	-0.29885440628735316
153	0xbf979ab993e0225c	-0.023051166201215487
154	0x3ffb675c14b70b74	1.7127342995815669
155	0xbfc483db0ea19543	-0.1602739163819625
156	0x3fd9ce238c3fff21	0.40320671745574727
157	0xbffe4db56d244857	-1.893971849760893
158	0xbff0de55c640ebfa	-1.05428101961911
159	0x3fe9a62e9162ebd6	0.8015358771875707
160	0xbfcb52168f9c91de	-0.213442630884983
161	0xc0051b910a373849	-2.6384602354146733
162	0xbfb4acbde00c8a8e	-0.08076082916208291
163	0xbfdf98a48b53754f	-0.4936915741544298
164	0x3fd5b0c6dcbbb616	0.33891459995251816
165	0xbf7dab03a9d36450	-0.007243170080266273
166	0x3fd03f912fef5291	0.253879830180531
167	0xbff441a7a15b87d1	-1.2660290053395225
168	0xbfea4f1a84535205	-0.8221561989290086
169	0xbfc9eb044b1a3d3c	-0.20248464266885857
170	0xbfd0d84eeb14c476	-0.2632024093355264
171	0x3fd4b52446509e01	0.32355601183596155
172	0x3fd0d4c704a8b9cd	0.26298690276135234
173	0x3fe3d35dabd2f2da	0.6195515018403868
174	0x3fa85d74c5016b3b	0.04758801369526685
175	0xbff0e689ccee21d4	-1.0562837605558473
176	0xbfeab8c7acbc6b62	-0.8350561498403801
177	0xbf9ed8f0f6d8e54e	-0.030124440256462486
178	0xbfdc2a68e4095be9	-0.4400884844703215
179	0x3fe68fd7b3e63bb4	0.7050589097651625
180	0x3fd7a67091ba9c47	0.3695336745390176
181	0xbff1e295e7e73e19	-1.1178187426302257
182	0x3fdbe5c2af08abbc	0.4358984669985906
183	0x3fc5fd87345d1edc	0.17179956490348658
184	0x3fe402a6c7598492	0.6253236669109745
185	0x3fe66501d2f6fbd5	0.6998299713521826
186	0x3ff410482ba2df4e	1.2539750771083678
187	0xbfd2645c35315921	-0.28737549967390136
188	0x3fa9395a8a090f53	0.0492656987667305
189	0xbfc6c2c3f4fa3b67	-0.17781877004423594
190	0xbfc3c3abb19f597d	-0.1544088952347912
191	0x3fe54ca534119cb0	0.6656061188667959
192	0x3fec38c7e484ceb0	0.8819312537438773
193	0xbfe33593c1bd1115	-0.6002901824909112
194	0x3fdbf3f2417caf80	0.4367643012544633
195	0x3fa4dc34f7664bd2	0.040742545318742565
196	0x3fef8931ee3a680f	0.9854974415677605
197	0x400012e0c8f0b43b	2.0092178057152785
198	0xbfe2ec3a75fbc35a	-0.5913364700664758
199	0xbfdbc54c73659cfe	-0.43391715306502465
200	0x3fab27e81575a4d2	0.05303883802373267
201	0xbfe4bb056059d342	-0.6478297120907899
202	0xbff3384460e0e926	-1.2012370857542662
203	0xbfe42657d0a1dbaf	-0.6296805453156277
204	0x3fe3332ab2b87c6d	0.5999959459912937
205	0x3ffa504eb906e48b	1.6446063258756876
206	0x3fc205eb232d0203	0.1408056184536833
207	0xbfefa0a0d1cdba0e	-0.988357934735008
208	0x3ff614787dd541c6	1.3799977221825528
209	0x3fe5f8c7573f5d43	0.6866184906056464
210	0x3ff9c0b015b6a581	1.6095429275686401
211	0xbfd06292d00fad9a	-0.25601644819718106
212	0xbff2eb0e13e7e242	-1.182386472470299
213	0x3fe36cb90442251d	0.6070218165561162
214	0x3fd04cfe0e5112a0	0.2546992435275488
215	0x3fe5bdf1a7d42099	0.6794365194227964
216	0x3fefd2249a9cffbd	0.9944022197523662
217	0x3fd270a119fce799	0.2881243470943616
218	0xbfb4d5eb8ba0f7c0	-0.08138916167169352
219	0x3fedc6abbb919620	0.9305018104029763
220	0x3fea13070f58c983	0.8148227023832962
221	0x3fe1760b21523abc	0.545659604149328
222	0x3fb4d012dc3b0fd4	0.08129995228506398
223	0x3fd30b1519da8fd2	0.2975514175870987
224	0x3fe6beae459dd5d1	0.710776458711445
225	0x3fd0c781642fdba6	0.26217684539681796
226	0x3fd85382ea143956	0.38009713038709003
227	0xbf916b60b1d0aed9	-0.017011175969101486
228	0xbff2270f27709d79	-1.1345359364148335
229	0xbfe33a08fc475d2d	-0.6008343627280844
230	0x3fe6ef893e928d98	0.7167402479284872
231	0xbfc96a8b7f682773	-0.19856399270093625
232	0x3ff50d1e8d1f25ce	1.3157029640736826
233	0xbfe4a90aacdab2e3	-0.6456349731502907
234	0xbff574ce44f17433	-1.3410170262425367
235	0x3fe3e8fd30527b02	0.6221910423081172
236	0x3ff71226fb4d115a	1.4419317070433721
237	0xbfde4116ccdd4a06	-0.4727227211598407
238	0x3f831275b6a2d550	0.009312553058729606
239	0xbfea0c6b006fb238	-0.8140158661386243
240	0x3fdd4a013877e786	0.4576418925713529
241	0xbff1dc478b514f51	-1.11627916737503
242	0x3fa8695490bcffe0	0.04767860667061519
243	0x3feab10bb92353f5	0.8341120353676376
244	0x3ff5b37b67301902	1.3563188582207322
245	0x3ffe9951cb070f5f	1.9124315195812966
246	0x3fccf0831ac1bbf2	0.226089847626525
247	0xbffad7b188935f08	-1.677659543513018
248	0x3fde081076bdbf7a	0.46924220653362847
249	0xbf93293d56562580	-0.01871200408416973
250	0x3feed436aacc0471	0.9634049735906399
251	0x3ff6f98fcac4117d	1.4359281464140559
252	0xbfec1337a1fa6774	-0.8773458636889999
253	0x3fd01b28521c0eef	0.2516575624324408
254	0xbf90784bd30f2a54	-0.01608389354422919
255	0xbfb64e44de6c65c0	-0.08713179044970953

embed.bias f8 [32]
0	0xbfde7901e0d65b62	-0.4761357017209119
1	0x400212e5a99edc5f	2.2592271091084934
2	0xbff66017c695db08	-1.3984601742974423
3	0xbfc9422d5417f0ec	-0.19733206373337653
4	0xbfd13b3cdbfd767d	-0.2692405842152324
5	0xbfe3aee6859ed4ee	-0.6151001558088447
6	0x3f85c81183015dd0	0.010635506449189785
7	0x3fb715b7a0e4c6d6	0.09017512968128058
8	0xbfc4d0e055da5db0	-0.16262439910927418
9	0x3febf64a9d549e30	0.8738148758756719
10	0x3fef48f2c82ce554	0.977654829947975
11	0x3fe0c233167943b4	0.5237060011805768
12	0xbfc4ab44ba6da4ae	-0.16147669890350386
13	0x3fe96f15ff0b91e0	0.7948102933265169
14	0x40000570c6d85f49	2.0026565108090932
15	0xbfd59c1ff67fdf5b	-0.3376541049215029
16	0xbfc02af1107164a1	-0.12631047537687315
17	0xbfab15cc8cfe2114	-0.05290068837263298
18	0x3ffc49b181079aec	1.767991546652122
19	0x3fa89f39b1789ae8	0.04808979312320166
20	0x3fd07df2678a868d	0.2576871882575709
21	0x3fd73712f4ad3f00	0.36273645300114765
22	0xbfe8599c95badb23	-0.7609389233028633
23	0xbfd81466c170107b	-0.3762452019730131
24	0x3ff88295cf50d3a8	1.5318811510344208
25	0xbfc976ddcec93a39	-0.19894001576399648
26	0x3fd96740217d9cb5	0.39692691107343175
27	0xbffff5e71ba243fa	-1.9975348548362022
28	0xbff9d44dd1eea3d5	-1.6143320274807043
29	0x3fc36e46f890ddbb	0.15180289399152777
30	0x3ff026eb7abbd5c8	1.009501914433132
31	0x3ffd66623df2f11e	1.8374960346109854

pos_enc.pe f8 [1, 12, 32]
0	0x3f7a46d1aa000a98	0.006415194511648757
1	0x3ff49028f99ad7d8	1.2851953268232048
2	0x3fdafba051ce702a	0.4216080473795524
3	0xbfc14a47dd9d57d4	-0.135079367838158
4	0x3fbefac342a5aef4	0.12101383568886687
5	0x3ff3166f22671bef	1.1929770797594264
6	0x4000817bd5a4d023	2.0632244769021937
7	0x3fe921cec3e677fc	0.7853769136597744
8	0xbfbe4150c5156bd2	-0.11818413554776377
9	0x3fed1450e33c17f5	0.9087299764803435
10	0x3fc7e318277e41dc	0.18661786964777505
11	0xbffae779ed28804a	-1.681512762450455
12	0xbfe7e49d2357916d	-0.7466569605135597
13	0xbfe63467fb34b63a	-0.6938972383847564
14	0xbfd1b8e1234f04d5	-0.27690914581405696
15	0x3fcd32df6ed954b6	0.22811501419588404
16	0xbfa648c8320d60b7	-0.043524032697577146
17	0xbfe01f562cb174e9	-0.5038252709306593
18	0xbfe0d4bd5a793c73	-0.5259691969930728
19	0x3ff3e3d5d52da78c	1.2431238486555882
20	0xbfbe7fdc2c1a88e8	-0.11913848950146966
21	0xbff6effc3d8c14aa	-1.4335901645838853
22	0xbfeb9ef9086690ca	-0.8631558574748166
23	0xbfd94366f95d6a20	-0.3947389064029796
24	0xbfc6c97798aa6154	-0.17802329019901697
25	0xbff56a6129c5f04a	-1.3384715682759798
26	0xbfe5d22871bf8983	-0.6819040509838462
27	0xbfd0df929fa3da36	-0.2636457976326797
28	0x3fcd4b2092e9d38e	0.2288552014685163
29	0x3fe78c3f1b0b0c03	0.7358699348627628
30	0x3fd9ee990148da07	0.40518784642645794
31	0x3fd311695a93d301	0.2979377159638688
32	0x3fd221c1bf17bca1	0.28331035291098244
33	0xbfeda296e6debdaa	-0.926097346227768
34	0xbfb254bf8897fb5b	-0.07160565457159633
35	0xbfe16b8bf6761135	-0.544378262872249
36	0x3fe2cca7ede0d3c1	0.5874824186381532
37	0xbfe10fbba74c3702	-0.5331705348523601
38	0x3ff3354d3539e3cf	1.2005130843301577
39	0xbfb0ce576d8c689e	-0.06564852165721155
40	0xbfd65c1e5d032c63	-0.3493724735569172
41	0xbff5766b5f9f4b10	-1.3414109931224552
42	0xbfe60747dc586302	-0.6883887580507635
43	0xbff5e5c6f49eba44	-1.3685979419202718
44	0x3fff9005e700b2f6	1.9726618789238137
45	0xbfeeb0f17a16a407	-0.9590995201625682
46	0x3ffae1165d886766	1.6799529698968967
47	0x3fd04403b3d471f4	0.25415127336034904
48	0x3fe2bb72efa57875	0.5853819542496824
49	0x3fd43e94643d5c1a	0.31631955899269004
50	0xbfeccb3ff12a872a	-0.8998107633853796
51	0xbfc7e9248ee81e2f	-0.18680245378367163
52	0x3fda337cec991bac	0.4093925772216902
53	0x3faa0f7a70fa59ee	0.05089933995366268
54	0x3ff4f3cfa66ed8bd	1.3095242024697165
55	0xbfe542a4dd8f5bab	-0.6643852546065906
56	0x3ff30ed968c291fd	1.1911253063382212
57	0x3ff8728e7521c171	1.5279678893531037
58	0xbfd3063aa3d0015f	-0.29725519177738663
59	0x3fe3c20f0460bdcf	0.6174388013368403
60	0xbfd20de4dd03f9a0	-0.28209802230403547
61	0x3feccc1b9149feab	0.8999154889752011
62	0x3ff5f88da72ae19d	1.3731819658260982
63	0xbff0b536f59f04cb	-1.044241866548236
64	0xbfe7f1d7b3a81a33	-0.7482717999381009
65	0xbfd702095b3c1fac	-0.359499301048795
66	0xbff43c8c1711603d	-1.2647820378388268
67	0xbfb1d7001b5bc1ee	-0.06968689601831787
68	0xbfe59044e60bc537	-0.6738609784207829
69	0x3ff41be0976486ac	1.2568059839035568
70	0x3fd6f01253dcbce2	0.35840280713723704
71	0x3fe1f5de495d4852	0.5612632210634365
72	0xbfb65621e3ea5330	-0.087251775878326
73	0xbfbeffe0fad41520	-0.12109190105191603
74	0x3fdbdc39013e8a41	0.43531632539285076
75	0x3ff0a3ed6386749d	1.0400213134483132
76	0xbff381d3a9adfd6a	-1.2191959980117084
77	0xbfe3d7f58fd06634	-0.6201122101658201
78	0x3ff08689c3265d1a	1.0328462241212208
79	0xbfd74b15d4cc6721	-0.3639578416929102
80	0xbfde872438bd8c6c	-0.47699838200623534
81	0x3ff353e0436ac107	1.2079775460698003
82	0xc0010fdec9b9f712	-2.1327491531254816
83	0x3fe16f957dbc4bc8	0.5448710876247498
84	0x3ff7e13aa46811c5	1.4924875661973698
85	0xbf74c3996cd3cc80	-0.005069350544761098
86	0xbf8bce9ccf390478	-0.013577675889907534
87	0x3fedc02ab7bd1432	0.9297078694004368
88	0x3fe56316b3b5ac94	0.6683457860903155
89	0xbfe0cacc887a404c	-0.524755732114508
90	0xbfe30a08ec5aea52	-0.5949749580680168
91	0xbfd7309bee3e7f3e	-0.3623418642618964
92	0xbfea4acd59708318	-0.8216311213364831
93	0x3fd82abe354f8094	0.3776088257418533
94	0xbfb9ebd039403bea	-0.10125447652556799
95	0x3fee02a4689719ae	0.9378225367334403
96	0xbfe0c237daf2985d	-0.5237082744904559
97	0x3fb4270a9b2ac07c	0.07872072494751764
98	0xbffeaf2011fc8f4e	-1.9177551939582886
99	0xbff3170dd07d7724	-1.1931284088272571
100	0xbff415d04518b0a4	-1.25532557478713
101	0xc00001da2a75048b	-2.000904399582003
102	0x3faafea90c93e162	0.0527241542676531
103	0xbfeca007aa15ed6b	-0.8945349046693257
104	0xbfea0b19180732ed	-0.8138547391223178
105	0xbffaac916dafc0c1	-1.6671308788900634
106	0x3fb72fdd7344fe10	0.09057411255070513
107	0x3fe0657d8b910e26	0.5123889661703671
108	0xbfd709f83590158f	-0.35998349409813896
109	0xbfd67d6ac5056462	-0.3514048503907984
110	0xbfe6699447f00b1b	-0.7003880887062651
111	0x3faedce1164e5246	0.06027892491616575
112	0xbfdf88654f4f5891	-0.4926999353896316
113	0x3fe8624d988c1029	0.7619998912273377
114	0xbfdf0cbf7cf9cb54	-0.48515307621635384
115	0xbff063bc9ee4dfaa	-1.024349804572902
116	0x3fb49daff16b10f6	0.0805311169052095
117	0xbfe4f2c16e9081bd	-0.6546332511389249
118	0xbfe839ef6769ef10	-0.757072164516531
119	0x3fee329aab806c4a	0.9436772679940841
120	0x3fe7b15c753a9baf	0.7404005326869675
121	0x3fe026d80d1dd83c	0.5047416931327073
122	0xbff201b52e2e4580	-1.125416927712962
123	0x3fb788ceffa7b750	0.09193128339367473
124	0xbff0804c8c292262	-1.0313230013872716
125	0x3fe1c38d55211c9e	0.5551211035425643
126	0xbff7715b09aea8ea	-1.4651747110570406
127	0x3fd7a2be8141ab6b	0.36930811522204604
128	0x3fc8a7b412a29523	0.19261790189663328
129	0xbffaa2729c1b5285	-1.6646600816649493
130	0xbfe7790ca1720ae8	-0.7335265305740366
131	0xbff571c3fb2875e3	-1.3402747927533418
132	0xbfce7ea24a9a6c72	-0.2382395614884874
133	0x3fcd25f050340da2	0.2277202979677045
134	0x3feeb926c0b58ea0	0.9601014865733823
135	0xbfee7fbe9c27fb4c	-0.9530938196111065
136	0xbff945f5f1513a7e	-1.5795802523095115
137	0x3ff4c668f0aad4d4	1.2984399224345013
138	0x3fb99f0d3de5c2dc	0.10008318673295541
139	0x3fff621ae579032e	1.9614514316346674
140	0x3fd1ad07cf3934d5	0.27618594395319224
141	0xbf8dffbe94aac0e2	-0.01464795008845993
142	0xbff1d7f09677abae	-1.115219676745919
143	0x3fbb95ede68c240e	0.10775648954962966
144	0x3fd0d20699043796	0.26281895583167036
145	0x3fcfff5bd6920426	0.24998043038434153
146	0xbfe2b46871f5610f	-0.5845224595787232
147	0xc0026e6fbba7c19c	-2.3039240513391643
148	0xbfe58b5f6582398c	-0.6732632620421994
149	0xbff68f6959831e7d	-1.4100125786370932
150	0xbf91f0ce3030b85d	-0.01752016228800134
151	0x3fd0b98760059bc2	0.2613237798417992
152	0x3fea8f2929835b81	0.8299756823351886
153	0xbfb443094ee46d56	-0.07914789367753391
154	0x3fe60f285b7b941f	0.6893502985736893
155	0xbfe0d55d1cb18a2c	-0.5260453758640486
156	0x3fe3379ec5ebafe6	0.6005395761144399
157	0xbfc93c9b270448ef	-0.19716205029596476
158	0x3fdf5a11912d3e04	0.4898723523847084
159	0x4000f1d1907a9119	2.118075493565027
160	0x3fe6369322141ba9	0.6941619554134962
161	0x3f5051619d3dc620	0.0009959653152374973
162	0xbffd1de633be4f33	-1.8197996159769445
163	0x3fe13deb662dc3e7	0.5388085361174689
164	0xbfed9b7b1011f624	-0.9252295793409684
165	0xbfe651d66bcaf0ac	-0.6974899392439702
166	0xbfea2ff3253f6bd2	-0.8183532454962636
167	0x3feef090c5cff672	0.9668659080050033
168	0x3fefa3b0f3cb2d68	0.9887318383784249
169	0x3fe5c48c6ca45391	0.6802427408134567
170	0x3ff64d45530faee6	1.3938649410801474
171	0xbff2699400d0ada7	-1.1507759124604975
172	0xbfe0be88aa4b32af	-0.5232585264253283
173	0xbfd765f9b1b3ff89	-0.3655990825063716
174	0xbfdeed1c78f47796	-0.48322212039954004
175	0xbff0b4c38ef70c09	-1.0441318115779288
176	0xbff3baa691443df5	-1.2330690073466688
177	0xbfd45d4af939963f	-0.3181941446149245
178	0xbfbab953a8f86720	-0.10439036250354805
179	0xc0037696a0766ed1	-2.4329044853346677
180	0x3fd1a7d5641910f5	0.27586874747454654
181	0x3ff3dd5fea02e2b8	1.2415465489449797
182	0x3fe49818485efd5c	0.6435662663933885
183	0xc00501185a673f90	-2.625534731174362
184	0x3fb30f342921877a	0.07445074085401684
185	0x3fb7f0cecab76558	0.09351818513041132
186	0xbfd0026a4a79866c	-0.250147412041861
187	0xbfe58aaadcf025b7	-0.6731771769711291
188	0xbfcae0435d7e44ec	-0.209968968058582
189	0xbfcac62b7d3b389e	-0.20917266478358426
190	0x3fe2d203cc08074a	0.5881365761744999
191	0x3fda1809852aef61	0.4077171135393112
192	0x3fd45e362097c1e8	0.31825020964518425
193	0xbfe730f15e7e4b0c	-0.7247244687626746
194	0x3fe4a74665730fc4	0.6454193097529175
195	0xbfc19083699f42d6	-0.13722269685106053
196	0x3ff384fe71d6bf4e	1.2199692198591552
197	0x3fc9f8d25efb9def	0.2029059375556552
198	0xbfbf176881675dfa	-0.121450931160659
199	0x3f9a59f0512857d0	0.025733714059320623
200	0xbfe47257474294f2	-0.6389576331900158
201	0x3fd58752d26e28cf	0.3363844923957346
202	0x3fe21f27e778ba84	0.5663032074861154
203	0xbfe95e149cfca255	-0.7927344385289624
204	0xbfe41a3fdd3abf4b	-0.6282042809379872
205	0xbfc883d9a9135243	-0.19152374988211038
206	0xbfc5b83051812c22	-0.16968349437442592
207	0xbfe5c0ef5ba77b11	-0.6798016348001018
208	0xbfe463874a139ad7	-0.6371494719322425
209	0x3ff6a5ace850c64c	1.4154481005501962
210	0xbfc8c22444a77f3c	-0.19342473366031665
211	0xbff3ba2bc3d0018f	-1.2329518937041006
212	0xbf919f00622b9842	-0.017208105079497445
213	0xbfe74df408d201c9	-0.7282657787582646
214	0xbfe7ae655556d433	-0.7400385538845796
215	0x3feef08b54660958	0.966863312569596
216	0x3fbec7f85d3273c0	0.12023880267447762
217	0xbfa72ff03d4f750e	-0.0452876162378094
218	0xbfbb2b709da19cee	-0.10613159035129957
219	0xbfe262757ae711fa	-0.5745189094964751
220	0xbfb2aa4bfa6d5a7d	-0.07291102279610047
221	0xbfea1d28caf536bb	-0.8160594905873134
222	0xbffbe297ca99e51d	-1.7428205408198842
223	0x3ffacfd87aa0e9aa	1.6757435598543489
224	0xbfb65d5b673d1d2c	-0.08736201544262617
225	0xbffd4accee7b26e2	-1.8307618442217337
226	0xbf875d5afbba9f98	-0.011408530051383356
227	0xbfdb8572a2de0a53	-0.4300200071813027
228	0x3fc1f6616bd62f24	0.14033143773519285
229	0xbfd3ed3472f1194c	-0.31135283684524917
230	0xbfd29318eff40dd2	-0.290228113488607
231	0x3fcbcb1b171eb1f0	0.21713579777623648
232	0x3fceb3a4c5da07ae	0.23985728893972919
233	0x3fcb017aafc20474	0.21098264295509106
234	0x3ff3d39319606cd3	1.239153956534939
235	0x3ff78052c6886b78	1.4688289408865938
236	0xbfcc26a3a8489124	-0.21992917744604157
237	0x3ffbd8b95cd10a88	1.7404111505171915
238	0xbfd4ffd7ca1f0d8b	-0.3281154130783867
239	0x3ff2001987dd5fab	1.1250243479935118
240	0x3feb861a6be7c61a	0.8601200206305208
241	0xbff542c95f243cb9	-1.3288053242174966
242	0x3feed393706db064	0.9633271404141053
243	0xbfe56e6a35238254	-0.6697283780923251
244	0x3fb6ec028294caea	0.08953872383134934
245	0x3fd085b33e460c9c	0.2581604107037465
246	0x3fe8e7dbf6429286	0.7783031282202308
247	0xbfaa3cd38661e953	-0.05124531760607689
248	0x3ff3dba4436b03aa	1.2411234506146038
249	0xbff536430c762121	-1.325747536351692
250	0x3fee4851ef3debf7	0.9463281319325451
251	0xbfe46e205676164a	-0.6384431542107418
252	0xbfc50139197428e8	-0.164099824360455
253	0x3fc3e3809356f2d0	0.1553803176338051
254	0xbff5296c2505625e	-1.322612900365264
255	0xbfb8420db642726a	-0.09475789737411736

transformer_encoder.layers.0.self_attn.qlinear.weight f8 [32, 32]
0	0x3fe6e1e58b4c132d	0.715075275482922
1	0x3ff4e87aa2a38283	1.3067575791430108
2	0xbfb2e33713fe15a8	-0.07377952802752097
3	0xbfdadf111bf87430	-0.4198649190091741
4	0x3fc04fba944ba4a6	0.12743313065519607
5	0x3ff80eb437cb8084	1.5035898379792636
6	0xbff03234b99ca52c	-1.012257313772646
7	0xbff58528891f8e0f	-1.3450093609216116
8	0x3fed538149f7fc61	0.9164434857083387
9	0xbfe9a0eb2f715ed2	-0.8008933951013779
10	0xbfd4f5ac937b7dc8	-0.3274947586305328
11	0x3fd9cdaa1438fef9	0.40317775702349895
12	0x3ffc7310528640fd	1.7780917380915178
13	0x3ff1e55d0cde532c	1.1184969427751623
14	0x3fe2cfb86dd6ebe5	0.5878564973166901
15	0xbfebfdeee12fc44c	-0.87474769574886
16	0xbfe53e9a166bb723	-0.6638918340592891
17	0x3ffe1308d3c47d56	1.8796470901650841
18	0xbfe264f88ee65b98	-0.5748255530369191
19	0xbfb03f0a52a55911	-0.06346191899988109
20	0xbff5b5eff5b7bf63	-1.3569182966566238
21	0x3fed26840ab1f3e9	0.9109516343011111
22	0x3fcbeaed3fc856a8	0.21810689558394825
23	0x3fe88bf802dc6d2f	0.7670860343818385
24	0xbfc479e154e51bb4	-0.15996948857556748
25	0x3fce5dba20d72ce4	0.23723532298604433
26	0x3fe738458050561e	0.7256190782670193
27	0xbfbd7c46656811ee	-0.11517753577943043
28	0xbff176c4e039a6fb	-1.0914963492199934
29	0xbfe59457d5a4888d	-0.6743582890233185
30	0xbff07669b79ce03e	-1.0289094135641927
31	0xbfde293fd8a00dc0	-0.4712676635246815
32	0x3f9fa525df62a37c	0.030903426894528505
33	0x3fcd2e352f51aa15	0.22797264872072334
34	0x3ffae3e065d1e2e0	1.6806339242304418
35	0xbff733bd56baaa40	-1.4501317394121003
36	0x3fb0905153c0f502	0.06470211310166366
37	0xbfcddc423a13cb31	-0.23328426204496958
38	0xbfd83b05644027bd	-0.37860235967729833
39	0x3fe8ef0b3482310f	0.7791801477010568
40	0xbfca8699cd3393c0	-0.20723269004443345
41	0x3fb6cfa4545c80ff	0.08910586413958653
42	0x3fdb5f11e75c5d3b	0.4276776084311284
43	0x3fe303175f5903a9	0.5941273557910921
44	0xbfd4df4848c74679	-0.32612807376162994
45	0x3ff9dbd09e84cddb	1.616165751661234
46	0xc0042576b895accf	-2.5182928486516185
47	0x3ff16c1a24d3348b	1.0888921202161181
48	0xbfe0663c71dae4b7	-0.5124799941760533
49	0xbfef60edea40d08c	-0.9805821967370476
50	0x3fcc1a2aa38477c0	0.21954853996515844
51	0x3fe2d5a96cf9ea56	0.5885817650262861
52	0xbfd9a9a4b75f45d3	-0.40097921283185406
53	0xbff1f1e841f4f709	-1.1215593887749853
54	0x3fe320c510fc46d4	0.5977502185580428
55	0x3ffc0341c9c4ffae	1.7507951623556255
56	0x3fbd08d667f72bb8	0.11341609991283874
57	0x3fde6b668461964c	0.475305203703418
58	0x3fd5dcd6cfb724aa	0.34160394940097183
59	0xbfeefdb3f8230e26	-0.968469605104876
60	0x3fe6fb946a65b913	0.7182104185174317
61	0xbfc72c2737d6ead6	-0.18103494860209562
62	0xbff5209d04961ec5	-1.3204622439533733
63	0x3fe6a21983c791df	0.7072875570125311
64	0xbfb80a0f48fbf8e7	-0.09390349895327042
65	0x3fd4f4d02e01eea7	0.327442212037321
66	0xbfe93d2e4add4691	-0.7887183630175106
67	0xbfe29bf9aac87cff	-0.5815399489983121
68	0x3fed50be61050b87	0.9161064047733455
69	0x3ff0e8a775f5ebb2	1.0568003280484217
70	0x3fce8896b9324d7f	0.23854335825727088
71	0x3fc906a325353346	0.19551505390918517
72	0x3fe5b45d215aa471	0.6782670642325127
73	0x3fc48c50f0653c00	0.16053210962351727
74	0x3fe22f7f6de384dc	0.5682980676903315
75	0x3ff6a49d16e9cf52	1.4151888747264434
76	0xbfef8c3cef77688e	-0.9858689000204934
77	0xbfdff3b0065753b2	-0.49924851054430086
78	0xbfe18bbb43529c70	-0.5483070673843837
79	0x3fe5a9614dcd132d	0.6769262809326385
80	0x3fe2c8528ef468e0	0.5869534294208982
81	0xbfec8db3e48c5f09	-0.8922976936182475
82	0xbfebc1cc4df5fced	-0.8674069903062481
83	0xbfe92549c0a526d1	-0.7858017695045537
84	0xbfe6e9d2475d7242	-0.7160426515434397
85	0x3fb86c556cfaa1ef	0.0954030409872144
86	0xbfba9790bd9db57a	-0.10387520436571221
87	0x3ff6fe466a4aeceb	1.437078871923229
88	0x3ff4d125d75dc0e4	1.3010614788764139
89	0x3fe82cb02c75ebce	0.7554550999042193
90	0x3fc2c97fcbf66619	0.1467742677603361
91	0xbfe18b5658a233b2	-0.548258946526053
92	0x3ff600da02dfd6af	1.3752079117088376
93	0xbfe17f991978b661	-0.5468259332171322
94	0xbfdee31fd3e9cf4e	-0.48261256880436043
95	0x3ff985e01f524999	1.5951844428533148
96	0x3ffd3a93a1764647	1.8268009478673706
97	0x3fe03a861a00445c	0.507144022734916
98	0xbfcf095a79ffabec	-0.2424729438492642
99	0x3fbe65b2519a8b22	0.11873926632192114
100	0x3ff35ceb0a91ec5e	1.210185090340722
101	0x3fe763c99d644cb7	0.7309310983713634
102	0x3fa189c39b3e4616	0.03425418157634057
103	0x40000a441179562e	2.0050126423982624
104	0x3fe96242ca8a817b	0.7932447391395238
105	0x3fe4518f63eaf9f9	0.6349560691376716
106	0xbfdb178bf02d1dd4	-0.42331217245779595
107	0xbff33f02c8741979	-1.2028835134711626
108	0xbfc940a82fffa7f4	-0.1972856745117607
109	0xbff26b1e9ede7002	-1.1511522489372514
110	0x3fe0019056ef79aa	0.5001908967931759
111	0x3feba82253c0bd8e	0.8642741809652976
112	0x3fe47988e667ce6c	0.6398357868296904
113	0xbfd12559bbfd1587	-0.26790469511282605
114	0xbfc8e99f942d1b8d	-0.19462961898008438
115	0x3fe8a3e8c6d01e72	0.7700084574762072
116	0x3fdd6fe6f19b479d	0.45995496363058824
117	0x3fee44e2e3acde7f	0.9459089705259912
118	0xbfe4bf8dbad76163	-0.6483830117459032
119	0xbfc0af48f3364376	-0.13034927249512024
120	0xbfced91fbae2a8be	-0.2410010969663911
121	0xbff0b9483d9a681c	-1.0452349096654023
122	0x3ff0e6d37311f868	1.0563539977006489
123	0xbfb1f57f1fe624ad	-0.07015223053726301
124	0xc0007b53252a663d	-2.0602171805919895
125	0x3fb47c83d5dabdfe	0.08002494784408751
126	0x3fe5dce6bfe65af6	0.6832154987376657
127	0x3fed771a6f8e21af	0.9207889727413682
128	0x3fc7d9f022dbbe9b	0.18633844091481397
129	0xbf9627131f9e0ee8	-0.021633433155797827
130	0xbfd8014804859748	-0.37507820550523663
131	0x3ff6392eecd1ba35	1.388960766864
132	0xbfe1d2224c777c86	-0.5569011205187884
133	0x3fbaabc9dac7bfce	0.10418378440203854
134	0xbfd221215b651a50	-0.2832721130875244
135	0xbfd79bc69b09bec3	-0.36888280048786387
136	0x3fd530f03314886d	0.331111955531134
137	0xbfd2eb495a8cf1c0	-0.29561075060680864
138	0xbffd3fe68231674c	-1.8281006894744278
139	0xbfb014e31fa3e775	-0.0628187134024339
140	0x3fdc1494105f6151	0.43875600432285916
141	0x40012fae7ef36d3a	2.148282043269913
142	0x3ff10785eca104dd	1.0643367045707273
143	0x3fd34db95efeb6bb	0.3016189029393492
144	0x3fe485cf42941c0c	0.6413341808664668
145	0xbfc2688bc1b8ef21	-0.14381548842526917
146	0x3fcbcbff661b527d	0.21716301427536058
147	0x3fe78f69d6c5f75c	0.7362565226355673
148	0x3ff3b426206092a6	1.2314816727386328
149	0xbff3966c456660b9	-1.2242243491109959
150	0xbfe65459a08f87e1	-0.6977966438246278
151	0xbfe7309203a594a2	-0.7246790000177905
152	0xbfd9459534239a03	-0.3948719987078279
153	0x3fe17b291137db08	0.5462842308323568
154	0xbfe41b09539dbf12	-0.6283003457192271
155	0xbff461cdd1252602	-1.273877922986117
156	0x3fefe1613dc62d49	0.9962621885801265
157	0x4004852f875ba476	2.5650320601312684
158	0x3fb3183fb0afbd22	0.07458875716814764
159	0x3fa209c2785a657e	0.03523071021227063
160	0x3fcfd2dba0c67d56	0.24862237310751806
161	0x3fc370ccb3901f5e	0.15187987106059614
162	0x4002ac239a3b5e31	2.3340522813193947
163	0xbfede81e8759869e	-0.9345848697232275
164	0xbfefcb243381e45c	-0.9935475355151868
165	0xbfdbf3a7fa2525d1	-0.43674659183724623
166	0x3fffd52092404aa9	1.989533015531075
167	0xbfd8c05b07c360da	-0.3867404533207385
168	0x3fd4a7e951801e1c	0.3227484985258984
169	0xbfd0b0374e49a10c	-0.2607553734328725
170	0x3fef13ceef191838	0.9711680097468678
171	0x3ffc6b45648b8d64	1.7761892249626152
172	0xbfe5ccc6eef178c5	-0.681247202573808
173	0x3fb9b254e9a7f832	0.10037737564559349
174	0x3fe552b547888736	0.6663462063918135
175	0x3f88fd77eac4a4b4	0.012202202655844686
176	0xbfe713e62eb8ea62	-0.7211790955110013
177	0xbfe2f2eefb3fc65a	-0.5921549708566076
178	0xbfd130a5be30e2f2	-0.268594203694689
179	0xbfe1e7d0f15af414	-0.5595478738756605
180	0x3ff1a436feeec115	1.102591510611153
181	0x3fe79a3f6ee80af8	0.7375790754452671
182	0xbfdd315c8397cb6a	-0.4561377797210101
183	0x3ff3a38e319c92f4	1.2274305284456064
184	0xbff34e33ea8b9f36	-1.2065924798898329
185	0xbfd046bc5498711c	-0.2543173624160475
186	0x3fd8deabfe1cf646	0.3885908109258235
187	0x3fe36def69365a9b	0.6071698241165281
188	0x3fea2fc25e03e467	0.8183299862131549
189	0xbff01c5ab6fb2e34	-1.006922449846468
190	0xbfd6168b0d4ff536	-0.34512592601807357
191	0xbfb055cf42e07962	-0.06380935080276154
192	0xbfde6cdaf1021b40	-0.4753939965816478
193	0x3fd075b07c8ad8d4	0.2571831909402935
194	0x3fe5b5320b9ac892	0.6783685900357048
195	0x3fd17bdaf5801cf0	0.27318452810909744
196	0x3ff5df464f5e6059	1.3670104122484388
197	0x3fd6c0b43016616d	0.3555117101291419
198	0xbfef484dd8ab1726	-0.9775761825373805
199	0x400b6193c90e61bb	3.4226451594842877
200	0x3fd207d8319b4253	0.28172879070647133
201	0x3ff3e494b43e7208	1.2433058777597825
202	0x3fecab445ef2c113	0.8959066252191711
203	0xbff14c8e7b295f54	-1.0811905680656837
204	0xbfe798d939a8aaa5	-0.7374082685613145
205	0xbff4651ad1c99880	-1.2746837801765025
206	0x3fe34dbfdfcf065e	0.6032409068358893
207	0x3ff72abeed65729c	1.4479359887401761
208	0xbfe9e8265230e86a	-0.8095885854047655
209	0x3fa77b8280277e4a	0.045864179748374825
210	0xbfd5340f25e61571	-0.3313024396996616
211	0x3fe156cd87ee25c4	0.5418460516822781
212	0x3fd8a7f0a3719982	0.3852502437715871
213	0xbff219cc108bdd9f	-1.1312981268255056
214	0x4000187996b236f9	2.0119506619583913
215	0x3fdee068228a876c	0.48244670270115964
216	0xc00204386627bd8c	-2.2520606976392568
217	0x3ff171cd296207aa	1.0902835480232889
218	0x3fe81877f4ab1f07	0.7529868868523132
219	0x3fee64c443a77efe	0.9498006173489271
220	0x3ff63ef230989b5c	1.390367688969227
221	0x3fdd83cf751d1a54	0.4611700671852408
222	0x3fefd66c59d74134	0.9949247126296883
223	0x3ffb1ff18664d298	1.6952986955413163
224	0xbff80f8fba077b8b	-1.5037991778151276
225	0x3fe32d0b8a82893f	0.5992486672660461
226	0xbfed46b146832759	-0.9148794533914312
227	0xbfe5e40de2735214	-0.6840886519299283
228	0xbff56c1cd43b9d5a	-1.33889468100991
229	0x3fdc92ee3403d9ef	0.446467924877111
230	0x3fc75ed621b3a64b	0.18258167882531703
231	0x3fab0bc8b18d362e	0.05282427947404887
232	0xbf5e6b2f337544a0	-0.0018566094348282727
233	0x3fcfcfe665382cbe	0.24853210394244302
234	0x3ff05823fe019f56	1.0215186998484191
235	0x400150ee84cbe468	2.1645174383852925
236	0x3f94b495b9531d30	0.02022012656814559
237	0xbfe69d871538ba61	-0.7067294516071564
238	0xbfddb8df87289479	-0.4644087619693163
239	0x3ffeee4feb15bf60	1.9331816847806849
240	0x3fe95246e162d710	0.7912935640403891
241	0x3fe748a523edeca8	0.7276178075548119
242	0xbff3539210b44425	-1.2079029705530584
243	0x3fddd8daf0acd52f	0.4663607931464239
244	0x3fe9eb801cc901b3	0.80999761221033
245	0xbfdf16344e619180	-0.4857302442017257
246	0x3ff070f2212ebb41	1.0275746627991824
247	0x3fe5f336d4abe294	0.6859392312754431
248	0xbfdd1af7bef13566	-0.454770981280339
249	0xbfdd21f7692f35ae	-0.45519814750590626
250	0xbff234da94b3f7a4	-1.1379037674628103
251	0x3fdb6bb58c581064	0.4284490461871029
252	0x3fe4af4929518e2f	0.6463971907618936
253	0xbfbd3a8b2a239a3b	-0.11417455462251606
254	0x3fe8783164d63daa	0.7646719903440744
255	0xbfd7326974179186	-0.36245189988246584

transformer_encoder.layers.0.self_attn.qlinear.bias f8 [32]
0	0x3fe22287254b8a09	0.566714833108848
1	0xbfe3b2fc1c4a4979	-0.6155987312834404
2	0xbff2517ba9a7a5bf	-1.1448933245795698
3	0x3fceeacb819078c6	0.2415403731001275
4	0xbfd021e0a1be6a11	-0.25206771655362653
5	0xbff8efca71628d48	-1.5585426739788364
6	0xbff59e3d4ee23e0f	-1.3511326867482045
7	0x3feef1cb78353b2e	0.9670159671603409
8	0x3ff07a7940a3e2c5	1.0299007916457168
9	0xbfefba630f6478f2	-0.9915023136743726
10	0xbfc50e681565914e	-0.1645021538235007
11	0x3fe8f9ccab18f929	0.7804931012867985
12	0xbff1ac9531b4162c	-1.1046344701329742
13	0x3fedf19e27639395	0.9357443589511713
14	0x3fec46836de99cfc	0.8836075922708058
15	0xbfdaed2a10ed5118	-0.42072536137608685
16	0xbfe53e0b58f25d24	-0.6638237702599423
17	0xbff386364caa4be3	-1.2202666277632879
18	0xbffa820bb4520eb5	-1.6567494434138272
19	0xbfddf78d1b49bed2	-0.468234326027397
20	0xbffd4effd3aeecac	-1.831786944282423
21	0x3ff01e70492c73b8	1.0074313028664914
22	0x3f820f649b074420	0.008818422299471662
23	0x3ff930c653b531fd	1.5744078893504814
24	0x3ff33c74d73b02f6	1.2022598655168486
25	0xbffca2ce551474d4	-1.7897475551065343
26	0xbfd0de140337621a	-0.2635545760545327
27	0xbff12b355337c6ee	-1.0730489016245275
28	0x3ff01697cc1923ce	1.0055158588968314
29	0xbfcce3e0f860a750	-0.22570430877504544
30	0x3ff388c74eda3219	1.2208931999367734
31	0xbfd00c301888e8e7	-0.2507438888166135

transformer_encoder.layers.0.self_attn.klinear.weight f8 [32, 32]
0	0x3ff4e033fbc50010	1.3047370753047325
1	0xbfecdde597c10250	-0.9020870174354716
2	0x3fe118895d8d730a	0.5342451884458523
3	0xbfe35ca2fed194f7	-0.6050581910064058
4	0x3fe9addc90efc60d	0.802473338202789
5	0xbffb6868e144e6c7	-1.7129906463218718
6	0xbfcb0b984d6554e3	-0.21129134921162693
7	0x3fd937fe1eb9298b	0.3940425205261355
8	0x3fe594a8881cc3ce	0.6743967684216103
9	0x4001b3a358ee9951	2.2127139041723827
10	0xbfe09f1e030c6760	-0.5194234904804311
11	0x3fc0284d68d8a35e	0.1262299310631318
12	0x3fe196be89185209	0.5496514012943986
13	0xbfa4d412fae82cfe	-0.04068049729183974
14	0xbfe8fba460d183c2	-0.7807180300697996
15	0x3fc6cecac151c8c5	0.1781857913916324
16	0x3f728964a8afcf28	0.004525559615092857
17	0x3fa134acb8f0f04b	0.03360500104506111
18	0x3ff5e45ae4b3011a	1.36825074515952
19	0x3fe2e0c735153bc4	0.5899387394691691
20	0xbfb61e2a2aadf5ee	-0.0863977770040589
21	0xbfeb2f3bc73d0bc4	-0.8495158091903865
22	0xbfd096542dea5fce	-0.2591753433603089
23	0xbff5869a5e6a9e2f	-1.3453620613235093
24	0xbfeec1ea3a2b79d0	-0.9611712585572665
25	0x3f997bcf0fb6ff0a	0.024886355718762444
26	0x3fe40b630237fca7	0.6263899844488109
27	0xbfbc4c30e8c1be07	-0.11053758318461614
28	0x3ff468e3481c0fed	1.2756073776990846
29	0x3fd11a4f380a43cc	0.26723080132165644
30	0xbfccd41d377b5daf	-0.22522320946766913
31	0x3fa86edade1a7fcf	0.04772075616096993
32	0x3f9a47489c3610ec	0.025662550482153643
33	0xbf77b7ddc8b10220	-0.0057905829845031065
34	0xbfeb347554140816	-0.8501536028054513
35	0x3fe3eed5987272e5	0.6229045846444846
36	0xbfba2d59e37774f0	-0.10225450328239893
37	0x3fd0fcafd360fe18	0.26542277948826287
38	0x3ff2f2fbed849606	1.1843222883265994
39	0xbfcc511f7aa1c143	-0.22122567642100863
40	0xbffb4f67b358ee5f	-1.7068860059506716
41	0x3ff127d640529563	1.0722258102990387
42	0x3fe2d0e41f6827c3	0.5879994023718996
43	0xbfb69ede5e81614e	-0.08836164290676615
44	0xbfd1d30ad3df5a9c	-0.27850599947616117
45	0xbf453920e9a9e540	-0.0006476793963222996
46	0x3fda2371d8bbfcb3	0.4084133736177577
47	0x3fcbbfefc29a9834	0.2167949390615732
48	0x3fdcfacf8ff5b756	0.45280827578141236
49	0xbfc195bc6dab117f	-0.13738208155531237
50	0xbffe56114b455424	-1.8960125866190163
51	0xbfe1b4b1d3cebf5e	-0.5533074509494147
52	0x3ff5defd5e212ae0	1.3669408490119892
53	0x3fc8d087339b22ab	0.1938637735350047
54	0xbfe1229074eafd7e	-0.5354692729523973
55	0xbff7537241b0c835	-1.4578726354634572
56	0xbfdbfc43f28c09f8	-0.43727205930932156
57	0x3fcb52a7fc1d31da	0.2134599667573543
58	0xbfbdfa266f2fc6e4	-0.11709823812978076
59	0x3fd98f5552cf8d16	0.3993733700464913
60	0x3fc01494a0c0a6ce	0.12562806939359067
61	0x3ff2f98013eebd1b	1.185913160192121
62	0x3ff1c6959f139133	1.110982533829042
63	0x3fd0720e3f96e31e	0.256961404894854
64	0x3fad4b1729fd2563	0.057213519931404354
65	0xbfe86cf29550cf94	-0.7632992664643887
66	0xbfb28541f47ea1d0	-0.07234585017307116
67	0xbff83f1a39a35312	-1.5154058696254578
68	0x3fb3dce187b73217	0.07758912623757684
69	0x3fec89b5a73af4de	0.8918102518288398
70	0xbf9a6b89e26809d6	-0.025800852245092397
71	0x3fc15b30b24a29b0	0.135595404677884
72	0xbff3b44fae1dcc8b	-1.2315213014051405
73	0x3fca33b940ed16ec	0.20470348043652764
74	0xbff0e3745c4303a8	-1.0555308917975967
75	0xbfebaaecb6905dc3	-0.8646148267461559
76	0xbfddcb8ddb7c8fb4	-0.4655489581511987
77	0x3ff82abcb18ae4e7	1.510433858419043
78	0x3fbd2e48e063fb1f	0.11398749807629514
79	0x3ffc878e012cdc86	1.7830944105060396
80	0x3fef48f6697b851c	0.9776565609173846
81	0xbfb6004cf2e8bdb1	-0.08594208650969538
82	0xbfdc3788afff70bd	-0.4408895224312451
83	0xbfe54c8fc4c1ebcd	-0.665595897953034
84	0x3ff041c6ac059441	1.0160586089707666
85	0x3fc693594697b202	0.17637172648336735
86	0x3fe85456d1d88390	0.7602953051137877
87	0xbfd377cec422922d	-0.3041874804860381
88	0x3fc88e53bcc81114	0.19184347837302396
89	0xbffa2a4247dbd721	-1.635317116449592
90	0xbfdc40172e0abb38	-0.4414117765071981
91	0xbfcf497ab3bf2230	-0.24442991043749052
92	0xbfc94b6f2df2814d	-0.19761457198638724
93	0xbff66bb76153a426	-1.401297931845201
94	0xbfe013658567c872	-0.502367744977404
95	0x3fd16b4e2b06f6ee	0.2721743984401276
96	0xbff7c9e146117851	-1.486787103370734
97	0x3fcfc7ad5880776f	0.24828116246583984
98	0xbfc102a3c31f4e52	-0.13289305713134297
99	0xbfdac924fe92b665	-0.4185268865647685
100	0x3fdfb3a0ef5f1340	0.49533866287338313
101	0xbfbbd7c938a368a8	-0.10876138336917285
102	0x40046a5339b50bcb	2.5519165523887515
103	0xbfb1fb3bb862bec1	-0.07023976565937586
104	0xbfd242fd9b8aba14	-0.28533878507269717
105	0x3fc96d6e3a6eae9c	0.19865205624715976
106	0xbfea3ea3562207a7	-0.82014624426687
107	0xbfd4135d11f3266d	-0.3136818576136651
108	0x40028686f716f290	2.3156871131780647
109	0xbfdf0f6c7ff09904	-0.48531639570354934
110	0xbfd95776248e4bd5	-0.3959632260313673
111	0xbfe17c91bb47cb66	-0.5464562089749563
112	0x3fee3c023438857e	0.9448252696931119
113	0xbfe04c812a19b8ba	-0.5093389341616537
114	0x3fd1abc1d4521b08	0.2761082242436008
115	0xbfe572068101ac3e	-0.6701691169413448
116	0xbfc93c51bd713ef9	-0.19715329885593016
117	0xbf7b8bbbe0b1c5e8	-0.0067250575040005214
118	0x3fde374bef18733d	0.4721250376622271
119	0xbfe86d4dac787422	-0.7633427017750629
120	0x3fd5c1dafbb97700	0.33995699484317754
121	0x3febb5867632fbf8	0.8659088429047861
122	0x3fe03ef37260c99b	0.5076844438502123
123	0x3fe5dc325d2e160c	0.6831294841692297
124	0x3fa37114207d059c	0.037972096410622685
125	0x3ff00bafaff3119e	1.0028530953432901
126	0x3fe668a01d664ede	0.700271661206411
127	0x3fddf3debf2102f0	0.46800964989601734
128	0xbfe17cb71e1f0a2b	-0.5464740360551493
129	0xbff4be848d9723b5	-1.2965131312250666
130	0x3fbc4dd3cf0b281a	0.11056255154395025
131	0xbfa61b6b2b38c7b0	-0.04317793753251864
132	0xbfeddd8c96021685	-0.9332945756766128
133	0xbf9fe1e2df7ad340	-0.031135125055431034
134	0x3fee283c8ac1ef4a	0.9424116811855836
135	0xbfdb8f9b650aaa8a	-0.4306400763258941
136	0xbff14c51bfeffc1f	-1.081132650142315
137	0xbfa1a0cdf4253dd8	-0.03442996602336351
138	0xbfe12b55deb7d421	-0.5365399694406997
139	0x3fe7300607430387	0.7246122495490547
140	0xbfe132aacf38d4ec	-0.5374349639229457
141	0xbfcca720d2c7bdfe	-0.22385034839633983
142	0x3fd145eae9115c0a	0.26989243279007324
143	0xbfff372581e89b62	-1.9509635042720324
144	0xbff17e9c36985b56	-1.0934106953261185
145	0xbff26bf464477ebf	-1.1513561169776236
146	0xbfc537275fd630f0	-0.16574566058660123
147	0x3f967a7646e3ff1c	0.021951530529803795
148	0x3fe1a5867dbc5c53	0.5514557319428469
149	0xbfdb859aea021405	-0.43002961017947455
150	0x3ff693c297b999d4	1.4110742499120663
151	0x3fc4f740a390d49c	0.16379554735764124
152	0x3fd4a74aa80a2683	0.3227106705677231
153	0x3fe743be3cf652f4	0.7270194235485108
154	0x3feb56d749927eb8	0.8543507039030009
155	0xbfe6e1da30687fea	-0.7150698609802906
156	0xbfe8dccd0849cbbf	-0.7769532358055286
157	0xbff9168098f7595d	-1.5679937339060281
158	0xbfb61d55adfd0392	-0.0863851117874346
159	0xbfddcabfc43edc2c	-0.46549982227901654
160	0xbf967ffc0e334207	-0.02197259747191718
161	0xbfdb27ea9eb53fb6	-0.4243113088496061
162	0x3fed22152e51a379	0.9104104904809979
163	0x3fcb0c3a06dc7232	0.21131062827125074
164	0x3feac40c7f9ea195	0.8364317410060261
165	0x3fdf6966c8976f34	0.4908081969167484
166	0x3fd42eb85199a652	0.31535156220215754
167	0x3fce494a468d17a6	0.2366116375434874
168	0x3fcf88e3b408893f	0.24636503496828685
169	0xbfe584c321b53bed	-0.672456327281791
170	0x3fefaee6ddad9caa	0.990100319829158
171	0xbfb73227fec399b6	-0.09060907335115229
172	0xbfd3387968a369e2	-0.3003219148501143
173	0x3fe81d4678d31e7a	0.7535736427170854
174	0x3fc69e5d46e66417	0.17670789682304708
175	0xbfe46a964e401393	-0.6380111244512697
176	0x3fd621281b39451f	0.34577372225347064
177	0x3fd7cde18b3b6a80	0.37194098088153993
178	0x3fe5e3f3ef8588eb	0.6840762785107278
179	0x3ff40ed3f3d9710f	1.2536201024404965
180	0xbfd68a7950403384	-0.35220177494994
181	0x3fbd4dff3ee11686	0.11447139058244646
182	0xbfd28d66c131f22a	-0.2898804556532776
183	0x3fee0bb08c34aa0a	0.9389269579308472
184	0x3fd858abbf48b72d	0.3804120414741757
185	0xbfd27f14b22fef2f	-0.2890063991651343
186	0x3fd2bcf5d577b000	0.29278322073400886
187	0x3fc9a9fbd0ba6f8c	0.20049998943147462
188	0x3fbbf75c7a5a4480	0.10924318301319325
189	0x3fec5f3ee57174a2	0.8866266709625459
190	0x3fccd512d7ef5484	0.22525249046035267
191	0x3fc8d2dd5cdd531d	0.19393507990266637
192	0xbff35449a4842a2b	-1.2080780435959564
193	0xbff4c5a8308b6875	-1.2982561012527445
194	0xbfe68b8c3cee7aab	-0.7045346441335217
195	0x3fbb95d0e762db69	0.10775476121021445
196	0xbfd1a4a4352765f9	-0.2756739157753994
197	0xbfd7874c0f294424	-0.3676328800257258
198	0xbfd26b0bb7eeadac	-0.28778355562345825
199	0xbf7cffd62d99eae0	-0.007079922326392846
200	0xbfd196ab62f793ac	-0.274821135184818
201	0xbffab47d40815663	-1.6690647620902375
202	0xbfe42ae82687bb91	-0.630237651113804
203	0xbff6898dfa79a26a	-1.4085826667962018
204	0x3fe41bc0c719e5b1	0.6283878220266869
205	0x3faea2272b2b874e	0.059830879230288944
206	0x3fc6e31470808db6	0.17880492680806775
207	0xbf8db22c26e2fc74	-0.014499993263937784
208	0xbff54f3028e50b96	-1.3318330380868466
209	0xbff38feae13dddc2	-1.2226361082556285
210	0x3fba5903319a3d34	0.10292072258947799
211	0x3fdabeb20c370d04	0.41788912957072477
212	0xbf90e4de5c827cf6	-0.016498064419121904
213	0xbfc0c3301b1bfe3c	-0.13095666240404735
214	0xbfc3c643f2a9245f	-0.15448808048884907
215	0xbfd2a0d0dcb86166	-0.29106542162619176
216	0x3fc3e2978a3865ba	0.15535253762281603
217	0x3ff6443afd5f5980	1.3916578194963165
218	0x3ffe6b4a88b37f7e	1.9011941280259346
219	0x3ff1b2b356f878b2	1.106128062943338
220	0x3fe319a9b876198a	0.5968826868782326
221	0xc000f922ffb6e83a	-2.121648786324866
222	0x3fcdf487f10044be	0.23402499454144804
223	0x3fe2b47b3547a04b	0.5845314064618007
224	0xbfeb237323b227e1	-0.8480773636995275
225	0xbfe7787ec9673a1c	-0.7334588941246838
226	0xbfe24cb4ae09b7e3	-0.5718634986094425
227	0x3fecf62d796104fe	0.905050980633092
228	0xbff0a59dd001cfb6	-1.0404337048794168
229	0xbfdd5293585d3c23	-0.4581650126392011
230	0xbff043cbd8e4fc9e	-1.0165518257561312
231	0x3ff8c8c9a559dab6	1.5490204295180496
232	0xbfe4d32892eb6bf2	-0.6507761830829379
233	0x3f90da4aa295bd0a	0.01645771615352224
234	0x3fe4c0929fef4e8e	0.6485074161268629
235	0x3fa7dbc40d9f75ca	0.046598555243444986
236	0x3fc5a4300700f665	0.1690731081197782
237	0x3fead7489e40cffe	0.838779744232397
238	0x3fd4e7998f5dbb12	0.32663573265647117
239	0x3fa5d1a14cc18021	0.04261497556649397
240	0x3fe3608a757b5d18	0.6055347723549032
241	0x3ff5682491cc225a	1.3379255004130273
242	0x3fe3910d92c7ae23	0.6114566675946133
243	0xbfdeec3b503376b5	-0.4831684382641968
244	0xbfe6745ec60f41ef	-0.701705347857624
245	0xbfb31405bd6c4212	-0.07452426790792568
246	0x3fd1defaaea5fa78	0.27923457198622925
247	0xbfd7a5c8ac4e8aa8	-0.3694936449702859
248	0xbfdea6f061d04f1b	-0.47893914749259786
249	0x3fe01d5554741f88	0.5035807275280471
250	0xbfc1e6bf14ccec78	-0.139854321629034
251	0xbfecb70d5b3eccf2	-0.8973452360281995
252	0x3fe1c5ae17b3022a	0.5553808653713237
253	0xbff1ea98f3b3e7d8	-1.119774772609608
254	0xbff22914baddd294	-1.1350295352432669
255	0xbfe311c0bcb3c7d5	-0.595917099532239

transformer_encoder.layers.0.self_attn.klinear.bias f8 [32]
0	0xbff06726e105e525	-1.0251835622751255
1	0xbfd78ae1c0dc96ab	-0.36785167535922864
2	0x3fe31d233c4623bd	0.5973068406320788
3	0x3fe24278da614629	0.5706142678483889
4	0xbfad954a39e8eb5c	-0.05777961689860575
5	0x3fcced05cc5a5290	0.22598335722127105
6	0xbf845770d6ff38b8	-0.009932405053316593
7	0xbfe9da5f877895a8	-0.8079068799894928
8	0xbfd63aa191b4d2d3	-0.34732856015334085
9	0xbfe12d54a22e7a0a	-0.5367835204704658
10	0x3fecc769ed1960d9	0.8993425017206632
11	0x3fe578f8092d414d	0.6710167102083148
12	0xbfeb6b4a9884515c	-0.8568470934720085
13	0x3fbc6eb6fece88b7	0.11106437416904923
14	0x3fdb860097359aa5	0.4300538517622193
15	0xbfe02ab630ad3352	-0.5052138281549594
16	0xbff827a9cf0f1105	-1.5096834266888106
17	0xbfd2d2c86fe81410	-0.2941151707494223
18	0x3feed74ef91f153d	0.9637827745106403
19	0xbfe5e838162a91f3	-0.684597056668791
20	0x3fd7957695079252	0.3684975104681928
21	0x3fa493591b5b8129	0.04018667658761139
22	0x3fb238cfe739c61f	0.07117938418539226
23	0x3fd9138bbaea3aff	0.3918179822293694
24	0x3fe3311ce2e557b5	0.5997452193794205
25	0xbff14a18b93bb888	-1.0805899844813514
26	0x3fdc685c0e9f8be3	0.44386960437821993
27	0xbfddebc0ad4cd6ff	-0.4675141994842846
28	0xbfdfb60f9b56eae5	-0.4954871193873898
29	0xbfe10e4a9724af0b	-0.5329945518510341
30	0xbfe0f4daaabbbff4	-0.5298894247662234
31	0x3fd2d4096dcfc6ba	0.29419170116225823
