experiments/fl_train_noise_1.0_max_grad_norm_2.5/20250423/model_round_2.pt (torch, 62777 bytes, 25 tensors)

embed.weight f8 [32, 8]
0.21797666403299845 0.8883039335292403 -0.8596857317664913 -0.9899764120484011 -0.14805159091367667 -0.33533662639089307 0.9546852416707876 1.3811883902600213
-0.9577392814237315 1.8801098439645456 -0.7019876103887336 0.6289804773836994 -0.45081958340947037 0.4698925486119168 -0.2527491662986787 -0.07756351338752142
-0.13965981465182803 -0.09349084596328061 -0.8521904823884494 0.4342884304663981 -0.35939191023533235 -0.5484901156406541 -0.24980136066809527 0.511295661778367
-0.9289787210759123 0.061265550236331276 0.529466787802255 -0.5136526061808221 0.03981596476904817 0.49349290718065564 0.09225844861173157 -0.3743214061451909
-0.6965804578550384 -0.7675695340152958 0.9683588350053693 0.3189341499647918 1.4170884477490577 0.7043474665210369 1.5987770484162316 0.052280564724768094
0.26639911234362484 1.4917130528400615 -0.29399454452735596 1.6429009539194048 -0.9255092192136973 -0.7095145273058842 0.2499037611986788 0.2643816382153368
1.6826056131886455 0.9331383050247707 -1.5528521596598859 0.5107809481099039 -1.0958273358026611 -0.3040860201980543 0.4227055027528675 0.39891237829642323
0.47223205643999455 -0.05101288787364498 0.6290764312586876 -1.3408655987168543 0.29040303660496397 0.7897536766078022 0.5382249262944737 1.1461771646226482
0.5044003706115876 -0.34624727735714605 0.4610618362969008 -0.0942072787600205 0.7697966959391264 -0.41863752482050554 -0.40631542194773157 2.393029383213445
-0.33776228910514805 0.2665751074974396 -0.3530656089958569 0.07314573764424295 0.7980598843477593 -0.3188647489405982 -0.721210580245149 1.1464000461138841
0.6973018428403936 -0.9153782575002347 -0.5346038671425545 0.0713358317503418 -0.5727686227371613 -1.0770927717510372 0.049449770163154216 0.06782915359056108
-1.7446425734338022 0.17443374662126812 0.4625130966544504 0.010589483544366639 -0.10700424128248992 -1.0808579781270669 -0.06442883587837953 -0.4478465511272561
-0.3329090124470573 0.3755737793945254 0.10864142208258226 0.5267472425804118 0.595542753221881 -0.6834095434399112 -0.6716785101847854 -0.410385658711027
0.417819948309497 -1.3311302907004652 -0.08979954470106141 0.059590262744222855 -0.967935661210671 0.4594225528496536 -0.7328212836877577 1.5271155929630529
-0.6600301546110648 0.7643906601888002 0.2601248558968216 0.08958522515486037 -0.7117442770516986 1.6528045340518835 0.7178143087764478 -0.6026398164248786
-0.1852444738242284 1.29896342465719 -0.9038739348909985 0.8031271044209634 -0.21997301560062338 1.1933802127934594 0.9239123372022334 1.5958282258534637
0.13908794852376893 -0.370451802361513 -1.2214477819010354 0.40762774252556905 0.5083037983295469 0.8974343867167047 0.1949449728078749 -1.804442649495434
-0.014776866198761451 -0.814649757980568 -0.7496764231849032 0.029631337716170686 0.16687232708078809 0.046666742232492286 -0.532323492133601 0.9943697000252668
0.005952257602492517 -0.44019971434003297 1.312612477889499 -1.8334471392009326 -0.7102980277953129 -1.2877193242802332 1.9085680101099487 0.5561731524525904
0.3912257032664849 0.5268150305382352 0.560785351377271 0.9333919912917967 -1.912709199752872 1.292057222423524 -1.4007866434622083 -0.0027667759289573407
-0.142719685913237 1.2619922170664675 0.5806248443652785 0.7172707646630923 0.3986263988579874 -1.5097728955629854 -0.40423320631731596 0.37460635381592267
-0.2988627470796964 1.086709557914224 0.6700779725236347 -0.6735181946633825 0.0019235649142234773 -0.7038798749869004 0.38062324520650626 0.37298123682470735
-0.7414438729798988 0.15198590679115703 -0.09948641466182566 1.7468329933910254 -1.173109101051456 1.405552371724578 0.41618247711772327 -0.6848629499352764
0.3892693427629554 0.9418837188831131 0.8515290842286732 0.5622340876640598 -1.2324167094964786 -0.08526787069141423 -0.7228291668935592 0.20753834375536434
-0.637591460218743 -0.10806235032208356 -0.2359263511707429 0.9881991439984402 -1.27690003825142 -0.06398007371774905 -1.34720068704381 -0.4276547841506617
0.2919176853982913 1.5968965260969301 0.4422726394444676 -1.009158779246647 0.8331321329799053 1.1184271043970482 0.11847044047307813 0.5417241466572854
0.47460781709644845 0.4989549951371979 -0.44904534378869415 -0.4692714908591638 -1.2367795014109582 -0.6455719635500715 -0.27402921687124965 -0.876699241309617
0.41190408582328164 -0.04096389374139552 -0.3395736328144459 0.6484914415977558 0.5278644129441246 0.19462225172777026 -0.14869335736255046 2.179676591113684
1.746127541279228 -0.2591667979575155 0.09493877723670242 -0.22082644523700828 -0.268210332359785 0.6647263424419102 -0.3345538300978999 -0.5606139831196013
0.5106840844127314 -1.191452218730332 -0.5386659139766805 0.46001025422245734 0.5050375923232802 0.38671890395160835 -0.48257504590611106 1.2184412736669505
1.9162787845803895 -0.129533976970803 0.7467466942547034 0.3070618483288381 0.5616761364233647 1.0033702145625178 -0.4401509917352028 -0.5473417342686625
-1.157730353071937 -0.6761778378845302 0.14787444462778898 -1.199539258191172 0.15319870698864554 -0.10809891618825072 -1.7368193983251716 -0.8981256879329752
00000000: 5d0d a8c9 a8e6 cb3f e151 ed5e fc6c ec3f
00000010: 0dcc d8a6 8b82 ebbf d0e5 3103 e3ad efbf
00000020: 5b29 8cc2 5af3 c2bf a5fd dfc0 2776 d5bf
00000030: 7e65 5e10 c88c ee3f bf81 5cff 5819 f63f
00000040: 28e7 79d9 cca5 eebf 3972 4b0f ee14 fe3f
00000050: 3b23 9ab8 ae76 e6bf 43ef 85aa 9b20 e43f
00000060: 14f6 c861 3ada dcbf 8506 3b32 b812 de3f
00000070: 9405 d6d6 0a2d d0bf 3fbd 5cd1 33db b3bf
00000080: ea5c 3f70 5fe0 c1bf f03d e31d 04ef b7bf
00000090: 7044 7af9 2445 ebbf 3099 78b3 61cb db3f
000000a0: 1618 3aed 4600 d7bf 4463 9b24 3b8d e1bf
000000b0: 266b 48b1 7df9 cfbf aa97 3db8 885c e03f
000000c0: 2d6e 3695 31ba edbf bee1 45bd 325e af3f
000000d0: 32b9 3d55 64f1 e03f 55a8 2197 d76f e0bf
000000e0: 4460 1515 c262 a43f 3e87 4946 6395 df3f
000000f0: 662c 91eb 3f9e b73f 6786 65c5 e1f4 d7bf
00000100: a1a4 b019 634a e6bf 8f0d c0fb ed8f e8bf
00000110: ca80 e4aa cbfc ee3f 2949 ebc7 6a69 d43f
00000120: 1bf2 a9ef 64ac f63f 4d4e b7b2 038a e63f
00000130: a2b0 083e 9794 f93f 1628 6ba7 84c4 aa3f
00000140: 4fc1 ccdc ae0c d13f 1e6e 8f81 0ede f73f
00000150: 5ca2 7c7e ced0 d2bf b06a ba82 5249 fa3f
00000160: 1c6b 9582 c59d edbf fb19 5acf 57b4 e6bf
00000170: ba73 bfb0 d8fc cf3f c00e 73f6 a0eb d03f
00000180: 5161 0bdd f3eb fa3f 8b3d d7dc 44dc ed3f
00000190: e431 9481 7bd8 f8bf 40a9 7149 5158 e03f
000001a0: 245d 953e 8288 f1bf daf8 fa35 2576 d3bf
000001b0: 616b 8a61 9b0d db3f 882c b0c8 c787 d93f
000001c0: 2a16 a2cd 0c39 de3f 0e03 2f7a 5c1e aabf
000001d0: 3618 5ee5 6421 e43f 2620 6d7c 2f74 f5bf
000001e0: 8127 389e f695 d23f 02a4 9d80 a945 e93f
000001f0: f174 0a7b 2339 e13f da9e d7dd bd56 f23f
00000200: dcbe fb3e 0c24 e03f affd 2457 ea28 d6bf
00000210: 9c0c 1581 0982 dd3f 0cc7 51dd f71d b8bf
00000220: b113 34ae 2ca2 e83f 9ee0 7e0b f5ca dabf
00000230: 870f 4866 1201 dabf 7f26 da96 ec24 0340
00000240: 5ad6 61b8 e59d d5bf 9c44 280a 910f d13f
00000250: 9ab0 fe7e a098 d6bf 0a19 06d7 adb9 b23f
00000260: ccbd f0e1 b489 e93f 0304 23b1 4768 d4bf
00000270: c0d3 f535 2814 e7bf 8812 2393 a757 f23f
00000280: aa14 4ef4 4b50 e63f eeda ed57 c74a edbf
00000290: 2528 b691 791b e1bf bc92 66a8 1043 b23f
000002a0: 2098 dadc 1e54 e2bf f2db 56a1 c53b f1bf
000002b0: 407a 4af3 7a51 a93f b006 635c 405d b13f
000002c0: 27b8 c154 0eea fbbf f54e 8752 d853 c63f
000002d0: 3490 0688 d099 dd3f cc63 096c f0af 853f
000002e0: 4472 d744 a164 bbbf aed2 3abc 314b f1bf
000002f0: 8e59 047f 687e b0bf 01f3 ad94 84a9 dcbf
00000300: bc3d 409a 614e d5bf c603 ef9a 6609 d83f
00000310: 64eb d59a eccf bb3f 7683 8408 1ddb e03f
00000320: 1da6 0ead af0e e33f a228 dbb0 7dde e5bf
00000330: d36d 55ee 637e e5bf 6352 ba35 c243 dabf
00000340: cac3 66e1 8fbd da3f 2360 9446 4f4c f5bf
00000350: c6ce af5b 1afd b6bf 0000 4b6b 9d82 ae3f
00000360: e105 3135 54f9 eebf 982e e2d9 2d67 dd3f
00000370: 940d e89e 4573 e7bf afce 8fc2 106f f83f
00000380: 05b5 0d8f f71e e5bf b01e dc66 e375 e83f
00000390: 2707 3db9 e2a5 d03f 32b3 3eac 0eef b63f
000003a0: b2ab 21ef 9bc6 e6bf 09ef c62a e371 fa3f
000003b0: 4976 99b6 55f8 e63f 57fe d94b d348 e3bf
000003c0: 357e 6b46 17b6 c7bf 08a5 39df 8dc8 f43f
000003d0: 9a09 c207 89ec ecbf 689d 009d 37b3 e93f
000003e0: 1eeb 0066 1328 ccbf 4b43 9ad9 1518 f33f
000003f0: cdf1 149b b090 ed3f 7330 812d 8388 f93f
00000400: 64b2 1647 a2cd c13f dac3 f879 7bb5 d7bf
00000410: 4696 50d4 0c8b f3bf 75bc c5ab 9216 da3f
00000420: 6641 c853 0644 e03f 4a21 a851 c8b7 ec3f
00000430: 075e 5df5 f4f3 c83f 9b72 7141 ffde fcbf
00000440: e006 7d68 5543 8ebf 3e11 875e 9c11 eabf
00000450: 512a 0569 59fd e7bf e8f2 b569 ad57 9e3f
00000460: e6ae b589 125c c53f e819 6607 b4e4 a73f
00000470: 0d67 b346 cb08 e1bf 3fbd b767 e0d1 ef3f
00000480: 8056 d7fb 6461 783f 8d22 336c 3b2c dcbf
00000490: f3b5 0df1 7500 f53f 1601 ddaa cc55 fdbf
000004a0: d369 f9ed c2ba e6bf 855f 0394 7f9a f4bf
000004b0: 0ed3 199c 7e89 fe3f a04e 96a3 2bcc e13f
000004c0: f795 3888 d709 d93f a97e e631 abdb e03f
000004d0: 4db8 071f f4f1 e13f 6a4a 9ee1 58de ed3f
000004e0: 9226 3bf6 749a febf 05ea ad31 44ac f43f
000004f0: 3180 6541 9f69 f6bf e0db 2a84 59aa 66bf
00000500: 4312 bf7f a344 c2bf 51b6 41c0 1e31 f43f
00000510: 2168 b98d 7a94 e23f 4a5b 93d1 e1f3 e63f
00000520: 2bb5 9a4c 1883 d93f b048 ad9f 0728 f8bf
00000530: 14c4 45f4 f4de d9bf 26d8 a0ed 8cf9 d73f
00000540: 0ecd 2c37 9120 d3bf 18e0 b78f 2963 f13f
00000550: b549 385c 4771 e53f d5e2 6a07 768d e5bf
00000560: 401f 7e19 0484 5f3f a833 6c16 2f86 e6bf
00000570: ea98 9099 215c d83f 8bc2 8bb1 ecde d73f
00000580: 7395 4880 e8b9 e7bf 6e7a 8f31 4674 c33f
00000590: 0b6c 5e11 f177 b9bf 0603 2327 07f3 fb3f
000005a0: d37e 7a0c 0ec5 f2bf eef4 d57b 247d f63f
000005b0: 92e3 18d4 bba2 da3f e3d9 86b4 65ea e5bf
000005c0: cf25 20f6 c9e9 d83f 4a9c 2753 e923 ee3f
000005d0: 015c 0bec b93f eb3f 45d5 6657 d2fd e13f
000005e0: 0a4d 6595 fab7 f3bf 0ce9 047c 1dd4 b5bf
000005f0: 6fe3 0ca2 6a21 e7bf a632 8ccf 9d90 ca3f
00000600: fb25 bb34 2667 e4bf 38ef 8f64 f9a9 bbbf
00000610: 747f 45ad d532 cebf 6512 adcf 539f ef3f
00000620: e3d0 08bc 2e6e f4bf 78a1 3684 ff60 b0bf
00000630: c307 c04e 228e f5bf 08ec f92b b25e dbbf
00000640: 2a38 fa83 c7ae d23f ceea 2a5f e38c f93f
00000650: f817 95e6 314e dc3f c05e 15ad 8325 f0bf
00000660: 40a7 0cb8 04a9 ea3f 5986 c5d1 13e5 f13f
00000670: d3e4 5f2b 1454 be3f ed16 abe0 cd55 e13f
00000680: 87bb 3677 f95f de3f 1091 92ee e0ee df3f
00000690: cd95 7fae 28bd dcbf 7ddb 8b4a 8b08 debf
000006a0: a3c5 6e4d d9c9 f3bf 9b2f d588 86a8 e4bf
000006b0: 9312 27d7 b189 d1bf 474a 3b91 eb0d ecbf
000006c0: 10c9 6cf4 a25c da3f 2f4a df2f 38f9 a4bf
000006d0: c167 e10b 93bb d5bf 82be ac1f 71c0 e43f
000006e0: f226 cae8 43e4 e03f c850 1fc7 61e9 c83f
000006f0: 9296 8049 6208 c3bf 3285 d547 fa6f 0140
00000700: dc06 c76e 23f0 fb3f bef0 5b56 3096 d0bf
00000710: f996 5a5f e84d b83f ee43 317c 0a44 ccbf
00000720: f2cf 7bab 5b2a d1bf 877c b22d 7045 e53f
00000730: c968 c177 5469 d5bf 3cba 65bc 8cf0 e1bf
00000740: 087e 2426 8657 e03f 3a18 a333 3010 f3bf
00000750: 4cfe 7f4c c03c e1bf 4872 6dd9 ce70 dd3f
00000760: 22ee c898 4429 e03f 58e5 4da5 00c0 d83f
00000770: 9713 0272 82e2 debf 2ff0 e746 bc7e f33f
00000780: 95a9 5cf1 13a9 fe3f b6bb 67c1 9194 c0bf
00000790: c00a c752 59e5 e73f acfc 1abd e6a6 d33f
000007a0: 3a39 9c3b 40f9 e13f 6a39 15ed cd0d f03f
000007b0: 967f b310 6f2b dcbf 3b6f 0dd0 d283 e1bf
000007c0: f07c 4043 1086 f2bf 3ccf 7fb4 3fa3 e5bf
000007d0: 0c96 cbbf 8ced c23f db2f c313 5031 f3bf
000007e0: cf21 27e6 039c c33f 07f7 c2dd 5eac bbbf
000007f0: 14d7 2d23 03ca fbbf 03d4 2b15 72bd ecbf

embed.bias f8 [32]
0.12346841077661633 -0.3145093339684469 0.4767330090110584 -0.4231500954485968 0.44564229358418933 0.6909801042369053 0.36836072158634753 0.41278346852384085
-0.8326408042655672 0.0957732521764171 -1.0109487141848583 -0.625148983653999 -1.582264933206803 -1.404773182148153 -0.6486223343211165 0.9758313399391658
0.13731573588313983 0.4934146520709086 -0.9218700376690405 0.4773718341822728 1.186339646844029 1.081905845657049 -1.0202654273819487 -1.8264208610462023
-0.6228081449707592 0.3553225420853986 0.05940197142275352 0.48648499035218307 1.8578510674509379 0.20374872706135427 0.728395959487225 -0.4856978613765501
00000000: cae9 5f32 a09b bf3f 2199 ebc1 eb20 d4bf
00000010: 2813 a82a cb82 de3f 6910 5023 e414 dbbf
00000020: 4125 2a41 6785 dc3f 324b bc4e 821c e63f
00000030: 6709 16d9 3893 d73f faea 685a 0b6b da3f
00000040: 0d58 f453 fea4 eabf cae4 ed89 9884 b83f
00000050: 2ab7 158f d82c f0bf 747d fd70 3801 e4bf
00000060: 89b1 db08 f550 f9bf 98fc b971 f379 f6bf
00000070: f3a8 2ba0 83c1 e4bf 1e6b 6ea5 023a ef3f
00000080: b010 6ce1 8f93 c13f dcc0 800c 1b94 df3f
00000090: 186d de97 f57f edbf 980a f697 428d de3f
000000a0: ef4a 1248 3ffb f23f 072c 0781 7c4f f13f
000000b0: d884 3dd7 0153 f0bf 41cf ae14 0539 fdbf
000000c0: 6a9e ca58 0bee e3bf aa74 72c2 9abd d63f
000000d0: 3345 2869 ef69 ae3f 1cae e3f0 9122 df3f
000000e0: c2a5 780a c2b9 fd3f 4042 aa33 7014 ca3f
000000f0: 5328 110b 054f e73f f75c 967b ac15 dfbf

pos_enc.pe f8 [1, 12, 32]
-2.30763517215361 1.1814198798750088 -1.0723081447021185 0.4753367619490201 0.2580678812457499 -1.0751251360606309 -0.24632782392595515 0.456626922393361
1.0183652972119903 -1.6502484855012653 2.0186066421362914 -0.8621159746679615 0.7859220456177907 0.7123886856067102 -1.5751066097855568 -0.7313105437931837
-0.3767936679541762 0.7414287275264669 -0.3656205392620104 -0.4310569995639557 -0.32862197340079874 0.8163025483435101 -0.2315141847693586 0.5193756405330742
0.019485859434600215 -0.28608253453936605 -0.398627582402975 0.8054227046921085 -2.1753300105098834 0.3915702548794542 -0.7158239089003499 0.8532136424601315
-0.1775068370322938 0.40336829875309366 -0.17609360457500853 1.5583506387587007 -0.6002859660701226 -0.01331381335620635 -0.9262689442551503 -2.1592192336505307
0.7617954728118658 -0.3741583831965653 0.0003319665667250449 -0.709430813826493 0.7992234835101762 -0.14125526029397178 0.28695848729685797 -0.33212330100169724
0.24872028500681914 0.11132205038670548 -0.4037883081700728 0.7362627355040386 0.12791519746288252 -0.984142089947754 0.3904453669160283 0.5000558859892953
0.5978935519981198 1.5439512173004168 -0.08598809928732894 0.8615633638489834 -1.436466691583517 1.3575653508724495 -1.008076533507944 0.049262928376600706
-1.1619942651538233 -0.3642212870066219 0.2792487210215916 0.23564405787042753 -0.30769156408209636 -1.7199162489224729 -1.565364609578126 -0.2610464876206149
-1.0643658426824834 0.5269499812421934 -0.15943046074948947 -1.99463500214824 1.0329426189168671 0.8087442511148781 0.04426433696578296 -1.2821916936577835
-1.1488994860635429 0.48542977083877004 0.7442945077420541 0.7130111847693233 -0.4816758362865622 -0.5638696293415305 1.1622806911521528 -0.7798639337460949
1.4605153418754377 0.09837509616253239 0.5068955130967516 -0.06709294020252415 0.3615836299738409 -0.695629510087768 0.9255129568343677 -0.3633688225583976
-1.0506492629333206 -0.32303996635016213 0.39037405434531225 0.17944471836652914 0.9744529858027686 -0.5516805526339018 -0.10812897150242462 2.3739442476506953
0.25518470430825396 -0.48354051188100045 -0.18592223125114582 -0.8258957384262604 0.3707317311747063 -1.3560625658918706 -0.07369373195338629 0.43670029637589447
-1.2477910152680958 -1.260420051804455 0.598795159616072 0.21315292621235898 -0.5868916113317884 1.522546881900236 0.8074795880136685 0.8125465326803161
-0.06872598075234507 -1.1112093033521262 1.4490446048783179 -0.8236641389343817 -0.6249777595074475 1.6499569584801648 0.09922339304766842 0.12018721275571631
-0.5518581415050652 0.37583711114747836 -1.1833058100832634 -0.12391774784007725 0.8286033978821383 -1.3738905186129575 -0.3070682873269356 -0.057530976210965375
-0.607415083291476 -0.43443575524424355 0.7182467575334224 2.3593069998097267 0.44671156333403406 -0.5099264657804596 0.5905417130006134 0.08469288141498865
-0.5991021060535817 1.3903543212081169 -0.5212426121773228 0.4266200710032018 -0.08562134390400625 1.040343431660585 -0.7142344609869924 0.8155832310736139
0.2977236270763429 1.0807621127662008 0.8959792982917307 1.5472859501678404 -0.3911899746386776 -1.0261264006126616 -0.024038760304210167 0.4336873695441523
-2.328214426457286 1.0685973141843927 0.23132218460489162 -1.7485004537716557 0.3622946658716893 1.1360976361788775 0.6306438662738897 0.48843777549252276
1.950734857000552 -1.2016294262897396 -0.3109374380100496 -0.2417261007222732 0.31572853001483603 -0.49713021091931464 0.7651965621083372 0.7219142120557229
-0.2690608699729932 -1.1028290255747228 -0.19963339632620472 1.3917499563849978 0.5699016682035045 -0.3278359302817085 -0.04510255091319705 -1.221967166981731
1.3137675335936014 -0.2948180623524991 -0.36314719988482763 -0.9954105757741879 0.23623727398831254 -0.1422211350759257 -0.16039384395010173 0.3747993263307044
-0.9510700001067612 -1.3648592086798026 0.5502022903960092 0.8977179994809452 0.9899286660702296 0.7816739637303294 1.3907170920003042 0.6721673280544854
-1.190046364695616 -1.0932392610896542 1.0118598465512885 0.34199181662948347 1.3194501040773021 -0.43374762164396696 -1.595265247928104 -0.4398185806467276
0.1900427407893827 0.18452426530581198 -0.57634451410567 0.08338519931574295 0.6884223512190296 1.1754208755724744 -0.7232972633471378 -0.6189684335931585
-0.7317732104373861 -0.9563083891531462 -0.10409016855804726 -0.6957474669985931 1.446313364435753 0.13252635919749772 0.2330720322583288 -1.3850135955128755
1.2392741181796763 -0.1605514023823761 -0.9403335905522237 0.9220717619156499 0.1364372348205499 -0.22373058749770663 0.3392780589093227 -1.2205335375953745
-0.7074645348276499 -0.07211387275426451 -0.7168458783725474 -0.9237996655309838 1.4325456664645806 0.49474259727047215 -0.8999127508754031 -1.0037922487199697
0.18034481843671885 -0.8815927750147966 0.6318548923172284 0.1019688685541317 0.22369456683470534 0.15073590918951665 -1.132889076163279 -0.635454247614918
-1.8471699152433745 -2.0755066987014157 0.3941038028852322 -0.47702291026743804 1.554599656774452 0.10612975140425235 0.5574624204425359 -1.0003166570456437
00000000: 20fe db6d 0976 02c0 c284 2e88 18e7 f23f
00000010: 39ae cb95 2c28 f1bf c415 cae1 ea6b de3f
00000020: f34d 8625 2f84 d03f afce 276a b633 f1bf
00000030: 66ac ed8d ab87 cfbf 74c4 8920 6039 dd3f
00000040: 5482 ee68 394b f03f 0006 b8f4 6a67 fabf
00000050: c1b5 3b3d 1b26 0040 9fdb 913d 7496 ebbf
00000060: 5848 64fd 4526 e93f 7314 575b e3cb e63f
00000070: dfe0 0bfd a233 f9bf 72f9 995e e566 e7bf
00000080: 19ff 4c30 631d d8bf 7350 21bd c8b9 e73f
00000090: f713 b8b0 5366 d7bf 6cb3 f518 7096 dbbf
000000a0: e937 2075 2408 d5bf d5db 9885 261f ea3f
000000b0: dc7e 12be 41a2 cdbf 23b7 cda9 b99e e03f
000000c0: d934 06e4 19f4 933f 606a 731e 2d4f d2bf
000000d0: a013 6d43 1d83 d9bf 9a78 03d6 05c6 e93f
000000e0: a42d a96b 1367 01c0 00cb b2af 7c0f d93f
000000f0: 1780 cd8a 07e8 e6bf f0c0 5bb2 864d eb3f
00000100: 8e5f ef45 8bb8 c6bf fecf d844 c9d0 d93f
00000110: ff9a 5738 3c8a c6bf 93b5 5214 01ef f83f
00000120: 2d9b 10ea 8a35 e3bf a081 99c7 4544 8bbf
00000130: cb0a dcc4 fea3 edbf bd62 cbbb 1446 01c0
00000140: 63f8 3ee6 a060 e83f 7b9f d600 36f2 d7bf
00000150: 00a6 258c 79c1 353f 3b1a 0540 a8b3 e6bf
00000160: 87e2 7b20 3d93 e93f aedf ac01 a714 c2bf
00000170: 0bfa 8f21 875d d23f bbad 0217 8241 d5bf
00000180: 1261 faf8 10d6 cf3f 660c bc15 9a7f bc3f
00000190: 9b3f 86ea aad7 d9bf 651b 48de 768f e73f
000001a0: e9d9 e172 865f c03f 8c2a 5e8d 177e efbf
000001b0: 27dc 7190 0efd d83f ebe1 8f33 7500 e03f
000001c0: 4547 8aa8 f121 e33f 7dcb 0e31 06b4 f83f
000001d0: 7dc6 48ea 5003 b6bf 6138 e554 ed91 eb3f
000001e0: f84f 627f c4fb f6bf 04e1 0272 96b8 f53f
000001f0: b681 f4db 1421 f0bf ccbc 9094 fd38 a93f
00000200: 849a 6f4c 8797 f2bf 83d4 0ccd 664f d7bf
00000210: 3e34 0f07 36df d13f 886d 06a1 9529 ce3f
00000220: 5936 3ff5 37b1 d3bf 3eb2 8fe6 c684 fbbf
00000230: 0243 c7c2 bb0b f9bf c83c c453 fcb4 d0bf
00000240: dccf 547a a407 f1bf 6004 0235 c6dc e03f
00000250: dadf 73a3 3768 c4bf f2ef 5a64 06ea ffbf
00000260: d347 eed6 ee86 f03f a8b9 ab9f 3be1 e93f
00000270: c758 4baf d0a9 a63f 9368 f76f db83 f4bf
00000280: c68b 706d e461 f2bf 7877 9007 4811 df3f
00000290: 7b06 2bb7 42d1 e73f d186 08d5 fcd0 e63f
000002a0: 76f3 07e3 c6d3 debf 3158 2752 380b e2bf
000002b0: 1655 54a3 b398 f23f d49e 5835 a5f4 e8bf
000002c0: 8a94 ca55 455e f73f 5949 c23c 1c2f b93f
000002d0: 86ab 67f0 7c38 e03f ec5a f6bf 002d b1bf
000002e0: 556c 60aa 2f24 d73f f1b3 7ed1 9842 e6bf
000002f0: 8117 3459 cd9d ed3f dd8e 514e 6f41 d7bf
00000300: 85d7 fd99 75cf f0bf bf97 b1d2 afac d4bf
00000310: c8ae 2775 e3fb d83f 827e 6966 0bf8 c63f
00000320: f065 3007 b82e ef3f abdb 6cf9 5da7 e1bf
00000330: 2860 5a1c 57ae bbbf 1a7f 517b d6fd 0240
00000340: 5b60 dc39 f254 d03f d27a 34e7 53f2 debf
00000350: bc58 69b7 4ccc c7bf 364a 4ee6 bc6d eabf
00000360: 6907 3f95 11ba d73f eb5d 3da9 6eb2 f5bf
00000370: bbf4 a8a8 97dd b2bf 5ea1 c5cc e5f2 db3f
00000380: 111b 2db6 f3f6 f3bf 6d90 5b37 ae2a f4bf
00000390: 6dbb 7177 5429 e33f f67b 9057 9848 cb3f
000003a0: d0ef 9eea d0c7 e2bf 6d36 861e 5a5c f83f
000003b0: ae99 d66e dfd6 e93f 88e2 0a96 6100 ea3f
000003c0: 5283 b79f 0698 b1bf 8088 0e68 83c7 f1bf
000003d0: a45c 4665 492f f73f b48e 73e5 745b eabf
000003e0: 98fa b95b d1ff e3bf d3ad 8744 3966 fa3f
000003f0: bc4c 234c b466 b93f e8e5 2ed4 96c4 be3f
00000400: 8475 b967 d2a8 e1bf 2d19 4019 b70d d83f
00000410: 2897 b712 d2ee f2bf b0fa 5dd2 12b9 bfbf
00000420: aa43 e845 eb83 ea3f 55a2 db9f 74fb f5bf
00000430: 8e4e edbe 01a7 d3bf 9185 aa3a b374 adbf
00000440: 2cb0 bac1 f16f e3bf 6d2c 3fa0 cbcd dbbf
00000450: 080d c29f e0fb e63f d440 2b59 dcdf 0240
00000460: fef0 d018 ec96 dc3f c08a bc4e 5151 e0bf
00000470: d25d 08bc b7e5 e23f 48a2 e1c3 6eae b53f
00000480: 1ce0 0e2e d82b e3bf ea0e 372c e43e f63f
00000490: aea9 92fc 04ae e0bf 29a9 3145 be4d db3f
000004a0: 3a43 e8c7 47eb b5bf 3273 7927 3fa5 f03f
000004b0: b4b0 733a 02db e6bf e111 1401 4219 ea3f
000004c0: 6a85 6266 e70d d33f 1c63 9136 cd4a f13f
000004d0: daca 01c7 dcab ec3f a27f 98e9 aec1 f83f
000004e0: f927 e6ac 4109 d9bf e318 4384 036b f0bf
000004f0: 6532 5fe5 9d9d 98bf 7c58 38ab 88c1 db3f
00000500: efac 9de2 2ea0 02c0 183f 507f f918 f13f
00000510: f8cf db20 f79b cd3f c4d8 9f9c dbf9 fbbf
00000520: 29c9 5bf7 d52f d73f 0e38 07b7 742d f23f
00000530: 2538 a20b 3c2e e43f 9ec4 f783 9042 df3f
00000540: f4c0 dfc0 3536 ff3f f635 fdc6 df39 f3bf
00000550: 70bb d623 66e6 d3bf c58b 9880 e1f0 cebf
00000560: e8fb b46f e534 d43f 6621 703b fbd0 dfbf
00000570: c88a 2880 7d7c e83f 8680 69d5 eb19 e73f
00000580: 47b5 4a15 4b38 d1bf 89c4 5e0c 30a5 f1bf
00000590: d189 344e 968d c9bf bc20 2e9a 9b44 f63f
000005a0: 2ed6 5b6c a23c e23f 09e0 c08d 43fb d4bf
000005b0: a2d6 467a ae17 a7bf 908e af71 2d8d f3bf
000005c0: 2f4c f51a 3105 f53f 9abd 0494 4cde d2bf
000005d0: 73ea c8c0 cd3d d7bf 875d a147 67da efbf
000005e0: 9120 f0e2 053d ce3f a0bd f959 4d34 c2bf
000005f0: bd69 1f15 c987 c4bf 25ce 4950 b6fc d73f
00000600: c749 555a 2a6f eebf 7dc9 0e9c 76d6 f5bf
00000610: c9ec 6dd5 419b e13f 78a3 1919 1bba ec3f
00000620: 14a0 c4e1 7ead ef3f 1468 cb1d 7903 e93f
00000630: 8e12 c290 6040 f63f 05e1 6d0e 6582 e53f
00000640: 3676 910e 6e0a f3bf 1355 9173 e87d f1bf
00000650: 7e2c 51f3 9330 f03f b316 fba4 31e3 d53f
00000660: f473 5bb6 771c f53f 826e 6b62 85c2 dbbf
00000670: 9fbe 44da 3486 f9bf db40 03d5 fc25 dcbf
00000680: 5e2c 440e 5253 c83f 2b48 67ba 7d9e c73f
00000690: fa02 ea0c 6a71 e2bf 2814 0880 bb58 b53f
000006a0: ed46 8a4f 8e07 e63f 52e9 b91e 86ce f23f
000006b0: 9b97 6b4d 4025 e7bf 303f 71e3 96ce e3bf
000006c0: 275c dda6 af6a e7bf d9b3 090d 149a eebf
000006d0: 9cbc ca3d a7a5 babf dd14 2131 9043 e6bf
000006e0: 024f 807b 1924 f73f da3b 4ead 9ff6 c03f
000006f0: 2eb5 14ea 4dd5 cd3f 09e4 1304 0429 f6bf
00000700: 72c6 0519 11d4 f33f 3d95 47c7 f28c c4bf
00000710: d610 5878 3617 eebf 23c5 bfa3 9c81 ed3f
00000720: 4b66 c17a c676 c13f 2e71 3532 34a3 ccbf
00000730: 8c04 d151 bbb6 d53f 0a4b ba2c 4e87 f3bf
00000740: 7b44 05aa 8ca3 e6bf d045 1105 0e76 b2bf
00000750: 513d 7cc4 66f0 e6bf af5c f050 c48f edbf
00000760: d0de 3701 b5eb f63f e7be cdda dca9 df3f
00000770: 8f6c 48d3 15cc ecbf 68b0 0376 880f f0bf
00000780: 7629 98fc 8915 c73f 8f82 220d 0236 ecbf
00000790: 3d3e 4ac0 2738 e43f 2a6e a6bb a11a ba3f
000007a0: 7c89 6c08 06a2 cc3f 61a1 2674 504b c33f
000007b0: f9de c14b 5020 f2bf 0f88 7325 a455 e4bf
000007c0: 9401 820a 028e fdbf 7c69 8c41 a39a 00c0
000007d0: 6dc3 2728 ff38 d93f 1ea6 c219 8b87 debf
000007e0: 6b81 c3e3 a3df f83f a4f3 69c3 512b bb3f
000007f0: 1797 116e bbd6 e13f 3d7b fa09 4c01 f0bf

transformer_encoder.layers.0.self_attn.qlinear.weight f8 [32, 32]
0.8056773779209254 0.9689528696427341 0.5678040441794562 1.5314269071216007 -1.917534079865739 0.19215780601930962 0.43154815597538515 -0.024919180644596764
-0.1859526158407744 0.32481395525373047 1.8296025618928649 0.8363698378995142 -0.6155948260146381 0.24229290323364344 -0.22664129060712623 -1.2954734668772894
0.17479707031226027 0.9341494703725333 1.1059414468113946 1.2936853716407222 1.1141324071599576 1.3563900342791684 -0.510973853539767 0.3897375176171503
-1.7655094431244045 1.132943194784973 0.34504032617860697 -0.14317214355347008 -0.30919374092167556 0.1464210606758933 -1.0776983082539942 -0.27038733231894396
1.2317654825859827 -0.2717181862865535 -0.9919099116627224 -0.3129112556454229 -0.8088555349394032 -0.4095803294636829 0.2545249342581788 -0.2324282738537511
-0.2692431957832221 1.1232327502623138 -0.4920336317504632 0.3466298924142425 0.7049702720500947 -0.9295670642317772 -0.38133628882093146 -0.1172045695321029
-0.05678447388044225 -0.2474623251874582 1.1820280396275042 -0.270193710738114 0.9437392663008484 -0.5011873809801553 -0.3496587304424772 1.296251205608948
-1.1565990483865054 -0.4128690976249717 0.710420741126355 0.05073534133763857 -0.7042308132822467 -1.1778937618611751 0.7473901749213668 1.7028074835382547
0.2522118881008943 -1.0824881854430537 -0.5736173951775752 0.6379803761764462 -0.6806237697805249 -0.8222873705448723 0.7699841527179783 -0.02220474914682137
0.0693743753681185 1.0713495854350403 0.718118755867575 0.36286579237451766 -2.6279682114538887 0.9070660766064165 -0.14866076560985209 0.9776140151432933
0.5987641280555568 -0.1690968792195056 1.3969444984413928 0.57107295109205 -0.656813203432744 -0.8579751836132684 0.3301957117927383 0.03960011046006318
0.9652597926961048 0.5603173472399978 -1.8392917148773 -1.4515574327512593 -0.00036215486994006785 0.8327991280303612 -0.310503811788598 -0.26805991878176527
0.397131017141127 -0.5552210855118563 -0.22957918693717597 -0.6569487980230259 -0.9303303502085819 -1.6341057856688321 -0.6401503487527792 -0.11081277067437187
0.9244687452717528 -1.2545439451949234 -0.057706475931184484 0.34018864674833577 -0.15911459056983984 -0.19199431282335364 -1.0511853923847316 0.02437022598411938
0.5955353844532049 0.1368920325521116 0.9293953397720428 0.9454040695390916 -1.6293496602163315 -0.5648476122756267 0.9283862633731454 -0.5082548240240681
-1.6022100498685552 0.39769240660688543 1.251798228420873 -1.0497070172401062 -1.4766301671524193 0.8631768241782921 0.018139398081405664 1.3139392178476486
0.23494803879638926 1.2768603423350475 0.11980587284548258 1.9242194584494552 -1.212643986178809 -0.12307036235321159 0.9614495171846527 0.08721873310379957
0.5424841593839167 -0.6107672204388955 -0.3004863097408933 0.9884823953572612 -0.19220427170534174 -1.102684849659751 1.1604850021285105 -0.0477704094870184
0.1502574672598873 -0.2330001040190457 -0.21612627928705253 0.21610542143199418 0.15062152243877436 -1.5967356143727172 -0.6751708329145985 -1.5911430543277996
2.3454002851499456 0.26017505356826753 -0.5135643717730496 0.7443249471462103 -0.23231026102369448 1.7877986447251992 0.13725312428119163 -0.18029729819443444
0.12413850251236952 -0.015069637470885716 -0.2943312269883166 -0.006350312026711956 -0.7399474170415051 0.4243850050349331 -1.041725317826675 0.5955566192521511
-0.11462830279879806 0.8090704681997836 0.459325095271232 1.6513029453141042 0.3733583158753624 -1.363014126224406 -1.5456517491881274 0.007579528314768519
0.40770022210857976 -0.21153558326704996 -0.4847849809852976 0.2354780630427693 -0.09075943614250538 0.2546503924830156 0.21937195987079727 0.5664245926340354
0.1476005031493035 -1.1234478409564588 0.5074145664095603 0.1023381538811006 0.5780925513549989 -0.41891014857572695 0.36869037080912603 0.639913909696489
0.29806061874732437 -1.282592146788163 0.9945008704227383 0.5811069515064213 2.216377814934433 -0.9308849903073106 -0.37477971047828 1.601439519867446
-0.07504285445508846 0.5299541687333028 -0.679680690662907 1.2267518067671166 0.6642997404859994 -0.03890272156657283 -0.4432627992399722 0.02342190684412393
0.014496071857269803 -0.007708173030913576 0.22945343748707045 -0.5437705741775768 -1.2240885204284333 0.9583846169376273 0.5518307590712075 0.3831891683483396
-0.09671748716733738 0.16682544900556528 -1.6221352173694432 -0.7819702283339696 0.476405849069223 -0.18539826980091503 -0.9107685613494084 0.5373499967540276
0.3457940676851325 -0.024011767016784993 -0.6259547576402964 -0.23313459207862522 -0.5205703762749888 0.21537115520656266 -0.03272113631792503 -0.5408278881066265
-0.8886465481323429 -0.07460036318416269 0.19715428118558642 0.604693702521249 0.546746075960519 0.7344772092269976 0.5194851110607923 0.003999137982842134
-1.6825617290402122 0.0611931355271368 -0.7112904535881702 0.2598483763084299 0.5620171394130924 1.2469137060016124 -0.0526730768940404 -0.2931858863460833
1.5675329504224293 -0.8879666162945514 0.962730091895726 -0.24131906579546983 1.0785218853633942 -0.7132464503452319 -0.8145220248621162 -0.15024843759464068
00000000: 5c84 a9ec 1bc8 e93f 7c63 cf72 a901 ef3f
00000010: 9731 0963 732b e23f c8d3 2480 b980 f83f
00000020: 21d2 1f37 38ae febf f713 4382 a098 c83f
00000030: 850e 2428 7c9e db3f 048a a5e7 6984 99bf
00000040: c525 d299 4bcd c7bf f658 c678 c0c9 d43f
00000050: 6b1f 0056 0d46 fd3f 9d74 a4ad 8ac3 ea3f
00000060: d33a aaeb f3b2 e3bf 827f b82f 7403 cf3f
00000070: f058 8af1 9402 cdbf dd2d d162 42ba f4bf
00000080: 2ec1 361a c05f c63f 8e6c 1a6e 8de4 ed3f
00000090: a888 95a8 efb1 f13f 0a2b a86e efb2 f43f
000000a0: 03a7 c280 7cd3 f13f ed96 5d09 c6b3 f53f
000000b0: 820f c2d6 e559 e0bf 1127 0ca1 75f1 d83f
000000c0: d0f9 6fd4 863f fcbf 483c 1d0b 8920 f23f
000000d0: 2340 2f05 2415 d63f d853 21fd 7653 c2bf
000000e0: 4fbc 588b d4c9 d3bf 4f38 86e1 ecbd c23f
000000f0: a67c ce94 403e f1bf ca00 64ab 064e d1bf
00000100: 77c6 00b9 4fb5 f33f 5511 f5ac d463 d1bf
00000110: b46d e5da b9bd efbf 6208 63ee bc06 d4bf
00000120: 371b b800 25e2 e9bf 3d69 086a 9036 dabf
00000130: 88f2 29f3 224a d03f 480d 6fad 35c0 cdbf
00000140: 42ce 23d0 473b d1bf aec3 82e7 c2f8 f13f
00000150: 489f 39a1 7a7d dfbf 070d ef24 2f2f d63f
00000160: a76f e3d0 1d8f e63f 0b0e 8a6d 03bf edbf
00000170: ebe3 5052 d067 d8bf 2007 1561 1e01 bebf
00000180: ac60 79c4 da12 adbf 4a0c d670 d8ac cfbf
00000190: 627b d23b 96e9 f23f 1720 cd8f da4a d1bf
000001a0: 5cd2 96b0 1c33 ee3f fc48 4f1e ba09 e0bf
000001b0: 74b9 0003 cf60 d6bf 26db 77e7 71bd f43f
000001c0: e879 f600 6e81 f2bf 9e02 f581 726c dabf
000001d0: 7835 3147 c4bb e63f 00d6 978f fbf9 a93f
000001e0: 573f fc0e 0f89 e6bf d4b2 1521 a7d8 f2bf
000001f0: 9b72 d4cc 9eea e73f d0e4 520f b33e fb3f
00000200: 7391 c354 3d24 d03f 7d8c ac21 df51 f1bf
00000210: 648a 16de 125b e2bf 185d 65d2 556a e43f
00000220: 84cd 0280 abc7 e5bf 10ee 8c9a 2d50 eabf
00000230: 6495 4bce b5a3 e83f 041e 9b7d d7bc 96bf
00000240: 76f1 62e1 84c2 b13f 2f6d 8076 3f24 f13f
00000250: de0d 632f d4fa e63f c67b c571 3139 d73f
00000260: fdf9 9832 1406 05c0 26bd ca6f af06 ed3f
00000270: b40e 3fe3 5007 c3bf acda e42f 9d48 ef3f
00000280: c387 8063 1329 e33f 7a3d 0d6f f7a4 c5bf
00000290: 6120 7279 e259 f63f 0c42 12c8 3a46 e23f
000002a0: 5f63 8a1f 9d04 e5bf 31c1 4c5f 8874 ebbf
000002b0: e078 db31 ed21 d53f 611b b036 7746 a43f
000002c0: 98c0 3881 68e3 ee3f 5edf 38a5 1eee e13f
000002d0: 693a 3326 bd6d fdbf 05eb 5e49 9439 f7bf
000002e0: 0008 8e52 f3bb 37bf 11e3 605b 4aa6 ea3f
000002f0: 6295 3a61 4bdf d3bf 6e4f 22ca e427 d1bf
00000300: 764b b636 986a d93f 5d56 8a02 5fc4 e1bf
00000310: 7964 decd d962 cdbf 15f9 547c b905 e5bf
00000320: 21e8 9327 44c5 edbf ac6e ba1b 4c25 fabf
00000330: 5b51 8d95 1c7c e4bf 168c 06ca 395e bcbf
00000340: 00b9 637a 3f95 ed3f b91c 00ac 9c12 f4bf
00000350: 5ea0 c805 b48b adbf 594b 109a a6c5 d53f
00000360: 9e2d 68ed dd5d c4bf ef11 4c07 4593 c8bf
00000370: a234 25c6 a7d1 f0bf b445 642e 82f4 983f
00000380: 2dcb fa38 a00e e33f fd77 7299 ad85 c13f
00000390: ff05 ac4b 9bbd ed3f 679f 0509 c040 ee3f
000003a0: b30b 06f3 d011 fabf f651 be4c 3b13 e2bf
000003b0: 22c9 e71b 57b5 ed3f a4f6 e69e 9f43 e0bf
000003c0: a920 5801 a7a2 f9bf 749f 0fda ca73 d93f
000003d0: 5b22 4494 5d07 f43f f1d8 d695 99cb f0bf
000003e0: 754e 43f4 46a0 f7bf 5959 d000 259f eb3f
000003f0: e973 1d66 2293 923f 4766 1921 e505 f53f
00000400: fce5 71ff c612 ce3f dc36 3e1c 056e f43f
00000410: 0676 bd01 99ab be3f 38e0 c557 9ac9 fe3f
00000420: d543 6561 fd66 f3bf 3af6 690d 8a81 bfbf
00000430: b204 22c7 31c4 ee3f e884 4786 f753 b63f
00000440: f8dc 64bd 075c e13f c71f a8b2 678b e3bf
00000450: 3ae7 4eee 2a3b d3bf d265 17d5 a5a1 ef3f
00000460: d51e 904a 269a c8bf 3a55 71de 98a4 f1bf
00000470: 413f bab8 5891 f23f 0232 edf4 5c75 a8bf
00000480: 7835 eefd a23b c33f a8fa 5c89 f2d2 cdbf
00000490: ec09 aca2 06aa cbbf 88f4 c4aa 57a9 cb3f
000004a0: c860 79e8 9047 c33f b96d c1a4 3a8c f9bf
000004b0: da99 d2dc ff9a e5bf f786 596b 5275 f9bf
000004c0: 17fc 8539 61c3 0240 72e3 9344 b5a6 d03f
000004d0: 3afe a48c 1e6f e0bf 7ae0 328d 82d1 e73f
000004e0: 699d cfb6 57bc cdbf 7dd8 6ec0 d29a fc3f
000004f0: 98e0 07a8 8291 c13f 51b0 a65b fb13 c7bf
00000500: ec0c 7778 8ac7 bf3f b0dc cc80 d4dc 8ebf
00000510: cece 86a4 52d6 d2bf 5802 96e7 c802 7abf
00000520: 777e 9e34 a6ad e7bf db6b 62b9 1f29 db3f
00000530: 41b1 b72a e8aa f0bf 8856 53c1 cc0e e33f
00000540: b581 b7cb 4758 bdbf b47a 22c0 e7e3 e93f
00000550: 7802 9b15 9565 dd3f d299 1ea3 bc6b fa3f
00000560: d8f4 1747 1ae5 d73f ddea 81e6 e7ce f5bf
00000570: 8e4a 1c54 fdba f8bf a053 b223 b60b 7f3f
00000580: 71cf 21ac c217 da3f f63f 0916 9913 cbbf
00000590: 1d20 bb95 b706 dfbf f0d8 d829 2524 ce3f
000005a0: f913 09aa 023c b7bf 0e33 e828 314c d03f
000005b0: d0f9 a660 6114 cc3f fe6c a077 2620 e23f
000005c0: a81f f3c2 92e4 c23f 80b7 7a71 a4f9 f1bf
000005d0: 53c7 0779 bd3c e03f 5266 0d50 d532 ba3f
000005e0: 8130 44f3 bb7f e23f 8c18 0683 6ccf dabf
000005f0: 786b 3e7f 9f98 d73f 82dc 4cbc 2c7a e43f
00000600: b6b2 6fd8 6c13 d33f 47fc c857 7f85 f4bf
00000610: ece4 497d f3d2 ef3f c858 069b 6d98 e23f
00000620: 61c9 b54a 24bb 0140 30a1 b651 cfc9 edbf
00000630: 1159 ed09 64fc d7bf 58a4 c50b 7f9f f93f
00000640: 2cdf ae2d 0236 b3bf 2fd4 e271 62f5 e03f
00000650: 0bd6 43b8 f1bf e5bf 95fa a580 c6a0 f33f
00000660: f01d 8487 f141 e53f 7228 b5b9 0eeb a3bf
00000670: d738 91ee 6a5e dcbf c033 9f8f e9fb 973f
00000680: 1c28 61d4 1db0 8d3f b061 46f1 9a92 7fbf
00000690: 8f1a fbf0 ba5e cd3f afd5 138c 9166 e1bf
000006a0: ea62 2ad8 dd95 f3bf 3492 5737 16ab ee3f
000006b0: f867 e4fa 98a8 e13f 2234 8fdc 2b86 d83f
000006c0: 76c3 552c 7ac2 b8bf 1c49 cf4b 895a c53f
000006d0: 6faa c40e 44f4 f9bf 4e7b a46d e605 e9bf
000006e0: f606 58f5 6e7d de3f 3dd4 c368 21bb c7bf
000006f0: cd0f 271c 0425 edbf 600e d29e f831 e13f
00000700: ebf0 f670 7d21 d63f 049d 3968 8a96 98bf
00000710: d8e6 9a45 d207 e4bf a9a1 45b4 5ad7 cdbf
00000720: 7dc2 ab34 83a8 e0bf 2795 0e32 4891 cb3f
00000730: 4c34 bf24 d3c0 a0bf bfd8 8549 764e e1bf
00000740: 82d0 bde2 ca6f ecbf ac4c 2568 0219 b3bf
00000750: 88af fafa 593c c93f 1da1 8d9b a659 e33f
00000760: b5ef 6ea0 f17e e13f 9831 2959 d680 e73f
00000770: 227b 583d 9f9f e03f 0873 936d 6661 703f
00000780: ada9 fbd8 c5eb fabf b251 a8e7 b454 af3f
00000790: 45c8 8332 e4c2 e6bf 4575 8a15 5ba1 d03f
000007a0: 3643 325e 0bfc e13f 9a60 43c9 5bf3 f33f
000007b0: 3b79 472d f7f7 aabf 3555 60bc 8ec3 d2bf
000007c0: b377 576e 9d14 f93f 9c98 1df7 386a ecbf
000007d0: a626 7256 afce ee3f 9114 bf0b 8be3 cebf
000007e0: 237f 1a2a a041 f13f 4711 4738 ead2 e6bf
000007f0: 91f1 547e 9010 eabf f83d df3e 573b c3bf

transformer_encoder.layers.0.self_attn.qlinear.bias f8 [32]
1.08483749578788 1.1532796693951815 0.509865483514004 0.2563516352507025 -0.9975824988390433 0.953960180625346 1.6264061078173897 0.21951362457963194
-0.3704343908118604 -1.8521193523673967 -0.17020779550736356 0.6748841804861676 1.9532237250952977 0.9325574897347407 0.4123614517880508 -0.8718444189372059
-1.0929099597738907 0.06346672914152479 0.5037756760777868 -0.07700116259161105 0.8927043914815088 -0.3488828166182473 0.6069793632078045 -0.47211931351466474
0.011943274094144786 -0.7601275081697082 -1.0917365822761902 -1.4620546590869807 0.12904704625860103 0.13468697843054206 0.8305310373807747 0.5369340346567595
00000000: be22 de8f 7e5b f13f 9c1a f361 d573 f23f
00000010: f4a8 216b d150 e03f 8462 6bb0 1068 d03f
00000020: b76b f221 32ec efbf 8f1b 2f80 d786 ee3f
00000030: 0772 3169 c205 fa3f cb47 4cbf 0519 cc3f
00000040: 9d70 7672 32b5 d7bf 844e ebe6 47a2 fdbf
00000050: a13b 9d79 5ec9 c5bf c6d3 78b5 a698 e53f
00000060: bbe3 5085 6740 ff3f 3f9e 01ce 82d7 ed3f
00000070: 79e3 6349 2164 da3f 2e22 5144 26e6 ebbf
00000080: 7e39 6b27 8f7c f1bf 3404 0c06 5b3f b03f
00000090: c1c7 a82a ee1e e03f 28bf 1523 59b6 b3bf
000000a0: c113 cdcc 0891 ec3f 4fc0 e097 1854 d6bf
000000b0: b361 4afc 5f6c e33f cabf d6ec 3337 debf
000000c0: 14d3 211d b775 883f b31f 8cec f652 e8bf
000000d0: 9d91 4bc7 c077 f1bf 60e3 1b6d 9364 f7bf
000000e0: 56bd a915 9d84 c03f ba32 c743 6c3d c13f
000000f0: d1a0 7bd3 b593 ea3f 3eb9 de48 902e e13f

transformer_encoder.layers.0.self_attn.klinear.weight f8 [32, 32]
0.761615549955542 -0.48002317388574245 0.6475717520301243 -1.2122517380789766 -0.021928459049393882 -0.15956190702989873 -0.24478464948488426 0.21455417746431493
-1.7467694803312022 0.5566384457457539 0.8500828534398862 -0.9070035914379038 -0.20617378319407503 -1.8583788484466273 -1.2257490850778368 0.9813106476140664
0.7506162519424422 0.5033870670235288 -0.6648571272058006 1.0004106469886611 0.010614483592657133 1.0439031539332428 -0.1228102407767712 -0.24740983278280387
-0.29313157928780675 -0.7995405596762172 0.923821144702285 -0.5616330954215957 -0.3203730487920287 -1.1145663450743124 0.28084053223205396 -0.8222582021130214
0.6677900401563862 -0.6300552423723582 -1.3095985986879528 -0.3484392539666522 -0.8022933547750462 -0.5908725823478149 -0.6784518290492131 -0.22027785160525512
-1.1307512056519637 0.47281624190592064 -0.49756105895241887 0.0569453121320954 -0.5070059012748127 -0.3489177415311403 -1.247259654382243 -0.5026162307268314
1.1991069493713622 0.32393641461805883 0.8289787405615153 0.9069175412173596 -0.4501505723578361 1.0949950717901513 0.8524086263288161 -1.1920480556689752
-0.10552082314523314 -0.06187130894311213 0.443215401123643 0.39617091859206227 -1.4409126006978088 -1.4318081827705007 0.6797469226273237 0.1793550941791679
-1.114358705206653 -0.1367813028600092 -0.17135533738912898 1.1511137008282184 0.10534785822313725 0.8546965679036675 -0.486352034344179 -0.5391454764227243
0.7348552565822383 -0.24880121412878697 -1.5070164237920916 -1.797597041475184 0.5526340630517443 -0.9088964897520335 0.8749506720579971 0.26404052349977936
-0.42009305874645153 -0.6482516996629724 0.4568817430246457 0.3385735492739494 -0.08176524047237015 -0.46063674272223676 -2.0221117545939213 0.8440414460275292
0.8788071238898406 -0.5224488970584283 0.15969840648090183 -0.16647998776260917 0.25647907410016524 0.40403515649849 0.3933834189792401 0.8733312821110113
-0.32635999377648406 -0.5528627649438577 0.9545103253498002 0.4271688052091779 -0.09179894406935629 -0.7005792049381107 0.5845756575328599 -0.06783149164606864
1.1455048214176395 1.829843589335811 0.15524864224846863 0.8559799505713944 -1.1067549516915836 0.9429265317016428 0.0869166870754006 -0.15258313318004407
-0.8329842051035502 -0.6389995149089936 0.07524992846214684 -0.5813412430288817 2.071016572389318 -0.30696349394919253 -0.0704706425700864 1.437696481859065
-0.33316059838406364 -0.19168805592938803 -0.2179644209750361 -0.7724521979788489 -1.3613658917379245 -0.6552303295276709 0.3119146596034815 0.14561392198183254
-1.766715462103 2.415545175451317 -0.5740007173480549 -0.5688799498295956 0.6244570629960692 0.5052048735576321 -0.7329011682642566 -0.16779422602818594
-0.8913477854819396 0.10158606360046787 0.9473645419416232 -1.0975494783252093 1.0657474548052366 -0.34181145624149 1.2931501626881803 -0.614038738373055
1.7982018051619997 0.18838159686860279 0.8868488527088008 -1.2975921541353161 0.5495896570381477 1.2295493718161024 1.3988600841756826 0.5317664129455382
-0.4514348308516919 0.20614056672038164 0.5015512930667846 0.49572906736162226 -0.30499168026063916 -0.28402539374961233 0.9290769983050517 -0.39249505484387187
-0.389970322052545 0.7581311163018717 -0.7983884383037839 0.2649796690513785 -1.3719469742724524 0.806564270102194 0.5994007855402702 0.4576863102953679
-0.01380019634489963 -0.22243891642013197 -0.3396151833397281 0.16274357596725547 0.7966101163470687 0.29636027068525606 -1.099731055399359 -0.10750359759706515
-0.37746500324939253 0.2288027151950306 -1.459272207093341 -0.9176584733822765 0.33525513357296205 1.316848579350094 1.1040022093061292 0.2388861649705396
-0.627075186182578 0.1015742486438144 1.7221003026924375 -0.24109752687930558 -0.5511922331638135 1.1100880353881257 -0.4908485720338551 -0.13312268996741905
-1.326227873134545 -0.5995071990824273 1.250583041672757 1.15372555512 -0.8893700163554826 -0.31734294912528793 0.3553551179436305 0.9708077627960261
-0.10872192363843294 0.24022450593384198 0.9527692260250248 1.2147055049628783 -0.9092259901776122 -0.13360639822500103 -0.006753763322979334 -0.10313955527478275
0.01688396181756717 -0.4688918353253333 -2.0804467357487497 -0.37674462400392744 -1.5975633483877247 0.12235188926993885 -0.4831685626376686 -1.1709980550469588
0.33614914169670224 -0.18099929538487636 -1.388403407126093 -1.6607806668034397 0.4417560753500866 -1.0736884065332974 0.49249434831370104 -0.3764066454507488
-0.31016072679505535 0.2996312101660372 1.6684779522177149 -0.17172533404785595 1.5618968343129915 -1.2516615771170696 1.009113536644333 0.1988551511201535
-0.40095558113064556 -0.8511311736214272 0.8410930586399576 -1.9314538345876076 1.0342712623322632 -0.7771198960487626 -0.011387356211057041 0.2205720304535695
0.5712623444195769 1.6361067870620492 -0.409558619572814 -0.7214114588781901 0.44050167596050016 1.1486068941861478 -0.3201823785741069 -1.9645075853737382
-1.3540508705439267 -0.5597116541343121 1.2204337930278124 0.1550049549014328 1.3681866626973005 0.788413387863428 2.1519652114201766 -1.4274156824622772
00000000: 35e4 e592 275f e83f 2254 4a1e b3b8 debf
00000010: be0c 1965 e8b8 e43f 0318 1914 6265 f3bf
00000020: de12 e0f9 6974 96bf 4dbe 304a 866c c4bf
00000030: f2d9 0c78 1a55 cfbf 00f7 b6e3 8276 cb3f
00000040: 5dc6 fa8d c4f2 fbbf bb93 056e fbcf e13f
00000050: ff44 cdf4 e033 eb3f 2a92 5265 2c06 edbf
00000060: 0e3a 0e0c e763 cabf a280 9a75 ebbb fdbf
00000070: 002e 9812 ab9c f3bf 0302 5796 e566 ef3f
00000080: 5a0b be5f 0c05 e83f a60d c331 bf1b e03f
00000090: cc90 3b74 8246 e5bf 1b2f 3698 ae01 f03f
000000a0: 74b6 27df 0bbd 853f 3e5a 25cb d3b3 f03f
000000b0: bb07 c0ef 7d70 bfbf 8267 411a 20ab cfbf
000000c0: 4ed2 9df4 aac2 d2bf 0351 7415 d695 e9bf
000000d0: e82f 7b5c f18f ed3f e9fb 25f8 e5f8 e1bf
000000e0: 8938 c5f5 fd80 d4bf 1110 1585 43d5 f1bf
000000f0: 68fc 5491 4af9 d13f 922e de6e f04f eabf
00000100: 5b1e e237 895e e53f 4834 959c 6929 e4bf
00000110: f408 04a9 1df4 f4bf 727b 1b28 d44c d6bf
00000120: 86d2 111d 63ac e9bf 8c2e 299e 6de8 e2bf
00000130: 27b0 359c e0b5 e5bf 43bf 568c 1032 ccbf
00000140: 0b01 8393 8e17 f2bf 3a3a 000e 9f42 de3f
00000150: 5cae fd56 0ad8 dfbf 2e25 899a ef27 ad3f
00000160: a256 9b70 6439 e0bf 1ab5 3714 ab54 d6bf
00000170: 6b12 138a c6f4 f3bf 1223 2da2 6e15 e0bf
00000180: 1f4d bfc4 8a2f f33f e127 b1cc 5fbb d43f
00000190: af4f 796c fe86 ea3f 3650 76ef 7705 ed3f
000001a0: 995d a358 44cf dcbf ffea 698d 1985 f13f
000001b0: 3923 9d74 ee46 eb3f f9bc 65fb a012 f3bf
000001c0: c0ad 74a4 6903 bbbf 9458 f1a0 98ad afbf
000001d0: 5e36 3a21 a45d dc3f fbaa be44 dd5a d93f
000001e0: 2843 065f fa0d f7bf d64f 72b2 afe8 f6bf
000001f0: 41b6 479e 7cc0 e53f 666d ef93 1bf5 c63f
00000200: f701 2ecb 69d4 f1bf 2377 3ebb 0c82 c1bf
00000210: d769 0ac1 f8ee c5bf 3d8e 3033 f66a f23f
00000220: 0ca3 c5c5 13f8 ba3f 4eca e49d ac59 eb3f
00000230: fd7b 7648 6420 dfbf bbb3 a003 ae40 e1bf
00000240: 950f ca2b ef83 e73f a0b1 f1da b7d8 cfbf
00000250: f18c eb40 bd1c f8bf 395b 881d f5c2 fcbf
00000260: 9ecf 6ea1 2daf e13f d4e4 5d17 ae15 edbf
00000270: 3246 438d 98ff eb3f 7404 5039 0ae6 d03f
00000280: 6ced 25ff cde2 dabf ca1f 3459 7abe e4bf
00000290: 848a 1bec 8c3d dd3f 4306 5b64 30ab d53f
000002a0: 9345 c719 91ee b4bf 82fd 5488 127b ddbf
000002b0: 5eb4 76ed 482d 00c0 6604 e534 6302 eb3f
000002c0: 6f28 131e 301f ec3f a14f d6bf e6b7 e0bf
000002d0: 5c86 8754 ff70 c43f 5b7f 705b 374f c5bf
000002e0: a896 d734 276a d03f ae18 e645 b6db d93f
000002f0: f67c d3a5 312d d93f 88b2 e771 54f2 eb3f
00000300: 6c89 ff06 15e3 d4bf 2785 d340 0db1 e1bf
00000310: 764b e23c 598b ee3f 06ab 0fd4 bb56 db3f
00000320: e0d0 95b6 2280 b7bf 93f0 ae14 256b e6bf
00000330: c585 6402 d8b4 e23f 3a3e 4296 675d b1bf
00000340: a462 16dd fc53 f23f 89e1 4f12 0a47 fd3f
00000350: 5650 9a00 30df c33f f78b b710 3064 eb3f
00000360: fb38 23ae 44b5 f1bf 710e 0643 742c ee3f
00000370: c22b 7708 2c40 b63f eaf9 7617 d887 c3bf
00000380: 4323 e07d cea7 eabf 2f35 561c af72 e4bf
00000390: 5071 c54d 9443 b33f 4900 54f3 589a e2bf
000003a0: cf16 ff22 7191 0040 a4f8 e435 4aa5 d3bf
000003b0: 08a8 2a31 5d0a b2bf 068b b206 ce00 f73f
000003c0: a205 98d4 8052 d5bf b611 a0f5 3b89 c8bf
000003d0: f4c1 e315 42e6 cbbf f15b 01ac edb7 e8bf
000003e0: dc77 ee99 27c8 f5bf 9465 9598 a5f7 e4bf
000003f0: 8af4 88e7 68f6 d33f cc8b 601c 7aa3 c23f
00000400: 5c1e b16e 7744 fcbf 8797 5459 0953 0340
00000410: 737e 9cc0 365e e2bf 92c8 7bb9 4334 e2bf
00000420: e760 ea60 8dfb e33f 0db7 3669 a32a e03f
00000430: 46a5 9c26 ed73 e7bf 18d5 9ffc 477a c5bf
00000440: f838 80ca eb85 ecbf eab4 e454 8b01 ba3f
00000450: f6ef a071 cf50 ee3f cf60 b20a 908f f1bf
00000460: 8ef0 0234 4d0d f13f 3424 7d28 3de0 d5bf
00000470: 4901 9939 beb0 f43f 8842 7991 34a6 e3bf
00000480: 9776 8c41 6fc5 fc3f 1405 dc5e e31c c83f
00000490: 3624 5cd8 1061 ec3f 01eb 98fd efc2 f4bf
000004a0: c15b 660c 3d96 e13f b247 4cf6 3bac f33f
000004b0: 096e 931c bb61 f63f 4ecb 16ff 3a04 e13f
000004c0: ba21 b2ea 4ee4 dcbf 6db2 3868 d062 ca3f
000004d0: 93a0 1f4c b50c e03f f6a9 ff68 06ba df3f
000004e0: d060 11d3 fb84 d3bf c2d6 58d8 782d d2bf
000004f0: 14f4 65af ffba ed3f 9f5a 1994 a31e d9bf
00000500: c814 e814 46f5 d8bf 9f16 d32f 9c42 e83f
00000510: d39d 00e9 658c e9bf 868e 2b49 6df5 d03f
00000520: 988a a5ab 7ef3 f5bf cac0 46df 5fcf e93f
00000530: 0ff3 628e 4a2e e33f b0e9 a285 bb4a dd3f
00000540: d478 d6ff 4643 8cbf 1aea b0df e078 ccbf
00000550: c9d3 6a52 41bc d5bf 0eec 3410 c8d4 c43f
00000560: 04f3 ab7f d47d e93f 0a52 9b11 91f7 d23f
00000570: 7b5f 5597 7f98 f1bf a6b9 e113 5b85 bbbf
00000580: 9dcd 15f9 6228 d8bf 0cd4 7f49 6849 cd3f
00000590: 9cd7 56d0 2d59 f7bf 8d5f 824d 755d edbf
000005a0: 57c4 a0f2 d174 d53f c27b e1d0 cf11 f53f
000005b0: b8e7 7a38 fea9 f13f 48f6 0165 d293 ce3f
000005c0: 6d31 19fb ff10 e4bf 0a7c 0a1c c500 ba3f
000005d0: 78ee 070c b98d fb3f a6ea 8ba4 48dc cebf
000005e0: dced e7e4 5da3 e1bf 29c4 faab ebc2 f13f
000005f0: 081e 0b21 106a dfbf 94ff e10f 2a0a c1bf
00000600: 0e81 e2b7 3a38 f5bf 9bd1 b8b8 292f e3bf
00000610: caaa 0e5d 6302 f43f 2bcc 7ced a875 f23f
00000620: e745 c91b b875 ecbf d4fe 06cd 584f d4bf
00000630: f42e 8264 23be d63f f02d fd70 db10 ef3f
00000640: a2a1 6232 33d5 bbbf 8280 5736 adbf ce3f
00000650: f334 4de3 157d ee3f 3d63 210a 6f6f f33f
00000660: d18d 8f1a 6118 edbf 66d4 74b3 031a c1bf
00000670: 40ce 8d89 d5a9 7bbf e444 d498 5a67 babf
00000680: 4c5d 557f 074a 913f bc5b 85e6 5202 debf
00000690: fde2 1842 c1a4 00c0 959a c27b 951c d8bf
000006a0: 07d1 e995 9e8f f9bf cda8 0413 7452 bf3f
000006b0: bafb bed5 3bec debf 63b3 e174 68bc f2bf
000006c0: 919c 8ab0 7783 d53f 9c77 2323 fc2a c7bf
000006d0: 472f b47d e636 f6bf 5fff 9bbf 8e92 fabf
000006e0: 1b07 1c46 bb45 dc3f 547a 02e5 d32d f1bf
000006f0: 2d38 de03 0785 df3f 6b50 0de6 0b17 d8bf
00000700: 96a7 8560 acd9 d3bf c089 2162 282d d33f
00000710: 45f4 edef 15b2 fa3f f0aa d082 18fb c5bf
00000720: 8a9a f188 87fd f83f a20a 364a ce06 f4bf
00000730: b569 5d3c 5425 f03f 98e1 59e9 1574 c93f
00000740: 00b5 0699 41a9 d9bf 91ec 6971 773c ebbf
00000750: 100a 78fd 3bea ea3f e199 d422 3ce7 febf
00000760: 298e ee05 608c f03f 1c36 538b 2ade e8bf
00000770: cc79 1d14 4152 87bf 4aee 9a4c b43b cc3f
00000780: e5fc d6f7 c747 e23f 481f 734f 7e2d fa3f
00000790: 8f0c 375b 3536 dabf 5eed da7b cd15 e7bf
000007a0: ae58 05f1 2d31 dc3f 8ed5 679f b160 f23f
000007b0: 4ccd 2e3b de7d d4bf 40c9 7e81 9f6e ffbf
000007c0: 34b4 e13e 31aa f5bf 484d 366a 28e9 e1bf
000007d0: 91cd bf95 e586 f33f 8a82 02ce 33d7 c33f
000007e0: 8dbb b1b2 17e4 f53f 7943 93b6 ae3a e93f
000007f0: 616f 6989 3937 0140 6a91 9fd3 b1d6 f6bf
