experiments/fl_train_noise_0.0_max_grad_norm_100/20250424/model_round_0.pt (torch, 35449 bytes, 25 tensors)

embed.weight f4 [32, 8]
0	0x3e41dbd6	0.18931517
1	0xbd4f2c69	-0.050579462
2	0xbe5c45d5	-0.21511014
3	0x3d8141ca	0.063113764
4	0x3db7c13a	0.08972402
5	0x3e2bcb1d	0.167767
6	0xbdba9828	-0.09111053
7	0x3e7cb34c	0.24677771
8	0xbe33ebcc	-0.17570418
9	0x3da0dd91	0.078547604
10	0xbe77ecfd	-0.24211498
11	0xbe52bbf0	-0.20579505
12	0xbdf88748	-0.12135178
13	0xbe7f1769	-0.24911274
14	0x3c74c471	0.014939413
15	0xbded7187	-0.11593919
16	0x3e9a355e	0.3011884
17	0xbea0594b	-0.31318125
18	0xbe80fcf4	-0.25192988
19	0x3dd0a492	0.10187639
20	0x3eb26c9b	0.34848484
21	0x3ddccb66	0.10780983
22	0x3eafa1f4	0.34303248
23	0x3ea9e470	0.33182096
24	0xbd07a434	-0.03311558
25	0xbe6afdbd	-0.22948356
26	0xbdec44ad	-0.11536536
27	0xbe467101	-0.19379045
28	0x3e49b366	0.19697341
29	0xbe93136a	-0.2872575
30	0x3ea00fbe	0.3126201
31	0xbde5eedc	-0.112271994
32	0x3e8421e3	0.25807104
33	0xbdb400d3	-0.0878922
34	0x3df54841	0.11976672
35	0x3e0c159e	0.13680121
36	0xbd349d50	-0.044095337
37	0xbeb47a72	-0.35249668
38	0xbe942786	-0.28936404
39	0xbde5f621	-0.11228586
40	0xbea4f22a	-0.32216007
41	0xbe67f1e9	-0.22650875
42	0xbe9b5431	-0.3033767
43	0x3e78a5bb	0.24281971
44	0x3e8d96ec	0.27654207
45	0x3e5716b9	0.21004762
46	0xbe940ec5	-0.28917518
47	0xbb4d756e	-0.003135051
48	0x3b051c2f	0.0020310988
49	0x3d041ad7	0.03225216
50	0xbe8035c2	-0.25041014
51	0xbe3f36dc	-0.18673271
52	0x3e9ae9e2	0.30256563
53	0x3e84f698	0.25969386
54	0xbea8cb77	-0.3296773
55	0xbd876cf0	-0.06612575
56	0x3e121a31	0.14267804
57	0xbe4789e1	-0.1948619
58	0x3dfd298a	0.123614386
59	0xbe250b60	-0.1611762
60	0xbde6b145	-0.1126428
61	0x3cab0ec5	0.020881066
62	0xbda046c7	-0.07826
63	0xbe99c15c	-0.30030334
64	0xbe9ba692	-0.3040052
65	0x3e9ae2fb	0.30251297
66	0x3e281f20	0.16418123
67	0x3dad05f1	0.08448399
68	0xbe25a91b	-0.1617779
69	0x3c869c51	0.01643196
70	0xbdbf5390	-0.0934211
71	0xbe59460f	-0.21218131
72	0x3eb28a29	0.34871033
73	0xbb06b7b8	-0.0020556282
74	0x3e81df69	0.2536576
75	0x3e34682c	0.17617863
76	0x3ddf34f2	0.108987704
77	0x3d922de1	0.07137657
78	0xbcd09c81	-0.025465252
79	0xbdbde9f2	-0.09273137
80	0x3ce7bcc1	0.028288247
81	0xbe732f73	-0.23748569
82	0xbeaf78ee	-0.3427195
83	0xbdf916f4	-0.12162581
84	0xbcc4b567	-0.02401228
85	0x3e8c870a	0.27446777
86	0x3ea79efd	0.32738486
87	0x3eacc7cf	0.33746192
88	0x3eb040ac	0.3442434
89	0x3da23259	0.07919759
90	0x3e39de2d	0.1815116
91	0xbd9e2dc0	-0.0772357
92	0x3dde2379	0.108466096
93	0xbe1bfc0e	-0.1523287
94	0x3de60bf6	0.1123275
95	0x3e5d8588	0.2163297
96	0x3eb4af36	0.35289925
97	0x3d906b7f	0.07051753
98	0xbe8a11fa	-0.2696684
99	0xbdd30ec8	-0.10305554
100	0xbe7c07d6	-0.24612364
101	0xbdf996ad	-0.12186942
102	0x3e8391cf	0.2569718
103	0xbe9ea73f	-0.30986974
104	0xbdd65ec1	-0.104672916
105	0xbea6a8cc	-0.32550657
106	0xbde58707	-0.11207395
107	0xbd1b027a	-0.03784416
108	0x3eb01094	0.34387648
109	0xbd5cf6dd	-0.053946365
110	0xbe544bda	-0.2073206
111	0x3cce1bc7	0.02515973
112	0x3d600201	0.05468941
113	0xbdec9a64	-0.11552885
114	0xbbd29df4	-0.006427521
115	0x3e868a36	0.26277322
116	0x3e6eb655	0.23311742
117	0xbe834981	-0.25642017
118	0x3c98e202	0.018662456
119	0xbeb0efd4	-0.34557974
120	0x3e0b4e96	0.13604197
121	0x3c4151b2	0.011799263
122	0xbe997dfd	-0.29978934
123	0xbeaaa0a6	-0.3332569
124	0xbea23930	-0.31684256
125	0xbe91f861	-0.2850981
126	0xbe2f537e	-0.17121693
127	0x3e5a61a7	0.21326314
128	0xbdaed579	-0.085368104
129	0x3da6b76b	0.08140453
130	0xbeb23a39	-0.34810045
131	0xbe143aaa	-0.14475504
132	0x3da07fc4	0.07836869
133	0x3e50d3b9	0.20393266
134	0x3d85e36f	0.0653752
135	0xbd31ab5c	-0.04337631
136	0x3e98a44a	0.29812843
137	0x3e696d0d	0.22795506
138	0xbe80393a	-0.2504366
139	0x3e344019	0.17602576
140	0x3daa3a32	0.08311881
141	0xbeb04f85	-0.3443567
142	0x3d4661a5	0.048432965
143	0xbdaeeef9	-0.08541674
144	0x3c350cba	0.0110503975
145	0x3dc46a95	0.095906414
146	0x3c7a1791	0.015264408
147	0xbe6c3fe7	-0.23071252
148	0xbbc3ebca	-0.005979036
149	0x3e16d0df	0.14728115
150	0xbda7e9b5	-0.08198873
151	0x3e75a0a1	0.23987056
152	0x3e6c058b	0.2304899
153	0xbd8029fa	-0.062580064
154	0xbdbef4f1	-0.093240626
155	0xbdfeea4f	-0.124470346
156	0x3c92d4a6	0.017923664
157	0xbe5e9e6e	-0.21740124
158	0x3ea5212e	0.32251877
159	0x3e4eef94	0.2020858
160	0x3e7948d7	0.24344192
161	0xbd075ab5	-0.03304549
162	0xbe8a5e97	-0.2702529
163	0x3eb43bd8	0.35201907
164	0xbe9dda80	-0.30830765
165	0xbc686440	-0.014184058
166	0x3e36235c	0.17786926
167	0x3c5dafaf	0.013530656
168	0x3e9ce625	0.30644336
169	0xbe80d9e8	-0.2516625
170	0x3e2251bd	0.15851493
171	0xbe264b05	-0.16239555
172	0x3e954759	0.29155996
173	0xbea8e4c0	-0.32987022
174	0x3e6d60d5	0.2318147
175	0x3d77710e	0.06041055
176	0x3e4fc284	0.20289046
177	0x3e8bc107	0.27295706
178	0xbe1f7434	-0.15571672
179	0xbe467a70	-0.19382644
180	0x3d2636ae	0.04057949
181	0x3e415a91	0.18882205
182	0x3de74ec2	0.11294319
183	0x3e0c3c2a	0.13694826
184	0x3e9b4f44	0.30333912
185	0x3e677c58	0.22606027
186	0x3e8b099b	0.27155766
187	0xbeb36e90	-0.3504529
188	0x3d3a573c	0.04549335
189	0x3dc8186d	0.09770284
190	0x3e95ff7e	0.29296488
191	0x3e44a543	0.19203667
192	0xbe8a483c	-0.27008235
193	0xbd1ce152	-0.03830082
194	0x3e863bc7	0.26217481
195	0x3d0c422d	0.034242798
196	0x3d5db841	0.054130796
197	0xbe1a13c9	-0.1504661
198	0x3dbf8de0	0.093532324
199	0x3dfee88b	0.12446698
200	0xbd368d21	-0.044568185
201	0x3e32ff75	0.17480262
202	0xbb2cc1fe	-0.0026360746
203	0xbd48ab43	-0.048991453
204	0x3e9a7517	0.30167457
205	0x3e90b506	0.2826311
206	0xbea23c9b	-0.31686863
207	0xbe00ba12	-0.1257098
208	0x3d31f4f2	0.04344649
209	0x3e71772d	0.23580618
210	0x3e9597f2	0.29217488
211	0xbd7cc4ee	-0.061711244
212	0xbe3dfc76	-0.18553337
213	0xbe4066e2	-0.18789247
214	0xbc4d7c26	-0.012541806
215	0x3e84082f	0.25787494
216	0x3c5445af	0.012956067
217	0x3dd6221f	0.10455727
218	0xbe119bc6	-0.14219579
219	0x3e54dc41	0.20787145
220	0x3de60676	0.11231701
221	0xbc9260ae	-0.017868366
222	0xbe896dbd	-0.26841536
223	0x3e57d95b	0.21079008
224	0xbe352bb8	-0.17692459
225	0xbe62e965	-0.22159345
226	0xbd9f2b29	-0.07771904
227	0x3e4e3c3d	0.20140167
228	0x3d99258f	0.07477867
229	0x3ea27c5e	0.3173551
230	0x3e96d0a6	0.2945606
231	0x3dc914b6	0.098184034
232	0x3e216407	0.15760814
233	0x3e81383a	0.2523821
234	0x3b017e94	0.0019759284
235	0x3c3d418b	0.011551271
236	0x3e0841ff	0.13306426
237	0xbe7cd07d	-0.24688907
238	0x3c8e04f5	0.017336348
239	0xbd402a64	-0.046915427
240	0xbeab3f54	-0.33446753
241	0x3eabf916	0.33588475
242	0x3e5672d5	0.20942242
243	0x3e85200f	0.2600102
244	0x3de9c19b	0.114138804
245	0xbe9f5ba6	-0.3112461
246	0xbe3904cf	-0.1806824
247	0xbe8bbd30	-0.27292776
248	0x3df30d60	0.118677855
249	0xbe48ef6f	-0.19622587
250	0x3e8141cf	0.2524552
251	0x3e0d434c	0.13795203
252	0xbe8c64a8	-0.27420545
253	0x3e2735ec	0.16329163
254	0xbe94f202	-0.29090887
255	0x3db3626e	0.08759008

embed.bias f4 [32]
0	0xbeaba098	-0.3352096
1	0x3e852ad0	0.26009226
2	0x3e1f8aa4	0.15580231
3	0x3ca54ba8	0.020177677
4	0xbe824077	-0.25439808
5	0xbe01718b	-0.1264097
6	0x3d71af17	0.05900487
7	0x3e2d7b0e	0.16941473
8	0x3d9a1ff0	0.07525623
9	0xbd2f9be7	-0.04287329
10	0x3ea19040	0.31555367
11	0x3e80de01	0.25169376
12	0x3e8fdf00	0.28099823
13	0xbe5bd5d5	-0.21468289
14	0x3e49a928	0.19693434
15	0x3e4f3a99	0.20237197
16	0x3e531752	0.20614365
17	0xbeb1633b	-0.3464602
18	0xbe9566f7	-0.29180118
19	0xbdd1cdcc	-0.10244331
20	0x3e01d2b4	0.12678033
21	0x3e063528	0.13106215
22	0xbe4488ca	-0.19192806
23	0x3e15762d	0.14595862
24	0x3ea1f8f6	0.31635255
25	0x3e5abb6c	0.21360558
26	0xbe43d384	-0.19123656
27	0x3e4e61e4	0.2015453
28	0x3db7af93	0.08969035
29	0xbe8bc276	-0.272968
30	0xbe3b9153	-0.18317156
31	0xbcbb5045	-0.022865424

pos_enc.pe f4 [1, 12, 32]
0	0x00000000	0.0
1	0x3f800000	1.0
2	0x00000000	0.0
3	0x3f800000	1.0
4	0x00000000	0.0
5	0x3f800000	1.0
6	0x00000000	0.0
7	0x3f800000	1.0
8	0x00000000	0.0
9	0x3f800000	1.0
10	0x00000000	0.0
11	0x3f800000	1.0
12	0x00000000	0.0
13	0x3f800000	1.0
14	0x00000000	0.0
15	0x3f800000	1.0
16	0x00000000	0.0
17	0x3f800000	1.0
18	0x00000000	0.0
19	0x3f800000	1.0
20	0x00000000	0.0
21	0x3f800000	1.0
22	0x00000000	0.0
23	0x3f800000	1.0
24	0x00000000	0.0
25	0x3f800000	1.0
26	0x00000000	0.0
27	0x3f800000	1.0
28	0x00000000	0.0
29	0x3f800000	1.0
30	0x00000000	0.0
31	0x3f800000	1.0
32	0x3f576aa4	0.84147096
33	0x3f0a5141	0.54030234
34	0x3f2e7ace	0.68156135
35	0x3f3b54b0	0.731761
36	0x3f087dba	0.53316844
37	0x3f58940d	0.8460091
38	0x3ed190f0	0.4093089
39	0x3f6992c7	0.9123959
40	0x3e9f393e	0.3109836
41	0x3f734e6b	0.9504153
42	0x3e708f25	0.23492105
43	0x3f78d5f1	0.9720145
44	0x3e35233a	0.17689219
45	0x3f7bf683	0.9842302
46	0x3e0825f3	0.13295726
47	0x3f7dba28	0.99112177
48	0x3dcc7576	0.099833414
49	0x3f7eb898	0.9950042
50	0x3d996f36	0.07491915
51	0x3f7f47d1	0.9971896
52	0x3d6636ae	0.05620449
53	0x3f7f9868	0.9984193
54	0x3d2cacfa	0.04215715
55	0x3f7fc5bd	0.999111
56	0x3d01815b	0.031617504
57	0x3f7fdf3c	0.99950004
58	0x3cc23ea5	0.023711512
59	0x3f7fed93	0.99971884
60	0x3c91ab42	0.017781857
61	0x3f7ff5a3	0.99984187
62	0x3c5a7a49	0.013334819
63	0x3f7ffa2c	0.99991107
64	0x3f68c7b7	0.9092974
65	0xbed51133	-0.41614684
66	0x3f7f5ad9	0.99748
67	0x3d914d53	0.070948265
68	0x3f66f20a	0.9021307
69	0x3edce8b2	0.43146282
70	0x3f3f3511	0.7469035
71	0x3f2a3903	0.6649324
72	0x3f17541b	0.5911271
73	0x3f4e7bec	0.8065784
74	0x3ee9d3b5	0.45669332
75	0x3f63be69	0.8896242
76	0x3eb247f6	0.34820527
77	0x3f6ffaa6	0.93741834
78	0x3e86f082	0.26355368
79	0x3f76f2f5	0.96464473
80	0x3e4b6ff8	0.19866931
81	0x3f7ae5a5	0.9800666
82	0x3e1900d3	0.1494172
83	0x3f7d204f	0.98877424
84	0x3de5d986	0.1122313
85	0x3f7e61f3	0.9936821
86	0x3dac85ae	0.08423935
87	0x3f7f170e	0.99644554
88	0x3d8170c8	0.063203394
89	0x3f7f7cf9	0.9980007
90	0x3d4230aa	0.04740969
91	0x3f7fb64e	0.9988755
92	0x3d11a55c	0.03555809
93	0x3f7fd68e	0.9993676
94	0x3cda7550	0.026667267
95	0x3f7fe8b1	0.99964434
96	0x3e1081c3	0.14112
97	0xbf7d7026	-0.9899925
98	0x3f473cde	0.7782725
99	0xbf20bfce	-0.6279267
100	0x3f7e45d7	0.9932532
101	0xbded7fab	-0.11596616
102	0x3f742163	0.95363444
103	0x3e9a1863	0.3009673
104	0x3f5009c2	0.8126489
105	0x3f152f58	0.58275366
106	0x3f2724b7	0.652904
107	0x3f41e7a2	0.7574407
108	0x3f022f6c	0.5085361
109	0x3f5c6d29	0.86104065
110	0x3ec768a7	0.3894703
111	0x3f6bc937	0.92103904
112	0x3e974e6c	0.2955202
113	0x3f7490ef	0.9553365
114	0x3e646de2	0.22307542
115	0x3f798c92	0.9748012
116	0x3e2beed7	0.16790329
117	0x3f7c5d9e	0.9858035
118	0x3e01332c	0.12617177
119	0x3f7df443	0.9920084
120	0x3dc1ffc0	0.094726086
121	0x3f7ed94f	0.99550337
122	0x3d919306	0.071081206
123	0x3f7f5a3a	0.9974705
124	0x3d5a694e	0.053323083
125	0x3f7fa2c3	0.9985773
126	0x3d23d1c5	0.039994974
127	0x3f7fcb90	0.99919987
128	0xbf41bdcf	-0.7568025
129	0xbf275530	-0.6536436
130	0x3e10ef96	0.14153895
131	0xbf7d6c3a	-0.98993266
132	0x3f4749ec	0.7784717
133	0xbf20af9e	-0.6276797
134	0x3f7e47a6	0.99328077
135	0xbded03b2	-0.115729704
136	0x3f741dde	0.95358074
137	0x3e9a2eb1	0.30113748
138	0x3f5004a5	0.81257087
139	0x3f153679	0.58286244
140	0x3f271fbc	0.652828
141	0x3f41ebed	0.7575062
142	0x3f022b2e	0.50847137
143	0x3f5c6fab	0.8610789
144	0x3ec761d7	0.38941833
145	0x3f6bcaa7	0.921061
146	0x3e974920	0.29547977
147	0x3f7491c1	0.955349
148	0x3e6465c5	0.22304447
149	0x3f798d09	0.9748083
150	0x3e2be8b2	0.16787985
151	0x3f7c5de1	0.9858075
152	0x3e012e88	0.12615407
153	0x3f7df469	0.99201065
154	0x3dc1f8c3	0.09471276
155	0x3f7ed964	0.9955046
156	0x3d918dc8	0.07107121
157	0x3f7f5a46	0.9974712
158	0x3d5a616c	0.053315565
159	0x3f7fa2ca	0.9985777
160	0xbf757c10	-0.9589243
161	0x3e913c2c	0.2836622
162	0xbf123563	-0.5711271
163	0xbf5223fd	-0.82086164
164	0x3ea5dad8	0.32393527
165	0xbf723240	-0.94607925
166	0x3f5be09d	0.8588961
167	0xbf031c42	-0.51214993
168	0x3f7ffc7f	0.99994653
169	0xbc2972e9	-0.010342338
170	0x3f6d3ff7	0.9267573
171	0x3ec0569a	0.37566072
172	0x3f46caab	0.77652997
173	0x3f214cf1	0.6300803
174	0x3f1e5254	0.6184437
175	0x3f492c18	0.78582907
176	0x3ef57743	0.47942552
177	0x3f60a940	0.87758255
178	0x3ebb819e	0.36622328
179	0x3f6e3705	0.93052703
180	0x3e8e11ed	0.2774805
181	0x3f75f27c	0.96073127
182	0x3e564ff8	0.20928943
183	0x3f7a549f	0.9778537
184	0x3e213c1d	0.15745588
185	0x3f7cce81	0.987526
186	0x3df24294	0.11829105
187	0x3f7e33df	0.992979
188	0x3db5db21	0.08879686
189	0x3f7efd1e	0.99604976
190	0x3d887392	0.06662668
191	0x3f7f6e60	0.99777794
192	0xbe8f0f8c	-0.2794155
193	0x3f75cdb8	0.96017027
194	0xbf7a36a2	-0.97739613
195	0xbe587d7b	-0.21141617
196	0xbe6be576	-0.23036751
197	0xbf791d53	-0.9731037
198	0x3f12f357	0.5740256
199	0xbf519f53	-0.81883734
200	0x3f72784e	0.9471482
201	0xbea43f6d	-0.3207964
202	0x3f7d33d4	0.9890721
203	0x3e16f89e	0.14743277
204	0x3f603088	0.8757405
205	0x3ef72f35	0.48278204
206	0x3f37a9cd	0.7174347
207	0x3f325611	0.69662577
208	0x3f108c68	0.5646424
209	0x3f534932	0.8253356
210	0x3edeac4f	0.43490836
211	0x3f668583	0.9004747
212	0x3ea97dfc	0.3310393
213	0x3f7190e2	0.943617
214	0x3e802ad9	0.2503269
215	0x3f77d96d	0.9681614
216	0x3e41206e	0.18860027
217	0x3f7b67e3	0.98205394
218	0x3e1134c2	0.14180282
219	0x3f7d69c1	0.9898949
220	0x3dda19c2	0.10649444
221	0x3f7e8b51	0.9943133
222	0x3da3b037	0.07992595
223	0x3f7f2e56	0.9968008
224	0x3f283046	0.6569866
225	0x3f40ffbd	0.75390226
226	0xbf5bfbf8	-0.8593135
227	0x3f02ee57	0.5114493
228	0xbf36b670	-0.7137213
229	0xbf334f5e	-0.7004298
230	0x3e411b6d	0.18858118
231	0xbf7b6821	-0.98205763
232	0x3f4ce86e	0.8004216
233	0xbf1974bc	-0.5994375
234	0x3f7efba7	0.9960274
235	0xbdb65e4a	-0.08904703
236	0x3f728444	0.9473307
237	0x3ea3f8ba	0.320257
238	0x3f4dbe68	0.8036866
239	0x3f185561	0.5950528
240	0x3f24eb72	0.6442176
241	0x3f43ccb3	0.7648422
242	0x3f004b4b	0.5011489
243	0x3f5d884e	0.8653611
244	0x3ec460de	0.38355154
245	0x3f6c6bc6	0.9235195
246	0x3e94f35f	0.29091927
247	0x3f74ed69	0.9567476
248	0x3e60d350	0.2195561
249	0x3f79c0ea	0.9755999
250	0x3e293353	0.16523485
251	0x3f7c7b29	0.9862543
252	0x3dfe46ba	0.12415834
253	0x3f7e04e9	0.9922624
254	0x3dbee568	0.093210995
255	0x3f7ee2ae	0.99564636

transformer_encoder.layers.0.self_attn.qlinear.weight f4 [32, 32]
0	0x3b686d44	0.0035465518
1	0xbd2be040	-0.04196191
2	0xbe04e04e	-0.1297619
3	0x3e281a6a	0.16416326
4	0xbe2737d7	-0.16329895
5	0x3e2a5f17	0.16637836
6	0x3e06e6a6	0.13173923
7	0x3def18c6	0.11674647
8	0x3cea8b4f	0.02863088
9	0x3d695c61	0.056972865
10	0x3dfb3c0e	0.12267314
11	0x3e02cffc	0.12774652
12	0x3dc212f5	0.09476272
13	0x3d1a3bf0	0.037654817
14	0xbe0804f7	-0.13283144
15	0x3dbd4284	0.092412025
16	0xbe156803	-0.14590459
17	0xbe27026a	-0.16309515
18	0xbc7dcd09	-0.015490779
19	0x3c7c68be	0.015405832
20	0x3e2b22ac	0.16712445
21	0xbdb3096f	-0.08742034
22	0xbe2ca438	-0.1685952
23	0x3db1226d	0.08649144
24	0xbdbc8119	-0.09204311
25	0xbc558e50	-0.013034418
26	0xbce6794c	-0.02813401
27	0xbe1a1309	-0.15046324
28	0xbe06a505	-0.13148887
29	0x3dedc15d	0.11609147
30	0x3e18c1f7	0.14917742
31	0x3dc03762	0.093855634
32	0xbde0df00	-0.10980034
33	0x3d0011e9	0.03126708
34	0x3e31bcfc	0.17357248
35	0x3d5fd7fa	0.05464933
36	0xbe0a4681	-0.13503458
37	0xbdec64ac	-0.11542639
38	0x3dd932ae	0.106053695
39	0x3b0d312d	0.0021544204
40	0xbdc6c353	-0.09705224
41	0x3d2f4335	0.042788703
42	0x3deb6426	0.11493711
43	0x3d6bfd64	0.0576147
44	0xbc8aba59	-0.01693456
45	0x3e13541f	0.14387558
46	0x3e0e1a31	0.13877179
47	0x3def28ad	0.1167768
48	0x3dd734db	0.10508128
49	0xbda9e83d	-0.08296249
50	0x3e30674d	0.17226906
51	0xbd20ef7d	-0.039290894
52	0x3d89dca0	0.06731534
53	0xbe30cf8c	-0.17266673
54	0xbd8ba9b4	-0.06819478
55	0xbd94b233	-0.07260551
56	0xbc971828	-0.018444136
57	0x3e294adb	0.16532461
58	0xbdcb7ff5	-0.09936515
59	0xbe1faf98	-0.15594327
60	0x3dd83b58	0.10558194
61	0xbdd3eded	-0.10348115
62	0x3d3ffa21	0.0468694
63	0xbdccd699	-0.10001869
64	0x3e1c1a77	0.1524447
65	0x3e181a17	0.14853702
66	0xbe0cd8cd	-0.13754578
67	0xbe029c2c	-0.12754887
68	0x3e15d2ba	0.14631167
69	0x3e1c08c2	0.15237716
70	0x3cbe7c78	0.02325271
71	0xbdb20187	-0.086916976
72	0x3e2ba8b0	0.16763568
73	0xbe303917	-0.17209278
74	0x3d8f5c33	0.070000075
75	0xbe1443ee	-0.14479038
76	0xbe0cc6ca	-0.13747707
77	0x3d8629d2	0.06550945
78	0x3d5321a7	0.051545765
79	0xbd81e683	-0.06342795
80	0xbe2b74de	-0.167438
81	0xbda7ab97	-0.08187025
82	0xbe117e6b	-0.14208381
83	0x3e1679a3	0.14694838
84	0x3e1075af	0.14107393
85	0xbe26fad2	-0.16306618
86	0x3c8aef1e	0.016959723
87	0x3dea730c	0.11447725
88	0x3e18e228	0.14930022
89	0x3c4ed564	0.0126241185
90	0xbcb2da2e	-0.021832552
91	0x3e00bae6	0.12571296
92	0xbdf03b8a	-0.11730106
93	0xbe1ecbba	-0.15507403
94	0x3d9f48f0	0.077775836
95	0x3d2be977	0.041970696
96	0xbe227480	-0.15864754
97	0x3e29f90b	0.16598909
98	0xbc41d7f5	-0.011831273
99	0xbd65535d	-0.055987705
100	0xbdb7bbea	-0.08971389
101	0xbd31d964	-0.04342021
102	0xbe22f4bb	-0.1591367
103	0x3e0b371c	0.13595241
104	0xbd8b526c	-0.0680283
105	0x3e053de1	0.13011886
106	0x3d8d8cf5	0.06911651
107	0x3ddaaed9	0.10677881
108	0xbe166a42	-0.14688972
109	0xbb19d9d9	-0.0023475795
110	0x3de35a14	0.111011654
111	0xbe211b6f	-0.15733121
112	0x3e065e56	0.13121924
113	0xbdb2f1a3	-0.08737495
114	0xbd5511f9	-0.052019093
115	0xbe279fdd	-0.16369577
116	0x3e15f253	0.1464322
117	0xbd399292	-0.045305796
118	0xbe0c6081	-0.13708688
119	0xbe03ecdc	-0.12883323
120	0x3bc187f7	0.005906101
121	0xbcb8ea26	-0.022572588
122	0xbd85a5f2	-0.06525792
123	0xbe1bc946	-0.15213498
124	0x3d1b6a83	0.037943374
125	0xbcaa80f3	-0.02081344
126	0xbdd84980	-0.10560894
127	0xbd439a8a	-0.0477548
128	0xbdfd910b	-0.123811804
129	0x3dbdf2dc	0.092748374
130	0xbe1d57be	-0.15365502
131	0x3af00a68	0.0018313648
132	0xbe26ef32	-0.16302183
133	0xbcc302d8	-0.023805067
134	0xbd888ce5	-0.066674985
135	0x3e186887	0.14883624
136	0xbbd05aa8	-0.0063584633
137	0xbd768fff	-0.06019592
138	0xbc9587ef	-0.018253295
139	0x3cb7cd45	0.022436747
140	0x3c8a4ba5	0.016881773
141	0x3de5aa3a	0.11214109
142	0xbd5a05e7	-0.053228285
143	0xbdc8dc92	-0.098076954
144	0x3d9981fa	0.07495494
145	0xbd290032	-0.041259952
146	0xbe30c0bd	-0.17261024
147	0xbe2fed29	-0.17180313
148	0xbc25ec58	-0.0101271495
149	0x3da1d450	0.079018235
150	0x3c8dc304	0.017304905
151	0x3e236607	0.15956889
152	0xbe1c34df	-0.15254544
153	0xbe32e55f	-0.1747031
154	0x3d1c8051	0.03820831
155	0xbe0300e1	-0.12793304
156	0xbcf225e3	-0.029559081
157	0xbd9a1b4c	-0.07524738
158	0xbde056b1	-0.10954035
159	0x3e103122	0.14081243
160	0xbdf68cb1	-0.120385535
161	0xbe134b9f	-0.14384316
162	0xbde1749e	-0.11008571
163	0x3d40acd4	0.04703982
164	0x3e1f16b3	0.15536003
165	0xbda159ff	-0.078784935
166	0x3def353f	0.11680078
167	0xbe028f7f	-0.12750052
168	0xbd8f8843	-0.07008412
169	0xbc052c01	-0.008128167
170	0x3e2b5d73	0.16734867
171	0xbda0c7a3	-0.07850578
172	0x3de78d48	0.11306244
173	0xbe190b41	-0.149457
174	0xbe1d93d7	-0.15388428
175	0x3b754c62	0.003742956
176	0x3d55395f	0.052056666
177	0xbd6bc3a7	-0.057559635
178	0x3d67c84a	0.056587495
179	0x3c3ffa92	0.011717455
180	0x3ddd25bb	0.10798212
181	0xbe26849b	-0.16261522
182	0x3de43b89	0.11144168
183	0x3daef334	0.08542481
184	0x3d5def41	0.05418325
185	0xbe01763a	-0.12642756
186	0xbda638c5	-0.08116297
187	0x3e280c47	0.16410933
188	0xbd511d93	-0.051053595
189	0xbe0c7620	-0.13716936
190	0x3c491861	0.012273879
191	0x3e200367	0.15626298
192	0xbd42bbbc	-0.04754232
193	0xbdc39ffc	-0.09551999
194	0xbe2c256e	-0.16811153
195	0xbda92d54	-0.08260599
196	0xbe023145	-0.12714107
197	0xbde8b25a	-0.11362143
198	0x3e11c613	0.14235716
199	0xbd89ef36	-0.06735079
200	0x3e315dec	0.17320985
201	0x3d6188e1	0.05506218
202	0x3dc6cbfd	0.097068764
203	0xbd90e6f7	-0.07075303
204	0xbde2131c	-0.11038801
205	0xbdcd7163	-0.100313924
206	0xbced5cde	-0.028974947
207	0x3e155361	0.14582588
208	0xbe0a2695	-0.1349128
209	0xbdc061dd	-0.09393666
210	0xbe210247	-0.15723525
211	0xbd3a62ed	-0.0455045
212	0x3d06f296	0.03294619
213	0x3e1cc29e	0.15308616
214	0x3e34b83c	0.17648405
215	0x3dfbc4ba	0.12293382
216	0xbe23bdd9	-0.1599039
217	0xbcb09f69	-0.021560388
218	0x3dda43c7	0.10657459
219	0xbceea250	-0.029130131
220	0x3d96ce81	0.07363606
221	0x3d559354	0.052142456
222	0x3e19c808	0.15017712
223	0x3e13bc5d	0.14427324
224	0x3e1623a4	0.14662033
225	0x3d4b8d10	0.049695075
226	0xbd2713a7	-0.040790226
227	0xbd443b40	-0.047908068
228	0x3d940402	0.07227327
229	0x3de48b10	0.111593366
230	0x3e1ae909	0.15127958
231	0xbe2fd773	-0.17172031
232	0x3c565d52	0.013083773
233	0x3dd15e0b	0.102230154
234	0x3be714bb	0.007052032
235	0xbd5d0e16	-0.05396851
236	0x3ddd0afb	0.1079311
237	0x3e31c9ab	0.17362086
238	0x3cd04757	0.025424642
239	0xbda3e4e9	-0.080026455
240	0xbd07d97a	-0.033166386
241	0xbd9d511a	-0.076814845
242	0x3ddf30bf	0.108979695
243	0xbd69e7c5	-0.0571058
244	0x3e12ff7e	0.14355275
245	0x3dcba219	0.09943027
246	0xbdb539fb	-0.088489495
247	0x3c9a56f6	0.018840294
248	0x3d2b7b8d	0.041865874
249	0xbe30893e	-0.17239854
250	0xbd9701d3	-0.07373395
251	0x3e0fe145	0.14050777
252	0x3dd99fac	0.10626158
253	0xbdca5f89	-0.09881503
254	0x3e2df43a	0.16987696
255	0xbd252617	-0.04031953

transformer_encoder.layers.0.self_attn.qlinear.bias f4 [32]
0	0x3dc128f6	0.09431641
1	0x3de25104	0.11050609
2	0xbcce3db8	-0.025175914
3	0xbe2bc6fd	-0.16775127
4	0x3e09be07	0.13451396
5	0x3d301fbc	0.042999014
6	0x3dd2914d	0.1028162
7	0x3e27dbc2	0.16392425
8	0xbe15c797	-0.14626919
9	0x3e0752ef	0.1321523
10	0x3d93ac18	0.07210559
11	0xbe311627	-0.17293607
12	0xbdcd0451	-0.10010589
13	0xbc9ddafa	-0.019269455
14	0x3e10e5b2	0.14150122
15	0x3b34a68d	0.0027565092
16	0x3cb5819f	0.022156535
17	0xbe18a69f	-0.14907311
18	0xbcfa1b26	-0.030530524
19	0xbe287dd3	-0.16454248
20	0xbe191fb1	-0.14953496
21	0x3d118958	0.03553137
22	0x3de6c6e2	0.11268403
23	0x3d06215f	0.03274667
24	0xbd45439f	-0.04816019
25	0xbdf5b68a	-0.11997707
26	0xbcbd61ac	-0.023117863
27	0x3e2669bb	0.1625127
28	0x3d15ab5b	0.03654037
29	0xbe34a471	-0.17640854
30	0xbc804f8a	-0.015662927
31	0x3ce51a38	0.027966604

transformer_encoder.layers.0.self_attn.klinear.weight f4 [32, 32]
0	0x3e15370a	0.14571777
1	0x3e300af8	0.17191684
2	0x3d160cea	0.03663341
3	0xbd5f0e57	-0.054457035
4	0x3d20152b	0.039082687
5	0x3d771d65	0.060330767
6	0x3d91be34	0.071163565
7	0x3dc57f70	0.096434474
8	0x3e020c3e	0.12699983
9	0x3ddaa999	0.106768794
10	0xbda5fd62	-0.081049696
11	0xbcc2a083	-0.023758179
12	0xbd35ca3b	-0.044382315
13	0xbe028e00	-0.12749481
14	0x3c658619	0.014009022
15	0x3df730c6	0.1206985
16	0xbe19c01d	-0.15014692
17	0xbe2846e6	-0.16433296
18	0xbd788a43	-0.06067873
19	0x3dd8e45e	0.105904326
20	0xbc980d85	-0.018561134
21	0xbe0fdf20	-0.14049959
22	0x3e192394	0.14954978
23	0x3dcae7a8	0.09907466
24	0x3e0d773c	0.13815016
25	0x3dfbd9e0	0.12297416
26	0x3d108d81	0.0352912
27	0x3e080a5b	0.132852
28	0x3ddf069b	0.10889932
29	0x3d6e8ee9	0.05824176
30	0x3ded4a92	0.11586489
31	0x3c05447d	0.008134005
32	0xbe3416f1	-0.17586876
33	0x3dfcd724	0.12345722
34	0xbdb21f62	-0.08697392
35	0x3c59ce1c	0.013293769
36	0xbd4cfd44	-0.05004622
37	0xbe0fd363	-0.14045481
38	0xbda06e13	-0.07833495
39	0xbd45a88a	-0.048256435
40	0xbe2d8c0e	-0.16947958
41	0x3e2d6c6f	0.16935895
42	0x3e037a58	0.12839639
43	0x3dece6d9	0.11567468
44	0xbe12d541	-0.14339162
45	0x3e2a2f99	0.1661972
46	0x3e195c68	0.14976656
47	0xbc86357a	-0.016382921
48	0x3d7cf186	0.061753772
49	0xbe059e95	-0.13048775
50	0x3c87f859	0.016597914
51	0xbdfd9223	-0.12381389
52	0xbd889ec5	-0.06670908
53	0x3df38039	0.11889691
54	0x3d34b988	0.04412225
55	0xbddefd9a	-0.108882144
56	0x3dc21ff9	0.094787546
57	0xbe29f22b	-0.16596286
58	0xbd211dd3	-0.039335083
59	0x3e167693	0.1469367
60	0xbd939f7a	-0.07208152
61	0xbdf68b42	-0.1203828
62	0x3d04a136	0.032380305
63	0xbe27a7bf	-0.16372584
64	0x3db6a266	0.08917694
65	0xbe1dec00	-0.15422058
66	0xbd98809a	-0.07446404
67	0x3d0589eb	0.032602232
68	0x3cffb173	0.031212544
69	0x3e3359da	0.17514744
70	0x3b532e34	0.0032223584
71	0x3e048c7c	0.12944216
72	0xbe182ddb	-0.14861242
73	0x3d90729d	0.07053111
74	0x3dc4e6c5	0.09614328
75	0xbd509700	-0.050925255
76	0xbe25c3fe	-0.16188046
77	0x3e330b06	0.17484674
78	0x3e0edf6a	0.13952413
79	0x3e222c26	0.15837154
80	0x3e27f6be	0.16402718
81	0x3ddc8757	0.107680015
82	0xbdf13a08	-0.11778647
83	0x3d09b5ef	0.03362077
84	0x3d874ee0	0.06606841
85	0x3e13105f	0.14361714
86	0xbd26a8bf	-0.040688273
87	0x3bbd226e	0.0057719266
88	0xbd47fa6b	-0.0488228
89	0x3e19e809	0.1502992
90	0xbb912265	-0.004429149
91	0xbdeba08a	-0.1150523
92	0x3db0c0b1	0.08630503
93	0xbdaacf76	-0.08340351
94	0xbdf9a0fc	-0.121889085
95	0xbd819c80	-0.06328678
96	0x3dc07769	0.09397776
97	0x3db8ff6a	0.09033091
98	0x3e1cef54	0.15325671
99	0xbd1d028e	-0.038332514
100	0xbd0d55ae	-0.03450554
101	0xbccdf401	-0.025140764
102	0xbd232a03	-0.039834987
103	0x3d43937e	0.04774808
104	0x3db41b51	0.08794273
105	0xbd37b913	-0.044854235
106	0xbd36b958	-0.04461035
107	0xbdbf6bc5	-0.09346727
108	0xbe2ccfb1	-0.16876103
109	0xbdcdda8f	-0.10051452
110	0x3e335a32	0.17514876
111	0xbe037571	-0.12837769
112	0x3dd0e342	0.10199596
113	0x3deb956f	0.115031116
114	0x3e0a1580	0.13484764
115	0x3de6f71e	0.112776026
116	0xbdd96ce2	-0.10616471
117	0xbdc34b9f	-0.09535908
118	0x3d2d1f0b	0.042265933
119	0x3de0cad6	0.10976188
120	0xbd1cfc7b	-0.03832672
121	0x3c561548	0.013066597
122	0xbd377d53	-0.044797253
123	0xbdfe32c8	-0.124120295
124	0xbc898300	-0.016786098
125	0xbdf79ff5	-0.12091056
126	0x3e1090fc	0.14117807
127	0x3df3d897	0.119065456
128	0x3e30e12e	0.17273399
129	0xbdbd31cc	-0.092380136
130	0xbe057d48	-0.13036072
131	0xbce5c8f7	-0.028049929
132	0xbdb580f8	-0.088624895
133	0x3da28265	0.07935027
134	0xbdfac716	-0.12245004
135	0x3e129520	0.14314699
136	0x3b870cbf	0.0041213925
137	0xbcfa63f0	-0.030565232
138	0xbd98e769	-0.07466013
139	0xbe0cac49	-0.13737597
140	0xbd799023	-0.060928475
141	0xbceec8da	-0.029148508
142	0x3e21e773	0.15810947
143	0x3df83ce9	0.12120993
144	0xbe2841b2	-0.16431311
145	0xbda80cdf	-0.0820558
146	0xbdcd670b	-0.100294195
147	0x3ceb1493	0.028696334
148	0x3e108f8e	0.14117262
149	0xbd19f918	-0.03759107
150	0xbe2513c7	-0.16120826
151	0x3e18adbb	0.14910023
152	0x3dfa34fb	0.122171365
153	0x3df29d0e	0.11846362
154	0x3d31f278	0.043444127
155	0x3e04bed0	0.12963414
156	0x3d843a73	0.06456461
157	0xbc792c1a	-0.015208269
158	0x3e0846c2	0.13308242
159	0x3d05928e	0.03261047
160	0xbe2fbddd	-0.17162271
161	0x3e09f874	0.13473684
162	0x3c90da7e	0.01768231
163	0x3dce7561	0.10080982
164	0xbd32fe9e	-0.043699853
165	0xbbdf0b0c	-0.006806737
166	0x3ce66b3f	0.02812731
167	0xbd6b038a	-0.057376422
168	0xbdc96c12	-0.09835066
169	0x3e134a7e	0.14383885
170	0xbe121430	-0.14265513
171	0xbda4a9a1	-0.08040167
172	0xbd8f99c6	-0.07011752
173	0x3e06f256	0.13178381
174	0x3de89516	0.11356561
175	0xbe034efa	-0.12823096
176	0xbdf92cdd	-0.1216676
177	0x3e1c04a1	0.15236141
178	0xbd3fcea5	-0.04682793
179	0xbdefa2cb	-0.11700972
180	0x3e3392ae	0.17536423
181	0x3d17e7b1	0.037086193
182	0xbe06af13	-0.13152723
183	0xbdde6c0a	-0.108604506
184	0x3da6591b	0.08122464
185	0xbdfdca8a	-0.12392147
186	0xbd672662	-0.05643309
187	0x3e2f5dc1	0.17125608
188	0x3df8f8e4	0.12156847
189	0x3dcfa7f2	0.10139455
190	0x3e1cd35a	0.15314999
191	0x3dd0fccb	0.102044664
192	0x3e25383b	0.16134731
193	0xbe1a1bec	-0.15049714
194	0x3e0b2c14	0.13591033
195	0x3d55d0f0	0.05220121
196	0xbdd770c0	-0.10519552
197	0xbe11a35d	-0.14222474
198	0x3d35e87c	0.044411168
199	0x3b726318	0.0036985334
200	0xbe25376d	-0.16134425
201	0x3dde8d95	0.108668484
202	0xbdbe1747	-0.092817836
203	0x3e10421c	0.14087719
204	0xbde09ac9	-0.10967023
205	0xbe32367f	-0.17403601
206	0xbd9c833c	-0.076422185
207	0xbcf937fd	-0.030422205
208	0xbe32c6b1	-0.17458607
209	0xbd895260	-0.06705165
210	0xbe1fdc10	-0.15611291
211	0x3debc63c	0.115124196
212	0xbdaccdf5	-0.08437721
213	0x3c9c965e	0.01911467
214	0xbdd4a602	-0.10383226
215	0x3d4b9d26	0.049710415
216	0xbe30c889	-0.17263998
217	0xbddf66c3	-0.10908272
218	0xbdfcc74c	-0.123427
219	0xbcdbcd91	-0.02683142
220	0x3e05a035	0.13049395
221	0x3df32bbf	0.11873578
222	0x3c9d86f6	0.019229393
223	0x3d07ab35	0.03312226
224	0xbe2997f7	-0.16561876
225	0x3e2b4407	0.16725169
226	0x3c2177c8	0.009855218
227	0x3e2bb264	0.1676727
228	0xbcdde298	-0.027085587
229	0xbdd33c74	-0.10314265
230	0x3cbe1ea5	0.023207972
231	0xbe29bed6	-0.16576704
232	0x3e1c8499	0.15284957
233	0xbb778924	-0.0037770951
234	0x3b6629cb	0.0035120125
235	0x3e28cb46	0.16483793
236	0xbe25dc29	-0.16197266
237	0xbd218751	-0.03943569
238	0x3dd456db	0.10368129
239	0x3e296b36	0.16544804
240	0xbe249762	-0.16073373
241	0x3d9d639b	0.07685014
242	0x3e33925f	0.17536305
243	0x3e2464b5	0.16054042
244	0xbd1be630	-0.03806132
245	0xbd6fbba1	-0.058528546
246	0x3e159aed	0.14609881
247	0x3cedbecd	0.029021645
248	0xbe24e7a6	-0.16103992
249	0xbd9a3c1a	-0.07530995
250	0x3b1407f9	0.002258776
251	0x3e300a5f	0.17191456
252	0x3d3eac71	0.04655117
253	0x3d23dae1	0.04000366
254	0x3e17abd4	0.14811641
255	0xbdb1f45f	-0.08689188

transformer_encoder.layers.0.self_attn.klinear.bias f4 [32]
0	0xbe233fb9	-0.15942277
1	0xbd61e73c	-0.055152163
2	0xbdc17ba6	-0.09447412
3	0x3be39e04	0.006946327
4	0x3df96b7d	0.12178705
5	0x3e0ff1f5	0.14057143
6	0x3df04a09	0.11732871
7	0xbdee2e91	-0.116299756
8	0xbdff0865	-0.12452773
9	0xbd93c1c2	-0.07214691
10	0xbcca3727	-0.024684502
11	0xbdd9a55f	-0.10627245
12	0x3dd2e074	0.10296717
13	0xbe23b3b0	-0.15986514
14	0xbe314f63	-0.1731544
15	0xbe127d0f	-0.14305519
16	0x3dd1800f	0.10229503
17	0xbe33ed11	-0.17570902
18	0x3e012bb9	0.12614335
19	0xbe00a587	-0.12563144
20	0xbe16a4a0	-0.14711237
21	0x3d1fd38a	0.0390201
22	0x3e33c571	0.17555787
23	0x3e24be55	0.16088231
24	0x3e2552f5	0.16144927
25	0xbdece38e	-0.1156684
26	0x3e138ae3	0.1440845
27	0xbc99b777	-0.01876424
28	0x3d9f21bc	0.07770106
29	0x3dc787d6	0.097427055
30	0xbdd688c6	-0.10475306
31	0x3df403d0	0.1191479

transformer_encoder.layers.0.self_attn.vlinear.weight f4 [32, 32]
0	0xbe077562	-0.13228372
1	0x3e0d1b40	0.13779926
2	0xbd13c84a	-0.036079682
3	0xbe2e5e8d	-0.17028256
4	0x3e03c991	0.1286986
5	0xbe1b29e8	-0.15152705
6	0xbd9087d3	-0.070571564
7	0x3d2142f3	0.03937049
8	0x3c1a32ad	0.009411496
9	0x3df05074	0.11734095
10	0x3de2cbe3	0.110740446
11	0xbe303a4a	-0.17209736
12	0x3e28d707	0.16488276
13	0x3e0cb564	0.1374107
14	0xbe0f391f	-0.13986634
15	0xbd7a2f20	-0.0610801
16	0xbd9e89d7	-0.077411346
17	0x3b62254e	0.0034507099
18	0x3d7551d2	0.059892483
19	0x3d4f5923	0.050622117
20	0xbe08e0c1	-0.13366987
21	0x3d988470	0.074471354
22	0x3c992cc8	0.018698111
23	0x3d22ee16	0.039777838
24	0x3e094eab	0.13408916
25	0xbe1e4dda	-0.15459386
26	0xbd15dc85	-0.036587257
27	0xbdde1467	-0.10843735
28	0xbd80ce1d	-0.06289313
29	0xbe2c4f4f	-0.16827129
30	0xbc381e25	-0.011237656
31	0x3d4349f9	0.047677968
32	0x3e147b37	0.14500128
33	0xbe2aedea	-0.1669232
34	0x3e08c097	0.13354717
35	0x3dd2e6cb	0.102979265
36	0x3dce5237	0.10074275
37	0x3e2598fc	0.1617164
38	0xbdd7de24	-0.10540417
39	0x3da50a72	0.08058633
40	0x3e284517	0.16432606
41	0xbb0aedb4	-0.002119881
42	0xbd7bef57	-0.06150755
43	0x3d820f40	0.06350565
44	0x3dacb560	0.08433032
45	0x3c62fa96	0.01385369
46	0xbe2addbf	-0.16686152
47	0x3dcba9b0	0.09944475
48	0x3d9c3eff	0.07629203
49	0xbdb930b1	-0.0904249
50	0x3db2586a	0.0870827
51	0x3d97cb02	0.074117675
52	0xbdd35bd2	-0.10320248
53	0xbd05ca38	-0.032663554
54	0x3e20a164	0.15686566
55	0x3e1a9674	0.15096456
56	0xbd270582	-0.040776737
57	0xbca8e274	-0.020615794
58	0xbd701684	-0.058615223
59	0xbddcab83	-0.10774901
60	0x3e11da67	0.1424347
61	0xbd65596b	-0.05599348
62	0xbd12fb79	-0.035884354
63	0xbce1d0fc	-0.027565472
64	0x3e1d34c4	0.1535216
65	0xbda68213	-0.081302784
66	0xbcd3ef33	-0.025870895
67	0x3bb7a91f	0.0056048776
68	0xbdfb85f9	-0.12281413
69	0xbdcff469	-0.101540394
70	0x3cb9920a	0.022652645
71	0x3d1969ba	0.037454344
72	0xbe084b55	-0.13309987
73	0xbe271d57	-0.16319786
74	0xbd2e9fb6	-0.04263278
75	0x3d1956c4	0.03743626
76	0x3df429c9	0.119220324
77	0xbe02d5a2	-0.12776807
78	0x3e1e83da	0.15479985
79	0xbe0f9152	-0.14020279
80	0xbc3fdbb9	-0.011710101
81	0x3de1acb6	0.1101927
82	0x3d95fe19	0.07323856
83	0xbd867e52	-0.065670624
84	0x3cfe6e91	0.031058582
85	0xbe1268f3	-0.14297847
86	0xbe1e7fdd	-0.15478463
87	0xbca35b7d	-0.019941086
88	0xbd21451d	-0.039372552
89	0xbe169949	-0.14706911
90	0xbdeda1ee	-0.11603151
91	0x3d49bccd	0.04925232
92	0xbdc602a1	-0.0966847
93	0xbd332369	-0.04373494
94	0x3c2484b2	0.010041403
95	0xbe258e87	-0.16167651
96	0x3c2416d4	0.010015208
97	0xbdaa614c	-0.08319339
98	0xbdd1df1c	-0.10247633
99	0x3e20f9e8	0.15720332
100	0x3dca82a6	0.098882005
101	0xbe051b3d	-0.12998672
102	0x3be4160c	0.006960636
103	0x3cfb88fd	0.03070497
104	0xbe163324	-0.14667946
105	0x3e2ae67e	0.16689488
106	0xbdd8fe60	-0.10595393
107	0xbcd255df	-0.025675712
108	0xbd1ad7a7	-0.03780332
109	0x3dcdb35e	0.10043977
110	0x3df95881	0.12175084
111	0xbde6218a	-0.11236866
112	0xbdaaf501	-0.08347512
113	0xbd7375c3	-0.05943848
114	0x3c9aeb3b	0.018910995
115	0xbd51a293	-0.051180433
116	0xbdcfcbf4	-0.10146323
117	0x3e200052	0.15625122
118	0xbd264938	-0.04059717
119	0x3d593d87	0.053037193
120	0xbaef7535	-0.0018269183
121	0xbdb55c1a	-0.088554576
122	0xbd832ed2	-0.06405415
123	0x3e095f8f	0.13415359
124	0xbe2221b7	-0.15833174
125	0xbe0801f8	-0.13282001
126	0xbddd8beb	-0.10817703
127	0x3de5db43	0.112234615
128	0x3c38afe6	0.011272406
129	0xbda00942	-0.07814266
130	0x3dbd5a3c	0.092457265
131	0x3d97d2e3	0.0741327
132	0xbbe82826	-0.007084864
133	0x3e0cb5e8	0.13741267
134	0x3e1e9fa4	0.15490586
135	0xbc525d2a	-0.012839595
136	0xbe322d1f	-0.17400025
137	0xbe06a99b	-0.13150637
138	0x3e1b2b8a	0.15153328
139	0xbd62111c	-0.055192098
140	0x3dbe231f	0.092840426
141	0x3e062948	0.13101685
142	0x3e0d9b60	0.13828802
143	0x3c915017	0.017738385
144	0x3dc62c67	0.09676438
145	0xbc579061	-0.013156981
146	0x3e1ec751	0.1550572
147	0x3e03fedc	0.1289019
148	0x3d3cc391	0.046084944
149	0x3e01097d	0.12601276
150	0xbd0551f7	-0.03254887
151	0x3de2816e	0.11059843
152	0xbd32817b	-0.043580513
153	0x3ddf1912	0.10893454
154	0x3e1ad7e1	0.15121414
155	0xbd518e01	-0.051160816
156	0x3e216ff9	0.1576537
157	0x3e0b5cc2	0.13609603
158	0xbe04911f	-0.12945984
159	0xbc0196cc	-0.007909488
160	0x3e026fb7	0.12737928
161	0x3da8e175	0.082461275
162	0x3e28d295	0.1648658
163	0xbd79cc5f	-0.06098592
164	0xbe2634bb	-0.16231053
165	0x3d22d206	0.039751075
166	0x3e05ee2c	0.13079137
167	0xbddf9158	-0.10916394
168	0x3e05b3f2	0.13056925
169	0xbdab2d73	-0.08358278
170	0x3d3be846	0.04587581
171	0x3c9e804e	0.01934829
172	0xbdfe8a03	-0.124286674
173	0xbc91796a	-0.01775809
174	0xbe276c0d	-0.16349812
175	0xbc8b53b4	-0.017007686
176	0x3cc838c1	0.024441125
177	0x3d06612a	0.032807507
178	0xbdc1efd0	-0.09469569
179	0xbd4dbae7	-0.050227072
180	0x3da67e27	0.081295304
181	0x3e183953	0.14865617
182	0xbd8f89a7	-0.07008677
183	0xbd8afad1	-0.06786121
184	0xbbc37e03	-0.0059659495
185	0x3dc7679b	0.09736558
186	0x3a0a1170	0.00052668806
187	0x3da94225	0.08264569
188	0xbdd52b73	-0.10408678
189	0xbe0943b8	-0.13404739
190	0xbe183910	-0.14865518
191	0xbdfa9391	-0.12235177
192	0x3d914952	0.07094063
193	0x3e296eeb	0.16546218
194	0xbdd8b37a	-0.105811074
195	0x3df64b08	0.1202603
196	0x3e013402	0.12617496
197	0xbd98c5a5	-0.07459573
198	0xbd98cf06	-0.074613616
199	0x3e07467e	0.13210484
200	0xbceba68d	-0.028765941
201	0xbd8fe794	-0.07026592
202	0xbd8092c5	-0.06277994
203	0x3d98f9b5	0.07469503
204	0xbe30dc23	-0.17271475
205	0x3cf2f81e	0.029659327
206	0x3e0b46d9	0.13601245
207	0x3d3207f8	0.04346463
208	0x3dc5a131	0.096498854
209	0xbdc185b9	-0.09449334
210	0xbdc54e67	-0.09634095
211	0x3d64c2bd	0.05584978
212	0xbd5dcfe6	-0.054153346
213	0xbd7eed0d	-0.062237788
214	0xbdf51823	-0.11967494
215	0xbda0fd5a	-0.07860823
216	0x3ddf3062	0.108979
217	0x3def3211	0.11679471
218	0xbd3f1e1c	-0.046659574
219	0xbe24fe22	-0.16112569
220	0xbd9bb5f1	-0.07603062
221	0xbe1aed42	-0.15129569
222	0xbd23bf8b	-0.03997759
223	0xbe0a682d	-0.13516302
224	0xbd6e7027	-0.058212426
225	0x3d864e84	0.065579444
226	0x3dfe613b	0.12420889
227	0x3cabc320	0.020967066
228	0xbe16fc3f	-0.14744662
229	0xbe296c8f	-0.16545318
230	0x3d9aa9e4	0.07551935
231	0x3d354ff8	0.044265717
232	0xbdf35941	-0.11882258
233	0xbd61437f	-0.05499601
234	0xbd7263a0	-0.05917704
235	0x3adc0a3f	0.0016787722
236	0xbe2b8047	-0.16748153
237	0x3cb1cf56	0.02170531
238	0xbe1b4f7b	-0.15167038
239	0x3dca8ce4	0.09890154
240	0x3e18f1b9	0.1493596
241	0x3e02ca8e	0.12772581
242	0x3e306867	0.17227326
243	0x3cb9b784	0.022670515
244	0xbc0b37f3	-0.008497226
245	0x3c753bae	0.014967842
246	0xbdd82f9f	-0.10555958
247	0xbd5d4ecf	-0.054030236
248	0xbe2580b2	-0.16162375
249	0xbda1e395	-0.07904736
250	0x3df48720	0.119398355
251	0xbdd909aa	-0.105975464
252	0xbdef1d68	-0.11675531
253	0xbd990214	-0.074710995
254	0xbdd74f62	-0.10513188
255	0xbe25543f	-0.16145419

transformer_encoder.layers.0.self_attn.vlinear.bias f4 [32]
0	0xbd9e513a	-0.077303365
1	0xbdb5ca82	-0.08876516
2	0x3d946bcc	0.07247123
3	0x3d6a434b	0.05719308
4	0xbce398ef	-0.027782885
5	0xbdb4a0a7	-0.088197045
6	0x3ddc4c32	0.107567206
7	0xbbe599e6	-0.0070068715
8	0xbd072e07	-0.03300288
9	0x3d21c235	0.03949185
10	0xbce72d91	-0.02821997
11	0x3e1b24d4	0.15150768
12	0xbba5b548	-0.005057011
13	0x3d0f4d95	0.034986097
14	0x3d7b2aa8	0.061319977
15	0xbe078fda	-0.13238469
16	0x3e348de2	0.17632249
17	0xbe109997	-0.1412109
18	0xbdb71e05	-0.08941273
19	0xbdcbe3e2	-0.099555746
20	0xbd8cc190	-0.068728566
21	0xbe31aa9f	-0.17350243
22	0xbdf983f6	-0.12183373
23	0x3d963929	0.07335121
24	0xbd401144	-0.046891466
25	0xbd98e9eb	-0.07466491
26	0x3ddffcd9	0.10936899
27	0x3dc5f1a3	0.09665229
28	0xbd05a929	-0.032632027
29	0x3c6d5889	0.01448644
30	0x3dbac74a	0.091200426
31	0xbd2b6849	-0.0418475

transformer_encoder.layers.0.self_attn.out_proj.weight f4 [32, 32]
0	0x3e11e197	0.14246212
1	0x3d0319e5	0.032007117
2	0xbe16774b	-0.14693944
3	0x3cb62e6c	0.022238933
4	0xbe2caaa9	-0.16861977
5	0xbe1684eb	-0.14699142
6	0x3dbf503f	0.093414776
7	0xbe10ca52	-0.14139679
8	0xbe1cfb34	-0.15330201
9	0xbd03fa8e	-0.03222137
10	0x3d6e4fa6	0.058181427
11	0x3d589071	0.052872125
12	0x3e2cd4fe	0.16878125
13	0x3d8dd98c	0.069262594
14	0xbdccc121	-0.09997774
15	0x3c5302e4	0.012879107
16	0x3e0f158a	0.1397306
17	0x3e001fc8	0.12512124
18	0xbd895ae2	-0.06706788
19	0xbdc9c98b	-0.098528944
20	0x3d97d0be	0.07412861
21	0xbe23a6b5	-0.15981562
22	0xbd80f2ba	-0.062962964
23	0xbb217db4	-0.0024641575
24	0x3e07c338	0.13258064
25	0x3e1aa84d	0.15103264
26	0x3c58cd57	0.013232551
27	0xbd840976	-0.06447117
28	0x3cae3b1a	0.021268416
29	0x3da21ffc	0.07916257
30	0xbe05d59c	-0.13069767
31	0xbde0e601	-0.1098137
32	0xbd972991	-0.07380975
33	0xbe27f0b9	-0.16400422
34	0x3d207b20	0.03917992
35	0xbc677255	-0.01412638
36	0x3d49718a	0.049180545
37	0xbdcca6d2	-0.09992756
38	0x3de69b24	0.112600595
39	0xbe209060	-0.15680075
40	0x3d56740f	0.052356776
41	0xbd845bd9	-0.06462831
42	0x3d8e0300	0.06934166
43	0x3d92865e	0.07154535
44	0xbe0b41df	-0.13599347
45	0xbd1778c3	-0.0369804
46	0xbdb500d7	-0.08838051
47	0x3b3750e9	0.002797181
48	0x3d67bcd8	0.05657658
49	0x3d5dddd2	0.054166622
50	0x3e14a74f	0.14516948
51	0xbe05aab8	-0.13053405
52	0x3dcd8d8f	0.10036766
53	0xbcd74cb8	-0.0262817
54	0x3df2ebf7	0.11861413
55	0xbcb048cb	-0.021519085
56	0xbe190449	-0.14943041
57	0x3df9c6c0	0.12196112
58	0x3d076a7c	0.033060536
59	0x3daad86c	0.083420604
60	0x3c996d0a	0.018728752
61	0xbc4ed071	-0.0126229385
62	0x3e164e1c	0.14678234
63	0x3d942883	0.072342895
64	0xbd8b945c	-0.06815407
65	0x3e27f19f	0.16400765
66	0x3df52e82	0.11971761
67	0x3e2f7b62	0.1713691
68	0x3e103b86	0.14085206
69	0x3e206222	0.15662435
70	0x3bfce3b1	0.0077175726
71	0x3c6e88c5	0.014558976
72	0xbc125e35	-0.0089335935
73	0x3caa7597	0.020808024
74	0xbda7b78e	-0.08189307
75	0x3cebe713	0.028796708
76	0x3e102d13	0.14079694
77	0x3e20b832	0.15695265
78	0xbc847ec3	-0.016173726
79	0x3df1029d	0.117680766
80	0xbdc9695d	-0.098345496
81	0xbe2221bb	-0.1583318
82	0x3d979e1b	0.07403203
83	0x3d4b9bd8	0.04970917
84	0x3e183d16	0.14867052
85	0xbd4694b6	-0.048481666
86	0x3dc8f8fa	0.098131135
87	0xbdca98bc	-0.09892413
88	0x3d49fca4	0.049313203
89	0xbdd8ac98	-0.10579795
90	0xbe0cb62a	-0.13741365
91	0xbdf2259f	-0.11823582
92	0xbe05bdde	-0.1306071
93	0x3d8ce26c	0.06879124
94	0x3dd10b17	0.10207193
95	0xbc85ffd4	-0.01635734
96	0x3d24367e	0.04009103
97	0xbc8825bc	-0.016619556
98	0x3e320185	0.17383392
99	0xbe328b5f	-0.17435978
100	0x3e2a19ab	0.16611354
101	0x3e12131b	0.142651
102	0x3d8d8366	0.06909828
103	0x3df33be3	0.11876657
104	0x3e2a9a4d	0.16660424
105	0x3c39b516	0.011334678
106	0x3d347864	0.044060126
107	0x3db119be	0.08647488
108	0xbe1c232a	-0.15247789
109	0x3d9c2eb9	0.07626099
110	0xbc6f47c7	-0.014604515
111	0x3e06d031	0.13165356
112	0x3d8caaa6	0.06868486
113	0x3dcdb1b6	0.10043661
114	0xbd3ad7aa	-0.04561583
115	0x3d9c7177	0.07638829
116	0xbdaedb1b	-0.08537885
117	0x3b63040b	0.003463986
118	0xbdaad496	-0.08341329
119	0xbd14db6c	-0.03634207
120	0xbe26ef32	-0.16302183
121	0xbd81e848	-0.06343132
122	0x3e1e45a2	0.1545625
123	0x3e218932	0.15774992
124	0x3dd1eaf1	0.1024989
125	0x3e2d49b4	0.16922647
126	0x3db84ed6	0.08999412
127	0x3c74a8f4	0.01493286
128	0xbd38216b	-0.044953745
129	0x3d569bbe	0.05239462
130	0x3cc0ba33	0.023526287
131	0xbd4eaf85	-0.050460357
132	0x3d992e7f	0.074795716
133	0x3cac5ff8	0.021041855
134	0x3e18c827	0.14920102
135	0xbd9d83ab	-0.07691129
136	0xbc579445	-0.013157909
137	0xbc5d83c1	-0.013520182
138	0x3dba9327	0.09110098
139	0x3e15dfa0	0.14636087
140	0xbe03a2f5	-0.12855132
141	0x3c900bc0	0.017583728
142	0x3ca45a66	0.020062637
143	0x3c87eb93	0.016591823
144	0x3e11b73f	0.14230059
145	0xbcf1d42b	-0.029520115
146	0x3e070de1	0.13188888
147	0x3e0a7375	0.13520606
148	0xbe07a028	-0.13244689
149	0x3c1336ef	0.008985265
150	0xbd9a3dac	-0.07531294
151	0xbdbc02ec	-0.09180245
152	0xbd4c9618	-0.049947828
153	0xbe289a33	-0.16465072
154	0x3b66b737	0.003520442
155	0x3d82145d	0.0635154
156	0xbe2fe60e	-0.17177603
157	0x3e0600dc	0.13086265
158	0x3dfcd2d2	0.12344898
159	0x3dd61a58	0.104542434
160	0xbdcf557a	-0.10123725
161	0x3dfe77ae	0.12425171
162	0x3d09fa86	0.033686183
163	0x3e30c520	0.17262697
164	0xbda12a09	-0.07869346
165	0xbe1d41a6	-0.15357074
166	0x3db0b8a0	0.086289644
167	0x3db011c8	0.085971415
168	0x3d7c3c9d	0.061581243
169	0x3d7d65d8	0.061864704
170	0xbe156763	-0.1459022
171	0xbdec5cd7	-0.11541145
172	0x3df1d9c3	0.11809113
173	0x3dd4eaaf	0.10396325
174	0xbcc098b3	-0.023510313
175	0xbd605747	-0.054770734
176	0x3d765910	0.06014353
177	0x3d6b7f43	0.057494413
178	0xbda4fade	-0.080556616
179	0x3d86941c	0.06571218
180	0xbe13d0cb	-0.14435117
181	0xbcb18c8f	-0.021673469
182	0x3dba042f	0.09082829
183	0x3db8e984	0.090289146
184	0x3dea61f7	0.114444666
185	0x3d6f8cf0	0.058484018
186	0xbdc92a14	-0.09822479
187	0xbd90e686	-0.07075219
188	0x3d61706b	0.05503885
189	0x3c692ddd	0.014232126
190	0x3dccb699	0.09995765
191	0x3cbf73c8	0.023370638
192	0xbd3d5c3c	-0.04623054
193	0xbe27947a	-0.16365233
194	0x3e1fd732	0.15609434
195	0xbd25e349	-0.04049996
196	0x3d8517b8	0.064986646
197	0x3d8e938f	0.06961738
198	0xbd6698da	-0.056298114
199	0xbe10f96f	-0.14157651
200	0x3e150f34	0.14556581
201	0x3bbfe178	0.0058557354
202	0xbdd0b62b	-0.10190996
203	0xbe127a46	-0.14304456
204	0xbe2b068f	-0.1670172
205	0x3c9a43ea	0.018831212
206	0xbd283a02	-0.041070946
207	0xbe0d7e1a	-0.13817635
208	0xbe278ab9	-0.16361512
209	0xbdfef48d	-0.12448988
210	0x3c2797b4	0.01022904
211	0x3c4a9e9d	0.012366918
212	0xbd6bd92c	-0.057580158
213	0xbb1eb54b	-0.0024216946
214	0x3e033de4	0.12816578
215	0x3e19ed44	0.15031916
216	0xbe1a26fe	-0.15053937
217	0xbdd3a6d4	-0.10334554
218	0xbd440715	-0.047858316
219	0xbd938ea6	-0.072049424
220	0x3d59c6af	0.053167995
221	0x3befb58e	0.007315344
222	0x3db1bb5c	0.08678314
223	0xbca18461	-0.019716443
224	0x3e252297	0.16126476
225	0x3d20b992	0.039239474
226	0x3ded6872	0.11592187
227	0x3c2830b4	0.010265518
228	0x3dfc49a1	0.12318731
229	0x3e030e07	0.1279832
230	0xbca2c8da	-0.019871164
231	0xbe1fdc0f	-0.1561129
232	0x3d53b285	0.05168392
233	0xbdea26b6	-0.11433165
234	0x3cc2df7d	0.023788208
235	0x3da1dd93	0.0790359
236	0xba192096	-0.00058413425
237	0x3a60c2b1	0.0008573933
238	0xbdfa4059	-0.122193046
239	0x3c2a7526	0.010403907
240	0x3dbbb33e	0.09165047
241	0x3d906d4f	0.07052099
242	0x3e1b5812	0.15170315
243	0xbe2e1202	-0.16999057
244	0xbcf42b93	-0.029805934
245	0xbe1e0f88	-0.15435612
246	0xbddb8d3b	-0.10720297
247	0x3d2edf81	0.04269362
248	0x3d95b461	0.07309795
249	0x3ddbbd2c	0.10729441
250	0xbdcdd075	-0.10049526
251	0x3e01883b	0.12649624
252	0x3d979c5a	0.074028686
253	0x3e2cdb76	0.16880593
254	0xbdaaddae	-0.08343063
255	0x3c323e38	0.010879092

transformer_encoder.layers.0.self_attn.out_proj.bias f4 [32]
0	0x3e0a450b	0.135029
1	0x3e11d69d	0.14242025
2	0x3e2a0cbf	0.16606425
3	0x3dcfe149	0.101503916
4	0x3d653b2b	0.05596463
5	0x3de04b5e	0.10951875
6	0x3b8561a8	0.0040704794
7	0xbcbc5c16	-0.022993129
8	0x3c580606	0.01318503
9	0xbe231480	-0.15925789
10	0x3de490c9	0.11160428
11	0x3e2b329e	0.16718528
12	0xbe10ed2b	-0.14152972
13	0xbe1c0667	-0.15236817
14	0x3e303e32	0.17211226
15	0x3d3ae1a7	0.045625355
16	0x3d9171ab	0.071017586
17	0x3dd9dd06	0.1063786
18	0xbd9d8cdd	-0.07692883
19	0xbabb37b2	-0.0014283566
20	0xbda4a34c	-0.08038959
21	0xbc45d0c7	-0.012073702
22	0x3e2e346b	0.17012183
23	0x3de11372	0.10990037
24	0xbd8dda05	-0.069263496
25	0xbd9f7806	-0.077865645
26	0xbca4bc99	-0.020109462
27	0xbdddf2d9	-0.10837335
28	0xbe08c968	-0.1335808
29	0xbd571a67	-0.052515414
30	0x3da491e3	0.08035638
31	0x3afb8c37	0.0019191568
