experiments/fl_train_noise_0.5_max_grad_norm_100/20250426/model_round_5.pt (torch, 62777 bytes, 25 tensors)

embed.weight f8 [32, 8]
0	0x4042a48ed57e2a22	37.285608946422386
1	0xbf985d12280992f8	-0.02379253739708795
2	0xc0347de9bf21c80c	-20.491847940204067
3	0xc01c8c82412b8168	-7.137215631752362
4	0x4030364c7110f01e	16.212103907237285
5	0x40005c78d1032d0e	2.045152314099716
6	0xc010971f8f700c4a	-4.147581330503337
7	0x401ca6c77fb8ee64	7.162870402967744
8	0xc033e128d02f9071	-19.879529010403022
9	0xc01bf02c81730a88	-6.984544775625757
10	0xc017586eba1fc11a	-5.8363598901635445
11	0x401d64a3743b2806	7.348279777632348
12	0x4012831d11688e6e	4.628040573126425
13	0x4038dd2aeafe5f40	24.863936125853115
14	0xc0117e2ed53f9a50	-4.373225528723722
15	0xc039cba5ab4ab986	-25.79549665998777
16	0x3fe86a250a6f5204	0.7629571155362673
17	0xc03cabb2fb977052	-28.670699810478546
18	0x40314cf03fbc3181	17.300540908284805
19	0xc028c698a67dd874	-12.387883379804613
20	0x3fc0751f8add5d48	0.12857431679251818
21	0x401f688c30e931fc	7.852097286446675
22	0xbffbe18500037bca	-1.7425584793597744
23	0xbffc6d9ed6451e8a	-1.7767628068849342
24	0x4028da360d70d228	12.426193637868963
25	0xc006ae088af03cfa	-2.8349772314610364
26	0xbff0a6739149c3de	-1.0406375575369036
27	0x40340d88049be0e4	20.052856720024366
28	0x40068bd6e163a7b2	2.8182809456384
29	0x403f379df4df4aa7	31.217253975405267
30	0x402730bdd5e0c5d5	11.59519832962807
31	0x400533e28e34d9e2	2.65033446406163
32	0xc01732705a0230ba	-5.799256712325752
33	0xc02931fe0fc85211	-12.597641461566157
34	0xc008587222306843	-3.043186442472718
35	0xc01c86bce86e95e0	-7.131580001592255
36	0x402ab8b6e70b5c63	13.36077043546374
37	0x403bf74a34b8a57b	27.965976042823495
38	0xc013858748def3c0	-4.880398882491988
39	0xc02294a6c71f1770	-9.290334913773876
40	0xc0276104cae300b7	-11.68948968907385
41	0x403f4365b549d0d8	31.263270693322596
42	0xc02805bfef7049c4	-12.01122997518258
43	0xc024ac1aed73518f	-10.336142940833069
44	0xc023ee030da97b71	-9.964867045344109
45	0x4020d760c8280c1e	8.4206602620016
46	0x4036096b86277f4a	22.03679693664825
47	0x40408b93f9f5b785	33.09045338151831
48	0x40287233cdc5b151	12.223051481611636
49	0x401fee5b6513a9a8	7.982770518612973
50	0x3ffa87b3fc3f8fe1	1.6581306317757412
51	0xc02a536f68cb4d7e	-13.162959360902047
52	0xbff22042f7af62a9	-1.1328763652037799
53	0xc0287c45fd4cff3d	-12.242721477173854
54	0x3fcf368b7156ceb4	0.24385207208762483
55	0x4018fca2d8be7f34	6.246714960696227
56	0x4014e005668e9d28	5.218770601705991
57	0x402499d40139c8c4	10.300445593169918
58	0xbff8fa77ccdcbf8e	-1.5611494066651832
59	0xc02c9aadaee736ba	-14.302106347774828
60	0xc040ece53e7fdc9c	-33.85074597590685
61	0x40126da4bff470f2	4.607073783201701
62	0x4025d9ee7661fc52	10.925647448979507
63	0xc02a1ac08e9dbebb	-13.052250344043719
64	0x404214c82753e15c	36.162358203847106
65	0xc03022fbaca13fbc	-16.13665274559729
66	0xc000d69ecde5b5e9	-2.1047950826384647
67	0x4021a0d2276fd8ca	8.81410334816282
68	0x402da2dac100e6ae	14.818075209960934
69	0xbfe38e9068145613	-0.6111528427888423
70	0xc02cb75875fb3425	-14.358096777834428
71	0xbfff8888d280cee2	-1.970833608892399
72	0xc02158e2106a028b	-8.673599732342401
73	0xc021cba294c8e856	-8.897724771046494
74	0xc0231879071c0f47	-9.547798368621114
75	0x40211648a0038c85	8.543522835190979
76	0xc02901d410a04780	-12.50357105213675
77	0x40152df5d39720f0	5.294883066271936
78	0xc02a5d7a001617db	-13.182571413704798
79	0x400ae6876e53f773	3.362563001573045
80	0xbfeaa72f50ce87d3	-0.8329083040482551
81	0xbffbfe4d19644e7c	-1.7495852462642736
82	0xc024267bc60a17d4	-10.075163067562166
83	0x40205c8ee8573a09	8.180777798316756
84	0x4025c053341a81fb	10.875634792552765
85	0x40313e09ea49bcf1	17.242338793756918
86	0xc03502ac4d23b8ad	-21.010441609593432
87	0x4031f969d8330e2b	17.974271309342083
88	0xc02720a888aee8de	-11.563785811759256
89	0xc034084b7d8cce0d	-20.032401892543977
90	0xc00b5f9cb7a5556a	-3.4216856334048105
91	0xc004eab569f13b5d	-2.6146038319342737
92	0xc02461ed182992aa	-10.191262011599367
93	0xc039bc4671113318	-25.735449854563825
94	0x3ff0a4bce30ff60c	1.040219199144647
95	0x3fe765c7e29b9279	0.7311744142467226
96	0x403b6a58c2397aab	27.4154168501215
97	0xc04a001b8890885c	-52.000840254376016
98	0x400c73b4bcb5c6db	3.556497072503459
99	0x402001179a018b86	8.00213319081173
100	0xc02f5d803333d2a2	-15.682618713451408
101	0xc032548d01286cc5	-18.33027655827461
102	0x4037663b860a8cd2	23.39934575803347
103	0x4037dc2db9a153b9	23.860072709928975
104	0x401359b5eadfd9b0	4.837608022606602
105	0xc02027575dead89a	-8.076838431279885
106	0x404479435a4c415f	40.9473679420796
107	0x403117c0c01c1398	17.092784888128875
108	0x401dcffa99c87170	7.453104403361394
109	0x4022ee9fcf6f6903	9.466063005781058
110	0xc030faf48917c08c	-16.98029381589781
111	0x4033d8ee538a7bf1	19.847386571225744
112	0xc03204fea3f54b1a	-18.019510505090786
113	0x40156ff4ba92a2e0	5.3593320037841465
114	0xc02f4462122eecf4	-15.633560722568724
115	0x40254eb8385e8853	10.653749238528837
116	0x403732eb835b1ac1	23.198906144850074
117	0x4029b3712ea88f99	12.850472887111936
118	0x4035641729b7665d	21.39097843863998
119	0xc02d46aab7e9b369	-14.638021228101666
120	0xc0203196590af119	-8.096850187860172
121	0x3fdb010345cf41f8	0.42193681542724404
122	0x402deb707075cde5	14.95984221876183
123	0x40353ad84e1c9b31	21.229863054260196
124	0x401797ba20bdabd4	5.898170959068882
125	0xc021f900738dbbcc	-8.986331568767035
126	0xc022f70808dd18c0	-9.48248317431387
127	0x401d16e30eda1cb0	7.2723505325913465
128	0xc02bcf0858ca38c8	-13.904360556302336
129	0xc0314c26fcabb78f	-17.297469894335844
130	0x4013228f42e865f0	4.783749623712978
131	0xc01ffcdd6585a5e8	-7.996938310892325
132	0xc0383b8833b908ba	-24.23254702823099
133	0x4035415f97abbc67	21.25536487524769
134	0x402cb3a2ccf684ae	14.350851445286334
135	0x4001ddf93fd2e305	2.2333855615837614
136	0x401139ac10cf04fc	4.306320440898386
137	0xc03210642cb2f9b8	-18.064028543181593
138	0x400feff6c1b9046d	3.992169869860439
139	0xc02f1e710a5c87ba	-15.559456180377186
140	0x4035d8a7214eff24	21.846300203119554
141	0x402c99fd30c95b75	14.30075981576895
142	0xbfe209f5cd50c767	-0.5637158403462593
143	0xc030c92393f5e8a6	-16.78569912675507
144	0xc022f04fbe61eb58	-9.46935839600853
145	0x4002821dc1dd2948	2.3135333200090464
146	0x403c2373569093a3	28.138478670403526
147	0xbff2b87c72b8312f	-1.1700405579786766
148	0xbfe8b4650b94aea9	-0.772020838373881
149	0x400ff5868aeff7de	3.994885526130914
150	0x403d29524ce6d323	29.161412054399204
151	0x4038b123d82aaaed	24.691953192154802
152	0x400f64661146ff6f	3.9240228032867246
153	0x4045f540a1ae21f5	43.91603489878245
154	0x4031db1c4d9548f5	17.855900620409518
155	0x403dc2bd51aa4a75	29.760701278757967
156	0xc016ad641e706a5c	-5.66932723580484
157	0x403b0f1bdf1f66d9	27.05901903645176
158	0x400159fa5c2d17a3	2.1689345551739776
159	0xbfe2e9028c56f7ef	-0.5909435978899163
160	0x402db8b9fefd3e8d	14.860794037259689
161	0xbfd0ebbdf963a786	-0.2643885550920618
162	0x40222a526f3d6139	9.082660175554894
163	0xc02bef1b9b14b382	-13.967007490422251
164	0x4020335311ffa997	8.100243151148602
165	0xc0327f4657f7c1ed	-18.497167108524014
166	0x40304878006d3994	16.283081080118407
167	0x403538829a1c220e	21.22074282824365
168	0x401da21f1cd7e606	7.408321810414696
169	0x402e9c359bb19a5f	15.305096497945838
170	0x4026c653ee628f83	11.387359094172785
171	0x401c340d8441a638	7.050832811839022
172	0xc028afaac1b6fd21	-12.343099645221232
173	0x4035b95a31e34c34	21.72403251456508
174	0xc0479bf4ebfed0d3	-47.21841192190336
175	0x3fe216e8015df7eb	0.5652961756420586
176	0xbfd2ebbc983951c5	-0.29563822618117924
177	0xc035781ca822ffe1	-21.469187267823035
178	0x4030db703a32e8bf	16.85718120329761
179	0xc0299d21e7ad205b	-12.806899299510567
180	0x4042bfff70dcd86f	37.49998293670148
181	0x3fea52cdbf8bedcf	0.8226078740257722
182	0x3ff15cceea2109c3	1.0851582666078776
183	0x402f2744b682010a	15.576696112985264
184	0xc02b237d72ce7060	-13.569316470813817
185	0xc03020e891d77cf9	-16.128548731908243
186	0xc0301d8e69e4e798	-16.115454309830596
187	0xc01d80d87a492426	-7.375825796808419
188	0x403bb6db3044576c	27.71428205173963
189	0x400f167c20ab7816	3.885978942139455
190	0x40377d91e6e708fd	23.490507537274414
191	0x401eb5f13dde7924	7.677678076461493
192	0x402a2830b1478fde	13.078496494279474
193	0xc0312f7ab81e51f1	-17.18546629657971
194	0x4033aa9065979f8f	19.666265820996667
195	0xbffae3a12cb7ef38	-1.680573630029313
196	0x40311b60a4c165d2	17.106943413940662
197	0xbff3f332ed56e10e	-1.2468747397488786
198	0x403869cca01d1b12	24.413278586488623
199	0xc0319295a34f1adc	-17.57259579354546
200	0xc039dc7db697fbbc	-25.86129323206454
201	0xbfd1a193f3fa45ee	-0.275486934909252
202	0xc0107356c332f898	-4.112635660158183
203	0x4017628843f7510a	5.846222936601643
204	0xc033a26c7d2210b3	-19.634467907730777
205	0xc010563c4b1d0d18	-4.084214376114026
206	0x4022b4f0c009a631	9.353399277856711
207	0x401a18f66966de7e	6.524377486137039
208	0x40285c733d6249ff	12.18056670975511
209	0x3fcc8c0c5abbb820	0.22302393369994977
210	0xc030fac4393f1ef4	-16.979556634817484
211	0xc018f37c7d051148	-6.237779572901054
212	0x402bd452ccf59475	13.914694218614594
213	0xc01138791177a182	-4.305149338652315
214	0x4022af7b1f6b0c3c	9.34273622686134
215	0x4037cabe754e3906	23.791968661877966
216	0xc03568c6a170d244	-21.40928086285045
217	0xc030f849848ba4de	-16.969871791928078
218	0xc0252c341d8ffd46	-10.58633510954554
219	0xc0171d72f220f6f8	-5.7787587959880895
220	0xc03ce1560c6b6caf	-28.88021924612684
221	0x402ca31eaff486aa	14.318593500708932
222	0xc039f43e51ab2825	-25.954075912748653
223	0x40074c3a95d071f6	2.9122211174237647
224	0xc0139a85138d810a	-4.900898271095011
225	0xc023b61710327e0a	-9.855644708789459
226	0xc037b10448e14ac9	-23.691471629145585
227	0x402165402f6fc682	8.697755319971524
228	0xc03d88c7e3070c7a	-29.534300030918963
229	0x4034458c6dbe542f	20.271674021689417
230	0x4021714673458708	8.721240617978324
231	0x3fd9faf7c4a17d80	0.40594286157826076
232	0xc020aea1a1675029	-8.341076892720666
233	0xc019e79f95997ef6	-6.476194703572892
234	0x4025933f5ea9d7ff	10.787592848046186
235	0x4026210a3b20bd2c	11.064531181093649
236	0xc027fc783f8297f4	-11.993104920093153
237	0x4026e03341147e58	11.43789103865781
238	0x40368e534d507acc	22.55595858778797
239	0x4009772444615d58	3.1831746427739454
240	0xc03608987d5ff623	-22.033576808860868
241	0x4019e519d43fa36e	6.473731342682056
242	0xc03004edf2f4fcb1	-16.019255814372347
243	0xc02774657db8b16a	-11.727336815639053
244	0x4015e3065b617c18	5.471703937363621
245	0xbfce049434b2792c	-0.23451473782638155
246	0xc022232467662815	-9.068637114734921
247	0xc02c188922de5105	-14.047921266210787
248	0x3fda2fda98ddd6c7	0.40917076996207097
249	0x401be3bac3058340	6.97239212723872
250	0x402cd6f696840afa	14.41985006677486
251	0xc04a36332f3698f3	-52.423437024744906
252	0xbfe20a96d65cb0d1	-0.5637926279792059
253	0x4029c9581aa1a256	12.89325030539582
254	0xc0206a47823b8f32	-8.20757681824725
255	0x403f7ee3d404cfb5	31.49566388242211

embed.bias f8 [32]
0	0x403d7a7285d6af62	29.478309979356148
1	0x4006117199c0b053	2.7585174571923203
2	0x40316ab3e73de912	17.416807606329776
3	0xc009c92b297144f5	-3.2232268560115878
4	0x403933852c4ac110	25.20125080895474
5	0x403f36fcefdbac80	31.21479701150065
6	0xc0030c080d6181cd	-2.3808747334844385
7	0x400f1f010f5271db	3.8901387402567997
8	0x4032ac6897b77ef5	18.673470957087336
9	0x400c2dce8887a31c	3.522366587294881
10	0xc01aca7f72942f50	-6.697751798910602
11	0x403dc81060851601	29.781499893657386
12	0xc02022f6b0178600	-8.068288329001916
13	0xc046cb1b6c85b3e8	-45.586774411472845
14	0xc029f0641ef7251a	-12.969513862294253
15	0x40391bb47ca4206e	25.108222761220922
16	0xc01cf68deb02dd7e	-7.2407757492541105
17	0x4039c40a1c300d37	25.76577926800857
18	0x4017921f5b838b12	5.8926977442777275
19	0xc01ff98b62fac4de	-7.9936957803303965
20	0xbff871241cdf1008	-1.5276223304545073
21	0x4032741ac50d6f01	18.4535334737584
22	0x3ff80a08681a33e7	1.5024494234560224
23	0x40229ca6361ac094	9.30595559193197
24	0xc03551297eaec851	-21.317039411231523
25	0xc032674835d035bf	-18.40344559033633
26	0xc00d24049df2efd6	-3.642586931206078
27	0x40222cb6671a2f7a	9.087329122492282
28	0x401fa76ac290f33c	7.913493194672636
29	0x40435294fc0769c8	38.64517164575551
30	0x402d2927ac5a9022	14.580380807929092
31	0x40269c3828a545fc	11.305115957426999

pos_enc.pe f8 [1, 12, 32]
0	0x40275a3ea858a44d	11.676259289570362
1	0xc031faef0d70aa91	-17.98021015167848
2	0xc0253fbcbeb2cc00	-10.624486884427824
3	0xc0230bb3ac1d0df1	-9.522855166002929
4	0xc01db1305a60a2c2	-7.4230360146982
5	0x4036b90459a8a019	22.72272262923079
6	0xc0170767997de2d4	-5.757231138523554
7	0xc02353b20106fc5f	-9.663467437842142
8	0x402830d6efad5828	12.095389833364678
9	0xc0250b56b7ded154	-10.522145982694077
10	0xc02f0b4e08d27d91	-15.522079730696335
11	0x3ff91b6bed320917	1.5691947236487687
12	0xc0344d0f9c117e59	-20.301019434233556
13	0xc02b28249b826e43	-13.578404292747228
14	0xbff3e2aa49f5d317	-1.2428381814071991
15	0xc0054e4c0d19d605	-2.6632309936055685
16	0x403909c007391321	25.038086368021258
17	0x402c0ff4b1e56ab0	14.031163748984312
18	0xc0355d0be5a436cb	-21.3634627843774
19	0x4020ee1d1636475b	8.465065664411375
20	0xc046545e12137a3b	-44.65912080718086
21	0x401192e9e2627584	4.393470322856391
22	0x403ff0ab5327c49a	31.940114209374407
23	0xc025ce2388d337cb	-10.902614856513443
24	0xc023d827c1bacc8b	-9.922178319981205
25	0x402111b155896b8a	8.534556077027236
26	0x3fd579fa5fb80ea2	0.335569947696266
27	0x3fe6df262303a3dd	0.7147398647185771
28	0x402bf869344cc242	13.985177645082448
29	0xc01bd671ffc42562	-6.9594192470043215
30	0xbff61bb5e3ea6224	-1.381765260977894
31	0xc0147e716a6334be	-5.123479521088653
32	0xc01ff6e299558b26	-7.991098781438984
33	0xc0309e1c8508fd57	-16.61762267560456
34	0x40016256eecc9bb7	2.173017373675488
35	0x40276ad4adb6579c	11.708653858669827
36	0x4011d8e83708f8b8	4.461823329851704
37	0x402bda29d9bbccb1	13.926100544142487
38	0xc01f5db84c176c64	-7.841523350648547
39	0x400e429fcbca4e7f	3.782531349288376
40	0x403d550cc735c154	29.332226229308915
41	0x402075f17f81a335	8.230358109068769
42	0x401223d4c45e18e0	4.5349913294250825
43	0xc024dcd99b1c068d	-10.43134770123586
44	0xc01131b152c0f808	-4.2985279970435
45	0xc0328cfbc651d8d4	-18.55071677683084
46	0xc02161f306ab3265	-8.691307266614965
47	0xc002f2ea7fa798ad	-2.368611333181511
48	0x4042bfaa3d749955	37.49738281434353
49	0x4036fe53bd1c763d	22.993465251396845
50	0xc038e8c213af5791	-24.90921137839138
51	0xc00d159ef7560caf	-3.635557110131763
52	0x40292bb0135a22ad	12.585327725174773
53	0xc032e9c787b0f707	-18.913200836853346
54	0xbfffdd99cb3ff0b2	-1.9916017474597933
55	0x4041b99f3672ab4e	35.4501712856205
56	0x4036e68cc39b9e46	22.90058538960718
57	0x401eb0bd6793e100	7.672597521210491
58	0x4027282b8311e083	11.578456970150233
59	0xc0219856b8d8656b	-8.797536636748836
60	0x40194f19a3575f26	6.327246238906616
61	0xc011727a550a0500	-4.361794785248321
62	0xc011679d17e737b6	-4.3511852011560475
63	0xc0167e2d67af091c	-5.623220081384968
64	0x40263749085672ed	11.10797906928334
65	0xc03760e83848083c	-23.378543393693903
66	0xc026c960bd5d8732	-11.393316190402036
67	0x40081c8112e02c44	3.013918063608374
68	0x403b7730a0395641	27.465585721967958
69	0xc02fe6508a23f879	-15.949833218470518
70	0xc01ff265045050a8	-7.986713473703425
71	0x4025874f94e14ebb	10.764279034140932
72	0x4026e60d69bc6a7a	11.449321083307257
73	0xc018500510fcf644	-6.078144326629232
74	0x402001d3e103123c	8.003569633126169
75	0xbff27a4c49285f51	-1.1548579080317334
76	0x3ffd4c2acf6f7820	1.8310955145784718
77	0x4036ad133f91286c	22.676074955882015
78	0xc004eac6ee39fe6e	-2.6146372424553226
79	0x4042b95677f84f14	37.44795131325205
80	0x40334acc184add75	19.292176740911106
81	0x40302ced8266b606	16.17549910552591
82	0xc0182b1ea5adde3e	-6.042109097230023
83	0xc03534a80b6c83be	-21.20568915747912
84	0xc0259e10330a3292	-10.808717341418092
85	0x4038a16b31275dfa	24.630541870223148
86	0xc02a937f20dad3f5	-13.288079287254712
87	0x40392fc3456550a2	25.186573350176907
88	0x4034a7068e40137c	20.652443781512815
89	0xc000358082da7c38	-2.0261240218092347
90	0xc03632db0d8a4b65	-22.19865498186427
91	0x4028f42e5526d466	12.47691598986621
92	0xc0440c67e4ecc766	-40.09692060052366
93	0xc034bb9a35502b22	-20.73282178122748
94	0x4023c6c56afee22d	9.888224929441174
95	0xc03d8222e074fc00	-29.508344677506102
96	0xc0419b9a3cf4b3ad	-35.215644473536805
97	0x40351adbaa2cde0a	21.10491431804079
98	0x40379b2cbc4f5db3	23.606151360870808
99	0xc02d2fded49302c0	-14.593496935792587
100	0x400724ce0d6e6a88	2.8929711388894397
101	0x402657b9781c154a	11.171336892536278
102	0xc0157ef9180826ac	-5.3739970927214635
103	0xc032194db2d3fcdc	-18.098841835741823
104	0x402f6e341d319642	15.715241348555654
105	0xc0127784966de8d2	-4.616716719110814
106	0xc03232fdce832b4a	-18.19918528272982
107	0xc0357b0687a24782	-21.48056838714502
108	0x40377cd7312c3f74	23.48765857057829
109	0xbfdb8be22f4668d4	-0.4304128133459362
110	0xc02fe693c4790a3c	-15.95034612634219
111	0x400497a03d77e22e	2.574036102505736
112	0x402a43e2fa3e17fe	13.13259107597332
113	0xc010609a0ea21a4c	-4.094337681430783
114	0x40220c1cc2fb7103	9.023656933969056
115	0x400161b215b8db21	2.17270295114885
116	0xc036d90f85d15854	-22.84789310799563
117	0x40360f2c914274fb	22.059273794865458
118	0xc0266b614215fa80	-11.209726395781445
119	0xc03f3489393acf43	-31.205218865258995
120	0xc003313b69b5df20	-2.3990391024234583
121	0xbfe41eb4db222f8a	-0.6287483482314979
122	0x4002fde7f6cee17f	2.3739775926480315
123	0x404389dc85dd86a3	39.07704232517906
124	0xc0347cfc7ebf6c02	-20.488227769597877
125	0x4039f5b3aa766c4b	25.959772733604307
126	0x400c683d92ccf198	3.550898692016016
127	0x403bbd12ae56172d	27.73856629945583
128	0x4014f6ad089b9128	5.240894445891435
129	0x402d70a4f7a152ab	14.720008600657215
130	0x404ad3b4ba8a4515	53.653952901377274
131	0x401eaaffbf9cbdd8	7.666991228048083
132	0xbff2eb2dcdb02967	-1.18241672846724
133	0xbfdeff0784879634	-0.4843157572016452
134	0x40383cfe74396972	24.238257659927918
135	0x400b1e7d6a8c9e9c	3.389887649933213
136	0xc0415e317ee2900f	-34.7358854872001
137	0xc03db1476784d07a	-29.692495794225103
138	0x4028e0119785b581	12.437634215423488
139	0xc0024ec7dde3d781	-2.288467153087311
140	0x3fd41e8c40d968b5	0.31436449368414837
141	0x4028ef95ba4f05de	12.467939207216599
142	0xc034cb81af06a66e	-20.79494756615025
143	0xc034d1cfa39af72a	-20.81957457097375
144	0x402ce26701aa0cd1	14.442192127235474
145	0xc044c6c481e94e8d	-41.552871931952815
146	0x40199a53281f8b66	6.400707842755628
147	0xc02992c4b5435976	-12.786657013388986
148	0xc01cede62f1a15f6	-7.232323394744062
149	0xc0304c094ab05331	-16.29701678089913
150	0x4045c383f881a053	43.52746492700012
151	0xc023942d2f9a7a0d	-9.78940724144652
152	0xc0242c0552de7b9c	-10.085978116663505
153	0x402b0621d2aca1d4	13.511976798604259
154	0x40438d83a54c7106	39.105580007863
155	0x40241d4de56beaab	10.057234925673887
156	0xc0305ad8a35f8dde	-16.354868136242537
157	0x4013e9ae7b8f6b86	4.978204661015189
158	0x402a649f9c3bd410	13.1965302298577
159	0x3f8838be7bad4700	0.011826980733221415
160	0xbff47de9887128cd	-1.280740292526889
161	0x402ad2018216fbc2	13.410167756372065
162	0x4011e8dc7676b9f6	4.477403498646245
163	0xc01af6e1b2da598e	-6.741095347001091
164	0x40078ff128bca230	2.9452841932836904
165	0xc01abfba939b76d4	-6.687235170711308
166	0x401ddc85ded63d76	7.465354425264527
167	0x403ead8c83cb2e63	30.677925335984025
168	0x4006d537498667fd	2.8541093582289236
169	0x4025bf7c71ec91fe	10.87399631512471
170	0x402bbdecc203d3ea	13.870946944205532
171	0xc02dfcff69901b70	-14.994136141625603
172	0x3fe080c92d2a2a33	0.5157209283946201
173	0xc026b9b9d0d79d7b	-11.362745786972246
174	0x40305d60765c679d	16.36475314861274
175	0x401d8a3b1b52db10	7.384991099292861
176	0xbfd98470211d0c58	-0.39870837434518114
177	0x4031c70ba91513c4	17.777521674772075
178	0x4040486b2eea743e	32.56577097366288
179	0x400cf2747597d481	3.6183861910781734
180	0xc022751ffb005338	-9.228759616651232
181	0x403224acbefea3be	18.143260895889163
182	0xc038ec11eae2a509	-24.922148399670764
183	0x402617de9623ad45	11.046620075087626
184	0x40401438d6385a54	32.1579845214043
185	0xc03cae01d2cc9a56	-28.679715323402284
186	0x3ff162af16da8be2	1.0865927593920266
187	0xc040f20f9f48a563	-33.89110175177736
188	0xc00455530592777b	-2.541662257702169
189	0xc02562efcca7cc22	-10.693235774500923
190	0xc03b0f789f6dae85	-27.060434307363284
191	0x404066ae6e9f136a	32.80219824569106
192	0xc010b7ded303a8c6	-4.179560944650978
193	0xc02114682a167d9e	-8.539857211347051
194	0x4012fd60900b0722	4.747438669846618
195	0x4022446f22abf82b	9.133660396091804
196	0x402cbdfb48893afe	14.371057764770281
197	0xc02c14b2bfd6332f	-14.040426249406293
198	0x40398210312fd730	25.508059572391346
199	0xc032ba6151930deb	-18.728047464754052
200	0x40308d018242f924	16.550804272986298
201	0xc022e72e3ea7b3dc	-9.451524694415575
202	0xc02f698b85f7e49c	-15.706142603407265
203	0xc0306771abc62153	-16.404078231689095
204	0x3ff1bc4996408c94	1.108468615457956
205	0xc006933786e26a45	-2.821883252892152
206	0xc028e5c04ff736b7	-12.448732851912935
207	0xc008520a8b08881a	-3.0400591718653347
208	0xc038c1f52d2e09c2	-24.75764734624841
209	0xc03c1df549b6eb5a	-28.11702404704861
210	0x4032d51efc5f2b03	18.83250405620039
211	0xc04058c3ed1b1708	-32.69347919295075
212	0xc02bad24eef04fe2	-13.838172404131857
213	0x403238b6e1a2d69f	18.22154054856821
214	0xc02c8ec0fb0a11a9	-14.278816075305103
215	0xc02e7287cd89231d	-15.223692343702675
216	0xc0336ae0af0a6993	-19.41749090198716
217	0x402fff9cc93e0c55	15.999243058037033
218	0x401244c22691346a	4.567146875965685
219	0xc03b62e5f2c6df41	-27.386321233322864
220	0x402db31ac93a3117	14.849813736299025
221	0xc0187cbc458b73f2	-6.121811949383288
222	0x40128711ae724bd8	4.631903386808482
223	0x403c116a462367ee	28.068027862209355
224	0xc0217d06f4963af8	-8.744193690622964
225	0x4045a3a3590b1058	43.27842248001315
226	0xc02d754f41c3a784	-14.729120307096089
227	0xc030942002b0a06d	-16.57861344158339
228	0x3ff4a61d5eac72e2	1.2905553529919236
229	0xc00a24662b2ddf60	-3.2677729962705797
230	0x4023d3aa7f273968	9.913410161531559
231	0x40305d696499cecd	16.364889419127213
232	0xc03f5876b1c48c9b	-31.345561132894186
233	0xc026d15c28028527	-11.408906221683152
234	0xc0065ef678af6f71	-2.7963685444391833
235	0x40305ba046859329	16.35791435967545
236	0x4043244b98e1209c	38.28355704300449
237	0xc00f417b2f488963	-3.906973237420219
238	0x401abc4c61bf774c	6.6838851235496115
239	0xbffa20cbfba6aeb4	-1.633007033359644
240	0xc021e713a1f92e45	-8.951321660678454
241	0x402b5fdfbe51b27e	13.687253901932532
242	0xc024d193493650f8	-10.409326827888876
243	0xbfe4669f1685bbf9	-0.6375270309343924
244	0x400476a325150bd9	2.557928361611158
245	0xc03634e65b250469	-22.206639954125794
246	0xc034c8c7441f42e4	-20.78429055941787
247	0xc03a54eab9b6e9a6	-26.331706626087588
248	0xc022f9866c76b1cd	-9.487353696335868
249	0xc02a6d4e2cab91b2	-13.213487049048897
250	0xbfd6ae8771117a8e	-0.3544024089987169
251	0x4012307770987af8	4.547330626780187
252	0xc02894980805aeb7	-12.290222407048857
253	0x4040a2864a1907a1	33.269723188611586
254	0xc02618bf2cb40626	-11.048333546615208
255	0xc026676c6b82990f	-11.201999053661465

transformer_encoder.layers.0.self_attn.qlinear.weight f8 [32, 32]
0	0x400595a32bae9084	2.69806512953261
1	0xc03894e14a15dea0	-24.581562643374696
2	0x40221d09d6c982bd	9.056715690706705
3	0x40216c0d4d010e0c	8.711038977030533
4	0x4045f06caa359f8b	43.87831618898698
5	0x402d379081e6ad8f	14.608524379166537
6	0x402d2ba05bf10e37	14.585207818198894
7	0x40395232ca777227	25.321087507402037
8	0xc0349bef991466bb	-20.609124724846634
9	0x4045784d8e6aac1a	42.93986683090789
10	0x403e8a5a03b46266	30.540436011828568
11	0xc02769bb94322aac	-11.706509238361228
12	0xc032b421e78b7a3a	-18.70364234118663
13	0xc037e9734d5c19ca	-23.91191562174371
14	0x4039036665156200	25.01328117153207
15	0x40318b1aa26c98d2	17.543375159752777
16	0xc01cffb9082f6d78	-7.2497292784640806
17	0x403513290980031f	21.074844926598526
18	0x4015f87882b88ea6	5.492647211565474
19	0xc03964fdf298674b	-25.39449993344105
20	0x403974d23b692f77	25.456332886867553
21	0x4024066e54a5a20f	10.012560506075742
22	0xc0312c8d514e5b63	-17.174031335477945
23	0xbfdc82b08b3cca83	-0.44547666165741634
24	0x402611db5f6280fb	11.034876805090326
25	0xc0266972fbc953a7	-11.205955379797002
26	0x402fc6f9cd14550b	15.88862458108135
27	0xc00fd22d04006735	-3.9776249230025322
28	0x4011671c7333d3b4	4.350694465673701
29	0xc02c9cc323175ff4	-14.306176277736064
30	0xc037fd088a37a1a3	-23.988411558706172
31	0xc02dba911a2ea252	-14.864388292496333
32	0x40322d37f5ca0a49	18.176635133577552
33	0x3ffc123c3166b311	1.754451935742683
34	0xc02907a5d1d7beae	-12.51493697889904
35	0xc03d093509808e14	-29.035965532193657
36	0xc01f12ed2bfd4f5c	-7.768482863746467
37	0xc01617e7ad515738	-5.523344715203898
38	0xbffe8ea4da75efbc	-1.909825185167377
39	0x401f3719bf9d695e	7.803809160215989
40	0x40431d096c22a1ac	38.22685004893296
41	0x4033f3661eaf661e	19.950776975461956
42	0x401b4246d9675534	6.814723393375335
43	0x402b26732736e00f	13.575097299049984
44	0x400a5c132e24cc99	3.294958458421729
45	0xc00302f6a230e3bb	-2.3764469786806024
46	0x402d50dd79993be3	14.657939720111193
47	0x402704bf8c82546a	11.509273901852982
48	0xc0204e2ea247d19a	-8.152699538485468
49	0xc023d51c551c6ab0	-9.916231784552423
50	0xc00ef915615d7e8a	-3.871622810998649
51	0x400efde0e6939bd3	3.8739641202732655
52	0xc024ec4a77f4bb31	-10.46150565016214
53	0x40107775831cada4	4.11665921080149
54	0x40315ae2fdf3e9db	17.35502612309379
55	0x404445a6d142cf45	40.54415336382093
56	0xc034c01fb160a02d	-20.750483594980484
57	0xc01e31be2dbbb2cc	-7.548577036458209
58	0xc034a97ed401f432	-20.662091494061492
59	0x401081d4a36e7684	4.126787713639377
60	0xc0331edd249b69ff	-19.120561874335177
61	0xc03b7f72b9fd9287	-27.497844337851827
62	0xc01012debe6fe240	-4.018427825526089
63	0x40191671508ee864	6.2719166362022385
64	0xc02da37a6eeb2d37	-14.819293466766437
65	0xc0221053e443db64	-9.031890042575192
66	0xbfe1925f1a7db540	-0.5491176144984493
67	0xc025eab345754961	-10.9583989816353
68	0xc028ef3e5fe432b9	-12.467272755247324
69	0x4037b42f50a1e499	23.70384696915116
70	0x4032ca73870ffdb6	18.79082531109244
71	0xc02f61d4040e4237	-15.69107067750984
72	0xc0279640622994b9	-11.793459956718253
73	0xc038a2977f7e3528	-24.63512417632333
74	0xbfe3b399891f911e	-0.6156737974347697
75	0x403221cc69196e46	18.13202530737751
76	0x4030bed67cca1368	16.745460318884767
77	0x40166f96f9b4d3d4	5.608974363004524
78	0x4040dea74305e9d2	33.7394794253229
79	0x400a8703689b6554	3.315924470178894
80	0xbff086141c41112f	-1.0327340224913077
81	0x403c2c30083fc12a	28.17260791355617
82	0x3fe7607edb18bb34	0.7305292395811649
83	0x40431f1dd9fcd1e8	38.24309849590992
84	0x3fa617c88c433714	0.043150202867407256
85	0x402952f02eee0255	12.661988703302237
86	0xc039907456639a3f	-25.56427516872122
87	0xc035dffd2cc23897	-21.874956891457796
88	0x4029c60535938268	12.886758493668097
89	0xc022193aead1f938	-9.049277628070385
90	0xc032e9c2394be29b	-18.913119870211272
91	0x402a32cc4f4bb4ff	13.0992150096813
92	0xc00eded8794636fb	-3.8588113283684584
93	0xc027aab03aefd4bb	-11.833375779892199
94	0xc02366e4dfdd0fe8	-9.700964923606037
95	0xbfd565bf4e6b8356	-0.33433516176414935
96	0xbfd66ed29d4644f1	-0.3505140815623938
97	0x40398be7010d24ab	25.54649359293823
98	0x401bd353d43fe1d0	6.956374470137646
99	0x4014eac338869ac0	5.229260333266836
100	0x403b6d314f366df0	27.426533652103842
101	0x4026d7d4159a9133	11.421539950483384
102	0x402ef5dc9f5fc314	15.480198841514301
103	0xc02eca4771e41a0d	-15.395076331228688
104	0xc022ec67a1751e4c	-9.461728139444993
105	0x4014e721d63b0880	5.225715014794446
106	0x40215665c12037a4	8.66874507444647
107	0xc02687b8d1d3e7bc	-11.265081936948143
108	0x4021313d5ce4bb3b	8.596171286507902
109	0xc032b0b56e5e11fb	-18.69026841923367
110	0x401eed5223787e9c	7.73175864623013
111	0xc038fc860c166e37	-24.986420398212626
112	0xc02b9fa47382541e	-13.811801538142443
113	0xc03584f6c54c0834	-21.519390421926985
114	0x400de014e55c8d78	3.7344148558492485
115	0xc006ecc978203c5e	-2.8656186470830525
116	0xc02178aebd376e8e	-8.735708153740486
117	0xc029e2180dd492a3	-12.941589767645672
118	0xc019056f35616126	-6.25530703932626
119	0x4020a13a712b70e5	8.31489900260244
120	0x402bb1f2b047ae0b	13.847554692029936
121	0x400c1d3a3525832d	3.5142711784432294
122	0xc03978dc2092be7b	-25.472108875108898
123	0x4015eebd3c5d92d2	5.48314375229957
124	0x400725fe03658529	2.8935508981091016
125	0xc041e56519afca7a	-35.79214783748189
126	0x402c56cec6a05a29	14.169546324800722
127	0x400f6cc72a3b77e4	3.9281142520330707
128	0x4022dd486ecb4783	9.432193243326543
129	0x4023b29af2b188a9	9.848838409587488
130	0xc02ddbfecf81fc3b	-14.92967842542395
131	0x401e381c89036568	7.554796353180201
132	0x3fdbd068c43fe9b1	0.4345952908039648
133	0x3ffc2e53d3dabec2	1.7613104129376755
134	0xc02f0fdd0bf3afe3	-15.53098332738586
135	0x3fbd3bc64cee0b3c	0.1141933381859816
136	0x401c8e018093c788	7.138677605647793
137	0x4013e9124f89ab18	4.977608912255867
138	0x4017d267ba490c5a	5.955473814686309
139	0x402ee8c27f1c83cc	15.454608890753569
140	0x401c5aae54646b52	7.088555639866927
141	0x4008651d09dd3246	3.049371792853239
142	0xc0025fec3478a41c	-2.2968372439686515
143	0xc02c6538a4796a79	-14.197697772809294
144	0xc00321668bae0975	-2.3913088715063915
145	0xc02d7d23673416d7	-14.744410729511783
146	0x40242962133f7745	10.08082637929659
147	0x402d7c18134e4a18	14.742371180826964
148	0x4038626d407d8da1	24.38447955193772
149	0x400305a7955b3178	2.377761046262261
150	0xc037af6b6e85b23c	-23.68523302806919
151	0xc031c3bef10ac54e	-17.76463228714902
152	0x402348c9b0737c44	9.642163766953793
153	0x400fde207fd35ba9	3.9834604250313146
154	0xc03956d1affab8c5	-25.339137076102606
155	0x40283d07a4726c72	12.119198931663252
156	0xc01505f445f22e40	-5.255814640909705
157	0x4019faa64cdbfc56	6.494775010039197
158	0x4013e3ef3cb09fec	4.972592304497066
159	0x402167cff53846c0	8.702758467788385
160	0x4000c10b9e22176d	2.0942604402688887
161	0xc02861f22c9218bc	-12.191300766786632
162	0x401ec8e76a317ea6	7.696195277472418
163	0xc0229b18a2a6adf1	-9.30292232784902
164	0x404500d45e9ba079	42.006481004705115
165	0x40203b0b2c407262	8.115319617144625
166	0xc023c3defe4b3d74	-9.882560679134919
167	0x4030f589031af6b4	16.95912188919347
168	0x40394627e735bfb0	25.274046373960743
169	0xc03d06346e102c9a	-29.02423751730803
170	0xbffd75c5b8d8941b	-1.8412530155703795
171	0x4026f80aa3a1186f	11.48445617047784
172	0x4031b7dd53a77228	17.71822092855487
173	0x40094cf0656f18bb	3.162567894413852
174	0x40232c94fec01d40	9.587074242545555
175	0xc02676849548289a	-11.231480279024527
176	0x3ffe3ee98ab62e33	1.8903594416068585
177	0xc0055e7e97268444	-2.671139889586387
178	0xc028be6445eed4f9	-12.371858773617065
179	0x4021e794a8f7c903	8.95230606102678
180	0x4026bfab202e7a03	11.37435246054975
181	0xc0323ff443d5e50a	-18.249820937843687
182	0x401bedb13bb2c2de	6.982121403489797
183	0x402903bcafb58d2a	12.50729893771366
184	0xc01dde2d682f8178	-7.466970088862915
185	0x402c0c6c6ee3440d	14.024264779322062
186	0xc00a3ce40df78d1d	-3.279731854550518
187	0xc0215caf8bf3c624	-8.681026814944808
188	0xc031f8c7b6b44c4f	-17.971797389047705
189	0xc0144bed75788c7e	-5.074148021204676
190	0x3fc5baed9a692e4a	0.16976709403603457
191	0xc02845778a2913ec	-12.135677640451796
192	0xbff9e3cacfaf9671	-1.6181133377771426
193	0xc0040d1282ad68a4	-2.506382962147727
194	0xbfc128fb79ea6d61	-0.13406318142811371
195	0x4023d1572385dc28	9.908867940988856
196	0x4037c7959b6ec021	23.779626574076364
197	0xc04327011515cd5d	-38.304720531125646
198	0x402d82efd8bb7cb9	14.755736134420987
199	0xc03543c86e84fb86	-21.26477709528583
200	0xc03664b86db38c75	-22.39343915589821
201	0xc026e0c848aaafde	-11.439028044544042
202	0xc02a93d43749cbb5	-13.28872845435931
203	0x401f5f7b95757956	7.843244872374575
204	0xc04093bb26ce12c7	-33.15414891302276
205	0xbfb69d7562e68d1c	-0.0883401266533394
206	0x401972bce8c052e2	6.362048756350051
207	0x40243b828ea158b9	10.116230447002055
208	0xc03301bc4aae4d5a	-19.006779353670346
209	0xc036ee59400b6a50	-22.931049349581656
210	0xbff61552a38f6068	-1.380205763727668
211	0x40116cee36c92590	4.356377464320204
212	0x400b23a32145789f	3.3924009894681855
213	0x403c7d8cd39349ed	28.490430091342137
214	0xc031bb5307325af4	-17.731735658448954
215	0xc00974a1bf66a52e	-3.1819491341781463
216	0x400870d9834a0bf0	3.055102372834419
217	0xc022e63762e327ec	-9.449641313771245
218	0x40429690f2bd0d92	37.17629846793274
219	0x4028cde41bc5f7b7	12.402130954662296
220	0x4005461c4cec2366	2.6592336663783724
221	0xc037f42373c0a6d2	-23.953665957006542
222	0xc02e1618cc05671d	-15.043157935771484
223	0x3ff242dc9e6b3347	1.1413236797554462
224	0x40274282dd5504ac	11.629904667499737
225	0x402c13ee125d2d7e	14.038925718187553
226	0x40376a77eaa70bbc	23.415892282278705
227	0xc00cc8ba93dfd497	-3.5980121185953737
228	0x402aac4356858125	13.336451247975285
229	0x403a6ccea6345d89	26.42502821711017
230	0x3ff6bdaedea51e82	1.4213093468733011
231	0xc025f5d5c372b4fa	-10.980146510841667
232	0x402b510a58d04a51	13.658282065797865
233	0x40091d6260dcee88	3.1393477981017135
234	0x3fbb5171fb623b42	0.10671150576875468
235	0xc01d5e14a89c13be	-7.341875681425277
236	0xc024e7b9f674d3ad	-10.452590657960025
237	0xc01772fe08b4bb9e	-5.8622971878347965
238	0x4013eb65825cd918	4.9798794144792495
239	0xc041877eaa97ef4e	-35.05855305117312
240	0xc030849a449605ef	-16.517978941561463
241	0xc02933a4a39c7c23	-12.600865471698915
242	0x4036a5d6e2cae8a2	22.647810148752463
243	0xc031b02c9866eab4	-17.688180470586943
244	0x400c3dd55517491e	3.5301920554858404
245	0x40247b2834bf25e3	10.24054112275457
246	0xbffa881062d78a20	-1.658218752004025
247	0xc036b8fba2b3d161	-22.722589653874255
248	0xc03193ec76372f93	-17.577826870415787
249	0x4030d878f6616ce9	16.84559574011374
250	0x402c7465dbec6583	14.227339623076437
251	0x4015425728e6c1c8	5.31478561314038
252	0x4026aae86a97fe6b	11.333804446271833
253	0xc039a7b27bce0edf	-25.65506719380107
254	0xc020a27e500f04cb	-8.317369939645138
255	0x4019c843249ebb02	6.445568630397931

transformer_encoder.layers.0.self_attn.qlinear.bias f8 [32]
0	0x402654f7380919af	11.16594863043869
1	0xc03c21e996450260	-28.132470504615753
2	0xc008d1e445d6bdf5	-3.1024861770781578
3	0xc03c447b8b9b6d86	-28.267510152288672
4	0xc0328cfe0df4da98	-18.550751564291744
5	0x4029c30fc62e9a0a	12.880979722202955
6	0xc024db425b89457b	-10.428240643030895
7	0xbff81ec13f03cba2	-1.5075085126415861
8	0xbff489ea1eff7553	-1.2836705408911555
9	0xc00b7de054b78cbd	-3.436463033534521
10	0xc02e4123d090396a	-15.127226369481566
11	0x403db91fd9e09b35	29.723142258964078
12	0x402a485af33436ec	13.141318893550725
13	0x40383b5d4f874c46	24.231892557651257
14	0xc033b324b65cfdba	-19.69977893610278
15	0xc04859bf8a2e4d3f	-48.70115782986476
16	0xc031cd71e01033c9	-17.80251884837688
17	0xc013705dd12c82ba	-4.8597328837792535
18	0x404015b2204d06e5	32.169498479471976
19	0xc0313852a4a2693a	-17.220011033679135
20	0xc0164777bd2791ca	-5.569792705097322
21	0x4031aec7bbf1b984	17.68273520137292
22	0xc025ca9c3efae0cc	-10.89572331249692
23	0x4012278e2f7ba860	4.538628332064121
24	0xc02f78f02c203674	-15.736207369739738
25	0x4008b8bfc47b5073	3.0902095174915813
26	0x40283127819fafd6	12.096004534476304
27	0xc044b5889fd7bd99	-41.41823194536409
28	0xc041cd010e7683c4	-35.60159474169589
29	0x4030e03065613b59	16.87573846458267
30	0xc0260453b0721847	-11.00845099823722
31	0x400a6652cc128091	3.2999626105448177

transformer_encoder.layers.0.self_attn.klinear.weight f8 [32, 32]
0	0xc0115e159f0ad3ca	-4.34187935355744
1	0xbffda0ef4994fe72	-1.8517907022759599
2	0xc032cd3ec51d11a4	-18.80173904380503
3	0x403d270bb39e392a	29.152522302750334
4	0xc02be5d3bf9b34d0	-13.948881137558061
5	0xc02acf644c944b76	-13.40506209669341
6	0xc020a321cd4b4112	-8.31861726325636
7	0xc041c74c91e1a1d8	-35.55702422635267
8	0xc01eaba90163e1b6	-7.667636892052931
9	0xc0380520d760e344	-24.020032368807065
10	0x3fe3b989492d0bc3	0.6163984708040221
11	0xc0301b0baed37152	-16.10564701711821
12	0xc03182376e7d4590	-17.50865831907646
13	0x4011247b552da332	4.285626727018824
14	0xc02487de7d39183f	-10.265369332522935
15	0x402cf870703cec11	14.485232837139877
16	0xc03dfdd34352e6c7	-29.99150486730539
17	0x40182ab5a849b9bc	6.041708592891549
18	0x401c720d1a0fd9a8	7.111378104417248
19	0xc0263eac007a9ee2	-11.122406020134296
20	0xc02b072ef11343b6	-13.514030011750815
21	0x3fdf4b3b622fbddc	0.4889667948582124
22	0x403a71665bab7ad2	26.442968110432794
23	0x400afbfbceee1918	3.3730388800060034
24	0xc024374bd44ed8b9	-10.108000406861139
25	0xc040abc42004e4df	-33.341922762288725
26	0xc01708ea27fffd0a	-5.758705735205931
27	0xc02a937e390d0515	-13.288072378959024
28	0x403cb62664c3f2d5	28.711523340071682
29	0x400bb4b6f7be5f45	3.463239608285138
30	0xc00188d596d06b2c	-2.1918136389116594
31	0xc03337daf472ca35	-19.21818473627555
32	0x400f334f00532255	3.900053026711513
33	0x4031ff0ac37d4dbc	17.996257989970886
34	0xc02513d575c1f9b6	-10.538737945488588
35	0xc0384a9e36ba336a	-24.291476650675953
36	0xc010c0dddaeb2e82	-4.188346310238218
37	0xc017e271c7216102	-5.971137153065003
38	0x4037c2cbcaf55dab	23.76092213144663
39	0x40057f9d07170aaf	2.6873112253100184
40	0x40339af4b371a7a7	19.605296340225006
41	0xbffc205d914c2bb7	-1.7579017329869495
42	0xc03f8f46c0c2e0cd	-31.559673354699772
43	0x40448dc1021534fc	41.10745264087197
44	0x400946db98053a73	3.1595985294910007
45	0x40125c664d91cd3c	4.590234004997281
46	0xc01ce0533a343ef4	-7.219067487181508
47	0xc01f30914af24ef8	-7.797429247893653
48	0xc023c38f3cc45cbe	-9.88195218941689
49	0x4003179fb1169cc0	2.3865350565934875
50	0x40259a1b2ea1ae54	10.800988633381316
51	0x40421528dfbb595c	36.165309874037774
52	0x403c811cf0949747	28.504347835805017
53	0xc0328c3030f7189b	-18.547610340429497
54	0xc022d7c92e7c61a5	-9.421456768687515
55	0x40305417797cc70b	16.328483193362484
56	0x400d74ef839afa08	3.6820974618597155
57	0x402cfb4512106a4f	14.490761341575448
58	0x404048080ac5a1ca	32.56274542474746
59	0xc0431a9e3e79ea88	-38.20795422509133
60	0x4041ca107ee18266	35.578628406631466
61	0xc037eebc8ce3e274	-23.932564550052533
62	0xc02f3c5a684c5d76	-15.617877253839406
63	0x4012998fdd2df86c	4.6499628600414376
64	0x401381e557b71cca	4.8768514352334
65	0xc02e739b2521615a	-15.225793037724248
66	0xc02011940f82819f	-8.034332737618398
67	0xc0425f57836b95dd	-36.744858195812164
68	0x40196a84e3766138	6.3540225544932625
69	0xbffa7ce5744a9de2	-1.655492262137948
70	0x400f809ecf50edd6	3.937802905709513
71	0x402ee7372f94df13	15.451592909739281
72	0x403bcdbd0500c440	27.803665459334525
73	0x4022d422c1b04d54	9.414327671786545
74	0x3fe067dc23a4ada5	0.5126782127530772
75	0x402ea135d9c330ae	15.314863972737239
76	0x402227162e1c6c17	9.0763410958953
77	0x4036c2bdb5db3316	22.76070725060989
78	0x403c0a75604174bc	28.040853515606372
79	0x400601a5f1c2dd40	2.7508047950356342
80	0x3ff9183eb935ee3a	1.5684191927711155
81	0x4004256e27959863	2.5182765095260478
82	0xc03e5d807f0120ca	-30.36524194505254
83	0x4032cb429783a1cd	18.793984861027457
84	0x40118ad03ba1fcae	4.3855599706286466
85	0x4023c49e3fbbd616	9.884019843749268
86	0x40114bb62ea5b988	4.323937157502208
87	0x40318c56365bdc3a	17.548190495898076
88	0xbfea0356eb77e4e7	-0.8129076575270603
89	0xc02e40d757bd2394	-15.126642934644941
90	0x400ca5f0e42786c0	3.58102586980462
91	0xc00fa0268bca4a25	-3.953198520766153
92	0x4038de77aa6fc2ea	24.869013454709524
93	0x4020fd5f6facf162	8.494868745671457
94	0xc000dd97d582c9e9	-2.1081997566736743
95	0x401c0d30bd20f060	7.012881236205516
96	0xc0398e094a018094	-25.554829240195048
97	0x3ffe0aafa55ff138	1.877608915324414
98	0xc01d67b6ff2e5476	-7.351284014895205
99	0xc03377227cbf7239	-19.465369984378615
100	0xc02762f64a1fab67	-11.693285290113364
101	0xc01c39ef34f8ff1a	-7.05657656450037
102	0xbff2f0654bd6d673	-1.1836903536290293
103	0xbffa690970e2c705	-1.6506437692264069
104	0x4013f1128ae66970	4.985422296822762
105	0xc02a6249f0d876a2	-13.191970373557812
106	0xc01bf60c787df598	-6.99028194683833
107	0xc0299c6867014d63	-12.805484026822063
108	0xc02139e63b8d5d7c	-8.61308466053628
109	0xbff172de1d3dcb03	-1.0905438558808676
110	0x4011bb7b69843222	4.433087967580407
111	0xc030ac7c52c18704	-16.673772022483732
112	0x403db5c6bfed605d	29.71006392999003
113	0x40274729fd3daad1	11.638992227342358
114	0x4023d4d44a6b8269	9.915682149528225
115	0xc0062a07c16e9f4c	-2.770522605122016
116	0xc00d711b80360206	-3.6802282349092392
117	0x400ad8a45863b941	3.355782213729214
118	0x4022e9e63da4f1fb	9.456834722886006
119	0x3fc7a5ef8ff5c008	0.1847514584474086
120	0xc0141bedd6476e72	-5.027274463758305
121	0xc025c0efa05f51c3	-10.876828204761187
122	0x40293e886b7283b1	12.622134549835978
123	0xc0455f6c9069628b	-42.74550061364888
124	0xc034873c9926501d	-20.528268405774828
125	0x40252889174f8d9f	10.579170921765408
126	0xc012a5905c9c9fbc	-4.661683508929794
127	0x402b2f070b4077a4	13.591850616092252
128	0xc02981dcbf7da2eb	-12.753637298666453
129	0x4023aa6425e1456a	9.832795318364067
130	0xc031229848b117c4	-17.135136168704562
131	0x402a6f5e5e0e6f34	13.217516841184626
132	0x402865b26f231265	12.198626969367249
133	0xc0131d7f25741e0a	-4.778805337154617
134	0xc01e3da61c8b2622	-7.560203977578142
135	0xc021ce0c426c34dc	-8.902437282284545
136	0xc0227aaa13d8740b	-9.239578838512918
137	0x4012fc31ff662b6e	4.746284475909176
138	0xc04132d595c83bef	-34.397143099566044
139	0xc017690fef67b6d2	-5.852599850373467
140	0x401460527a7f2b86	5.094064630519716
141	0x40429b4fe87fc993	37.213376104732696
142	0xc02c1161abca78db	-14.033948296037513
143	0x4021e055441e6fcf	8.938150528636383
144	0xc014df3d81dde102	-5.218008069198051
145	0xc04227d39fdf7d96	-36.31114576733232
146	0xc032d1c7809ed6d1	-18.819450415400585
147	0xc00a85ad4e891487	-3.3152719626983216
148	0xc010b9560c270dda	-4.180992307552026
149	0xc031b8958ef19dbf	-17.721032079685525
150	0x403354bccdc32cf6	19.331005916738796
151	0x402c222aed1fbca5	14.066733751415379
152	0x3ff6eb41637154c6	1.4324354061584912
153	0xc031340aafbe2664	-17.2032880629762
154	0xc01326159bdf3d74	-4.787191806316844
155	0xc03c1e84cff5f25f	-28.11921405558166
156	0xc036649cbff8a130	-22.3930168134695
157	0xc0236c022bbfe8d8	-9.710954062630137
158	0xc03aebf38094e8c7	-26.921684299807364
159	0xc003a5374fbc6179	-2.4556719045032733
160	0xc028dbe767f28959	-12.429499863010891
161	0x4018ec295883dc60	6.230626471565387
162	0xbff30eb840e96b82	-1.1910936866395052
163	0x402552806cee8d71	10.661136058921985
164	0x40434045561e3ae2	38.50211597896647
165	0xc02e17c9eee06766	-15.046462502377562
166	0x4031930751086204	17.574330391451454
167	0x4029121bb8ee89d9	12.535367755049196
168	0xc01c0a065a3bd3dc	-7.009789857770524
169	0xc033d8f5f5a3186d	-19.847503044431893
170	0xc023da59af6f3f93	-9.92646549447071
171	0x402e944e42f0ea3a	15.289659587772906
172	0x404439b632cd93a1	40.45087275541233
173	0x404065c6339e4eb0	32.79511113386013
174	0x4038aaf4aa7e38fe	24.667795806709357
175	0x4031a1915cb558ba	17.631124300264425
176	0x40311072177f5175	17.06424090250353
177	0x3ffe16bdca6f7292	1.8805520923262162
178	0x4027fba002eb90c2	11.991455165153074
179	0xc02441d2760276d8	-10.128558814812479
180	0x401626b3254a59b6	5.537792761481276
181	0x401d31fc0540eb18	7.298812944495488
182	0x402471f3b7d39cc7	10.222562546331018
183	0xc00adac05732d87b	-3.3568121731178144
184	0x401393869b87ee80	4.894068174525842
185	0xc03f49ed18d3abef	-31.288774062802926
186	0x3febb06d2d1364d9	0.8652864342103853
187	0xc041fdc205d86c14	-35.98248360698213
188	0xbfd0268a2c7fea49	-0.252352279144962
189	0x3fbea1a65f2dc456	0.11965408157063115
190	0xc034de95ae888b09	-20.869471462569923
191	0x40213c090a109f6a	8.617256464509143
192	0xc0286d5ebc970e8a	-12.213613408507872
193	0xc042fff1223bbc8f	-37.99954631726097
194	0x403581aa14bd3782	21.506501480288996
195	0x40170f52fdaf48da	5.7649650228724685
196	0x40088dd0df304bdb	3.0692460476507057
197	0xbfe6d73b12a2b53f	-0.7137732852913031
198	0x402a074ae0820f68	13.014243141056525
199	0x402cff029a1fad10	14.498066727034285
200	0xc0134f846da7851a	-4.827653611516576
201	0x40225288d3f542c1	9.161200164498384
202	0xc01700576d817734	-5.750333510424571
203	0x4027616b353010f5	11.690271055333577
204	0xc03274dd4466619e	-18.456501269336165
205	0x4035085ed4766f27	21.032696989931676
206	0xbfedfdabe51328bc	-0.9372157549016928
207	0xc02221c2d33a3742	-9.065939522606303
208	0x4020cf806ebcdb74	8.405276737741339
209	0x4037121dc66237a0	23.07076682947047
210	0xc01305de305671fc	-4.755730395580482
211	0xc00eaa907aa88d5e	-3.833283384579473
212	0xc009261d98c346d4	-3.1436111387819015
213	0xc02b5f97362198b1	-13.68670052681077
214	0xc0283d315f2aa553	-12.119517301517282
215	0xc019ebe85ca6e054	-6.480378577885933
216	0x3ff1996fc96668fc	1.099960123747734
217	0x400cfa823585896e	3.6223186665894707
218	0x40027da40da070ec	2.3113480629527796
219	0xc02d764776bbcd76	-14.731013975548858
220	0x403792e2c373f180	23.573772636229023
221	0x40217518b93d5099	8.728704251036378
222	0x40416a5f34ab3b19	34.83103044854051
223	0x401919ece3730a8c	6.275317720314558
224	0xc01febe2aa91fe9c	-7.9803568507774365
225	0x4021fcb5896184a8	8.993572514680935
226	0xc01525ea801eea46	-5.2870273608082865
227	0xc01c386543e9f214	-7.055073796419055
228	0xc0018bf019a1da22	-2.1933290483969055
229	0xbff3259a67cc5fd0	-1.1966804556486643
230	0x4012762e1ea3b70e	4.615410307638525
231	0x403497a7ff6c27d8	20.592407192139802
232	0xc0273c57b9b167f4	-11.617856791406645
233	0xc03d32e25258dafe	-29.198765894597265
234	0x4033460e07eb28ed	19.27365159503181
235	0x40428009a189303f	37.0002939147821
236	0xc02622d3083f0513	-11.068016298001146
237	0x403a86d0bde7ebea	26.526622647401304
238	0x3fc840bb0ead2a6e	0.18947542397139067
239	0x40297235bdaebc61	12.723066260891018
240	0x4028bd14916981e9	12.369297546510056
241	0x4038f5c029abfaa4	24.959963421332432
242	0xc02fa4c127c58adf	-15.821786158432074
243	0xc02f15f523d1142e	-15.542885894081419
244	0xc036712a106714a9	-22.442048096815288
245	0x401dc25f360dfa90	7.43981632671661
246	0xc02f140e204334ef	-15.539170273021652
247	0xbfe253d7f1633abe	-0.572734805545984
248	0xc037628f5e01be12	-23.385000110078245
249	0xc0070e0f129e2b3b	-2.881864686443263
250	0xc02a28a776acab1f	-13.079402645662013
251	0xbfc1af72973e5a4a	-0.13816673645915706
252	0x40336b15a3ccbb0d	19.418298947794984
253	0x40337e5c9914f76a	19.493600432986035
254	0xc039321884d7ba09	-25.195686628978397
255	0xc020785725218bb4	-8.235039863915382

transformer_encoder.layers.0.self_attn.klinear.bias f8 [32]
0	0x4026ffda6aed4a52	11.499713269678214
1	0x4000cb3e04dfc7f5	2.0992393856804434
2	0xc002fc5929693bd8	-2.3732169375648304
3	0xc0152948d4508696	-5.290316884436512
4	0x4000f312ee6bbdc3	2.118688452399256
5	0x400335d31ff5f866	2.4012815949382
6	0x4020571784415d8b	8.170101292590308
7	0xc01d4186c24ded76	-7.313990627294848
8	0x4036ff842ba910f0	22.99811051251976
9	0xc032702da5cf2da4	-18.438196528511654
10	0x3ff3c52ac04fd8bc	1.2356364738639476
11	0x3f967bdc618e74af	0.021956866697668328
12	0x4013ee2d9e0f106a	4.982595891637269
13	0x401371562ea8f4e8	4.860680321752831
14	0x403f03d618c03a14	31.014985606127155
15	0x40351f88ec1b1610	21.12318301831516
16	0xbfd160761f9d6f43	-0.2715125378360776
17	0xc02e9f46a79092d5	-15.311085926435604
18	0xc040e20d02aa54ed	-33.7660220462511
19	0xc0213878517a9f92	-8.610292955607097
20	0x400f1eeaa2d996ae	3.8900959704067963
21	0x403034b41149752d	16.20587261241342
22	0x402ac8989d027f5e	13.391789347224115
23	0xc00cc0b4225a7ac9	-3.5940935787069503
24	0xc02d094a469683d1	-14.518144803880121
25	0xc02298a3204eb0f0	-9.298119554143767
26	0x402d1572660b3fc6	14.541888417123015
27	0xc02a4f03783272b9	-13.154323345335216
28	0xc020bc00950b461c	-8.367191941858486
29	0xbff1d25bf9f3746c	-1.1138572467528105
30	0xc024a96919edcaf8	-10.330879984166572
31	0x401dd50a1844b026	7.458046321098697
