experiments/fl_train_noise_0.5_max_grad_norm_100/20250426/model_round_68.pt (torch, 62806 bytes, 25 tensors)

embed.weight f8 [32, 8]
-5.41155035851704 -13.501155234420514 -1.840460750401297 -28.457333910918496 6.11175083316024 -11.276505674255278 13.716564285773746 18.156707860107005
-8.983504452340975 17.724013957117986 -34.30794558480277 4.172584440995092 14.106299203877684 10.979811308395753 -9.595095492888847 -13.465822746553195
-3.42341847887272 8.489258842684954 0.4189463979410293 2.8783354283973708 18.787274493420828 -0.347403665358638 40.635814553785984 20.359997266346255
-20.184568530159503 12.48317973243574 -5.994016533199336 8.526600170346699 -1.3541423851620051 -3.196147002178347 0.617125495974292 -5.616681776138863
4.509703691242336 -12.507938722216982 3.941489422383708 -6.303099536622957 -6.716417401105305 23.769669515826845 14.551617924992776 -0.9016913097450321
14.59367282617871 26.058643161732896 1.4536657098220045 -11.156672150070245 -11.454555293724798 -10.52598179645012 -3.5180166698784654 -2.939676746984738
-18.112010773583645 2.711372664325792 -20.451198341470196 21.21875242383523 -9.15597777109062 11.395532333135254 -11.48110108295316 -11.077174742982338
-14.543745518914834 23.47053684158503 23.306968030678927 28.98918293126455 -4.036771484514231 19.608663306911758 5.9944143468084 -2.163041263367419
-1.3448603094387546 12.284012307915237 2.2585955634134103 13.59978866833689 19.233349878811158 5.522971107982942 6.759595613454852 -12.031390775072673
15.736802989582776 1.9576031715299127 15.344988167748129 -6.5782560544761495 -4.213666561620357 7.538241021470748 -0.6556027419935427 15.549032710561159
0.6716220126834256 9.842648689489621 -7.549107440478592 1.1562533930490682 -22.35526994629397 -6.549787077704011 7.328874560958132 -11.599349481893734
16.070147497349968 7.45669775331006 33.039540842008 5.616875103750232 2.117679238700705 -16.472533570814054 -4.075970384163517 16.750715355102077
-36.45691281897429 -6.465456256927865 25.110512740762765 2.7050191706665756 -5.566885620099715 7.279235105403938 13.406865799414273 5.0360471854845805
6.384600155943128 31.89843359201003 -3.3665868073530385 -0.31584402477348067 6.035460582099159 -8.993044142400658 -4.565777439582739 -5.466061012119546
26.271959591021353 -2.0291371052762326 -3.1705213402742523 -18.62447308755384 -5.104020264170222 7.700831661650698 -1.5392633100370818 -21.792440000293432
-22.23128639911389 -1.7756131529065546 17.36722439135972 -17.260466329802366 -7.811652481351558 3.9584956945976724 -5.879597395745842 39.74342980543435
8.93361008486699 -6.370784194907182 -5.998783177610845 20.168275581873228 9.081939696934848 -1.9795294208322134 10.251348385460327 -4.6215058939002045
-12.876317354184808 19.661610375862736 -21.20878332226399 -10.739308375921308 24.40311654125795 -15.737421109142373 -18.72489033016822 -25.405208760960946
-22.800947407561008 -5.817233575582849 3.705544503786975 -22.64529595879229 -29.131763747477066 10.787745140339823 18.58239353398548 -13.511432939358931
-16.800657416237527 -13.33344591525155 -4.890064695275681 -28.171904459411124 -1.5067467559615573 33.81297001468762 -26.292285657780358 9.941117744736081
3.3140663608982175 14.185116286545465 -3.9701327376976905 -22.22326275135624 19.022674947732543 6.333516714016572 28.85403743117977 -25.27095565011592
20.050322608493275 3.4181471457407877 -17.99205236286742 -18.318742903586493 -13.796544097082137 26.081839693241953 -16.994141677046557 -7.404651610624047
-23.811656514611936 -17.539547396183163 17.25326452482489 41.93524553727666 -2.3260159341684945 -26.092133023316215 20.81959567836754 30.29820280190951
28.251755430262595 1.7166215997025547 20.30988763499217 10.466288918196518 -18.59889639573061 17.84020512954654 13.7624741021099 -5.657643239981422
-2.980559569239551 -5.395317648873004 -18.853155478617648 -24.187837043686955 -18.123309338437622 18.364397525776287 19.840874766540605 -10.022310964523646
-13.18136430861605 -27.425144671679917 -26.680300682741724 -15.514187828557285 33.247976273980996 -5.219112080584567 -41.25665157689251 10.444051900292505
6.5178163766621875 3.424888304257625 7.778493929998893 27.61705136403148 -27.319706021551287 -0.812945251960769 -1.697082333494765 8.095195152764763
-5.100034048235386 3.9066299051302424 -0.6608543850475606 10.108471204708547 -21.86822004420682 -10.087125130647658 23.250397455108292 4.7027340002148925
1.4576920828026352 30.17682123442555 18.472162121065082 3.5748169953483817 5.666820049166432 32.09163499383588 -5.0121828834707145 6.26282225861862
-0.18039779151925855 -1.7298220056154006 2.0861339355221484 -36.78948053576015 -16.33673760107516 -11.910877044241232 3.548483074415102 -9.517094783510991
10.518167669391465 -3.3633060512850395 0.6260831860615905 0.8653788666784532 -5.381542483915414 23.17371687333297 -25.844722451377873 6.71480847349256
-11.306982272374134 4.030355159035041 -14.814363221329744 -10.872212213969243 -10.854414820388635 -8.557019309877942 0.3538609826735849 2.550284687297655
00000000: 78f3 0975 6da5 15c0 531c 3c6b 9700 2bc0
00000010: 19b9 c8f8 8672 fdbf 29bf ced5 1375 3cc0
00000020: 5ce5 76cf 6e72 1840 712b d826 928d 26c0
00000030: 7ac2 9983 e16e 2b40 8c2f 9e01 1e28 3240
00000040: bd8c 44e5 8df7 21c0 57ab 8bfa 58b9 3140
00000050: 77d6 cbc2 6a27 41c0 4c7d c7f9 b9b0 1040
00000060: b17d 68d9 6c36 2c40 189f ebd3 a9f5 2540
00000070: c1e8 3f5b b030 23c0 955b ac51 80ee 2ac0
00000080: 423e 3a3a 2963 0bc0 ac38 9122 80fa 2040
00000090: 1cc2 7b8d 04d0 da3f 3014 9fb9 d406 0740
000000a0: a937 3ad2 8ac9 3240 ca74 4e95 dc3b d6bf
000000b0: 736a 0d5f 6251 4440 489b e5c7 285c 3440
000000c0: e6e7 18e2 3f2f 34c0 96cd 7955 63f7 2840
000000d0: 0819 5778 dff9 17c0 096a 9b89 9e0d 2140
000000e0: 395f a634 91aa f5bf fa83 fc84 b591 09c0
000000f0: 7c98 d7f7 7dbf e33f f238 726d 7b77 16c0
00000100: 3025 b2c3 ef09 1240 8396 508b 1004 29c0
00000110: f957 359b 2b88 0f40 d6e9 94b9 5f36 19c0
00000120: 6221 f085 9cdd 1ac0 5734 b70f 09c5 3740
00000130: 7476 27aa 6d1a 2d40 7a27 cebb a7da ecbf
00000140: 43ec 79e2 f52f 2d40 dec6 fd3c 030f 3a40
00000150: bf08 b0f9 3642 f73f cd7d 0155 3750 26c0
00000160: 1a8b b178 bbe8 26c0 d516 6c7c 4d0d 25c0
00000170: 6549 7fec e524 0cc0 91e3 083e 7584 07c0
00000180: 6757 f1bc ac1c 32c0 9d61 c426 e4b0 0540
00000190: ba9f 08bc 8173 34c0 054b aa28 0038 3540
000001a0: 7179 8351 dc4f 22c0 2aa7 c636 83ca 2640
000001b0: 40b5 92e1 52f6 26c0 695f aa72 8327 26c0
000001c0: e92b 0ad0 6516 2dc0 bc2b 3a1a 7578 3740
000001d0: fbae f474 954e 3740 ec8a b317 3bfd 3c40
000001e0: eea7 8d6c a725 10c0 1276 c55b d19b 3340
000001f0: 72dc 28c1 47fa 1740 227e f093 e84d 01c0
00000200: 71a5 6b3e 8c84 f5bf 9a50 ac0f 6a91 2840
00000210: a502 fe8c 9a11 0240 6309 1680 1733 2b40
00000220: fd04 52d1 bc3b 3340 9228 f6bc 8517 1640
00000230: 04e5 b76e d309 1b40 9caa a073 1210 28c0
00000240: c3b4 cf3d 3e79 2f40 0845 04b4 5752 ff3f
00000250: 69f8 034a a2b0 2e40 98c1 ea5a 2250 1ac0
00000260: 00a2 3968 cbda 10c0 7a54 82a7 2827 1e40
00000270: 55f7 009a b2fa e4bf bd96 c0d0 1a19 2f40
00000280: e4f7 7772 ed7d e53f 18c0 26a6 6faf 2340
00000290: 1e62 8b38 4932 1ec0 778e d08e 0380 f23f
000002a0: 9395 a0f8 f25a 36c0 3002 3a62 fb32 1ac0
000002b0: c634 2f7e c450 1d40 5d37 6fef dd32 27c0
000002c0: ad03 b72f f511 3040 587e 6a93 a8d3 1d40
000002d0: eda3 9fac 0f85 4040 a04b 711b ae77 1640
000002e0: 051a 0dd0 01f1 0040 91e8 c8f5 f778 30c0
000002f0: 96c9 2d2e cb4d 10c0 b9c4 aae1 2ec0 3040
00000300: 124f 871e 7c3a 42c0 20e5 a490 a0dc 19c0
00000310: 0e5e 1f90 4a1c 3940 2387 4817 e1a3 0540
00000320: 949a fba9 7d44 16c0 8c6b b6ce ef1d 1d40
00000330: beb0 ccb6 50d0 2a40 9413 ab8d e924 1440
00000340: ba3f 8f9f d489 1940 964f 6fbe ffe5 3f40
00000350: 92cf 6510 c5ee 0ac0 d580 42db c936 d4bf
00000360: eca6 61c7 4f24 1840 bd30 2648 70fc 21c0
00000370: 384a 3f29 5b43 12c0 f8f9 1319 3fdd 15c0
00000380: 2f45 cd24 9f45 3a40 9c17 123c ac3b 00c0
00000390: e8fb dd4a 3a5d 09c0 a146 e077 dd9f 32c0
000003a0: f6ed c249 846a 14c0 122a abd0 a6cd 1e40
000003b0: eeab 8890 d2a0 f8bf 724d 0d59 ddca 35c0
000003c0: 2a34 e095 353b 36c0 2f4c 6156 e968 fcbf
000003d0: fa2e ef6a 025e 3140 d735 e0eb ad42 31c0
000003e0: 207d fcd3 213f 1fc0 ff3a 6dca ffaa 0f40
000003f0: 2a80 012e b584 17c0 299b 36b5 28df 4340
00000400: 6370 1b24 02de 2140 0a00 1cda ae7b 19c0
00000410: be88 6e04 c1fe 17c0 63dc c81b 142b 3440
00000420: 9d28 fdff f329 2240 5a1b bf0a 27ac ffbf
00000430: b5e8 4ebc b080 2440 5e4a 820a 6c7c 12c0
00000440: 3148 12ab acc0 29c0 5406 2f4c 5fa9 3340
00000450: f612 e5d2 7235 35c0 567b a0a0 867a 25c0
00000460: f62d 49a5 3267 3840 074b 7642 8f79 2fc0
00000470: 5742 a569 92b9 32c0 4461 e8c2 bb67 39c0
00000480: 5f4a a9e3 0acd 36c0 3249 e1e0 d844 17c0
00000490: d119 4d84 f4a4 0d40 fc40 af1d 32a5 36c0
000004a0: 6036 da44 bb21 3dc0 58af be54 5393 2540
000004b0: 98de 1dbe 1795 3240 9b49 c989 da05 2bc0
000004c0: 400a 6ae2 f7cc 30c0 fbfa 496c b9aa 2ac0
000004d0: 0e22 961e 6d8f 13c0 1435 3fee 012c 3cc0
000004e0: fd57 837c a21b f8bf 22db c466 0fe8 4040
000004f0: a941 9d3b d34a 3ac0 4ba7 5e2f dae1 2340
00000500: 12a7 6639 3583 0a40 e856 d98f c75e 2c40
00000510: 3386 e9f3 d4c2 0fc0 737d 67bf 2739 36c0
00000520: 25f3 7e06 ce05 3340 747b cd67 8555 1940
00000530: 1a7a 7432 a2da 3c40 0fea 7759 5d45 39c0
00000540: 60ba 45f1 e10c 3440 bcfa de87 5d58 0b40
00000550: 626f c624 f7fd 31c0 6fbc 8a22 9951 32c0
00000560: 4a94 bda0 d497 2bc0 26fd 3572 f314 3a40
00000570: 6c81 a611 80fe 30c0 b49d e7fd 5c9e 1dc0
00000580: f7d7 a9b8 c8cf 37c0 a73f 35c7 1f8a 31c0
00000590: 215c a3f1 d540 3140 a62a 3220 b6f7 4440
000005a0: 1ed4 f93d ae9b 02c0 5606 a207 9617 3ac0
000005b0: 1288 ba05 d1d1 3440 e4c6 d104 574c 3e40
000005c0: 7991 3b0b 7340 3c40 5a46 e535 4877 fb3f
000005d0: e5b9 c9cb 544f 3440 5448 cc6b bdee 2440
000005e0: f15a 3146 5199 32c0 7655 f1ae 17d7 3140
000005f0: cd37 6901 6386 2b40 6c9f c03a 6da1 16c0
00000600: 4c4f 8d9d 2fd8 07c0 c0c3 5526 ce94 15c0
00000610: e710 bf65 68da 32c0 e09c a716 1630 38c0
00000620: 88e1 6733 911f 32c0 d5f3 ff27 495d 3240
00000630: d352 9691 43d7 3340 4bf1 bd57 6c0b 24c0
00000640: ce55 5cc8 db5c 2ac0 14ef fc47 d66c 3bc0
00000650: 7ad2 7f2f 28ae 3ac0 414f 87a0 4307 2fc0
00000660: 5677 c1af bd9f 4040 b213 d1ea 5ee0 14c0
00000670: 2e9c 78f5 d9a0 44c0 47f7 4ac5 5ae3 2440
00000680: a663 cc74 3e12 1a40 49ea d9d6 2b66 0b40
00000690: 46eb 4583 2d1d 1f40 a777 0414 f79d 3b40
000006a0: a5e5 fa40 d851 3bc0 fb84 d3c2 a503 eabf
000006b0: 8bab 0fce 3f27 fbbf 8ab9 476b bd30 2040
000006c0: 40a1 5653 6f66 14c0 3ae1 002e c740 0f40
000006d0: a051 6618 b825 e5bf d68f a989 8937 2440
000006e0: 9799 37ab 43de 35c0 3595 45aa 9b2c 24c0
000006f0: 16b1 300c 1a40 3740 44d7 7280 99cf 1240
00000700: 3668 f4ee b452 f73f 9918 0b28 442d 3e40
00000710: 7062 e49d df78 3240 78a6 21a7 3999 0c40
00000720: a0f2 fddf d2aa 1640 ded8 0ab2 ba0b 4040
00000730: 904f 78ab 790c 14c0 18b6 3547 210d 1940
00000740: 8a44 6c5b 4617 c7bf f24e e0d6 59ad fbbf
00000750: af25 21fd 66b0 0040 8ef5 bcb2 0d65 42c0
00000760: 89f3 776f 3456 30c0 f062 d779 5ed2 27c0
00000770: df2d 1818 4b63 0c40 4c39 c0a5 c008 23c0
00000780: 03c3 d345 4d09 2540 47aa c500 0de8 0ac0
00000790: 70b8 169b df08 e43f 7012 6105 2fb1 eb3f
000007a0: 24ce a912 b386 15c0 7eba 81b5 782c 3740
000007b0: 6bdd 06bb 3fd8 39c0 8837 a2c0 f6db 1a40
000007c0: eb98 c8c7 2c9d 26c0 1248 3d6c 151f 1040
000007d0: 595a 5537 f4a0 2dc0 dd56 6c99 92be 25c0
000007e0: e592 fddb 75b5 25c0 1f55 8ea2 311d 21c0
000007f0: 4a76 fa88 a8a5 d63f d076 7ba8 fb66 0440

embed.bias f8 [32]
1.0760095771949787 6.488807196200211 -10.830142473211012 7.148893633813085 37.54268766193196 -17.258689781687576 -17.57490810922301 -23.512208762212094
-3.730204056940101 -10.426212735526434 8.813476327723027 20.780986117544007 -23.540602580349837 -30.502905112871012 -17.84433486466548 44.10736011492334
26.182349969476626 6.872168301529868 -27.97141993932235 6.883795330777394 5.791794570065466 6.509939884937252 33.76581382733294 -29.135640595737634
-17.987430825819764 -25.97527828702981 9.808354732181936 -40.560537253437936 8.352196886316138 -3.1379422113924202 14.373537723085173 16.729032585788485
00000000: 77c3 83d1 5537 f13f deea a6df 89f4 1940
00000010: 78ec 2a6f 08a9 25c0 3c3d 9f92 7798 1c40
00000020: 61f8 0fca 76c5 4240 5328 587e 3942 31c0
00000030: 6a51 872d 2d93 31c0 f36c 0a1d 2083 37c0
00000040: ccb6 7f39 75d7 0dc0 1073 408e 38da 24c0
00000050: fa47 1ff8 7fa0 2140 457b c9b4 eec7 3440
00000060: 5bbc 42ee 648a 37c0 aec5 b463 be80 3ec0
00000070: 5f9c 6654 26d8 31c0 ca3e ebf9 bd0d 4640
00000080: 2654 d37c ae2e 3a40 f0b6 eeaf 197d 1b40
00000090: 6112 26fa aef8 3bc0 862f a8a4 0189 1b40
000000a0: 8453 1e32 cc2a 1740 0eed 62ae 2d0a 1a40
000000b0: 1b9c ff2f 06e2 4040 feb3 9257 b922 3dc0
000000c0: 4af5 3f44 c8fc 31c0 bc4a 7bd6 abf9 39c0
000000d0: 9693 e4ab e09d 2340 51da 49af bf47 44c0
000000e0: 31f6 7826 53b4 2040 cf58 3572 811a 09c0
000000f0: 3df2 2056 40bf 2c40 0bae 29e1 a1ba 3040

pos_enc.pe f8 [1, 12, 32]
13.552135276916163 -25.842491917300634 -20.32530383531413 -1.575394930683567 8.560699131152939 -3.1245934357259473 -13.861939364936669 -3.426528961302686
1.3107780828393212 4.7491695551153725 7.570588713792381 -15.213566517165084 -15.65280442445891 16.62269574487236 23.755333830167793 16.699312752673126
13.613371720159913 -4.757595968547275 6.000717472664714 -9.796004166422975 14.980217730236063 -2.1044144495539676 -12.086107154096503 -34.22852412324253
31.199880677967126 -2.106875222363964 -8.045746065939056 -5.698388103720935 -6.124796947999302 21.106008390667892 3.028379823046218 -5.473502925519291
28.710953561152905 -14.404925751585074 -31.099920686010844 -8.088756657675999 -8.14716887884174 11.455435867092241 -24.199961132806582 -26.24694282224017
-22.624339077148793 18.54970224540864 6.899139462939845 -10.401499319924513 13.058617788458122 -3.6324407799659553 -3.1629095032937253 12.67904380142123
29.962627416623388 15.535977812438096 1.647819327891461 -4.750771838719235 17.047260338204698 -32.27523326378181 -32.01574626980913 7.352969436218427
4.845821019707296 17.196408293213956 -6.257852379759234 -20.878126555163902 -0.6724083447209732 1.4551753480513254 0.9018698563266138 -28.3089253207274
-4.736328326509447 -17.63898139912753 -1.9877935759803205 8.620916981773727 -23.14229356168183 0.47288846252404493 52.293010575852236 12.334905830276256
-2.2500907928234306 -8.949881833682408 7.772020190227101 -24.347186979077723 19.11057691310636 -2.5762211312844605 -23.469556588544197 4.1983278408391715
-2.4939281457956075 -21.052858397127185 -5.3294806074765635 -2.7794483205842067 -12.358454944692177 12.257379045806115 12.17470253387925 3.409469269730948
-3.0754525389287264 17.953358446519704 -4.276761712030478 -19.18535337651643 10.945639620851306 -11.956730745967771 5.468285611946781 -29.522309106732255
19.468078178054974 -12.372659820002939 -14.68624094974269 -21.446683309171085 54.53002560872202 37.68027137613576 -7.486437981041073 7.66136275616484
-10.65858855086514 -9.872616813638377 -13.061048136382048 -14.82210405340372 17.955022448144426 -19.781827733513214 12.48017874558235 -4.412917218066434
-5.015093024082605 -2.9842977739850673 -3.854784744115513 9.260293092316152 -2.941847378137526 40.00715029483053 22.253290600195378 9.175477268777081
-5.587057708370162 -18.53601906696275 15.41491020709966 25.923232743696616 -2.801521214761623 -14.795236648584895 -2.0135454008040625 16.957745738962984
6.6417637383649115 10.40517917224167 -15.512213906953257 2.453397477349215 4.274767287886075 -3.3859752622381154 -5.475008654466389 28.249372281672517
11.944417533113697 10.6891079089505 -34.05668024085584 15.817401313068489 1.2578669944909604 -19.16767675395 -28.57728066697247 13.943298744477275
19.56366622675355 -11.9071767928217 -11.34352641583059 -24.079021841653606 13.013737240688934 3.3711858064945086 -19.681641826395012 -13.04307341503234
-2.364193497825998 14.226287140983398 -6.635622877455587 30.962217954403076 -3.8717508193983465 2.174062384794821 -2.953460874997146 6.523149091996485
-1.128167414215879 4.520985792394169 -9.857765217543678 -5.896657101611387 -54.85495368777215 -0.04046837355914924 37.79429832730819 16.356976413731164
12.09161037523267 -3.460793678846283 16.107890564894635 29.619602273066803 -7.675406136898719 13.90453137638567 4.287425927331139 -11.550152006866204
-23.36051030402558 -3.4905817315754715 19.142486421000196 -23.965856630684247 4.734887105683974 14.384500967818676 -10.216316663025234 -2.395123366318171
0.614957099956741 -5.2675371634814905 -3.4065050989806833 7.362454177652976 22.04137704375704 -4.401185005733192 21.7758125279205 -41.637717955199676
-18.62803909506798 -0.16267353529004058 3.0141238034580318 -12.002028625301628 29.57781981374632 23.96389670386276 -27.449473227799977 -21.504620005060556
20.970036962009683 15.581102985980047 0.6798165331091885 15.355330348810005 -11.242139034981937 19.20208686202044 -6.871311450014645 13.407578730400203
10.6522020311117 0.4577936626089251 -2.0152286918494395 21.235637191699585 -9.915715168745564 -19.590666528685716 43.6254149273952 8.79652741927334
-9.372951691799946 12.639357944931623 21.72173919434611 19.408373317883292 7.6694696410182175 -11.110852915123399 33.047397590008245 -4.534289661528927
13.691401536282347 20.343939970305374 36.742043654314315 -19.287083784209152 -23.42207028745976 -16.03465925961258 11.527939474769212 -26.624401366488197
-54.968713277944616 -13.832947942123765 12.716477714333958 -19.901623951491576 24.29534528253537 -10.66236504690031 13.250187692586968 -44.0459801978039
-32.017247962703955 11.695378222381008 -1.5385306571367854 16.63209619167778 4.117881418747203 3.110035414181084 26.65291705846344 30.410444579352607
-12.141062195976597 -23.57429494826808 2.0575890562567696 1.7356920561744211 12.724641856083553 -5.177278518477822 -4.644348154496649 -3.5560268033919478
00000000: 49a5 9a79 b11a 2b40 58f3 df8c add7 39c0
00000010: 04f0 b51c 4753 34c0 291f 9950 d134 f9bf
00000020: 1d65 def4 131f 2140 ede9 ddd7 2aff 08c0
00000030: 7513 cf1d 50b9 2bc0 2fbc 1c04 8869 0bc0
00000040: 44bc 6170 f2f8 f43f 8084 c94d 26ff 1240
00000050: e6d1 6468 4848 1e40 447d 2d97 586d 2ec0
00000060: 6278 ab61 3c4e 2fc0 cc95 03fd 689f 3040
00000070: 1222 d28e 5dc1 3740 2568 1a29 06b3 3040
00000080: 95c1 acdb 0b3a 2b40 ccf7 d13c c707 13c0
00000090: dc85 c614 bc00 1840 6888 acdb 8d97 23c0
000000a0: 80a5 2c19 dff5 2d40 5883 303e d7d5 00c0
000000b0: 9c97 a53c 162c 28c0 3dd6 4947 401d 41c0
000000c0: 9bf8 4e61 2b33 3f40 9872 8665 e1da 00c0
000000d0: 0042 4207 6c17 20c0 6696 4540 26cb 16c0
000000e0: c230 69c5 ca7f 18c0 2b05 ab5d 231b 3540
000000f0: 56cc 5e33 1f3a 0840 a8a9 6ef3 dde4 15c0
00000100: 6020 760d 01b6 3c40 73bb 986d 52cf 2cc0
00000110: 479c ee66 9419 3fc0 970a 3c83 712d 20c0
00000120: 803a 23b8 594b 20c0 542c d5e3 2ee9 2640
00000130: 19e0 1da7 3033 38c0 e480 11a5 373f 3ac0
00000140: 09f8 8daf d49f 36c0 6091 4e49 b98c 3240
00000150: 827a ef03 b898 1b40 51e2 a051 91cd 24c0
00000160: 70c8 9826 031e 2a40 53e2 941c 3d0f 0dc0
00000170: 4fd5 667f a34d 09c0 b84f 0fa1 ab5b 2940
00000180: 63a1 18c0 6ef6 3d40 439b 0faf 6b12 2f40
00000190: 1d2b b0cc 775d fa3f 443a 3855 ca00 13c0
000001a0: b1fc e640 190c 3140 6b5b f5d7 3a23 40c0
000001b0: 9eee 48f9 0302 40c0 cc2e e4d1 7069 1d40
000001c0: 1aa6 c7e7 1e62 1340 6204 5cd0 4732 3140
000001d0: f60b 4974 0a08 19c0 982d e4e6 cce0 34c0
000001e0: 564a 4481 5e84 e5bf b936 1df2 6548 f73f
000001f0: 0979 452c 1edc ec3f 356e d5ba 154f 3cc0
00000200: ece7 850d 00f2 12c0 4c01 f448 94a3 31c0
00000210: c58c 00a3 00ce ffbf 957f a4d4 e83d 2140
00000220: d5da d159 6d24 37c0 5e93 4cf8 cd43 de3f
00000230: 7055 dc5e 8125 4a40 708d e8c6 78ab 2840
00000240: a5a8 019a 2f00 02c0 fe75 65e9 56e6 21c0
00000250: 2682 f375 8c16 1f40 61bc f03e e158 38c0
00000260: 057c c1c4 4e1c 3340 0b0c 11d3 199c 04c0
00000270: 2d6b 4fdc 3478 37c0 8229 1974 16cb 1040
00000280: e120 8699 90f3 03c0 f1fa be20 880d 35c0
00000290: ba1c 475d 6351 15c0 7ca6 ae66 4f3c 06c0
000002a0: b415 1168 87b7 28c0 6ed3 b02f c783 2840
000002b0: 5514 4b9c 7259 2840 ffb0 11d3 9746 0b40
000002c0: d9ca 58dc 869a 08c0 e12a 954c 0ff4 3140
000002d0: d0d2 176c 671b 11c0 5c57 a251 732f 33c0
000002e0: 66b7 5ae0 2ae4 2540 be04 c29c d8e9 27c0
000002f0: befe 7143 86df 1540 69d1 b30c b685 3dc0
00000300: a6b7 b2f8 d377 3340 49e4 9644 cdbe 28c0
00000310: 44a4 48f9 5a5f 2dc0 128f 5cd6 5972 35c0
00000320: 75c0 0fe1 d743 4b40 3974 e821 13d7 4240
00000330: 2a6a 50cc 1cf2 1dc0 e614 4247 3ca5 1e40
00000340: bcf8 be84 3251 25c0 7a08 89a1 c7be 23c0
00000350: 3c7c 8ab3 411f 2ac0 588e 8ed2 eaa4 2dc0
00000360: e6b9 e559 7cf4 3140 898b c2dc 25c8 33c0
00000370: 6005 11fd d9f5 2840 da33 6ec5 d3a6 11c0
00000380: 8254 b38b 740f 14c0 eb54 e682 d7df 07c0
00000390: 51c4 4862 99d6 0ec0 c3be dd22 4585 2240
000003a0: 6464 3747 e788 07c0 193a 054d ea00 4440
000003b0: 2e39 1ca7 d740 3640 8d2d 1528 d859 2240
000003c0: 1a42 e9a7 2559 16c0 30a3 aa8b 3889 32c0
000003d0: 0d8a 541c 6fd4 2e40 f8c5 28fb 58ec 3940
000003e0: 649c 63f4 8369 06c0 6b81 0c42 2997 2dc0
000003f0: a0b7 ebb0 bd1b 00c0 b8ba 22d3 2ef5 3040
00000400: dc24 7083 2a91 1a40 be98 fba4 73cf 2440
00000410: 5cd7 b5e6 4006 2fc0 246e 4adb 8ea0 0340
00000420: dcec 8d98 5c19 1140 9705 c332 7a16 0bc0
00000430: 1c00 31ab 68e6 15c0 f74f a2dc d63f 3c40
00000440: 12fc e4b1 8ae3 2740 f6b6 78c0 d260 2540
00000450: 1267 524c 4107 41c0 59ac c66c 82a2 2f40
00000460: 5fe7 4024 3920 f43f c383 1edd ec2a 33c0
00000470: 8442 71aa c893 3cc0 88c6 930d f8e2 2b40
00000480: 27c4 096e 4c90 3340 ffb7 017a 79d0 27c0
00000490: e59b c2b1 e2af 26c0 6a92 81c6 3a14 38c0
000004a0: 15fe 4e91 0807 2a40 ff10 9d43 30f8 0a40
000004b0: c9f3 2714 80ae 33c0 29c8 f9b7 0d16 2ac0
000004c0: c9a0 d447 dee9 02c0 de0e 7ce8 db73 2c40
000004d0: 6e0b 3db9 e08a 1ac0 05c9 75ea 53f6 3e40
000004e0: e79d 5c7e 58f9 0ec0 9c42 d1d1 7a64 0140
000004f0: bb06 6118 b0a0 07c0 5e3a 4465 b417 1a40
00000500: 7985 4746 f90c f2bf ee0d b04c 7d15 1240
00000510: 2bfe a900 2db7 23c0 9696 7c47 2d96 17c0
00000520: ba49 581f 6f6d 4bc0 52ef ea49 45b8 a4bf
00000530: 3187 4d91 abe5 4240 316b 66ce 625b 3040
00000540: 7c32 1b8e e72e 2840 58c9 a698 b4af 0bc0
00000550: f9c4 4fb7 9e1b 3040 6459 2b41 9e9e 3d40
00000560: a4fd 95aa 9db3 1ec0 8c90 8fbc 1ecf 2b40
00000570: 8ca3 77fb 5226 1140 63a3 1a86 ad19 27c0
00000580: 30a9 3d67 4a5c 37c0 b90d 691d b6ec 0bc0
00000590: e751 76fd 7924 3340 e169 5161 42f7 37c0
000005a0: b8a8 d43e 86f0 1240 851f 944f ddc4 2c40
000005b0: e58b c20e c16e 24c0 99c6 8170 3629 03c0
000005c0: 073b 1883 baad e33f 6e78 1e43 f511 15c0
000005d0: f63b cebe 8540 0bc0 be45 1d30 2773 1d40
000005e0: ddbd 99af 970a 3640 1a14 fd3d d09a 11c0
000005f0: e23e 5ba6 9bc6 3540 cad3 f0bd a0d1 44c0
00000600: 29ed 8d2b c7a0 32c0 206a ff84 7cd2 c4bf
00000610: 3b94 cff0 ec1c 0840 15a7 5ee5 0901 28c0
00000620: 7105 d3ff eb93 3d40 10d0 33ef c1f6 3740
00000630: 16d4 6dad 1073 3bc0 77a4 d2c6 2e81 35c0
00000640: 27be a357 54f8 3440 d5c8 a054 8629 2f40
00000650: 787d 1f9a 0ec1 e53f 9bd4 06dc edb5 2e40
00000660: 33aa c8a5 f97b 26c0 3d54 eff6 bb33 3340
00000670: e0c5 9911 397c 1bc0 683a cb28 aed0 2a40
00000680: e104 b46c ed4d 2540 472b 4eca 7d4c dd3f
00000690: 36a2 6b38 301f 00c0 2d12 10b8 523c 3540
000006a0: 386d 5c9e d8d4 23c0 088c efeb 3597 33c0
000006b0: dacb a998 0dd0 4540 e54a 2071 d297 2140
000006c0: 8b89 2e86 f3be 22c0 93d6 afec 5947 2940
000006d0: 3bf5 5be6 c3b8 3540 25de 5c27 8b68 3340
000006e0: 385a 1773 89ad 1e40 163e 9ab6 c138 26c0
000006f0: 507f cd1f 1186 4040 3c6e 3bd4 1c23 12c0
00000700: 4379 d561 ff61 2b40 b13f 2c73 0c58 3440
00000710: febd 5549 fb5e 4240 e663 a852 7e49 33c0
00000720: c440 61cc 0c6c 37c0 248a e26d df08 30c0
00000730: 68cd 3415 4e0e 2740 ffa4 98c4 d89f 3ac0
00000740: 8efc f3cb fe7b 4bc0 5762 1527 78aa 2bc0
00000750: 1ec1 be2a d66e 2940 55f2 c8d3 d0e6 33c0
00000760: 6d84 99bf 9b4b 3840 93e6 ec82 2153 25c0
00000770: a30b eb99 1880 2a40 6aea daad e205 46c0
00000780: 39de 652e 3502 40c0 3ff4 469d 0864 2740
00000790: efbb 8452 d29d f8bf a52e 570e d1a1 3040
000007a0: 204d 19e8 b578 1040 007a 4a3f 5ae1 0840
000007b0: db19 8592 25a7 3a40 d223 5de5 1269 3e40
000007c0: c5d7 dc4d 3948 28c0 c511 65fe 0493 37c0
000007d0: b7d7 4940 f175 0040 5d23 9308 65c5 fb3f
000007e0: 1962 e241 0473 2940 1295 fc7f 88b5 14c0
000007f0: 4a34 ab00 d093 12c0 8824 422e be72 0cc0

transformer_encoder.layers.0.self_attn.qlinear.weight f8 [32, 32]
-1.118911020278069 -1.16129676786071 10.134407408718792 19.25144577151688 2.1680954643662913 30.485173464333318 -19.367098639695538 -8.641972908411075
1.6095997825892538 5.722717902246467 1.8683091998829082 18.07334607714771 -40.83038048670448 10.597547450318173 16.494281538043026 6.170640404566324
1.0942040957172847 -2.5014268515654234 -4.597434868555235 54.634877358940784 -11.135293460464098 -13.17890811672824 23.69189752314209 -10.560568064679012
-12.41571924543409 -13.50553416764846 -8.608546584565918 30.244884391149768 8.911392333423859 30.48750861888881 -4.673533520757502 14.62367018367441
8.518739053450611 6.334314801298667 -5.674018455588648 11.809590584106273 21.22806022790489 50.63427688212193 -14.368647011860226 -16.28741548828685
18.34822371350196 -19.396303935767197 -6.6959400465892145 24.212198760897376 -8.293357426224011 -5.788027487942104 -18.33071959895594 -8.333025168443738
-5.537102521355001 -15.334076864324645 -5.2158445659147965 -12.000898194408215 -29.212515296641328 6.1810364903696104 -7.606345145113147 -0.7536894631308964
4.1859273635772 0.8535794253506621 -17.755787327798423 -10.806662589288672 9.574242453945566 24.11716743807863 15.24828923245254 -4.1715447899095395
-12.721735808043933 -22.4758848990169 16.24434152052718 -13.62079441780712 6.8891360317282615 -10.642111303341167 -16.42424508498864 9.729230388681756
7.453586855177647 3.6374714727825985 -51.48232333946346 -8.980070744724385 -16.260054652761777 -21.744446787925252 -4.92878836266131 -1.2915721538645226
7.925601515620187 9.121558476811211 -16.348565783888873 20.023213041930727 -6.238075779990504 -4.323684571633711 3.3262689073720844 -16.130368534324443
-15.466441798354948 27.410453455448938 7.2266136355706525 20.377988487426162 11.533105920506985 17.507785479629614 15.196567233082328 12.43727977260253
2.039910656406235 7.168410081835303 -25.75690697889031 -19.86258325194532 -4.998732911924632 4.245740708255973 -2.5305265908467462 17.84021561844421
-22.81881520817234 -5.490785008342762 -20.48830493612841 -25.02691662461409 -13.620956048898353 -20.607939800377146 -4.449817152119252 6.541622405224331
18.28609939398665 14.11239814907694 -14.985197837769062 9.059015701636639 5.676737903219827 -0.7284625872593518 -1.8229397469401292 45.91307973700064
18.990045214120947 -3.790502754039664 13.224856098291184 15.935077424221811 7.507522623562277 -16.80552849641182 15.342520459740273 28.21401956628163
19.114560709689332 11.332288060839723 -4.934168644822023 6.69285171676813 -19.236529652324325 -20.117965813319156 19.698826125185455 5.270020097041307
-12.619820774655626 21.984582192752676 3.6484829454465943 -27.981280497608008 -18.43442855427441 7.096251700449381 10.815224198847279 4.321164735924301
12.596911816811756 -4.100263322871568 17.560572621578324 -12.326219207850963 18.675270910247406 -20.344065426467864 10.361652661042022 -33.26467980043338
-10.16244766749128 -2.16521098766846 34.83936615078266 13.65533583873024 19.931231665216234 -14.973408302156699 6.302906820452423 6.6280180142189415
-19.27483730081703 1.504277348931291 -0.05236478640505781 1.4780990867924917 -15.152752451104078 -12.854740677945742 8.543961807093117 -30.44144028590997
-22.99406471803446 1.73179483625706 1.5595622424817397 -29.286763432182635 -11.694835595475613 11.877505362169389 -33.99439365041795 -10.809224537826625
-35.186810312848166 -0.8746766291711457 -1.2909251354485176 -10.225815586987746 -22.042866118859354 -18.70442513539677 -23.907055755568692 18.377568877543354
20.32652528801897 35.028620907885816 -38.79488543918621 -6.036257573867552 28.58588463764639 8.554016815242866 53.146738498977534 33.0071292476592
15.027461518314306 -37.50429309756463 -3.9860694290403638 13.523765890123688 4.194384154492912 -8.99756913037954 3.913606105435939 12.169245463206531
-4.517131645906019 -10.02994144845011 -0.7036292816052376 -9.919693744572216 -7.896204991987133 2.800458214415269 18.146106525905196 -14.598877862032403
-15.772582839280474 -16.138089513554178 -17.50384866912141 -3.2914334743219267 -32.522456609556095 -32.971831375362505 49.37799792316885 7.555794008058593
-0.06969707810635715 33.473574975885526 -10.575706758162557 18.553524029143812 -3.891258114148596 -12.582720259169522 -23.077697117811095 19.484068507449315
12.128123569507988 17.357473832682732 16.743483489300914 -0.6534602803018141 4.141048076940452 6.901319834849984 6.5845490445051595 1.6912327737622501
4.053292640895936 -0.09378932216086017 3.851021217622809 -7.74862585462798 -0.09810822416520343 16.85188973774074 7.723253579915761 -2.3452937721310025
8.17300898141651 -6.621183210964384 -1.0971350462731744 9.942271262852996 -7.680005657821148 -7.971141899398557 -11.984375390114472 -20.7006981268029
-0.3298147516190333 15.716420789704845 18.63446163048119 -0.523368627517378 3.127965465426261 11.079151404947169 -13.20680277757694 12.470272403379083
00000000: 1da7 f33d 0fe7 f1bf 9798 6eeb ab94 f2bf
00000010: 1b93 410c d144 2440 eb61 05c0 5e40 3340
00000020: 2679 506f 4258 0140 d932 0254 347c 3e40
00000030: ffe5 2b2d fa5d 33c0 4f16 4dac b048 21c0
00000040: b3e9 9db3 ebc0 f93f 7a87 6929 10e4 1640
00000050: 1f02 0530 98e4 fd3f aaa3 face c612 3240
00000060: efd0 64e8 496a 44c0 77d9 49bd f131 2540
00000070: 50e9 203c 897e 3040 4cf4 b35b bcae 1840
00000080: 7214 6427 dc81 f13f 597a c614 ec02 04c0
00000090: 3abd 57f7 c563 12c0 8ecf 4aa9 4351 4b40
000000a0: a81c 382f 4545 26c0 69ac 3cd8 995b 2ac0
000000b0: 2414 3232 20b1 3740 edf4 01c7 021f 25c0
000000c0: 18ea 2627 d9d4 28c0 161f da5f d502 2bc0
000000d0: 329b fd6a 9337 21c0 044a 53be b03e 3e40
000000e0: dec2 1304 a2d2 2140 44a5 665d cd7c 3e40
000000f0: 20a7 71c5 b2b1 12c0 6abe c4b2 513f 2d40
00000100: ed74 4b2a 9809 2140 0896 889e 5656 1940
00000110: 5c9d dee4 31b2 16c0 9fc5 33a8 829e 2740
00000120: ac5e b427 623a 3540 49a9 20fc 2f51 4940
00000130: 646a 174d bfbc 2cc0 4f8e ba0f 9449 30c0
00000140: be2e 7530 2559 3240 6d65 bb2c 7465 33c0
00000150: 404f f081 a4c8 1ac0 534e 72a8 5236 3840
00000160: 7b57 cff1 3296 20c0 d23d 84ad f026 17c0
00000170: 79a9 250a aa54 32c0 e76b 5e46 82aa 20c0
00000180: 8646 0f34 fe25 16c0 c93f 6d1f 0cab 2ec0
00000190: 547e 9e5b 06dd 14c0 ac37 67ba 7500 28c0
000001a0: 68f9 0867 6736 3dc0 9414 36a1 61b9 1840
000001b0: ba65 e1bd e56c 1ec0 7c95 6f5d 391e e8bf
000001c0: 78fb 27be 63be 1040 186d 8dcc 8550 eb3f
000001d0: 1ea0 3f47 7bc1 31c0 95cd ffe0 029d 25c0
000001e0: 8c57 5f1b 0326 2340 2eb4 6aaf fe1d 3840
000001f0: 4baa 2ac4 1f7f 2e40 b8d7 f96f a9af 10c0
00000200: 39cd 175b 8771 29c0 17f0 bd97 d379 36c0
00000210: 1ab8 772a 8d3e 3040 b90a 14c4 d83d 2bc0
00000220: 56df 07ad 798e 1b40 087c 10d0 c248 25c0
00000230: d483 6d53 9b6c 30c0 6846 7daf 5d75 2340
00000240: b088 9312 79d0 1d40 acdf bda4 8a19 0d40
00000250: ea8b 6cc5 bcbd 49c0 17b7 28d5 cbf5 21c0
00000260: d3c8 14f1 9242 30c0 4fc0 8f10 94be 35c0
00000270: 9224 ea4b 14b7 13c0 c55b 1490 47aa f4bf
00000280: f0dd 3ae2 d0b3 1f40 55e9 a4e9 3c3e 2240
00000290: ac4e 729b 3b59 30c0 e3ee 374a f105 3440
000002a0: 9a1d 2423 caf3 18c0 d68b e5f7 734b 11c0
000002b0: 05eb 76df 329c 0a40 d759 0fd5 5f21 30c0
000002c0: 07d8 9a75 d1ee 2ec0 f2ae 477a 1369 3b40
000002d0: 1a6a a667 0de8 1c40 87c2 7fda c360 3440
000002e0: 51c3 5b42 f310 2740 9364 ac3a fe81 3140
000002f0: 8d1b db75 a464 2e40 740f 6522 e3df 2840
00000300: a036 a0ad bc51 0040 7e32 47b1 73ac 1c40
00000310: b372 e0a7 c4c1 39c0 b72e 8941 d2dc 33c0
00000320: de9e 28d7 b3fe 13c0 6805 c573 a3fb 1040
00000330: ddc2 aab9 843e 04c0 69ce ea5e 18d7 3140
00000340: 5091 9cdf 9dd1 36c0 08cc 6058 90f6 15c0
00000350: 9b25 638d 017d 34c0 ac6f 0602 e406 39c0
00000360: 2a8b 84f3 ed3d 2bc0 7e8e 58f1 a19b 34c0
00000370: d020 16de 9ccc 11c0 a0e0 5410 9f2a 1a40
00000380: fd93 54cf 3d49 3240 31d5 0c40 8c39 2c40
00000390: b79d dad9 6bf8 2dc0 b0f5 584e 371e 2240
000003a0: cc2b e9c7 fab4 1640 486e 94c5 904f e7bf
000003b0: 60fb 3ade c22a fdbf 6e87 fccb dff4 4640
000003c0: f635 689a 73fd 3240 7ffc 9f1b f352 0ec0
000003d0: 00ef a856 2073 2a40 6d85 d877 c2de 2f40
000003e0: 6cb8 b802 b407 1e40 b715 941d 37ce 30c0
000003f0: 3997 79d7 5eaf 2e40 3be2 7dfc c936 3c40
00000400: b185 c5d9 531d 3340 d450 24a9 21aa 2640
00000410: 40d6 89b4 96bc 13c0 7efc a1eb 7ac5 1a40
00000420: 6944 1135 8d3c 33c0 7740 ee01 331e 34c0
00000430: 0e43 d944 e6b2 3340 7c38 f825 8014 1540
00000440: fa0d 0926 593d 29c0 c218 1e94 0dfc 3540
00000450: aea7 95d3 1730 0d40 d36d dd32 35fb 3bc0
00000460: a20e b1b5 366f 32c0 3a75 46ce 8f62 1c40
00000470: eae9 f110 65a1 2540 82b1 9568 df48 1140
00000480: d99a f76c 9e31 2940 fee2 b26d ab66 10c0
00000490: 3eb6 f4af 818f 3140 0518 3a34 06a7 28c0
000004a0: e873 eb8d deac 3240 205d faab 1458 34c0
000004b0: ac5f 9f89 2ab9 2440 f762 1707 e1a1 40c0
000004c0: 815f 3657 2c53 24c0 a2ce 6723 5a52 01c0
000004d0: 8f7d 9b59 706b 4140 797c d62d 884f 2b40
000004e0: 751a cb32 65ee 3340 f8d5 ae92 62f2 2dc0
000004f0: 6250 9e34 2d36 1940 147a 8127 1783 1a40
00000500: e5ba c2bc 5b46 33c0 2860 1c20 8511 f83f
00000510: 3fbc 24aa 8ecf aabf e856 603a 4ba6 f73f
00000520: 70c0 bb91 354e 2ec0 f8ac f491 a0b5 29c0
00000530: db79 7729 8216 2140 c61e 073b 0271 3ec0
00000540: c210 7e06 7bfe 36c0 25b1 9180 6eb5 fb3f
00000550: 6291 b889 f7f3 f83f c3e9 0a54 6949 3dc0
00000560: 3254 bd7d c163 27c0 112a 0162 48c1 2740
00000570: 94f2 874a 48ff 40c0 112c baad 529e 25c0
00000580: 841e 7c66 e997 41c0 ebb2 9bd7 59fd ebbf
00000590: 3f5f 651d a1a7 f4bf 2e14 c219 9e73 24c0
000005a0: 7d9b 2246 f90a 36c0 6f02 a734 55b4 32c0
000005b0: ecd0 55ce 34e8 37c0 4009 9d5a a860 3240
000005c0: c45b 4929 9753 3440 fbac 93d9 a983 4140
000005d0: 89af 5ace be65 43c0 48f9 97b4 2025 18c0
000005e0: 89eb 1d89 fc95 3c40 ebcd 8d17 a81b 2140
000005f0: 1916 bf53 c892 4a40 4bc5 769c e980 4040
00000600: ed1d a66f 0f0e 2e40 bed1 1cad 8cc0 42c0
00000610: 9282 6a5e 78e3 0fc0 e2ae f10a 2b0c 2b40
00000620: 74a1 c9a3 0cc7 1040 65f5 8c61 c1fe 21c0
00000630: b02f c2b7 104f 0f40 d5ef 6257 a756 2840
00000640: 7092 4bf5 8a11 12c0 b4c6 4b7c 540f 24c0
00000650: 3c14 208e 2184 e6bf 018c 3619 e2d6 23c0
00000660: 0063 ecc2 b695 1fc0 39d3 e5a2 5667 0640
00000670: b87e be3c 6725 3240 8474 7f1e a032 2dc0
00000680: 2852 58fa 8f8b 2fc0 c0a2 98d5 5923 30c0
00000690: 7402 f439 fc80 31c0 ef60 c912 db54 0ac0
000006a0: adcf b1db df42 40c0 4f34 73f8 647c 40c0
000006b0: aafb 663c 62b0 4840 9ab2 7f10 2239 1e40
000006c0: a7f3 17ef aad7 b1bf f0d0 d41a 9ebc 4040
000006d0: eac9 4409 c326 25c0 0bb9 32c0 b38d 3240
000006e0: ba80 24ef 4b21 0fc0 11b3 4f4f 5a2a 29c0
000006f0: fbfd 53f5 e313 37c0 b284 e8e9 eb7b 3340
00000700: 66c4 9969 9941 2840 518c b467 835b 3140
00000710: d4a9 17ef 54be 3040 7c33 a488 25e9 e4bf
00000720: e27d 36e8 6e90 1040 ceaa 3796 f39a 1b40
00000730: 183b 5406 9456 1a40 38b7 d318 4a0f fb3f
00000740: e40f 9758 9236 1040 5418 65b7 9302 b8bf
00000750: f222 4f36 e4ce 0e40 d644 aac6 97fe 1ec0
00000760: 7418 42de 9e1d b9bf fe64 2372 15da 3040
00000770: fecf 2196 9ce4 1e40 6485 9661 29c3 02c0
00000780: 4532 1aa2 9458 2040 4aaa 9f73 177c 1ac0
00000790: a49e 707a dd8d f1bf 17d4 0361 71e2 2340
000007a0: 48bf 3567 53b8 1ec0 bcc4 a605 73e2 1fc0
000007b0: cc0e 170d 00f8 27c0 a7fc d2f3 60b3 34c0
000007c0: 8c4b fc54 af1b d5bf e2e9 abb4 ce6e 2f40
000007d0: ca7b d113 6ca2 3240 bf10 5e90 6fbf e0bf
000007e0: 892f 08c2 1206 0940 705c 6f88 8628 2640
000007f0: 70d4 bc0d e269 2ac0 ef72 618b c7f0 2840

transformer_encoder.layers.0.self_attn.qlinear.bias f8 [32]
13.82794011829992 2.0549700489379172 26.988611334958534 -36.90244487022186 -0.6852456031218931 11.709796899769342 7.231952634626449 17.082780916134677
-0.2731637330162133 17.935049927303993 1.7216211190684212 -3.0818355758260014 -3.8366578086818373 -12.769930159982477 15.37483300557608 -15.01576762750618
1.0270534333334398 12.415243221695652 -22.31642905160504 25.98333436163209 -17.989446654224412 1.6045630732584544 11.199536731884669 0.5164401421536302
3.7230481770863633 -17.616393863907657 -17.62175371488631 9.636296987055836 7.6036491095091385 14.581191696753528 -3.159834948987215 25.659294701838117
00000000: 004a 66c4 e7a7 2b40 3f95 1323 9470 0040
00000010: 101a e8a1 15fd 3a40 df05 4250 8373 42c0
00000020: c95c e42f 88ed e5bf 7f9f ce7f 6a6b 2740
00000030: 3cc4 cffd 84ed 1c40 0788 4f21 3115 3140
00000040: 9f81 f0bc 837b d1bf d8e5 996e 5fef 3140
00000050: 5607 2896 c28b fb3f 7793 0e69 99a7 08c0
00000060: 25da 31a6 79b1 0ec0 57a8 3249 348a 29c0
00000070: 41d2 981c eabf 2e40 f9f2 c8b1 1208 2ec0
00000080: 1496 b694 cf6e f03f 1323 72c2 9ad4 2840
00000090: e025 8c7e 0151 36c0 2c3e fccc bbfb 3940
000000a0: cd07 3d60 4cfd 31c0 a13a 4054 4aac f93f
000000b0: 3b97 b3ad 2966 2640 9e86 1c7a ad86 e03f
000000c0: 9325 907b cdc8 0d40 3ff0 fefc cb9d 31c0
000000d0: 6c9a 5f40 2b9f 31c0 74e5 fbb7 c845 2340
000000e0: b467 fefd 226a 1e40 bc86 44f5 9129 2d40
000000f0: 6a43 b58b 5747 09c0 1fd2 9e89 c7a8 3940

transformer_encoder.layers.0.self_attn.klinear.weight f8 [32, 32]
-0.4560199135954339 14.520513056858515 -4.93911765024847 29.269423126855987 20.75979982937428 22.332135658473035 6.8956792340450175 27.503317375568106
1.1745317672731526 -8.97010134583308 6.094227555233044 25.967779475587353 -10.382336491680611 -4.169142230838917 -7.928278941158837 21.733209343548214
-38.406031451008445 -5.249082896720916 -27.26855835776797 -17.137822979290426 3.6916244853034668 -0.49338431463416904 -31.954940703330784 5.832343327962338
15.379623434000449 6.274343749909336 4.001037217673181 -40.85385897239573 16.000654843651684 -33.7794087626091 -3.4610596637913407 16.133132308283763
4.902208713092827 3.5835297427582433 12.195539860266921 -0.4137068862611595 -24.991593368889845 -16.253472895112502 -9.706658968991643 -1.51419557116063
8.533162257028378 -25.88887933051954 24.906984976996053 -8.10081522779112 12.627364594136104 -8.660143200004837 -20.716781828032307 7.528130281353912
-14.71984334880224 -14.580028249857904 12.875097031357091 19.20955343755287 -12.892860117835514 3.8825820772382653 -17.69345625204824 -0.45930457354342874
-14.034379693687285 12.447190682799404 -2.415980679923507 3.829833441293138 -5.786097323375653 -13.008507295400255 -8.599732492818502 14.093585861186282
23.09259075524146 -9.14895976501701 19.84731602658229 8.99191663946175 17.83110884724501 16.092839366184364 -14.05686846187933 7.868765648237039
-5.95120773833362 -23.956037361857835 -17.036226451141026 -20.695671985516224 -2.5688298343612628 -7.144715378857091 -22.83085737307411 3.4437916897302423
-9.586080878333494 13.273189085255408 -22.705126497384352 14.395534429620723 -14.446297591278896 -13.406092257977265 9.133232090055476 5.2017454801302545
2.3119615313674284 -17.101825029356288 19.76758905913315 -18.269722423925543 0.5655244226417987 7.5228188081852725 -2.099217081663977 13.33898612387981
16.411046134604884 -20.359086263978107 26.960802607034562 -33.82536700063423 25.51472877339004 6.502521601065835 -2.5625732019214174 37.55688139422648
2.738071682076592 1.3478183761473317 0.05877771869830271 -2.862953715505938 34.28112928711792 10.604537453899384 9.744621885167039 9.300214626942928
-10.070584537497291 -21.926272563213455 -39.362145463426096 -5.46864721009549 24.03515855025853 -35.101382578604984 -7.514978410593001 13.23691801606605
-16.42286309962707 -4.529537280435024 -3.291171868346014 -28.196468782063977 16.49099951865258 12.1136885527015 -14.520403865545275 3.626437997094684
3.4430039315779446 -5.19343733744137 -2.6597467958208267 11.280175074811153 -2.515854092155646 -8.920534701000317 -6.78091464975363 1.1887950260855238
4.993406855470786 13.229789942550152 8.189541465968384 -17.565579472724515 -5.591000700562141 10.036060199412901 9.709491051931648 -4.956787552021135
-8.966663574105958 12.294609607847258 19.587559860608156 -0.3229595142930607 -5.5010505573085045 19.5556162545875 32.63459412896212 -11.414463921373759
-5.469655340731874 8.041205082862719 -2.703460404389517 -0.37027908150472005 2.590721184046336 9.071193401144662 -4.505299581377518 1.854457451460225
3.747020231139728 -3.3198781854916155 20.657260591113285 16.381819810618968 11.957492484577958 28.425650932456325 17.83753955004953 -27.68791544489905
-16.291636452927555 27.93158416096582 -14.677854480252698 12.913988120983655 14.738400712095135 7.16482903290634 15.458070643898637 12.093236076243473
-14.988937190165252 -17.06153071450087 10.53436084210565 -30.61292353118817 3.9617174713716623 -1.9913906917935207 1.2577458680033793 -14.40811708463909
2.8669915834531574 2.2701450230101083 -11.446720076378316 18.310108861680966 -43.434220134035925 -9.011135641388012 18.774786712789364 1.0725597079447622
-9.778069437586892 -8.28165262808317 -4.989259284858475 -5.033032283829979 14.008803955685348 -7.331164170271929 -11.493904252084825 4.971420666259693
3.2672011695072998 -12.133896957634356 -54.00513445695742 -8.623033027078042 -28.563312254893226 7.970779374905774 15.84648590269231 13.593047676922835
-0.10832919914668751 -14.700228256768822 -47.62473108303791 17.080641744023023 7.295732970084103 -13.56585061892404 18.097532788596006 -15.353357152060392
6.994543113253648 1.052822767000171 13.091176356706272 -10.75532522929633 1.0563605400238139 -15.834990095589918 -16.843445633820323 4.605163475764353
-1.3584259555565823 14.658941930009233 6.231598809121758 7.364195602366786 -12.345327754208945 -3.7336092704911232 7.298588360536083 17.18700627508697
-14.321618896638146 13.62400216883898 -18.03194844075818 9.598954413046172 -5.572402481945604 17.697571233594434 13.5519782039361 22.149089036351242
5.345522693736738 2.5184955755159777 -11.978409203298108 22.719906548378475 -1.9805306292013967 -3.736169687355145 -15.6581497810599 -7.513271275914805
-18.533897579646762 -6.485520709741529 -8.17353075503744 3.1563274314058805 -9.156867215612035 -5.204022584762516 1.6768525524883302 4.166324364821406
00000000: 88e5 cd25 6e2f ddbf 56b2 f8af 800a 2d40
00000010: 78a7 ab0e a8c1 13c0 eda1 fee9 f844 3d40
00000020: 3eab da3d 82c2 3440 24fa aed7 0655 3640
00000030: feb7 e7ef 2c95 1b40 d592 5368 d980 3b40
00000040: 04d2 88d2 e1ca f23f 3c51 a41f b1f0 21c0
00000050: 8c6e 3030 7d60 1840 4163 4d65 c0f7 3940
00000060: d4ab cf9b c1c3 24c0 724d f79e 33ad 10c0
00000070: f05e 37c1 8eb6 1fc0 45a9 879b b3bb 3540
00000080: 469d add6 f833 43c0 1aa3 3d96 0fff 14c0
00000090: 4fae 933d c044 3bc0 8eb0 e45d 4823 31c0
000000a0: 06ee 0b6b 7288 0d40 eda3 edcd 9b93 dfbf
000000b0: ca6c 72fe 76f4 3fc0 7491 32cf 5154 1740
000000c0: 7fa7 b300 5ec2 2e40 f2e3 6691 ed18 1940
000000d0: caf0 7fe6 0f01 1040 fcea 3440 4b6d 44c0
000000e0: 6711 74ea 2a00 3040 9bcf 94aa c3e3 40c0
000000f0: 94e8 8b0c 40b0 0bc0 a81e 7ef5 1422 3040
00000100: 8a99 d399 dc9b 1340 9d1e 4ba4 11ab 0c40
00000110: 59d2 f1cc 1d64 2840 78c9 a772 2c7a dabf
00000120: f64f 2210 d9fd 38c0 3eee 8299 e340 30c0
00000130: 067d 5234 cf69 23c0 8d20 9e22 253a f8bf
00000140: ffcb b2a4 fa10 2140 fbab 8698 8de3 39c0
00000150: 4f29 de2a 30e8 3840 729a b40d 9e33 20c0
00000160: 3cf7 9cee 3541 2940 2765 1d4a fe51 21c0
00000170: 0fc4 8d03 7fb7 34c0 f2c4 392f ce1c 1e40
00000180: 8eb2 b24e 8f70 2dc0 a8ca 7776 f928 2dc0
00000190: c302 d5b7 0cc0 2940 d00d 494b a535 3340
000001a0: 3203 1cf6 24c9 29c0 5931 2e31 870f 0f40
000001b0: 01c1 5359 86b1 31c0 996c 9102 3f65 ddbf
000001c0: 1811 1837 9a11 2cc0 1166 5b2d f6e4 2840
000001d0: 8050 c0ad ed53 03c0 6cd9 1bb7 7fa3 0e40
000001e0: 7c7c 5db2 f624 17c0 030b 7711 5b04 2ac0
000001f0: 0f02 2623 1033 21c0 7f53 6a7c ea2f 2c40
00000200: 8cac 1907 b417 3740 f755 4e74 444c 22c0
00000210: 308c ffb3 e9d8 3340 60b1 6d7f dcfb 2140
00000220: 6555 a68c c3d4 3140 108b 1952 c417 3040
00000230: 1ee4 efdc 1d1d 2cc0 ea43 bcb3 9d79 1f40
00000240: 4e61 bf66 09ce 17c0 fbee 52dd bef4 37c0
00000250: 9ee6 fe22 4609 31c0 1b89 2a8f 17b2 34c0
00000260: d690 fca7 f68c 04c0 86ad ad44 3094 1cc0
00000270: 68fe 9c11 b3d4 36c0 1506 4da8 e28c 0b40
00000280: b281 faca 122c 23c0 9f97 9570 df8b 2a40
00000290: 0fcf 8d2b 83b4 36c0 7753 1f7d 83ca 2c40
000002a0: 22a7 2d1e 81e4 2cc0 a157 0e53 ebcf 2ac0
000002b0: ca21 1bff 3644 2240 de19 fd5d 96ce 1440
000002c0: 5caa f6af e57e 0240 dfff 8234 111a 31c0
000002d0: 8abe 71b7 80c4 3340 10c2 5d87 0c45 32c0
000002e0: efbe 8aac c618 e23f ca8e 4bd0 5d17 1e40
000002f0: 599c 4753 32cb 00c0 22b9 d796 8fad 2a40
00000300: 7346 c951 3a69 3040 923a d013 ed5b 34c0
00000310: ff1f df28 f7f5 3a40 f875 39a0 a5e9 40c0
00000320: 3a05 d043 c583 3940 fe71 c805 9502 1a40
00000330: 31de fe60 2680 04c0 10fa b7e3 47c7 4240
00000340: 3bfb 4420 92e7 0540 8602 6800 aa90 f53f
00000350: 7ddc 15f7 1c18 ae3f 407a 1047 54e7 06c0
00000360: 440f 630b fc23 4140 f168 e3ee 8535 2540
00000370: 4a5b 6914 3f7d 2340 5e00 49bb b599 2240
00000380: ed4e 10a8 2324 24c0 132f de32 20ed 35c0
00000390: a9e7 54c8 5aae 43c0 18e3 e20d e5df 15c0
000003a0: 0089 9726 0009 3840 0cbf b51a fa8c 41c0
000003b0: 6e92 1e80 560f 1ec0 7cac 7551 4d79 2a40
000003c0: 5d95 8fc1 406c 30c0 c2ec 5505 3f1e 12c0
000003d0: a47d a0ea 5154 0ac0 55a6 31c7 4b32 3cc0
000003e0: eef6 fa24 b27d 3040 a690 cf62 353a 2840
000003f0: 3775 1e60 720a 2dc0 81f2 b3ec f102 0d40
00000400: 7803 31a5 458b 0b40 448b f86f 14c6 14c0
00000410: a987 fd53 2947 05c0 bfef 7e1b 738f 2640
00000420: b887 3a1c 7820 04c0 4e42 0753 50d7 21c0
00000430: f4a2 0617 a81f 1bc0 e8f4 eaee 4d05 f33f
00000440: 167a 8fa5 3ff9 1340 be67 0007 a775 2a40
00000450: e523 3b94 0b61 2040 06a4 fad0 c990 31c0
00000460: 584f a349 2f5d 16c0 d054 827b 7612 2440
00000470: bfb3 4169 426b 2340 4a9a b41d c0d3 13c0
00000480: 040a 2a87 eeee 21c0 2d95 0d12 d796 2840
00000490: 1dc1 b152 6a96 3340 0287 f461 5eab d4bf
000004a0: 6221 b565 1301 16c0 4e94 eadd 3c8e 3340
000004b0: 1e10 6361 3a51 4040 2c58 779d 34d4 26c0
000004c0: 2e57 6354 ede0 15c0 11a6 26d5 1815 2040
000004d0: 4012 37d9 afa0 05c0 0b2a 5d08 a7b2 d7bf
000004e0: 6c44 3407 ccb9 0440 f436 2376 7324 2240
000004f0: b4cb e240 6d05 12c0 d585 9d93 dbab fd3f
00000500: 5e90 31be e5f9 0d40 5b1f 4b4b 1c8f 0ac0
00000510: fcc7 e73a 42a8 3440 c992 6ff1 be61 3040
00000520: 32db 7674 3cea 2740 6d69 a275 f76c 3c40
00000530: bd91 f0fd 68d6 3140 3541 023a 1bb0 3bc0
00000540: 32a5 c3af a84a 30c0 ded1 b04c 7cee 3b40
00000550: cc43 10be 0f5b 2dc0 551d 4140 f6d3 2940
00000560: 5c95 7ba8 0f7a 2d40 600e 27f1 c8a8 1c40
00000570: c89a 453c 88ea 2e40 d18b 94a3 bc2f 2840
00000580: a41d b3f9 55fa 2dc0 127b 167a c00f 31c0
00000590: ad36 8abe 9711 2540 eb66 798e e89c 3ec0
000005a0: cd43 fced 98b1 0f40 e6fd 6c7c bcdc ffbf
000005b0: f00e 9c21 ba1f f43f 71ed f6b8 f4d0 2cc0
000005c0: 62b5 8648 99ef 0640 6f0b 38cb 4129 0240
000005d0: e205 6d7e b8e4 26c0 9a1e 5b4b 634f 3240
000005e0: 7a79 7d86 94b7 45c0 ba29 1f92 b305 22c0
000005f0: 40ce 086c 58c6 3240 bf14 4a5e 3429 f13f
00000600: d7e7 081e 5f8e 23c0 3be6 f4c5 3490 20c0
00000610: 0eed ce62 00f5 13c0 3c0c 0b37 d321 14c0
00000620: ee7c bbf3 8104 2c40 1cb3 43b3 1c53 1dc0
00000630: 8c1e a404 e1fc 26c0 c4f9 6019 bce2 1340
00000640: fae4 e35d 3a23 0a40 9c25 5c24 8e44 28c0
00000650: 805b f23e a800 4bc0 9341 572f fe3e 21c0
00000660: d233 603b 3590 3cc0 1068 0bfd 13e2 1f40
00000670: 512d a999 66b1 2f40 67b4 f2f1 a32f 2b40
00000680: e271 895f 76bb bbbf 471d 6d51 8466 2dc0
00000690: a338 2930 f7cf 47c0 7345 f5ef a414 3140
000006a0: d070 ab9f d42e 1d40 7566 1d2c b721 2bc0
000006b0: ba4e a9e8 f718 3240 6dd0 873a ebb4 2ec0
000006c0: b88b 8782 69fa 1b40 d9ff 8baf 5cd8 f03f
000006d0: 9971 dcaa ae2e 2a40 c757 0bfd b982 25c0
000006e0: b0fe 424f dae6 f03f d115 62d2 83ab 2fc0
000006f0: 5836 950d ecd7 30c0 fc90 64f9 af6b 1240
00000700: fa72 d2da 1cbc f5bf 9fb4 2ed6 6051 2d40
00000710: cae1 fb3c 28ed 1840 aa0c 26b1 ef74 1d40
00000720: 0475 a5cc ceb0 28c0 126a 8689 6ede 0dc0
00000730: fcdf ad25 c131 1d40 33a5 aba4 df2f 3140
00000740: 42ac 653b aba4 2cc0 cd97 5736 7d3f 2b40
00000750: ee36 e4c5 2d08 32c0 08a8 1f27 aa32 2340
00000760: 226c 50e0 234a 16c0 21eb 4207 94b2 3140
00000770: 4f05 1ce3 9c1a 2b40 1c52 f7b2 2a26 3640
00000780: 1e80 76b3 d061 1540 d0b1 1f02 e125 0440
00000790: a58a 140d f2f4 27c0 3876 a9cb 4bb8 3640
000007a0: 4057 92e2 40b0 ffbf a3f9 dbee ace3 0dc0
000007b0: 2d0b 1302 f950 2fc0 021f 40fc 960d 1ec0
000007c0: 14ff 0383 ad88 32c0 787b 4757 2cf1 19c0
000007d0: d478 eb05 d958 20c0 f7d8 aa98 2840 0940
000007e0: 8ebc 51e6 5050 22c0 34cd e44b ebd0 14c0
000007f0: 8d6c 9257 63d4 fa3f 60be 2def 50aa 1040

transformer_encoder.layers.0.self_attn.klinear.bias f8 [32]
-3.9783048529561076 23.793621771871003 7.848952816091472 2.8522628535571077 17.47401587601241 -17.49019409191715 -23.722983383586975 -12.271126712183033
2.664325740296811 17.361726911849317 -3.0305480480850995 7.119688673424596 -0.45289966642437646 2.177803174494905 -13.73623777959567 -6.259511724517262
-3.372255952315333 12.635579754949182 10.837791104537327 -25.94225975850443 15.829829799057482 -2.8695335137921494 26.737662087375753 37.08980681226498
16.73403423188565 5.588937889570216 13.577503321496703 23.007684905254827 10.233388145346836 38.54854350466901 -10.841758370195485 22.30756788659787
00000000: 71b7 a77e 91d3 0fc0 5c94 e3cb 2acb 3740
00000010: 04d7 13e3 5365 1f40 c1fc dc2f 6fd1 0640
00000020: 1242 bd1a 5979 3140 017a 295c 7d7d 31c0
00000030: b70e 6470 15b9 37c0 d8cb d31e d18a 28c0
00000040: f1b9 8303 8a50 0540 d479 8822 9a5c 3140
00000050: 6bdb 9bf9 8f3e 08c0 b63d e8aa 8f7a 1c40
00000060: 4f5e eae1 4efc dcbf 11a5 1c12 246c 0140
00000070: d9e2 8228 f478 2bc0 baeb 0671 bd09 19c0
00000080: 4b7c 2754 61fa 0ac0 4b03 abb5 6a45 2940
00000090: 2ebc a5f4 f2ac 2540 071d 7fef 37f1 39c0
000000a0: 7265 9073 dfa8 2f40 211b a4fc cdf4 06c0
000000b0: 28c7 2c6c d7bc 3a40 6cd1 24ca 7e8b 4240
000000c0: e617 dcaa e9bb 3040 3e51 bc88 125b 1640
000000d0: c651 ee83 ae27 2b40 0abe 50a3 f701 3740
000000e0: d813 a7a6 7e77 2440 4a7e 6eac 3646 4340
000000f0: 6c3f fef3 faae 25c0 d93c dec4 bc4e 3640
