experiments/fl_train_noise_0.5_max_grad_norm_5/20250422/model_round_5.pt (torch, 62777 bytes, 25 tensors)

embed.weight f8 [32, 8]
00000000: c5c6 64b1 5fcf cf3f 6ded 8410 abda d0bf
00000010: b420 25bc eb47 d8bf 8256 84d1 37ee a03f
00000020: a582 8464 7b91 f7bf 5257 ea5a 9be3 d53f
00000030: 5495 a9f9 b496 ef3f ea3f abc0 fd55 e6bf
00000040: 9d6d 4b0d 408a d33f b951 15ce 7e63 db3f
00000050: f2d1 30cb e744 e8bf b4ab 38ed a73e f0bf
00000060: a8f7 1575 34d0 d6bf a11e 8610 b0fc d63f
00000070: baf1 a31e 421e da3f d408 807d 5cbd b73f
00000080: 61df 1aab 178d dbbf 4b03 295f c1fe ef3f
00000090: ccb0 f100 0ed1 d93f d204 cc17 1669 c63f
000000a0: a6cc b279 f041 f7bf 306e 0b37 c2e4 c03f
000000b0: d52d f2e9 abcb f1bf 6600 8142 3289 e93f
000000c0: 6488 3777 5f13 ddbf 10c0 2f56 e5aa ef3f
000000d0: bcca be2d 716f febf dbc3 c531 f4e7 e23f
000000e0: 9a3a c64c d138 dbbf e27d 41c2 63b8 b2bf
000000f0: 0ee8 6845 b368 d23f cc73 cc62 b1c8 c6bf
00000100: f9a6 208b 5014 e03f 30d8 b7b4 f663 e6bf
00000110: 3cf5 e159 3a6f d0bf 1283 be62 bbe9 a23f
00000120: 10e8 962b ba25 c1bf ae6b 8d56 368e e9bf
00000130: 6f4d dc3d 4001 d1bf e752 d773 e195 ae3f
00000140: 6785 6424 087b e93f 6c60 412a 122d f33f
00000150: 3e6d 688b c4bc debf 95e3 c2c4 cdd6 b33f
00000160: 03da 9ef1 6a3e cfbf 1faa eb71 34b1 d9bf
00000170: eef5 8d14 54a5 e0bf 51f2 b537 cbe6 d4bf
00000180: fdda 194c 28a7 de3f d68b 72c9 9c43 cbbf
00000190: df0c 7e2d 61d0 e13f 9615 5f0c 05ae d03f
000001a0: fbdc 06bf 7d70 f43f 0ef0 6c29 8130 a1bf
000001b0: c347 e902 9715 c6bf e07e c297 ca1c abbf
000001c0: a2a7 c017 5248 c6bf f26a 6004 d96f e53f
000001d0: 50c2 e26d 7904 f0bf 219d 2a30 4209 d8bf
000001e0: 8869 1a82 a793 e6bf 0746 3ce6 8019 f33f
000001f0: 8c44 919b a909 f73f a84e eeca 98b2 da3f
00000200: 19bb f0f7 a2cb fa3f 9ef5 3d8a 0ac3 debf
00000210: df73 a64a d43a d7bf 84f1 cdb4 bc72 c9bf
00000220: 5cee ad75 4b63 e73f cf1a ab5c b14e e23f
00000230: c179 3985 7d0b e2bf 3173 4179 8fb3 d73f
00000240: 25e9 3913 19e2 f3bf 33a0 f8ef b058 c9bf
00000250: 467e 0493 1345 d93f 11a0 03ee deab ddbf
00000260: e67c 62b5 193c ed3f e3bd 14e7 931a bebf
00000270: 7c93 e796 f0c7 f8bf 6e2a 8f8a b5d9 f0bf
00000280: 1942 036b 75a5 e73f 6812 e6fc c657 f03f
00000290: 7985 ce58 c6cf dabf 6bd3 1c20 a0b6 f13f
000002a0: 4ca9 2c63 fac9 e8bf 21bf 568d 1170 bdbf
000002b0: a099 6013 3966 73bf 2479 5879 974f 0040
000002c0: 94ab 2db9 4421 ae3f 4ee4 1af3 42b2 e43f
000002d0: 257f cdc7 3e89 a53f a454 ee42 43e6 d9bf
000002e0: d094 eea3 9a07 f43f 773c 2bb8 28e6 e83f
000002f0: 9dd6 b6bc 3e42 e73f 0a27 b380 3366 cf3f
00000300: 19fb b1e6 f943 b1bf 981f c44a f99e ce3f
00000310: 2231 53c2 3b31 d73f 13bc dd29 e254 e8bf
00000320: 79d5 058d e9a5 d33f e22b 743c 7acf 03c0
00000330: 5492 2de7 146c febf 15c0 599a 8095 f5bf
00000340: 65fb e6a3 688d f2bf 19ad 3889 3023 e03f
00000350: 3f7a 4a8e d2da e3bf 88e6 0cc7 2e76 cf3f
00000360: 2ff1 7654 d08e f83f a972 d6e2 9ae5 f4bf
00000370: 8d51 b7ea fdf4 d5bf 6406 74c9 a784 e3bf
00000380: fab7 79a6 3adc e4bf 20de c6cd 0569 c73f
00000390: 9da5 b78f 810c e13f bb30 f0d6 70fe d3bf
000003a0: 20db bc73 3f3f e1bf e29e 6984 8c69 0240
000003b0: 95ad 662a 2552 d43f 5cb9 b19d d282 cbbf
000003c0: ae79 beda 6103 c13f 8d6a 823a 81b3 b8bf
000003d0: 0e68 5ead 2b9c f1bf a4fe 2c19 caa9 dabf
000003e0: b7c3 dcab 9aab d53f d47d 3510 040d ca3f
000003f0: 8f25 578a 5545 f73f f85c 4b61 ae94 75bf
00000400: de2c 962b 650c de3f b601 0f17 1a41 d13f
00000410: 3a04 0ada c07d c4bf 2921 fd91 955c d3bf
00000420: f86b 193e 4a80 c0bf 8bf9 70ca 5ab8 de3f
00000430: e23e 6f44 75ed d53f 7e1a 9fcd 6f59 e13f
00000440: f357 cfda e877 e7bf e3b2 6096 98a7 fe3f
00000450: cca5 dca6 f4d9 d73f 1c0f 901a 0270 ccbf
00000460: 2ae0 17d1 a8dc e73f b550 c3bd 1c8e d9bf
00000470: 6295 9ddb cb7f d43f 823c 05ce d9f8 ea3f
00000480: 4c97 3465 4363 ea3f e78f 2590 2322 d2bf
00000490: 41ad e61e 3e52 ebbf d454 c455 9981 e03f
000004a0: ce13 0ca3 ed68 dcbf 71d2 08a9 7c97 f2bf
000004b0: bd53 2d21 f99b ecbf f85e 1dec 90e5 d2bf
000004c0: db4a e727 55a8 e23f a845 6ef2 2502 debf
000004d0: f23b efd2 a837 ffbf e8cb 5793 ec8e d6bf
000004e0: 67bc bcf6 b041 fdbf 8aab 7679 2b5e e93f
000004f0: 60a2 f5e0 9396 d93f e8ba 5479 9ff0 e9bf
00000500: e0fa 276a 6bd9 c1bf f008 cda3 dade 82bf
00000510: 7e40 b951 5d5a d03f 6291 1eaf f3f4 d93f
00000520: 0398 7a91 1e23 d93f c68a 0543 fa2e e8bf
00000530: 1136 b71f 50b2 fb3f f1e5 231e 1698 f43f
00000540: 2df7 af9d ade8 e03f df76 fa62 b4c1 f13f
00000550: 06c6 eeb0 7e83 c03f f75a 6cf8 3924 f7bf
00000560: bfd3 0eac dc88 f4bf 00ad db1d ceed ef3f
00000570: 6f3c 3353 4299 f6bf 4739 79ce 2f0d f13f
00000580: 7611 98ec a7a8 bf3f 4abd b7f8 1c2c e73f
00000590: ea8a 55ce 24bf f13f a4b6 67c7 0330 e63f
000005a0: 16d0 99a1 f2cb f43f a83c 051a fd53 e2bf
000005b0: 478b a07c d09c e53f d81e dd39 8908 eebf
000005c0: 29ad b54f 5fc1 f13f 42d0 37a1 e959 cbbf
000005d0: b873 8dff 5a75 f53f 6268 d803 7a05 cb3f
000005e0: da1b 485b 57fe c23f 7c74 c549 2b50 d7bf
000005f0: 3cd9 bd04 ea44 f4bf 8cf7 8d81 15a7 e93f
00000600: 36af c85b c059 d33f 4ba8 b6f2 0514 e23f
00000610: 7987 e5e5 2f7e e33f 28b5 4c9d c353 eb3f
00000620: b3f4 a306 ddea e03f 4cbe 11f8 f2a3 bb3f
00000630: 515e 834b 9356 f03f 080a 813a 165b dbbf
00000640: d28c b4f5 c51c f8bf 4cb7 7cb7 9005 ee3f
00000650: 0deb fd5b 4889 c8bf f6f2 8ada 0d6d e0bf
00000660: b47b fce4 fd16 d4bf b88d 9dc1 d913 e0bf
00000670: c5a1 e517 126d a5bf 69e9 0ae1 5336 ebbf
00000680: dc49 fec4 50c1 e23f c3e4 fd1c 982c e6bf
00000690: a078 3e41 b146 f13f 6aab f9bc 783a e83f
000006a0: fcf9 b948 b225 c43f 0b15 1529 3203 f1bf
000006b0: b1e4 a74b e220 e43f c671 4863 5382 f23f
000006c0: 6693 3377 9eec ee3f 5f31 f404 a937 f4bf
000006d0: 86e0 14dc 6fcf f13f af48 fa77 3de5 e2bf
000006e0: c02e 5ad2 4b28 ebbf 3acf a9ab 2c0d d7bf
000006f0: d0c3 3620 8a8a e13f a29e ce08 781b ea3f
00000700: c03e 25b7 0f15 e1bf 029e fcc5 5dac ee3f
00000710: ab66 632b 4370 ba3f 3b70 fd06 6faf d63f
00000720: 46c1 225e 77e2 e53f ee0c bfbb 8c73 d8bf
00000730: 73b9 28db b1d5 e9bf 70e6 aa5e eafe eabf
00000740: 4fdc b237 23ad e8bf 87af 8013 aa91 e0bf
00000750: cff3 24eb 6a16 d53f 0dc9 075a 2d15 ebbf
00000760: 0248 0d40 1960 e93f 9bd4 57e6 f280 d43f
00000770: 8275 195c 4fa4 e53f e5c5 bfb8 caec 0140
00000780: 05c3 ff3f 99d8 de3f 48f3 d53a 39cb a13f
00000790: d539 49ec 2e49 d63f fa7c 7244 5f8e d8bf
000007a0: 042a b3df 37a8 e83f ed48 0859 992a b63f
000007b0: 2eba 43e3 0b0c d4bf d0e3 b39a a963 e8bf
000007c0: 7032 e3f8 76dc cd3f e704 34d8 ad47 ee3f
000007d0: 969f f87f 41dd babf da9a 49d9 b6b4 dabf
000007e0: 0fdc 981e d747 bebf 3fd0 f130 a2cc d93f
000007f0: 7464 2500 5539 d03f efc7 3178 e338 f7bf
0.24851604615974146 -0.2633464490242748 -0.37938969968355285 0.033067459417151404 -1.473018067023227 0.3420170200200704 0.9871468425959997 -0.6979969752373993
0.3053131227331621 0.42794771313972607 -0.7584113091057232 -1.015296866079308 -0.3564578193107715 0.3591728364340075 0.40809681884982363 0.09273317398040898
-0.43048660001249145 0.9998480661962302 0.40338468639562275 0.17508197938881281 -1.4535984758229374 0.13198116004683547 -1.1122244966999137 0.7979975985435999
-0.4543074287631781 0.9896113093691401 -1.9022075449872053 0.5908146831626441 -0.4253428697347005 -0.07312606327604201 0.2876403978185643 -0.17799966167595327
0.5024798123679083 -0.6997025994921895 -0.25678881433107725 0.03693948345540411 -0.1339638436164141 -0.7986098947979963 -0.2657013515574453 0.059737248793373436
0.7962685309213783 1.1985036516762433 -0.480271469250244 0.07749639562361062 -0.24409233854176202 -0.4014407265191568 -0.5201816941695918 -0.3265865367937169
0.4789524787114912 -0.21300086818982206 0.5566869629405139 0.26062132080218114 1.2774636709198706 -0.033573185259655344 -0.17253387109900417 -0.05295403578315727
-0.17408205184738984 0.6699032865029422 -1.001092366448706 -0.37556509689098233 -0.7055242100789636 1.1937264436313642 1.439859016118393 0.41715068643064024
1.6747159657640565 -0.48065436840246345 -0.36296565332469116 -0.19881399944632616 0.7308709429193629 0.5721060571603064 -0.5639026262322703 0.37033449975369864
-1.2426996947311377 -0.19801913945525626 0.39484109265501777 -0.4636151623112719 0.9135864775343208 -0.11759304420115017 -1.5488134283743582 -1.0531516468496664
0.7389475908367472 1.0214300040107904 -0.41893156693011907 1.107086301269386 -0.7746555268288744 -0.11499128056197751 -0.004736159278797919 2.038863132488716
0.058847568135056566 0.6467604396958764 0.04206272305486739 -0.4046791223166315 1.25185646091386 0.7780955884026203 0.7268365560364206 0.24530643257303836
-0.06744348413665725 0.23922649527252982 0.36237997033164693 -0.760361749429537 0.3070014836478872 -2.476307365699072 -1.901387122191541 -1.348999598438245
-1.1595236208374555 0.5042956047158526 -0.6204617289657292 0.2457941505361314 1.5348666476630333 -1.3060559140059615 -0.3430781166219042 -0.6099432882912876
-0.6518834353898904 0.18289253757187485 0.5327766234378718 -0.31240483274519776 -0.5389706860067669 2.3015375466091976 0.3175137437890155 -0.21492989253915595
0.13291571789609463 -0.09648902586415371 -1.100627591344622 -0.4166131254059826 0.3385988882392285 0.2035222129006643 1.4544272808001073 -0.005268746540159734
0.4695065427446944 0.26959850551431985 -0.1600876869815993 -0.3025258947059393 -0.12891510040466847 0.48000211496027906 0.3426182907396492 0.5421675697369464
-0.7333874009734686 1.915917003071791 0.3726779584418096 -0.2221682195378144 0.7456859668591325 -0.39929884463823423 0.320300068348237 0.8428772949063303
0.8246170975369096 -0.2833336742098695 -0.8537893870865575 0.5158201861510414 -0.4439043133027639 -1.1619841196926723 -0.8940396926869806 -0.2952616029556192
0.5830484179844818 -0.46888111758115736 -1.9510887374524342 -0.3524733961959883 -1.8285379064725704 0.7927453396163042 0.39981553047849694 -0.81062291810471
-0.13944761927992655 -0.00921412289028864 0.25551541310142756 0.4055756769323776 0.39276851851389 -0.7557345685020997 1.7310334433453856 1.2871304681160576
0.5284030990439753 1.1097911707251382 0.12901290549557148 -1.4463443473848068 -1.283413574315304 0.9977789481321508 -1.4124167680745605 1.0657194199917102
0.12366723562451462 0.7241349084633069 1.1091659603050013 0.6933611769324739 1.2997919380695797 -0.572752524205403 0.6753923830150165 -0.9385419969703106
1.1097100366267318 -0.21368141529058177 1.3411512358209006 0.21110463321457745 0.1483868785582832 -0.3642681332037865 -1.2668247399538606 0.8016459970819922
0.30235299075387745 0.5649442425249246 0.6091536989372194 0.8539751121767596 0.5286698465057696 0.10797041469936025 1.0211365651829463 -0.4274344989136414
-1.5070247266638046 0.9381793578847719 -0.19168953410902426 -0.5133122700131867 -0.3139033065980883 -0.5024231702376971 -0.041847768227686134 -0.8503817935336829
0.5860980842137979 -0.6929436269994301 1.0797588871569488 0.7571376505778578 0.157400403510067 -1.063280258634509 0.6290141561177248 1.1568178060762064
0.966384156051032 -1.2635889237891076 1.1131437870917877 -0.5904834121049783 -0.8486689670985115 -0.360179107322654 0.5481615666559438 0.8158531353010015
-0.5338209702549293 0.9585408083848395 0.10327548798832235 0.35445762331596925 0.6838948095883459 -0.38205259642218337 -0.8073357849550987 -0.8436176156021258
-0.7711349571099023 -0.5177812939559637 0.32949326480212177 -0.8463351019293285 0.7929807902348787 0.3203704118198602 0.6763073729340905 2.2406210359119876
0.48197013139638073 0.034753597671601855 0.3482167537194106 -0.38368970569895533 0.77053445521716 0.08658750938073796 -0.3132352561359849 -0.7621658345734605
0.23329054978093522 0.9462498877257105 -0.1049385964803363 -0.4172799226711682 -0.11828369614600852 0.4031148412680103 0.2534992696215064 -1.4513888068290688

embed.bias f8 [32]
00000000: 66ed 83a4 3fa7 f1bf ca60 19f4 0500 e6bf
00000010: d2c4 63b2 8f08 993f a6c0 f6bc 06a1 e0bf
00000020: becc 1080 9d33 993f b1f7 d65c fef9 f93f
00000030: 48a3 efb4 3934 f43f 47be b6ca 2cd3 e7bf
00000040: 8240 d94a 6b25 d3bf 73ad 6e9f da36 f4bf
00000050: bc06 e764 cd54 e93f 8a42 1654 04f5 b63f
00000060: 03f0 2170 a1b0 febf 1c19 ce07 47ef e43f
00000070: bee9 c8ba d733 c5bf c9df 9add ee2e f53f
00000080: fddd 4a60 dda8 d9bf 305f 5639 f9fc e93f
00000090: 1e99 e346 6070 db3f 0ae5 aacc 7eb8 b4bf
000000a0: 61ef 6622 fcc1 f2bf f636 09c0 aa95 e3bf
000000b0: 7c4f 57a8 853f e43f f3bf a854 c961 fa3f
000000c0: 4816 7302 28bd debf 0d59 e8bf 396b eabf
000000d0: d4f0 fb66 27e9 e33f 20b8 9f50 0bfd 0140
000000e0: 8521 a3b6 e003 fa3f 4bbe 857e 9805 ef3f
000000f0: 2b8c 7235 fba4 e9bf 674a d9a3 f50d e43f
-1.103332178724338 -0.6875028388558573 0.024446721327824168 -0.5196565333080982 0.024610958997254732 1.6235335947562641 1.262750345975478 -0.7445281943564134
-0.2991588812774425 -1.2633920886827041 0.7916018458128842 0.08967616131691095 -1.9181227092913111 0.6542086746638094 -0.16564461346008658 1.3239582687801763
-0.4009316864353137 0.8121305580016038 0.4287338917041711 -0.08094017502562081 -1.172359594710507 -0.6120198965743089 0.6327541625891935 1.6488736445426155
-0.4802951835557434 -0.8255890606112942 0.6222111712845853 2.2485567377798503 1.6259467252985769 0.9694330664769465 -0.8013893169303449 0.6267040443584165

pos_enc.pe f8 [1, 12, 32]
00000000: 1a86 0690 ca3d eabf 1261 ad25 d713 e23f
00000010: a289 0cbb 4d4e bfbf 0ee4 4c43 f8fc fbbf
00000020: 2086 f49c 6b13 dbbf 3c64 c411 5c2f f53f
00000030: bf60 b808 3fe7 e8bf 2932 2af7 6328 ecbf
00000040: aa0e b459 6c70 bc3f 3f76 f01c 097e d63f
00000050: c8a3 aaaa 4b4f f1bf b71a 89b3 6baf e7bf
00000060: 0d86 2e61 7537 d73f e30d 5068 1b09 b7bf
00000070: 4336 750e d853 d1bf 2f3e 5fed ff87 c0bf
00000080: d150 cd3c f493 f23f 6c84 8448 e924 893f
00000090: 02c2 d86a c922 f03f 2745 8b54 211f c5bf
000000a0: 37f8 8c2e 00c3 f93f 7b8e 64b1 bbd2 d0bf
000000b0: 0652 43b5 ae56 c5bf a6b4 f8a7 f879 cebf
000000c0: f42d c330 decb f03f d85b 9bf2 80ad bbbf
000000d0: 5da4 4686 fece e5bf fbd5 d919 8555 fe3f
000000e0: ccb8 446c 15c2 f5bf 443c 71ee 141c b6bf
000000f0: 8625 e337 fc58 dabf 92df e128 513d f13f
00000100: 9c9e b837 b330 c9bf a6b9 ceb9 748d c4bf
00000110: 6fa9 3088 95a0 e73f b9de da6e bd6f e8bf
00000120: 9d8c 1af3 b878 d1bf 8580 e0ab 6b56 e5bf
00000130: dfce 1ea2 285e c7bf a65c 6a76 539c d23f
00000140: 1091 b32f 0ce0 af3f 2d0f 18be a67d f1bf
00000150: c073 f263 a674 cd3f c571 05fd 10ae e9bf
00000160: f006 418a 9612 75bf 4c7b 5f3d 6f97 0540
00000170: a004 2086 22ca cf3f 08ed 9728 b776 f83f
00000180: 01d6 84ff 396d f7bf d7dc 27ba 14c1 ca3f
00000190: 55c9 0afb f038 fb3f c83f d54a 22c9 d3bf
000001a0: 3a93 3c05 c77f bf3f ad51 577c 0d96 f5bf
000001b0: da13 6893 12e0 c43f 3f82 f67f c5f6 9b3f
000001c0: 98a9 9997 eb9b c0bf 7df0 11c2 6422 e6bf
000001d0: be23 5205 7324 c5bf e7e5 7f2e f4e2 9fbf
000001e0: e8c9 89c8 c6fe cfbf 52d6 81c4 ba23 f3bf
000001f0: d279 4ff4 e5f0 ce3f 4ff2 7217 a1e8 d73f
00000200: a93e 89d8 f0d3 d1bf e0eb 5a61 5012 d6bf
00000210: 5de9 f74a 2ed4 c23f 719b c73f fcfc f4bf
00000220: 585b 36e4 8f14 f1bf 37c1 d696 fd7f e6bf
00000230: a443 466e 1f0a e7bf 181b 6822 acfc c63f
00000240: 3707 cba5 c04f f3bf 523e 26c4 6815 f33f
00000250: 11c4 37d4 a1e5 e7bf 82cb 5979 a02e e7bf
00000260: fc8a 25cb ca81 e73f 9636 2ad3 fa66 f9bf
00000270: f6ea ce69 455c e73f bf39 873e 1344 e53f
00000280: 01d7 ec66 8188 e9bf b913 8f7e 49e5 e43f
00000290: 2292 a8de 823b f43f 6812 3dcb 5c6c e4bf
000002a0: 1447 0466 c425 ee3f 146f eb78 85c9 f5bf
000002b0: d570 86c6 c75d df3f b6ba 26cd 0a2d c3bf
000002c0: e066 75e5 1564 af3f a065 e0ce 03be 5e3f
000002d0: b82d 3487 27a4 debf aa59 da65 f5c7 01c0
000002e0: 636c 2b06 da6f e9bf bc0d abba 7fcc e6bf
000002f0: 9644 f882 5c09 b83f 23ed c1f2 4be9 f83f
00000300: 11f5 d925 8c7a e1bf 9559 2101 e5c4 e2bf
00000310: df39 3f98 61db fdbf 61dd 51b5 ce3c d6bf
00000320: 27a9 58c0 27f4 a2bf 29a6 0fdf eabf f33f
00000330: 5ef1 a4ec f6b9 d8bf 85fa 3c00 8f5d e4bf
00000340: 1642 dbab bc81 bebf 0088 4425 7cc5 3abf
00000350: 6534 cbb3 2654 e3bf 788d 7c46 1c2b d73f
00000360: fce2 fe8c b4bd e03f 06e9 e057 4977 ef3f
00000370: 2a71 89ab e03b e73f 6050 7bbd 5e0c f4bf
00000380: 8b2b 2dc7 e940 e53f 3c90 e0fe 24b3 b83f
00000390: 0eea 0e42 2d26 ca3f 123f 5fe9 493d edbf
000003a0: c496 8a19 06f8 d03f 0c6a c050 525e 953f
000003b0: 3eaa 936a 79f4 e33f db8d 7091 3135 cfbf
000003c0: 7f4d a5a6 6974 b53f e5fa 7538 5fd7 f0bf
000003d0: f606 eb05 0ec3 ed3f a93b d66a 5403 cd3f
000003e0: 4f3b c0fe 3a91 f33f b17d 4259 3f51 e73f
000003f0: 94aa 8f89 4a18 e23f b5e8 6aa6 ffb7 cb3f
00000400: fc46 7314 a145 803f 2b35 49be 13dd c13f
00000410: 07ec 6abc e772 e6bf 4e9c 4af8 0b56 d5bf
00000420: 652f 2f00 7961 ca3f b6b1 927c c732 d03f
00000430: c54b 731c 8069 f4bf 6ba2 ed26 9ec2 d33f
00000440: dc78 2ea7 7074 b0bf 7392 d553 746b f0bf
00000450: c4c5 1bc2 5299 e4bf 3959 9ba5 8650 d0bf
00000460: bfa5 891a 0c16 f5bf 33f6 fed8 7849 c8bf
00000470: edc5 cabf bb48 e6bf 9dc0 ac97 f0ab d33f
00000480: 40e7 bbc9 e17b dc3f 2788 642a bc68 e13f
00000490: 65f9 b609 3edc f1bf 4965 859b 0326 d5bf
000004a0: da76 6afc b2aa f33f 2e2b 2d6f 706e b63f
000004b0: 45fc 9c6c 786a efbf 66c4 3219 e938 e1bf
000004c0: 05fb c92e 60b6 f13f 22a2 39dc cd83 de3f
000004d0: 413f e4a5 d337 d43f 43af 7d93 9f0c e7bf
000004e0: e02e c2f7 608b a6bf 39eb 291d 3331 f1bf
000004f0: 1c2a 19d2 6187 ccbf 6477 e301 35a3 f0bf
00000500: d841 c81e b88e de3f 5432 6007 7b69 f0bf
00000510: 39cf 2b67 14a4 f23f f961 91c3 990d ee3f
00000520: 7ab7 4334 bf91 f43f 3268 e884 be67 e03f
00000530: 3ef2 950b 1f98 ebbf b1e2 b47f 4e93 f0bf
00000540: 2a1e a657 adb5 d53f dbef f957 624d e93f
00000550: 189a 98dc bf5a f0bf 9c4c 3262 bd14 da3f
00000560: c083 1401 84c8 d63f c20b 87b5 2cb9 fbbf
00000570: 95c8 6afe 71bc a23f a725 57fb 75c8 e93f
00000580: 4047 72f0 1975 4d3f 845e eaee b109 e93f
00000590: ea47 5cf9 077a bbbf 0ebb 7e34 6be4 e7bf
000005a0: 06d3 4d51 7bb3 e1bf 0e51 03e7 b915 c93f
000005b0: cfb9 033c 450e da3f 8796 93e5 7f42 b5bf
000005c0: 69a6 5e97 2ba2 b2bf 2c32 0550 625b e13f
000005d0: 0f81 f73c 6c47 f1bf 0a91 a2ab a589 fa3f
000005e0: 93f0 bc90 83ce e7bf 11e3 36c8 c506 a6bf
000005f0: c0e0 cb27 8c2c b93f bce3 45e2 5daf d4bf
00000600: 436f a55c 3ee5 0240 a39d a2ef f528 f4bf
00000610: 0ca5 7443 272f df3f 1965 c9d6 8c89 e93f
00000620: 8cec b281 7ff4 f43f 2065 06eb cdad d9bf
00000630: f1e7 e411 8896 eb3f 58af 8373 484c ccbf
00000640: df3f c926 c456 e63f 0e64 b6db c430 cbbf
00000650: 1c1c b260 11b0 b93f 22eb ea1b 369b b13f
00000660: 7c9b b658 052a d4bf a79f 994b 2f33 ee3f
00000670: b79f 728d d2ef c13f fb89 4f3e c279 e8bf
00000680: b070 bcd4 0479 c53f 3221 559d f96a c8bf
00000690: e914 f97d deb5 e3bf c2df c344 0065 cf3f
000006a0: 36b0 e2cf 2b3d 0040 ba39 5893 ec8c e93f
000006b0: ae42 3835 4c84 d1bf 3ac7 d557 054a f73f
000006c0: 087d b3d6 8469 a23f c32a c1ab af64 eabf
000006d0: 1c64 1edb c662 f03f addc 103f 3d8d c7bf
000006e0: c6a3 0136 51c6 e43f 31e6 1471 86db ed3f
000006f0: c36d d5af 9e25 d9bf 836b f9aa 79d8 e23f
00000700: d63b 8629 932a f03f 9af8 af10 ab73 d33f
00000710: f5e0 4f3f e126 f13f b7b3 7859 0e35 f13f
00000720: 4282 daee 0ee7 f6bf 6d88 f458 6b43 d53f
00000730: 1332 464f 027b e53f 08a6 e0ac bc0e a73f
00000740: f6c4 672e 5dcf a03f 803e 3460 3219 883f
00000750: ba9f 3f6a dd10 f6bf b752 f58a dd54 f13f
00000760: ce2f eb26 ba2d e9bf 5c9c 95f9 e87b f33f
00000770: c9ae af52 5b3a e13f 2a7f 745f f3b2 c23f
00000780: fe8f 02ac afb7 f53f 8852 1c1e 6465 933f
00000790: ac71 ed05 642c ec3f ac61 bd6d 8ecd ecbf
000007a0: 5ef7 17de 08fb f8bf 76a9 f8ff ad1f e0bf
000007b0: 6053 395a 03cb e13f cc73 b6d2 29ba dc3f
000007c0: 7de5 cf1f bb25 fcbf bda2 a4a5 8518 e5bf
000007d0: cb99 fd91 cff3 efbf 01f0 0ecf e620 d4bf
000007e0: 4e9b d331 f92f e33f 2703 eb8a 18f8 b2bf
000007f0: 5052 e3f3 3c49 b33f e0bd dfe8 3563 db3f
-0.8200428784368257 0.5649219261058838 -0.12228856865525597 -1.7492601994438277 -0.42306032493260837 1.3240624135999175 -0.7782282991711539 -0.8799304797590298
0.11109044256232417 0.3514426024065393 -1.0818592707312167 -0.7401636606744749 0.3627599190750466 -0.08998271271416729 -0.2707424298467666 -0.12915038195068138
1.1611215949133575 0.012277433896601596 1.008492867822611 -0.1650125181973092 1.6101075952897312 -0.26286213229671035 -0.16670783854227994 -0.23809726907476153
1.0497724442274121 -0.10811620638865749 -0.6815178511216221 1.8958788881112685 -1.3598837117420315 -0.0863659937033257 -0.4116812272810296 1.0774699780431303
-0.19679870816002143 -0.16056689331658197 0.7383525524103741 -0.7636401333938557 -0.272993314176526 -0.6667993885967155 -0.18256099620850016 0.2907913834000716
0.06225622255604624 -1.0931765962167888 0.23012237434605076 -0.8024983350583673 -0.005144680068100746 2.6989426417125397 0.24835616635394775 1.5289832673723271
-1.4641666394430788 0.2090173634494252 1.701401692040766 -0.30915124233160585 0.12304347875449376 -1.3491339547227696 0.1630881519087371 0.02730854600452148
-0.12975830938678423 -0.6916984358245056 -0.16517484435851587 -0.031139197671995602 -0.2499626616659747 -1.1962230373441298 0.24172663144322698 0.37357356347982756
-0.27856084009270404 -0.34486779696788794 0.14710024509970313 -1.3117640010256901 -1.0675200380844299 -0.7031238504478442 -0.7199856904791102 0.1795859497071539
-1.2069708324710982 1.19272686596732 -0.7467812676314926 -0.7244417543537198 0.7345937698085829 -1.5876415489796378 0.730013567597182 0.6645599576239006
-0.7979132662064502 0.6529891464093601 1.2645291040036075 -0.6382278413298765 0.942110251666437 -1.361699554769932 0.4900988997194536 -0.14981207863953266
0.06131046701439202 0.0018763577641095278 -0.47876918986795713 -2.222636028028508 -0.7949037666798059 -0.7124632497656687 0.09389284322266386 1.556957195540982
-0.546209405830867 -0.5865349790645263 -1.866059870447877 -0.3474613924695032 -0.03701900694825815 1.2343548501324995 -0.38635037526889515 -0.6364207272198007
-0.11916712947573446 -0.0004084995355403409 -0.604022360954002 0.36200625308466483 0.523157382375842 0.9833113399866142 0.7260592794732805 -1.253020038760063
0.6641739740529017 0.09648352835262214 0.20429006314755366 -0.9137315328643771 0.26513817304872256 0.020867620638549453 0.6235930520609327 -0.2438108406214344
0.08380756681918021 -1.052581043768151 0.9300603976809885 0.22666411606448136 1.2229566527564264 0.7286679023126706 0.5654652296774025 0.2165526926599505
0.007945307194322286 0.13955923835093506 -0.7015265159637928 -0.3333768772813003 0.2060996294879899 0.2530993191274108 -1.2757569419234056 0.30875352670276496
-0.06427673417644847 -1.0262339854026805 -0.6437162200147033 -0.25491491482297907 -1.3178826367023786 -0.1897421893644818 -0.6963785882891763 0.3073693734359127
0.44506115627847365 0.5440350368483039 -1.1162701014978549 -0.3304451960335269 1.2291746006007345 0.08762266840237196 -0.9817468758918798 -0.5381970874933699
1.1070253207869325 0.4767946863781011 0.3159073944125233 -0.7202909355814672 -0.04403212570568171 -1.0745116366585548 -0.2228815341826057 -1.0398454736491312
0.4774608898742634 -1.0257520950427947 1.1650585203287405 0.9391602344213076 1.2855827371199369 0.5126640888077019 -0.8623194910320036 -1.0359635342157782
0.3392136913248317 0.7906963079726624 -1.0221556298289496 0.40751585568905013 0.35598850350839584 -1.7327086535376428 0.03659397345235608 0.8057203206055207
0.0008989693314040773 0.7824334780043078 -0.1073307975568977 -0.7466331506055626 -0.5531593883484625 0.19597553043298216 0.4071209989623669 -0.08304595332045937
-0.07278702207136124 0.5424052775284216 -1.079937208320249 1.6586052612775029 -0.7439592196383437 -0.04302042073272195 0.09833599063483955 -0.32320353600476515
2.3619353521334303 -1.2600001679182717 0.48725301349129846 0.7980407900860512 1.3096919123043191 -0.4012331767240358 0.8621254300589937 -0.2210779727969292
0.6980915792028063 -0.21242581108234088 0.1003428326676929 0.06877458745558987 -0.3150647512761038 0.9437481381000808 0.1401313009894218 -0.764863130283913
0.1677557028532468 -0.19076461965802022 -0.6159508190545725 0.24526980741188537 2.029868721108893 0.7984526517700978 -0.27369981000178256 1.4555715018327207
0.03596129532683717 -0.8247907976704812 1.0241154250454718 -0.18399777964962052 0.6492086462795832 0.9330475052476627 -0.3929211346746479 0.5889252032605871
1.0103942510647719 0.3039348280871167 1.0719921563268688 1.0754531378727117 -1.4314107256142425 0.332239949102706 0.6712657497715234 0.04503430948564008
0.03283206168624446 0.011766809044757354 -1.3791174078305475 1.083219092183908 -0.7868319282656502 1.217751479090814 0.538373624321559 0.14608614121333946
1.3573452681675913 0.018941463792617103 0.8804187885066788 -0.9000923293452181 -1.5612877536327328 -0.503867149299636 0.5560318720041373 0.44886251046574155
-1.7592116587314586 -0.659243415376373 -0.998512063157983 -0.31450815411130867 0.599606129949146 -0.07409814254334589 0.07533627466484316 0.42793033353424725

transformer_encoder.layers.0.self_attn.qlinear.weight f8 [32, 32]
00000000: 586f 87af 970b ed3f 3cbf bbe6 1ef6 c23f
00000010: f7f8 1d7b a3e4 e9bf b1d6 9e84 70f4 e03f
00000020: c417 efbb cc35 983f b0df e399 5373 f1bf
00000030: 95cc a6c9 9184 fbbf 36cc 75fe ce50 df3f
00000040: ad93 2543 d689 f0bf 1875 19dd 93a9 f53f
00000050: 002f 78f0 2507 d6bf 4aa8 0c39 7c8d bebf
00000060: dc9e 9941 58d5 ef3f bbfa 717e b72f d43f
00000070: 55cc 9f67 3dd7 c4bf 0c4f ac4a 9213 adbf
00000080: 7547 6419 ef88 f8bf b03c f9bc a292 f0bf
00000090: 191a dfa0 22cf f33f e64a bee3 331a c9bf
000000a0: 8c30 76db b2c7 873f be90 0582 96eb fabf
000000b0: a456 a45f 5bcf f6bf 527c d56e f13c f8bf
000000c0: a4ec 4a81 0e4d e7bf 4279 0988 305d e5bf
000000d0: e02b 89f1 8289 f0bf 091d 2768 e7ac d13f
000000e0: 9605 8525 71b5 e0bf 1123 4dc9 1aa3 ef3f
000000f0: e0fa 03bd ab64 fd3f 15d2 c86a b9c6 e2bf
00000100: 5a04 b909 ae84 f1bf f848 ae40 a55c 0040
00000110: c54e c470 0e8e e8bf 1a7f f253 ac9b e3bf
00000120: 0417 b6a3 687f e5bf 75c6 8ceb d089 f3bf
00000130: 348e a86c 1347 e9bf bf16 55d8 8795 fabf
00000140: 85a1 368d 07af e93f 9dcd 3274 bd0c c53f
00000150: 0931 7f2d 4065 f1bf bd86 c539 e93b ee3f
00000160: 2169 68a9 778a e0bf 7fe6 c744 d81a edbf
00000170: a8f1 fb5d 9ec5 e03f 1090 ee61 9c14 f4bf
00000180: 64f6 001f b47c e23f 201c 6ff7 9e08 d0bf
00000190: 3091 9d37 61fc ee3f a46f 4e16 73e6 e83f
000001a0: a951 45a2 a0f1 c0bf 77fd 373c 75cc e6bf
000001b0: f6fa a791 e452 e43f d906 502e 4edc db3f
000001c0: 6adb 1b10 5ce7 e03f 3d98 60a1 a585 cabf
000001d0: 3646 141f 6168 dfbf ca11 b754 d198 d0bf
000001e0: 6f43 3ac6 906b f03f f4a7 d407 a0de dbbf
000001f0: d376 1c9d b14f f13f 12e6 22db 42c9 c5bf
00000200: 86b3 d8c9 01ba f9bf ebcf 34ec bd1e d43f
00000210: de3b 844a 6511 ebbf 3598 8cbd 3f1e fb3f
00000220: 9163 df80 67c3 e1bf 3b71 7231 1099 f2bf
00000230: aa45 1c5b d1ff b4bf 1f3b e814 d68b e23f
00000240: 3995 eb71 964c d73f a425 e9b1 b7d9 a63f
00000250: f82f 2c93 f8b1 a03f 9680 2452 8f5f eabf
00000260: 9888 8618 0045 f0bf 6ed8 db9a 96b4 c33f
00000270: ff39 e505 6b9f e53f 4960 0768 c791 01c0
00000280: 8600 879b ae4b f3bf 6f30 5a06 89fa d6bf
00000290: 3a97 aade d1f0 bb3f 2224 8ed8 37ec e03f
000002a0: 6272 6710 a38e fdbf 571d 1b11 6e7d abbf
000002b0: 0be6 cc71 2565 e2bf 4675 ddf0 7c66 b5bf
000002c0: 51e6 5a19 44fd ecbf 7970 4d49 a1ca c63f
000002d0: 57e6 2ff8 2fa7 d43f df4b 3ed8 d31e da3f
000002e0: 6337 96a1 a62a d73f 20bb e99a 096d dd3f
000002f0: b01d 4cb8 d8c8 953f 0790 772d 1eed ecbf
00000300: ca12 9694 2b78 f13f f2d0 5c40 6a9d 9fbf
00000310: b922 79d5 914d ce3f 2db3 344a c4ce f33f
00000320: a6d7 20cd d47d d2bf dbf0 bbcb 7480 f2bf
00000330: cabe 068c 4407 f13f 0acd b814 119f ee3f
00000340: 956a 8d1f 3a40 dfbf 4ee0 592b 5b8b f1bf
00000350: 01d9 8a06 7c2b ecbf 6439 685b 428e f83f
00000360: 5d81 e355 d5ee e03f 7341 db2b 455f e23f
00000370: 2831 f63f 334b debf c846 4fbe 51bd ec3f
00000380: c8a2 6e31 7e4a e63f e8d5 e9b5 9886 e93f
00000390: 37b2 6178 1acc c93f 1fa9 154c 6396 cc3f
000003a0: e486 fc97 2c34 efbf 78cc ab5a bf1e e7bf
000003b0: 08de 316f 5e5e e63f 711c fb14 8987 b0bf
000003c0: fc5d 0413 bcad df3f 0a52 5b0f 3b2a ec3f
000003d0: e600 faec 2932 d8bf fd6f 6d8c 130c da3f
000003e0: e98b 5e64 2454 f23f d370 7ae3 e701 c5bf
000003f0: 459b ef14 6098 01c0 52a8 4d2c 446d d63f
00000400: a462 9247 5b75 f73f 77be 860a 72bc 03c0
00000410: de12 c095 ffa2 ee3f 9f7a 9103 1dcf e83f
00000420: 1e35 b1d1 f79a debf a754 0668 ca82 dfbf
00000430: 29c3 3b54 9f7b e83f 4f36 4106 4bee d63f
00000440: a5d9 d0f8 650a ecbf f0c7 e4c8 e972 d53f
00000450: ccbe d083 1502 cf3f 1675 0f26 4fe5 f03f
00000460: caa0 e0ef 689b cd3f acca 44d7 1ee8 f2bf
00000470: 4d11 8a03 158f ddbf 5b00 8597 d864 e33f
00000480: 8d6e dca1 10d0 d4bf dccc bebb 3262 88bf
00000490: 1d56 8cd5 8272 dc3f ea94 d375 58f3 d4bf
000004a0: 94d9 e0f5 778c f8bf 41fa 370c bd4e e53f
000004b0: be3a 1f3b 60a9 f9bf 49b8 c9d5 5a12 f13f
000004c0: 1227 3150 1705 bd3f f4cc 73ba 3015 b43f
000004d0: 69fa b4ae fa9a db3f 35d1 1682 da11 f73f
000004e0: 74bc 351a f4ae ce3f 9ec7 d1f7 b4b3 c03f
000004f0: 7a06 3f9f be74 e23f c87e 58b2 3b2a 7c3f
00000500: da38 5079 a945 e0bf 8116 61e1 797a f53f
00000510: c0f9 bec0 1d37 f63f 5a0b dc4d be6f a2bf
00000520: de4d c746 1fac d53f 346d 469a b768 e5bf
00000530: 708e 329a c105 f7bf fc8e 9243 c631 e3bf
00000540: b419 59ae 06df e1bf 5eee f0e8 f8cb f83f
00000550: a03a 194c ef26 e03f c59c 7e84 b01a e2bf
00000560: 8e20 7dd0 d573 e23f 0239 ed2d 8ef9 cfbf
00000570: def9 08c8 a1be f13f 2437 41e1 5a27 e6bf
00000580: f10a 061e 847b d63f 880c 1bdb 40b0 f13f
00000590: 3913 b861 780e f73f ee28 4029 73d0 b03f
000005a0: e1d7 bb8e e53d f13f 80a8 7662 05d6 353f
000005b0: 7e08 eb3a fe18 e2bf 6d4b 75c4 d710 f4bf
000005c0: d24e fd7c f5d6 f2bf 7a32 b0ae 9304 fd3f
000005d0: 5225 b898 19e9 d83f 9e0c cbee 3378 dabf
000005e0: 42c5 4227 7f27 f4bf 050e ed1f 369d eb3f
000005f0: 0417 5bc4 ab68 f8bf bc16 28dd 6a2f f03f
00000600: 26af cbc0 f46e d9bf 19fc 0500 6640 e2bf
00000610: cce0 f739 0533 e5bf 3db6 830f 2260 e63f
00000620: 320d fee1 6525 e8bf 31bf cf14 7379 efbf
00000630: 2207 ea0d 8ef8 a73f 369d 63d8 095d c3bf
00000640: 780d 390d 8d5e cabf 806f 685a ed58 da3f
00000650: 1493 b5e5 308e cf3f 4220 e72e 1ed5 e83f
00000660: 32bd 0306 9475 e03f 9ef0 c222 fa11 e13f
00000670: 6f96 f095 02ac f03f d071 76df 8d1f f3bf
00000680: 53f2 b25e 7ee2 f0bf eca2 bb83 d7a0 d2bf
00000690: f713 6f77 c36a e1bf 9f54 cdb4 79c5 d2bf
000006a0: a087 55a1 273f f4bf fd41 38a3 6ce8 e0bf
000006b0: 017e 693d b298 d83f 73c9 6c20 9236 b33f
000006c0: 8f01 7fe9 ddb5 ebbf 7f86 da73 5280 cc3f
000006d0: d479 bae3 1258 d2bf aefd 7adc 7f32 f03f
000006e0: 5841 9fee 47d1 a03f 26d4 5af6 76b0 c63f
000006f0: 67f7 98c7 dd21 dcbf 7e08 817c 792c dd3f
00000700: c048 bc46 d82c b8bf 7007 7038 3a14 b63f
00000710: 2a73 6161 f419 cfbf 3ee9 1fc2 1e36 e53f
00000720: 2ba8 c203 1ca3 f83f 561c f8f9 eca5 d6bf
00000730: a939 8534 9fb1 d53f e237 83b0 10df cabf
00000740: 6b21 d63b 5b63 ef3f f2ca 9641 7bb5 e43f
00000750: ab8b 9095 65c9 e8bf 9761 963c 1be2 efbf
00000760: f1da 60e0 d1f7 dd3f 004e ad0c b567 c1bf
00000770: 9012 d2c2 4218 c2bf ecdc f833 f443 ca3f
00000780: b6ab 3486 0057 ef3f 787c 8100 3a64 b2bf
00000790: 7590 d410 63da e2bf ced8 5c65 a552 b9bf
000007a0: 60c6 bfb3 419f fc3f a231 9eb3 f7af a03f
000007b0: 45f6 102f 06f6 e53f 1e2b f6bb ed64 da3f
000007c0: 9478 97d8 5806 adbf 4a31 bc4a 77af d83f
000007d0: 0230 e616 e670 e93f 47c6 1397 d75f e43f
000007e0: 336a 05b4 de47 cc3f 0d6b 1498 6c40 c7bf
000007f0: 0988 1b4f 1e5b e03f 644f d696 72e7 e7bf
0.9076651027967086 0.14813600794104242 -0.8091599850302192 0.5298388090365816 0.023642729731157677 -1.0906559001286773 -1.719865596486476 0.4893071637117744
-1.0336516020699762 1.3539007794091216 -0.34418629153582003 -0.11934639351662316 0.9947930604220931 0.3154124007050247 -0.16281859931732137 -0.05678994332825313
-1.533431147753132 -1.0357997304707105 1.2380701335947661 -0.19611214275626948 0.011611363718451416 -1.682516582391187 -1.4256242500318104 -1.5148786858988115
-0.7281563306090857 -0.667625680634764 -1.0335721430772011 0.276178218566614 -0.5221486790471086 0.9886602336565337 1.8370778449458882 -0.5867583356508158
-1.094892538051019 2.0452370694339344 -0.767340870139798 -0.6127530707926525 -0.6718028256879909 -1.2211465073745817 -0.7899262544855845 -1.661506505058625
0.8026159055780658 0.16445129560234487 -1.087219407770194 0.944813359103328 -0.5169027622935439 -0.9095269530655087 0.5241233668926286 -1.2550319505180632
0.577722607187479 -0.2505261818263893 0.9683080755462807 0.7781310496970844 -0.13237388537767217 -0.7124582458636003 0.6351187558028346 0.43532137415614397
0.528242141211064 -0.20720358257057284 -0.49074581179693 -0.2593272521301314 1.0262611144318858 -0.43546295895305254 1.0819564950137888 -0.17020450305953766
-1.6079118618610848 0.3143763357832074 -0.8458734946633475 1.69488500635772 -0.5551030652087424 -1.1623689586186419 -0.08202846979499748 0.5795698555319609
0.36404954075836177 0.04462980314981316 0.0326078109411298 -0.8241650204036144 -1.0168457944896883 0.15394861756766737 0.6757102122444961 -2.196181118702985
-1.2059770655905893 -0.35904145832387874 0.10914336858931231 0.5288352231592663 -1.8473234787735682 -0.053691329563259664 -0.574846956507089 -0.0835950935410966
-0.9059162612167687 0.178058777611003 0.3227043079092246 0.4081315623999994 0.3619782045360493 0.4597801220724467 0.021273981331459246 -0.9039450538662103
1.091838436522425 -0.03087392824018393 0.2367422382688085 1.2379801653543823 -0.2889301303106272 -1.156361385189533 1.064274355867314 0.9569173245166962
-0.48829510766305734 -1.0965224927331465 -0.8803081634312379 1.5347312517729614 0.529154460669854 0.5741296631404523 -0.4733398556352477 0.8981102673517052
0.6965933766815278 0.7976802399631966 0.20154124143609106 0.22333947386807382 -0.9751189201817536 -0.7225033541602803 0.6990196391843151 -0.06456810724476882
0.4949789224351375 0.8801551151214551 -0.37806175367587824 0.4069870826112945 1.1455425186802535 -0.16412066085184182 -2.1994020114538295 0.35041908575533853
1.4661515041135909 -2.467014391171513 0.9573972630319891 0.7752823896115223 -0.47820849874263327 -0.49235782774605713 0.7650906224426751 0.35829425440610846
-0.8762693271335605 0.33513874643824604 0.2422510999326647 1.0559836851819617 0.23130523407713205 -1.1816700371679572 -0.4618580374301658 0.6060603103033019
-0.3251992779421265 -0.011906048159153242 0.4444892011100324 -0.3273526335381819 -1.5342940907117724 0.6658616293569325 -1.603851538605951 1.0669811583607205
0.11335893352329787 0.07844833900508147 0.4313341814157981 1.4418587762457495 0.23971415786533934 0.13048421955641926 0.5767510519292067 0.006876214208687954
-0.5085036630059918 1.3424013904454173 1.3884561089649736 -0.036008784298266774 0.3386305037685967 -0.6690328610597249 -1.4389053366984648 -0.5998259849334029
-0.5584748654589959 1.5497979258788273 0.504752777700407 -0.5657579982552298 0.5766400405928083 -0.2498033260585047 1.1090410055036197 -0.6923040771014013
0.351288823432852 1.1055306013884394 1.4410327736997728 0.06568069226355863 1.0776115012681589 0.00033319121799969126 -0.5655509138816937 -1.2541120218417874
-1.1774802095796315 1.81361740338903 0.38922729410167733 -0.41358660049099594 -1.2596427472711444 0.862940847735843 -1.5255544347905365 1.011576522725064
-0.3973972208757338 -0.5703611374336816 -0.6624780780976152 0.6992349913613861 -0.7545651830591054 -0.9835753828501536 0.04681819839335179 -0.15127680841326602
-0.2060104670109515 0.4116776831522131 0.24652682510636537 0.776015369040586 0.5143528096649901 0.5334444693503604 1.041994653417898 -1.1952036599169453
-1.0552962969951707 -0.2910670076803814 -0.5442826588338211 -0.2933029428143729 -1.2654186536897 -0.5283721149335744 0.3843198394515355 0.07505143443703392
-0.8659505424948736 0.22266607911028655 -0.2866255973730436 1.012328969241803 0.032846687201188274 0.17726027516406012 -0.43956703655191237 0.4558395114764905
-0.09443427779141 0.08624614599105285 -0.24297957186618052 0.6628564635750889 1.539821638764361 -0.35387730036786047 0.3389661801237716 -0.20993240946557906
0.980878464572965 0.6471534997020554 -0.7745845719513132 -0.9963508780811478 0.46825072204539625 -0.13597739333145853 -0.14136538040851976 0.20519878900243016
0.9793703671651801 -0.07184183609341399 -0.5891585663525932 -0.0989173290698517 1.788881017823222 0.032592526126879365 0.686282245565686 0.41241019588112404
-0.05668904918614817 0.38570959375717406 0.7950315901994147 0.6366994810798098 0.22094329633803653 -0.18165357042092758 0.5111228509015301 -0.7470028825796189

transformer_encoder.layers.0.self_attn.qlinear.bias f8 [32]
00000000: 6ed7 be7d 7439 e9bf 0ce0 0daf 36ac f13f
00000010: c20e 0711 d499 da3f 35ef 1b45 7749 e1bf
00000020: 4742 7080 5fab d53f 37a0 b67e 88e1 f1bf
00000030: 4763 0609 4d17 f23f 7874 ffd7 2439 ea3f
00000040: 1c6d 55e3 718b ea3f 828c 56ca 43fa ad3f
00000050: ea54 c1df 1da8 d33f 75f2 1abf a75f 91bf
00000060: 8a17 5509 65ed bf3f 623f 1de7 6dce f53f
00000070: d44e 9d3b aec9 ddbf d6c4 dfcd bf13 e1bf
00000080: 71c1 12bc 26c5 d1bf b1f9 f52e b439 e8bf
00000090: abcd f17e a04b ce3f f1ec ad5e ed54 ae3f
000000a0: e7f6 21b4 99e5 c2bf 7ba9 dff8 83f4 eb3f
000000b0: b992 fc74 f3d2 f1bf 9da0 5128 e4d0 eabf
000000c0: faa7 a7ac 3e5c c2bf 7eaa 771f 68bb f63f
000000d0: a4e6 c827 c46f a63f 1283 2238 4d9f c2bf
000000e0: 14bc d2e6 34ea b73f dc9b 1e4e 204e d23f
000000f0: 8af6 eb00 4a2e d23f 237d fb7f 39ae e0bf
-0.78826355514205 1.1045443380407987 0.4156389395031789 -0.540218005160091 0.3385847811014497 -1.1175618123761646 1.1306887009179307 0.8194755762775818
0.8295220794783833 0.05854999394366535 0.3071360287770647 -0.016966458357944043 0.12471610524980128 1.3628977802181557 -0.46543460675932846 -0.5336607953051054
-0.2776581608441325 -0.7570439259723597 0.23668295095886313 0.05924169331316332 -0.14763184829273898 0.8735980854810771 -1.1140017099179842 -0.8379994189717938
-0.14344008856215834 1.4207535962292748 0.04382145867971346 -0.14548650017697945 0.09341745982486344 0.28601844433654633 0.28407526102078207 -0.5212676524787735

transformer_encoder.layers.0.self_attn.klinear.weight f8 [32, 32]
00000000: e654 e0ac 5fe7 edbf 24ff d993 8fea eebf
00000010: ae2a 5095 b922 90bf afe4 dc73 9cc5 0040
00000020: 0f6c 7e83 41a7 d93f 5c92 d265 2b26 a5bf
00000030: 21cd 5011 0fb7 c33f 77c6 46e1 7610 e7bf
00000040: 8e0c c7f8 6855 f33f 3830 871a d017 dcbf
00000050: 01a3 05a6 6f61 cc3f 427c 12e3 1b6b f9bf
00000060: ab01 752b 8857 ce3f 59fb 72c8 ff85 d3bf
00000070: 50ec 067f d447 9d3f a40c 83f3 33c6 f23f
00000080: 8d73 3ad4 8f08 bebf 059b e88c d912 f73f
00000090: 35eb 71da 8de6 e7bf 2ec3 8344 f575 f5bf
000000a0: 1ba3 c359 1448 f7bf 0965 c3d9 3dbf e83f
000000b0: 9822 924e 7069 e5bf 8150 a5bd d449 e03f
000000c0: eb48 7539 8806 fa3f dda1 9900 2f88 ff3f
000000d0: 8ce6 f0b5 04f9 b33f 6cd5 12e2 179e 843f
000000e0: dfc5 5345 b301 eebf e114 667e 4a89 ecbf
000000f0: 832d 35b0 c8ad e83f 7040 24a6 e53f d7bf
00000100: 5454 dd82 28a4 e33f 4708 f18e 07e0 d13f
00000110: 541e 35df 7552 a8bf df0c 2986 c74e d8bf
00000120: f8c0 112b f899 f2bf 1820 02c8 3bec d53f
00000130: dbd5 9842 173d d53f 46cd 3c71 41ca e43f
00000140: afd6 1ee4 50b2 eabf c6a6 92ea 826c f13f
00000150: 2b22 845f 7279 ec3f c798 4247 6b82 d03f
00000160: 0691 fdf6 bba2 e03f 3e94 028d 652a d7bf
00000170: c6d4 5293 4eab f1bf d042 5a72 a9ef ec3f
00000180: 9074 9b76 08d5 b43f df9c d0cc 0049 d23f
00000190: 4ab0 76ac 445f a63f 49bb 2e13 f307 f13f
000001a0: a5c1 2f43 b3dd f1bf fcfa 8221 9e19 c33f
000001b0: fbbb 8a75 97fa e1bf 6e6d aa92 f4b2 c43f
000001c0: 37ca 4f72 343b 9e3f 117b a188 6d66 e53f
000001d0: f426 7254 72d2 e6bf f0b0 24e0 8bb9 ed3f
000001e0: 91fe 650f c94c c6bf b36a 8e6c ec4f dabf
000001f0: c2cd 32aa df11 c3bf 58c9 1543 137c a83f
00000200: 302e c25b 7cff fd3f 9da0 2b7a cd97 e1bf
00000210: 3ce2 fe8d 0a01 e13f c3b4 c368 9f10 ad3f
00000220: a7ed 681d be48 c73f d717 a27d f2bd e6bf
00000230: d29e 0ad1 4a60 e1bf f8e3 2898 d577 f4bf
00000240: 0d6f 6782 2285 f43f b330 c6ea 041f f2bf
00000250: c1f1 fb77 9120 f03f 5d88 f7c9 ab74 f53f
00000260: 9dfb 7422 1b58 d9bf d4f9 aa59 7cad f9bf
00000270: 6da1 ae80 fdf7 e73f 7ded 79a4 3252 e03f
00000280: dadb d364 6ef0 b4bf cfd2 c4e4 81c8 c5bf
00000290: c8d2 0383 66ad c53f 58f7 7f93 765c e13f
000002a0: 8890 7090 377f f23f 38d7 de12 654c ce3f
000002b0: 162f 1c1a 8a54 ccbf 855e 3bfe f4ff d43f
000002c0: b14a 35a2 c4d4 e4bf 78ad 6281 5a16 e63f
000002d0: 38b7 c806 931d ffbf ef84 5f75 accd f33f
000002e0: 1114 ab3a d76f ebbf 794a a09d 8ebd e13f
000002f0: 4c1f 48dc 88c3 c43f 1484 944c 9907 a3bf
00000300: 3856 31b1 c7db debf ee34 7205 0b33 e93f
00000310: c602 1992 1947 ddbf a6e7 6b70 eba5 e3bf
00000320: 9c82 d18f c5fc d8bf e9b0 1cfa 64c4 e6bf
00000330: 61ac 126a 9ba2 b33f bf58 c4fe d826 ea3f
00000340: 75fa fad7 ea8c f8bf b884 f6c8 2d0b 75bf
00000350: 8655 7727 6a66 eebf 8c97 7156 c337 ccbf
00000360: 45be 74d2 5529 f0bf a9c1 729e aa05 f5bf
00000370: 6cd1 6d89 59b7 e13f 6005 1f38 e7fb ebbf
00000380: da9b 943a bc7f e33f 41a9 523f 0413 d43f
00000390: fe66 a13b 4a86 f2bf 5bdf 1418 d9ef d63f
000003a0: 8473 6fe2 97e7 ee3f c0b6 6010 2608 b1bf
000003b0: 519d 9031 d556 d33f 9827 2164 d559 f1bf
000003c0: df88 c720 4b03 e93f 6834 0c77 7016 f13f
000003d0: 594d b03e 1135 d03f a8cf 0b89 2c99 723f
000003e0: 5aa1 9099 d965 ddbf 17f4 0148 17d2 f0bf
000003f0: c571 39b5 c57a d9bf 96a0 2115 b81e da3f
00000400: a68d bd31 d276 d93f b574 92e0 949a e83f
00000410: b84e b09f 835f c83f 450e d71a 95d3 e63f
00000420: 4a83 8a55 0ade dd3f ec2d dbb9 7ad5 8cbf
00000430: aef1 b111 2426 fb3f 78ce a5e0 98bc f3bf
00000440: 74ed dfb2 bec2 ef3f 9e7f 044e d89f cfbf
00000450: 90b8 018a 0605 c63f 011d ebb6 9a48 e8bf
00000460: 38fc e2ad eb89 babf 8db4 57b0 0b89 f63f
00000470: 370f 3473 6b2b 0240 961f 16e2 ddb8 d6bf
00000480: c73b 7d69 d92b b23f 41f6 5772 b5d5 e73f
00000490: aeca 2486 f204 d3bf 8da3 8cba 1460 f73f
000004a0: 69ad 7514 e7f8 eebf 740c c258 5d0b d93f
000004b0: ea49 e0db 8d95 b93f 2918 b072 b0fd df3f
000004c0: 51d1 e80b 9a63 ffbf 8385 fabc bf3f b93f
000004d0: 8500 8ecb f88e e6bf 9276 405d d3ed d93f
000004e0: e8ba bf80 e2aa ba3f 444f 37a9 1ad5 f7bf
000004f0: 9c50 4245 7b84 9bbf b2cc 451a 2d22 c03f
00000500: d368 93a5 db42 e33f a40c b428 d4df 9c3f
00000510: 2465 6a4b 0737 c23f 2916 e71f 1e5b f13f
00000520: 3e34 da54 38fc ec3f 0857 d4e6 5040 f0bf
00000530: 639b 3956 1b1f a3bf 656b e6ed b389 e53f
00000540: 45b0 eff3 db3e e8bf a677 144d 0cfd c4bf
00000550: 388c bbce 572f f0bf c6b6 6f74 c5de aebf
00000560: a91d ad23 325c db3f 0471 f2a4 466a eebf
00000570: 48d9 4e2d 4c33 eabf b873 885e 1a7d d83f
00000580: a061 411f 1ae0 d2bf 210f 26e9 6c67 e9bf
00000590: b9ed 6053 be0a f1bf ffe5 2501 8112 dabf
000005a0: 004c e5f9 0e15 f43f df71 75dd ad74 e1bf
000005b0: de4b 1ed4 b270 fe3f 667e 4ae9 1870 c7bf
000005c0: 76e9 0ae6 7f51 e3bf 436a c015 afef d0bf
000005d0: 5bd5 c758 936b e83f 224c eacd dec8 f43f
000005e0: d1c5 7460 8e79 c4bf c3c8 a7e1 47c7 e4bf
000005f0: 91ec 6f98 b804 ecbf 2fc4 4ba1 8596 debf
00000600: 7b84 7ca8 0510 dbbf e8c6 2e54 3f61 df3f
00000610: 9ce7 0b6c 3973 d5bf 5e0c d84b 77d4 edbf
00000620: f6db c4b5 da7c af3f 19b6 52b1 e556 d7bf
00000630: 3aa9 7195 4a40 e63f ef5f c5b7 a601 e63f
00000640: 9ddc d2f1 91de f53f 9fc8 6fe5 57e7 de3f
00000650: cdec bea9 5642 f5bf 4f13 c7ca 1a39 b3bf
00000660: 2e02 76b9 e676 de3f 6d35 7fd0 6cfe d4bf
00000670: 4470 381e 19ff 9cbf 0781 10ba 033c e73f
00000680: db67 aa3a 1150 e9bf 5049 f6a7 5e4f e33f
00000690: 3849 f2b2 2d3d b4bf 3db9 5907 2303 ebbf
000006a0: b887 ede1 23c1 e0bf 0900 79d1 daff f5bf
000006b0: f9c6 37c4 7861 ee3f e6c8 af49 0424 d6bf
000006c0: f8c5 5ea1 bfbe f03f ce49 f0e8 b8b6 f7bf
000006d0: 4b82 0034 ce71 e83f 00e2 5ea1 2219 c63f
000006e0: 7a59 cef6 428d b73f 03bf 8b1f 8b38 e0bf
000006f0: 7c87 3e95 9793 e0bf c3c7 4cca 3a35 c83f
00000700: 5a14 135a eeaa cc3f 3c49 f1b4 271a dd3f
00000710: 1a4f 16ec ead0 e8bf aea1 f6a7 1fcf e1bf
00000720: 7eb0 a9b1 8deb e0bf 01ad 3398 f994 e1bf
00000730: a9ad 6aaf bcaf f03f ac54 8a09 fc05 d1bf
00000740: 3c91 4891 5c1f e53f 7a52 6675 c3b2 e7bf
00000750: a6d1 baee 3d30 e53f 68a2 79a3 d6e1 e8bf
00000760: 70b9 f3ff 32db bb3f 0156 d1d3 fcaf c23f
00000770: 99df 0cb4 0f5e d5bf cc11 1066 2197 ff3f
00000780: d3d5 c2a4 806d bd3f 0cfe ba8e 70c3 ab3f
00000790: 9f86 f305 cac4 e43f 7489 bd19 4ad4 e53f
000007a0: e19f 1bf0 d99c d7bf cc1c d8c1 1773 b43f
000007b0: 399a 7f79 8733 eb3f 4055 3b8e efaa a03f
000007c0: c90c 8f36 0feb c33f 4e16 74c9 1100 ff3f
000007d0: 8c6c 43de 1ddc e43f 68e8 e333 421b cb3f
000007e0: dea7 63a7 6768 e1bf 23c5 714b 007e fabf
000007f0: 0847 5c54 3df7 92bf 4e17 1018 0429 abbf
-0.9344938637247224 -0.9661329162335943 -0.01575746511302139 2.0964898158823284 0.4008334907645698 -0.041306835345754606 0.15402401299943683 -0.7207598113947843
1.208352062022445 -0.43895342436440243 0.221723514619292 -1.5886496419914384 0.23704626199652287 -0.30505365920173727 0.028594322445979536 1.1733893882926987
-0.11731814318996055 1.4421020035021581 -0.7468938127998174 -1.3412983585696554 -1.4550975328840596 0.7733449223698311 -0.6691209349238134 0.5090125755327933
1.6265947575052973 1.970747949928515 0.0780184692565859 0.010067164026944929 -0.937707553295862 -0.8917591541982369 0.7712138597066062 -0.3632749674297946
0.6137888484905809 0.2792986770547298 -0.04750412320805411 -0.37980831243130625 -1.1625901873013031 0.34254354984341395 0.3318536901818711 0.6496894084615767
-0.8342670875051307 1.0889920390131222 0.8898250451612219 0.25796014746664436 0.5198650192292298 -0.3619626881648549 -1.1043229822947054 0.9042556031655185
0.08137562652287245 0.2857057571549841 0.04369558911579981 1.0644407986944364 -1.1166260361170341 0.14921929012594848 -0.561839799474796 0.16171128426945408
0.029522723652869422 0.6687534016199114 -0.713189282353794 0.928899705676967 -0.17421830417514575 -0.4111281452293653 -0.14898296175452513 0.04782161897573428
1.8748744568173485 -0.5497805963650709 0.5313771031715713 0.056767446077949944 0.1819074290850555 -0.7106869176648115 -0.5430044253198167 -1.279256433843555
1.2825036138446564 -1.132573048674243 1.0079512297516973 1.3409841431935299 -0.39600256314218446 -1.6048549177790976 0.7490222466777091 0.5100339138438553
-0.08179368936167411 -0.17018150015214537 0.16935426137174248 0.5425370102745815 1.1560588495422355 0.23670638486299267 -0.22132993960291775 0.3281223757489687
-0.6509726684692706 0.6902287032184367 -1.9447202935220513 1.2377132973563751 -0.8574024339546914 0.5543892935405231 0.16221724277442673 -0.03716734943214575
-0.4821643095395731 0.7874808412904295 -0.4574645926223123 -0.6140038676960458 -0.3904279617764048 -0.7114739308358625 0.07669993724509673 0.8172421432416498
-1.5344036518796689 -0.005137614104939896 -0.9500017901252 -0.22045175286183072 -1.010091611951695 -1.3138834180245829 0.553631561675997 -0.8744999023548807
0.6093426841879321 0.3136606806171081 -1.1577856377902545 0.3583891616030905 0.9657706663671068 -0.06653058910225251 0.30217485275575934 -1.0844320212658882
0.7816520347808157 1.067978348760585 0.2532389747804778 0.004540609327467061 -0.45934143063143085 -1.0512917340086056 -0.39811842630095057 0.4081249433861641
0.3978772626635084 0.7688698183225343 0.1904148606996523 0.7133279346675826 0.46667726853961666 -0.014079054638748333 1.6968117419447526 -1.233544232873923
0.9925225728651825 -0.2470655804581811 0.17202836741075034 -0.7588628361344548 -0.10366700167922793 1.4084584129698527 2.2712010383856085 -0.3550333698153677
0.07098158669872055 0.744837497069689 -0.29717696285221507 1.4609572684368886 -0.9678836249926636 0.39131864230893787 0.0999382650191262 0.499858963012573
-1.9618168320858624 0.09862898219809861 -0.7049526191404004 0.4051407251989555 0.10416999476704414 -1.489527379036148 -0.026872564413296204 0.12604297430843797
0.6019113763716412 0.028197588905652396 0.14230433638002993 1.0847455259512435 0.9057885796806955 -1.0157021538520343 -0.037346700931087516 0.6730594297872413
-0.7576732410793815 -0.16397241367024867 -1.0115583491795075 -0.060293360198426835 0.427502188530037 -0.9504731389638725 -0.8187619099542554 0.38263568145503823
-0.2949281029919124 -0.7938751748738221 -1.0651229149797088 -0.40737938987840033 1.2551412354994227 -0.5454930615774706 1.9025142942307336 -0.1831084384075325
-0.603698682119371 -0.26462914585286884 0.7631317838665085 1.2990406077922292 -0.15995959958813313 -0.6493262679416819 -0.875576303223527 -0.47793713332709137
-0.4228529115080801 0.4903105089280033 -0.335157733453906 -0.9321857911421707 0.06149943798884998 -0.364678786437112 0.6953480643108272 0.6877015675809143
1.3668384023892834 0.48287007718966807 -1.3286959295935958 -0.07509009791017472 0.47600715743468214 -0.328028873071921 -0.028316872090826686 0.7260759958335549
-0.7910238405049727 0.6034386902340803 -0.0790585100060398 -0.8441329139293782 -0.523576680436455 -1.3749645407224327 0.9493984062557664 -0.3459482879253656
1.046569471695305 -1.482109937588223 0.7638922706283408 0.1726420677130278 0.09199923062837981 -0.5069022766237768 -0.518016616337476 0.18912443998266157
0.22396640203638435 0.454721380902942 -0.775502644641594 -0.556533649495625 -0.5287540883996511 -0.5494354222004462 1.042904553624661 -0.2659902661483311
0.6600783193175981 -0.7405717175448239 0.6621389067354826 -0.7775681679605215 0.10881346463040642 0.1459957155481533 -0.3338660486510832 1.9743970858408941
0.11495212576377094 0.054225461409711156 0.6490221134410666 0.6821642401448984 -0.3689484448245804 0.07988117678188472 0.8500401852623504 0.03255413638332039
0.1556109444046341 1.937516962936019 0.6518697110253853 0.21176936658577294 -0.5439947385141257 -1.6557619998023447 -0.018521269105867183 -0.05304730218635588
