experiments/fl_train_noise_0.5_max_grad_norm_5/20250422/model_round_2.pt (torch, 62777 bytes, 25 tensors)

embed.weight f8 [32, 8]
00000000: 8801 7265 ebe5 e2bf 2fb8 29a0 d0c4 c73f
00000010: ae64 75ba de5f d9bf 9d72 ad95 951d f63f
00000020: 57ef 5bf2 d980 f3bf 7aed b17a 1a20 fc3f
00000030: 60ed 3b29 5cc6 f0bf fa14 e339 54e9 ddbf
00000040: 5848 ba27 fd4c ec3f 6e00 3d03 3ac1 a0bf
00000050: d390 6df3 c821 aabf 0592 b61d edea c63f
00000060: 44e6 5776 a5ce eabf 06b8 99ea e806 b43f
00000070: cb77 51a0 0ed7 e43f 1067 1ab1 4699 fd3f
00000080: 9648 6334 0822 e3bf 11a1 6a8e b7f8 dc3f
00000090: 4da3 5b9e 6307 e23f a265 8c10 da2e d1bf
000000a0: 2a54 38f7 d83e e43f a9ea c90f d3d6 e8bf
000000b0: 3ecc 0462 7341 cebf 5cfe bab6 3616 eb3f
000000c0: c2d8 4c7d e498 d1bf a880 dcd6 f84d f23f
000000d0: 4fb5 fdf1 bee2 f73f 8f9a 4f6a fce1 f9bf
000000e0: cc2e 53e1 589d bf3f e605 9562 6f7d db3f
000000f0: d58c fdb6 badd c3bf f372 0e7e 8085 d83f
00000100: d223 cf88 7b73 f03f 1cfd e294 3a12 a73f
00000110: aa89 199d 2c58 a8bf 096b 9360 62f9 e23f
00000120: ab1e 6332 f86d e9bf 7ddb ec2b 40b6 f43f
00000130: fae3 0401 1972 f7bf bb5f 68a6 9453 c3bf
00000140: 0879 9858 d899 f33f 39c4 73cb df1a e13f
00000150: 39d8 a3fb 3c87 f13f bd55 ada4 ec71 e7bf
00000160: 883a 26e4 cc50 933f 7795 b8f5 2ab6 d6bf
00000170: 67e3 c89b c1c8 ffbf 4864 60e9 99c6 f03f
00000180: 036b fc0a 0a5d d93f 6b14 7b60 24bf f8bf
00000190: dbb7 3fdf cc0a ecbf 9277 6b2c 59ad d53f
000001a0: 756d 0746 b790 cfbf 8091 b2d9 c5d8 f23f
000001b0: f497 207e 5095 f23f c1a1 3b9d 72f0 e03f
000001c0: a5ac 4df9 ceb4 f43f af54 3265 62ce d6bf
000001d0: 1c5e b749 106d d5bf cdd8 0ec7 3c0f c23f
000001e0: 07eb 36e9 d107 ecbf fb41 4548 e2fc e63f
000001f0: 38b4 3a47 412f ca3f 3569 9c81 c6d2 e73f
00000200: cde4 5ebb 1581 fc3f c747 83bb 398c d13f
00000210: 9842 fe9a 984d bfbf 4eb4 86d2 b383 dfbf
00000220: 8221 919f c2f6 dcbf bc8b 1468 dfa3 dfbf
00000230: 7743 6c30 0583 dabf e167 6eb6 27e9 bcbf
00000240: 6d24 1624 8e9e eabf 6243 94bc 1869 efbf
00000250: b002 9fa6 3909 dbbf d442 49c5 8da6 dbbf
00000260: 8327 1cc0 4bf8 d83f ebd9 53ae a891 f53f
00000270: 5c49 77dc 2535 f13f d340 67c6 0cf8 ed3f
00000280: fc5c b0b1 c547 f73f d488 4440 8aee bdbf
00000290: a82e 9a54 c5cb f3bf 600b 817c 7ce2 b3bf
000002a0: 52bc 00bb aa67 d0bf 30f4 20cc 3e12 c23f
000002b0: e8de 9245 fb17 f1bf fd8e 3de9 0a70 dc3f
000002c0: 806f f1a1 3d00 8cbf 23f3 b3d5 c108 f7bf
000002d0: e861 2182 b4de ecbf 3b7b 4c67 0287 da3f
000002e0: 0d44 1852 c55c fe3f f3a9 2b33 89f9 f9bf
000002f0: 5632 d990 ab14 0040 a1fe 5061 1f89 dd3f
00000300: 5ee0 f0ca 46e2 f6bf 9fa1 ee96 f325 f83f
00000310: ca79 1d06 857c dd3f ce0f 0f55 40e7 df3f
00000320: e62a 7e12 c3b2 a3bf 880a df44 904b ba3f
00000330: 2f5e 15a6 4ba7 e33f 1dd5 f65f f6a9 e5bf
00000340: 2387 6c88 2670 cbbf 2c1c b32f 5d5c c03f
00000350: 67a7 40cc d6e0 e3bf b498 d727 8647 e7bf
00000360: 1b81 15db aa28 f23f 2e7f 7989 bd40 e0bf
00000370: 3f96 c754 f1ba 05c0 a2e7 2cbf 404b df3f
00000380: 9eeb 52d0 b6d9 e13f 0d42 b4f6 93f2 febf
00000390: cc3b 5932 4ae9 c1bf 77d6 1125 ed32 dcbf
000003a0: 89b4 0a53 fa94 e5bf 9612 fdf7 7623 d4bf
000003b0: cb36 74bd 471d c43f 485c 0331 18e1 d3bf
000003c0: 9b90 5f3d 6df7 c8bf e2ed 6153 eeca f5bf
000003d0: f454 9317 8e49 e0bf 0c7b 4e82 ce7b 83bf
000003e0: 9386 7680 7fbf e33f 0da1 cd2d 6c30 f9bf
000003f0: 3160 b689 7c9a d73f 5683 eab3 3039 be3f
00000400: dc65 a469 d726 d0bf ca02 1374 6fad c33f
00000410: 178b e649 5733 edbf f0f3 994e 63e4 d7bf
00000420: 908a b322 803c cc3f ace3 7ae2 19ec 9f3f
00000430: 3697 89d6 2513 f33f 110a ecb6 255c e43f
00000440: f508 5001 ea73 edbf 7705 4b81 88e2 d33f
00000450: fb4a b83f 74e0 f33f b6db f6ba 4d2a f03f
00000460: a8d7 cd2a a69e f43f fe58 d772 fb0d e7bf
00000470: 0836 dcdf 9b96 ebbf c2c4 66e7 7b5b bebf
00000480: 9c48 b5db fb50 f93f 8ae0 f200 6e4a cfbf
00000490: 0853 9d12 9da6 c2bf d026 cd0b 84af cfbf
000004a0: 185f 2c65 a402 f33f 14a6 5094 1adb e83f
000004b0: d5ba a09d ab83 e1bf 4399 5e8a 5341 e03f
000004c0: 1898 eb17 d68d e73f 7458 1d40 0b2d e83f
000004d0: ee97 88d5 0051 bebf 9050 73aa 9340 6bbf
000004e0: efee ea37 1166 e7bf 50b0 d4d8 1d7e bc3f
000004f0: e166 a72c 1a09 d1bf 83c8 429d 9a69 ea3f
00000500: cc89 b103 7d1a de3f ffbf 3eae b0f3 eabf
00000510: 9476 4492 c732 b8bf 04bc 33f7 d36c a33f
00000520: 729d b95b 7c01 e73f 5e2f 7af7 3c2e eabf
00000530: a72a b173 a685 f9bf fcc1 2dfd e6b3 c1bf
00000540: 0eb0 46e8 297a f1bf 0ee4 48c8 1d55 efbf
00000550: 99d1 65ae 85c9 0040 3d5a e396 f391 e1bf
00000560: 5f9d 488d 1975 d9bf 4c3b 9b5b c15d de3f
00000570: 5a52 d2dc ad8c e23f 0fda f57e 9d96 f93f
00000580: cd4c 8e67 ed89 e9bf 7dcd a367 9fbc e9bf
00000590: 77e8 e854 3f88 e43f 8760 e1e6 49af e0bf
000005a0: c2e4 cf17 1a32 e23f a555 412d 61ff ebbf
000005b0: 6b2e 34b7 fae1 f3bf 376f f61e e124 f1bf
000005c0: 86a7 a172 0e58 c13f c071 1012 b6cc f4bf
000005d0: 5199 31a5 0fa9 c93f 2e0d 060c 886c f63f
000005e0: 26da 3ae6 3633 d1bf ab6c a475 17ee f4bf
000005f0: a709 2fb1 18ca df3f 285b 1401 4526 f3bf
00000600: 9d12 89e6 88a1 c0bf 7b6b da1c 1541 d33f
00000610: d489 dad3 37bf e7bf 7777 f772 6e85 d6bf
00000620: 48f7 7253 defe e5bf 37d7 e7a4 5e53 f63f
00000630: 7e27 77e0 32b1 ac3f bba4 0fd5 1dfd f6bf
00000640: 9050 392f 539e bcbf a2db 3020 2c95 d9bf
00000650: 8656 9e0a 5c06 a63f 1862 72d6 9e5a d73f
00000660: 4dcd 7f84 51c2 efbf 291f 10eb 51f9 c73f
00000670: e20a 2597 1999 fbbf 7df4 2b67 7c7a f7bf
00000680: 4c9e 71f4 2e0a eebf 25bc 38b2 7584 f3bf
00000690: 10a1 5d3e 1ef7 73bf 7d1f fcb6 c9c8 e2bf
000006a0: fc2c 08b5 db95 f7bf 4b8f 0ca4 c6e7 e73f
000006b0: 3726 c3ef 72f2 d33f c336 f064 21ae d23f
000006c0: 8b84 300b 865e eabf e407 2693 f2b7 f73f
000006d0: 73f8 1e6d 694e c8bf 25e8 d28f 01d7 e2bf
000006e0: e1b3 570e fb41 f53f 823e bc54 d24c fa3f
000006f0: aecc ad06 0a62 ca3f 9c55 c627 bfbd c8bf
00000700: db9c 59d6 6863 f23f fbc4 f555 35e0 e1bf
00000710: a6c9 e9f5 d1b5 f8bf fe91 0e9a d24c a73f
00000720: 0a74 d84c 07f0 e43f 1481 4f18 6a15 e33f
00000730: a257 a2e2 d022 f3bf d707 b12d 4b89 e23f
00000740: 5a21 f30d 414b c43f 44e6 23e1 9393 fe3f
00000750: 8efe 1c18 d179 b3bf 3efe 5413 8e82 00c0
00000760: a230 aac6 a81f c0bf 1d2d bac0 b07d edbf
00000770: 8e02 d1e0 d7d3 e2bf 1e00 8367 a12e d6bf
00000780: f646 baf1 5f74 f0bf d762 623f 2686 da3f
00000790: 94a0 dde8 7547 ad3f 42a1 1633 5b9c e0bf
000007a0: 4d70 3fb8 f149 ee3f 9631 0b58 0e05 f1bf
000007b0: f691 e1aa b7c4 f7bf e0a4 bf38 7981 f1bf
000007c0: 822c d369 dcfe e43f d2e0 b4aa be5b e6bf
000007d0: 5566 61c2 5445 c23f e4e9 e26d 1e83 eebf
000007e0: 712f cc53 7821 f3bf 0250 1d34 73ab e2bf
000007f0: cc00 1ab8 bfb2 c53f 38f5 d816 9422 f4bf
-0.5905663472513405 0.1856938154264198 -0.3964764424213837 1.3822227331903953 -1.2189578501847416 1.757837752606831 -1.0484277353960678 -0.46736627247840057
0.8843980575495705 -0.032724202056216053 -0.051039008822756714 0.17904437971914447 -0.837725382937784 0.07823043563413998 0.651252091523696 1.8499209325877395
-0.5979043029021962 0.4526804819856958 0.5634019940308491 -0.26848460784966666 0.6326718166843694 -0.776223688924195 -0.23637239728995668 0.8464616364435176
-0.2749568198809237 1.1440361397763272 1.4928578808570199 -1.617672362591893 0.12349467755410187 0.42953095080528525 -0.15520414290504073 0.38314831075858463
1.0281939834696812 0.04506094996895113 -0.04754771630975381 0.5929424177405461 -0.7946740135311833 1.2944947925404613 -1.465355876904367 -0.1509881794488573
1.225059839321661 0.5345305417705567 1.0955171422661023 -0.7326567856168179 0.01886291639817242 -0.35486864086336517 -1.986512764486372 1.0484866253157339
0.39630366394855815 -1.5466655510693055 -0.8763183937387525 0.33870534265394625 -0.24660387915978857 1.1779230598268384 1.161453716931189 0.5293515273052024
1.2941426981367752 -0.35634670145493436 -0.33478171538215107 0.14109000892285053 -0.8759545855494658 0.718369618562121 0.20456710794442912 0.744479420801588
1.7815148657958162 0.2741836863689255 -0.12227777275098572 -0.4924134784622013 -0.45256105025011817 -0.49437699474418273 -0.41424684265898953 -0.11293266490829935
-0.8318548874677966 -0.9815791781603418 -0.422438061443283 -0.43204063669422266 0.39015477905979185 1.3480612573308643 1.0754755603744206 0.936529529100904
1.4550225201581375 -0.11692108220134695 -1.2372487358833641 -0.07767465629244219 -0.2563273264121949 0.14118180243704748 -1.068354865810699 0.4443385389078996
-0.01367233419858116 -1.4396379802485135 -0.9021856824502352 0.414490319135371 1.8976491171672507 -1.6234218596315457 2.0100928608210706 0.4614942980151487
-1.4302432944660022 1.5092655082499744 0.46072507474118807 0.4984894591000256 -0.03847322083227826 0.10271550828387366 0.614171814328932 -0.6769973635006498
-0.21436006223034906 0.127818725863308 -0.6211961736018851 -0.727480962578531 1.1349285657852934 -0.5079028782892914 -2.716280615178021 0.488968073553787
0.5578264302088092 -1.9342231404190244 -0.13993194063593106 -0.4406082975395757 -0.6744357702169889 -0.3146645948184327 0.1571435618465585 -0.3106136778491799
-0.19505086418860604 -1.3620436913614573 -0.5089788876017836 -0.00951348624385908 0.6171262272875587 -1.5743219174565326 0.3688041062209804 0.11806015388948529
-0.2523706943189532 0.15373032729805508 -0.912517208420783 -0.3733146922675692 0.22059632963562992 0.031174091766590514 1.1921747570390386 0.6362484524436828
-0.9203996682774959 0.310701490652796 1.2422983635958065 1.010328035668619 1.2887326881441172 -0.7204568140976162 -0.8621348736066361 -0.11858343505334104
1.5822714407300174 -0.24445891424489147 -0.14570964249528395 -0.24754381729353847 1.1881450607379005 0.7767460724618922 -0.5473230436963045 0.5079744055299574
0.7360640017693667 0.7554985286940465 -0.11842351163122064 -0.003326691064652172 -0.7312093822615376 0.11129938644143178 -0.2661805568765044 0.8253911086560638
0.4703667198247359 -0.842247333834166 -0.09452483483297619 0.03793966667750939 0.7189313689713528 -0.8181443055668571 -1.5951294440480213 -0.13830268251651023
-1.0923251221929635 -0.9791401778994684 2.0983995079825033 -0.5490663477929228 -0.3977722053263814 0.47447236963210027 0.5796727478905936 1.5992712935818678
-0.7980868361068133 -0.8042752289024261 0.6416317613977885 -0.5213975438482671 0.5686159577445766 -0.8749242671862488 -1.2426707416915643 -1.0715037545659933
0.13549976918448808 -1.299978323520108 0.20047183576680053 1.4014969319985755 -0.2687508819903165 -1.3081278415109334 0.4967099886236163 -1.1968431512993423
-0.1299296498929338 0.30084731881805 -0.7420920503394037 -0.35189400889600314 -0.6873618726601558 1.395353931582077 0.05603941907936781 -1.436796028394652
-0.11179084685255902 -0.399729758678797 0.043017269417004164 0.3649060339171526 -0.9924705112338558 0.18729614236530637 -1.7248779205407847 -1.467403796209765
-0.938743092946376 -1.2198388063222947 -0.004874342097402243 -0.5870102476046523 -1.4740864821968094 0.7470429615100128 0.31167291082656184 0.29187807900676094
-0.8240385263963089 1.4824090717306655 -0.18989293888256817 -0.5887458619174636 1.3286085663087237 1.6437552747701436 0.20611691785925274 -0.1932906097614876
1.1492699025200668 -0.5586191824824306 -1.5443896871553107 0.045507985406661774 0.6543003559960436 0.5963640665832224 -1.1959999897858116 0.5792594807064643
0.15854657345904394 1.911029700712235 -0.07607752646162622 -2.0637475500405165 -0.12596616459302817 -0.9215930713848227 -0.5883597746797748 -0.3465960989815374
-1.0284118120657104 0.4144378298747546 0.05718582599257718 -0.5190864560909534 0.9465263937559115 -1.0637343825538657 -1.485526721481731 -1.0941097466223297
0.6561109606640374 -0.6986993154632961 0.1427408169864061 -0.9535057207315814 -1.195671393713351 -0.5834289567815178 0.16951748360953045 -1.2584420101623675

embed.bias f8 [32]
00000000: 0601 bcd5 641a d0bf d492 37d9 2df2 f6bf
00000010: 1f33 8c0e 5476 ed3f a2d1 a76f 6420 e7bf
00000020: 7fce d527 11e7 eabf bd6b ff54 1c29 d0bf
00000030: f675 1a26 6678 0040 27da 0cfb 2d04 b73f
00000040: 7cf1 22ed cf8d e43f 81aa 1b1e b3ec f1bf
00000050: 788c 1aff 1f32 abbf 68d7 dedb 76d0 ec3f
00000060: 5302 16dc 5d2d cdbf 0403 b757 1e7c e4bf
00000070: b4a6 124c c45b e1bf 8978 84d9 db14 d6bf
00000080: b4e4 8539 bf21 f4bf 1a96 7c40 c494 e5bf
00000090: 08bc b68f 0ef6 e2bf c733 bbaa b83c ec3f
000000a0: 406c f6b2 fe5c bb3f 946d 1ee2 527c 0140
000000b0: 4298 2417 f634 e03f c570 4f3a 7800 e7bf
000000c0: 5dc8 a2e5 9aca dc3f 7c27 2834 0b4f acbf
000000d0: 52a3 dfb6 57ba eb3f de3e 2b49 c777 e0bf
000000e0: 3c01 aedb 6b01 f1bf c84d abcb 7bb0 e6bf
000000f0: c1ef 53b7 2623 f73f c362 4f92 cfb6 e2bf
-0.2516109549760731 -1.4341257557909346 0.9206943782934082 -0.7227041416904749 -0.8407064226179982 -0.25250919628677676 2.0587885834527198 0.08990752581744542
0.6423110610553944 -1.1202880073639394 -0.05311679829653654 0.9004473013253405 -0.2279469799650707 -0.64015118724646 -0.5424520002172444 -0.34502311937274804
-1.2582390067093856 -0.6744099864487823 -0.5925362402830396 0.8824122747988604 0.1068877398414978 2.185704962304678 0.5064650012980183 -0.7188073290704088
0.44986603188875113 -0.05529055606537178 0.8664969035863612 -0.5146213940697313 -1.0628470021475342 -0.7090434053338237 1.4460818444485855 -0.5848157746905475

pos_enc.pe f8 [1, 12, 32]
00000000: 56c6 764e 480c b43f 2354 7074 38dc ea3f
00000010: 36b2 9732 36cb edbf 91e7 4d16 ee24 f43f
00000020: 39a9 aa0f 7202 f1bf 4789 055d d73a e3bf
00000030: 6ff9 a0db 3950 aa3f ce57 f6d4 df20 fdbf
00000040: 2084 14b2 72c7 edbf 919f 9762 0a19 d4bf
00000050: 397d 9bf0 b9bd d13f 463f 23fe 6498 e83f
00000060: e588 6522 8def e43f a05a 315a 1927 fa3f
00000070: 2a9f 8452 43f7 fc3f dc0d 7433 f913 d9bf
00000080: e0fa fc08 4c56 e7bf 1ea2 c7d8 5a3b d13f
00000090: 3239 9f83 c6d6 ddbf 6676 466c dc48 d13f
000000a0: 562d 9f39 9873 f03f 4a39 c750 f156 f03f
000000b0: 7ed7 bb10 1813 cdbf 0810 df29 8dbf bb3f
000000c0: 1b6e 8e12 6836 e33f d758 fc74 f7e4 fa3f
000000d0: 8830 6b90 dfe5 ecbf bc6c 555c 16df e2bf
000000e0: af8a f117 c7c4 d4bf afaa 6c29 2ca9 dbbf
000000f0: bcbf 3717 6ed4 fcbf b582 e325 a458 f43f
00000100: 5de1 1fd0 b14c c83f e831 994c c8fc efbf
00000110: 4817 986f 7e2b bfbf 27e3 5199 b30b febf
00000120: a83d 0624 d574 eebf 1aad c747 4c86 bd3f
00000130: c90a 20d0 423f f13f c2fb f83d 6b70 ca3f
00000140: f6f1 e22f ebb0 b6bf a3d5 6c4f f378 dd3f
00000150: 4c2d a166 5d2e fdbf 229a 2fd1 45c0 dabf
00000160: ecc3 68ea ba1d e43f cf61 162a 0056 b83f
00000170: 7e76 da5e f4c6 bcbf 2c0f 1365 c746 e33f
00000180: 7100 4012 f103 d13f b8e3 0ee1 629f dcbf
00000190: 4fea 4210 61d5 c5bf ae78 c7e3 428b f4bf
000001a0: d89e 60ce 6479 d9bf e7d8 53bc 6171 ddbf
000001b0: e46c 8e22 50e7 f5bf ab48 ab9d 41dc b1bf
000001c0: c68d 9d27 c4a7 da3f 2a15 62a7 c38d b13f
000001d0: 4085 9f04 5948 f73f 6482 77c3 c089 d2bf
000001e0: e885 7e63 259d e2bf eace 2f51 9eb8 ee3f
000001f0: 4678 6783 3e56 e8bf e80f c22b dd4a ffbf
00000200: 6077 606d a9c9 f0bf 1706 cfd3 aea4 f5bf
00000210: aca7 1d0d 3bd6 da3f 96d5 bf60 604c c6bf
00000220: 3a6d 7ffc a870 b63f b02a 4812 b839 e53f
00000230: 4e35 8699 6bbb ee3f 26cd 9922 de87 a9bf
00000240: 5270 4780 85bc d4bf e3de 71dc 8cdf ddbf
00000250: b239 b0e4 4490 c5bf 0624 e254 a49d e23f
00000260: aaaa ae65 6b47 cd3f 94ca d1f0 8796 c9bf
00000270: 68e4 a6cf 8a56 d73f 60c6 1b58 4616 57bf
00000280: ab2d 7958 8a56 e43f de97 d351 872f b5bf
00000290: 76dd 2ec2 f93f d83f 62ca 0901 7c76 f23f
000002a0: 3624 4334 d922 ce3f 52eb 66c9 760f e0bf
000002b0: ab8c 1b78 c22a ecbf 301e 22f7 3fcf dfbf
000002c0: bccd d546 3bf4 ff3f 5b08 b886 f0e4 f23f
000002d0: 1840 2427 e2ee d7bf 5926 a473 c667 f5bf
000002e0: 9a3a 5a62 0501 e33f f779 aecb 84c8 e4bf
000002f0: b2f4 20f5 1e23 cd3f a69b 699a 5d41 d73f
00000300: 8fd0 b5bf 1d19 b23f 4e4d 8bce ce65 d3bf
00000310: b1a4 d8b7 0a16 e33f 00fe 3161 5386 9fbf
00000320: 2c25 bd83 4232 d63f 5493 9118 e1ab c03f
00000330: 1402 e866 90c3 efbf 89ff 952d 1571 d23f
00000340: 381c dddf 7520 f03f 778d 9218 6f47 f23f
00000350: 08f8 4e7f 0f60 9bbf d40f 8884 584f ba3f
00000360: 1835 1d5c 7a12 903f 5acc 7ce7 2581 b33f
00000370: 48d6 f3b7 a9b4 e83f d0de c9c3 0019 dcbf
00000380: 512b b030 0899 e4bf a439 6d2a c7a9 e73f
00000390: 994a c6b6 9279 e83f 14af 38ec da33 8cbf
000003a0: d44d 1467 bbbc f93f da8a 2b28 551f debf
000003b0: e84d 38d6 2053 a33f 88af 3af0 fc2b fabf
000003c0: de8f b51b 1ddf b83f e9a8 0ef7 5090 f3bf
000003d0: 4c24 7d05 160a b73f 5761 bc4e 0aca de3f
000003e0: d799 7caf 7d8a ac3f 72cc 27d9 cc14 c7bf
000003f0: b1b8 2703 a2bd ff3f 9de9 26e8 efcd c4bf
00000400: e3da 9ad4 39b1 f3bf 1bb7 c33a af30 d33f
00000410: 8c64 c182 7612 f4bf 7686 5d94 55bb bcbf
00000420: 0867 1905 a724 d43f a431 6184 b8b3 e23f
00000430: 1730 214d 1272 f1bf 0ce9 4b61 2abc e23f
00000440: ce7a 83cd 2ca1 f0bf e95f 80cb 5f71 02c0
00000450: 7ec0 8b29 1316 babf 6e4f f072 a541 c6bf
00000460: 020c 9c84 aedf cfbf fbe3 9c6c 1246 f8bf
00000470: 54f6 0836 4a9a e3bf ffec 3c48 625d e13f
00000480: fd6d 51cb 087b eebf eab1 aade 773f e5bf
00000490: caed 10bb da86 b8bf 027d 88b5 7170 f63f
000004a0: 0815 ef11 9e82 cdbf a10f d5e0 06d7 b8bf
000004b0: 6e29 8943 cb16 f2bf 3ae1 f072 a4e4 e6bf
000004c0: 4d98 d369 d371 e1bf 73c9 e5a9 6213 f03f
000004d0: 7551 e77c ae98 e8bf faf6 e463 9ca5 f4bf
000004e0: 4b16 e23f 1f03 db3f 1139 bfee 661e e43f
000004f0: 53fc 496e 9167 d43f 369b 8079 d812 f63f
00000500: f671 efce 9cca e13f 241b fad6 0420 d1bf
00000510: bee6 bacb 5759 b8bf 23d5 5fc2 7ea8 f4bf
00000520: df86 02c7 62f6 e13f a0b6 d7ca 135c f6bf
00000530: 05a6 9418 55a1 e5bf e016 972a d17a d1bf
00000540: efe7 0786 0ecb ea3f 7ec7 2d49 128e ce3f
00000550: 58c8 8d06 a99f ddbf ba6d f82f 58f1 e0bf
00000560: 5c4f 4517 c7ca b9bf fccd 2d57 2816 f23f
00000570: ec2f 81c7 c8a8 df3f 60e4 5846 5ac6 eb3f
00000580: f727 810c b6c9 e33f 7f28 a4d6 ed00 e63f
00000590: 7a8e bc7b 7cd0 f7bf b4de 36b1 1396 de3f
000005a0: a6d8 52ea c5bc c13f 8f20 e9cc 37b4 e3bf
000005b0: 49cc fd93 7455 da3f 8189 cb9b a515 f03f
000005c0: 322b 5dde e4e4 f4bf 4782 6872 7a0a e63f
000005d0: b075 2d5a 11e5 00c0 e2e5 1229 f693 f2bf
000005e0: 6726 b60e d826 fbbf 7c15 720e 2c62 f33f
000005f0: 5feb 48e4 9b85 da3f fed6 0425 3665 cbbf
00000600: 0200 8170 9a3a e3bf 107a 6463 33d8 b7bf
00000610: 20e0 86c4 4cf4 643f e3a0 0376 8c1a f73f
00000620: 2a5c 84b5 d242 cbbf 0152 f561 a22d dbbf
00000630: 3e1f bf5c 7f57 eebf 2aa5 4945 51d9 d0bf
00000640: 874f 02e8 cd3e d9bf 5ad3 2083 b3a8 d83f
00000650: b0b8 415c 1c2d d63f 8550 f8f0 4e8d dd3f
00000660: a198 6096 7d11 f23f c458 ad1f 7b07 b3bf
00000670: b646 12c4 ea52 be3f cf28 5f3c 6199 e63f
00000680: 31d7 b336 5edd b33f ce14 49b4 7177 ef3f
00000690: 6b01 c65a bc36 da3f c2ee 0743 704f f43f
000006a0: 42f9 e609 1c7e f0bf 5cc6 b03f d8be e2bf
000006b0: 41c3 7e51 d254 f93f f041 5bd9 31e3 ec3f
000006c0: 97e2 5b49 36e7 fa3f 8689 5b94 f98b b53f
000006d0: adbd 05c0 0bb0 b9bf 54b7 c805 916e f6bf
000006e0: 4330 e69e 4317 c2bf 234a 7b4b 762f da3f
000006f0: 2237 71ae d6f7 c03f 5199 37fd 3bee f43f
00000700: 9b1f c308 26ee e6bf 1aff 7ab0 2674 ed3f
00000710: 2fcc d45d 9f4c 0140 eca5 f5b6 ca41 d23f
00000720: 5058 175d f356 dcbf 6fb1 cc43 dbdd f43f
00000730: c2d6 0e71 b991 ccbf 8208 f601 3393 f03f
00000740: 00d8 abe2 a6c8 fcbf fb62 55d8 9062 f7bf
00000750: 4eee 7b2c 2f76 d93f 2bfc 7ddf 23e6 e13f
00000760: e625 6c8d 0b64 ca3f 770b a226 25eb e4bf
00000770: 30ac 994a 82cf d7bf f241 78b0 8ae8 f53f
00000780: 74ec c756 22bc f43f 1c82 056b 5b71 db3f
00000790: 25dc 144f ed75 e4bf bafa 249c b918 d6bf
000007a0: 2c94 e4ae ec4c d03f 9dbb 9935 7d83 e63f
000007b0: 02dc d359 a2c0 e6bf 0a10 733f 69c8 f43f
000007c0: 09bd d155 881a efbf 7c43 8f7c 6399 e0bf
000007d0: b32b 80d2 7136 f6bf 3dde 89f1 e915 c93f
000007e0: 98a4 5f8d d38d b7bf 708d 13ce c95e 87bf
000007f0: 253f 75ce 30f8 f33f c81c b459 09fb d33f
0.07831241527198904 0.8393823885149952 -0.9310561168800351 1.2590161200773518 -1.0630970584848696 -0.600932771380294 0.05139332586303424 -1.8205259627188641
-0.9305966833236461 -0.3140283549132557 0.27720497605146793 0.7686028445841451 0.6542421027955042 1.6345456622272323 1.810366937957904 -0.3918440821146001
-0.7292843032408562 0.26924773378280686 -0.4662338528986708 0.27007208417658146 1.0282213450289723 1.0212262301825654 -0.227145202799587 0.10839159271478149
0.6003914225033812 1.6809000558619596 -0.9030607052495876 -0.589732342089881 -0.32451035822138413 -0.4322004704032833 -1.8018628031677357 1.2716409187343463
0.18984053289728822 -0.9996072288573119 -0.12175741409745655 -1.8778568257386696 -0.9517617896653308 0.11533047439995806 1.0779445772065392 0.20655575300221868
-0.08863706511596789 0.46050722843514275 -1.8238195427864694 -0.41798539570155147 0.6286291673951587 0.0950622656586184 -0.11241080585247151 0.6023900007353169
0.26586558134295674 -0.447228164466249 -0.17057431501401019 -1.2839993379234715 -0.3980342879681138 -0.4600452746521015 -1.3689729070527443 -0.06976709460585322
0.4164896380300117 0.06856940113546686 1.4551630192366503 -0.289657774816112 -0.5816828673597998 0.960036428993104 -0.7605278555381652 -1.9557773312853843
-1.0492338440448847 -1.3527057908799003 0.4193256023487446 -0.17420582508172505 0.08765655674453834 0.6632957799023043 0.9603784559746289 -0.04986471340535052
-0.3240064385152027 -0.46676942375004965 -0.16846524397301504 0.5817433984640281 0.22874205079036375 -0.1999063421131565 0.3646571185923393 -0.0014091193156072976
0.635564015197294 -0.08275647876470724 0.37890476191701994 1.153926853232996 0.23543849040859904 -0.5018876966126788 -0.8802196832515582 -0.4970245278750296
1.9971268431662414 1.1808934462028648 -0.3739552862398354 -1.3378357426867267 0.5938746376940174 -0.6494773843913312 0.22763430566002324 0.3633646018919826
0.07069574289727341 -0.3030888573677729 0.596440657686932 -0.030785849387482855 0.3468176161300842 0.13024533939019511 -0.9926225671661677 0.2881520219016172
1.0079249138523334 1.1424399337637092 -0.026733629365246286 0.10277322040207021 0.015695487854192697 0.07618939305830122 0.7720535843679466 -0.43902606124855215
-0.6436806631985325 0.7394748524327963 0.7648404664817746 -0.013770780881791768 1.608577158597531 -0.4706623928342829 0.03774359335889327 -1.6357392677263949
0.09715444494719302 -1.2227334643053445 0.08999765047077907 0.48108155907677513 0.05574410216495423 -0.18032227137846096 1.983797085118152 -0.1625347026400278
-1.2307680420760156 0.29984646548006005 -1.2545075519213098 -0.11223349449348938 0.31473708627673647 0.5844385705509478 -1.090349484717995 0.5854694271395444
-1.0393493678927146 -2.3053584955741724 -0.10189933552078576 -0.17387836563340947 -0.24901372408939443 -1.5171074145021055 -0.6125842147227538 0.5426494036577479
-0.9525188418442095 -0.6639975880585187 -0.09580771510166311 1.4024521914614643 -0.2305486285751288 -0.09703104962414823 -1.1305649412266479 -0.7154104466381235
-0.5451447550701772 1.004732764875908 -0.7686378898165872 -1.2904323484539746 0.42206555594052436 0.6287111914660121 0.31882129450236113 1.3796009775339377
0.5559829751687733 -0.26757927888722777 -0.0951132652652644 -1.2911365120647325 0.5613263976012738 -1.3974798129596948 -0.6759438972559911 -0.27312115821074023
0.8372871988096885 0.2387106759375079 -0.4628698886873557 -0.5294609963343 -0.10075039213307718 1.1304095654894573 0.49467677576899294 0.8679629682511738
0.6183729404667692 0.6876134102069641 -1.4883999665698 0.4779099684342143 0.13857339803297924 -0.6157492639695351 0.41146578266415595 1.0052848897690583
-1.3058823286143704 0.6887790903602501 -2.1118495030520634 -1.16112342876874 -1.6969833922070394 1.2114677967341256 0.41440484326783705 -0.21402622993053194
-0.6009037206022187 -0.09314271141600039 0.0025578975075539884 1.4439816102913532 -0.21297677863251013 -0.42466029707182434 -0.9481808482605414 -0.26326400534033445
-0.39445827157145924 0.38529670529833526 0.3465033436722349 0.4617497781012008 1.1292701601137554 -0.07433290027015277 0.11845271384143072 0.7062231234679305
0.07759655795584021 0.98333058559424 0.40959080566974276 1.2693941706083227 -1.0307884585195812 -0.5857964748340225 1.5832083876995997 0.9027337308162355
1.6814482560713822 0.08416709777842443 -0.10034249723479745 -1.4019937730731344 -0.14133496531246878 0.409146856033802 0.1325634338158404 1.3081626788421838
-0.7165708705078829 0.9204286047824752 2.1624133425298377 0.2852656161035998 -0.4428070458501496 1.3041641853734196 -0.22319715519340916 1.0359373165706818
-1.7989872793527866 -1.4615639162568062 0.39783839553976896 0.5593432774620671 0.2061781349696467 -0.6537042383719002 -0.3720403412359614 1.369272889456735
1.2959311857109954 0.4287937684185026 -0.639395384269737 -0.3452590966079857 0.25469510154136077 0.7035509154210221 -0.7110149149365272 1.2989284971708934
-0.9719888378294012 -0.5187241967015406 -1.3882921431238457 0.19598125738024122 -0.09200784875396761 -0.011411263085796292 1.2480934204831524 0.31219705352891625

transformer_encoder.layers.0.self_attn.qlinear.weight f8 [32, 32]
00000000: 8afd f7dd 7566 fa3f d20e 626f 1846 ebbf
00000010: 6188 d997 3c7c e83f c210 93fe 164f e13f
00000020: 0d43 4917 6742 d03f 8cd3 32d8 8917 e5bf
00000030: bfae be42 1353 e9bf 7c7c d1da 1653 ccbf
00000040: f567 19dd f7c3 e3bf f23d 5ff3 38c3 d5bf
00000050: e8f1 13d6 58d3 843f 38fa 1182 e5ef f83f
00000060: 06ed 889a 3984 a23f bb51 b27a 7f2f e6bf
00000070: 19cc bdf2 8ea6 ea3f c3dc 72d5 3f3e c9bf
00000080: e7e7 1d82 72ee f5bf def2 46cb d718 f03f
00000090: 8862 03cf 3690 d93f 343d 0779 20b6 f2bf
000000a0: d56d 4d17 de73 c3bf 3e81 3fc1 fd2c e9bf
000000b0: be14 97dc 68b0 c03f 5a3e 5e4a fe24 d03f
000000c0: 388b 7fd3 3180 cb3f d4d0 afa1 0927 fa3f
000000d0: 7876 bf54 cc88 a63f 12db 53be 8453 e83f
000000e0: 7e94 aebc 9d21 cf3f 060a 834f e1e4 d43f
000000f0: badd 6a25 8409 e4bf d4ad 2b1f 7f02 f0bf
00000100: fb8b 196e 3447 d23f 86b8 815e 4473 f1bf
00000110: ffbb 52a0 efd3 eabf a8bb 9b95 288a 763f
00000120: df29 2d56 8d4c ee3f 9bdf 4b44 2d2c a6bf
00000130: 0403 2f8a 6efd f33f 0e53 cb5f 2b17 dfbf
00000140: 1faf 7b4a e95c d0bf 1e1d 30aa 6abb f53f
00000150: d100 4f52 502a f3bf b461 d29e 9912 dfbf
00000160: 1f7f a335 70f6 f13f ff36 4cc8 fbce f6bf
00000170: 10ca 8430 1b9d e13f 7f4b 1a6d 6361 dabf
00000180: f3e5 5f07 e6fa e03f 0ea7 9b61 ac7e edbf
00000190: 132d c859 828e d83f 27fc 9ec7 e505 0140
000001a0: 576c 6715 1411 e2bf dc9d d794 12ce d4bf
000001b0: 4fae b293 8090 e0bf 3398 ff17 581d d33f
000001c0: 76bc 34fb 2c37 f9bf 7c55 fa76 3896 e73f
000001d0: ab1c 86fc ebc8 d0bf f91e e7f6 00c8 e23f
000001e0: 2222 63c1 5f66 f0bf 0298 ecbf 0193 febf
000001f0: e4b3 a457 3f12 f0bf 0c4e ca8e b276 c23f
00000200: 5ce6 30f8 e9b9 dc3f c333 ae49 fdbe d33f
00000210: 3db6 e415 26c1 b33f 2d54 79be 5e61 f13f
00000220: c6e4 4bca 4908 e13f d9d6 d959 6446 d13f
00000230: 8683 2e4e 627d d53f 4fc3 9355 2d9f e33f
00000240: 4285 95db 69c7 eebf ce73 d075 909a dfbf
00000250: eb2d 1ab8 2c49 ee3f 051e 350d e7ad bf3f
00000260: 00c9 398b 032d d9bf c3b5 a69c f4b9 e13f
00000270: 458f 9a52 a6a3 e63f e8c8 44c8 4754 7a3f
00000280: c63e 4f7c 1b3c d43f 832f 0c7e 80e7 cd3f
00000290: 6b38 d7fd f947 e33f afbd 517f ad6f f43f
000002a0: 887c ccb2 089e babf a917 4b1a 7e90 eabf
000002b0: b35a 516f 1a7a ef3f 0790 78bf 54b1 e3bf
000002c0: 781a 41e6 3871 e13f 0cfb df56 3b73 cbbf
000002d0: 185f 8cbe b061 cf3f 4c4b bca2 129b e4bf
000002e0: cc57 d96c bcb9 c2bf b1c1 fbcd 4225 dc3f
000002f0: 94b8 0f85 8c4d fabf c66e 93fb 7c01 ecbf
00000300: 24d9 9884 7c35 f43f 99c7 0d2e 448b e3bf
00000310: 6abb 32fe 1d25 fb3f 62ae 6d78 d770 bb3f
00000320: a240 8fa5 9e29 e93f 5627 5fb8 4d08 d0bf
00000330: fad1 41b1 7032 b93f 6f55 25ec 71d3 edbf
00000340: 1a38 9728 633e a13f f646 67e3 14ff d23f
00000350: bb14 cb8a aad0 e3bf 7c54 2be0 7fe9 bebf
00000360: bbb4 3fd1 f2c5 e9bf 14ac e088 1893 de3f
00000370: 3d0b 8b4c c1c7 d93f a02f 1562 d0af 813f
00000380: 2c1a dcf0 0c02 c53f e905 dc44 ecd8 da3f
00000390: 481d a46c bf51 e13f 0046 384c b3a8 e8bf
000003a0: 795c e05b 99b9 d33f 6503 02b9 0110 cdbf
000003b0: 38c1 0cdf 7a8b b8bf 8567 4432 efbe e5bf
000003c0: 8ce1 241b 2356 f13f 8654 0a4a eb64 e7bf
000003d0: de0c 63d4 55a4 d0bf 5059 c2c5 451d df3f
000003e0: 2385 0b78 b6c2 e53f e7e8 8ddd 5715 ed3f
000003f0: d077 f15c 96fc eebf d48f eee1 e500 ccbf
00000400: e7b7 2e48 f2e7 f3bf 3720 4c73 4359 de3f
00000410: 7fd0 33bc 12ec c0bf 6562 3d79 95de d63f
00000420: 1054 d17f 6ac0 e3bf 935b c3a8 4c12 c13f
00000430: cd00 fa83 e67d a4bf 5a82 4300 8011 f5bf
00000440: c01e 00a7 ef19 cc3f 98a6 979c bef6 d23f
00000450: 05b8 f11f 2a45 d6bf 4e7d 1062 f3cb d33f
00000460: 79cb 6ed9 9e8e f7bf 50a4 162f d03d f43f
00000470: d645 777c 76a4 b53f 37a4 27ee b253 94bf
00000480: 2ab0 5c9c 2ff0 d8bf 5e61 3ffc 8dd1 dcbf
00000490: a354 f091 2c23 d1bf 26d8 5445 fe3b e73f
000004a0: edf1 5536 7772 f73f 5051 f60e 6441 d43f
000004b0: 984d f5b5 57b1 b23f 492b b73e 7c08 dbbf
000004c0: cca3 cb7f b5b4 e7bf 443b 66a4 fa95 bebf
000004d0: 9f28 925f 6c2a c63f 3d34 e20f 075d e9bf
000004e0: 535a da0e e64a c13f c413 4fd7 99bf d4bf
000004f0: 0976 6970 dbba db3f bee7 baf6 e370 ce3f
00000500: d848 447f 0502 f23f 8b1d a409 e250 f1bf
00000510: 6dfa 2eb4 c107 f8bf fcbc c3d3 d4ef cd3f
00000520: 9cea 0a5e 57be ec3f efce 8c2d adfa f6bf
00000530: 6750 f8b6 0fcf f7bf 9b55 b5e7 3d32 f73f
00000540: 311d 3669 dec0 b83f 74de 258b 2dcf ef3f
00000550: 152d cf34 a9bd f6bf ca50 1982 b016 d2bf
00000560: c71b 8db8 2c3d ecbf 16a5 1c84 9a6d a7bf
00000570: 610b 31ba aca1 e23f 287f d401 200d fdbf
00000580: 2202 c622 c0e5 ec3f 2c9d 0369 33d9 f4bf
00000590: 1f59 e252 1aa8 e1bf ecf3 2fec db67 f4bf
000005a0: 40f5 f96e 71f3 d73f 08bc fb82 82e7 e13f
000005b0: 5bb0 15ae 54e0 cbbf 85b8 82fe a91c e43f
000005c0: 6bd3 5d35 88c7 db3f 94d6 15bd 98a4 e83f
000005d0: 42fa b5ea 7909 e03f f524 9d21 2fae e2bf
000005e0: e699 02a0 4176 d1bf c09b 87ea 3b6f b7bf
000005f0: a3d7 366d ae68 f2bf 03b1 0414 f63e eb3f
00000600: 0e68 6870 aaae f6bf ffa0 322e b3ce f2bf
00000610: 30af 367f e0eb eabf ac31 d54b d374 e0bf
00000620: c285 4bef e6ea cfbf 5bb8 f7b5 418a f53f
00000630: 33b6 91c5 86a3 f1bf 000b 85b5 4fcf 503f
00000640: 5ec5 4b60 7914 d9bf 1289 10c9 72af ebbf
00000650: 8c56 8469 b564 f33f a7af 2e47 5b14 e1bf
00000660: d11e cc91 6fac ffbf 95db a9d3 f6d9 e2bf
00000670: 1d68 9bce 6dcd f03f 2e4a 4f86 3b6e ebbf
00000680: ab74 0409 1407 fb3f 0649 48c8 f868 adbf
00000690: f6d3 ccd1 23fe d7bf 5392 538b 2166 d6bf
000006a0: 3e20 ff43 f107 d93f 4d84 93b4 26d7 e13f
000006b0: ec43 6038 3b6b f1bf b6cd d696 67dc d33f
000006c0: 893e 1b07 3b78 d23f 22b2 0941 b715 f33f
000006d0: 01f0 c493 4015 f4bf 79ca 0e8c 9364 ec3f
000006e0: c15c b92f b7f8 d5bf bca4 dc47 873d f2bf
000006f0: 2eee a7fc 579d eabf 0410 aa5b 208e bebf
00000700: 641b 4e43 5bc4 ccbf 9e95 1178 3689 dd3f
00000710: 8b0c efc6 66fe f1bf 322c 7b1c 6de8 ecbf
00000720: 0a9a 197e e4e8 e73f c0b4 1c16 35bc ddbf
00000730: 0acf 52ed b15c e53f 1758 ae49 0d1d d9bf
00000740: 262a 4b14 5b50 e33f a05e c543 db0a e5bf
00000750: 3029 9697 7725 d93f 11ba 0eaf f9bc bcbf
00000760: f973 1d15 0da3 ed3f 7819 b02c 450e d13f
00000770: ac02 5e2c 8edc ec3f c04e 9d90 d4d3 ee3f
00000780: 8263 cd5e e0f0 e0bf 4787 c7b9 9d4f a63f
00000790: 08c8 7cb9 6b7a 9f3f 0f41 d1cd 94e5 eabf
000007a0: 226f ec3a 6487 e83f e8f8 affd 463d f23f
000007b0: bce2 6a92 03cb f13f ab9d cbdb 3383 d3bf
000007c0: a26e 31d5 4049 f1bf 3bd0 00b7 8b0e f33f
000007d0: 1278 a669 a208 e6bf 56eb 1dc3 f072 903f
000007e0: ff49 5d77 60b7 c9bf 0c21 5a7b 1d9b de3f
000007f0: a047 f5ac 7f08 d1bf f1a1 3dbd 9eed e1bf
1.6500147505429106 -0.8523065734338735 0.7651656118216686 0.5409045192868904 0.254052899113092 -0.6591233465793365 -0.7913910201654842 -0.22128568348395905
-0.6176719015450077 -0.3400404335670536 0.010168737443103162 1.5585684853428017 0.03616504680072734 -0.6932980915467434 0.8328318348925478 -0.1972121994237793
-1.3707146723449968 1.0060651722443974 0.3994271298993586 -1.1694645621935935 -0.15197349679770747 -0.7867420935035978 0.13038359423641127 0.2522578932048184
0.21484968974172047 1.6345306697740414 0.04401243719597131 0.760195132955092 0.24321338379846574 0.3264697338564989 -0.6261616450128067 -1.0006095140077962
0.2855959963982852 -1.0906413737934897 -0.8383710986435061 0.005502851994363768 0.9468447383053976 -0.043305792414627585 1.2493729970739773 -0.48578914980798593
-0.2556708552717612 1.3582560203520369 -1.1978305068187647 -0.4855102587694333 1.1226656050930115 -1.4255330871705494 0.550428004038908 -0.412194115205402
0.5306272644076543 -0.9217130571753118 0.38369807021872865 2.1278796763795245 -0.564584771923715 -0.32507767234207363 -0.5176394352651615 0.29866602271647763
-1.5759706318601991 0.737087471369406 -0.2622632947972742 0.5869145223923332 -1.024993663233666 -1.910890340522656 -1.0044549392289293 0.14424735996418325
0.44884728658107576 0.30853206820830453 0.07716596636301971 1.0862719955814655 0.5322617484190679 0.26992138647561387 0.33577783236437886 0.6131807967595736
-0.9618424690963041 -0.49380885606097713 0.9464324565646484 0.12374729225586385 -0.39337242695104635 0.5539496478647198 0.7074767697672334 0.006428032302482324
0.3161686624489274 0.23362737803142516 0.6025361974550497 1.2772650693330936 -0.10397390713886712 -0.8301382554570768 0.9836551832366552 -0.615396856276221
0.5450710770754332 -0.21445409528674764 0.24516877464406472 -0.6439297846248819 -0.1462932139863241 0.4397742282444837 -1.6439328382216774 -0.8751816667167638
1.263058202702788 -0.610750284146195 1.6965618066421606 0.1071905774130584 0.7863305314622446 -0.25050681119011153 0.09842590644422691 -0.9320611583922708
0.03367910261623326 0.2968189450012767 -0.6192219458395337 -0.12075041983492157 -0.8054136359111433 0.4777280174918712 0.40281708216587103 0.008636119836090306
0.1641250778267972 0.41948992466504237 0.5412289735694822 -0.7705933083217928 0.3082030675154282 -0.2270509866102898 -0.09587829537918402 -0.6795574170857753
1.083529573470602 -0.7310692258930807 -0.2600302290049522 0.4861616545907923 0.6800186485890304 0.9088553740723712 -0.9683334174439953 -0.2187774041350382
-1.2441275424603135 0.4741982103300901 -0.13220438184328384 0.35733544196913264 -0.6172382828177678 0.13337095489870573 -0.04002304421465084 -1.316772461919888
0.2195415082389811 0.2963100938055532 -0.34797146911194005 0.30932316376307234 -1.4723194592922637 1.2650911178009387 0.08454075373381129 -0.019850536142176103
-0.3896597887967369 -0.45029019959976846 -0.26777185680232146 0.7260733942155226 1.4654457209099931 0.3164911409487745 0.07301853363360633 -0.42239290356217346
-0.7408092018132435 -0.11947599900871092 0.17316965738820486 -0.7926059065081358 0.13509822583428618 -0.3241943934083873 0.43327985742311675 0.23782014415138336
1.1254935237271209 -1.082246816311314 -1.5018937147539433 0.23388157215183714 0.8982350193758353 -1.4362003115938327 -1.4880520961060257 1.4497660685641225
0.09669294422757414 0.9940402715428278 -1.4213039458143772 -0.2826348562714541 -0.8824676136508679 -0.045758083941402614 0.582235683112554 -1.8157043525206493
0.9030457190675103 -1.303027544223208 -0.5517703646499149 -1.2753562189166088 0.3742335876230136 0.5595104749935453 -0.21778353214483812 0.6284990282927231
0.4340534707219407 0.7700923626968739 0.5011567672916686 -0.5837627083321012 -0.2728427946662165 -0.09154104686568498 -1.1505569711857582 0.8514356986029558
-1.4176430121356165 -1.1754638485527378 -0.8412935719147523 -0.5142609101399578 -0.24935614284826896 1.3462540729629129 -1.1024234502359718 0.0010259893807222364
-0.3918746414556916 -0.8651670386355212 1.2120870706325233 -0.5337349310188885 -1.9795985884865568 -0.5891069540074222 1.0501535482967548 -0.857206117938693
1.6892280914537803 -0.05744149632313804 -0.37488646972934647 -0.34998358350847986 0.39110976829806876 0.5575135733489646 -1.0886795236767695 0.31032743196848445
0.2885882920645391 1.1928017178098647 -1.255188538764742 0.8872773871901948 -0.3433053937964808 -1.1400215918641114 -0.8317069945036957 -0.11935617673776738
-0.22474232469923117 0.46149980283220227 -1.1246097346163733 -0.9033723408005072 0.7471792662516361 -0.46461226615322104 0.6675653109764152 -0.3923981875935864
0.6035590549811942 -0.6575752566959245 0.392911813768154 -0.11225853465905568 0.9261536991504037 0.2664959846882975 0.9019232622668674 0.9633581947805041
-0.529403863106481 0.04357617276015318 0.03074043578744326 -0.8405250568266939 0.7665272856570235 1.1399602803863278 1.1120639533457242 -0.3048829695166783
-1.0803840949874162 1.1910512112199416 -0.6885540069085911 0.01606346312426451 -0.20090871647205685 0.47821747823810834 -0.2661437214893514 -0.5602563568218654

transformer_encoder.layers.0.self_attn.qlinear.bias f8 [32]
00000000: a473 c27e 67f6 d83f ec96 5f24 2a7a f73f
00000010: 25e3 8fbd 4493 0240 8bc2 d9dd 726b 01c0
00000020: 037a 4c52 e72c ebbf 94b3 9969 5b50 0140
00000030: 0d65 a4c4 a108 e5bf b5b2 1e76 8e16 cb3f
00000040: acbb 5464 29d6 0040 54ff 970e 4f7a d2bf
00000050: 7beb 5d4e 9432 ee3f e9f8 dccb 2997 e03f
00000060: 64de 19cf 6048 e9bf 25ce a96b 2f7c edbf
00000070: 9191 db75 4a27 d6bf 0623 b595 6048 f03f
00000080: d16b 8e17 23f3 cabf c11d 7c29 d0a8 dabf
00000090: 2860 518d e3e5 de3f 34d3 aefe 7109 e1bf
000000a0: 58b7 5fc1 a206 cfbf 7ad8 bec5 daa9 f2bf
000000b0: 14a9 e623 ba7f d1bf 2827 b219 196b d73f
000000c0: a141 97a8 51f6 bd3f 7449 00ff 5e60 f2bf
000000d0: 5e7c ec40 aa30 f9bf fa10 5433 62c2 f5bf
000000e0: f023 c517 bb33 f6bf b224 d400 dd17 cbbf
000000f0: 3504 39bb b0c1 d93f 6ff9 a812 3420 e3bf
0.3900393236052031 1.4673253460727507 2.321908455804435 -2.1774651844101007 -0.8492313964268877 2.1642368555098503 -0.657303699557049 0.21162586944173759
2.1045711363180626 -0.2887151377217283 0.9436742334940925 0.5184525472357367 -0.790085224622953 -0.9214093306349623 -0.3461481238321307 1.017670235438517
-0.21054495477878146 -0.4165535359502109 0.4827813034112318 -0.5324029897952642 -0.2423900074203924 -1.1664684032853345 -0.2734208441348909 0.3659117461144086
0.1170397793387168 -1.1485280953389436 -1.5743811164936896 -1.359956932546139 -1.387629597522615 -0.2116657499357522 0.4024469211909179 -0.5976810802892895

transformer_encoder.layers.0.self_attn.klinear.weight f8 [32, 32]
00000000: 1c21 8b64 2c2e e8bf 8c73 cc27 5e57 d4bf
00000010: f16f 827e e2d9 df3f 5e9d 536f 5114 e1bf
00000020: a008 4e21 c619 e1bf d0df a13b 155e ec3f
00000030: 98e3 3b4d 2c52 ddbf 4a13 5fb3 28d0 f2bf
00000040: 2635 bbaf 965a ef3f dab7 ff39 38b2 e03f
00000050: 0834 7f63 c0d8 953f 304c cd00 ac54 e53f
00000060: 867b 1026 6ff5 d73f 08b5 0069 72db ae3f
00000070: f10f 2f0e 5eb8 d83f 4ac2 f3d3 74c2 f93f
00000080: 6f8c 0d75 f61f fbbf d06b 25bd 97c6 d93f
00000090: aa6e 0ed1 7dbc a0bf f205 18e4 4a62 d6bf
000000a0: 14fa cd60 62ce eb3f cce4 c1f1 0f3f 863f
000000b0: f83f 7ac0 0c42 87bf 6d16 f395 4be4 c03f
000000c0: 6855 e449 14d8 78bf 64d6 b62c 1184 d4bf
000000d0: 59f2 b976 b7fb e4bf 7fd0 c3cd c644 c1bf
000000e0: 9cd4 bef6 281a ed3f 3f98 6363 2b51 c13f
000000f0: c615 e59f 58b7 db3f e324 6507 8fd1 fbbf
00000100: 4015 9d33 e3d9 de3f f069 6f52 47a1 d0bf
00000110: f1a3 90b7 f4ca e1bf db25 c41f 5bbb d8bf
00000120: 45ec 413f fb5f d2bf 5cb7 9b2d f254 fdbf
00000130: ee92 9280 0052 f3bf 0d7a 875d 719b bcbf
00000140: e051 4e66 a67d dd3f cddd 68f2 7d8d dcbf
00000150: 661a 3c7a 9066 e53f ef12 4dfb 2bec ea3f
00000160: a45a fc34 c1f5 cd3f d29f a13e 4d1d d6bf
00000170: e82f 03c2 7f46 f03f 63fb 18f0 10cb dd3f
00000180: 1ff7 d9fa c3f4 d33f 0548 90a8 22b0 d13f
00000190: e2b1 88e6 ca9c debf b099 9ac3 59f9 d53f
000001a0: ddaf caa8 3c33 eebf bd8c dd92 3f61 d8bf
000001b0: 35db 5064 d4e9 d73f cd68 bed7 69ce f3bf
000001c0: aaf9 9d5b f272 e13f 46f4 15f7 302f e63f
000001d0: 7da7 63f3 cc1f a6bf 88d8 2d57 81fc eebf
000001e0: 99fd cbd1 4b4a dabf f6ce 7d4a 949b ef3f
000001f0: 4573 332a 9673 ea3f a5e5 2c85 b6f6 dcbf
00000200: 7b3c b06d 287a e83f 0250 ca9b 9970 efbf
00000210: c5d9 c58c 6659 a73f 48f8 5422 8f93 f0bf
00000220: 50a2 4e94 a68a f3bf e943 6577 7c33 eebf
00000230: 02eb 7209 e697 a93f 08e3 5236 2917 abbf
00000240: b43f 40ca d086 ce3f c9e2 20c5 c3b0 bebf
00000250: 5d79 589d 4239 d53f 671f fa69 5f71 ec3f
00000260: b125 fa32 2c1c d8bf d73a 8774 7a6a f13f
00000270: 5e05 68c9 a646 b4bf fd07 aa0a b802 fabf
00000280: 28c7 1d76 5d6a b13f b383 95d3 6439 f13f
00000290: f6c6 10d1 2e20 e6bf 0076 0e78 7279 f5bf
000002a0: d090 b11c f3bd ca3f 203e 4710 88d2 873f
000002b0: c629 0d35 847f f03f 1f47 6687 ad27 d23f
000002c0: 7d5f 76c9 7e71 f8bf daf7 09b9 6b4e f0bf
000002d0: 3afd 06a1 90b9 e0bf 1be0 31d3 1160 ec3f
000002e0: d92f 5828 6a3f fa3f be28 f459 a078 b9bf
000002f0: dac8 a65f 4da6 f13f 2c9e e9d6 dd1b d1bf
00000300: fbfd 46c0 7495 dc3f 3c4d 0456 eb07 df3f
00000310: df2c af87 894d dcbf 9cdd 522f e4d1 c23f
00000320: 8545 f98f 93ff f23f e2bd 12a1 4096 cd3f
00000330: 917b cd3d f615 e4bf 7174 5484 7bad f53f
00000340: e40c a9b7 a2a3 f1bf 9604 676a 6728 fc3f
00000350: 29d7 f45c 4f14 f0bf ef75 05ed 6670 0340
00000360: 58b4 d5a9 8ea6 d6bf cedb dcc7 648f b63f
00000370: b2fc d984 df9e c8bf 560e ddb7 a090 f1bf
00000380: cb3c e752 a9d8 e43f c9a1 52e1 6385 e4bf
00000390: 4089 1dcf bc60 ecbf e9ec b4ed 358c c93f
000003a0: a7f8 9639 224c e13f 66fd c339 d13e e13f
000003b0: 5160 f33d 4619 9e3f 799a 6ae8 e000 f23f
000003c0: 5a24 0c31 058f b3bf fa09 b7c5 7f08 cebf
000003d0: fa44 d897 e33d ef3f bc3f 8bba a6de e2bf
000003e0: 68d6 af68 869d e2bf 6ea0 008b 25f0 d6bf
000003f0: f674 ce57 7543 e73f 83f1 2c19 bdd9 c7bf
00000400: aa9f c129 c536 d93f e14e 5dbf bf83 d5bf
00000410: 11bd 9080 e85a eebf 88a1 b13c 4704 d2bf
00000420: b99b 5d59 6dbf c7bf 15b2 be40 bd57 f83f
00000430: f61d a6d3 6dc5 e0bf e0a5 8a92 9379 f1bf
00000440: b3fe c976 e774 ebbf 7b78 2907 631b d13f
00000450: bc43 ce71 7797 dd3f c481 cf5e f71f a0bf
00000460: 07c7 514a 3f3b c53f 2b55 3d92 9bcf f43f
00000470: 2800 7f50 a4b1 c33f ce77 e5ea 9668 f4bf
00000480: 8eaa f43c 64fe fdbf 1e4e 88c8 a6ea e03f
00000490: 9f90 1caa f34e d0bf 321b 138f b980 e63f
000004a0: 6067 6e40 c233 f93f bd05 2e6c f222 d1bf
000004b0: e854 b70f 9429 e03f 7716 deb8 5887 c03f
000004c0: 6800 9246 6efe d9bf 0a3a 863c b6fa cabf
000004d0: 82b3 f289 29e7 e33f f080 bf7a 35b3 f2bf
000004e0: b646 5c82 3892 d13f 69c3 57ca 9de9 e8bf
000004f0: 6829 3a6a 6338 e73f a86d 1f6a abd4 01c0
00000500: 470b accb 1ba1 c9bf 26ae 942e 5870 cc3f
00000510: 3e09 6c46 b914 b83f 17fc 33c3 03cc d03f
00000520: c8d3 b2fc 04a5 f13f 7ea2 fe8c f8be e83f
00000530: 6e1c 06cf b822 e53f 78ac f27a fabd edbf
00000540: 96bd 6ca5 1d3a cdbf 019e 3c70 3184 e63f
00000550: 9720 c1d1 5b33 ec3f 3f9c b7c9 ba80 dbbf
00000560: c203 4793 96a8 fb3f 3040 ee87 a64d f0bf
00000570: 99da b444 8d04 e5bf e171 7678 3a17 e63f
00000580: 9de9 32be 303b d73f 024c 2d63 6b15 d9bf
00000590: cbad afa7 2cbf f4bf 3daa bd15 674c e53f
000005a0: bb51 a9ed 3b7c d3bf 52a4 922c c2ed e8bf
000005b0: 8054 b765 48ec c03f 90fc 9681 f17d cbbf
000005c0: 869a b685 f25b f43f 4bd2 9158 3664 e33f
000005d0: 40e1 14fc ee95 f9bf d207 e5cf b33b eebf
000005e0: ee9e 9195 a452 02c0 c95b c29a 24c2 bf3f
000005f0: 20cd 08c5 78ed ffbf 80e9 2952 4ea1 6f3f
00000600: 0013 b3fe d3b3 e23f f21d 9cd0 5ab2 d33f
00000610: 972d 1b8f 22da d4bf 4c36 9272 64fd e03f
00000620: fe22 683f d08a f0bf 6864 0b95 4c59 fabf
00000630: f081 569c b648 c0bf bf83 ae1e bb51 0140
00000640: b822 2d08 0b0c e73f 8eb6 64bf 268d ebbf
00000650: 00f6 0b3e dcb6 bfbf 7243 bf70 21b4 00c0
00000660: 187d 1ab1 429a c63f 4555 9753 35c0 f5bf
00000670: 2028 5c6f 9636 cdbf eec1 da53 7425 a4bf
00000680: 72e9 1320 a2ae e0bf ef8a 65eb c515 edbf
00000690: c4ce a84d cf78 c13f 675b 9e1d 635a e83f
000006a0: 25a2 fc23 bdf1 c8bf ad11 5660 db25 e73f
000006b0: 4a80 cdb1 d085 edbf 5a83 8d23 57e3 b83f
000006c0: de17 e69e 71a7 e03f c5ba 9fa0 a887 ddbf
000006d0: e41d a6bf 8990 bbbf e39e bd17 6d88 e53f
000006e0: 4aa1 d218 740c e33f 6c04 72e6 3d44 d63f
000006f0: 5d36 0139 f239 e73f e8e0 d803 1a19 a4bf
00000700: e34c 4749 009e dd3f d201 1a33 f274 d2bf
00000710: c23d 1229 08b1 a23f 34d9 d267 c201 e4bf
00000720: 59c7 6570 7ce4 e1bf 7e88 0d2d 0e1c f4bf
00000730: 84d7 b62f 789d cfbf aca8 dde5 3fd4 dbbf
00000740: ac6f 5070 8624 b8bf 89bc e8bd 097f ecbf
00000750: 4230 eaae 5a0f f73f f2bf 4971 2d19 d53f
00000760: c830 050d 25c8 eb3f 5513 0dd4 1790 d9bf
00000770: ab07 fa49 ee5f d93f cc27 27ca 64fc cc3f
00000780: e89c 9a12 8607 f03f 1b3d 2730 bac1 d63f
00000790: 5d3a 9d99 3ea5 e03f 1cbe 0c8f cb90 d3bf
000007a0: 09f2 cf51 ecf8 f9bf 63ca db56 7ba2 ecbf
000007b0: a582 aae6 4715 f3bf 0e10 47c0 3132 cdbf
000007c0: d8c8 6200 5246 d43f 560f 2431 42d9 f0bf
000007d0: 00ac eda2 bf05 d4bf cc88 6d79 83ec febf
000007e0: a393 4eda 8a6a ee3f b5fb ece0 07e8 e43f
000007f0: cc9c b172 0a3d df3f 33a3 db4f 159c ec3f
-0.755636402486775 -0.31783250700555565 0.4976736293262994 -0.5337302374218031 -0.534396233604884 0.8864847340291764 -0.45814044515969377 -1.175820065183148
0.9798081810237462 0.5217553265372274 0.02133465392380532 0.6665859237349476 0.37435511319375114 0.060267997091026315 0.38625289330616314 1.6099746970541156
-1.6953033993129585 0.40274613829904826 -0.032688075799538766 -0.3497493007162965 0.8689433947291172 0.010862469258642447 -0.011356448768566438 0.1319670183349219
-0.006065444233418794 -0.3205607353841968 -0.6557271307825189 -0.13491139456857934 0.9094433612105095 0.13528959610920485 0.43306556334240687 -1.7386617936011184
0.482048797992622 -0.25984366464913844 -0.5560248933080613 -0.38643529989402986 -0.2871082418202529 -1.8332387715886034 -1.2075200102200898 -0.11174686940601238
0.46079406729520933 -0.4461359851152025 0.6687700641057972 0.841329565832522 0.2340623387069246 -0.3455384360918262 1.0172116831408804 0.46551917502431744
0.31181430337152166 0.2763754507187744 -0.47831985962946366 0.34334415533012486 -0.943754510566119 -0.3809355673058226 0.3736468295714304 -1.237893908261458
0.545281580867415 0.6932606531041834 -0.04321136923847655 -0.9683233931271085 -0.41078467834446425 0.987741609088032 0.8266096901166767 -0.4525581646481334
0.7649118559219369 -0.9824951212672206 0.045603947338281915 -1.0360251751985903 -1.2213502686737634 -0.9437849361366918 0.04998701920836447 -0.052911079293556595
0.23848924518142456 -0.11988471567827753 0.33161988607198173 0.8888394422401519 -0.37671952226863953 1.0884956886181294 -0.0792030564989736 -1.6256637970514014
0.06802925237368795 1.0765121712686152 -0.6914285739241837 -1.3421501817423405 0.20892180348449196 0.011632025715612448 1.0311319420167009 0.2836717436085667
-1.527708804094771 -1.0191457012256167 -0.5226519723000032 0.8867272496127073 1.6404820991474394 -0.0994968623746528 1.1031011330019767 -0.26732583987765923
0.4466220739086279 0.48485835456922977 -0.44223249674241843 0.14703037558295484 1.187396585843403 0.23114784111883951 -0.6276808936198554 1.3548541230332172
-1.1024501013023889 1.7598642498344694 -1.0049584990606013 2.429883815507075 -0.35391584954669986 0.08812551383458286 -0.19234842287912596 -1.0978095228355378
0.6514479273991126 -0.6412829781375474 -0.8868087811681917 0.19959138972067272 0.5405436634826132 0.5389181259378517 0.02939328911892886 1.125214488865508
-0.076401066278906 -0.2346343722729925 0.9763048139303969 -0.589679111808429 -0.5817291302361811 -0.3584073884435445 0.7269846644373092 -0.18633235673213386
0.39396790578620744 -0.3361663216394231 -0.9485971938173937 -0.28151112486968843 -0.1855293928485631 1.5214207200143666 -0.5241002210395311 -1.0921817516594885
-0.858020526895379 0.26729655932820834 0.4623697863945002 -0.031493883441501974 0.16587058190230428 1.3006854736789346 0.15385869913552708 -1.2755345512045895
-1.8746073132594208 0.528643981614042 -0.25481883633097796 0.70321348137154 1.5751364247175488 -0.2677579933589092 0.5050754839855047 0.1291304495500076
-0.4061542214549321 -0.21077611880578245 0.6219680494592554 -1.168752173885931 0.2745496056605633 -0.7785176231392202 0.7256333422422303 -2.2288425722924394
-0.2002291435711305 0.22217848085834752 0.09406621903693677 0.2624520689277587 1.1027879591977001 0.7733118776132668 0.660488514274119 -0.9294407273604426
-0.22833605363255732 0.7036368553280569 0.8812693688169188 -0.4297320337195209 1.7286592247985344 -1.0189576444427182 -0.6568056432650621 0.6903354981218933
0.36298769544705484 -0.39193234143493794 -1.2966734457248659 0.6655764984728375 -0.30445764741059705 -0.779023253494538 0.13221077887161314 -0.21478098704935578
1.2724480841804122 0.6059829454303068 -1.5991048666893022 -0.9447878895227808 -2.290352982050414 0.1240561368780241 -1.9954765030532329 0.0038610963541120813
0.5844516729926852 0.3077609097676649 -0.3258139035721909 0.5309316861837003 -1.0338900067164896 -1.6468015501070798 -0.1272190345162154 2.164907684040798
0.7202201041883063 -0.8609803903725195 -0.1238839770776039 -2.087954407536409 0.17658265731459077 -1.3594258561400505 -0.22822838246821764 -0.039348254429004345
-0.5213175417441518 -0.9089078519430965 0.1364993218609155 0.7610335901725706 -0.1948772836415326 0.7233712083403155 -0.9225848648748152 0.0972189389990609
0.5204399207584591 -0.4614049500077438 -0.10767422608306948 0.6729035819707544 0.5952702030963704 0.3479151487773098 0.7258235085843797 -0.03925401017153424
0.46276862293343707 -0.2883878230132072 0.0365068960319337 -0.6252147701077662 -0.5591413684144114 -1.2568494567754267 -0.246993087099039 -0.4348296875747433
-0.0943073295788383 -0.8905075749552377 1.4412485916718798 0.32966171325006066 0.8681817297270067 -0.3994197436152736 0.3964801523617278 0.22645244475125847
1.0018368460385378 0.355574175858196 0.5201714515950006 -0.30571259469704315 -1.6232722469131906 -0.8948342033821287 -1.1926955232994854 -0.22809430969766747
0.3167920116203624 -1.0530416411938481 -0.31285086546876073 -1.93274257118951 0.9505056632811953 0.6533240693169008 0.488100635533965 0.8940531310773622
