experiments/fl_train_noise_0.5_max_grad_norm_2.5/20250427/model_round_63.pt (torch, 62806 bytes, 25 tensors)

embed.weight f8 [32, 8]
000000 76 61 e8 d5 3f 6b da bf 17 d8 78 0b c8 d4 cb 3f
       -0.4127959813063379 0.21743107376249846
000010 31 77 71 5b 4d 0b e9 3f e6 8e e7 da d5 7d ea 3f
       0.782629660224961 0.8278607631186474
000020 0c 5f 86 5d 1a f4 a2 bf 03 f0 a5 d1 fc 1c f1 3f
       -0.03701860801373699 1.0695770444281159
000030 4f 89 38 2b 03 f5 c2 bf 7c 30 46 18 fe 59 b9 bf
       -0.14810218439476805 -0.09902942745810778
000040 7e 18 10 9e 94 d7 b8 bf 9f 16 ab 3e 7e 4b aa bf
       -0.09703949793774488 -0.05135721697801653
000050 bc 65 5b 0e 5a 41 c2 bf f4 c2 42 6a 5f 09 94 3f
       -0.1426193780996935 0.019567004070895913
000060 77 05 be 57 b6 19 e1 3f bd ab bf 65 fc 59 e3 3f
       0.5343887056080082 0.6047346102981163
000070 af 0b da e3 53 1c db 3f 95 fe b8 42 e2 62 e3 3f
       0.4236039853205353 0.6058207801033456
000080 7e 9b 77 45 5e dc d4 bf 47 6e 3c 9c 92 04 cf bf
       -0.32595021041782235 -0.24232704762185817
000090 53 09 2e 16 98 2b d3 3f e4 30 c9 23 87 bf 97 3f
       0.2995357719993496 0.02319155841750921
0000a0 87 ab f3 01 43 6c cf 3f f5 89 68 9e 1c ce ea bf
       0.2454913863687944 -0.8376601308739838
0000b0 3a b3 c6 5c 5d c9 db bf 2e 30 cd 76 fe e0 d1 3f
       -0.4341653257386501 0.27935754396162593
0000c0 68 d3 1e 2a b7 0c a6 3f 81 54 33 00 e2 9d d2 3f
       0.04306576146283342 0.29088640231686475
0000d0 84 9c 47 f3 41 db ab 3f bd e1 77 cd 14 f6 d1 3f
       0.054407177874787244 0.28064460816633724
0000e0 ae fc 49 a7 3a 55 da 3f 5c 27 8a 2b 08 98 ba bf
       0.4114519723588711 -0.10388232291202598
0000f0 2b d7 00 51 05 d3 d6 bf 42 34 e3 38 24 bf c5 bf
       -0.3566296855018318 -0.16989567544661283
000100 9f 43 fb 2a 8d 32 d8 bf e8 d4 88 7a f9 14 e2 3f
       -0.3780854148617951 0.5650603669406822
000110 ad 71 81 48 5c a6 d2 bf fc 35 fe b5 6f 7e c9 bf
       -0.2914038379729174 -0.19917103182199003
000120 c5 bc 2d c1 41 42 e2 bf e5 30 10 b9 1a 20 cc bf
       -0.5705879948635803 -0.21972974811831772
000130 e8 f0 b7 f7 ed c6 b3 3f 6a 2a 01 4e 30 af b4 3f
       0.07725417421164915 0.0807981672707371
000140 2b 69 1f f2 46 5c c8 bf b7 d7 fb 7f 89 53 b1 bf
       -0.19031607458493602 -0.06768092512706302
000150 4d 7f 9a 79 78 9b d2 3f a8 b7 9a fc 8a 60 86 3f
       0.2907391727003315 0.010926328500626983
000160 e4 ef c0 18 ab 0c b7 bf 36 bd aa 28 32 32 e4 bf
       -0.09003705362641728 -0.6311274332310066
000170 94 71 bf 20 84 7f da 3f 1b 02 83 d4 55 61 b7 3f
       0.4140329665949818 0.09132896841311615
000180 da 18 3a ef 19 72 be 3f 85 ab 3c d8 ef c6 ee bf
       0.1189285477686072 -0.9617842887285951
000190 bd 0f c7 16 12 2e ee 3f c2 01 ef 42 13 41 de 3f
       0.9431238598704038 0.47272187744604477
0001a0 17 a3 08 08 b0 02 d1 bf 23 f7 69 47 05 79 df 3f
       -0.26578903946442395 0.4917615125085481
0001b0 ef 20 e8 6a dd 54 c4 3f ac 5a 61 7c fb 13 a0 bf
       0.15883987159782673 -0.03140245335878453
0001c0 60 a3 7a db 93 02 e4 3f c4 1f 7b d0 6d 66 c0 bf
       0.6253146444988538 -0.1281258838628202
0001d0 d1 6e d0 d1 c5 3a d8 bf b1 a3 7c fc 59 a0 de 3f
       -0.3785872029272755 0.4785370794002644
0001e0 69 b5 e5 b2 8b a9 d4 bf aa b0 53 47 d7 4b d5 bf
       -0.32284824819983854 -0.3327539631416224
0001f0 0f 08 db 82 7f 37 e4 bf b8 99 f7 2a 10 24 71 bf
       -0.631774669244125 -0.004184783130290297
000200 17 b6 2f 59 37 c7 80 3f 42 6d 81 4e 22 6a c2 3f
       0.008192474755527574 0.1438639529541011
000210 1c b6 4f 73 6b 80 d4 bf 4f 23 a6 44 3e fa c7 3f
       -0.3203381181800482 0.1873243174743728
000220 be 01 fb 5d e8 c0 d4 bf b6 78 c3 b8 06 62 d3 bf
       -0.32427415063650844 -0.3028580478984496
000230 01 44 c7 ff 78 c3 cc 3f 35 ad db a7 42 6a f2 bf
       0.22471535195521145 -1.1509424740750778
000240 07 3f f9 2b a9 d8 d1 3f 42 96 e1 e4 44 42 c7 3f
       0.27884892744349127 0.18170987296905322
000250 34 fe 26 3f 56 c9 c1 3f d0 9b ca 0c 6a d8 e8 3f
       0.1389568146096153 0.7764177560646832
000260 2d f6 4a 0b 38 21 c6 bf 39 27 80 d5 85 f7 d6 bf
       -0.1728887610569684 -0.3588575921026976
000270 62 cf 1a c1 e3 3c d0 3f 68 8d cf 76 59 63 ef 3f
       0.2537164102352475 0.9808776207468499
000280 0f 09 40 61 e0 7d e4 3f cd 8a 5e 0e 64 32 db 3f
       0.6403657817284357 0.4249506130528687
000290 a1 64 30 37 fd 19 c7 3f 2c 65 18 7f 71 c8 e0 bf
       0.18048062510277865 -0.5244681818323094
0002a0 fb 86 ef 33 f5 e0 c4 bf 6a 33 9a 4e 78 f2 bc 3f
       -0.16311516796036316 0.1130747978115331
0002b0 ed 72 fc a4 0e 36 b2 3f e2 e7 c3 28 cf de e7 3f
       0.07113734748822838 0.7459483905979563
0002c0 60 57 d3 26 7f ba e4 3f 4d 26 ea a9 3d 0e e0 3f
       0.6477657087623179 0.5017383879323433
0002d0 ec ee f1 e1 7b 77 ce bf d9 c4 74 a2 0b e0 e0 3f
       -0.23802135975335348 0.5273492978068602
0002e0 fe ab 1b 97 0f 50 ed 3f f4 bc b0 fd a2 14 cc 3f
       0.9160230590181297 0.21937978160119764
0002f0 30 0f c9 80 f7 1c b4 3f 94 bb b7 f7 73 e2 ce 3f
       0.0785669984261943 0.2412857970770942
000300 74 d6 6d fd db 8a cb 3f ae ac 46 1e 34 e1 d1 bf
       0.21517515062776094 -0.27937033611915296
000310 60 45 dd 6c e7 2c e2 bf 8a 3c a6 98 1b 54 a0 3f
       -0.5679814459091794 0.031891691574053985
000320 19 8f db d7 3f 1d d5 3f e2 d9 f6 1b 88 a0 d2 3f
       0.32991024093483784 0.2910480759705064
000330 15 d5 f5 17 4e 9e d4 3f 46 0e 0c b5 a1 66 f2 3f
       0.322162173651422 1.1500565597679198
000340 bd b6 21 e9 f1 f3 db 3f 66 7b bd b6 bc e6 b5 bf
       0.43676421896712353 -0.08555201970510282
000350 1a 5b 12 66 66 5d cf 3f e2 5f fa 8f bc 01 cb 3f
       0.2450378416439996 0.21099049596955327
000360 7d d0 24 7c cd a9 d7 3f b5 21 e6 7b 79 f9 e8 bf
       0.3697389328328951 -0.7804534358884242
000370 82 69 9a 96 c2 d3 9b 3f 0e 03 8e 51 bc 42 bf bf
       0.027174988214576874 -0.12211205473978401
000380 2e c5 e0 be 95 09 c8 bf af af e8 53 71 e3 db 3f
       -0.18779250927176733 0.43575699991446987
000390 9c 80 79 1c 5f 1f e0 3f 4f 0a 2c 87 ad 22 e3 3f
       0.5038295322556396 0.5979831352308994
0003a0 b2 aa f3 da 32 11 ea bf 1f bc e9 d0 02 a7 dc 3f
       -0.8145994449999618 0.44769354249632615
0003b0 e8 00 c2 a2 25 1f 7e 3f 34 1f cc 9e 0a a3 d1 bf
       0.007353922857987728 -0.2755762625460989
0003c0 2a 58 3e d5 08 ee c5 3f 5a 82 b9 6a 96 45 dd 3f
       0.1713267365673244 0.45737228796318663
0003d0 93 7f 15 60 cf c6 e3 bf 75 c8 d0 0f 0e 7f e2 3f
       -0.6180188061371034 0.5780096348664886
0003e0 75 dd cf 5e 75 76 db 3f 22 ca 58 14 4d f0 a8 3f
       0.4291051317117856 0.048708351835007116
0003f0 96 01 c6 a3 1b e6 c3 3f f7 2e 26 5d 87 43 db bf
       0.15545983788252887 -0.42599662872883876
000400 2d f5 89 34 03 9a ba bf b9 04 c2 32 59 ca b8 bf
       -0.10391254456222461 -0.09683759202200094
000410 3b bb 08 8d da 06 d5 bf 26 ad 80 a0 58 95 de bf
       -0.3285433175359917 -0.47786536859594475
000420 8d 9d 39 ae c7 ba d4 bf eb b5 58 0b 99 9d c9 bf
       -0.3239001466194729 -0.2001220040705641
000430 fe 0b 4a 92 a0 a1 d7 3f 3b f1 4c 7a 9c cb d9 3f
       0.369239943371383 0.4030524439183584
000440 2b 53 60 e7 87 bb c8 bf 90 67 d8 67 cd dd 73 bf
       -0.19322298810643565 -0.004850199094585408
000450 cc db 1a 64 f9 95 dc 3f c0 8d ad a9 74 99 bd bf
       0.4466536977374147 -0.1156227983715814
000460 c9 2e a0 4f 25 c8 f2 3f b0 b1 e6 8d 15 8d 87 bf
       1.1738637075786065 -0.011499565499286074
000470 16 68 89 b8 58 90 c5 bf 06 4c a9 1d b5 44 f0 bf
       -0.16846760759909846 -1.0167742880482833
000480 00 b6 15 99 63 1c 17 bf 97 a0 f0 92 01 86 c0 bf
       -8.81610669886887e-05 -0.12908954310228601
000490 d9 27 05 dc 8a 77 d7 3f a9 5c d1 09 a3 8e c5 bf
       0.3666712902673886 -0.16841543177972554
0004a0 8c 9d 2f c8 03 8d e9 3f 5d 09 3f 29 ae 21 bf 3f
       0.7984637174494522 0.12160767085064124
0004b0 70 75 26 70 64 a2 e2 bf e1 53 b0 8a 62 6c d6 bf
       -0.5823232832369012 -0.3503652910597435
0004c0 46 84 eb 84 31 c3 e6 3f 91 7e e2 96 5c 4f d7 3f
       0.7113273235410211 0.36421885237539536
0004d0 b3 14 b5 84 b8 87 e2 3f 2b 79 56 05 df 75 cc bf
       0.5790674774113057 -0.2223471427977953
0004e0 be 61 5f c2 94 23 d5 3f 94 1a b3 f4 6d d7 c7 bf
       0.3302966974420335 -0.1862618870565781
0004f0 f4 4e d4 cd 40 2e e0 3f 80 b5 93 ed 39 93 bf 3f
       0.5056461353401276 0.12334024477214278
000500 6a ff 84 c4 74 fa a6 3f 36 6e 1f c6 2d 2c c4 bf
       0.04487957858009291 -0.15759823011363644
000510 0e 32 52 ac 8f e1 dc bf e5 1f 3d 86 25 74 ce 3f
       -0.45126716449956994 0.23791951231601086
000520 6f 26 70 d6 e9 da d0 bf 38 8c bd f5 3f 1e 85 bf
       -0.26336141530246143 -0.010311603247549525
000530 7a 9e de 2a e1 b0 ee bf da da 8d 09 a8 4d c5 bf
       -0.9590917432114587 -0.16643238512525366
000540 7b 87 2f 20 ca f4 e6 3f dd 7d 5b f9 90 03 e9 bf
       0.7173815373064224 -0.7816853399526128
000550 8e 83 ff 30 b7 b8 eb bf a6 f6 b6 f2 65 dd cf bf
       -0.8662982899660265 -0.24894403792670977
000560 af 1a 30 18 72 cc dc 3f 6e 93 31 ef ea 04 ce bf
       0.44997837411976155 -0.23452507666948058
000570 94 7a c7 c2 aa 0b 96 3f c3 fd e6 3d 7e 53 c6 bf
       0.02152888120496728 -0.17442300818036757
000580 1e a1 6f b1 5d f3 d5 bf 94 76 2f 59 a1 08 ba 3f
       -0.3429788811468074 0.10169418742540365
000590 71 67 40 cf bb 47 d3 bf 5b f7 17 f7 03 68 c0 3f
       -0.30125327338611557 0.12817430081480094
0005a0 33 f3 ba f8 9d ac e5 3f 5a 7d 90 04 2d fb d7 bf
       0.6773214204800752 -0.37470555730575017
0005b0 c2 f2 ef a7 68 5b d2 bf 54 77 70 c4 b5 3a dd bf
       -0.28682915115477325 -0.4567083757736914
0005c0 6f c6 80 04 db 27 d6 3f 8b a7 8f df a5 b0 e3 3f
       0.34618258895634474 0.6153134695461956
0005d0 8e e5 3a 3f bb 1b e5 3f a1 99 4c 30 7c 50 d9 bf
       0.6596351847612583 -0.39553742138596176
0005e0 f3 d2 eb cc 40 21 c3 bf 37 8f 8b 54 e1 7d e1 3f
       -0.14945230489652025 0.5466162349007168
0005f0 80 c5 e9 af 8e 91 a0 bf e9 35 e6 1c 72 b2 ed bf
       -0.032360514615798586 -0.9280329288901018
000600 da 85 54 9b 67 7c d7 3f 67 c2 89 13 e2 aa c6 3f
       0.3669680611511389 0.1770899386788358
000610 0a 69 7a 13 ac d4 b9 bf 66 a3 62 77 25 bc c1 3f
       -0.10090136981526512 0.13855427102432855
000620 2c 49 c4 9d a5 88 c0 bf 9b 47 30 72 b8 13 d2 3f
       -0.12917013362363983 0.28245364333371875
000630 34 c6 93 14 57 37 c6 3f c4 4b 11 87 78 57 c0 bf
       0.17356384758709142 -0.12766939730735605
000640 e0 31 27 0f 88 81 ab 3f 18 48 39 7c 81 90 75 bf
       0.053722621774429546 -0.005264764596704573
000650 fe 5b 67 db ac c4 bd 3f 9d b2 fa 63 ed 2d e2 bf
       0.1162822757390671 -0.5681063606949298
000660 21 bc b9 a7 a1 3f d0 3f 06 38 4a aa 36 89 d1 bf
       0.25388375644155486 -0.27399984960436574
000670 3c fb 68 04 48 b6 b8 3f d1 0b 93 ae 51 25 d5 bf
       0.09653139217060142 -0.330402775271236
000680 18 3d 52 31 31 fc b2 3f 3c af f4 f6 2e d4 cf bf
       0.07416064695484115 -0.24866282518757454
000690 f2 87 eb 5c c4 9d b6 bf d1 86 da 1d 96 ee da 3f
       -0.08834483402782192 0.42081215777771513
0006a0 bf 73 1a dd d8 a2 d4 3f 8d 5c 65 62 e9 78 ca 3f
       0.3224393996441072 0.20681493095864703
0006b0 f6 ab 63 31 de ad d3 3f 89 cc 71 5d c3 1a e0 bf
       0.3074870569532203 -0.5032669854248449
0006c0 74 e6 1a d7 c2 8c 88 bf b9 f3 de 80 08 37 c2 3f
       -0.011987230481611301 0.14230448048138358
0006d0 de eb 4a be 0c 65 db 3f 66 28 12 6c ba b6 c5 3f
       0.4280425890280507 0.16963892247105433
0006e0 a4 f9 ce 99 40 d5 e3 3f bc 15 5c 29 f9 62 d1 bf
       0.6197817806312753 -0.27166585005792476
0006f0 02 f3 3c 64 a5 d5 b1 bf a5 51 68 de 14 0c d9 bf
       -0.06966623017519782 -0.39136239737970363
000700 2c ea 6e b6 a7 e4 d5 bf 32 7f bd 8a af cd e4 bf
       -0.342081001431924 -0.6501081189889872
000710 fb 34 8f 06 71 d8 e1 3f 8e 2b 0a c7 81 2e cd bf
       0.5576710823167156 -0.2279817792771976
000720 49 b1 71 b9 c5 48 db 3f f5 f3 06 93 5d f8 d2 bf
       0.4263166724183703 -0.2964090286075696
000730 28 23 cb 73 19 62 cd bf d2 06 a9 46 fa c9 dc 3f
       -0.22955625680904146 0.44982773685852095
000740 35 9a 89 ee 89 a1 e3 bf ba 6b 5c cc 62 c3 dc 3f
       -0.6134690913139084 0.4494254108155321
000750 b7 54 be f3 c9 9d b5 3f bb fe 08 02 6f 77 e6 3f
       0.08443891716736372 0.7020792999027984
000760 0e 84 a3 2b 60 2c df bf 00 5e 02 b1 40 5e a8 bf
       -0.4870834757003316 -0.04759409104115875
000770 25 88 91 9b 93 fd c5 3f b5 1a fa 6e 9f 04 dd bf
       0.17180104347340933 -0.4534071525344346
000780 55 dc b4 90 52 41 e8 bf b1 aa 2d a1 0d 9b d5 bf
       -0.7579739404963087 -0.33758869876934755
000790 0c d9 21 78 06 c0 d6 3f 14 21 e4 8a 74 ca a8 bf
       0.3554702923933213 -0.04841961093376504
0007a0 6d 91 a5 44 0d f2 b8 3f c3 0d d8 83 94 7b e1 3f
       0.09744341779657413 0.5463354659154266
0007b0 ec 01 83 f3 86 6d 8b bf a9 2a 0d 12 85 0c d0 bf
       -0.01339250021590118 -0.2507641483577268
0007c0 d0 7f cc fa 0d 9d 61 3f 28 9a 0c b8 21 ae ef 3f
       0.002150084785526453 0.990006312819621
0007d0 e4 ef 37 0f a9 8f ce 3f 9c 70 e7 e5 93 11 82 3f
       0.23875916712847733 0.008822589353194403
0007e0 52 e5 75 c0 14 43 cd 3f 21 19 9c 84 fe 67 d4 bf
       0.22860965154158436 -0.31884730291530344
0007f0 c8 8c fc 21 fe 51 d4 3f 2a 27 5e 2a 62 2d bc 3f
       0.31750443762775804 0.11006749662751916

embed.bias f8 [32]
000000 11 9b 67 e8 4b 85 c7 bf 00 0d e1 37 e4 18 de 3f
       -0.18375538680921769 0.47026925522750673
000010 fd 3e ca 6d 80 62 dc bf 5b 64 26 99 86 e5 d5 3f
       -0.44351206514055247 0.34213414150287286
000020 c3 6f 15 8c d9 da c4 bf ec 5e 00 ad a9 29 e0 3f
       -0.16292876567865563 0.505085790532545
000030 be 1a 03 90 da 9e b8 bf 2a bf 9f ff 3a f7 b1 3f
       -0.09617391601487221 0.07017868748493741
000040 61 99 53 e1 ea 34 d4 3f b2 53 b0 cd 19 58 d5 3f
       0.31572982792422094 0.333502245777079
000050 a7 6c 15 f9 1f 92 c4 3f 1e 54 b6 de 48 6a d3 3f
       0.1607093778828574 0.3033621001171144
000060 69 ec b6 75 c1 db bd 3f 28 dc 03 e1 ea 9e a0 3f
       0.11663445590868239 0.03246244427457895
000070 4f 09 6f 74 f8 b3 c8 3f 8d 1d b1 ed 57 2a e5 bf
       0.1929922646068669 -0.6614188806933484
000080 46 47 6d 6d 65 c1 b4 bf 95 36 cf 29 ee 94 d8 3f
       -0.08107599183611311 0.384089985684889
000090 94 75 66 72 2c b6 d6 3f d1 98 a0 e3 a6 97 dd bf
       0.3548689953984987 -0.46238109807235356
0000a0 50 c4 a1 33 53 8b de 3f 12 e8 2d 79 28 92 c4 bf
       0.4772537235467711 -0.16071039120635128
0000b0 14 34 1d fc 90 99 e1 3f b4 6b 6b 9b 34 b9 d1 3f
       0.5499958919623418 0.27692904641815663
0000c0 ca 4d 08 da 9e 2a a1 bf 65 c8 d9 3b 7c 7e b9 bf
       -0.033528293719566074 -0.09958626233290742
0000d0 a3 5a 42 47 6a bb df bf 9a 89 19 86 df cc cf 3f
       -0.4958139129534322 0.24843973205413478
0000e0 d8 b9 d0 a3 82 fe a7 bf 93 9e f8 75 30 76 d8 bf
       -0.04686363458346293 -0.3822137023985103
0000f0 a6 ba ae 62 12 fe da bf 18 00 9e 25 29 95 de bf
       -0.4217573131271969 -0.4778540484767304

pos_enc.pe f8 [1, 12, 32]
000000 14 35 dc 7e 56 c1 d4 bf e9 dc 49 01 0b 21 d3 bf
       -0.32430040730180676 -0.29889178396065447
000010 04 2c 0c da a1 d9 d8 3f 45 1d 0d 46 59 d7 d4 3f
       0.38828321737008786 0.32564384308757993
000020 0c 87 0f 8a 60 41 c6 3f c4 13 1d c4 49 41 f1 3f
       0.17387015095942393 1.0784394894301252
000030 c8 b3 23 19 dc a9 cd 3f 9c ef a5 91 02 89 d8 3f
       0.2317462084533004 0.3833624288888531
000040 d1 7c 87 84 c8 35 e8 bf 4f 9f e2 09 b6 7c e8 bf
       -0.7565653408491021 -0.7652235215254936
000050 b3 97 bd 0a 51 cc c1 bf 06 9d e0 14 20 1f d3 3f
       -0.13904774689143337 0.29877473868187143
000060 21 7c a4 9f fe d5 c9 3f 60 0a 0c 57 6f 89 e5 bf
       0.20184309763951183 -0.6730267238747949
000070 f6 22 63 58 d4 3d dc bf 66 07 c4 7b 2e 4c b5 bf
       -0.4412737715870628 -0.08319368859886608
000080 ec f9 e1 7c fe c2 b8 3f 7b 0a 54 a9 f1 52 e4 bf
       0.09672537373442197 -0.6351249987786355
000090 5d f5 a8 1b 20 74 e3 3f ac 2e 69 40 32 5e d1 bf
       0.607925466559816 -0.2713742856037509
0000a0 24 b7 b2 fc ab 96 bc 3f 81 ec fd b7 26 cf a1 bf
       0.1116740695894945 -0.03478356357569457
0000b0 dc 1d d5 09 6c d4 e2 3f e6 1b 36 b1 db ed c3 3f
       0.5884304229775199 0.15569635537050813
0000c0 b8 32 23 9f 29 22 bb bf 9c 37 a7 1a f5 de d7 3f
       -0.10599002967064564 0.37298324206209954
0000d0 ab 2e 94 da c5 c9 e7 3f d3 15 3d 89 3a e0 e1 3f
       0.7433804768674767 0.5586216621820149
0000e0 5e 87 51 03 43 e0 ba 3f 00 57 e8 bc e3 31 c3 bf
       0.10498446303384187 -0.14996000980379876
0000f0 c8 93 e1 02 10 1b d1 3f 2a d9 63 db 36 77 b7 bf
       0.2672767665993061 -0.09166281562997783
000100 43 12 8d a1 83 86 a9 3f 13 f1 aa e5 2f 19 a3 bf
       0.04985438677843892 -0.037301537309277454
000110 17 ec 7a f9 6f ca b8 bf f6 8e a2 75 37 fe dd 3f
       -0.09683894959282245 0.468641152265476
000120 f1 64 aa 7d bf e6 ec bf 80 49 2e cc 13 b4 d1 3f
       -0.9031674818426422 0.2766160482361997
000130 0c 36 90 8f be b0 ec bf dd 12 6b 52 b0 c5 d8 bf
       -0.8965752414675889 -0.3870659642091548
000140 b0 63 be 76 1c 92 c0 3f 8d bb 62 0b f9 bb e1 bf
       0.12945895956070563 -0.5541959020973636
000150 0c 76 9b 98 c8 8a e8 bf 61 12 a2 a9 2f d3 d7 bf
       -0.7669413548098318 -0.37226478162509663
000160 ab 3d 50 fd b6 eb c9 bf df 6c 21 1d 6b 82 c6 3f
       -0.20250594490833626 0.1758550541152095
000170 81 80 ad f8 11 dd e4 3f e0 49 6a f2 13 31 e1 bf
       0.6519861084925794 -0.5372409567519831
000180 b5 bf 27 57 48 0a d1 3f 45 0e 43 87 1e 67 db bf
       0.2662525988698648 -0.428168899623618
000190 50 b9 ca 6a f2 cf 80 bf b4 97 0a e8 62 f6 b8 3f
       -0.008209127315549708 0.09750955739090622
0001a0 0e 9c 62 26 09 40 b1 3f 9f b4 fb 0c c3 8a dc bf
       0.06738335787905234 -0.44596935527699516
0001b0 bb f8 be 23 a2 65 c6 bf b6 0d f4 15 d2 d2 b6 bf
       -0.1749766039410526 -0.08915436778993677
0001c0 46 20 14 0b 8f 1f c7 3f 4c 91 85 ac 0a 8d ca bf
       0.18065059700916403 -0.2074292509452199
0001d0 f7 21 7b 8c d5 48 b4 bf 50 38 23 64 42 78 e1 3f
       -0.07923636131011579 0.5459300952732153
0001e0 0d f9 4e 67 e3 65 e3 3f 90 e7 7c 00 96 b9 d7 bf
       0.6061875360244656 -0.3707022671475153
0001f0 b0 c7 17 e4 d3 f2 d0 3f 52 ed 28 68 36 e9 a2 3f
       0.2648210265607487 0.036935520376995115
000200 c9 52 d2 d0 e4 ef d4 3f 8e d9 5e 29 c7 d3 b4 bf
       0.3271419562600327 -0.0813564754488196
000210 73 a6 b5 ea bf 70 d5 3f 12 85 fe 40 de 92 ca bf
       0.3350066940389304 -0.2076070611338215
000220 f6 02 e5 9d b4 68 e1 3f 03 6c f7 13 19 50 c3 3f
       0.5440314372900434 0.15088189577986108
000230 e8 f2 f8 c0 7b d3 d7 3f 8b ab 02 9a 7a 6e c1 3f
       0.37228292317358447 0.1361840488437703
000240 cc 69 17 c0 42 6b c5 bf 48 f1 ff 06 ef 22 e5 3f
       -0.167335838122041 0.6605143677439083
000250 90 4c e6 4b cc d1 dd bf 4c c2 58 28 04 36 d4 bf
       -0.46593005573340296 -0.31579688968762265
000260 16 02 1b e0 5b 2e d4 bf 62 28 9b 24 19 58 b0 bf
       -0.31532952199271 -0.0638442720766377
000270 ca 9e fb 21 06 cf d7 bf 6a f7 ae 3b 9d 06 d4 3f
       -0.3720107395042588 0.3129036982389751
000280 19 68 0d 93 e3 a5 d2 3f 13 75 5a 61 32 e9 c4 bf
       0.29137505875189756 -0.16336660150128832
000290 61 75 22 11 48 f1 c8 3f 31 ec ea 1f 72 a7 cb 3f
       0.1948633273758942 0.21604754026870546
0002a0 66 61 4a 94 96 d6 de 3f 9f 4c 7c c0 20 58 c2 3f
       0.4818474243307008 0.1433144512053319
0002b0 22 11 0f 13 3a bc a1 bf de b2 fe 4f 54 c9 c5 3f
       -0.034639181925316245 0.1702065840339832
0002c0 60 55 dd 42 48 ea ca bf c2 9b bc 59 53 66 e0 3f
       -0.2102747274863459 0.5124909165068561
0002d0 a8 e5 2b b7 57 ae c9 bf cc 5e a1 f1 2f fd e2 3f
       -0.20063301509780485 0.59340665048054
0002e0 3d 0d de 1b cf 8d e2 3f ec 66 07 50 86 6a b5 3f
       0.5798106712613059 0.08365668729620851
0002f0 b6 e4 b3 64 9c 41 e9 bf 68 f6 0c b0 0e 66 e5 bf
       -0.7892591444825914 -0.6687081755150759
000300 df b6 62 06 10 9d cd bf 80 e5 ff 42 67 ac da 3f
       -0.23135567008778588 0.4167726663868834
000310 4b 0f 74 71 f3 86 c5 bf 43 29 b9 7d e9 9c d7 bf
       -0.16818087615694774 -0.36895215299286493
000320 23 ff 31 d4 3b ed d4 bf cb ba 83 c4 5d 7f c0 bf
       -0.3269795963496895 -0.1288869103950304
000330 9b 62 d5 59 1d 5b db bf 12 ce 34 ed f6 b1 e0 bf
       -0.42743619702154384 -0.521724189084525
000340 de 8d cc b6 37 77 dd 3f 92 2b 88 61 db 92 a0 3f
       0.4604014668604729 0.03237042966437466
000350 74 c9 21 c1 67 28 c4 3f 12 d6 dd b4 3c ee 98 3f
       0.15748307161591024 0.02434630254670906
000360 55 24 d7 4d cd a3 cc 3f f2 04 24 09 db ac eb bf
       0.2237488393859929 -0.8648505381135279
000370 f8 8d 01 3d e7 79 e2 3f 2c 0c d2 44 0f 21 e1 3f
       0.57738077082871 0.5352856010580402
000380 ae b9 96 00 86 2e b9 bf 3b ba 9b cc ec 24 e0 3f
       -0.09836614145635877 0.5045074459320128
000390 d0 9b 05 75 92 2c f3 3f 29 9c e8 7e c3 de c7 3f
       1.1983818598907767 0.18648570725164973
0003a0 d2 d4 99 7a d4 36 e6 bf 4e af 71 b4 9a 85 b6 3f
       -0.6941931147145175 0.08797614007351948
0003b0 19 95 75 14 1f a4 dc bf 14 e5 39 cb b6 ff d2 3f
       -0.44751717565516597 0.2968575462942493
0003c0 5b 0a 69 19 99 b2 de bf 3a 1f 01 89 98 b4 bc 3f
       -0.47965075952030184 0.11213067383607447
0003d0 30 6e 8b 4e 4e 83 d5 bf a8 2a 25 3e d0 bd 93 3f
       -0.33613927526832565 0.019278768342057134
0003e0 5e a8 93 66 da 23 d4 bf 3e bf 7a ec 3e 6e df bf
       -0.3146883012510723 -0.49110386937808304
0003f0 4f aa e5 5f c8 29 d9 3f 0e 9f f3 df 51 39 d1 bf
       0.3931752144332323 -0.2691235243823805
000400 d8 26 b7 28 68 7c d1 3f b2 04 b2 43 70 6c 93 3f
       0.27321819282643167 0.018968347675131177
000410 12 df 28 48 34 59 df 3f 25 0e 0d 2d 98 d6 d3 bf
       0.4898195938762778 -0.309972805018534
000420 45 4c a7 cc 19 eb c3 3f 01 cd 98 bd e9 46 e4 bf
       0.15561220639082954 -0.6336563780845667
000430 89 ce 4f 6c c6 28 d9 bf 08 63 20 9a 59 e9 cb bf
       -0.39311371400183553 -0.21805877710064459
000440 73 95 2d cb fe 40 c6 3f 41 31 1b 10 09 d8 d6 bf
       0.17385849877170365 -0.3569357545172985
000450 e1 1a 75 f9 ce b0 c4 bf 02 f5 ad ac 43 9d d2 3f
       -0.16164576702632075 0.29084865439638474
000460 04 45 89 18 2b eb e2 bf a0 62 cd 67 c6 31 b6 3f
       -0.591207073137554 0.08669700655208112
000470 e8 25 aa 9b c1 1b 72 bf 01 71 08 f9 bd e3 d4 3f
       -0.00442100170278923 0.326400273510231
000480 18 13 8e 88 ab f7 8b bf 91 82 c0 ba b2 b2 ca 3f
       -0.013655986885859714 0.20857843512296317
000490 58 13 8d b7 81 06 d7 3f 27 be 57 e1 89 ad d1 3f
       0.35977213787946516 0.2762169552433726
0004a0 8f a0 f8 db 51 7d d6 3f f7 16 77 26 f4 fb cd 3f
       0.3513989113003015 0.23425151708777722
0004b0 78 16 1c 30 64 42 d6 3f a6 20 3e b3 61 3b cd 3f
       0.34780220697607644 0.22837468387684118
0004c0 f5 85 d7 ea 43 22 ea bf 36 2c 2b e4 67 6c cb 3f
       -0.8166827761417027 0.21424578324362792
0004d0 dd 80 ca e1 cb 26 e0 3f fc df e3 3c dd 4b c3 bf
       0.5047358903866798 -0.15075269196654506
0004e0 74 f9 38 82 ca c0 d2 3f 7e ef 9b ce d4 2c bf 3f
       0.29301703183218497 0.1217778210083775
0004f0 2c a4 c6 97 a6 73 a8 bf 84 52 be 74 5c 3d be 3f
       -0.04775734522565531 0.11812379694158365
000500 43 88 0e 06 90 31 af bf 6a bd 63 df 04 1c e2 bf
       -0.06092500757155552 -0.5659202921942044
000510 82 9c 04 fd 19 bf db 3f 0d bf 59 4d 64 6c c0 3f
       0.43353891094961494 0.12830785538562176
000520 50 6a de 58 cb a5 f0 3f c9 16 fc 48 a9 bd e3 bf
       1.040477130073345 -0.616902010486876
000530 c5 e4 4c cd 00 76 d9 3f 20 0c 2c da ca 57 e3 bf
       0.3978273396383652 -0.6044668446705863
000540 c4 18 42 35 2c c1 99 3f b4 93 9c a4 c6 74 e8 3f
       0.02515095782339284 0.7642548766203761
000550 27 5f 18 74 c6 d2 d6 3f 47 6b 2c af 31 8f ce bf
       0.35661469781324445 -0.23874493649858605
000560 78 39 8d 39 55 ff cb 3f e0 a8 92 26 a2 d0 d5 3f
       0.21872964201106604 0.34085897223361705
000570 5d d2 b0 1d 7f f5 b6 3f 76 f3 5e 12 37 43 cc bf
       0.08968348002310607 -0.22080124279991836
000580 29 d9 73 54 fe ff c5 3f cb 66 60 7f f5 81 c6 bf
       0.17187480090769583 -0.1758410331684018
000590 ea 57 6b 60 ad 56 c8 bf 84 c6 c8 3b 33 f7 d3 3f
       -0.1901451798245824 0.3119628986197329
0005a0 6c f8 5e aa b0 58 95 bf 9c a2 59 64 f3 86 dd 3f
       -0.02084613838064124 0.4613617401105701
0005b0 89 65 79 10 15 93 e3 bf 40 dd a0 fb 52 49 d8 3f
       -0.6117043802034213 0.3794753510769233
0005c0 c0 3d da 0d 0f 93 e3 3f 21 3f 95 74 b7 e6 da 3f
       0.6117015142971738 0.4203318251138502
0005d0 23 f6 b3 19 7a b0 c8 3f 44 51 2a d3 46 84 ef bf
       0.1928856492522054 -0.9848970531771006
0005e0 0e a3 bc 22 33 ca cf 3f 14 1e 9f 64 b0 c6 e5 bf
       0.24835814663062944 -0.6805040326370908
0005f0 0c 01 49 ea e8 a8 b9 bf 2e 6e f0 52 1c 18 dd 3f
       -0.10023360938885534 0.4545965967133466
000600 d5 d0 60 8e 81 d1 d0 3f da e4 ea 5e 12 40 d1 bf
       0.26278723625297334 -0.26953562993328506
000610 84 97 98 9e da d7 d1 bf c0 02 45 8c 15 64 e2 3f
       -0.2787996815480869 0.5747173061027624
000620 f4 a7 ba 99 da 5f bf 3f 54 ce e2 55 73 73 d0 3f
       0.12255636456634972 0.25704654109288083
000630 d1 e9 37 44 b2 fe e2 bf 00 e0 89 2b a6 10 b7 bf
       -0.5935908634558534 -0.09009779513314697
000640 04 dd 5b f1 8d 40 b9 3f df 02 c3 8d 69 06 db 3f
       0.09864127295064767 0.42226637691423535
000650 70 33 26 0e 5a fc d1 3f ae ac c8 3f 49 40 b0 3f
       0.28102733022460935 0.06348092848991158
000660 1f a3 08 a3 63 61 ef bf 3e 52 d5 71 18 e8 a2 bf
       -0.9806383308651653 -0.03692699803892595
000670 13 df 9d 37 1a ab e6 bf f0 c6 60 63 a9 89 7d bf
       -0.708386524797762 -0.007211362526548845
000680 ce fd cf 09 cd 04 c5 3f 6b db 47 c8 97 c9 d3 bf
       0.1642090127861437 -0.30917925413762387
000690 95 46 62 22 11 aa ca 3f c4 48 e5 da 85 78 91 bf
       0.2083150308504186 -0.01706132076771706
0006a0 ce 22 c4 d6 25 e7 be 3f de ef 16 0a 74 65 ea bf
       0.12071453564943654 -0.8248844334661916
0006b0 20 46 23 17 d2 45 b0 bf ba 35 2c c9 a6 59 c0 bf
       -0.06356537880790158 -0.12773594687352646
0006c0 d7 6c ad 72 97 c7 c4 3f e1 95 de 13 28 6a d5 3f
       0.16234105205044244 0.3346042818105542
0006d0 b2 4c 6e 2c 9d 9d c8 bf 22 6d 10 5a 98 da d2 3f
       -0.1923099963138149 0.2945919875653137
0006e0 ab b7 bd 2c cd e4 dd bf 53 d9 a6 22 b5 0d d2 bf
       -0.4670899331020972 -0.28208664306602776
0006f0 d4 a5 cc 72 28 cf 96 bf 51 ce e9 a1 de 7f d6 bf
       -0.022274620062636988 -0.35155454456182605
000700 84 d2 7d c8 f5 b4 e3 3f 65 99 b3 60 99 2e d5 bf
       0.6158398547982675 -0.3309691852904478
000710 0e fb 67 c7 06 a5 cf bf 3a 25 a1 28 5f 50 d3 3f
       -0.24722370850209824 0.30178050010416124
000720 6e 3a 53 27 36 76 d9 bf ec 3f e1 a4 d1 f0 cf 3f
       -0.39784005966513447 0.24953671026969404
000730 83 53 f7 08 65 a6 d6 bf a6 16 25 69 2b 08 b8 3f
       -0.3539059245643374 0.09387465779317469
000740 52 13 6a ff 7c b2 b9 bf 1f b0 94 3c 6c 26 d7 3f
       -0.10037976489736636 0.36172014156432114
000750 80 57 53 00 ec 10 a1 3f 36 48 3e 59 04 4c a8 3f
       0.03333222869848296 0.0474549635829508
000760 e5 36 ac f5 f2 f5 e4 bf fb 50 78 42 b2 ec e2 3f
       -0.6550230787558716 0.5913935945741565
000770 3c fc f6 46 2d 57 d8 bf 7f 52 21 9b 90 f0 da bf
       -0.38032085352091705 -0.42093291425161533
000780 d8 f8 ae ae 72 d7 99 bf b0 b9 11 9d d6 98 89 3f
       -0.02523593131240251 0.012498547237751761
000790 9b fe a8 98 f6 05 e1 3f ee bd 20 bc 08 64 dd 3f
       0.5319779378550779 0.4592305981813912
0007a0 e6 c5 87 43 3b 13 e8 bf 30 a5 e4 61 63 a9 a2 bf
       -0.7523475951149379 -0.03644857950195968
0007b0 29 d2 6b 1e d2 07 c6 3f 08 b4 d6 7c 33 06 e4 bf
       0.17211367116364443 -0.6257569731002386
0007c0 38 f8 9a 8d 0c 27 c3 bf 00 bd 79 9b 82 a2 24 3f
       -0.1496291819984792 0.00015743107154573416
0007d0 f3 1c e2 01 25 d2 d3 bf 7d d4 12 95 47 f5 e5 bf
       -0.30970120605384394 -0.6861913596718662
0007e0 00 1f c0 a3 73 6f eb 3f 22 59 a9 ec 4e 80 d5 3f
       0.8573549459697176 0.3359563170573826
0007f0 d9 11 a4 06 70 cc d7 bf d8 aa 93 dd 3e 0b b0 3f
       -0.371852880940677 0.0626715937575385

transformer_encoder.layers.0.self_attn.qlinear.weight f8 [32, 32]
000000 a4 59 3a ab 7b b1 d7 3f 16 63 cf 2a 26 a5 c6 bf
       0.3702077076099164 -0.17691495027863685
000010 12 af 64 ba 36 4f d8 bf 85 c3 c5 f1 6e e3 bb 3f
       -0.37983482553930614 0.108939107920163
000020 da 1d f4 5c a6 e7 d3 bf 37 85 c1 de 77 a0 e3 3f
       -0.31101378514764877 0.6133384085370953
000030 5e 18 62 0e 3a a7 d1 bf 18 12 0d 18 2d 8d ad 3f
       -0.27583171276672214 0.05771771353332528
000040 6e 3f 87 6b ca 7d db bf 05 86 7e 22 a5 72 ac bf
       -0.42955265522777253 -0.055562172375413645
000050 6c 3a 73 d6 36 61 c6 3f a2 79 49 e6 ea 64 cd bf
       0.17484174224087512 -0.22964226002200144
000060 6d 0a 7d c5 c5 13 b9 3f 94 0d 57 00 20 eb d3 3f
       0.09795795508856893 0.31122589142997836
000070 fb b8 00 87 24 5c d7 bf 79 63 01 bd 12 86 e1 3f
       -0.36499894317502396 0.547616356993884
000080 de 71 af c5 f1 36 cb bf db b7 59 e7 28 24 bd 3f
       -0.21261427071193756 0.11383300445751791
000090 18 f0 fd 5c e1 3d e1 bf 44 e0 34 f3 b9 e5 89 bf
       -0.5388037506340906 -0.012645199522566604
0000a0 a9 43 ad 7e 64 2e f1 3f 7a ec 24 7d 5e 85 c2 bf
       1.0738263080895456 -0.14469510183866757
0000b0 2a f6 b0 10 4f e2 cc bf 82 e5 b8 55 7b 15 db bf
       -0.22565639796259634 -0.42318614360154794
0000c0 31 d1 55 e6 19 0a c2 bf 0a 8f 0f 61 b7 5d b3 3f
       -0.14093326327168534 0.07564874763152943
0000d0 38 82 b2 1d ab 4d d2 3f 38 25 47 bf c3 27 e2 3f
       0.2859905042660418 0.5673540817162239
0000e0 0f 67 d9 df 7e d2 e2 bf 12 6d de 57 1b 76 b8 3f
       -0.5881952640586138 0.09555216689334525
0000f0 5e 61 71 1c f8 50 bd 3f 46 9c 94 03 0f 0a bc 3f
       0.11451674169928114 0.10952848279394897
000100 ac fd e0 3f d4 07 bb 3f 86 a4 9d 35 59 34 e0 bf
       0.10558821258108847 -0.5063901946242744
000110 26 dc 68 af 82 e2 d1 3f 8c 06 6a 12 79 40 c7 bf
       0.27945010309071205 -0.1816550578987982
000120 33 3d 3a b9 61 23 d5 3f b6 6d d5 67 95 e6 b7 3f
       0.3302845295774716 0.09336217675211497
000130 97 fe 30 ef 50 c1 dd 3f b4 3c 16 02 19 2b d3 3f
       0.4649240814069144 0.29950547412677087
000140 a7 03 78 2d 64 6f b2 3f a9 22 80 00 62 9e ee bf
       0.07201219663694634 -0.9568338403488116
000150 ee 68 f6 ef c5 6f d3 3f de 03 7b 4c 5c c8 e7 3f
       0.30369709428636227 0.7432080739746387
000160 c4 7a bf 9b ee 8c 94 3f 2e 66 ab b3 8c a8 c4 3f
       0.020068863159276487 0.16139372609068076
000170 f6 b7 d5 c3 57 80 d6 3f 68 cd 1c ab b2 1b a5 3f
       0.3515834248017876 0.04122694338584659
000180 7c 21 d3 c2 07 c7 c1 3f 9a 27 9a fd ac ac b5 bf
       0.13888642323423628 -0.08466607276400709
000190 96 60 d8 df c6 74 c9 3f 16 5b 0d 8d 0d 0f b3 bf
       0.19887624673788612 -0.07444843953758737
0001a0 71 e5 fd 1e 45 d3 e5 bf 3b 87 b9 9e bb 57 e4 bf
       -0.6820397954281089 -0.6357095813839132
0001b0 2b 79 ff 94 68 8b e5 3f 6b e4 87 2b d2 09 e8 bf
       0.6732676420322482 -0.7511988496982104
0001c0 08 a5 88 9f 00 da e6 3f a5 54 00 0c 36 db e4 3f
       0.7141116252797994 0.6517591699981905
0001d0 2a ed e6 54 fe d4 df 3f b6 44 ae 1a 86 85 c7 bf
       0.4973750905152935 -0.18376232435961065
0001e0 7d d8 3a 2d 31 47 be 3f c1 ab c1 a4 18 03 97 bf
       0.11827380518193027 -0.022472748809757585
0001f0 d2 88 87 5e 3f 41 e2 3f 68 34 ce 23 cf df c4 3f
       0.5704647871282538 0.16308011291804125
000200 f7 52 52 23 01 52 f0 bf 56 ca d6 9e b1 1c e9 3f
       -1.02002061650745 0.7847526647877412
000210 29 3f 18 ff 39 1a d7 3f 2e 4f 21 f0 1d 6e e7 bf
       0.36097574149697437 -0.7321920099297807
000220 c4 a1 78 ca 39 1a de bf b4 e3 63 65 35 ea 95 bf
       -0.47035069248752515 -0.02140124732338551
000230 bd 1b e2 96 96 c2 dd bf 6c 88 5d c6 57 bd c8 3f
       -0.4650017236203288 0.19327828584488616
000240 24 00 ec 8f 49 61 ae 3f fa e9 4a 48 6f 9e c4 bf
       0.0593359935937772 -0.16108504323877054
000250 e5 be 67 98 6f 18 d4 3f a2 32 c6 5a 3f 13 d9 3f
       0.3139914501507362 0.39179977287930445
000260 6d 56 a0 a1 16 7f 92 bf 62 1d 93 8e da b1 ed 3f
       -0.018062928786170596 0.9279606613790004
000270 ce 5a e5 5e 51 88 e0 bf 40 8b 0f 15 f0 a4 69 bf
       -0.5166403630672336 -0.0031304062945180233
000280 fa 03 2c 93 ba a7 ca 3f 1a 58 af ea 71 30 ea bf
       0.20824367700700447 -0.8184136947336385
000290 b5 27 f8 fb 40 6e e5 3f e1 71 00 34 c9 42 cd 3f
       0.6697087212826235 0.2286006454386458
0002a0 d4 a3 a5 0c 87 70 e6 bf 72 29 fe 7e 7d 77 e0 3f
       -0.7012362715732885 0.5145862083748354
0002b0 81 6c e4 24 12 30 d5 bf 13 e1 ab 80 c1 be e2 3f
       -0.3310590133930376 0.585785628615698
0002c0 4a 26 95 bf 9d 4b ac bf ba 85 25 a7 e2 94 e0 bf
       -0.05526440585761046 -0.518174482782505
0002d0 8d 26 0a 78 76 8e e0 3f 60 db a2 69 36 b6 d5 bf
       0.5173904747509411 -0.3392463714221119
0002e0 bb bc c7 da 7b 92 b0 3f 91 b0 19 77 1e 50 d3 3f
       0.06473516551317264 0.30176507597821806
0002f0 bf 3e c0 2e 1f cb c1 3f 0a 15 bb 7b bc 8d eb bf
       0.1390112856174621 -0.8610517899147976
000300 80 5e 96 e9 80 10 e4 bf a3 98 32 05 80 54 e0 3f
       -0.6270145952466493 0.5103149510876118
000310 b5 f9 c2 cd cc e9 d3 bf fb 9f b8 c4 44 96 eb bf
       -0.31114502042683095 -0.8620933382235302
000320 15 4c 9f bf 82 d7 e6 bf 98 a4 e3 8f 42 19 d9 3f
       -0.7138074629423296 0.3921667485397591
000330 c3 f1 2f d4 d2 f9 d9 bf 30 07 89 95 ab 19 e1 3f
       -0.4058730194226678 0.5343835754976904
000340 d0 69 2e fb 99 40 74 bf 18 55 b0 f5 e9 ba dd 3f
       -0.004944421280834679 0.46453331940695497
000350 95 7d e8 e0 09 aa e8 bf ca 88 55 d5 58 7c cd 3f
       -0.7707566635835287 0.2303572694464207
000360 92 a6 00 80 d0 43 b8 bf 5b 8a ac 07 5c 33 dc 3f
       -0.09478476643621495 0.44063473462498387
000370 0c c1 d2 2d a3 0b df bf 68 31 60 97 b8 66 bd 3f
       -0.4850852916233783 0.11484864898392788
000380 a0 f6 50 9c 1e 12 b1 3f 22 b1 25 f0 b2 5c eb 3f
       0.06668273273768444 0.8550657930732408
000390 eb 1e d1 c6 92 67 da 3f 02 3f b7 e8 1e 5c f4 bf
       0.41257161536894554 -1.2724904146634235
0003a0 e4 4f 48 13 79 f3 d1 bf 75 62 4e e2 af c3 df 3f
       -0.28048540957502 0.49631878948415614
0003b0 28 ed 89 e9 cd 5f b1 bf 30 ad e6 b4 dd b6 74 3f
       -0.06786810828809975 0.00505720714719908
0003c0 3a 4b e1 3b 9d 87 d2 bf 86 0b 61 3e 76 bd bc bf
       -0.2895272335783151 -0.11226595900465783
0003d0 2f 13 88 45 c0 57 da 3f 39 c3 af 48 48 84 b1 bf
       0.4116058997172329 -0.06842471861433531
0003e0 68 6e 16 25 39 6d dc bf 29 a3 a1 1e 92 c4 e1 bf
       -0.44416645643079855 -0.5552454565305186
0003f0 b9 0f dc 04 ae 80 e2 bf 7c 34 bd 88 ce 03 d9 bf
       -0.5782079787172655 -0.3908573470442389
000400 ce 20 ec 13 f9 dc cc bf 34 a1 03 2b 0f b3 ba bf
       -0.2254935595776772 -0.104294727326878
000410 80 e1 e4 c3 2e d2 d0 bf 97 45 12 1e 71 3a df 3f
       -0.26282853250770444 0.48794200836808826
000420 a6 0a d8 d0 5a bc a3 bf 80 bb 51 78 b0 e9 d2 bf
       -0.038546407693521176 -0.29551326513222165
000430 14 3d c8 37 55 f1 e3 bf 57 9d 8e 6a 0e 49 e1 3f
       -0.6232095803733579 0.5401680070107585
000440 ad b3 20 db 28 1d c9 3f 9a 32 a6 18 a5 08 c2 bf
       0.19620238017651329 -0.14088882163595856
000450 55 d8 b6 82 d7 d3 d4 3f 9f ab d5 73 0c 54 d4 3f
       0.32542979970037794 0.31762992202737367
000460 94 8a db 83 65 f8 9a 3f dc 5b b4 22 c8 d5 9f bf
       0.026338182614277075 -0.031088950269886215
000470 c0 d7 91 bb 73 31 d4 3f 64 00 aa 65 5c af 99 bf
       0.31551831548074105 -0.025083011345941833
000480 94 72 88 76 08 ca d6 3f d3 49 94 68 b6 a2 b4 bf
       0.35608111930359 -0.08060779622272855
000490 69 fb be 34 83 c0 f5 bf 20 67 23 2a 89 05 92 bf
       -1.3595001278296996 -0.017599242398183113
0004a0 ab 13 1e f4 44 9f e2 bf 14 52 8c 0a 69 a9 d3 3f
       -0.581942059318512 0.30721498518076484
0004b0 1e 64 33 b4 09 e7 d7 3f 82 2d e1 6f 62 3b d3 3f
       0.373476434685985 0.30049954343549967
0004c0 4c 0e db ac ba 4a bc bf 29 18 1f 98 c7 e8 dc bf
       -0.11051527710065406 -0.45170774322139323
0004d0 bf 8e fe f8 02 55 c9 3f d0 ef 41 fa 08 9f 67 3f
       0.19790684850624093 0.00288345101767893
0004e0 d5 96 e2 4d 09 81 e2 3f b1 7d c9 bf 5a 6b dc bf
       0.5782515069192536 -0.4440523980065008
0004f0 a1 a3 da 60 52 13 c7 bf 3e cc d7 89 e6 6b d8 bf
       -0.1802771542473041 -0.381585726368204
000500 4a 12 c8 a1 f7 6e d5 3f 6c 86 5f 0c 1d 60 df 3f
       0.33489790724732826 0.4902413006621831
000510 12 10 de 5f 28 02 f2 bf 1e c7 f3 a7 90 68 da bf
       -1.1255267853566733 -0.41263214494311906
000520 05 a8 a1 49 f2 27 ea bf 00 42 a9 3e d3 85 95 bf
       -0.8173762739290856 -0.021018315028699774
000530 fa c4 7f 97 ca 93 c6 bf 93 7e cd 98 d5 5b e2 bf
       -0.1763852348081299 -0.5737102493694287
000540 98 92 e0 21 d6 5c c0 bf 19 b0 d9 4a 6f ae d2 3f
       -0.12783314375078159 0.2918966513595947
000550 0c 66 92 f2 a2 61 dd 3f 12 b9 b1 3c 6b b1 da 3f
       0.4590842598787226 0.4170787899701206
000560 d6 ae f3 80 00 ee d5 3f ae 25 a4 9e 12 f6 cb bf
       0.34265148728330297 -0.2184470438590273
000570 3e a8 be b0 cc fe d3 bf aa 16 10 cc 77 82 a1 bf
       -0.3124267316840167 -0.034198516521468506
000580 75 29 db 6a 47 12 d6 3f 4d e4 2a 91 98 8c e1 bf
       0.3448656600491156 -0.5484125933936724
000590 25 db 3b db 64 0f d4 3f 55 f1 fb 3c d1 b4 d4 bf
       0.313439573379059 -0.3235362144039489
0005a0 0e 47 0e 4c a7 83 c1 bf 14 83 fb a5 dc e7 c7 bf
       -0.13683024610195854 -0.18676336388218628
0005b0 4c 56 a7 87 bf ee ed 3f dc 73 c7 8a 5a f8 db 3f
       0.9353940629468496 0.4370333056702387
0005c0 a6 c5 48 95 75 47 bb 3f ab 88 d7 46 5e 77 c1 3f
       0.10655913252482793 0.1364553304584367
0005d0 8d cf fe 4d 86 b8 e1 3f 2c 02 82 b5 57 28 cf bf
       0.5537749789568679 -0.24341865885436798
0005e0 c8 5b 47 a3 14 7e b4 3f d4 97 0b f2 87 3a b9 3f
       0.08004883753106562 0.09854936274822929
0005f0 7c 34 92 95 42 60 c1 3f 48 d7 61 dd 3f 30 de 3f
       0.13575012496258754 0.47169491404871566
000600 b6 ce ba e1 1b b1 e3 3f b8 20 58 fc af 9a c4 3f
       0.6153697403701333 0.16097068616386934
000610 7a 9b 79 12 8b 46 bd bf 4a bb a4 4a d7 27 a3 3f
       -0.11435765458155159 0.03741333757567718
000620 92 75 b2 73 20 98 dc bf 32 59 6c eb f7 d2 cf 3f
       -0.44678508089585833 0.2486257457282562
000630 a3 88 78 5f a5 c3 e3 3f 53 3b df 78 d9 1b d2 3f
       0.617632566896891 0.2829497986212363
000640 5b 4e 15 14 f1 0c e0 bf 10 0b d3 a8 48 7d d8 bf
       -0.501579798913052 -0.3826467178989086
000650 9e b1 7d da f0 88 de bf 2a e5 b3 75 bb 8d a0 bf
       -0.4771082051945771 -0.032331331365592256
000660 a5 71 74 b1 9f 69 c3 3f 9c bd 66 db d9 8b e0 bf
       0.1516608826140217 -0.5170716557676545
000670 5f aa b4 35 9e 34 ec bf 02 72 09 93 65 ff a9 bf
       -0.8814230965557036 -0.05077664775737746
000680 fa 29 3f 20 97 de e1 bf 8b c5 30 0f 84 08 c2 bf
       -0.5584216718501118 -0.14088488332485513
000690 34 65 16 bf b0 14 95 3f f4 11 55 4d 76 18 c8 3f
       0.02058674017243796 0.18824652458182778
0006a0 55 78 51 08 7a 43 e2 3f 1b 10 67 bf 95 09 f6 3f
       0.5707369005647346 1.3773400761283543
0006b0 cd 95 f6 75 ba 90 d5 bf 45 25 0a 85 0a c4 e0 bf
       -0.3369585182175257 -0.5239307974272057
0006c0 fa bd e6 2c 6b 16 de 3f ef a3 2d db 67 b2 c3 bf
       0.470118326043092 -0.153882009525915
0006d0 1c 4a 6d 58 8e f2 cc bf 3a ce b6 35 84 b8 f5 3f
       -0.22615222280235592 1.3575479601103226
0006e0 5b 07 69 7e 5f 2b d0 bf a3 e5 f4 82 2c b2 d4 bf
       -0.25264727921250135 -0.32337487019284533
0006f0 1a a1 fc 6d a1 b5 d7 bf 72 a4 d9 09 c0 f4 a2 bf
       -0.37046085110570603 -0.03702354545823362
000700 c5 4f 5a 41 cc 24 d4 bf 57 bb 01 33 93 6b d4 3f
       -0.31474596387965575 0.3190658567536295
000710 af fa b9 8b d9 94 e4 bf 24 bf 52 d9 ce ff df bf
       -0.6431701401741828 -0.49998828146907415
000720 61 b4 42 d6 39 11 ea bf 28 65 0d fd 07 7e aa bf
       -0.8146027741219194 -0.05174279178636204
000730 c2 7d 0c d6 a7 4c c4 3f 58 f2 c0 1a 3d cf d1 bf
       0.1585893435630919 -0.278273845793398
000740 a6 f2 cc 8c 2a 0c a3 bf 8a 89 db 44 27 cb d1 bf
       -0.03720219582325983 -0.27802449917194194
000750 c2 c7 19 24 37 9f ba 3f 11 10 7e ea bb ce da bf
       0.10399193412175037 -0.4188680448498881
000760 5c dd ac a2 f9 cc c3 3f cf 30 0e c5 ce ce bf bf
       0.15469284480216572 -0.12424938498424186
000770 f2 c6 51 94 b8 5a eb bf 14 d6 71 5f 35 e4 b1 bf
       -0.8548243424285984 -0.0698884351748677
000780 54 02 3f b9 62 90 e2 bf c0 5d 31 2c bf 15 c8 3f
       -0.580125200089308 0.18816365869382246
000790 ca 49 ce 31 23 3e a7 bf 0a 5d 9d bf 46 fb b4 bf
       -0.04539594634038087 -0.08195917299359592
0007a0 6a 89 86 d4 45 e2 e0 3f b5 a1 42 78 f2 54 d6 3f
       0.5276211882485715 0.34893476242225613
0007b0 7d fe fe 59 7e 32 bf bf 7d c7 c4 6e ec 2b e3 bf
       -0.12186422059220976 -0.5991117633295598
0007c0 74 3c 69 f7 c8 10 e8 3f 22 12 53 03 84 17 d7 bf
       0.7520489532706862 -0.36081028294236905
0007d0 7e b4 63 f7 dd 97 e2 bf 69 78 71 d4 bf 42 d7 3f
       -0.5810384589982645 0.36344905611429695
0007e0 f9 7d eb 15 38 ed e7 3f c8 fd 67 c9 7f c0 86 3f
       0.7477074077723379 0.011109350522928177
0007f0 b5 b1 50 23 f9 3a b8 3f 1f 18 80 20 25 f9 dd 3f
       0.09464985954463752 0.4683316056620032

transformer_encoder.layers.0.self_attn.qlinear.bias f8 [32]
000000 1e b0 8e c3 8e 38 c9 3f 90 e3 96 c0 72 53 94 3f
       0.19703850315761512 0.019849579815602036
000010 a9 17 77 d7 1d 07 e1 3f 5e b6 8e 81 28 2b dc 3f
       0.5321187218003064 0.44013416912171077
000020 8b ff 14 99 0c 89 d3 bf 44 ed 58 62 37 9c bb 3f
       -0.3052398199979442 0.1078524222474942
000030 49 3a 3e 95 c3 20 dd bf 19 85 8b 81 4c 7b d9 3f
       -0.4551247556163714 0.39815056467894433
000040 ce b3 48 3d 88 cf d7 3f 8d 11 0c 73 b0 a1 b2 3f
       0.3720417593456745 0.07277968224304328
000050 3b d7 21 95 72 e0 df bf dc b1 88 b2 16 c3 ad 3f
       -0.4980741936081931 0.058129033368775146
000060 fc 8c 28 59 58 7c d6 3f b0 b2 2b f5 ff 77 9c 3f
       0.35133942324519274 0.027801513041526504
000070 a3 1f e2 9f 63 ba e4 3f 88 95 cc c9 02 6d a4 bf
       0.6477525828095064 -0.03989418710106479
000080 08 ad 4a 03 ad f5 b7 bf 8f 7e fa 6f 63 d1 d3 3f
       -0.09359246569026791 0.30965505538368004
000090 5a 06 f6 5b cb cb bd 3f 35 eb 3b 27 44 2b e8 bf
       0.11639090533392374 -0.7552815214433851
0000a0 f8 1a 89 97 07 81 d1 bf 67 69 fb 47 0d a9 e2 bf
       -0.2735003452147988 -0.5831362157726233
0000b0 cc 14 ae f1 8d 01 d5 bf 06 dc 89 d2 5c b0 b7 bf
       -0.32821987725794766 -0.09253482952213696
0000c0 d8 7f 9c 69 bb f3 e0 3f 26 ab 2b 96 dd 0f d0 bf
       0.5297524512025076 -0.2509683577069829
0000d0 fb 5b 34 35 f0 4c e4 bf a4 29 d9 7c a8 db be 3f
       -0.6343918837691257 0.12053921745351787
0000e0 97 91 58 9b 2f 0d e8 bf 6c 77 c4 81 ae a3 c0 3f
       -0.7516096147633559 0.12999516807843337
0000f0 05 0d 62 4a c2 67 d3 3f 3c 24 0b db 3a 1a a7 bf
       0.30320794357267317 -0.04512199329253305
