experiments/fl_train_noise_0.5_max_grad_norm_2.5/20250427/model_round_9.pt (torch, 62777 bytes, 25 tensors)

embed.weight f8 [32, 8]
0.047120238771818077 -0.0428747640919308 -0.1330383342874185 -0.010300855697245606 -0.04131884419601284 -0.06761226480337021 0.13563762714664096 -0.627324823093276
-0.25008812619583 0.4934183169951766 0.2400751663196301 0.3886763085585505 -0.09902512108027467 0.5339654702575926 -0.18365683416887685 0.11733542534296129
0.4086068790984533 0.13694391357954247 -0.816541866799215 -0.7950315480977165 1.0845043586782661 0.09058541917137503 -0.6167450291585941 0.9074049971024805
0.5002982589829462 -0.30120639721217624 -0.2060139019539661 0.15481760104092518 0.04305564634899166 -0.38443575997077994 0.1301249173867698 -0.4259694708971653
-0.7757896495780314 -0.7919358696664182 -0.5768779162575852 0.06289588385406716 0.05084742514620972 0.21441260429536635 -0.09404908223408939 0.0727677678848616
-0.6706923575534581 0.14021655968552654 0.5402033815207621 -0.4589864185116653 0.2432642434664446 -0.14937530410609873 0.5532982436629482 0.08861677994720132
-0.37114609314210134 -0.031624564188290336 0.3225387868158731 -0.21177545044802526 -0.1683470656625246 0.11744311974439486 -0.3901064049719965 0.18893272441756187
-0.5244690582827854 0.0533213592446988 -0.7234461150619895 0.24069531694322993 0.1930830939935287 0.2831728442193636 -0.5735433132941096 0.6592481840674769
-0.18628865791633686 0.35803298119509647 0.7441163103800112 0.4475674098663938 0.6473776476621599 0.21693516187727496 0.11766210478877343 -0.7628478468973792
-0.14516242148154437 0.002257289663408657 -0.051830956534701766 0.04181098257394321 0.217317423441576 0.08298894426405357 -0.6610133397447171 -0.1497068498412745
-1.1884953075660019 -0.30269910173639775 0.7408695078591878 -0.2986462409049328 0.09076476835525449 -0.11400013683085976 -0.10471645905748542 -0.7886042854300295
-0.26141774556706926 0.16406346307989497 0.37439591649923304 0.24136941598866318 -0.005985722600671997 0.17647896011735276 -0.2350846845098254 0.4265223045262244
0.10526060580502206 0.2374479815800248 -0.06619313568806486 0.7956969399997093 -0.5144032156420698 -0.3552064484049602 0.49835437133089366 -0.10828379229774511
-0.17660884341809316 0.3901115919247742 -0.12242873087152598 0.4888921553889981 0.17370563570500638 0.3431777376604574 -0.33283961113901683 0.24427092870017802
0.276057889064065 0.09618819049131214 0.4050699536669627 -0.5130141519234562 0.024190670139926734 0.04907402302194648 0.8647437498911023 0.022249730817316696
0.5610191508984427 0.06929276188705905 -0.034197688707541585 -0.17891130800560173 -0.37814513704646513 -0.4456118859456247 -0.11604868864043327 -0.016721638878253467
-0.5177937710934719 0.30816160532042264 0.07856567108947657 -0.5852234873919799 -0.3894897671820016 -0.29055932344854063 0.37638605460555363 -0.4676804904908537
0.578893029550777 0.1061393742483934 0.5688326297059536 0.8855848311566156 0.7774739206072439 -0.033738030530710894 0.4424401680517811 -0.06866407039568138
0.30580091082881256 -0.491816294028312 0.5194579929645787 -0.49519901920714116 0.03610432414021178 0.16196996310427672 -0.31712665347733643 -0.009123856650431347
-0.14495289890804422 0.9568890511087826 0.6210652040250089 0.4760862253078622 0.3028428425212789 -0.10704641379275928 -0.9520013136259314 -0.5323410501137221
-0.6041140449375373 0.3584613058300699 -0.24958500140592998 0.2748571445365624 -0.26669800937527266 1.4439770684946438 0.7540907739744224 0.7669952032457765
-0.06359145677706574 0.3776850573666844 -0.010228599795306895 0.23288073030176792 -0.08917665617558972 0.11677416671810592 -0.35841316105911963 -0.2796820039135154
-0.055949665370258556 -0.6524203568779201 0.1381796600173139 -0.4196162487247183 0.18421092574560124 -0.25796553757582374 -0.34289435009474917 0.17823655230853558
-0.15134332056838584 -0.29124022273039174 0.4636309691247095 0.5084836316300134 -0.18514120412626373 0.7999025563622486 -0.18014582939480098 -0.010386630185521169
-0.13773841403032022 -0.05539476191716961 1.1415796158137494 -0.2956904757036982 -0.5570101866363374 0.10954597850174315 -0.05162462591286392 0.18121666142064605
0.13409358439735167 0.3559958354818934 -0.06334898324292834 0.4962602699745698 -0.31885290848065484 0.3365433816230301 0.2144074552905903 -0.005459745541930024
-0.7383412394804698 0.20686617298464205 -0.4380357955462641 1.3206760094132852 0.9293633381555829 0.7550496866291007 -0.2011536902996177 0.6000952248655455
0.49003992921117384 0.07586503176136217 -0.11782359976889156 0.09990536006151964 0.3759276032941326 -0.07405081995887892 -0.515100080609782 -0.03665908978951215
-0.4688896683849987 -0.34027136721790646 -0.4247214686108799 0.02968494255524748 -0.6861889550777601 -0.30666451140556295 0.5022134158266494 -0.2856978481385256
-0.6443248017826806 -0.3519500551725793 0.5562964579968719 0.22508181807493666 0.2240802074148086 -0.48400674224244933 0.08641077846560927 0.3790979146858272
0.16756198454030818 -0.10800394043155209 -0.5851667332325768 0.6241577565403348 -0.023504569567149948 -0.31556886206059437 -0.5946464905758054 -0.4026054899262176
0.014848335999108841 -0.3957845494087086 0.5660380009071654 0.797424579598919 -0.08436384114014664 -0.246699232650057 -0.10215601810194466 -0.1613525642249465
00000000: 1664 02d9 2420 a83f 2f76 325b aef3 a5bf
00000010: cc7b 706f 6607 c1bf 4850 b972 9d18 85bf
00000020: e08f 0f59 be27 a5bf 5693 2392 094f b1bf
00000030: b4d6 59e2 925c c13f 88f2 e481 0b13 e4bf
00000040: b641 c8a0 7101 d0bf 1a77 af6b 2a94 df3f
00000050: 6058 f675 c8ba ce3f 704b 7f98 12e0 d83f
00000060: 34b0 85d8 b559 b9bf 4b63 fec0 3e16 e13f
00000070: b69a 3830 1182 c7bf f2a0 82c6 b109 be3f
00000080: be80 a977 9d26 da3f e7ed 1acf 6087 c13f
00000090: 14f5 b668 1c21 eabf 31c6 4b00 e670 e9bf
000000a0: 1e48 0e3e 215a f13f cce3 d524 9b30 b73f
000000b0: 849d 4612 60bc e3bf 3207 5934 7609 ed3f
000000c0: d17a 927e 7102 e03f 7ad3 5732 f746 d3bf
000000d0: fdf1 b4dd a95e cabf 0671 a82a 10d1 c33f
000000e0: 5641 f4c1 630b a63f a831 1f72 989a d8bf
000000f0: 8812 49ec eea7 c03f 8441 a674 1543 dbbf
00000100: 0c6a b0d0 44d3 e8bf 05e4 97e4 8957 e9bf
00000110: f28c 03ad c875 e2bf aecb 34d4 f119 b03f
00000120: 6974 2d78 ac08 aa3f ac3e a649 df71 cb3f
00000130: e20a 6ac4 9913 b8bf d7b5 448f e8a0 b23f
00000140: d3d0 abd1 4f76 e5bf f27d 1ac1 9df2 c13f
00000150: c43f 1a9a 5849 e13f 9935 3492 0860 ddbf
00000160: 6cbe fc60 4823 cf3f a69d fbde ba1e c3bf
00000170: 67ee ae84 9eb4 e13f d203 c0db 96af b63f
00000180: fc57 058b dbc0 d7bf 56bf e049 1831 a0bf
00000190: 4834 44b9 79a4 d43f 4c8d e23c 751b cbbf
000001a0: 32f5 b28a 658c c5bf 5440 7196 c010 be3f
000001b0: 9d26 d4da 80f7 d8bf 0241 4290 f22e c83f
000001c0: d7d4 a255 73c8 e0bf 3cbc 44ec ef4c ab3f
000001d0: 0281 9377 7826 e7bf ce27 49a9 1acf ce3f
000001e0: f26c 0e63 f2b6 c83f e665 42fe 801f d23f
000001f0: 7f01 ae81 775a e2bf ea8c d0a5 8f18 e53f
00000200: 24e6 ae86 4ed8 c7bf 21d4 472a 03ea d63f
00000210: 1e13 3002 cdcf e73f f56b 08c7 f1a4 dc3f
00000220: 37da 1b54 51b7 e43f 2ec4 ce08 88c4 cb3f
00000230: c4da 0b8c 1a1f be3f bcf1 47e3 3f69 e8bf
00000240: 118a 6fa6 ae94 c2bf 00a5 0529 e17d 623f
00000250: 6850 794e 9689 aabf 9e94 89c5 3f68 a53f
00000260: b02a 44ad 0ed1 cb3f 682e 8b71 c33e b53f
00000270: a68b 8d72 0527 e5bf 3519 0714 9829 c3bf
00000280: 8520 d7a7 1304 f3bf 4321 9f0d 6c5f d3bf
00000290: 827b 5bf8 33b5 e73f 3ba4 701f 051d d3bf
000002a0: 58ff b61f 5c3c b73f d995 6deb 1c2f bdbf
000002b0: 123c 01a7 b2ce babf a209 ed0d 3f3c e9bf
000002c0: c17e f37e 11bb d0bf 81c5 3214 0800 c53f
000002d0: 95b0 474a 1af6 d73f ce84 f669 31e5 ce3f
000002e0: 9049 012d 7c84 78bf 546c 11d1 dc96 c63f
000002f0: 824d e143 4117 cebf 9619 3d35 244c db3f
00000300: 205e 7deb 5bf2 ba3f e196 b109 b264 ce3f
00000310: 59fb ff88 08f2 b0bf cd6e da6d 5976 e93f
00000320: 457a 84bb fd75 e0bf 4091 ced3 b3bb d6bf
00000330: 3ad4 abbb 09e5 df3f 510d 9b92 7cb8 bbbf
00000340: d521 555b 1e9b c6bf b0df 469c 96f7 d83f
00000350: f219 2f43 7d57 bfbf 2aab aa52 024a df3f
00000360: 2ff0 3d7c fc3b c63f 37e2 fdc1 9ff6 d53f
00000370: a4f2 2983 3e4d d5bf 76be 1011 4544 cf3f
00000380: 234f 55b5 eeaa d13f 3aee 6b0c ca9f b83f
00000390: b5e0 e586 aaec d93f 79af 9ca7 9c6a e0bf
000003a0: 282c 7a64 70c5 983f 2ac1 ecf7 3a20 a93f
000003b0: 6b7c a615 fbab eb3f 541a d228 a2c8 963f
000003c0: 653b 316f def3 e13f fa88 27a2 2bbd b13f
000003d0: 1003 3205 5c82 a1bf e062 62d4 90e6 c6bf
000003e0: 6662 30a9 8733 d8bf 0d1a 36b7 e784 dcbf
000003f0: 2050 74ea 5db5 bdbf 9471 7830 7a1f 91bf
00000400: 3868 1d3e c491 e0bf 15fb 2e74 ebb8 d33f
00000410: 7ae7 ea3b e11c b43f 4e63 669b 26ba e2bf
00000420: 2f18 0b7d 66ed d8bf 7c99 f021 8698 d2bf
00000430: 7ae2 cc88 b516 d83f 4eab e826 7aee ddbf
00000440: c2b1 b9ac 4a86 e23f 22fa 3635 f32b bb3f
00000450: 1083 af7c e033 e23f d3d7 f4ff b556 ec3f
00000460: 4c08 d0fc 10e1 e83f 808e 8573 1c46 a1bf
00000470: 7406 0e91 f050 dc3f 437b c2f0 f793 b1bf
00000480: 5a31 c6fb 3d92 d33f 1175 9f0c eb79 dfbf
00000490: 9db7 6d5e 669f e03f 7061 203a 57b1 dfbf
000004a0: 2c50 da16 447c a23f 0dcd 3b87 6ebb c43f
000004b0: 6301 5897 cd4b d4bf 387c 6a4f 87af 82bf
000004c0: e99d 220c d18d c2bf ca34 8dc9 d59e ee3f
000004d0: 4612 7f22 c4df e33f a97e f15b 3278 de3f
000004e0: 7638 1df2 c661 d33f 2adc 64ce 6467 bbbf
000004f0: 9fb7 7875 cb76 eebf c3d0 1119 f008 e1bf
00000500: b0f3 41fa e654 e3bf 91fb 5ab0 07f1 d63f
00000510: 9827 4ebd 66f2 cfbf 94d0 b66b 4297 d13f
00000520: cc34 0b87 9411 d1bf 33bc d5b2 871a f73f
00000530: 63ef 8df9 8221 e83f ba24 4486 398b e83f
00000540: 4499 299b 8747 b0bf 91fa 64f2 fd2b d83f
00000550: 0875 d66c bbf2 84bf 58e1 4128 09cf cd3f
00000560: 4b3e d705 48d4 b6bf 2069 126b e9e4 bd3f
00000570: 131d 4dc1 3df0 d6bf 96a6 0559 4fe6 d1bf
00000580: 0c8d f93d 6fa5 acbf 4e21 01a8 a0e0 e4bf
00000590: e695 5f00 dfaf c13f bb24 491c feda dabf
000005a0: bf55 d23e 3994 c73f b686 d8e2 8182 d0bf
000005b0: c3f7 e824 fbf1 d5bf 56f8 8e91 74d0 c63f
000005c0: e095 27ca 375f c3bf d208 fa07 aea3 d2bf
000005d0: 1f6b 733a 21ac dd3f fade 0c77 7f45 e03f
000005e0: 72a3 6efc b4b2 c7bf 4401 f23e cd98 e93f
000005f0: b577 e1be 040f c7bf 241e b3e7 9545 85bf
00000600: 8ae1 d48f 69a1 c1bf 4d9f 9bc5 b35c acbf
00000610: 6c34 bbfc e843 f23f 50b5 b8be 97ec d2bf
00000620: a78a e406 07d3 e1bf 2dc4 128b 340b bc3f
00000630: 668f edff 8a6e aabf 975f 2589 1b32 c73f
00000640: 7986 cb83 fa29 c13f 1e0b bac1 a2c8 d63f
00000650: fe62 4393 a337 b0bf f912 766f bac2 df3f
00000660: 502b 8a07 1668 d4bf f464 7040 ed89 d53f
00000670: f6ee 3e18 b471 cb3f c8cd c048 f55c 76bf
00000680: 446a 9bce 7da0 e7bf 5411 cf3b 977a ca3f
00000690: 974e 164a c708 dcbf 69ab d02a 7d21 f53f
000006a0: 0759 ef2e 58bd ed3f 47aa ddf5 5d29 e83f
000006b0: b33d a774 67bf c9bf a910 a9e6 fa33 e33f
000006c0: ab8d 6c6f d05c df3f 9836 5306 e46b b33f
000006d0: 6852 b4fb af29 bebf f1c9 28ce 6593 b93f
000006e0: 2df7 73a6 320f d83f 6d22 f799 fef4 b2bf
000006f0: ed59 0c2a b37b e0bf 8f81 7eef fac4 a2bf
00000700: ae55 c9cf 4902 debf d3d4 7d8e 01c7 d5bf
00000710: c2f0 65f4 a22e dbbf c86d d5c5 ba65 9e3f
00000720: bdee 1d8a 42f5 e5bf 622a d52f 64a0 d3bf
00000730: 24d0 92de 2112 e03f 02b9 92a0 df48 d2bf
00000740: c210 f50b 4f9e e4bf f7a9 3286 5986 d6bf
00000750: 3e45 bf3a 2ecd e13f 742d c723 7bcf cc3f
00000760: 1c85 4305 a9ae cc3f 7a63 3e6a f7f9 debf
00000770: 061d 884b 041f b63f deac 63e6 2343 d83f
00000780: 46a5 d3cd ab72 c53f 341e fe6f 25a6 bbbf
00000790: 471d be95 afb9 e2bf c155 fcaf 19f9 e33f
000007a0: 1ace 63f6 9411 98bf 81ea 8bbd 4732 d4bf
000007b0: 4589 b613 5807 e3bf 1615 1bd1 49c4 d9bf
000007c0: 4029 21ec cd68 8e3f 6f3d feb7 8854 d9bf
000007d0: 5510 c6b9 fb1c e23f ccec 4c8d 8084 e93f
000007e0: 4270 a962 de98 b5bf c013 1728 d793 cfbf
000007f0: 3a62 d694 e526 babf b966 3c69 33a7 c4bf

embed.bias f8 [32]
0.4083180563789308 0.42160677133292024 0.418574533924784 -0.2402845894065258 -0.4420014264961973 0.16309517064062876 -0.6941143098299801 0.018220947242610332
0.24752961773072013 0.5733190108772447 -0.45822307462582856 -0.3661338953565003 0.14018505819518437 0.2615567926239402 -0.6151249223371394 0.5556610841891573
-0.5988712947691148 0.3191031372179006 0.2902598956534174 0.3698982387757582 -0.6763142389080988 0.37112769685060254 -0.24916423625250994 0.6977737874047502
-0.7666815647464187 0.6113744463950742 -0.7662625444650726 0.11914202349289375 -0.735869969029097 -0.1682798083681935 -0.01865024114664129 0.812893520982859
00000000: f8e1 a00e e221 da3f 2669 a9f7 9afb da3f
00000010: 114e 89d7 ecc9 da3f b2ed 9d3a a5c1 cebf
00000020: 7789 e559 c049 dcbf b9bd 0474 4de0 c43f
00000030: d7f8 8c36 2f36 e6bf 575f 0912 83a8 923f
00000040: 04f0 78ee 0caf cf3f 1992 3c1c a158 e23f
00000050: 9297 f2df 8653 ddbf 2cd9 a0dc bc6e d7bf
00000060: bd07 2b80 95f1 c13f 5d74 97b3 58bd d03f
00000070: cd8f 0c76 1aaf e3bf 1d13 08c1 f9c7 e13f
00000080: 207d 3122 f429 e3bf 76b8 9990 2f6c d43f
00000090: c7fe ca3d 9e93 d23f cef3 98a9 69ac d73f
000000a0: c5bd 3dc2 5da4 e5bf b03d 2762 8ec0 d73f
000000b0: d0c7 041b 9de4 cfbf 491a 9db1 2954 e63f
000000c0: f005 e1c6 a788 e8bf f70f 9c24 6190 e33f
000000d0: 4a12 1407 3985 e8bf b332 7b76 1780 be3f
000000e0: 07d5 622d 3f8c e7bf 765f c258 318a c5bf
000000f0: e73b 267f 0c19 93bf ad0d f845 3903 ea3f

pos_enc.pe f8 [1, 12, 32]
0.4052868716371986 0.620264866688341 -0.6234203514419229 -0.15784741723106183 -1.2748135581416666 0.38717561275097984 0.019611697441535708 -0.07635904976773954
-0.20131174711330851 0.7427820098895592 -0.5136633995554067 0.24693929351603483 0.42869025170231473 -0.41699520083693875 -0.05833703329579444 -0.008856422453540777
0.5776617397525431 -0.14387992425001173 -0.2510569054571283 0.7480824875986699 0.35348468315638387 -0.0904270545256684 -0.1913741829223994 0.13613301059671912
1.3759688306191167 0.2316295946030112 -0.5475903874929492 -0.5782128332525147 0.1793310424780149 -0.4873471309727632 0.7979812782843742 0.0736469850899615
0.10349630945392163 0.3247875141289105 -0.21378388330318454 -0.7146650565992966 0.6464186926888226 0.4416192234195123 0.2976343471085677 -0.03465678941437014
0.41706278035467503 -0.04559277244129874 0.09864765910221845 -0.33995006039604503 -0.13289466856406942 -0.6148451663566905 -0.7508915677710103 0.027107148439744544
0.605788150602006 -0.35812424899434486 -0.7439678975719836 -0.06248145970726445 -0.8478769134312233 -0.04505506898325737 -0.1873436773437807 -0.22368240420645677
-0.6914029255443556 -0.2068402034287056 0.2893479367844471 -0.04173124321786516 -0.18299033890888125 -0.33570145462522205 -0.32235932807378526 -0.470534551556804
0.12816430590431027 0.5601859060205784 -0.5097450474071683 -0.14420182092642092 0.1949690527535097 -0.05811319406873257 0.13309490175216185 0.6909518640705263
-1.0174203081120747 0.2220180764415957 0.9750721155170093 0.23109677489971084 0.43513972164412873 -1.344739833375531 0.4920713807179222 -0.37192491478953743
-0.32201643840459127 0.0910844238411373 -0.617892887060076 -0.409994149733737 -0.6971064362586396 -0.17947649602510424 0.9365543365352388 -0.2077660917216652
0.7194055964389343 0.03788924413389562 -0.47314031521256295 -0.04731293324759002 -0.31391275290499726 -0.6189418172786019 -0.1409122280681046 0.715226558443381
0.13293052870886773 0.20364970194522766 0.44024385340175193 1.1991848924829471 0.5349788181573925 -0.24426700740539425 -0.3873190892070235 0.03600702635856465
-0.8164602533195361 0.19760983357972847 -0.0979805936339929 -0.2200626602358023 0.228103412850067 -0.20109071913073073 0.7085050575004721 0.2359494907077881
0.2429934290561156 0.24469833561946944 0.25752674878660614 0.06473668473426542 -0.387710462898093 -0.2749083380558806 0.2169914049988983 0.582725993353685
0.13421506936881208 -0.6126539293579849 -0.5312617429421617 0.23332983772820004 -0.3342260376322056 0.34077048846967306 0.05430601835222089 -0.10795727375659689
0.4890820180792674 0.11308975783763621 -0.2560516209162582 0.22554808394279 0.4567685681494925 -0.21639680813596485 -0.10930517147035854 0.9194390393147106
0.13769910026807486 -0.07350062411239151 0.3749813538842258 -0.3184150938252624 -0.015119022087490656 0.4071077678176455 -0.030478237257906507 -0.044474218123404935
-0.5544537828593907 0.732529694115506 -0.5475872782324641 0.3864962544328151 -0.19029803019861055 -0.3872617637147271 0.4944970611649019 0.17618596977592343
-0.5250140476107162 0.2202284211909693 -0.358742845320276 0.2897648276469019 0.657604554872545 0.23613109306833263 -0.35600063620264544 -0.519393904525554
0.7834582974919868 -0.2583261792237135 -1.1407076440076218 -0.32788981138718404 -0.23839389363691732 0.5425210642453346 0.814350991850447 -0.6718749466831763
0.7058062131438054 -0.5796188893857118 0.18696772579527274 0.41461525160135315 0.16875939253848649 -0.37544332039702594 -0.14793316282448266 -0.019054156603445227
0.5291921281981143 -0.34482782105100085 -0.2707298776094727 0.3097710215288617 0.0870427113913807 -0.40847056408887494 -0.8322818195096281 -0.44274971338612745
-0.2954941533442467 -0.048007669884612414 0.16066967430103796 -0.37444193294825345 0.93386021671439 -0.19737597933788759 0.023791216192989767 0.09144191962303172
-0.5247428323574838 -0.1650594096884966 -0.16651150666035108 -0.5139406679010965 -0.4782934453765136 -0.2131244448266908 -0.23768638852412913 -0.032874292500385774
0.14203876573750318 0.20286947553298845 0.1476582122592073 0.005550486029466818 -0.47415006256914166 -0.044325763561770724 -0.09832492747089298 -0.3199247952303038
0.2123740770931406 -0.6518795175933894 -0.16325275907829595 -0.38157126050478146 -0.10331603010301066 -0.4616791911486193 0.3266442322198326 -0.32991362484158276
0.5060052347543824 -0.28614901930530867 0.04147953086106085 -0.16163524458236056 0.47324634879765787 0.42773278070235615 0.04908924524830423 0.05613724719959474
0.5498145494404097 -0.39046361896711373 0.616130991635075 0.05623136730996159 -0.6122233546542831 0.019451736042621758 0.6823029779102864 -0.24720178136534615
-0.7252332791363331 0.003611149771228568 0.09668329051975749 0.1731190638618926 -1.0322058353583479 -0.30280339792205735 -0.18535883407905857 -0.5729365199300877
-0.1500918283185177 0.515616426550733 0.04576538805696713 -0.49695110325060865 -0.3692762387199518 0.08308467295684169 -0.32349383116002267 0.23443183066286738
0.043399530182684345 0.20778912528032148 -0.5302611459186009 0.452709146038131 0.4884692865854899 -0.21772463481124812 0.2568816115505663 0.2717140788595079
00000000: c783 cb58 38f0 d93f 5e18 a9b4 35d9 e33f
00000010: 0753 a33c 0ff3 e3bf 2afb 611b 5834 c4bf
00000020: 2274 cbe6 a265 f4bf 01c0 a438 7cc7 d83f
00000030: c892 85bc 1615 943f 4f8e 8145 448c b3bf
00000040: fe7d 1355 95c4 c9bf be0c 11c7 dec4 e73f
00000050: d0c3 c739 ee6f e0bf e0d5 dfee b49b cf3f
00000060: 933a cb3c a96f db3f 2ac0 8ba3 0cb0 dabf
00000070: 025d 4d04 5ade adbf f850 61e6 5023 82bf
00000080: 8367 0c79 347c e23f 8035 9a48 a86a c2bf
00000090: a3e4 97fb 5011 d0bf a74a 5eaf 4af0 e73f
000000a0: 31ca 7238 7e9f d63f bc81 dc39 3a26 b7bf
000000b0: 99a7 7900 f37e c8bf 809f 3576 ce6c c13f
000000c0: 0731 7de4 f703 f63f a286 cdde 09a6 cd3f
000000d0: 9f5b bc46 dc85 e1bf 404e 1e33 b880 e2bf
000000e0: 74e2 4cd1 51f4 c63f e3f4 5405 b230 dfbf
000000f0: 37a7 a108 1089 e93f f10e 6960 87da b23f
00000100: 707d 5cf0 bb7e ba3f bc4c d591 51c9 d43f
00000110: bc7a 9931 455d cbbf d503 b640 89de e6bf
00000120: e1e3 1341 76af e43f 4eca 7746 7d43 dc3f
00000130: d9d8 bfee 700c d33f e4f7 3ce2 88be a1bf
00000140: 6623 8016 28b1 da3f 9a81 2395 ef57 a7bf
00000150: acc5 ab15 f940 b93f b826 ebe5 bdc1 d5bf
00000160: e5d0 a547 b102 c1bf 9c61 33c5 cfac e3bf
00000170: a365 cdc0 4d07 e8bf 9065 25f0 f9c1 9b3f
00000180: 607a e4d4 9d62 e33f 1975 55f8 81eb d6bf
00000190: b90e abc3 95ce e7bf 1b1c 19e4 91fd afbf
000001a0: 8f0e c7c3 ce21 ebbf bcae 9a3f 7511 a7bf
000001b0: aae6 a6ab e0fa c7bf fbf1 6001 a0a1 ccbf
000001c0: 9d4b 3207 f91f e6bf 21b5 9c62 bd79 cabf
000001d0: a7df 6935 ad84 d23f a22e af29 cc5d a5bf
000001e0: 337e 8c38 3a6c c7bf ee6f 35f4 217c d5bf
000001f0: dbcb e804 89a1 d4bf 98c4 a4f3 3c1d debf
00000200: 90d0 2f1f b067 c03f 813b 41fe 0aed e13f
00000210: 1e2d 7dd8 d44f e0bf 4289 738c 3475 c2bf
00000220: 677a a7f4 bef4 c83f aa8c fb37 03c1 adbf
00000230: 671a 25f5 4009 c13f 7861 6915 471c e63f
00000240: ab0a 5a84 5a47 f0bf 66ff b79c 166b cc3f
00000250: 0963 ec6f ca33 ef3f e9e1 3341 9494 cd3f
00000260: 9ebb 6946 54d9 db3f 509f 5fea 0d84 f5bf
00000270: 60c9 def5 187e df3f 71ac 6528 9ecd d7bf
00000280: 2e37 eed5 ea9b d4bf a49b 920d 4f51 b73f
00000290: 5c54 cb4d c7c5 e3bf 3518 2a1a 583d dabf
000002a0: 9ffb 3128 b24e e6bf 2e0c 6af8 15f9 c6bf
000002b0: 0711 cbcc 40f8 ed3f dec5 944c 1498 cabf
000002c0: 9477 a8e2 5e05 e73f 42b9 d910 3866 a33f
000002d0: 2674 1051 ee47 debf 72d4 f399 6639 a8bf
000002e0: 018e e183 2517 d4bf 32d4 ea11 5fce e3bf
000002f0: 325a 9471 6909 c2bf aad6 b7ce 22e3 e63f
00000300: dee7 b818 de03 c13f 7ff2 d884 3111 ca3f
00000310: e508 288e f42c dc3f 0125 717f dc2f f33f
00000320: 4a3d 01e6 8b1e e13f 7e23 262c 2444 cfbf
00000330: dcae 5001 d6c9 d8bf ecc1 4551 836f a23f
00000340: 97b8 cf40 7120 eabf 57e5 4b6e 474b c93f
00000350: 67f8 4c95 4115 b9bf ba4a 6464 032b ccbf
00000360: e104 261d 7e32 cd3f c009 1937 57bd c9bf
00000370: ec7b 60cc 12ac e63f e684 0cc9 9733 ce3f
00000380: 4a2e 789f 681a cf3f 3985 6f6a 4652 cf3f
00000390: 3b8e f878 517b d03f 70fe c857 9592 b03f
000003a0: 99b7 9d8b 3fd0 d8bf 0941 5624 1998 d1bf
000003b0: b6de fdd5 5fc6 cb3f 4c76 7ffb b0a5 e23f
000003c0: bbe2 c89a f52d c13f 5678 cb69 dc9a e3bf
000003d0: 6fae 71a0 1800 e1bf 209f 1c8b c0dd cd3f
000003e0: fa86 469b f563 d5bf 06d4 da05 2fcf d53f
000003f0: aaf7 9899 ffcd ab3f 0660 2680 16a3 bbbf
00000400: 9b93 2daa 1e4d df3f 61da 6c4b 73f3 bc3f
00000410: 6014 7b56 2663 d0bf f3d8 1a76 c2de cc3f
00000420: 86bd 823b b23b dd3f 808d f3fe e3b2 cbbf
00000430: 6eb5 bf78 6cfb bbbf 03b7 906b 0b6c ed3f
00000440: 5485 2bc6 1fa0 c13f 155e ccd8 efd0 b2bf
00000450: 2eb9 e2ca b1ff d73f c510 a2b3 e960 d4bf
00000460: 9c62 4ecb b8f6 8ebf bb5b 2ebd 0d0e da3f
00000470: 54bc 0ce1 af35 9fbf 14dc b520 53c5 a6bf
00000480: 44c9 10dc 15be e1bf 4066 f21c e270 e73f
00000490: cbd9 76c1 d585 e1bf 1a30 34c9 5abc d83f
000004a0: cf1e 1994 af5b c8bf 9858 8990 e5c8 d8bf
000004b0: a6f7 6a00 d7a5 df3f 32cf 1909 438d c63f
000004c0: 33b7 8d42 eacc e0bf 501c 55e5 7130 cc3f
000004d0: cac5 148d a4f5 d6bf be91 91c6 818b d23f
000004e0: 5d1a 1cb5 180b e53f 560b 262d 8b39 ce3f
000004f0: 961d 76e4 b6c8 d6bf 60ba 35f7 df9e e0bf
00000500: e640 b022 1712 e93f e0da dd86 6a88 d0bf
00000510: 8af5 94a8 5640 f2bf 415f 268c 25fc d4bf
00000520: f44a 5eec b083 cebf fc64 8a22 555c e13f
00000530: 86cf aecf 290f ea3f 0931 60e3 ff7f e5bf
00000540: 1e85 58e9 f695 e63f 71c6 c1e9 3c8c e2bf
00000550: 5b5e d9f5 8eee c73f 6a3d 8368 0e89 da3f
00000560: 783d ec63 e899 c53f 0fd7 a66b 4307 d8bf
00000570: 7899 2950 79ef c2bf c0cf dbcd ee82 93bf
00000580: 572b 7d54 24ef e03f 2e8f 8ab5 a811 d6bf
00000590: 457f 9868 a353 d1bf 1ec2 add5 49d3 d33f
000005a0: 3cf9 c75e 6e48 b63f 26fc 88b8 6124 dabf
000005b0: df2c 7b7b 0da2 eabf 76a2 d3e4 0256 dcbf
000005c0: b774 314f 60e9 d2bf 4820 3918 7694 a8bf
000005d0: ac7c 4aea d290 c43f aae1 104c dbf6 d7bf
000005e0: 635c 3ad2 2ee2 ed3f 6ad7 22b8 9d43 c9bf
000005f0: e87f ec7d b95c 983f 88ae 43d6 bc68 b73f
00000600: 4d25 f97a b1ca e0bf 1b2c 41af aa20 c5bf
00000610: 48c7 c1c1 3f50 c5bf 0407 17b3 3372 e0bf
00000620: 6521 721c 5c9c debf 2420 416c a947 cbbf
00000630: 972e b5f0 816c cebf c22a 5636 e6d4 a0bf
00000640: 04ab cd86 532e c23f 76ab 6281 a0f7 c93f
00000650: bdce 51dc 76e6 c23f e84f 933f 1bbc 763f
00000660: 4f5f 0881 7958 debf eb6e bcd1 ddb1 a6bf
00000670: 8b7a de8b d22b b9bf ca64 2cd9 a579 d4bf
00000680: 680d d1e1 122f cb3f 1ede 1f6f 32dc e4bf
00000690: d88c 9c66 77e5 c4bf c189 3ddd a96b d8bf
000006a0: 5cea 715a eb72 babf 0788 cee0 268c ddbf
000006b0: dfea b335 bde7 d43f 27c3 4c09 4e1d d5bf
000006c0: fafe dbe3 3131 e03f b4b8 ecf9 4350 d2bf
000006d0: 14dc 0019 ce3c a53f 905c aeb4 76b0 c4bf
000006e0: ef63 c20d ab49 de3f f5cc 2250 f95f db3f
000006f0: 3a84 dabd 3922 a93f 8994 9e71 05be ac3f
00000700: e5c4 96ae 1498 e13f b375 6f1e 5bfd d8bf
00000710: 84fd 6357 58b7 e33f 9017 3697 5bca ac3f
00000720: 41cd c26e 5597 e3bf 262b 9de8 27eb 933f
00000730: a3d1 020e 6dd5 e53f be11 3dd7 4ea4 cfbf
00000740: 8190 fb6b 1c35 e7bf 1068 6345 2195 6d3f
00000750: 541e da72 3cc0 b83f 65ec ccf6 c328 c63f
00000760: e3ab 1944 ea83 f0bf a658 cc80 2161 d3bf
00000770: ae76 3299 d6b9 c7bf b714 f9f7 7e55 e2bf
00000780: 462f 0383 3536 c3bf e81a 2a05 ee7f e03f
00000790: eaa1 fc99 8f6e a73f f809 0b00 0cce dfbf
000007a0: 457e 1fce 38a2 d7bf 7c03 2681 0945 b53f
000007b0: 1190 5278 1fb4 d4bf 8651 ebba dc01 ce3f
000007c0: fac0 9795 7638 a63f 098f c584 d598 ca3f
000007d0: 7eea 0139 e6f7 e0bf f95d 35c8 2ff9 dc3f
000007e0: 610c bfae 1443 df3f 1320 069d 66de cbbf
000007f0: dc6b 2392 bf70 d03f 551e a472 c363 d13f

transformer_encoder.layers.0.self_attn.qlinear.weight f8 [32, 32]
0.005329931545454816 0.10442667525499368 0.0754310425565486 -0.1656343890595501 -0.025508269744307754 0.6994611595584709 -0.23725219899263722 -0.15522584319972357
0.17774445299695918 0.6803783174732229 -0.30014101627345663 -0.05567750304431598 -1.2631218990200723 0.5242854213531454 -0.433244162764832 -0.013618787475364907
-0.17025819046779056 -0.27117017527867554 -0.17124923302892806 -0.1764643668619027 0.43663167433045874 -0.03974562045138105 0.5013509662257147 -0.9404758466619286
-0.5570495164310901 0.186599690658712 0.28853530745210015 -0.6313652771995542 -0.44833093884253133 0.3142467001737745 -0.3428408054475945 -0.031120036315661626
-0.2533813972138398 -0.37808446827974906 -0.9891608909946311 -0.33763508788363733 -0.12074124548884838 -0.23798282854506525 0.2956896290731572 0.1597904280388473
-0.3672152843959133 0.38833434940750367 -0.8888544496788807 0.6198808568050577 0.6590974198833923 -0.9493630185265821 -0.2536109109491925 0.24452773356721058
-0.9565756539956849 0.9784868407855054 -0.5359666013293294 0.788587939075338 0.8324920762338399 0.42003285110590166 0.07574504658906446 0.2668168556013954
0.552797541936977 0.42973424806628613 0.045927927900778084 0.1254786091008114 0.183444079705043 0.38406375603338383 -0.23449096690603916 0.6598490301537951
-0.16607142837535482 -0.5352704087445732 -0.7573064084592203 0.1444845258344443 -0.05703052611727334 0.0029989461419549016 0.30283618158252257 0.056648606820929974
-0.31379254776614507 -0.6653345778593958 -0.037908324718474246 0.30730093820272786 0.6961156404570833 -0.3088406690397401 -0.0378155234207916 -0.10003611092209383
-0.09589979040533705 -0.2570242403060506 -0.5195161280826147 -0.0944981435134267 -0.1217558222105965 -0.7163474675405662 0.38850082803935815 -0.2675926979611242
-0.14118193253541453 0.3339367774274898 0.48549740861298146 -0.23268076067753163 0.19571768216769883 0.6509215019794296 -0.07589255259125154 0.05130986651797961
-0.1011533500182829 0.493313906855138 -0.22978047663865991 0.30084385071490116 -0.08281439224108593 0.7269381259552088 -0.17820866891015985 0.5106849780601697
-0.3913686956349517 0.6362385963242447 -0.6062834021169317 0.15273521965556744 -0.4035290450793725 -0.046994572664969564 -0.27764962188039716 -0.4385330952948432
-0.5606751886202553 0.3769437735033848 0.06205634754599253 -0.2759248044194692 -0.08413903995794764 0.6029709631710605 -0.07779657874537507 -0.10616913467282871
0.07649255056352652 0.1787777120563521 0.8900992361721191 0.10679125729221331 0.512390703469755 -0.27374035277727493 0.7513831195491245 -0.5458270122011365
0.3559161280609887 -0.1806022488335554 -0.9202357458574936 -0.1146905573334216 0.8736227362765738 0.5021077779821406 0.08024960090412647 0.20622278790689796
-0.08268536621017539 -0.7547746581487756 0.40470456008080025 0.30724712337368865 0.26222817849360713 -0.22933796113653895 -0.797310857200795 -0.5829269641737865
0.30501675896376784 0.3506220914979268 0.7869690725117465 -0.2698852227596066 0.4747572867956652 -0.30818945106486084 0.19698946837924627 0.4748371614979711
-0.5924927608848821 0.05385087247715853 -0.12775150245829617 -0.01627356757508002 0.21828140728470408 -0.13546973270496865 -0.4969267163199731 -0.31677801747619716
-0.05250140150659813 -0.5953577398639089 0.21699672465992365 0.1702559504752764 -0.8376236814766803 -0.2675977871851212 0.6900227131756789 -0.1546648889359209
-0.10531401451300314 -0.020438936971675842 -0.4526343391529186 0.38791984449123706 0.31585036598190386 0.10184627414540118 -0.03760358159705898 -0.173740697423961
0.14621802282243018 0.15643240435708555 0.32838886853580224 -0.08720361498179996 -0.6690413013032326 0.04470337207386931 0.6359773365851017 0.03259307524382195
-0.43125993381825917 0.053439612968971886 0.1890989562859775 1.1302898327146473 -0.12669033611424377 0.06488649365052117 0.2758023612532402 -0.30931372254777506
0.33598978071573266 -0.7318698107859948 0.6300855223898547 0.4685847098409201 -0.3223978236816277 -0.30707214601726873 0.6058152794457701 0.32328916811905967
0.12613752526818314 0.5007061693463998 0.3223676444080769 0.3970339859349514 -0.10114324544543815 -0.8009860819079091 0.7361230505678474 0.8544769567729101
0.25372286407552036 0.04240163385231644 -0.07721220592559949 0.4783444074578846 0.2333696492616394 -0.10789843751075315 0.530052257330437 0.27640239726319726
-0.07306864265361443 -0.38536957722093057 0.17660956657285035 -0.10618557862753816 -0.048906293391027866 0.6219797866489878 -1.1079274558487413 -0.09333968590520977
-0.39607501809752965 0.1875731998792651 0.6978683153619358 -0.34489813697437643 -0.19721027725769147 -1.2203208368707377 0.040758781622009174 0.07981622695636727
0.49772447246814483 -0.6198978291901275 1.0311173899315387 -0.13022163962666058 0.40657702496943704 -0.3527819642307836 -0.3101321147815417 0.29706750352427835
-0.26602553040669513 0.016674506111685083 -0.2294077951675819 0.28251104795830984 0.4030346436598913 1.2223108157949525 -0.2886831753549416 0.39002342427630393
0.04869221840040171 -0.27137175086238297 -0.20763717546306926 0.15839250249218287 -0.7931508463352038 -0.5533093171081276 -0.06865861515803977 0.6895085474517412
00000000: 90a4 d79a d6d4 753f 95da 0ce3 b4bb ba3f
00000010: 0531 e2e4 724f b33f 4d46 0df6 8133 c5bf
00000020: a040 5101 d71e 9abf 2107 a45e fc61 e63f
00000030: 3eea c9b1 475e cebf 11b7 04c0 70de c3bf
00000040: b06b 558a 54c0 c63f 578f cebf a8c5 e53f
00000050: f54a 45aa 8235 d3bf a384 65fd c281 acbf
00000060: 2771 f24e bf35 f4bf 2267 4f38 f2c6 e03f
00000070: b080 90b9 45ba dbbf b0fd 8ab6 2ae4 8bbf
00000080: e4b7 f737 05cb c5bf 6d3d 9e26 da5a d1bf
00000090: 9d83 a9af 7eeb c5bf 5c65 4a66 6296 c6bf
000000a0: 2769 69fa c5f1 db3f 1cee feb7 8959 a4bf
000000b0: fe3c 782e 110b e03f 9be8 82cd 6018 eebf
000000c0: 695f ea81 59d3 e1bf 4954 69a8 7fe2 c73f
000000d0: 77e0 4fcb 5c77 d23f acdd 2cf4 2434 e4bf
000000e0: 0346 0740 74b1 dcbf 6bd3 0731 9e1c d43f
000000f0: 0d6e c88f 1af1 d5bf 8086 e748 eedd 9fbf
00000100: c2af 9c9b 6637 d0bf c8c5 9832 8932 d8bf
00000110: b1bb a9bd 34a7 efbf c74e 1c33 d09b d5bf
00000120: 3225 a7f4 e5e8 bebf 2429 cea8 3876 cebf
00000130: 5cad a831 94ec d23f 2602 5243 0374 c43f
00000140: 2798 4489 7480 d7bf 3698 a750 78da d83f
00000150: bdcb 08e3 7e71 ecbf 239d ec60 10d6 e33f
00000160: 6ade e878 5317 e53f f94f 938d 2e61 eebf
00000170: 0ee0 1b42 293b d0bf 0c6e 514d af4c cf3f
00000180: fef5 c18b 449c eebf f0ae 97a2 c34f ef3f
00000190: cea5 0e6e a326 e1bf df27 0bc6 1c3c e93f
000001a0: b84f 336c c6a3 ea3f 07b6 af77 d1e1 da3f
000001b0: 791c ef01 0764 b33f 4f17 3501 8713 d13f
000001c0: 50b6 7d78 84b0 e13f 4a9d 5a13 c480 db3f
000001d0: 6620 9d88 dd83 a73f 33c0 37dd ae0f c03f
000001e0: 5a2e 7d79 187b c73f f281 ef25 8094 d83f
000001f0: 4ad0 08cd cc03 cebf 0eda 99b6 7b1d e53f
00000200: 3009 d61c d441 c5bf 4262 8268 ef20 e1bf
00000210: 3246 2ca6 da3b e8bf 3156 9e0c 787e c23f
00000220: f23f 18e9 1a33 adbf 90e8 44f3 3e91 683f
00000230: 2251 fc01 ab61 d33f bfd8 51d3 0b01 ad3f
00000240: 4695 9856 2d15 d4bf f2ba 99bd 6b4a e5bf
00000250: 0cf1 d24d b868 a3bf e417 e78d d1aa d33f
00000260: 9de9 bf4e 9446 e63f 11d4 4ca7 0bc4 d3bf
00000270: 2a31 bf68 8e5c a3bf f654 d470 f79b b9bf
00000280: 0af3 7b7f e38c b8bf e932 99cc 1573 d0bf
00000290: 0580 7b49 e09f e0bf 0242 ecc3 0731 b8bf
000002a0: 6cfa 7dba 632b bfbf c917 3586 51ec e6bf
000002b0: 3a78 b993 32dd d83f 430d 991f 3d20 d1bf
000002c0: 9b49 83e3 3f12 c2bf 8de4 7e5c 385f d53f
000002d0: b345 12b9 6312 df3f f85a c2b0 7bc8 cdbf
000002e0: 4d60 14ea 460d c93f a579 6854 59d4 e43f
000002f0: c3ae 63bf b16d b3bf 5c4e 506d 4945 aa3f
00000300: 0499 359a 2fe5 b9bf 2cb5 267e 7492 df3f
00000310: 1e0f 3658 7269 cdbf 387c 0191 0641 d33f
00000320: cb46 50f2 5233 b5bf 4a2e a6be 1343 e73f
00000330: 209a 6aaa 8acf c6bf 0476 ea05 8857 e03f
00000340: f689 1b49 2f0c d9bf 684c 750b 115c e43f
00000350: 1465 0673 ac66 e3bf e31b afe2 d38c c33f
00000360: 6887 e67c 6bd3 d9bf 14ff 5e31 ac0f a8bf
00000370: cf46 6eeb 02c5 d1bf f851 a01d ed10 dcbf
00000380: 21af d917 0df1 e1bf 022f e8c6 d81f d83f
00000390: 3e41 707e d9c5 af3f 9ac1 c882 c0a8 d1bf
000003a0: 44ac efd8 228a b5bf 023c e8c2 894b e33f
000003b0: 2abb 7301 7aea b3bf f6b0 4381 e62d bbbf
000003c0: 4ed7 0e0b 0495 b33f 0993 4425 30e2 c63f
000003d0: fdb8 b164 b17b ec3f 6a9b 91fd ab56 bb3f
000003e0: 3eaa 4530 8165 e03f 8e87 b141 f684 d1bf
000003f0: bc5b a79c 540b e83f 3bac d535 6a77 e1bf
00000400: 6a04 8970 54c7 d63f 8e7e 2978 f91d c7bf
00000410: e52d 223c 9272 edbf 0035 e840 5c5c bdbf
00000420: 8632 2bab b7f4 eb3f 4804 b054 4411 e03f
00000430: 7078 66e3 3c8b b43f 5402 e020 8265 ca3f
00000440: 2e01 bb3f de2a b5bf 7f27 132f 1d27 e8bf
00000450: e2b3 85f4 ade6 d93f 4486 abd6 efa9 d33f
00000460: 740f aeb2 58c8 d03f 5108 6841 f25a cdbf
00000470: 5e8a 0d0f 9283 e9bf bfa7 e272 56a7 e2bf
00000480: 95cd 1e03 6585 d33f 1c47 0fa4 9770 d63f
00000490: 4dd8 acc3 d92e e93f 9e46 5bab cc45 d1bf
000004a0: 06ce 1463 6c62 de3f e4ed 523f 60b9 d3bf
000004b0: 6d32 2c6e f336 c93f dbca e367 bb63 de3f
000004c0: 0fc1 e360 b3f5 e2bf 6809 4d70 5792 ab3f
000004d0: 1d60 8946 295a c0bf becb 18a2 04aa 90bf
000004e0: a66b ce28 a5f0 cb3f ec68 c87b 1257 c1bf
000004f0: cc96 c6b6 a5cd dfbf 18ba 494e 1746 d4bf
00000500: 0415 eeb4 76e1 aabf d259 c4ac 2b0d e3bf
00000510: 5272 e075 8cc6 cb3f 83cf 9e6d f2ca c53f
00000520: d184 c92d d0cd eabf c54a 1c78 5220 d1bf
00000530: 7cc6 5283 aa14 e63f 44dd e81f 0fcc c3bf
00000540: 3fd1 24f8 dbf5 babf 18f4 6ed7 f1ed 94bf
00000550: bc55 ed04 f6f7 dcbf 10cb 63c1 add3 d83f
00000560: 249a 1474 e436 d43f e287 acf0 9812 ba3f
00000570: dcfa 57d2 c640 a3bf 47c7 b59a 223d c6bf
00000580: dad6 0dad 45b7 c23f 4ac9 5f1e fa05 c43f
00000590: 67d4 aebe 5204 d53f 2897 70e2 f952 b6bf
000005a0: 4ca9 984d c968 e5bf 4f08 2842 5ce3 a63f
000005b0: 912a b424 ed59 e43f e21e 7f20 0ab0 a03f
000005c0: 63c5 f443 c399 dbbf aa77 06dc 6f5c ab3f
000005d0: 705e 7a04 6534 c83f ea2b a8ca aa15 f23f
000005e0: f93a 2a91 6337 c0bf 935c 2eb8 669c b03f
000005f0: ee80 6ff2 bea6 d13f 53fd a2c8 cbcb d3bf
00000600: d1b6 fd47 db80 d53f 832d c83c 7a6b e7bf
00000610: bc1e 0b1d a929 e43f 9f08 0bb9 4afd dd3f
00000620: 16e8 407b 2aa2 d4bf 7807 2aee 11a7 d3bf
00000630: b65f 94b9 d662 e33f eb3b 0e0d c5b0 d43f
00000640: d1a0 e940 4625 c03f 75f1 c7f1 c805 e03f
00000650: 1f5c 81e6 aba1 d43f d76e 3f3c 0169 d93f
00000660: de42 6613 86e4 b9bf 8a0f 4b90 ada1 e9bf
00000670: 3da9 80ed 518e e73f e3ce 100f e057 eb3f
00000680: 82ea dcd2 fe3c d03f 11a5 62bd aab5 a53f
00000690: 7e6e 4ddb 2dc4 b3bf 2764 90dc 319d de3f
000006a0: f496 ba81 0edf cd3f 6aef 6564 3b9f bbbf
000006b0: 6df7 cc26 30f6 e03f fc02 32ae 93b0 d13f
000006c0: 5e75 8f66 a0b4 b2bf 3262 c228 e5a9 d8bf
000006d0: 0daa 4b6c 249b c63f d619 8363 fa2e bbbf
000006e0: 28b8 5de5 3e0a a9bf 54c6 4d27 42e7 e33f
000006f0: 8d5f d323 12ba f1bf debc 6112 1ce5 b7bf
00000700: b474 5f08 4b59 d9bf af33 8b0b 6602 c83f
00000710: b49c ecee ef54 e63f d066 b0a2 cf12 d6bf
00000720: 5ce1 a0b5 2f3e c9bf 72cb 4f24 6f86 f3bf
00000730: 7ec3 2ec4 55de a43f e9bb 7714 d66e b43f
00000740: a7d9 eabe b7da df3f ab74 e7f8 33d6 e3bf
00000750: 447c c1f2 747f f03f ddc8 b649 1aab c0bf
00000760: 061e 63a4 5b05 da3f d359 bfcd fa93 d6bf
00000770: 3c44 9b5e 34d9 d3bf 3ed5 156b 2703 d33f
00000780: 1bdc 3ff2 8f06 d1bf 00e1 b429 1f13 913f
00000790: 079b d810 3c5d cdbf 1256 ef37 a914 d23f
000007a0: dc26 6bd1 51cb d93f b32e 36c9 958e f33f
000007b0: 9a83 43ff c879 d2bf bd33 fcce 24f6 d83f
000007c0: 7ee6 32bb 2fee a83f ccc7 c09e 275e d1bf
000007d0: e81a 06df da93 cabf d958 119d 3446 c43f
000007e0: d3bd 39e2 7d61 e9bf e6a5 b1bd b5b4 e1bf
000007f0: 2343 b16a 9c93 b1bf 23c4 b33a 7410 e63f

transformer_encoder.layers.0.self_attn.qlinear.bias f8 [32]
0.023926385889105117 -0.13066985082085109 0.13167977432426775 -0.10135480083799905 0.626519403696879 0.9210207825191229 -0.23817404539306192 0.20763546093377683
0.24161960815309863 0.4239332949467407 -0.23534885900612185 0.5969585404351148 0.3852913276942416 0.18153352407769607 0.32515134572155 -0.6927177933728866
-0.013842220481571764 0.06256718112506401 0.3334089055982644 0.01719387323777285 0.5068764781929486 -0.17635470487513763 -0.5860593580468298 0.4336446867808595
-0.45986330684012955 -1.2888886471990832 -0.8697420468355098 -0.05464841346858364 0.12642315478668284 0.010272304012479028 -0.47481479690725614 -0.12511455447488623
00000000: 20e8 9e93 2880 983f faa3 ec27 cab9 c0bf
00000010: da39 2202 e2da c03f f64c e462 63f2 b9bf
00000020: 2300 a66b 720c e43f 0964 7b93 0079 ed3f
00000030: 6a0f dcb3 7c7c cebf 94a8 197d cc93 ca3f
00000040: a281 8b2d 64ed ce3f 60d5 5e1d b921 db3f
00000050: ce85 4a52 e91f cebf 2493 07cc 481a e33f
00000060: 9944 f8f4 9ca8 d83f 684a 8592 7d3c c73f
00000070: f0f6 0797 47cf d43f 499a 7c81 be2a e6bf
00000080: 6cd1 2d62 4f59 8cbf ca2c bc1c 6704 b03f
00000090: 3257 6f4e 9256 d53f 56c0 fd4c 459b 913f
000000a0: 7169 1e05 5538 e03f fd9b f77c ca92 c6bf
000000b0: ae6d 0a8e ffc0 e2bf 89b5 f3a4 d5c0 db3f
000000c0: ae8f e081 666e ddbf ee7d beb3 499f f4bf
000000d0: edaa e345 edd4 ebbf c26f 4079 e0fa abbf
000000e0: 9b0a a249 a22e c03f 802a 4e4e a509 853f
000000f0: 32e8 179a 5d63 debf 5a93 dcf3 c003 c0bf

transformer_encoder.layers.0.self_attn.klinear.weight f8 [32, 32]
-0.147615819601872 -0.13996886483326612 0.22152414970237072 0.5054763722999804 -0.10300408390442814 -0.9963526902215566 0.44143230014072465 -0.110524385370932
0.69797485968438 0.027896888079639432 -0.1305868223307141 -0.1279575276435089 0.8112119136759622 0.5704895483209265 0.578824798781574 -0.5266931362855939
-0.04552519789443372 -0.9531898482943513 0.11576209542465447 -0.05060485205137605 0.1627849171633679 -0.01764658648589276 -0.09292488388500245 0.15707008015185556
-0.19521522738929348 0.07081433809599938 0.10632821864567865 -0.16563879835020928 0.48786211847918115 -0.10076316064859897 0.2135687282645603 -0.24387943258434058
0.13312398653078944 -0.258580420132021 0.29319422161068665 -0.13983481047848 0.10500722887930185 0.13720127392791856 -0.595706594363508 0.3015408235789434
0.36396791891329977 0.021071839906835435 0.09940933609191557 0.3973470940298859 0.4078377036170412 -0.4235961010667689 0.2901179046861254 -0.06618485509002889
-0.017067088294703766 -0.5210578129718995 0.3663224439540682 0.40028905189769476 -0.16946171874336138 0.7233996573045518 0.16217827508900332 0.12463022584654856
-0.49015886872587355 -0.3919596946148523 0.37183869810330333 0.745889836331447 0.43031863451772634 -0.47167974075315444 -0.025295020253616282 0.7913788610187862
0.23975933904156344 0.2635233629416689 -0.20471710319387926 -0.10523713125454909 0.5022770742712473 -0.1024944288245142 -0.5082447228046825 -0.27624185679111934
0.09915776837075078 -0.03299943249370729 0.0929586468957788 -0.3398430360185935 0.40227057029170654 0.14480098527119267 -0.23326718495514254 0.2731971179022368
-0.563361082512247 0.407468928027955 0.3211507183605437 -1.3215266262663325 1.203688812659493 0.2276720747663039 -0.39769643396826726 0.46618729304843665
0.33222880806521937 0.5164307908906498 -0.42029496347595563 0.5263621373750809 0.3076407971153411 -0.06873005627175081 0.09950951431589447 -0.2339254106723001
0.3608229648732258 0.4327601145548002 0.2095207454686785 -0.14042743193783697 -0.08705362574644243 -0.06787969655869863 -0.32634760396008805 -0.19531136974820226
-0.21488928664437099 -0.7324896485634809 -0.0022557854102373265 -0.24514376295117224 1.3428210226884334 0.11734539568969192 -0.23874111525416028 0.05692269777985855
0.4812465017697711 0.3149814816657046 -0.3377215807694463 -1.015131034877168 0.060001781394561256 -0.07679345079074365 -0.1302943205119707 -0.1594445156462986
-0.16057172576094464 -0.2880293399648028 0.05322091133779633 -0.19518303205123308 0.01032154033822407 0.1316628285847901 0.2462418742954152 -0.6189980795038251
0.5958807069796926 0.16967421605017433 -0.11367113984073748 0.15213156828991342 -0.4020261632062705 -0.8360316158539207 -0.21829427263783074 -0.4537028653598684
-0.20223365628839582 -0.17938656848796147 0.0673763339395023 0.028359269532528753 -0.522994538568411 0.5133965859873967 -0.13484785101364405 0.09272599912265447
0.15180365082575273 -0.5513812604315191 -0.0426099752774341 0.42790400114209654 0.5450524391069257 0.21280251366155972 -0.20880707314213734 -0.1510028302089663
-0.3899263500585781 0.29935911476988325 -0.5283209908562652 -0.06145158024038055 0.5231126023663035 0.31191426872363104 -0.14341978922818632 -0.281478658689801
0.2679128735472389 -0.10965456243489004 -0.06134185562282862 -0.11595839327067277 -0.5121144145671984 -0.8902792431294984 0.18636804387502376 -0.13366926271885243
-0.3737166198345586 -0.12796915914021958 0.12904338387520864 -0.7743501199194603 0.3070086566255835 0.4318866591822647 0.05155743662992589 0.18274706863752432
-0.247171485321934 -0.03001059577901204 -0.05318586311597909 -0.45651788257393655 -0.3926242976404589 0.26315028367434734 -0.6822853390907133 -0.12981463535489463
-0.384378187006686 -0.004272296009214922 0.5421530446956659 -0.15899143690892817 -0.019905531130425175 0.16545223497728992 0.009604559712847925 1.2367087743000622
0.18902374556040613 -0.2741295137027703 -0.3894193119663924 0.2718497906644326 -0.5895342104338245 -0.1822783269521781 0.16737896856261356 -0.5756206748397639
-0.21633186310289595 -0.4766636001795357 -0.591504204587356 0.656167619915266 -0.36504792299442834 -0.1988519100486185 0.5684008668050384 -0.02739104361870707
-0.04480025209035603 0.7222581961543707 0.3063134292701679 -0.15005328586877173 -0.3234529134168044 0.07862870340728995 -0.45173741919691296 0.4232344385745768
0.03108355143970149 0.5934750642593252 0.16475790548006478 -0.3270982927137039 -0.21711525930233255 -0.16055863154646383 -0.3973087405518955 0.6213223694815757
-0.1988772271859694 -0.48090238468542457 0.8388862938572631 -0.5687465205121064 0.3797496122156733 -0.7024060024809186 -0.15888034815325866 -0.028966537746167018
0.3927878590468829 -0.13102607765073052 -0.09731092347506001 -1.1960219616308063 0.14960811067156227 -0.3099909340525241 0.3469603658763827 -0.1421153360277212
0.20012726513685886 0.14653156328370454 0.36566015661930634 0.0972741797291688 0.06435547557720453 0.04250577525515549 0.1510580880333269 -0.3951318718347128
0.30775939780846634 -0.060671896030659714 0.26676825296877643 0.1710144404304585 0.07429611577602295 0.2241194455954985 -0.4419070187121762 0.2384633354853957
00000000: a9f8 c73e 13e5 c2bf 4564 75f0 7fea c1bf
00000010: 5679 1f41 e75a cc3f 7cbb fdc8 dc2c e03f
00000020: 5e55 b9c3 795e babf 0310 7909 1fe2 efbf
00000030: 7228 2043 6d40 dc3f a722 947c 534b bcbf
00000040: 88c9 785f cf55 e63f 2551 d977 0091 9c3f
00000050: 2978 99a9 11b7 c0bf e5c0 408a e960 c0bf
00000060: 85a4 ebaf 72f5 e93f 2ef1 174c 7341 e23f
00000070: 362e 9c95 bb85 e23f 3dfa 6b90 abda e0bf
00000080: 7977 3328 144f a7bf c8b5 29ff 8780 eebf
00000090: 5b1f f7ad 95a2 bd3f 88be 2811 e1e8 a9bf
000000a0: 86d6 bfdb 22d6 c43f f72c 5f5f f211 92bf
000000b0: 7a4b 45d9 ecc9 b7bf 3556 b754 df1a c43f
000000c0: 66bb a804 d0fc c8bf f2cf 3572 e320 b23f
000000d0: f0a1 b97d 5338 bb3f 1a73 eef2 a633 c5bf
000000e0: b4d2 f408 2239 df3f 7c98 a04f 9dcb b9bf
000000f0: c41b ac57 3856 cb3f a2f2 8ef5 7037 cfbf
00000100: d23f 3bf0 340a c13f 1097 f6e3 948c d0bf
00000110: bc6b 4cb2 b1c3 d23f 9478 ec68 1be6 c1bf
00000120: 0354 e1f5 c0e1 ba3f 9bb6 3eb4 cf8f c13f
00000130: 94b0 9946 0710 e3bf c88c ebe1 714c d33f
00000140: bfa6 2119 404b d73f b4cc 103d db93 953f
00000150: b68d 6ee7 e372 b93f 3e37 8181 226e d93f
00000160: 8619 c74f 031a da3f 5edf 32d2 321c dbbf
00000170: de19 27b0 4a91 d23f 0628 1a9c 7df1 b0bf
00000180: cf39 41e8 087a 91bf 5844 416f 81ac e0bf
00000190: 7cb4 24b1 d371 d73f 8d3c b6f8 559e d93f
000001a0: b19d f6ed ebb0 c5bf e8f0 c109 1726 e73f
000001b0: c981 d0f9 41c2 c43f 0ea1 1a38 c4e7 bf3f
000001c0: 3068 c14d c35e dfbf d923 6e1d de15 d9bf
000001d0: fd6a ef89 34cc d73f a2cb ae5c 54de e73f
000001e0: 943b 872b 578a db3f 9a1d 2e39 0030 debf
000001f0: dcb8 f612 f0e6 99bf 0a49 dac2 f952 e93f
00000200: 2c0b 0c1c 6fb0 ce3f 0040 6418 91dd d03f
00000210: 1025 9387 2b34 cabf 742a 1015 d2f0 babf
00000220: 79d1 f05e a712 e03f 20d0 d22b 133d babf
00000230: 3af1 d96f 8a43 e0bf 2c11 2d53 f2ad d1bf
00000240: b3f5 4b4c 6762 b93f 40ae b136 4de5 a0bf
00000250: 6f3b 4c4c 23cc b73f 0f49 5e01 fdbf d5bf
00000260: 1af4 e20f cdbe d93f 808c 15b4 d688 c23f
00000270: 8460 4ef9 b2db cdbf 9c19 b0c3 0f7c d13f
00000280: 1656 27d2 0d07 e2bf 260a 018e f813 da3f
00000290: 1f82 1cbe bb8d d43f bcb6 891a f924 f5bf
000002a0: ffef 4e33 4f42 f33f 10b8 aac9 5b24 cd3f
000002b0: 3e4a 68be db73 d9bf 1e0b 5d3a 03d6 dd3f
000002c0: a877 5b9e 3c43 d53f 6aba b0dd 9986 e03f
000002d0: 2860 b3d8 1ce6 dabf c01d bc68 f5d7 e03f
000002e0: 12a6 a106 63b0 d33f 237d f0ff 4a98 b1bf
000002f0: 16ab a09d 7479 b93f 283c 4592 44f1 cdbf
00000300: 45ae 7134 b917 d73f 4dab c17a 57b2 db3f
00000310: c88d cf66 93d1 ca3f f22f d1ad 86f9 c1bf
00000320: 0c46 947b 2549 b6bf 1832 c854 9060 b1bf
00000330: 0bbd 880f e1e2 d4bf c780 cd84 f6ff c8bf
00000340: e7fc 32fd 7d81 cbbf 4ca3 a721 8e70 e7bf
00000350: 4059 0a92 b97a 62bf e4c9 58ee de60 cfbf
00000360: e13f 8de5 317c f53f bfca d20c 590a be3f
00000370: 6714 1da1 118f cebf caaa baca f824 ad3f
00000380: bf98 9a20 becc de3f 8863 a616 a828 d43f
00000390: 75b9 23fa 3a9d d5bf b03b 3f0a fa3d f0bf
000003a0: 0130 95b1 8db8 ae3f 7a77 b14f bca8 b3bf
000003b0: da0a bafa 7bad c0bf dd1b 1d8a ad68 c4bf
000003c0: de1b 6743 9d8d c4bf 9ffc db9c 126f d2bf
000003d0: 387c 5173 c53f ab3f 0774 b2f1 c1fb c8bf
000003e0: bc7d 93b1 7523 853f 716d 6fdb 53da c03f
000003f0: 2395 808e da84 cf3f ff2e 780f d5ce e3bf
00000400: c771 996a 7411 e33f d178 747c e2b7 c53f
00000410: 4e71 1d44 8d19 bdbf 7a47 3f17 0c79 c33f
00000420: d8dd c6f1 cbba d9bf ce77 1060 c5c0 eabf
00000430: 8019 f114 11f1 cbbf b79d 34be 7709 ddbf
00000440: 835f f4dd cae2 c9bf baac 7f9a 23f6 c6bf
00000450: cb66 cb4e 933f b13f fdfe b85c 360a 9d3f
00000460: f969 e40a 5fbc e0bf 9934 56ad be6d e03f
00000470: bc0d 05c3 b142 c1bf 7a81 b81d e4bc b73f
00000480: a7e1 da51 4d6e c33f c0c7 2550 eaa4 e1bf
00000490: c892 9984 f9d0 a5bf 09e7 ae76 c762 db3f
000004a0: 8537 12d0 1171 e13f 4a6c 57de 1c3d cb3f
000004b0: add3 28af 30ba cabf f7eb ac8c 0f54 c3bf
000004c0: 586a 56a6 8df4 d8bf df8d ec21 b328 d33f
000004d0: 3e93 306c 01e8 e0bf 3f04 d7de 9476 afbf
000004e0: 3e3d e9a3 56bd e03f 56b8 d443 67f6 d33f
000004f0: 78c9 2a64 945b c2bf 9b0e 6610 bf03 d2bf
00000500: 8004 8409 7c25 d13f d9d9 8347 5212 bcbf
00000510: 3850 8d1f 3368 afbf b553 cb02 73af bdbf
00000520: ad0a ccc4 3d63 e0bf 0090 31e5 2a7d ecbf
00000530: 6a3a bb76 e8da c73f c6cf ed0b 131c c1bf
00000540: 5e4f 0a1d f9ea d7bf c5b1 b31c 4b61 c0bf
00000550: 4c2d c15c 7e84 c03f f9a5 16e7 79c7 e8bf
00000560: faed f2a2 07a6 d33f bf0e 31f1 07a4 db3f
00000570: 06db 6180 bc65 aa3f e877 9e85 4164 c73f
00000580: d010 fbb2 50a3 cfbf 4d09 9efd 18bb 9ebf
00000590: b4a4 626d 2d3b abbf 326e ecc7 9637 ddbf
000005a0: 76c4 7ea9 c120 d9bf dc1f 9449 74d7 d03f
000005b0: 92ea 3d10 48d5 e5bf a21a b216 c49d c0bf
000005c0: c853 9ff7 a699 d8bf c8ec 36ba d37f 71bf
000005d0: 7aa1 8c57 5159 e13f 2517 efd6 d459 c4bf
000005e0: a8d6 db94 1d62 94bf 5587 23f1 892d c53f
000005f0: cc8f df2e 8eab 833f 5fb8 c423 8fc9 f33f
00000600: 24b8 ac1a ee31 c83f ae31 0e84 568b d1bf
00000610: ffe4 54fa 3eec d8bf f800 15aa fc65 d13f
00000620: 77f7 35d9 76dd e2bf d6bc 836e e554 c7bf
00000630: a3df 018e ac6c c53f d4d2 aa0c 7c6b e2bf
00000640: 3b0a 8e32 c3b0 cbbf 10be 7d0b a881 debf
00000650: 24c6 c439 9aed e2bf 025e 873c 53ff e43f
00000660: 84f6 aef6 f15c d7bf 2df6 33b9 fa73 c9bf
00000670: 1c43 be03 5730 e23f 8ac0 2ed2 650c 9cbf
00000680: f648 2903 0ff0 a6bf fd07 7838 bd1c e73f
00000690: 6c9f 42a4 a39a d33f f75a bb31 f234 c3bf
000006a0: 36f3 3ad9 73b3 d4bf 0444 a9bd 0221 b43f
000006b0: bb21 7510 44e9 dcbf a5ff 0de6 4516 db3f
000006c0: d219 82d3 5dd4 9f3f 9487 ff6a bffd e23f
000006d0: d9ac e57b c916 c53f 4919 72ad 2def d4bf
000006e0: 0c42 15cd 6eca cbbf da91 ca6b 2f8d c4bf
000006f0: 3776 c5a3 816d d9bf 844a 2673 dfe1 e33f
00000700: 4a69 5719 cf74 c9bf 34b5 b2cb 1ac7 debf
00000710: 35bf a511 28d8 ea3f 7906 2ae7 2b33 e2bf
00000720: d3a3 4851 d14d d83f b16d 2527 1c7a e6bf
00000730: b3cd a5f5 3056 c4bf cc4a 3171 67a9 9dbf
00000740: 73d2 37b0 6f23 d93f fd6d 3767 76c5 c0bf
00000750: f272 de61 5ee9 b8bf 8508 a8ec e722 f3bf
00000760: 9e7d 46cb 5b26 c33f 2ef9 f336 e4d6 d3bf
00000770: e09f 1c40 9934 d63f f0e2 3fd8 d530 c2bf
00000780: 507e 662d c59d c93f 6050 11d8 8bc1 c23f
00000790: 8554 88db f966 d73f f497 aeec f5e6 b83f
000007a0: d630 ecb6 9979 b03f 8a5a 3925 51c3 a53f
000007b0: 7520 f315 df55 c33f 6dca c830 d749 d9bf
000007c0: e5ef 2779 54b2 d33f 92da 7902 6310 afbf
000007d0: 2f2a 8726 bb12 d13f 9672 651a cde3 c53f
000007e0: 4354 7afb 1105 b33f 0a7b 9d2c f2af cc3f
000007f0: 4e77 4f60 3448 dcbf 8d38 9a71 f785 ce3f
