experiments/fl_train_noise_0.5_max_grad_norm_2.5/20250427/model_round_72.pt (torch, 62806 bytes, 25 tensors)

embed.weight f8 [32, 8]
000000 b6 37 df 5c 74 d4 ab bf 72 48 b0 87 8c bd dc 3f
       -0.0543552745217392 0.44906914950218557
000010 b1 77 2d 2b 0f f6 e8 3f 63 57 ce 67 d2 ee da bf
       0.7800365298569344 -0.420826531766002
000020 6a 58 31 e2 e0 09 df bf ec b1 6a 6a ac a7 80 bf
       -0.484977932826388 -0.008132311818678205
000030 4c fd 5e 6a 00 f2 bf bf 4c f4 97 21 07 f9 c6 3f
       -0.12478640171956562 0.17947472706137757
000040 1d 97 05 9a cb 60 e3 bf 8a e4 d2 90 61 d7 d4 bf
       -0.6055658348311429 -0.3256458200735969
000050 e4 4b 79 2c a7 a7 ce 3f ef 3b e2 76 d3 56 d7 3f
       0.23949136420796358 0.36467444047678915
000060 ad bf a6 68 a2 f7 cc 3f 0a 2d 88 ff cc c8 cc bf
       0.22630720243387029 -0.2248779533113992
000070 ac c4 30 ab 90 ac 90 bf 3d d1 2f 8e 76 dc c6 bf
       -0.016283283661498046 -0.17860300009454902
000080 00 ac 33 e8 ee 66 d4 3f 83 ac c9 f0 2b a2 aa bf
       0.31878254581414467 -0.05201852144531307
000090 e7 ec 86 7b 53 5b d2 3f 45 ae 25 62 3d 22 d4 bf
       0.28682410300434785 -0.31458983025251924
0000a0 91 65 e2 e4 46 bd e6 bf c6 f4 f7 69 33 59 e2 3f
       -0.7106050939939214 0.5733887738894274
0000b0 00 46 83 0d 9d 39 d2 3f 32 d6 9d 0c 11 c8 e1 3f
       0.2847664482079324 0.5556721922318444
0000c0 de 64 8c f6 c9 20 d4 bf 30 97 24 e0 d9 51 cb bf
       -0.3145012767505032 -0.21343539661864375
0000d0 6c a0 a3 33 c9 a6 b9 3f 2f 91 de 21 c2 ba e6 3f
       0.10020120154115525 0.7102976476203703
0000e0 0c 33 15 76 06 99 b9 3f 34 33 69 25 3a 4c ba bf
       0.09999122984772785 -0.10272563374855964
0000f0 9a 78 63 98 1a 98 df bf f8 46 fb 83 0f 7c c5 bf
       -0.49365868455596174 -0.1678485292855425
000100 27 3d 92 44 32 1f e3 3f 4c 60 e2 12 e1 6d d1 3f
       0.5975581492693082 0.27233149379890587
000110 6d 62 8a 72 a9 64 f1 bf a4 20 4b 22 29 0a bc 3f
       -1.0870756601563258 0.10953003966563074
000120 f4 f6 2f ac c3 58 d1 bf d8 6e cb 37 e8 3e 97 3f
       -0.27104274573490206 0.022700909047542378
000130 73 2d 6c 8a 37 5a c7 bf 46 94 3f 70 1d f2 c1 bf
       -0.18244070300020673 -0.14020126324536103
000140 e2 af 86 f8 96 09 de bf b2 45 cf 3f 53 08 b2 3f
       -0.46933531065110234 0.07043953235485992
000150 7b 58 a5 db df d7 d4 bf f1 f4 4e 24 d6 43 c8 bf
       -0.3256759304980574 -0.1895702054297668
000160 16 96 fe 97 f8 5b e0 bf 3d d8 61 8b 79 44 db 3f
       -0.5112269371645108 0.42605436908286604
000170 bf 4f d2 f9 db a3 ec 3f de f0 cb d0 90 31 cf 3f
       0.8950023536040063 0.24370012469433439
000180 ae d2 22 87 27 b6 a4 3f 00 fe df 81 d3 78 cf bf
       0.04045222782716472 -0.2458748230128407
000190 bf 0f 84 a3 46 86 d8 bf 22 42 73 e1 8b b7 cb bf
       -0.38319555252405374 -0.2165388918715659
0001a0 52 e5 48 06 04 36 ce 3f d1 35 62 a8 68 75 e4 3f
       0.23602342898247258 0.6393321312659116
0001b0 e6 b1 26 84 11 64 d0 bf 08 28 b4 bb 75 0c bd bf
       -0.25610769181619586 -0.11347137291537035
0001c0 44 c1 cd 4a bc ad dd 3f 84 6b 6a 80 23 d5 a5 bf
       0.46372897439052374 -0.04264174406599522
0001d0 02 8d 65 b6 6b 16 e4 bf e1 67 68 96 bb cf 99 3f
       -0.6277369081912243 0.025206500106015887
0001e0 7a 25 ab 85 fa bb e2 3f 80 8f 99 31 6b 98 3e bf
       0.5854466067041095 -0.0004668485358705274
0001f0 d5 22 59 9a cd 71 d5 3f f2 0d 35 b5 55 c5 d2 3f
       0.3350709922129174 0.2932943601228707
000200 14 d5 a1 cd 1e 57 e2 bf 4c 67 ef a1 f4 77 bd bf
       -0.5731348053219869 -0.11511162713523254
000210 ee 3c 2d 2b 93 a7 dc 3f bf e7 fd d1 0e 09 e6 bf
       0.44772795883632355 -0.6886056996729549
000220 fc 75 94 b2 99 c0 c3 bf 1b 6e c2 f6 22 ef e4 3f
       -0.15431519717905917 0.6541914767762508
000230 50 e4 8c df 6c 4a d1 bf 28 70 91 ac 23 54 8e 3f
       -0.27016755896653866 0.01480892057787038
000240 ee 2e d7 54 b5 3b db bf 71 3b 71 5d 39 e9 e5 3f
       -0.425519306995496 0.6847197365803891
000250 75 d4 a9 9e cc 89 f0 3f c8 a9 1e 5a d5 9c c3 3f
       1.0336424062527645 0.15322367573146622
000260 9f 08 4f 0f 64 bb da 3f 78 f0 35 20 7f 28 e0 3f
       0.4176874303340216 0.5049434308161969
000270 e0 07 8a 7a 54 1d cc bf 34 ab 82 27 f9 e7 bd bf
       -0.2196450804077008 -0.11682088102922422
000280 17 8f d4 34 78 1d de bf f4 a4 3a 79 ef 59 e1 3f
       -0.470548678962801 0.5422284477000674
000290 64 07 2e 08 41 03 dd 3f a7 2a 15 34 be 0b d1 bf
       0.45332361029442425 -0.26634173475455686
0002a0 6e 65 e1 71 08 60 c4 bf 16 e8 79 3a 27 56 ab bf
       -0.1591806942040352 -0.05339167202778598
0002b0 42 df a6 5d 46 cc d4 bf 66 fd dd 12 3f 43 e9 3f
       -0.3249679483956137 0.7894587868212681
0002c0 15 74 bd 16 46 bb d9 bf 2c 5a 96 fd b1 9f ce 3f
       -0.40205528469761137 0.2392485130519203
0002d0 1a 0b ab 65 41 48 c0 bf e0 b7 80 d1 30 2e 7f bf
       -0.1272050615717369 -0.0076124102561560825
0002e0 43 82 94 5e 5e a5 c5 bf 97 03 6f 31 69 59 da bf
       -0.16910915010613978 -0.4117072088957285
0002f0 b5 e6 ca 92 df 88 c3 3f f0 a7 d5 8c 2e ab de bf
       0.1526145426521929 -0.47919811013582514
000300 f3 a9 85 45 0b f3 c6 3f 2f a9 01 cf 25 af db 3f
       0.17929211516032204 0.4325651666209919
000310 3e ff 15 dc 51 0b a8 3f 0e 4c af a6 5b 26 d3 3f
       0.04696136294933105 0.2992161872654727
000320 ad aa 5a 94 a4 e2 d8 bf ee af ef fd 14 05 e2 bf
       -0.38883318412505724 -0.5631203612988409
000330 15 01 5e 62 f8 1d e3 3f 38 3e 5f 7c 53 24 a4 3f
       0.5974084779009298 0.039339646274694606
000340 cc b0 bf c3 53 e5 ae 3f b9 06 05 9c e6 31 d3 3f
       0.06034337772857298 0.29992070423405043
000350 92 c6 94 0f 03 0a bc 3f 9c ab a1 0c f7 5c a5 bf
       0.10952777033232966 -0.041724891941007786
000360 55 c1 12 53 8b 1e d2 3f 88 50 29 02 f6 dd e1 3f
       0.28311427223799984 0.5583448450293114
000370 ca 98 ba 0d aa 0f e1 3f 93 4c 98 1c 58 92 f5 3f
       0.5331621425764521 1.348228561114216
000380 41 3e 44 26 6f 4b dc 3f 9d a8 62 88 5a fe f0 3f
       0.44210413681955535 1.0620980575136294
000390 e0 61 20 a9 41 95 9f bf d4 4f 50 07 45 6e d4 3f
       -0.030842805812513308 0.31923032488088876
0003a0 ef 04 80 b6 51 9b e4 bf 62 83 09 87 9b 62 b8 3f
       -0.6439598621801944 0.0952546314888543
0003b0 67 c6 cf 0e c3 37 d0 bf 96 17 d0 00 d8 0b bd bf
       -0.25340343901107193 -0.11346197147221768
0003c0 1a 69 1d 3a 69 81 de 3f 95 3e ae f8 62 8a b0 3f
       0.47664862323075996 0.06461161204628703
0003d0 5c 79 d1 1b b5 c5 e5 bf 68 bd 27 c1 ff 40 d9 3f
       -0.6803842109036782 0.3945922266275006
0003e0 7e 7f 4f e8 90 a1 df bf b8 c3 13 6b a8 e5 82 3f
       -0.49423620878769003 0.009227100150811171
0003f0 59 93 8a 47 65 97 ac 3f 24 0b 75 be 4e a0 bd 3f
       0.05584255693728463 0.11572734975656523
000400 66 63 7c cc 68 15 98 bf 9a 21 a6 e0 36 ca cb 3f
       -0.02351917026598773 0.2171085926932051
000410 db 06 6b 37 b1 c6 d2 3f 75 20 2a fc 59 87 99 bf
       0.29337721263810373 -0.0249303875121147
000420 55 61 19 85 ec 4b d3 3f 60 61 d6 40 96 af d5 bf
       0.30150902746165303 -0.33884197551517126
000430 8c e2 1b 57 2b 10 e3 3f 05 ea ca bc 33 d0 b8 3f
       0.5957237912508204 0.09692691191859389
000440 d4 69 b9 1c 2a fb d4 3f d8 11 8a fe 4d b5 c6 3f
       0.32782986455063434 0.1774079792850347
000450 28 94 5e b6 44 a8 bd bf e9 22 ec 65 a1 28 d1 bf
       -0.11584882213954073 -0.2681048865638745
000460 20 ec d1 fe 17 44 ca 3f c8 53 aa f0 cc a2 c8 3f
       0.2052030557859732 0.1924682784198508
000470 43 d3 a9 88 a8 bd c6 3f 5a 67 79 3e 53 25 ec bf
       0.17766291306511492 -0.8795562954139584
000480 ce 8d 8c 95 ec 69 e0 bf 62 4e eb bc 55 02 ea bf
       -0.5129301949386276 -0.8127850236728131
000490 d9 4d d6 9e 26 b5 c3 bf ac b3 1d 78 1f 84 db bf
       -0.1539657855579282 -0.4299391434677158
0004a0 4f 91 d0 3c cb e2 da bf a7 04 85 98 ed ce ca bf
       -0.42009240092217665 -0.20943994471784785
0004b0 49 00 eb f7 bf dd d9 bf a7 7e d7 2c 3a 7b d9 bf
       -0.4041595383714634 -0.39814619425849646
0004c0 7a e0 59 fb c2 7e a9 bf c9 03 2a 6e e2 40 cb 3f
       -0.049795239622597756 0.21291761759860453
0004d0 ea 88 4d 89 89 a5 d7 3f f2 9d 6b 3d 37 aa c6 3f
       0.36947859199984967 0.17706957339326795
0004e0 c8 1d b4 36 2f c0 aa bf 12 67 ca be a2 e5 b7 3f
       -0.052247500827487026 0.09334771306967252
0004f0 4c b8 0d a8 24 e6 d5 3f ca 0d e3 ed 88 f7 e6 3f
       0.34217182551845293 0.7177166601399503
000500 80 ff f2 46 c0 99 f7 3f 4c 56 3e ca 79 22 ef 3f
       1.4750368854001579 0.9729584646290248
000510 c3 aa b1 c6 92 e5 d8 bf 0a b3 0d ff e4 65 e1 bf
       -0.3890120449420175 -0.5436882955087594
000520 df 7c 95 80 d7 85 db 3f 88 a0 4c 88 98 1e d1 bf
       0.43004405552887975 -0.26749242125016126
000530 b6 ce 98 ce cb e9 bb 3f 13 98 80 c8 00 e4 e5 bf
       0.10903619569654208 -0.6840824047146746
000540 6e a5 9e 31 23 83 e8 bf e6 cc 23 1f f1 c8 a2 bf
       -0.7660079926619525 -0.03668931489110054
000550 96 8b a7 c2 ce 25 c3 3f 94 48 fd ea 81 cc d8 bf
       0.14959129814732525 -0.3874821467226266
000560 a3 15 e1 46 76 83 c4 bf f8 3e 25 bc 0f 2e 94 3f
       -0.16026190243625846 0.019706960543145663
000570 4a b7 29 43 d9 9c d4 bf f2 4e a7 58 d5 80 b8 3f
       -0.32207328375703936 0.09571584143059989
000580 e8 36 41 b2 40 51 e8 3f 25 6b fa 97 de 82 cf bf
       0.7599185449159593 -0.24618132038889332
000590 0e b5 ff ce 9a d5 de 3f 54 56 9d 53 75 e4 d3 3f
       0.48178739752513955 0.31081898847091805
0005a0 aa 19 d7 b6 f3 7d c3 3f 5e 07 f8 2d 5d d0 a1 3f
       0.1522812502646052 0.03479281602996197
0005b0 c1 96 63 cc d7 42 e0 3f 60 ef 63 8f bb ae 9c 3f
       0.5081595413182286 0.02801030218778011
0005c0 44 11 41 9d 93 21 e1 bf a2 99 cb f9 97 82 ed 3f
       -0.5353487082834723 0.9221916083159167
0005d0 50 24 b5 5c a8 be e0 bf af ff 9e 59 5e 3a e1 3f
       -0.5232736406989122 0.5383750677501576
0005e0 9c 34 ca 1d f0 50 ca 3f e6 f2 d2 34 c6 54 b4 bf
       0.2055950303514792 -0.07941855229996583
0005f0 be 04 6c d1 ee 2b df 3f 6e e7 84 f0 c5 db bf 3f
       0.48705645037996337 0.12444722291993823
000600 a7 7e 02 09 44 ad a5 3f f4 0d 90 0b c1 e4 e1 bf
       0.042337537860700984 -0.5591740823587643
000610 80 c9 c7 47 b6 39 3d 3f 46 a6 c9 42 19 5e e5 3f
       0.0004459447880257525 0.6677366547057282
000620 77 f9 57 f4 ed 47 c8 3f 41 9e 41 7a 76 a3 e2 bf
       0.18969511442987727 -0.5824539554423113
000630 a8 a3 57 a4 d3 94 9c 3f 92 3d d3 68 a3 cd cc bf
       0.027911478906307657 -0.2250255834428399
000640 c1 6d d2 03 b7 78 c5 3f cc 9f 85 a9 0c 3b e3 bf
       0.16774642645473928 -0.6009581862426727
000650 6e 12 64 6b ba 1c cb bf 5a dc 0f d5 a4 09 df bf
       -0.21181421512314408 -0.4849636154826321
000660 04 4b 44 df 7c fa bd 3f 76 36 de ab e1 42 dc 3f
       0.11710339022492283 0.44158212455736334
000670 8a f2 2f 90 33 34 d3 3f d3 24 cc 3a ee 3f f0 bf
       0.3000611217574166 -1.015608052899826
000680 da 04 f5 be ef 7b d3 bf 51 13 14 c2 65 e9 e7 3f
       -0.3044394841018182 0.7472409048647056
000690 83 51 f8 19 69 af d5 3f 20 17 59 c0 b1 a0 b0 bf
       0.3388312104809971 -0.06495200105663601
0006a0 78 66 55 aa fa a3 82 3f 0e 81 08 96 d7 f4 c8 bf
       0.009101827929657733 -0.19497198892441542
0006b0 70 99 95 0f 9b 53 bb 3f d6 77 94 f7 81 2d d3 3f
       0.10674447184064717 0.29965256860475387
0006c0 e2 1d 05 37 7d 7d bc bf 7c 1a 36 5a 0d 50 cb 3f
       -0.11128981202374846 0.21338049797869363
0006d0 6d 46 30 b9 e9 a5 bc 3f 12 d8 16 15 9c 38 cb 3f
       0.11190663119512019 0.21266509084461
0006e0 67 3d f8 0a ca d4 e1 3f d6 0e 10 46 be 53 b8 bf
       0.5572252477885912 -0.0950278206874445
0006f0 12 4c 4c 5e cb 7c d3 bf c0 95 01 0c 8c 15 ef bf
       -0.30449184616844704 -0.9713802561279223
000700 26 d0 97 c0 2e d2 e5 bf fe b6 e1 67 c1 c8 e5 3f
       -0.6819070588667315 0.680756285566275
000710 af ee 1b 29 c7 8f eb bf b6 8f e3 d1 ec 9e e7 bf
       -0.8613010218536682 -0.738150033892899
000720 37 0e a8 41 5a 8a c8 bf eb 98 f2 48 80 02 ef bf
       -0.19172218519098447 -0.9690553116568287
000730 6e ff 1f e8 8a f2 a2 bf 3d 8a 4e 70 34 fe c6 bf
       -0.03700670321995757 -0.17963271602373423
000740 06 6c 83 46 24 ad d2 bf f7 e0 0e 05 44 26 c2 bf
       -0.2918177307707882 -0.1417927765558102
000750 06 24 1a 5c f3 31 c4 3f 50 95 11 96 67 04 d0 3f
       0.15777437207387396 0.25026883750100115
000760 0c 31 0e 97 a8 ee f0 bf 81 8b 1c 86 0e 24 c1 bf
       -1.0582662487605061 -0.13391286419308915
000770 c2 f9 d1 f7 e4 10 c3 3f e9 99 32 b1 1b b0 d0 bf
       0.14895307636829896 -0.2607487898298176
000780 f7 11 14 30 c0 6c d2 3f 21 34 88 b1 b3 1b e9 bf
       0.28788761801868595 -0.7846315829680216
000790 b2 ea 4d 5d 1d 88 de 3f 55 3f 3b 3d 53 da c5 3f
       0.477057782285253 0.17072525491539162
0007a0 ae ce b0 5e df c9 a5 bf d9 5d 1e 87 29 1a cd bf
       -0.04255579024211663 -0.22736090753163188
0007b0 b8 05 98 17 a2 d0 91 bf 6f d1 9e 46 9e 25 e4 3f
       -0.017397434892705482 0.6295920733742103
0007c0 52 26 73 52 88 88 c0 3f 0e 28 82 06 5d 6b cf bf
       0.12916664148206053 -0.24546397035402417
0007d0 17 1b 5b ee fb 1a a7 bf 83 aa 2e 34 08 ea f2 3f
       -0.045127747389008536 1.1821367300387073
0007e0 d3 0a 03 68 0b 61 d7 3f ac 34 f4 14 b4 69 97 bf
       0.36529812962923564 -0.022864164141584695
0007f0 d0 c0 47 20 e0 58 e1 bf 0e 11 55 88 1e 22 bb bf
       -0.5420990591501553 -0.10598936870980344

embed.bias f8 [32]
000000 cc b7 d2 a1 b9 da b5 3f 69 a2 91 a0 8e 73 dc bf
       0.08536873055228894 -0.4445530479484093
000010 8a 63 c7 16 52 22 e4 bf 7f b0 f9 20 7c f2 e5 3f
       -0.6291895337009106 0.6858502048539917
000020 32 48 fc 78 dc 74 e3 bf 8a c6 04 85 a3 4c e1 3f
       -0.6080152857778158 0.5406053159733386
000030 b0 9c ff 52 73 d5 85 bf 33 3f d0 bc ed 8e c8 bf
       -0.010661030741131533 -0.1918618366184944
000040 ee ac 7d 52 7a 1b dd 3f de 93 c3 03 30 29 d7 3f
       0.45480211311105634 0.3618888890035218
000050 9e f6 38 df ce 71 e3 bf e7 f4 d7 a7 05 19 d2 3f
       -0.607642589551421 0.2827772273156612
000060 ab e9 92 06 af 88 e5 bf 38 e5 c7 63 89 4e cd bf
       -0.6729350212474875 -0.2289592492304935
000070 0b ac 06 9e 7e e6 e5 bf bc f8 19 39 cc 81 ea bf
       -0.6843865477034127 -0.8283444514525153
000080 88 0b 04 a7 2c 3c e8 bf b3 9e 18 5a 54 c4 e4 bf
       -0.7573455106761324 -0.648966003388486
000090 c3 64 40 ad 51 d2 ae bf 6c ff ff c2 ae 6c c9 bf
       -0.0601983570088094 -0.19862923165782875
0000a0 a5 83 95 e1 e2 e4 d5 3f 64 d4 24 68 e1 a3 b3 3f
       0.34209510831538587 0.07671936791014528
0000b0 dd ea 80 89 71 ee d4 3f 13 19 50 c2 7a 6c db 3f
       0.3270534365471301 0.4284960649096245
0000c0 18 29 cc fb 41 3f b8 3f a6 d1 d9 de 06 b4 db 3f
       0.09471523663902237 0.43286296618250686
0000d0 f7 b8 9e ec 40 9b de 3f b1 6a b7 e3 c0 a7 d4 bf
       0.47822592837736927 -0.32273885953842824
0000e0 68 cc ee 29 a9 05 d7 bf 00 db 0c b8 10 04 d3 bf
       -0.35972050757408747 -0.2971231267323873
0000f0 c0 10 05 68 e5 c5 e4 bf e9 3c 76 4a 61 fe c5 bf
       -0.6491572410236799 -0.17182556281884523

pos_enc.pe f8 [1, 12, 32]
000000 a9 67 2b 3a 22 9b e1 bf 8c 4c 29 50 2f a0 c6 3f
       -0.5501872192501099 0.17676345266463434
000010 a0 1b 12 f7 1a d5 e2 bf 2d 3d 79 72 9d 2e c7 3f
       -0.5885138345337175 0.18111007775812862
000020 3b 6e 8b e1 2f c3 da 3f 55 6f 80 dc 0a c6 e1 3f
       0.4181632711967926 0.5554251009630017
000030 b2 4f 96 82 59 34 d6 3f 15 c9 06 f3 0b a5 e0 bf
       0.3469451689973041 -0.5201472994433823
000040 c5 53 3c de 76 bd c7 bf 03 7b 9a 6f c0 e2 e3 3f
       -0.18546949244833236 0.6214296512369802
000050 be 30 a0 74 6b 32 b5 bf 3b e0 f7 6b d4 5d a2 bf
       -0.08280059430416295 -0.035872114352912786
000060 20 b2 67 aa 19 d4 cc 3f de 46 ba bc e5 4d cd bf
       0.22522278614577917 -0.2289397403260897
000070 ef 53 2c 89 5b 7e e6 bf b1 06 a5 26 98 75 f1 bf
       -0.7029245070613096 -1.0912095555835715
000080 af 9b 3e 63 cd 12 c2 bf 2d 54 a4 bc 4c e1 c9 3f
       -0.1411988005249589 0.20218810282736524
000090 b0 83 17 5b 26 a9 c6 bf f5 df d0 9c 2d 17 d4 bf
       -0.17703704307407753 -0.3139146834760134
0000a0 32 0e eb 0a ea 09 cf 3f da 86 31 2c 9e 4a e4 3f
       0.24249005826105613 0.6341086257127373
0000b0 15 53 cd 2d 3b 6e d2 3f cb 8a 95 84 42 7e d5 3f
       0.28797797654014917 0.33583128879233176
0000c0 d1 b4 78 51 fe 42 ee 3f da bc 6c 48 91 ca e0 bf
       0.9456779090156947 -0.5247274794145611
0000d0 6d 5c de d5 90 d3 da bf 56 cd 08 3e 7a 82 da bf
       -0.41916294942479376 -0.41421371515317185
0000e0 7c d7 ca 01 e9 3d e1 bf 2a d7 6b 78 59 8e a9 3f
       -0.5388073954588743 0.0499141654490088
0000f0 cd 85 df 39 20 82 81 bf d0 68 10 af 1b 58 c3 3f
       -0.008548976675174647 0.15112634704639172
000100 b3 78 1c 03 65 55 c2 3f 2e a1 ad 15 45 e4 de 3f
       0.1432310357276428 0.4826824866963929
000110 b2 63 92 0b 3f 4c d6 bf 3b 8e c1 f1 8d ff da bf
       -0.3484037030225934 -0.42184780701629493
000120 16 6f 22 73 ae 77 eb 3f 8e 72 5e 8d 92 1c dd 3f
       0.8583595513077593 0.4548689251476298
000130 ba 29 07 10 87 09 e5 bf c4 fc f4 c7 b9 d5 b4 bf
       -0.6574130356832975 -0.08138619548570875
000140 9b 0c d7 43 e9 8c d6 3f 93 62 86 39 d6 74 e9 3f
       0.35235053658488774 0.7955123065504089
000150 e9 b4 ea 09 42 77 d0 bf 63 48 83 49 d5 e1 a0 bf
       -0.2572789284557318 -0.03297297022221881
000160 1c ad e6 73 98 a6 bd 3f a0 8d e8 d6 93 89 e0 3f
       0.11582329587570367 0.5167941281728652
000170 b4 06 19 14 c7 70 df bf 02 7e d5 5a 20 ba a8 3f
       -0.49125840151473743 0.04829503163159289
000180 9b b6 72 41 cd 01 bc 3f 68 0d 15 64 b0 ea c3 bf
       0.10940249297956443 -0.1555996407206337
000190 07 12 f8 68 10 0d d4 bf 78 f9 07 2f 8b dc d5 bf
       -0.3132973694885383 -0.34158591835866714
0001a0 e8 2a 10 1a 35 04 d4 3f 61 da e2 61 d3 0a c7 bf
       0.3127568010828967 -0.18001787452313336
0001b0 7e 56 3c 32 dd 1a b5 bf f8 80 a4 da 1a b5 d3 3f
       -0.08244116283852951 0.3079287657910892
0001c0 73 26 ca a4 a6 0d e1 bf c7 2f 35 66 01 0a d3 bf
       -0.5329163759754024 -0.29748568516947355
0001d0 e5 05 a1 6b 65 47 d4 bf 5a e0 22 95 23 8c a0 bf
       -0.3168576766075531 -0.03231917567740146
0001e0 72 af de 17 1e 43 d8 3f b4 78 89 0c 18 a3 e7 3f
       0.3790965302566668 0.7386589283812754
0001f0 c4 ee 22 24 e7 29 c8 3f 03 6a 22 c5 13 ca d8 3f
       0.18877877487635975 0.3873338151112479
000200 e6 f0 43 d5 9e 94 c7 3f 77 82 57 9c 7a c7 e2 bf
       0.1842230359396872 -0.5868504575301604
000210 ba b4 69 ca e9 87 cd bf 63 8a 07 ec c3 8d c4 bf
       -0.2307102430671984 -0.16057633423686743
000220 6c 0b e8 12 5f ba e8 3f 10 83 47 9b 8f b8 b3 bf
       0.7727504128709888 -0.0770349268054924
000230 00 48 1e 3a 9c 3a dd bf 41 37 26 57 b8 d3 ec 3f
       -0.4567022864877117 0.9008447363027942
000240 11 d8 f9 12 25 ab d5 3f 93 40 48 ec 42 9b db 3f
       0.3385708508789103 0.43135140489995044
000250 28 72 13 c6 e9 71 b7 bf 20 3c 9d 1c d6 ef aa 3f
       -0.09158192716444857 0.052611056321090865
000260 e4 6e c9 a3 9c 71 85 3f b9 66 47 44 6f 9e dd bf
       0.010470603702905597 -0.4627950827394716
000270 1c 85 8e 26 a4 ef c7 bf 61 49 1e 4b 75 25 c6 3f
       -0.18700076944973254 0.17301813285719006
000280 98 31 f2 fd 3e 05 d0 bf 4c 50 0f 07 0c e1 d2 3f
       -0.2503201942388613 0.294985777754168
000290 f4 b5 2f 67 dc bb ce bf 64 36 2e 86 9a 1e e3 3f
       -0.24010806120297412 0.5974857922280532
0002a0 37 96 f5 ba 25 8e f6 bf 78 67 23 ea 90 f8 d2 bf
       -1.4097039511774605 -0.2964212690836727
0002b0 ac de 76 22 26 91 d9 bf 48 f6 99 da df 1a e4 3f
       -0.39948418965966925 0.6282805699881431
0002c0 3d ae db 70 a5 9a e2 bf 25 30 73 da ab 32 d9 bf
       -0.5813777164707471 -0.39371773083689937
0002d0 6f fa 47 f0 6c dc eb bf 50 ac 77 22 d6 0d f1 3f
       -0.8706574147216325 1.0658780428300538
0002e0 10 69 b8 1d b3 84 e9 3f 8a 3a c5 1c 3e 4a c5 bf
       0.7974486904597899 -0.16632820515447505
0002f0 7e 9a 85 62 06 67 e9 bf bf cb 5b de ea 89 e1 bf
       -0.7938262867217671 -0.5480856268826456
000300 1e a6 0f 9f 3a 9c e4 bf 0a 28 b9 f5 9c 3a cf bf
       -0.6440709215796152 -0.24397623060423285
000310 62 e5 f7 54 46 f8 99 3f 4f d8 ca 98 4c e7 c7 bf
       0.025361155448967117 -0.18674619160236935
000320 e4 af 19 e3 b2 9a eb 3f 12 a9 39 be 67 22 f4 3f
       0.8626341281465071 1.2583997183488163
000330 7f 4a db fe d6 07 ee 3f 93 0d 8f 4e 82 84 e7 bf
       0.9384570100467754 -0.7349254164077358
000340 73 51 a1 37 dd 92 e4 3f cb dd 48 61 60 e6 e0 3f
       0.6429277502561902 0.5281221294489397
000350 da e6 2d b4 ed a4 e1 3f 01 db 2a de ae da c2 bf
       0.5513828772666003 -0.1472986779023913
000360 cb 21 3d b4 34 50 e2 3f 72 2b 57 af ef ee e1 bf
       0.5722907562531473 -0.5604170250529548
000370 bf 3f a6 1b eb 10 e0 bf b0 69 a9 9d 16 fd d2 3f
       -0.5020652332332175 0.2966972865739548
000380 61 e4 f6 ad 99 aa c7 bf e0 8e ae 97 96 3f da bf
       -0.1848938083110481 -0.4101311188953627
000390 c8 41 d8 59 33 44 e1 bf ad ea 52 65 42 b9 c7 bf
       -0.5395752672939631 -0.18534116694884997
0003a0 d1 b4 78 a2 16 95 eb 3f 84 d4 69 9c 36 5f d9 bf
       0.8619492696067487 -0.39643636011835093
0003b0 54 b9 97 b8 bb 27 b3 bf c0 70 98 13 5e b6 d1 3f
       -0.07482503182084105 0.2767558280336395
0003c0 5f fe 4a c2 37 32 d5 3f 46 07 f5 cf 9d b5 ca bf
       0.3311900517837553 -0.20866749433667503
0003d0 28 df 36 bc d7 2a e5 bf a5 7a ee 96 70 c2 e5 3f
       -0.6614798236905459 0.6799853275186548
0003e0 ad b0 9b f7 b7 1a da bf 56 3c cc f7 b8 97 df bf
       -0.40788077526554894 -0.4936354083919857
0003f0 66 f3 5e 6a 5f 9d de 3f 83 49 d9 a9 70 00 bf 3f
       0.47835526836188647 0.12110046526621514
000400 ca ba fd 76 40 55 f5 bf 27 db d0 f1 df 0a d9 3f
       -1.3333134315577575 0.39128874411419406
000410 00 26 ba 67 4a 7c 7c 3f 95 9a 24 ca 55 89 d7 bf
       0.006954470296145043 -0.3677572702457977
000420 12 b4 0b 32 9c 12 ba bf e0 f3 5c 2b c8 30 6e bf
       -0.10184646817988632 -0.0036853704031316464
000430 33 35 cd 32 01 4a dd bf 28 07 a1 a4 01 8c d9 3f
       -0.4576418872937495 0.3991703136162976
000440 60 4e c4 d6 13 87 5c bf 72 f3 61 df 29 d6 c8 bf
       -0.0017411893596247716 -0.1940357533202604
000450 b0 f6 d3 63 b3 c8 c7 bf 3e 3d ff 3e b2 ce bd 3f
       -0.18581240057385662 0.11643518484128365
000460 2d 85 ec c7 d0 3b be bf 52 8a 56 f9 1f dc cb 3f
       -0.11810021286921275 0.21765517878255253
000470 67 38 40 a2 7c 07 dc bf 2e af 2d e1 1f 63 ce bf
       -0.43795696110544785 -0.23740004057923997
000480 71 ad bf 24 da c8 c2 3f c4 01 76 7c d0 8a d4 3f
       0.14675452036258776 0.32097255854025897
000490 f0 7e 2b 3f 68 6f d7 bf 5d 84 e9 d2 e3 e8 e2 3f
       -0.36617475670753574 0.5909289473894536
0004a0 bd d0 80 b5 b7 c2 c0 3f 23 7a f8 98 92 b7 db 3f
       0.13094230997524461 0.4330793851712846
0004b0 e2 b6 ef 1e ef b9 c6 3f 8a a0 9c ce f4 a9 d5 3f
       0.17754925737920418 0.33849830796180724
0004c0 02 f1 c3 7d 5f 19 a8 3f 76 26 a3 69 44 b0 87 bf
       0.04706858072492716 -0.011566671823305823
0004d0 64 75 24 71 56 4f bb bf 00 e7 81 1c c7 af d7 bf
       -0.10667934667840978 -0.3701036241906053
0004e0 7f 93 ea 8a b7 41 d9 3f a6 34 f7 2e e2 39 d1 3f
       0.39463604513212397 0.26915793024529433
0004f0 9a 78 77 e3 3a 78 d2 3f 20 44 6a 2d db 1e cf bf
       0.28858825887244566 -0.24312915532621648
000500 ed e4 64 40 02 c1 d8 3f e0 a6 85 18 9e 6a d3 bf
       0.3867803219651041 -0.30338241953596246
000510 a2 04 10 57 c3 24 d9 3f 6d 64 9c 97 dd 76 d9 bf
       0.3928688383312623 -0.39787998014214204
000520 82 83 16 7f d7 63 ca 3f 34 51 36 28 cc cc b9 bf
       0.2061719294115641 -0.10078121167891113
000530 c9 f5 f4 14 83 bb c5 3f 65 4f 9b 85 b5 77 da 3f
       0.16978491328511172 0.4135564617874848
000540 ec 3f dd 55 d7 d9 ca 3f 9d 97 48 81 d0 99 ed 3f
       0.2097729844340387 0.9250261807508086
000550 ce 3b 2e f1 84 f5 e1 3f e6 8a fa 5a 6c d2 ac bf
       0.5612206183012576 -0.056292902093692906
000560 90 65 1f 68 64 9d c4 3f bf be d3 83 5b 91 bc bf
       0.16105322918046427 -0.11159297913013243
000570 9e c6 87 3d af 7a b6 bf 5c 3b 2b 1b 0b 6e e0 bf
       -0.08780951740461737 -0.5134330301897125
000580 d6 5a 17 c9 9f 89 b6 bf de 11 d7 7c 72 85 d3 3f
       -0.08803747806028225 0.3050199717656862
000590 fd 06 05 3c e4 1b e5 3f 3e 44 63 48 63 63 d8 3f
       0.6596547291048577 0.3810661513244361
0005a0 3c 07 57 06 ac 83 d8 3f 2e 0a 16 eb 6f 18 e1 bf
       0.3830366193688979 -0.534233054306531
0005b0 41 c1 fd 98 57 cb f0 bf 28 b8 78 cd b1 3f d4 bf
       -1.0496440864772725 -0.31638760629255325
0005c0 ba 33 3b a5 c9 a9 d3 bf 07 99 cf 3c 1a 2c d6 bf
       -0.30723801742425005 -0.3464418023926474
0005d0 90 43 5b ff 3f 26 f4 3f e3 98 66 f8 9f 6f d7 3f
       1.2593383765090245 0.36618804223907214
0005e0 03 0f 18 64 3e c7 ce bf db 1b ba ee 3b 68 d2 bf
       -0.2404554356327183 -0.28761194527799966
0005f0 48 6d 5a 65 ac 0d e3 3f c1 63 ae 9f cf 83 d2 3f
       0.5954191188388132 0.2892951068293393
000600 7a 7c f7 c1 b8 8d d0 bf d0 db 9c c6 88 a2 73 3f
       -0.25865000669541127 0.004793676643934
000610 7c f6 35 6e 3e 66 e1 3f 48 e5 c5 c1 c3 08 b3 bf
       0.5437309410624063 -0.07435248833453045
000620 ab c1 5b 2d c2 f0 d0 3f 32 05 5b d2 b8 d5 da 3f
       0.2646947329476698 0.41929455320867526
000630 c3 ce 10 05 10 f8 d9 3f 2c f9 2c a2 02 f4 e3 3f
       0.4057655381650244 0.6235364120000546
000640 58 8f b7 bd 54 8e cf bf 7c 4f 4d 8a 37 0a c2 3f
       -0.24653109801794915 0.1409367966940599
000650 3a 1f d4 c8 71 1e e2 bf c4 95 d5 80 c5 ae c4 bf
       -0.5662163660462973 -0.16158360281694517
000660 33 1c 94 7e 7e d8 b1 bf 22 6f a0 11 0d d6 dd 3f
       -0.0697096880941082 0.466189639295168
000670 a8 a9 98 5b 7d 90 c1 3f 8a 73 9d ec b7 6f f3 bf
       0.13722197506406286 -1.214775013234631
000680 b7 15 9a 4f 01 17 94 3f 51 4d 3c 4e 1c e8 ea bf
       0.019619007571710614 -0.8408338096655062
000690 40 2f c1 46 82 fc ce 3f 6e bb bc 5c c9 1a d4 bf
       0.2420809598428324 -0.31413492256517983
0006a0 b3 82 64 5e de 40 c2 bf 90 f3 22 5a f9 8e 9f 3f
       -0.1426046334172689 0.030818840147492532
0006b0 9b d6 14 ca 17 9f d2 bf 00 a3 cc 1a 10 c3 ad 3f
       -0.2909602616740387 0.058128836890608326
0006c0 e7 a2 04 9b e3 0b d8 3f f3 56 30 c5 90 88 db 3f
       0.375725652108072 0.43021029717179643
0006d0 38 c9 36 95 1c d4 78 bf f0 d8 4e a7 ff 48 7f bf
       -0.006061660434556075 -0.007637976309459157
0006e0 21 36 26 d5 49 02 dd bf d7 5e de a8 b7 a8 ce 3f
       -0.4532646733794952 0.23952384706057359
0006f0 ec 50 2b 63 40 85 e1 bf 31 a5 bc bb 48 8a da 3f
       -0.5475160538576609 0.4146901925438043
000700 43 14 36 ba 3d 04 b2 bf bf b3 21 dd 3d 13 d6 3f
       -0.07037721439526572 0.34492441744697183
000710 5a 6b ee 90 1a 53 c4 3f ca 26 03 2c b9 ec be bf
       0.15878612591481095 -0.12079961132544806
000720 70 31 6b fc 64 3f cb bf 28 05 28 6c f7 94 e8 3f
       -0.21287214589245762 0.7681843864849371
000730 7e 4b ba 91 e8 6a e3 bf 79 25 85 64 1f 3b dc 3f
       -0.6068003507847235 0.4411085588113433
000740 06 1d e5 e2 b3 ef e0 bf 65 de 48 c9 47 c1 d0 bf
       -0.5292605811636413 -0.2617969003362986
000750 0c 0f c7 57 7a 63 ba 3f 0d 3c 5e 32 9f 51 b8 3f
       0.103080412321159 0.09499545077981982
000760 b8 37 f4 1a 27 36 bc 3f f3 52 b6 ff 2e d7 d0 3f
       0.11020130546623264 0.2631337639989361
000770 a9 00 4b b0 89 4d d2 bf 5b 41 74 26 b5 15 d4 bf
       -0.28598253456221784 -0.3138249278572595
000780 b2 51 73 95 f2 14 c1 bf ce 1f 01 69 4b 34 f0 3f
       -0.13345176980386736 1.0127672292455716
000790 08 52 c3 76 15 90 9e 3f 05 f1 42 e0 44 73 d4 bf
       0.029846511243549784 -0.3195354642919173
0007a0 9a 58 5d 3c 4a 5d e5 3f 24 8d 4f 61 33 ec c3 bf
       0.6676379374500983 -0.15564577342511499
0007b0 20 9a 4c 41 52 a1 f2 bf bd fc 3b 9a d4 e3 ca bf
       -1.1643850851775213 -0.2100778344247142
0007c0 fc 38 c9 d5 87 00 b2 3f 76 cd 89 82 2b aa e6 bf
       0.07032059640298266 -0.7082727002693179
0007d0 18 97 06 84 63 90 e7 3f 0e c3 38 8f 75 04 ba 3f
       0.7363755777957719 0.10163054224609544
0007e0 f6 cb 37 86 2c cc c9 3f 6d 3b fb cc f6 a0 a1 3f
       0.20154339364634638 0.03443118335928017
0007f0 b2 d7 e7 fa 5b 78 a7 3f 82 13 0d 47 87 1f e1 3f
       0.04584014356434753 0.5350986850468049

transformer_encoder.layers.0.self_attn.qlinear.weight f8 [32, 32]
000000 71 02 d3 28 20 0a c5 3f 22 ef 43 e5 4d b7 c1 3f
       0.16437150948879123 0.13840650267217663
000010 11 20 1e 4d e0 fb b0 bf d7 c0 7a 99 bf d8 c4 bf
       -0.06634332545047551 -0.16286463731876807
000020 e6 08 42 da dc c3 d6 3f 28 a0 d2 3b 16 78 e6 3f
       0.35570451082470667 0.7021590393460473
000030 89 bb 43 d4 c4 fd d6 bf 71 6e b3 94 5a 5f e3 3f
       -0.35923882225954934 0.6053898720087557
000040 ed 2c 7b b3 ee 8b db bf f6 81 5f db af 70 c2 3f
       -0.43041579749542686 0.14406393252922073
000050 d5 ce 9f fd 8a 49 af 3f 9a 1f dd 30 df 6b d4 3f
       0.06110796304701941 0.31908397456981563
000060 47 3c 15 ac 8c 36 c8 bf 3c d5 16 08 e0 2d c2 bf
       -0.1891647186516556 -0.14202499766330756
000070 14 0e ca 91 fa ee ca 3f cf a4 16 f7 50 c7 e3 bf
       0.21041805380456025 -0.6180805993982633
000080 80 02 aa 46 60 5d ec 3f 3a 82 5f e9 8d 79 bf 3f
       0.8863984470518318 0.12294852206788046
000090 c9 fc 98 7e a3 18 d6 bf 1e 15 39 dd b9 1e d9 bf
       -0.34525382388160303 -0.39250036815458766
0000a0 63 29 15 1c 18 c4 c3 3f cb 89 40 66 b8 e4 c5 3f
       0.1544218194124581 0.17104248993662305
0000b0 c8 8f e7 c5 00 fb e1 bf a5 01 8c b3 eb eb fb bf
       -0.5618900170634271 -1.7450978292036805
0000c0 1a cd d1 6e 85 04 cf 3f 12 d8 17 e5 0b 1c c1 bf
       0.24232547675237798 -0.13366841016949188
0000d0 8d 9a e7 b7 fb e3 eb bf f4 13 f3 10 f0 29 a3 bf
       -0.8715799896134101 -0.037429334706338496
0000e0 28 0e 5a 90 92 f4 b3 3f 54 33 26 09 99 67 d1 bf
       0.07795063041890471 -0.2719481076572283
0000f0 6b 73 ea f2 f6 10 e1 3f 58 55 da 5e 25 40 cb bf
       0.5333208794068985 -0.21289507991302048
000100 ee 79 0b 95 f9 d2 c9 bf 5c 88 05 a8 62 4d a7 bf
       -0.2017509439237552 -0.04551227856679027
000110 ae a4 93 7a c6 88 bb bf 1a 0c 4e f2 25 d7 ce bf
       -0.10755577557178483 -0.24094080287258707
000120 c2 1a c4 b2 b9 4f d2 bf d4 80 aa 8f f6 e5 bd 3f
       -0.28611605126972617 0.11679020888778108
000130 76 aa a0 38 6f ee c1 bf 6d 13 6d e6 81 16 c3 3f
       -0.14008894219417173 0.149124372017606
000140 1e 95 05 bd 62 d2 b4 3f 3f 50 66 2d a1 83 de bf
       0.08133523096838188 -0.4767840331417154
000150 72 9b 69 6d 18 8e dd bf ee 47 79 d4 da e7 c1 bf
       -0.46179781613175586 -0.1398881471127988
000160 e8 83 90 7d 08 8c 77 bf 9a 13 0f b5 71 c2 c5 bf
       -0.005748780408823408 -0.16999646511808636
000170 6e d2 30 3f 6b 80 9c bf 9c 07 8e 18 67 76 f3 3f
       -0.027833629352431215 1.2164069136783615
000180 a5 f1 a3 79 45 25 d7 bf 12 c0 fb 36 d0 0f a2 bf
       -0.36164986494966406 -0.03527689620193554
000190 db f6 2d f7 04 a4 c8 3f 68 d6 78 9c b3 a0 7c 3f
       0.1925054747516047 0.006989194494556018
0001a0 fc b0 26 55 85 d5 c5 3f ce 4b 35 4b ba 03 ac bf
       0.17057863862772382 -0.054715940170943264
0001b0 01 59 73 1b 30 74 ed 3f 67 f4 24 28 f4 8d e3 3f
       0.9204330955642775 0.6110783371037883
0001c0 3a 81 7f e2 b0 d0 c0 bf 78 cd 5e 34 da 85 a8 bf
       -0.13136874255634173 -0.04789621247564474
0001d0 c7 f3 ac 6c 96 bd c9 bf 73 de d2 25 74 37 d8 bf
       -0.20109825426507497 -0.3783846253749978
0001e0 96 b6 3f ee 68 41 b9 3f 62 1d aa d4 ce 1b d1 bf
       0.09865432564375917 -0.2673222615053047
0001f0 f2 eb fa b0 d4 16 cb bf b6 96 c2 49 ac 5c b1 bf
       -0.21163424150094517 -0.06782032776626576
000200 1d 21 4c 08 4f 0e d1 bf 2a 24 00 c9 96 be cd bf
       -0.2664983349827866 -0.23237881483535833
000210 28 30 56 c7 64 7e bb 3f ae 2c 16 be ea e3 ec bf
       0.10739736429803826 -0.9028218948964388
000220 78 3e f0 ce 7e b1 99 3f 48 7e 03 92 94 23 b8 bf
       0.025091153507729363 -0.09429291310106536
000230 6e d6 bc f2 88 6f d1 bf 03 73 4f 7a 5e e9 d0 bf
       -0.2724325533375581 -0.2642437166630744
000240 d2 e9 ce 4a 0f 8c e2 3f 86 73 63 58 0a eb c2 bf
       0.5795971356486069 -0.14779786411136459
000250 fa 73 63 14 a7 7a d9 bf 05 12 eb 56 4e f9 dc 3f
       -0.3981111239534695 0.45271643150434243
000260 3a 66 7f ab d6 23 df bf fe 60 df 06 0a 2c ae 3f
       -0.48656241176431403 0.05892974218267176
000270 fc b7 bb 39 0a 01 e6 bf 04 81 bd b1 ee 4f a5 3f
       -0.6876269462206888 0.04162546081238541
000280 6e fa 0f 01 ff 28 e1 3f 88 3b da df c8 1e ad bf
       0.536254407954244 -0.05687549336027248
000290 ed 0d 0d 75 1a d9 e3 3f 24 2a 72 3b d4 e6 d0 bf
       0.620251873603079 -0.26408868603962987
0002a0 30 f2 63 30 7c 29 b3 bf 2f b7 cc d6 93 6d d3 bf
       -0.07485176259428594 -0.30356307961015977
0002b0 68 78 10 a6 72 f5 a5 bf 75 5d 69 eb 86 92 d3 3f
       -0.04288824345734171 0.3058183001462205
0002c0 1b 60 ce ba 1b 9c d8 3f 45 e6 c8 90 1d 63 c2 3f
       0.384528095653424 0.1436497647244314
0002d0 5b 19 3a 74 56 14 c2 3f 52 8b 00 35 11 d6 e2 3f
       0.14124565768379224 0.5886312518308421
0002e0 9c 88 c2 23 2f 5c c1 3f 90 2a 8b f8 3a 2b be bf
       0.13562573667610855 -0.11784714286765507
0002f0 ce dd 10 14 a1 0e ce 3f a4 0e 20 34 86 ac cb bf
       0.23482144813327327 -0.21620252175499843
000300 48 7a 53 73 50 c6 e3 3f 8e 43 af b4 28 0d d9 bf
       0.6179582836592283 -0.3914281620500838
000310 1a 39 79 d5 05 69 e2 3f b3 82 b5 ef 84 b3 ea 3f
       0.5753201646237216 0.8344139749352365
000320 42 8b 00 6f ab 27 d2 3f 6e ef 9b 5b 17 0a da bf
       0.2836712440495611 -0.40686592050746284
000330 e4 e1 de 1e b0 07 e9 bf 03 c3 e2 ef bd 5c eb bf
       -0.782188473028381 -0.855071037795
000340 58 b5 f5 e9 43 2e a5 bf 4b 42 e8 37 00 fb d4 3f
       -0.04136860114054269 0.32781987628644477
000350 ce 84 9d 89 56 b2 e2 3f b3 77 c1 50 0a 1f c6 3f
       0.5842697799490908 0.17282227461958896
000360 69 7b 07 a6 7f ab f3 3f 86 59 4e be f0 f9 92 3f
       1.2293697820202516 0.01853157197509738
000370 b8 38 20 4e ee bf bc 3f 6a fc 82 fe ca 3f c9 3f
       0.11230363280648958 0.19725930621459337
000380 48 5f db 25 f9 6e be 3f 4b 62 5c f6 ca 21 d9 bf
       0.11888081716767573 -0.39268755015067275
000390 1e 53 65 0e 48 08 e7 bf e0 c4 44 10 c0 e6 d8 bf
       -0.7197609215896568 -0.389083877456029
0003a0 bc 9e 9f f4 5c 1d bf 3f 8e fd 0e 87 51 d6 e4 3f
       0.12154179546598248 0.6511619222509795
0003b0 09 48 29 a4 6f 15 b1 3f bd 2f 94 2e eb 4a d9 bf
       0.06673333890765333 -0.39519767330852656
0003c0 4d fb 68 93 77 b7 bf bf 05 01 9e 82 10 22 bd bf
       -0.12389323567275064 -0.11380103291412887
0003d0 ba c3 2e 98 4c 05 e3 3f 82 d3 47 ab 4b 0e a3 bf
       0.594396874648843 -0.037218441637299385
0003e0 5b 7e c9 19 c7 fa d6 3f c2 15 c1 eb f7 8a da bf
       0.35905625837583494 -0.4147319605147822
0003f0 cf 4f 4b db f3 08 ea 3f 86 67 08 69 62 87 e2 bf
       0.8135928423966962 -0.5790264178678945
000400 89 90 1a c3 a6 17 ce bf 04 e8 b9 f1 4a 3f c2 bf
       -0.23509678389121216 -0.1425565414718336
000410 fa 27 b1 f3 ce a9 c0 bf 04 f3 38 8b 29 75 e3 3f
       -0.13018214129471045 0.6080520362080226
000420 8e 29 f1 b8 0c ea e3 bf 4a a4 50 dd 53 39 be 3f
       -0.6223205196522927 0.11806224969099435
000430 59 eb b0 8a 15 82 c4 bf e8 47 77 95 cb 3f a5 3f
       -0.1602198531344026 0.04150234412703907
000440 eb 0a d3 dc b6 c2 dd bf 30 a7 5d ac 0e c7 d7 bf
       -0.4650094181526316 -0.37152449448204816
000450 2b ee 6e 09 8c 07 d4 3f 21 f0 a1 eb 2d 7b d3 3f
       0.31296063348028963 0.30439327250474163
000460 08 a4 4f e3 fa db f1 3f fa 02 32 4c b2 6f ce 3f
       1.1162060622539247 0.2377837059066435
000470 18 8d 53 37 39 9b d3 3f 3a 10 b9 00 a5 81 de 3f
       0.3063490906044577 0.47666287489505843
000480 da 8e 31 6b ae c9 df 3f f2 5b f8 9b ff 09 bb bf
       0.49668465107082016 -0.10562131460061133
000490 17 f9 bf 87 5e 99 c3 bf 1c 75 2c 84 4a 1e cb 3f
       -0.15311795833981343 0.21186191037933433
0004a0 92 34 10 4d 0b 32 cd 3f d0 0e a9 0c 7a aa cc bf
       0.22808972609383155 -0.2239525377100251
0004b0 9e 39 b5 01 e5 c0 d5 bf ef 46 a5 59 37 48 db 3f
       -0.3398983494452298 0.42628272776083426
0004c0 37 31 ed 2b db c9 e1 3f d8 74 c2 6a f1 21 c7 3f
       0.5558906419696886 0.18072335923071736
0004d0 f2 f2 e0 e7 25 c2 df bf 9e fc fa 26 09 61 dd 3f
       -0.4962248577538012 0.45904759222680436
0004e0 22 51 dc 6d ec 4a c5 3f 94 e8 b1 1e 84 c6 c1 3f
       0.16634898533141845 0.138870730388423
0004f0 94 78 0e d6 0f d7 cb 3f 8c cd 2a a4 45 8d d8 bf
       0.21750066711405636 -0.38362256080582635
000500 54 82 58 86 0a 8c c1 bf 07 28 bd c2 18 6d fa bf
       -0.1370862155900051 -1.651634941767499
000510 05 9d 0e a8 66 2a d4 3f 73 ac 6c 25 db f3 e7 3f
       0.315087951772924 0.7485175829837217
000520 ae 49 4a 9c 3b 5a c2 3f 51 fc 5e a8 d3 a9 be 3f
       0.14337868815762306 0.11977885113354715
000530 2e d2 93 9d 47 69 b3 3f f1 32 3d e4 17 16 d1 bf
       0.07582519147019504 -0.266973469629007
000540 09 d9 a1 63 23 15 e6 3f c8 47 b2 3c aa 86 b5 3f
       0.6900803514425046 0.08408607465597051
000550 e6 49 c5 2a 88 be b9 3f 07 d4 81 ba ea d0 d8 bf
       0.10056353611188448 -0.387751276145821
000560 22 3e b3 c0 c0 5f aa bf 96 8e 70 43 19 80 df bf
       -0.051511786959619124 -0.49219352327256993
000570 ed 17 4a e9 f7 a1 c9 bf 16 70 31 9d e3 4b da 3f
       -0.2002553834064992 0.41088190413370407
000580 8e c2 ab 74 8d a8 b2 3f 5a dc 0e 5a 29 08 b5 bf
       0.07288440798198279 -0.08215578507120949
000590 75 b0 4f e1 df e1 c6 bf 37 b7 d2 ab 9f de d2 bf
       -0.17876814366843843 -0.2948378732643166
0005a0 ed 32 b5 3f f1 62 db 3f 10 cf 49 43 5d 8c 92 bf
       0.42791396352258354 -0.018113572341873996
0005b0 f5 36 aa d3 b1 d7 e9 3f aa 7e 7c f9 77 a0 d0 bf
       0.8075799116211032 -0.25979422916314354
0005c0 98 7b 01 05 ba d1 d2 3f 43 77 44 d6 71 31 de 3f
       0.2940506981739701 0.4717678635077968
0005d0 08 7d 9a 1a d9 d6 ac bf 19 20 16 b9 b5 92 a9 bf
       -0.05632666063069719 -0.04994743236881067
0005e0 00 7a c4 9a 0e 24 cd 3f 21 96 2c 65 ca ab cd bf
       0.22766287381178074 -0.23180513324875654
0005f0 e1 08 67 f8 7e c0 96 3f 18 5f 2d ea ff 21 d5 3f
       0.022218688880237706 0.33020017498846377
000600 ee 59 51 4f 0f 4f f1 bf 3a 17 b1 98 3c bf cf 3f
       -1.0818017099714967 0.24802358108188988
000610 ce 73 69 5a 4f 02 d6 3f a0 e7 35 1f 4a 40 ce 3f
       0.3438909895829142 0.2363369610209789
000620 14 b9 3d 03 bb b8 ee bf d3 a2 54 e0 c1 7d e0 3f
       -0.9600501120856131 0.5153512364823548
000630 c1 4c d4 38 e9 a9 c4 bf 1e 4f 86 ae 1b 55 e9 bf
       -0.16143527293079354 -0.7916391762432544
000640 bb cb d8 22 5a ef c2 3f 05 a5 df 4d c0 59 e2 3f
       0.14792944623476764 0.5734559555977802
000650 6e 4c 57 a4 2a 5b de bf f8 ed e5 7f a4 74 c0 3f
       -0.4743143658535648 0.12855964894320926
000660 f2 b0 ee 54 e6 02 e5 3f fe 15 e8 d2 0c 5d d2 bf
       0.6566039713702863 -0.2869293269762635
000670 f7 7a 40 17 05 0b dc bf a4 e7 a7 8b 25 e0 9d 3f
       -0.4381726004666428 0.02917536415950618
000680 04 aa db 3c 30 6f d6 3f 35 b8 69 ac c4 18 ec bf
       0.3505364031140348 -0.8780234687271845
000690 12 58 bb 36 c9 24 e5 3f 13 29 ed 50 49 ba d2 bf
       0.6607404774647441 -0.29262001898736506
0006a0 e0 09 8e 52 ce 7a e8 3f 81 9a db 6f 8e 61 c2 3f
       0.7649909603499587 0.1436021848851006
0006b0 df 0d a7 4a 3f b0 e7 3f db ee 5d df b3 43 c4 bf
       0.740264554792187 -0.15831612021053484
0006c0 54 ba f9 06 d7 8c d6 3f 87 7c f4 e7 28 59 e6 bf
       0.3523461883659469 -0.6983837633487305
0006d0 ac 5c 81 50 6e 6f 92 bf b6 a6 74 d9 bb 89 cd bf
       -0.018003200210242085 -0.23076580160095767
0006e0 70 d3 72 0c 0b 10 c3 bf d7 e4 3a a0 f6 8e de 3f
       -0.14892709834898765 0.4774757923838257
0006f0 0b 38 0b 85 2f 9f c1 bf 7e a6 d8 10 05 83 d0 3f
       -0.1376704597118422 0.2579968132509761
000700 0a 09 21 0c 24 88 d3 bf 28 df 74 6b e2 aa e2 bf
       -0.3051843756149003 -0.5833599184761384
000710 57 18 64 87 d4 78 d8 bf ec 7d a8 b4 af 5f c0 3f
       -0.3823748895814609 0.12792011567306305
000720 00 22 b2 df d9 bb e2 bf 5a 35 a7 df e0 c6 c3 3f
       -0.5854310387667852 0.15450678749622676
000730 84 05 84 57 c2 c1 e0 3f 82 43 81 13 26 9e c0 bf
       0.5236522397319026 -0.1298263163794467
000740 44 6d 04 5f 64 6c e4 bf 1a a6 63 82 88 48 e1 bf
       -0.6382314544493188 -0.5401041552224257
000750 21 0c 61 58 0d b5 ce bf 11 cf f2 e3 cb ab cf 3f
       -0.2399002725161106 0.24743031149193276
000760 e7 05 20 2f 56 3d d2 3f 78 9d 3b f7 33 03 e2 bf
       0.28499369241771294 -0.5628909901396772
000770 fd 3c 0b 51 4d ba ea bf 0f 4b 98 2e ef 37 e9 3f
       -0.8352419455422077 0.7880779180580663
000780 ec 83 06 25 13 a6 c2 bf 56 e1 a7 ed 9a 53 e9 bf
       -0.1456932001865704 -0.791455711528253
000790 e8 50 c9 d8 1a 14 bb 3f ae d0 f7 0f db fa d8 3f
       0.10577552597652906 0.39031101760270814
0007a0 79 13 63 5e 3c 9b d2 bf bf 17 42 c8 40 fd db 3f
       -0.29072484223825473 0.4373323398252715
0007b0 c0 e1 2c 8a 5e d8 c9 3f 8d 2d 15 3a 7c 66 b1 3f
       0.201915566891115 0.0679700509837657
0007c0 9e 6b d9 fe 0e 05 bd bf 34 b3 b1 4a da 54 e7 3f
       -0.11335843774706553 0.7291079958791671
0007d0 ec 1b ab 1a a6 f7 c7 3f 60 d9 e7 78 bf aa d1 bf
       0.18724514295737948 -0.27604662711327954
0007e0 ae 7a 53 cc e0 39 d4 bf 84 89 b7 b9 e4 c2 9e 3f
       -0.3160325999614696 0.030040334544432237
0007f0 4a 0c d3 6f 7f 69 ca bf af 26 50 9b cf 42 e5 bf
       -0.20634453735519492 -0.6644056352099222

transformer_encoder.layers.0.self_attn.qlinear.bias f8 [32]
000000 81 59 8d 85 0f 3a bc 3f 87 19 86 fc 27 11 e3 3f
       0.11026093493032897 0.5958442623239514
000010 57 1c 95 c7 1b 5c d1 bf 3c 3a c7 54 68 5d d1 3f
       -0.27124685755228967 0.2713261440193582
000020 ad e8 01 87 e5 1f dc 3f 3e 5d 95 fb f6 b6 ad 3f
       0.43944681343385633 0.05803653546416364
000030 30 96 9a 6b ab b0 ba bf 02 16 1b f6 84 1d df bf
       -0.10425826432273122 -0.48617671998758294
000040 ab 80 fc 81 49 f4 e1 bf 22 18 af f2 02 fc d7 bf
       -0.5610702074809714 -0.3747565622292105
000050 17 c4 84 62 96 dc c1 3f 65 88 44 dc ed 40 bc 3f
       0.13954429445723868 0.11036574008588358
000060 9c e5 07 b5 a0 55 83 bf 43 be 7a c6 37 03 e5 bf
       -0.009440665745375658 -0.6566428066780151
000070 72 5a ef ee 95 34 bf bf 20 c2 f9 bc b1 1c e9 3f
       -0.12189614375470528 0.7847527209215208
000080 a2 5b 7e 71 a0 4f b2 bf a7 e1 5f 47 97 a8 ad 3f
       -0.07152750750388617 0.05792687174102023
000090 b8 0e b1 c6 27 e7 b8 3f b8 19 20 22 77 15 e9 3f
       0.09727715111608404 0.7838702837478229
0000a0 8b b2 94 3d 17 a8 d7 3f d0 1b 49 23 52 0a 93 3f
       0.3696344472289545 0.018594058421765258
0000b0 a3 22 f1 43 ba 0b d5 bf f0 dc c5 f2 3d 32 cb bf
       -0.3288407958503205 -0.2124707637228549
0000c0 85 9b f9 d0 ec 87 e5 bf 4a e1 ac aa a8 be de bf
       -0.6728424150031606 -0.48038689296256065
0000d0 f7 eb 44 1d d9 27 c6 bf a8 a1 27 ad f4 ba be 3f
       -0.17309106759225276 0.12004021861469616
0000e0 e0 c6 4f 87 eb 98 ea bf 46 4b 62 e9 53 e9 df bf
       -0.8311669962697259 -0.49861619750406694
0000f0 67 92 f3 ca db 93 e8 3f d0 fa e6 e5 78 37 d2 3f
       0.7680491413016853 0.28463575793641116
