experiments/fl_train_noise_0.5_max_grad_norm_2.5/20250427/model_round_39.pt (torch, 62806 bytes, 25 tensors)

embed.weight f8 [32, 8]
00000000: 49bd 5804 dede e7bf 8b64 4b79 84e3 dfbf
00000010: 9560 9e2d 0bb4 d2bf 77a5 c55d 8c21 d9bf
00000020: 7424 8a19 d329 f03f fc70 670d 41b6 dc3f
00000030: b26c e2f7 11b4 da3f b085 cd63 9ac5 ef3f
00000040: 3059 5c9e 26fb 973f 1e97 f613 bb3f e13f
00000050: f27a bb19 3c14 d73f 2a05 82bd 76f0 e43f
00000060: 64c5 4d8d 7702 ef3f fa71 02cd 42e4 d5bf
00000070: b888 f051 fe49 bdbf 1697 68ed 5d86 ee3f
00000080: ae7f 17ec c363 993f b6b9 24a0 18b9 a83f
00000090: 5693 7204 1284 e1bf 8e6f d6c7 5668 de3f
000000a0: ed45 1cf0 561f dd3f a230 9520 4d23 e93f
000000b0: 80f2 3da7 5d1a 3a3f 6575 47fd be3d e5bf
000000c0: 2508 bf11 a53e b0bf 0d10 1380 3af3 c5bf
000000d0: 8eb1 f86e a08e ddbf bc8f 58bf e855 d23f
000000e0: 332f 01eb 10b3 d1bf 8164 d7c0 9328 c63f
000000f0: f2a6 2d5e 2ae6 e03f 5b17 b296 3e93 dabf
00000100: 1fe5 f217 5101 a93f e855 c164 1e70 e8bf
00000110: c59e 322b 0767 943f b247 3ad0 3046 d2bf
00000120: 96d4 c670 f834 e93f 8301 50dc 3013 d23f
00000130: 8a9f 3435 0253 b8bf dd79 841a 0b64 d73f
00000140: 1ea8 b924 e0c2 a03f 6b87 07e8 ae1a d7bf
00000150: 9ba5 2182 aa6f c5bf 0e96 27b0 653d ab3f
00000160: 5bdc 2f3f dc6e d03f 0e04 010e 6cb1 d2bf
00000170: 9aca 98d9 c805 f33f b6f4 c487 07f3 da3f
00000180: 71ca 6a10 f3a0 d6bf ac19 fd2a 356d d93f
00000190: 817f a26b c11b de3f bc62 89e1 6ec9 d73f
000001a0: f0ad 112c e522 d0bf a36a f586 d8c6 e63f
000001b0: 6f69 9afb e75a 90bf 3eb8 067e 5128 de3f
000001c0: 721d 33d0 c996 d53f c1c3 d4e8 03db e23f
000001d0: 7066 c40f 6eaf c53f 10a1 77d7 b98c d7bf
000001e0: 2845 41d6 7231 e73f a65b ee5e 7198 c43f
000001f0: 93f9 2491 7567 c03f 033a c445 9bbd e03f
00000200: 5ecc a778 6d23 c2bf 640a 6478 3b6a eb3f
00000210: 322d ec69 370a d23f c2dc c3ab 5ed2 e3bf
00000220: 6127 bfa3 bce3 b33f 2ffa 338b f18c d23f
00000230: 225f 1871 4170 b93f 7cb9 1521 57fc dcbf
00000240: 8027 bedc 357d d93f 951d 17db 7aab c83f
00000250: 3977 1b26 a421 d23f 8ad6 e0a3 828b ea3f
00000260: a039 77ba 51f7 c8bf ed0c aa25 4cf7 ae3f
00000270: e0d9 91f5 4594 bebf 499e 17cb c449 d0bf
00000280: 4c6e 5b95 21b8 b9bf 39d9 b185 913c e1bf
00000290: d473 51d5 9159 dbbf 4c89 df76 f727 943f
000002a0: 60ff dbb3 8131 d1bf 30a7 907e 7738 dd3f
000002b0: 6a55 65be e4c1 df3f 83dc b9c7 c249 c7bf
000002c0: 6b35 5793 7ad4 9cbf 42aa a2c5 a8d4 c9bf
000002d0: 5235 e006 9f2c d5bf 7437 cdb6 e02b e1bf
000002e0: 527f c5e6 cbef b9bf a232 6ebb 6b58 e73f
000002f0: deaf 5c7c 491d d13f 602f 75f0 0d41 d63f
00000300: 814c 3e11 d916 d13f f462 c591 78bb e73f
00000310: 7a74 c726 c0f3 d3bf 2553 c9cd 6642 e03f
00000320: 1aa2 1ea2 1353 c73f 7f46 5655 677c d83f
00000330: e10b 7135 dff2 c4bf 5241 1eab 0591 cfbf
00000340: f31a 59a6 2d30 e6bf 2b2e b190 4c35 dabf
00000350: 2205 a23e 6d9e cbbf a9fe d53a d111 e83f
00000360: 9c9f fe66 dab7 8fbf c6ac 63f5 deb4 ca3f
00000370: 76be 5b56 8a20 d9bf 969c 882b a41b dd3f
00000380: b1a8 e685 9eae d33f f701 8380 dd47 dcbf
00000390: cfb3 0245 b471 b0bf 27d4 ab15 c215 e93f
000003a0: 84b6 248b 36dc dc3f d30f 569d bbd8 d43f
000003b0: 3037 b4f3 04fd e13f 78f4 ce82 41f3 9f3f
000003c0: c46a 454c 1d76 eebf 7649 7822 8afc dabf
000003d0: 3ada 73e0 01a2 dbbf d6d2 204a 5237 d23f
000003e0: e6bc 0435 fa93 d1bf 3846 b3b3 688e d7bf
000003f0: 8845 8539 e4e0 adbf bcf7 c47e b00a 813f
00000400: e019 f343 4a2c 94bf 064f 4884 7e32 efbf
00000410: 8768 24b5 0621 b9bf 341f 5068 eee7 9dbf
00000420: 5598 244c b683 f13f 903d c6f8 939c dabf
00000430: 6dc2 bbe3 be93 d23f 74f4 b1bd 6ab6 d63f
00000440: 84f1 802f 9d9a c3bf 330a 41ad e9cb e1bf
00000450: 9be6 3a1e 8271 c33f d420 b064 7f75 90bf
00000460: 846f 5403 2ea2 9cbf d8aa ab93 d895 acbf
00000470: f6c3 bc1f 6d47 d63f b642 308c 69ab dfbf
00000480: 6cd3 83aa 8bb4 a3bf a6df 1077 2d1d bf3f
00000490: e4a8 00f8 7880 d23f 67c9 9138 70fb e63f
000004a0: 755c 859c 379a f03f 58e8 8d73 d472 bd3f
000004b0: fb1a a882 b95b e4bf 4d48 838e 58f6 aabf
000004c0: 96f3 e863 4019 e23f 9424 3628 ac33 e3bf
000004d0: b406 7d3f 3516 d2bf 1755 e1c1 5c72 d1bf
000004e0: 869c 53be d4c9 c7bf d193 ff25 a079 e8bf
000004f0: 580b e12e a2ce d9bf 696c 11b9 9dea b03f
00000500: 1208 c445 862a dd3f 78ad 7166 3725 9cbf
00000510: 4909 5063 0bbb cf3f f206 d74f a979 c63f
00000520: 3c35 ada0 a6ac 9abf 72e8 dd55 3aa8 e2bf
00000530: caaf 7528 c3c3 bdbf 4cc4 5ace 8a01 e9bf
00000540: b9d7 acbb 394d a63f 9d5b c68d b1fd e33f
00000550: 61d3 a729 a26b c43f 81b6 c16a 653c d83f
00000560: 2606 2ee8 12d7 cabf 2ee9 1642 5bf9 bf3f
00000570: 08b2 eab3 0a1e ad3f 94eb 31e3 e1de e7bf
00000580: 9d39 bafe f7ff dc3f 23f2 bd4b 4cb1 d7bf
00000590: 2c2e 25db 00e4 82bf f4b9 3b68 76a2 d8bf
000005a0: 4b9a 913d fd4d b1bf 47bb ad7c a5a0 ebbf
000005b0: 1973 6346 384d e03f 1cfa 83b6 225d b33f
000005c0: ddc0 df49 7aad e4bf f531 cd26 538f de3f
000005d0: 97c4 f29d 3d9f d7bf bb7f e8b7 70b1 e2bf
000005e0: fde9 4253 be8b d23f e7b2 4c06 a2f3 ab3f
000005f0: c83a 485c 338f d4bf 4486 c8bc fd5e d53f
00000600: 23a1 d147 d949 e03f a679 7753 e7e6 c2bf
00000610: ccec 3240 7c60 ddbf 7652 0f2e d85e cdbf
00000620: fd0c b96f 30f2 d7bf 4218 b3fc 5abd d1bf
00000630: 74ba 619c 8aa0 cebf 3f04 a619 09df e2bf
00000640: 6486 64b0 85c2 e1bf eb66 0d75 d58a e13f
00000650: a5cf 1516 5a54 c93f 4934 23ca 6fda cfbf
00000660: b026 24fb ceba a43f 5da6 c664 2ffb e43f
00000670: 0bf5 5f18 a3eb d03f e097 f906 dbcd e4bf
00000680: 84e9 595c 8dc7 dabf d8bb d98b da64 d03f
00000690: 3b4c d5da d053 d8bf 93e8 9883 516c bc3f
000006a0: 39ae 5b72 9960 e33f fab6 2fe3 0c96 d53f
000006b0: 906e 351d e536 d9bf da6a 28b3 3501 c6bf
000006c0: 4626 96fc c242 d23f badf 461c 337e c53f
000006d0: 31b6 297e 50ee f3bf cbf8 e59b 127f cd3f
000006e0: adbe 5669 94f2 ecbf 61f7 6c67 08a8 f2bf
000006f0: 9830 b271 104c f0bf 6823 2bef bea3 d2bf
00000700: 13c3 093c 37a7 e8bf 6a5a 4e19 05c4 d73f
00000710: d43e f3c3 c1b5 e23f 5589 8647 3d31 e8bf
00000720: e441 dcea c326 e13f e954 9041 07a1 b0bf
00000730: d6dd 8777 0b1f c83f 2627 b042 30eb c4bf
00000740: 8196 ad1c 50d0 e23f 9e4c e2b3 0b9b ddbf
00000750: 2592 68f7 47db cfbf 945f 1e8b 6454 bdbf
00000760: beb6 d202 c2c1 e03f a76a 1c17 9206 a2bf
00000770: eb6e c66c 1584 dc3f 16a4 14ea 946e cfbf
00000780: 3ecd 8d54 388d e3bf c69a a88e 4b79 cfbf
00000790: 9453 96d8 5f38 e1bf 5937 4e38 cdd2 d6bf
000007a0: 68b7 57e5 d4ca abbf 88bf c878 ce16 a4bf
000007b0: d7b3 55f2 5ce6 d9bf 30e9 9825 f626 d53f
000007c0: c764 f8a3 c6f9 dcbf 3abb f33e 4b6e d1bf
000007d0: b772 ce7d e944 e33f e94a 5a9b 2b99 e1bf
000007e0: b49a ab9b 3f85 abbf a649 3f4b a920 bdbf
000007f0: 0855 8118 d5ad d83f e0fa 9358 b1fc ea3f
-0.7459554753203658 -0.49826156468550015 -0.29223899321505914 -0.3926726260893569 1.0102110860482556 0.4486239081286525 0.4172406121012485 0.992871470382104
0.023419001975605258 0.5390296354205224 0.36061003220485965 0.6543534947706224 0.9690511474456511 -0.34205694218124416 -0.11441030025938204 0.953902209938607
0.024794636998080648 0.04828717188717084 -0.547371872603075 0.47511834636110784 0.45503781746182775 0.7855592380888263 0.00039830004174471606 -0.6637873598917109
-0.0634558838201263 -0.17148524526248857 -0.4618302425103814 0.28649347959639804 -0.2765543265311294 0.17311331668932797 0.5280963744564515 -0.4152370902669326
0.048838171170652915 -0.7636863677859624 0.01992427064092685 -0.285534098956414 0.7877161219281728 0.2824213172425731 -0.09501661108936169 0.36548116292570204
0.032736782534655826 -0.36100361498949124 -0.16747027734826933 0.053202798608065746 0.256766378122341 -0.2920789849050046 1.1889122485996837 0.4210833383438727
-0.3535735760043855 0.397290508252264 0.4704440642471966 0.37166950249733666 -0.252129834209625 0.7117731700812623 -0.015971779567374108 0.47121083552599774
0.3373283894729503 0.5892352626307159 0.16941619653589468 -0.36796422998169565 0.7247862038294999 0.16090218673045092 0.12815732562189605 0.5231453287722733
-0.14170616523151386 0.856717810762643 0.2818735632324262 -0.6194299082552777 0.07769373891565358 0.2898525103954936 0.09936913500893899 -0.45290163260406024
0.3982672362986861 0.19273315141456906 0.2833032962934002 0.8295300675151378 -0.19504758457919724 0.06048047981041713 -0.11944997067789798 -0.25450248559215943
-0.10046586891569936 -0.5386436091637626 -0.4273418982682504 0.019683710699504517 -0.2686466461600414 0.4565714584338023 0.496209321912224 -0.1819385028099739
-0.028154292338333258 -0.20180234575430417 -0.3308484618326776 -0.536606175455502 -0.10131525405949773 0.729543558192365 0.26741253990871694 0.347720608541513
0.2670195263282907 0.7416346404162071 -0.31175235545180835 0.5081056613222229 0.1822227994537265 0.3825929959649343 -0.16366186246349826 -0.2466132245576867
-0.6933811425195401 -0.4095031178482908 -0.2157723003220236 0.752174963869 -0.015487390773912861 0.20864474279310324 -0.3926111071914201 0.4548120904095837
0.30753291202803285 -0.44188630628562414 -0.06423498806789428 0.783906023336958 0.4509407385656703 0.32572832455502726 0.562136150345145 0.031201385125076503
-0.9519182672186948 -0.42166379324148495 -0.43176314276880456 0.28462655295451833 -0.27465682199085817 -0.3680669550786635 -0.05835641100078265 0.008321169727988457
-0.01970020332080391 -0.9749138435022082 -0.09816018984239082 -0.029205060116537854 1.0946562742551766 -0.4158067635953211 0.29026767959206873 0.3548838474742475
-0.1531559450103367 -0.5561416992061993 0.15190149761274516 -0.01607321788836276 -0.027962416604267584 -0.05583073427790958 0.34810951327659667 -0.4948371762302871
-0.038486828388989064 0.12153896481402046 0.2890913411998908 0.7181931595680852 1.0376506914233492 0.1150334150424056 -0.6361968566787647 -0.05266072024973365
0.5655824614874401 -0.6000576768284582 -0.2826054687503572 -0.2726051228867887 -0.18584689420024264 -0.7648468725352534 -0.4032369096568593 0.06607995765937037
0.4557204896265158 -0.027485719325722496 0.24789564465761263 0.17558781050143285 -0.026049235875054352 -0.5830356289946066 -0.11626834619317986 -0.781438258205648
0.043557933959547275 0.6247184533157114 0.15953471216166817 0.3786862890764056 -0.20968853318122277 0.12489862788689685 0.05686982580423111 -0.745957320919262
0.45312309146620483 -0.3701964130084738 -0.009223944366247037 -0.38491592577966505 -0.06759627106803483 -0.8633601603631654 0.5094262480521109 0.07563988643594438
-0.6461764757969167 0.47749785222256885 -0.369094280477904 -0.5841601936299335 0.28977926379198476 0.05459314658069108 -0.32124027263573085 0.3339228004061605
0.5090147402488906 -0.14767161918184718 -0.4590139986937174 -0.22945692299858295 -0.3741570559543133 -0.2771823375482009 -0.23927433620288563 -0.5897260189959822
-0.5549953885240027 0.5481974874666923 0.19788671568278207 -0.2488536583900063 0.04048773589790977 0.6556622474938184 0.2643821466479756 -0.6501288543920474
-0.41842969912217876 0.25615562112119283 -0.3801157128374972 0.11102780783486059 0.6055419190938159 0.3372833460442589 -0.393975523494853 -0.17191191909736042
0.2853248087563752 0.16791380768495207 -1.245682232688875 0.2304404507849028 -0.9046117837333064 -1.1660236396851007 -1.0185703698398694 -0.29124425274181087
-0.7704120800609381 0.3713391062860071 0.5846871211196807 -0.7560106656058375 0.5359820925823979 -0.06495709753683666 0.18844741188489306 -0.1634273839593387
0.5879288253897387 -0.462588239353133 -0.2488794286774844 -0.11456898113681141 0.5236520819796266 -0.035206380196730884 0.44556174871989523 -0.24556218557089043
-0.6109887744372953 -0.24588913408043406 -0.5381316404551506 -0.3566163110598289 -0.054281857486656204 -0.03923650001922768 -0.4046852461386243 0.3305030219231808
-0.45274511349414265 -0.27235680720962174 0.6021621186406126 -0.5499475511772661 -0.05375098014137816 -0.11377962195482513 0.38560988801084806 0.8433462839164712

embed.bias f8 [32]
00000000: f5ee 21aa 12db d03f ab24 d8ec 49e0 c2bf
00000010: 97c7 52e8 eeeb e93f 7ee0 d6a7 5052 cbbf
00000020: ee4f c48d 3422 b73f 48bd fc92 3a45 b5bf
00000030: 7593 c17a 0d62 afbf 22e9 2415 f999 c63f
00000040: 953c e3b5 a7a6 d53f 667d 8257 eb71 d53f
00000050: 4876 8431 46e7 ba3f 8f77 b453 7fd2 c63f
00000060: 7415 518c 04aa eebf f0e1 efbe 66bd b73f
00000070: fd1d 3539 5efe c83f e469 10df fb63 d13f
00000080: c2d6 b7ae 50bd d43f 5180 6bd2 3a1a ce3f
00000090: 28db 6687 b096 d63f d44e a9ab cb0f c13f
000000a0: 27a2 2c53 ab83 e53f 1c37 a1c6 30c2 a8bf
000000b0: c67a b571 8824 b6bf 5e93 b35a b236 cebf
000000c0: 81d1 04d7 c84f c73f 8923 41ee 96eb f93f
000000d0: 8eb2 6a2d 233f c93f 8d08 b323 faf6 f1bf
000000e0: ceac ca31 6a80 c03f f030 29ea 0b11 d03f
000000f0: 9fc2 98e9 e199 e1bf 1b37 22b4 f3c0 e4bf
0.2633711492014606 -0.14746975006736326 0.8100504434171282 -0.2134495563057079 0.090365681277319 -0.08308759773784857 -0.06129495738495098 0.1765738824122503
0.3382968212362781 0.3350780825221221 0.10509146412774684 0.1782988699641774 -0.958254121833916 0.09273378526257381 0.19526269715628067 0.2717275312767511
0.3240548807365081 0.2351754691544579 0.3529473612101577 0.13329454309370325 0.6723229050158509 -0.04835655617408305 -0.0864949491128569 -0.2360442107084521
0.1821223306557265 1.6200169855894464 0.1972393008958488 -1.122797145319541 0.12891890937075917 0.25104043833995515 -0.5500344812808925 -0.648553706954519

pos_enc.pe f8 [1, 12, 32]
00000000: 10fe 17fa 65de b4bf be37 3351 75cb a0bf
00000010: 8152 8488 6841 973f 1983 ad15 dea6 efbf
00000020: aad0 b262 7e02 c9bf 1ad1 d404 a05c b93f
00000030: c1ba 1c50 5bc6 c3bf 0e0d c0ef 8382 e3bf
00000040: a061 5d86 53cb 9a3f eec1 e786 1b3d df3f
00000050: 1872 9673 f4ff bc3f 4a33 c557 8041 d33f
00000060: 547e ea02 7bbe d83f 87fb fbcd ace4 d13f
00000070: ac38 7ee5 1cfe cf3f 9d5a fd02 95fd dc3f
00000080: c438 3f8d e291 eebf 78bf 5a07 1e28 cebf
00000090: 0722 78a4 bf3e d7bf 0a7c 8613 7192 d23f
000000a0: e771 fb19 84c4 d13f 100b c66d 4bfb c63f
000000b0: 1aa3 93ea ab73 ce3f 053b 4e36 41f9 dabf
000000c0: 14d7 9d90 fc56 a93f 1486 f7ea e098 ecbf
000000d0: 48c2 dd5d c750 e4bf 0c32 a6bd 5212 cb3f
000000e0: 3d01 2289 05e0 dabf 530f 1789 08fe d4bf
000000f0: d63e 20cf 1d6f cabf 0086 a725 88e6 d33f
00000100: 3678 d418 4266 e63f 884e 4bed f360 c63f
00000110: a973 88eb ef9b d13f 08db 3081 deca d8bf
00000120: f82c cca0 5787 cf3f 5d28 c283 7716 f0bf
00000130: d2d8 ae7a 3be0 d23f 10ab 9392 440c e1bf
00000140: fc6f d889 6057 91bf f566 177b 3298 e0bf
00000150: d816 f846 279f e03f 208f 4bb9 69cb 94bf
00000160: c9d4 d71c 0c45 d8bf 666e 2b2b 4885 d53f
00000170: 1864 e6a5 9257 b43f e070 e6e3 1212 c73f
00000180: 5ab7 26cd 2dd7 b13f f6ea cdd9 7b2b bebf
00000190: 281d 57a4 84cd d03f b1e6 622d f534 bcbf
000001a0: 5b39 e472 5332 c8bf 3912 ecfa eeb9 e4bf
000001b0: 8d68 9da2 8395 ce3f e2ad a098 e03a cdbf
000001c0: 7455 a81e f3f1 c63f 62bd a965 a36f ae3f
000001d0: 345f 3f40 902e 863f 01da 6690 1b9c d5bf
000001e0: 71b1 33a8 221d b4bf e5e5 f6c5 bce8 c9bf
000001f0: f3f0 f860 31f2 cbbf f459 b214 50c8 e4bf
00000200: 72c2 8c90 9477 dabf c2ea acdb 96a2 d9bf
00000210: e12f 3caf b00a e63f 70b2 ff24 28e6 993f
00000220: e96c 0b32 c23a d0bf eefc b3f1 f5de cfbf
00000230: 1716 2410 4531 c1bf e3a0 1ead 1d65 d8bf
00000240: d823 6a7d 7fb3 bbbf bc4c 0a5d db3f a23f
00000250: d11f 9bb2 e224 d63f 6c48 bc25 dd0b d2bf
00000260: 2073 891d 227c ab3f 12e3 87df aaa5 c2bf
00000270: 0e85 5320 1f95 af3f 5b36 ff8c 4648 db3f
00000280: aabb 2843 e526 cb3f 4424 048f 549d c7bf
00000290: c2dd f4b4 eac0 c43f d6fb 4b88 5311 d0bf
000002a0: b876 fdb0 45ef d33f f5d7 3276 b330 cd3f
000002b0: f8bf d706 e66a e53f 08f4 a11d cb0e e6bf
000002c0: 460b 602b 30b0 d5bf dbef eb90 7210 dfbf
000002d0: d8d6 0e9f 8cd9 c9bf 8660 342a 6694 ec3f
000002e0: 6742 c4b0 5963 f0bf 02d4 4b9d 4f10 c7bf
000002f0: 1cb3 cff1 6f27 ce3f 1022 5955 5d9f cabf
00000300: 8fcc 85b0 f364 d3bf c6c4 03e8 13fc d9bf
00000310: f54d 00a7 32b2 c23f 4dc1 2747 9b49 d5bf
00000320: 5b2e b12a bb9e b1bf a888 04cd 1a1c d2bf
00000330: f53d 06ae 73ee d4bf 7f39 2c78 4fea d7bf
00000340: 9541 b0a7 d111 e53f f44b 3a8f 059f ddbf
00000350: 4a06 8772 1355 bfbf bf2e ebba c859 96bf
00000360: 4f45 a50c 0181 dbbf 3cd6 f8c7 d9c0 943f
00000370: bfb0 95f4 a393 d33f 6da0 8532 79e3 e03f
00000380: 8390 2304 ff0c d0bf e48d 1a80 b6c8 e63f
00000390: 4e80 a514 569b e2bf 0e0f 812b 5177 ce3f
000003a0: 1128 b58a d5db e13f f809 390f 84ce bd3f
000003b0: b65e c718 c51a ea3f 00c9 ea04 645a af3f
000003c0: ff0c 50e6 f1e5 dbbf e7b4 b04b 7653 e5bf
000003d0: b717 bc34 888e c03f 942a 3d5f bf92 bd3f
000003e0: c4bf b331 b9a0 d7bf 71df cfe9 da1d e1bf
000003f0: ae1d d256 611f debf 706e 1006 331d dabf
00000400: f300 ba6e e790 d83f 7a02 f5ae 1bc1 e0bf
00000410: 27c1 81ba e120 e0bf c161 ac0d c2d6 d33f
00000420: e9fd 8a18 ba1f dc3f 3063 5bd2 47b7 b53f
00000430: d26b 577a 452f d6bf 7d1a 62f2 b09b db3f
00000440: 67f3 b86c 0803 d1bf bd76 b832 13c6 f0bf
00000450: 6380 3797 de18 df3f 743c aba1 0804 d43f
00000460: 55df 901a 0209 bcbf c354 7cc6 d548 ebbf
00000470: 24c8 285c e347 d3bf 1ea5 247f 3c46 c8bf
00000480: 50ac 7e0b a89e b8bf e310 979d a17c d73f
00000490: 04b0 dfb9 eabe b03f 88f4 d12e e76d bf3f
000004a0: c012 5347 999b db3f 8678 a81f e411 cc3f
000004b0: 4592 8eae e830 e23f 2382 35b2 a5c6 dc3f
000004c0: 0c20 1e22 ac11 e43f 9a7d 7ded fbf1 d1bf
000004d0: 204d 17d7 ea02 9abf b1d8 16d8 b6f7 a03f
000004e0: 4eac 900b 0089 cb3f 00dd 7f8b 6ecf d0bf
000004f0: 7dce 5d8c 31e9 b23f fc19 0d2f 2e8e b3bf
00000500: 0e9b 6062 8d30 c53f 109e 9445 2c8d c8bf
00000510: 921e d84e 0801 db3f d739 8dd1 009f e8bf
00000520: 9582 8470 60f8 e6bf 2693 728f ee6a d6bf
00000530: 9ca8 e8e2 23b5 e73f 2e91 aef5 0b08 de3f
00000540: adea ee98 45a3 e9bf 4b5a 2417 1dd8 9cbf
00000550: 9716 18f3 0463 c4bf e8a4 e8a4 18ad acbf
00000560: 4271 02ec 427e c33f 247b ce93 391b d03f
00000570: 87cd ea9a 7a18 d9bf e1a3 f84d 02ce e3bf
00000580: 7a89 e32b 2125 d93f 4c20 627a 489d d23f
00000590: 9205 62f7 7d68 e5bf b4fa c47a 953a c13f
000005a0: 03af 7bd8 f263 e13f f21c f12d 5c62 ef3f
000005b0: d01f 575c 16a3 6a3f a0f3 c205 3baa b43f
000005c0: e874 bb65 0669 e8bf 2fef 4cff 0f38 cbbf
000005d0: 388e d2a2 5b54 d3bf 8894 293a ea81 df3f
000005e0: 7466 38b9 5147 86bf 2131 30c7 65d9 d4bf
000005f0: ebd7 2d41 5889 a63f f0e7 36b3 9437 ad3f
00000600: f07c 77ad 1895 e0bf 887a 3812 79d6 e6bf
00000610: 0cad a0d9 c82c 8fbf 8b32 bd26 e846 91bf
00000620: 8fa4 a172 ef8b bebf 33cd c395 abf4 dcbf
00000630: 42ca 47b2 55bd df3f 04d1 7785 ac79 c7bf
00000640: 43ab 56ba 6955 cebf 347c d316 c450 c9bf
00000650: 93ea 9b63 3b8e c5bf 5e46 8fb6 1de6 e03f
00000660: 9c45 372a fa71 cdbf 5cab 31c4 d8a2 d3bf
00000670: 4755 773c 1f85 d23f aa41 388e 911e dabf
00000680: 4f4f bf0f f164 dcbf 89ce 58d5 d5da d8bf
00000690: 13cf 0b9c 9774 d43f 2cb5 cf86 4e15 e13f
000006a0: b47f 316f 65ce 813f 9507 185f bfc6 dd3f
000006b0: 5f9a b77d b6cf d4bf c4a2 257b 4b7b ecbf
000006c0: b983 1e31 0e56 f1bf 250e 57a4 4629 e2bf
000006d0: ce8b 5ef8 971f e2bf d04b 02e9 d9c0 d13f
000006e0: a359 749b 67a6 a73f ae6b 4fe5 d993 eabf
000006f0: 76ff fded 2df3 b23f ea09 6d93 ce4e e03f
00000700: 9abc 4285 a076 a63f a6db 78c4 c3d0 bdbf
00000710: ccb7 e988 5189 97bf 0180 e947 e03b d73f
00000720: bb67 68f0 ea2c e13f 9ae1 9fce 699d c7bf
00000730: 1609 cbe9 73e6 b0bf b072 cb28 11ce c0bf
00000740: c482 f976 e199 b0bf 406c 25cf cf13 cf3f
00000750: 0648 6ffd ea66 b6bf b2d3 4e8a 9c78 d13f
00000760: e7cc 76fb e2d2 cd3f 5829 6f08 b9c3 db3f
00000770: 75d6 20c5 53ac b9bf aaab ca03 6929 d63f
00000780: 7d41 4dde 5419 d8bf 94d2 6ac0 a050 943f
00000790: 8685 1314 2599 e0bf b9d1 d8d8 5f95 debf
000007a0: 75af e5ae 9870 d63f 0c64 d000 200b dabf
000007b0: e427 8517 381f d2bf 2250 533b ff68 c93f
000007c0: 64cf 4495 b2b8 df3f e835 13c3 4eb6 d6bf
000007d0: ae93 0486 4a6e e13f c3a5 6eb3 8141 c73f
000007e0: ae60 3eda ceb1 c23f 93ce 756d 55a9 db3f
000007f0: 3ca9 eb37 73b7 dc3f b2fc df8e 2c13 de3f
-0.08151852947047922 -0.03280226341449531 0.022710450489358273 -0.9891195701021359 -0.19538860148680232 0.09906959646179239 -0.15449086581926078 -0.6096820528622702
0.026166253162359987 0.48810470747323975 0.11328056165661626 0.3008728844768497 0.3866260078884569 0.27958221545844036 0.24994240956988756 0.4529774216838776
-0.9553082236032187 -0.23559928282838505 -0.36320487081005165 0.29018809229631926 0.2776193860752571 0.17954390392341013 0.23790501550617976 -0.4214633016899117
0.04949177995051293 -0.8936619366833747 -0.6348606904339897 0.2114966798802843 -0.4199231948077971 -0.3280049647112168 -0.20651600469181258 0.3109455459326398
0.6999826893768446 0.17483376585606814 0.27514265061636906 -0.3873821508054083 0.24631781913226525 -1.0054850718320474 0.2949360559536106 -0.5327475416973773
-0.016934879697245706 -0.5185787586335368 0.5194279085269171 -0.020307208952444644 -0.3792143136664206 0.33625988212381797 0.0794612555531703 0.18023906829774372
0.06968961962294654 -0.11785101001252571 0.26254383133751213 -0.110183070736549 -0.1890358267778066 -0.6476969624350836 0.2389378112810089 -0.22835929348489886
0.17925871846152186 0.05944548240665416 0.01083100029056503 -0.33765305616125835 -0.07856957060329763 -0.20241508165581404 -0.218328640317743 -0.6494522480232363
-0.41354860416598804 -0.40054866268807754 0.6888049528656631 0.02529204107115607 -0.2535863388745399 -0.24899172117145646 -0.13431609428532518 -0.38117162615027506
-0.10820767223243821 0.035643439395380366 0.3460013145636341 -0.2819741123686359 0.053681436639385405 -0.1456807700594927 0.06168458242042095 0.4262863518641546
0.2121244981694564 -0.184488839943045 0.1621373542381957 -0.2510575133346128 0.3114790180605769 0.22804873725334543 0.6692991384170446 -0.6893058375131895
-0.33887867198807375 -0.4853788771868019 -0.2019515778207992 0.8931151222523261 -1.0242554573962026 -0.18018527203062723 0.23557853038018883 -0.20798842112914473
-0.30303661573925295 -0.4060106054085505 0.14606316713671644 -0.3326175875545417 -0.06882829468048028 -0.28296537419567835 -0.327053947396933 -0.3736761735498461
0.6584251666227369 -0.4628309153278558 -0.12239190622406074 -0.021826874168978657 -0.42974878535195143 0.020266917066882537 0.3058862579844223 0.527767752338162
-0.2507932224673441 0.7120010854745797 -0.5814619448901881 0.23801626800752057 0.5580852231153149 0.11643243190432162 0.815767811199257 0.061236501312480485
-0.43590972415422863 -0.6664382437062643 0.12934973311365436 0.11552043986481869 -0.3691847787258633 -0.5348944250717819 -0.4706652973040616 -0.4080321845264967
0.3838442403139332 -0.5235727707987075 -0.5040138857566817 0.3099827893761607 0.43943645855685404 0.08482788930576812 -0.3466352171650985 0.4313776366256333
-0.2658101140730679 -1.0483581525108285 0.48589291350618263 0.3127461985395208 -0.10951245449620946 -0.8526409985230646 -0.30126270294124624 -0.18964344223176338
-0.09617090492854286 0.36698189153345434 0.06541316068586417 0.12277073758191837 0.43137199368747403 0.21929599328808907 0.5684703263583023 0.44962446597313227
0.6271572748528356 -0.28039453689958693 -0.025401753786195802 0.03313990962799219 0.21511841358855793 -0.26266063330645295 0.0738707511607632 -0.07638825081549067
0.16554419807035753 -0.1918082561253276 0.4219380159342815 -0.7694095700078901 -0.717819423447582 -0.35027660378027503 0.7408618385136552 0.46924113266347234
-0.8011806475618265 -0.02816815809009147 -0.15927183027104228 -0.05600811970755065 0.15229069255736688 0.2516616767333508 -0.39211907509453464 -0.6188975832820881
0.3928912094690059 0.2908497996472803 -0.6690053779313294 0.1346003388843734 0.5434507587610543 0.9807568452169149 0.0032515942318447136 0.08072251215612747
-0.762820433326536 -0.21264839139791422 -0.30202380085595193 0.492304379271737 -0.010878218140578634 -0.32576889469125275 0.044016607242994464 0.0570646733062431
-0.5182002437612976 -0.7136807781096914 -0.015222138539761086 -0.016872050632900353 -0.11932274387949547 -0.4524334871814119 0.49593107614706267 -0.18340069310182383
-0.23698159788667725 -0.19777728189998955 -0.16840307582591105 0.528090340196467 -0.23004080830882578 -0.3068143764455067 0.28937512307068797 -0.4081157578339353
-0.4436609891683831 -0.3883566459146342 0.31961622465972644 0.5338509209665623 0.008694450813152212 0.4652555874491722 -0.3251777866084122 -0.8900506406035551
-1.0835096281736993 -0.567538567520789 -0.5663566447222992 0.27739570383817824 0.046191442228678235 -0.8305482367244303 0.07402312336307468 0.5096199874317879
0.04387380243985568 -0.11646674677545707 -0.02298476598883052 0.36302954695383965 0.5367331214395031 -0.18449137295807533 -0.06601643045272385 -0.1312886666481936
-0.06484803347258167 0.24279210676727025 -0.08750790297861508 0.27298654085762586 0.23299824980276826 0.43382097076086756 -0.10028575480176889 0.3462774788883346
-0.3765461131015611 0.01983882116720055 -0.5186944381822947 -0.4778670900007245 0.35062234000974196 -0.4069290168714026 -0.28315546318901696 0.1985167541193969
0.49564804627447345 -0.3548771767644596 0.5447132699524582 0.18168660413111412 0.1460512700693974 0.4322103089282134 0.44869690381041827 0.46992029144889635

transformer_encoder.layers.0.self_attn.qlinear.weight f8 [32, 32]
00000000: 947c cb2c 3b83 e03f 29e5 2f0c 3549 cebf
00000010: f4c6 311f c550 bb3f 068a 16d8 263a aa3f
00000020: e317 ef7b 0ac6 dcbf ffab 4a70 8ce6 e93f
00000030: 284d bc96 407c c83f be33 d937 9ec6 efbf
00000040: b268 1363 58ba b83f 7e25 7524 3e8b e03f
00000050: a708 b7f4 e35c b23f 6e58 b0db cda5 c43f
00000060: ca35 1381 0567 a43f 4e2d 9f46 798a c5bf
00000070: 86d6 f450 f5ad e9bf 0022 28e5 62d0 cdbf
00000080: 6292 eced f666 dbbf 50a6 71ee cfce e43f
00000090: 18f2 dc5b 909a d63f a8b2 2065 1c52 cbbf
000000a0: 4de9 d690 e2be c5bf e495 6161 d1df cdbf
000000b0: cf33 d3a9 f54a da3f 7654 937a 6967 c2bf
000000c0: 01a8 33b8 323f c9bf 9ab8 a985 0745 b03f
000000d0: 3e2c 21a8 0aa0 e13f b527 a454 ad0a ca3f
000000e0: 9e0b 4ff9 0bb1 e13f a681 9a0f 661d cd3f
000000f0: 2efb 4ae4 b284 a03f 3abc 2180 1c67 c1bf
00000100: 06d2 cabe 8d00 d6bf b218 c52d fe2c ba3f
00000110: 3639 af34 30b5 e03f 92ed 2bf4 9d5f bcbf
00000120: 082f e7df 0e57 cb3f abe8 26d8 dec0 f43f
00000130: 1f27 8442 28a3 d7bf 9d75 f41b fe4a e1bf
00000140: 8857 86fa 490a e1bf 28d5 694d e7b4 c13f
00000150: 3eff 485a 4e07 d93f 5fd0 5649 1d3e b03f
00000160: 6efc 3ff2 baa8 debf 51c2 4e49 e4f0 cfbf
00000170: 24d9 84c4 d12e cb3f a70a 15b0 967b e63f
00000180: 64dd 64c5 954b b03f 27c2 a388 c46b c73f
00000190: 7849 9c2d 238a d43f 1841 f04d aaba c93f
000001a0: c19b e225 9935 e73f 2878 357a 5c54 a63f
000001b0: c442 9f25 60e6 d23f 52e7 5f66 1a68 cabf
000001c0: 1093 adb1 ec57 dc3f 1f81 e30d 1551 de3f
000001d0: 21c5 a170 1afd d6bf d062 4cbf f2cf e1bf
000001e0: d9d4 35b5 4d9c dc3f 6247 9b71 652b b3bf
000001f0: a7bf 9b1d 5a8b b3bf f4eb 4777 da4e e4bf
00000200: 20d8 9b4e 0228 e4bf b367 3cc9 105a e3bf
00000210: 63ff 02b9 5542 e53f 323a 070e 2b80 853f
00000220: 89e0 29e4 a28b d0bf eb27 cfbd dc87 cc3f
00000230: ab8d b194 9dc9 db3f 9403 bff1 d5de dabf
00000240: 2786 2fed 86d4 cfbf 84a5 1415 ea71 e23f
00000250: e8c8 6460 2798 cfbf 80f0 09ed 95c7 7dbf
00000260: 6db2 0ad1 13d8 c73f a6a0 c423 f892 e33f
00000270: 30f6 bc15 153b b63f bb1a 7aea 85c9 e13f
00000280: 6c56 31c4 76ae d73f 1be2 6d74 e8f4 f4bf
00000290: e5a6 af80 642d e53f 931a 45b8 66a9 c63f
000002a0: fbb9 12fb 6154 c2bf 0cca a5ba b2ba 99bf
000002b0: d03f c2cb e0f3 e9bf fed0 7b5e 3eeb d63f
000002c0: 0dfe 900a 971f c1bf f237 a9d2 4813 b13f
000002d0: e561 58b8 af77 bc3f ddc4 bf6b 3b0d c33f
000002e0: d934 69b3 1d55 ec3f 9081 ccf5 07f2 dd3f
000002f0: cc52 a3e5 e7dc e93f e353 2882 3922 eabf
00000300: 9585 6237 dfb8 d2bf 620e bd19 1cb1 c3bf
00000310: 944f 9909 2d0f dfbf e169 d25d 1c09 a7bf
00000320: 28af a538 dec4 d33f 9dc0 b82c 6711 d83f
00000330: 5ba2 c6cb 9a4e c7bf edf9 2dd6 8036 c4bf
00000340: 6c91 a760 1b8f e6bf 04d6 a973 e969 e1bf
00000350: 573d 455a 4179 e2bf e634 2292 1da5 b73f
00000360: 7d82 6c47 c0f5 d7bf 2992 2a1f b5fe c2bf
00000370: 0a6c c09a 854a c7bf d654 a7c4 eafc c13f
00000380: 50b2 4510 527d e93f 7b19 9cc4 0cdb e8bf
00000390: c130 f9e9 9a05 e6bf 1f69 14ab 5bdf d63f
000003a0: b81d 2e2b 4802 e23f 842b 8d99 55cc c43f
000003b0: dcba b02a 3f92 d03f 7587 c145 4920 ca3f
000003c0: 48d0 eef8 5e0e dcbf 2285 7776 8887 c3bf
000003d0: 0f75 66d3 6406 c7bf 2242 06c2 97a1 a1bf
000003e0: 7f59 ba7b 3c98 dabf 9d35 3a7f 8a84 debf
000003f0: ccd0 f1b3 1f0e b5bf d77d 870e 0f6b e2bf
00000400: d48f 4633 f1d1 aabf a0a9 b778 9920 d4bf
00000410: f8f9 96b9 c7d9 cd3f e89a 4aeb 1d94 cd3f
00000420: b618 da5d a801 e03f a562 4cd0 fe5f e6bf
00000430: 7201 799f 57a4 edbf 0282 cb82 f25a a0bf
00000440: ee39 bb31 59f4 bcbf a75e 972d dd8b cfbf
00000450: 6364 1cbd 6c39 9cbf 481d 297a bbc4 c53f
00000460: 5b94 cdbe 1f38 c03f 2af8 9d42 c61e c7bf
00000470: 149d d7d0 84b0 c13f eb6c 0a41 db63 d6bf
00000480: a4c1 ad2b 48c6 b1bf 4bcc 1493 c7d8 e1bf
00000490: c03b 4e05 9b0d d33f 2648 b84e 6b60 d5bf
000004a0: 5389 6ffe 5e72 c2bf 7bfe 1bd2 4837 e43f
000004b0: 586a 87db d956 e4bf fa4d d227 f84a e03f
000004c0: 7c60 c404 0296 ebbf 1fcb 07e8 90ce cebf
000004d0: 0232 4c7c c68b d6bf b0dc c098 7175 cb3f
000004e0: 2c69 abf2 3c38 ac3f 6e3d 941e b78f c8bf
000004f0: d803 d24b 5ab5 d33f 12f2 8596 f8fb b93f
00000500: 2aba 3207 1861 dc3f a5f9 4369 bf16 e93f
00000510: 3c71 1328 c742 d63f b8b0 1235 7cc1 be3f
00000520: af9e be04 05f0 d6bf e878 ac80 f721 83bf
00000530: 6e2d 80cb 3cc4 c8bf e01c f744 103d bbbf
00000540: 3060 d41c d4a8 ddbf c090 280b 493b cdbf
00000550: b957 e108 64d9 e6bf a47b 8c50 98b2 b1bf
00000560: 4a9c 1fa7 1a7b ccbf dc5f ee89 356a b83f
00000570: 246a 13fb 43e8 dcbf 7b53 2022 b0a7 c63f
00000580: 0037 8fcf 67a5 bfbf b0fc f465 e995 cf3f
00000590: 7be7 bc65 2434 c53f 180a 653a 67de e0bf
000005a0: 4f12 d1cc f11f cdbf 0cd7 b355 05f3 c2bf
000005b0: 5005 94c5 7e93 91bf 8b26 140f 8c44 d63f
000005c0: 819f cd1d 5be8 c8bf ee74 d1d5 0a08 cebf
000005d0: 4c5c d548 9219 f43f e868 211a 3dfc c3bf
000005e0: 735a c212 0768 c5bf 793d af28 76e4 d6bf
000005f0: 8951 a32d 08b5 bcbf 027c 5839 95e5 e43f
00000600: c0d1 7bd2 1583 d7bf c105 c59d df81 d2bf
00000610: f3a7 f4ce 04c3 c93f f457 f122 c490 cc3f
00000620: 769c e7a9 fcbc d6bf 7206 fe18 741a dd3f
00000630: ae56 c45f fdb4 c4bf 2c47 82d9 9f11 bdbf
00000640: cd7d 990c bfec ce3f 9ecc 23d5 eb78 e8bf
00000650: ec42 fccc 6a45 843f e7a0 d51e c536 a7bf
00000660: 1873 9862 f587 a73f edf8 8d12 b0e3 c63f
00000670: 99c3 f4d9 6b7a d73f 1970 9ef6 afa7 a0bf
00000680: 199a 8be0 ad9c c43f 5e1e b83c e34b b03f
00000690: c2a0 927d a69e c5bf 86fc 1d98 b142 d93f
000006a0: 4261 39a4 4952 b8bf 96f4 68d1 9f9a e13f
000006b0: 1850 b18a bb96 d13f 5f5e 19c4 3f61 db3f
000006c0: bafc a3ed 9d57 dd3f 6c4c 16dc f088 bf3f
000006d0: bee6 aa38 2718 aebf 9908 021e 8892 bfbf
000006e0: 6db0 14e5 9e0b ed3f 6a58 3d4a dbb6 dc3f
000006f0: 9d07 1e10 72a8 d53f 80a5 2d45 adaa c0bf
00000700: e595 ccc9 900c b2bf 91b1 60b0 f9e7 eebf
00000710: 185a 3d1f 565e d23f baea 2362 c395 e0bf
00000720: b20d 6fe6 ab05 cebf 9eda 9421 5688 e0bf
00000730: fef6 ec4c df9d f1bf d48a cb1d daae 8cbf
00000740: e704 029c 5d6e ec3f 2e41 b8f6 44bd e6bf
00000750: 082d 1f17 28c7 ce3f 82a9 dbf8 fd57 d73f
00000760: 5856 4e0a fb9f cb3f 49b4 2a96 188f eabf
00000770: c06e 94eb 8349 b63f b7a3 0173 71e1 bdbf
00000780: ea97 2b70 8ce8 cebf 5adc 13ea f96b d2bf
00000790: 8426 fca6 f6e8 dd3f eacb 776d ab29 cfbf
000007a0: a6fa 9d73 3272 c2bf 2e08 88bb 6fed ccbf
000007b0: 0944 eebd c053 cc3f 9537 7866 8f0b ee3f
000007c0: bc83 ab53 7c3d cdbf 22b4 f7de 1189 f3bf
000007d0: 4e97 b1fb 0175 e23f 8b70 aad2 dc31 db3f
000007e0: c0cc 3418 3f7d ebbf 235a f2a7 93c3 e4bf
000007f0: aaa6 7d7b c61f b93f 52e0 e198 e97b a03f
0.5160194277667807 -0.23660910697052742 0.10670120250304277 0.05122491252702237 -0.4495874605457841 0.8093931382367144 0.19129187927374258 -0.9929953661718327
0.09659340304225131 0.5169974052488866 0.07172989582525933 0.1613099405955753 0.03984849167464295 -0.16828838299111698 -0.8024851399593025 -0.23292194546981193
-0.4281594584920524 0.6502456338032037 0.3531838318920406 -0.21344332635762453 -0.16988784858933528 -0.233392880010043 0.41082517227624477 -0.14378088460094646
-0.1972411536619916 0.06355330479866197 0.5507863315373311 0.20345083840248682 0.5528621548950132 0.22745967637912407 0.032262411468300875 -0.13595920807299128
-0.34378379470879883 0.1022490369551601 0.5221177128785601 -0.11083399974079658 0.2135943024899165 1.297087520927145 -0.36933332915997313 -0.540404371833279
-0.5325059788763022 0.1383332374568138 0.3910709268275133 0.0634477905321673 -0.47904847771855585 -0.24953893260455343 0.2123663148465279 0.7025865019898746
0.06365333623113184 0.18297630950793684 0.32093123869085316 0.20100907140341273 0.7252927532143688 0.04361237518126898 0.29531100915941644 -0.20630197523842725
0.4428664908539739 0.4736988673812607 -0.35919819831095096 -0.5566343056007899 0.44704001137081445 -0.07488092444989783 -0.07634509299145852 -0.6346256570535602
-0.6298839125945541 -0.604744332350711 0.6643475163946103 0.010498367658240946 -0.25852272302245943 0.2228961874773739 0.43418063660484546 -0.4198508129884939
-0.2486733110554706 0.576405564473291 -0.24683086592410253 -0.007270417831588216 0.1862816591941682 0.6116905878634682 0.08683902531353094 0.5558499889019325
0.3700234332985477 -1.3097919986740922 0.6617910874749354 0.17704471585803513 -0.14320015677863282 -0.025126259462419795 -0.8110202769912522 0.35810813166541766
-0.13377655044494965 0.06670050757494986 0.11120126963249495 0.148841312038292 0.8853901390190472 0.46789740566057336 0.8082160458676184 -0.8166778127803095
-0.2925336876743015 -0.1538424611736558 -0.4853012651194544 -0.04499138493811806 0.30889087230638035 0.37606219642021604 -0.18208632421489565 -0.15791330774295834
-0.7049691093239239 -0.544178701310273 -0.5773016703696311 0.09236321275439571 -0.37437445616709636 -0.14839805623809468 -0.18196172767861213 0.14053091623524122
0.7965479200189041 -0.7767394866976213 -0.6881842202942822 0.35738269526486194 0.5627785533296707 0.16248579023007548 0.25892619294147123 0.20411029726079347
-0.43837713537073286 -0.1525736406756915 -0.17988262483860537 -0.034435980257630186 -0.41554176409535865 -0.47683966087864765 -0.08224676268747827 -0.575568703057736
-0.0523829817859959 -0.31448971546947213 0.2332086235237083 0.23108266819800538 0.5002023537679381 -0.6992181843116511 -0.9263113131237743 -0.03194387289636681
-0.11310346092361787 -0.2464558098424636 -0.027562808077253097 0.17006629433510967 0.12671276871256762 -0.18062666180407067 0.1381994266259673 -0.3498447547114682
-0.06943179193854704 -0.5577123520546449 0.29770541685223506 -0.3340099591015381 -0.14411532806031832 0.6317485908220556 -0.6356019294428945 0.5091515329135625
-0.862061509428727 -0.24067889527904016 -0.3522812093586084 0.21452159842167395 0.055116562483549764 -0.19188584321134833 0.3079438915665924 0.10150102305301115
0.44342613890595095 0.784026818844542 0.34782580293337495 0.1201398496220375 -0.3583996340116568 -0.00934213029318838 -0.1934886926322678 -0.10640050586436045
-0.46342947783842003 -0.22837174458357445 -0.7140369580690652 -0.06913139311335087 -0.22250683937383747 0.09537062280139658 -0.451676364127396 0.17699243227312053
-0.12361763779992074 0.24676244238250922 0.16565375297232862 -0.5271488323708722 -0.22753736973585822 -0.14804140743915928 -0.017164212044922522 0.34793378326922014
-0.19459094004855262 -0.23462043228474933 1.2562430234009012 -0.15613521362212812 -0.16723717132545665 -0.35769418690775684 -0.11213732828338698 0.6530252571136546
-0.3673758082871039 -0.28917684943379746 0.20126400094278515 0.2231679125422371 -0.35528484909304525 0.4547395938935558 -0.16177336860771646 -0.11355017719531862
0.2415999232789389 -0.7647608912360686 0.009898027783067552 -0.045339736951804537 0.04595915630873132 0.17882347970948534 0.366847002837909 -0.03252935300335497
0.1610314699566551 0.06365795357134504 -0.16890412456019105 0.3946956620711223 -0.09500561007860589 0.5501250352896416 0.27482498687936774 0.4278106131582486
0.45847271163070114 0.12318330167026809 -0.05877802435629807 -0.1233296464215833 0.9076685404047687 0.4486606812473669 0.3384061009784263 -0.13020864370200158
-0.07050423552262648 -0.9658173031689775 0.28700783777949956 -0.5182816426089041 -0.2345480799832394 -0.5166426330459506 -1.1010430340679132 -0.014005378755830668
0.8884723708180474 -0.7106041735405932 0.24045277718537528 0.3647456102613874 0.2158197212526598 -0.8299677784867835 0.08705925466022801 -0.11672123964093727
-0.24147181965889725 -0.28784034594668173 0.46734396273732437 -0.24345915646662714 -0.14411001820913788 -0.22599598557286654 0.22130593561135495 0.9389111520156229
-0.22843889317939936 -1.2209643087073876 0.5767831722157355 0.42491837094144874 -0.8590388748911195 -0.6488741188248394 0.09814110293305114 0.03219537726630563

transformer_encoder.layers.0.self_attn.qlinear.bias f8 [32]
00000000: 7f5a 4035 3604 d73f fed5 e74f 19de c3bf
00000010: c905 d40b 017f e5bf a316 4c48 5f9a d7bf
00000020: fff8 a247 56a4 e93f 842b e34b 62c5 d6bf
00000030: 3085 b21f 2afb 99bf 4716 717c bfa7 d03f
00000040: cef3 1ea4 0487 c63f da2e 6cb3 f44d d23f
00000050: 237f 6de8 c065 c4bf 5867 dc71 162e af3f
00000060: 66e1 cae0 2205 e13f 9900 5210 ca40 c6bf
00000070: 28f0 9ed8 4773 e53f ef4a 43c6 cfa6 e23f
00000080: 9632 d1f7 a1e3 b6bf e42b 1666 936d d73f
00000090: 09cf 7299 7538 c7bf 3795 6c02 8822 d73f
000000a0: 5cb2 ddf9 523f 853f c815 d955 dc3a ec3f
000000b0: 886f 280d 0e04 723f 2fa2 f15c cfd6 e3bf
000000c0: ef3b b5e5 8da0 d43f 0723 2b3b d59e e0bf
000000d0: c40f 868d e524 dabf f825 1a64 20a3 d43f
000000e0: 7462 df95 3988 d33f 05fd 3df1 50b2 e5bf
000000f0: 5e2c d3e9 f936 dd3f 8c57 e750 7ce2 e0bf
0.3596320648224846 -0.15521541978493753 -0.6717534285564223 -0.3687971311595481 0.8013106726791931 -0.35579736147763463 -0.025372179207470313 0.26023852493776584
0.17599542630878634 0.28600804826485915 -0.1593552718068106 0.06089849605468939 0.531876982734542 -0.17385221287623123 0.6703223448635116 0.5828627464601065
-0.08941089916442943 0.3660629746379398 -0.18141050331689026 0.36148262249692514 0.010374687433533918 0.8821851422041442 0.004398398292803203 -0.6199719252882171
0.3222994559518488 -0.5193887858996228 -0.4085019952838105 0.32245645309066573 0.3051895106887408 -0.6780171119461619 0.4564804824301002 -0.5276471691274636

transformer_encoder.layers.0.self_attn.klinear.weight f8 [32, 32]
00000000: 1d0c 06a1 caf5 d8bf 94b7 2e6e 22e2 c23f
00000010: d4a0 41be 9dee dc3f 237c 3915 83a7 b93f
00000020: a7a5 bb36 bd59 b33f 2d93 d3c1 c053 c5bf
00000030: c823 459d 1d54 b1bf 6e4c 536f eb05 dd3f
00000040: 829b f2d9 02a9 a23f 53e3 5532 5b1b c0bf
00000050: 692c aba2 ec61 e8bf 0006 5b2f 840d 773f
00000060: 20f7 5f87 ee24 833f fa66 b1f8 d762 a9bf
00000070: 18d1 4e62 16e3 dabf 1911 b6f4 2505 aebf
00000080: b7b1 7393 9ee1 d5bf 2eb9 184b df05 d1bf
00000090: 8237 eb33 24d6 b0bf c511 dfa6 6bdc e73f
000000a0: ac61 c030 653a debf 0c13 dbdd a685 a1bf
000000b0: 9c50 9e52 cdb9 df3f a2bf 23d4 f705 d43f
000000c0: 7b13 8b7a 3102 923f 4e0b 741c 5837 d73f
000000d0: 6f1d 9590 e173 eb3f 7fab 23e1 cc3e d13f
000000e0: dbc4 89db ec0b c33f 3648 e79e b738 e43f
000000f0: 7ee5 472a e085 a33f d2f8 52ac 497d d53f
00000100: 9c88 0623 c4c4 cd3f 20ac dc49 2fa3 d5bf
00000110: 78c5 769e f63b d13f c0c8 db1a 0245 b63f
00000120: 95b5 4ac5 e32b c53f 09df 9542 b7d1 db3f
00000130: 8c09 71e5 2edb e43f e420 8805 c0ba ccbf
00000140: 4648 bd1c ec2a e63f 4840 3215 5251 bc3f
00000150: 4e88 2ff7 ff66 b33f 3e27 98b0 2b84 c53f
00000160: 0f81 aca5 86f8 e0bf e0e2 df4e 6cc1 d1bf
00000170: ebc3 9227 f6f5 edbf a1ed 30ae cb73 f6bf
00000180: b956 4cb6 3e28 e2bf 590b 82be 2202 c03f
00000190: 7a1f bf6f 7b68 d3bf 71d1 0b1b 7b78 a7bf
000001a0: 24ce a2a0 44b6 c43f 58a4 d284 23ff 913f
000001b0: c096 2b8b a8ea 4c3f 2170 02b3 6a4d ee3f
000001c0: 7c0c f290 f0af d6bf 260e c69a 14e3 cabf
000001d0: 27c4 3737 2575 da3f 096f 5924 8507 e13f
000001e0: 7487 0d96 4938 d23f f12e 084d 165e ddbf
000001f0: 1e85 02df 707a be3f 81bf 93de 61b6 dabf
00000200: df71 7af5 768a cd3f f38e 6fb3 3c9a d7bf
00000210: 517d ebf2 28df b3bf 1094 2f05 29db a4bf
00000220: a79e c88a 0d6c c63f 80e3 0a64 2428 bbbf
00000230: 5556 7b99 40df e9bf 8ba9 f694 2a06 e03f
00000240: f4cc 1416 d488 d4bf dfb6 513a f782 dabf
00000250: 15f4 8eca a2df c83f 3c7a f1e4 8a30 c13f
00000260: cdf5 f8ec 8271 c33f eee7 c87c e667 d73f
00000270: f86d b67a 83e3 e13f f018 83a2 f7a1 b33f
00000280: 2213 2662 25ce b73f 8e54 3e02 b0ad c2bf
00000290: c9f2 f779 7b76 c73f 71b0 b419 6671 e13f
000002a0: 9651 1c52 2cbb b23f 0440 c532 7a31 e73f
000002b0: 1ce8 b443 8795 b6bf 0cd2 eb58 0f7d b8bf
000002c0: 560f 9e31 303f e5bf 94d7 8f89 bea0 c3bf
000002d0: 3bda 3bd1 1662 e43f aa20 59b7 c605 d9bf
000002e0: 47dc 9138 8305 ad3f 0381 e65c d24c e2bf
000002f0: f84a 1c2d 8e08 e73f 2163 1333 86f6 c13f
00000300: ec77 ebf6 b6ed e5bf 92bf 30fb eb28 dfbf
00000310: e474 1e58 0af4 dd3f 1cec 1bff 3d37 e1bf
00000320: 1193 583f 9e9e e0bf 70f3 71b5 0730 bd3f
00000330: 1fcf 2a66 ce56 c43f fc56 86e3 ed51 d33f
00000340: f410 4928 2aad eabf 819c 95b4 9715 dabf
00000350: 5760 74d7 c75d dfbf e06c bc82 3f38 dfbf
00000360: 40b7 e86d 60ef ea3f 0b42 def3 1ae7 d43f
00000370: 15c6 c333 2141 d8bf 4691 9d4c 1e90 dcbf
00000380: 3948 32be 7764 e83f 2d1e b1b1 dadc adbf
00000390: 49d1 2b22 a164 c8bf 0e24 503c 0e08 d73f
000003a0: 8e7c ce73 11da cb3f 031d e451 5f27 c23f
000003b0: d114 3a24 450d c03f 4a47 e186 4483 ebbf
000003c0: d2f9 783b 5be2 c1bf e73b 2a9f 214a ea3f
000003d0: 46f5 c36a 7457 d6bf 0a4b b6ac 22c6 bebf
000003e0: e8e1 1645 c210 d6bf 564c 4972 5b56 efbf
000003f0: 280e c709 d7b1 9b3f 477c 0611 b7fb c73f
00000400: f62b e1e9 2e0c 963f 227b a3c4 caba e03f
00000410: e63a ff44 5bc1 e3bf f298 8e35 0389 f13f
00000420: db8a b721 fa9d e3bf 655c 1809 f4b0 c0bf
00000430: 1e14 8a55 6039 e9bf 3530 2a64 8652 e8bf
00000440: eeea b534 d00a dbbf 5fc6 ce89 f76c e53f
00000450: 6855 a1fe 9a67 bcbf 40a7 a6c4 5f13 adbf
00000460: 788c 628d e1a6 d13f d8b7 f400 964f cfbf
00000470: 6486 8adb 693a cd3f 483b 18ea 48e1 b6bf
00000480: 3f16 b966 ec40 b93f 2b3b cedd c33b cfbf
00000490: 3bef e464 baa3 b63f 2e6e 3d23 be37 e23f
000004a0: a776 4fe3 a2d4 d9bf c490 e3b7 3c1c d5bf
000004b0: 347d 7ff4 8cbb de3f 36be 25db 6493 a5bf
000004c0: eaa4 31b0 afe3 a8bf 21e9 f1e5 560b d5bf
000004d0: 0dc9 8e38 ca0a e73f 423a 74ac 258e df3f
000004e0: 640a 1934 cbc9 e8bf 5c7c ffe1 dc09 a13f
000004f0: 19b6 35f6 807c e33f 8471 bbfb d091 bbbf
00000500: 8266 ac93 1775 c5bf b7ed 76f1 6a49 c23f
00000510: 9fd5 66d6 a243 c43f c5d7 8a1c 8672 d7bf
00000520: e470 8e89 38b2 c7bf 878b d9fc e20a d7bf
00000530: b575 2916 5dc1 a8bf c1cd 1e9f 0a12 f1bf
00000540: 6050 ea3e 0aa0 e0bf 2b61 f97a 1b28 c6bf
00000550: f5c6 af7c f666 eebf 0629 831c c142 d43f
00000560: ba89 04e4 fe8f bb3f 2a71 cf9c c42a b33f
00000570: 7cbd 6c85 26d1 c03f 1000 43fb 3ae6 953f
00000580: f60a 3014 4b23 c1bf 1898 ab13 422b e3bf
00000590: 40d8 cc2c 1742 ba3f 94f9 846c ce92 c53f
000005a0: 57a0 0a9a ca73 d33f e8bb 0fc2 99eb 9a3f
000005b0: be3d 44d4 9223 c8bf d099 7824 922d b5bf
000005c0: d4da e854 e613 a73f 4b45 6839 da5b e7bf
000005d0: 3cc4 5502 d4d2 d5bf 5302 30b8 8182 b3bf
000005e0: d3a3 c05f 064f e83f a446 382c 1f9f cdbf
000005f0: cd32 9087 00ce b23f c2c9 f0dd ce61 dcbf
00000600: ba83 da52 5be4 e0bf eace 5ac6 c5c5 e7bf
00000610: c377 8d32 9bf8 d8bf c041 68f8 2f11 d13f
00000620: 90ca e925 f80d d93f 160f f368 9b03 b8bf
00000630: b8aa 20f7 4695 87bf db4d 2488 df29 d53f
00000640: fc66 2152 be9f b43f 182c 517e 3c9c d6bf
00000650: 28aa 6333 5b71 ea3f ce83 6c20 e6b3 d3bf
00000660: b39b e71c 0dbd e53f dadc f34c ae31 b9bf
00000670: 092e d4bb 392a c8bf 2289 2de6 3b14 d93f
00000680: 7cd1 6334 9142 e43f 54f9 f365 a487 c53f
00000690: 67c0 d701 221b e33f c077 fe8a 03d4 c53f
000006a0: 02e5 482d 856d e23f 89a6 c768 f619 d73f
000006b0: dbdb db70 0bdc e4bf 70fd 2fe3 12e6 c4bf
000006c0: 6a88 e1e8 7b57 c4bf 084c e72a c12a cbbf
000006d0: cf15 afe0 4104 c2bf 5f79 026d 8491 f13f
000006e0: c25c 2d46 c8f2 d93f cc23 cf12 3db2 b93f
000006f0: 2304 833f 52c4 b3bf 20ee 5d80 bca1 d6bf
00000700: 4c0f e93d 7920 c5bf df79 883f 4c21 cdbf
00000710: e74d 7543 2813 e0bf 58ea 3222 0d0f 9bbf
00000720: bb85 af55 c88a d63f 6499 b766 bc10 d03f
00000730: 7c4f 4127 bbb5 d73f e6b4 fb00 8a67 cdbf
00000740: 3c3f 3c34 c915 d6bf 705b a9e9 af90 cb3f
00000750: 7e28 83af 36b8 cb3f ea71 5242 455a b0bf
00000760: a385 0f0a 1751 c7bf 9146 b391 f773 e2bf
00000770: d1d5 480d 5ce7 c23f 875c dc1a 0a6e ccbf
00000780: 2fa7 6e84 b2b5 eebf 4cff 1820 316a b5bf
00000790: 90bb a1f6 2452 f3bf 185b ec95 629c ce3f
000007a0: 53d6 8a53 b05a d4bf 9a3c a301 208b 923f
000007b0: baea bfaf 40c6 cf3f bede 6258 3418 c13f
000007c0: 8978 7025 e80c 9abf e26a 677a e5c4 d3bf
000007d0: 16b3 c247 bc3d bd3f dafe 233a d9e4 b73f
000007e0: 2c08 94e7 1f97 c5bf badf 07f9 e2f7 a23f
000007f0: 138a 4d5b d62c d33f 2548 101d de08 e63f
-0.39000192379916304 0.14752607707981424 0.45206397609446225 0.10021228092362881 0.07558806024794383 -0.1666184374254497 -0.0676897534332418 0.453486307827183
0.03644570265287596 -0.12583484609401782 -0.7619536568758011 0.005628124568546777 0.009347785478890425 -0.04958224211504887 -0.4201103172338363 -0.05863302814671751
-0.34189571761705956 -0.2659834130635258 -0.0657675387148782 0.7456568011480661 -0.47231416474235277 -0.034222807485582235 0.4957154566593631 0.31286426274072643
0.017586491684386623 0.3627529409279092 0.8578956436039514 0.26945802675498237 0.1488014289821312 0.6319234946806833 0.03813076511500933 0.33577195957685746
0.2325673266432816 -0.3380850049313171 0.2692848727702635 0.08699048190809133 0.16540190823927206 0.4346750402687439 0.6517557603149711 -0.22444916029076645
0.6927395402256102 0.1106158544300807 0.07579040322119221 0.16809602854510247 -0.5303376422707816 -0.27743060782044715 -0.9362746022144369 -1.403270416673742
-0.5674127159606633 0.12506517698428857 -0.30325208580733654 -0.04584107117799164 0.16181238025238642 0.01757483957468184 0.0008824656455003951 0.94695029223249
-0.3544885077937534 -0.2100549464922647 0.4133999861942947 0.5321679792354824 0.28468551305387924 -0.4588676216378494 0.1190557999093653 -0.41738173233078874
0.2307881067871582 -0.36878888628983403 -0.07762390070592075 -0.04073455990127439 0.17517251278444698 -0.10608127062267947 -0.8085024831477293 0.5007527265018309
-0.3208513465535383 -0.41424351401552245 0.19432482615039307 0.1342939012419765 0.1519015938846863 0.3657165735818343 0.5590226551752826 0.0766901752241187
0.09298928877076354 -0.14592552289528665 0.18330329375739599 0.5450926305834526 0.0731685352769261 0.7247897140132413 -0.08821912196154397 -0.09565826340605826
-0.6639634102907432 -0.15334302632225827 0.6369737707708006 -0.39097755341618756 0.05668268266247672 -0.5718776525937134 0.7197943574013541 0.1403358220475406
-0.6852679083492581 -0.48687266855540046 0.46802004437797806 -0.5379934294318249 -0.5193625676371046 0.1140141313534977 0.158899116407718 0.3018755647584468
-0.8336382662605772 -0.40756790766904066 -0.49009891548621937 -0.4878081108779053 0.8417207857762392 0.3266055470967621 -0.37897520117903244 -0.44629628641111585
0.7622641291402551 -0.058325609389211365 -0.19057096642030505 0.35986667528101257 0.21759241251581724 0.14182654856288232 0.12540497082605964 -0.8597738870978244
-0.13972034839566888 0.8215492352190922 -0.3490878145820101 -0.1202108070049627 -0.3447728800488492 -0.979291651931258 0.027045593234801185 0.18736923533740166
0.021530850434185532 0.522801765498887 -0.6173530910108098 1.095950326163401 -0.6130343111547875 -0.13040018505191422 -0.7882539435091791 -0.7600738483756745
-0.4225349917175397 0.6695516292149469 -0.11095589367444847 -0.056788437609908815 0.275810611792799 -0.24461627051044732 0.2283451387384502 -0.08937507357789543
0.0986469031132282 -0.24401138620711413 0.0884357925723948 0.5693045318871037 -0.40360328863412537 -0.3298484607496557 0.480197180526335 -0.042140151740451534
-0.048612108476683805 -0.3288171048694882 0.7200671295779856 0.493050974285243 -0.7746330277953573 0.033278372371335435 0.608948212507758 -0.10769373079114614
-0.16763586722008844 0.14286553182851744 0.1583140894778525 -0.36636498248423904 -0.18512636868115984 -0.36003946964608996 -0.04835024734050412 -1.0669046607625747
-0.5195361355604398 -0.1730989790401137 -0.9500687060628638 0.3165743616524569 0.10766594950522448 0.07487133816124883 0.13138276591187636 0.021386071763799974
-0.13388956533170643 -0.5990305313287108 0.10257096141580835 0.16854267405319645 0.30394234698406336 0.02628937003094825 -0.1885856186349723 -0.0827266062775387
0.045073697915020056 -0.7299624558674308 -0.34099292972593154 -0.07621012446180346 0.7596465940633784 -0.23141851100131305 0.07345584211015961 -0.443469731081816
-0.5278755777582014 -0.7428921579471226 -0.3901737207105464 0.26667403467675044 0.3914776201483301 -0.09380503952257543 -0.011515192429290763 0.3306807355413334
0.0805624914659368 -0.3532859071316934 0.826337433213955 -0.3078551594390405 0.6793275417847923 -0.09841431978917417 -0.18878862067536797 0.391859984191017
0.6331258795967609 0.16820197084593735 0.5970621143333233 0.17053264891450048 0.5758691677539505 0.36095962746058113 -0.6518609241746803 -0.16327129452836742
-0.1589198004831503 -0.21224226565263415 -0.14075492354292726 1.0980266817274111 0.40544325688592775 0.10037595471580046 -0.07721437502461063 -0.35362160240012663
-0.1650535156533074 -0.22757866956904046 -0.5023385350745543 -0.02642460366471719 0.35222061507928587 0.25102148085570364 0.37046698411472057 -0.2297222618866847
-0.34507970906360064 0.21535300168281024 0.21655925340593635 -0.06387741917792025 -0.18216217032663193 -0.5766561361035248 0.1476855339875969 -0.2221081381946741
-0.9596798502509268 -0.08365160974153446 -1.207554782300324 0.23914749451133654 -0.3180352035372824 0.018108844852403473 0.24823769170310134 0.13355116191609356
-0.025439860615840835 -0.3088926024771991 0.11422325851408419 0.09333570165108132 -0.16867445762187694 0.037047474765074154 0.29961165348336855 0.6885824744842962
