experiments/fl_train_noise_0.5_max_grad_norm_5/20250426/model_round_22.pt (torch, 62806 bytes, 25 tensors)

embed.weight f8 [32, 8]
-0.5212875039564078 0.5640191907892559 -0.7401792343645357 0.08883124474759319 0.3784776643854069 -1.4218260780226453 -1.5974523853096092 -0.9348419175944574
0.4947334677597412 -0.3860850926821576 -0.4763256372996137 -0.9979442342586711 0.19439190015136182 -0.7648391582802812 0.6915483560085061 -0.9875288725820105
0.2766483578878126 -1.1603634555696716 1.3851112145367181 1.3876637397551677 -0.02492987557768353 -0.8435512007622797 1.4536368111949232 -0.40281685044279586
-0.8437730724171196 -0.29297852642521716 -0.608468522212204 1.511539166341441 0.2790829766853603 -0.760086450516933 -0.09878322944096793 0.08538740533732424
0.15310705435200964 0.49028353415368264 1.0152789840158305 0.8068215899060528 -0.21286139189395262 -0.8787514171001422 1.0900717949345464 0.565393502782723
0.8847185415654468 0.3254450485340377 0.016793495119466012 0.5965358475841008 -0.36642787317039704 -0.7543526583720858 0.4244603609976827 -0.45868542207248747
-0.6819714033350676 1.8549586124139794 0.26434659015878675 0.8151653309296172 -1.8421768390647686 -0.899493488156933 0.10780572815474959 0.016935380921795893
0.9826032516117327 0.41360137102073863 -0.14746661892210708 1.7425067492527673 0.9706207647405052 -1.5340516774377035 -0.7186783338598723 -0.2232326465024549
-0.11648953113394314 -0.226015259407041 0.8410165877374944 -1.3303805017840604 0.6127218119929312 -0.26717289576040343 -0.4039567140123684 -0.6409391789285922
-0.158742105509634 -1.3042634385744636 -1.3031494863155617 1.0402611547501948 -0.6272071380135559 0.8469572553264192 -0.8120552779100971 0.938247064167571
0.07320536092555262 -0.16507782338376809 -0.33267405445144893 -0.3108686600346693 1.2529700322704236 0.9127589665069535 0.9353384793610524 -0.8254094784367
0.5899564759855642 1.272233033713297 1.1211943684465193 0.9719948415003262 -0.7879033946877073 -0.46218744317118515 -0.42179547448728955 -0.03741341129352316
0.23392876429571757 -0.6638925097385928 0.7420784934953011 1.2535490921452448 0.09376035612414496 1.543315255710278 0.12712541034872438 1.0393225383304343
-0.29958087685936563 0.6385147814940768 -0.3775341078066513 0.47434800679620553 -0.27925246427280115 0.0007429122379462166 -0.003972889185031213 0.6309539825969311
-0.17028211591295034 0.9509769212106872 -0.7415331064054506 0.29213051334033424 -0.9777956908631225 0.43232415206031827 -0.18827753762240598 1.5040623419935741
-1.1649764816196633 -0.9266197171624718 0.7228073415745981 -0.06808722921093181 -0.18788332231740587 -0.38600434389407795 -0.3300232752625595 -0.7265731745649199
-1.7922916393515995 1.9476023105802447 1.0483081191394834 0.8809651065794233 -1.0084776017553934 0.5530270920435982 -0.5444370717913546 -0.6245391698279097
0.5824744298863738 -0.03796014339251276 0.274575134051545 0.8434688564693585 0.7699810189186594 -0.5772096747753779 -1.3475684136816388 1.11853797513284
0.7070028758074475 -0.17866547818871598 0.9075713789753245 -1.7203064604435279 -0.7376049372891424 -1.6556084553932258 -1.5108488480515214 1.7104500387611763
0.5938470522676011 0.5500230231227969 0.11783796697431878 -0.3644186244808078 0.58182431819974 0.4281651017758941 0.5941622382567077 0.282469510147262
-0.021106647927043677 -1.4579217300529355 0.08050725151311475 -0.33751639061435423 -0.2136082462146417 -0.5395392381452229 -0.2856857974151741 -0.3741033499987777
-0.2775106056783954 -0.5442736091409347 -0.5409759456794242 -0.443277220366885 -0.1518024150504768 -0.5780938855024812 -0.486751200255381 0.04299209383092206
-0.09155235539685846 0.2566550592284782 0.6741286176349591 0.673336602731711 -0.2812762075201074 0.07622500480636718 -0.2870504790920652 0.17171865881113652
-0.6540396655529016 0.7872282734189949 0.4504912785598039 0.8935036780244648 -0.7999914906261604 0.7139025746055793 0.23303366242072296 -0.34853079676878373
-0.11790269526296134 0.014813395410039877 0.6983021019304104 0.008277832265121611 0.550343128109078 0.45315111352360465 -0.37562709683899154 1.453286147963841
0.23503997729262044 -0.02298929758672888 -1.0584746527560345 -0.45342803281187793 -0.9574054883959872 -1.143191283801272 -0.23845594859205443 0.7545404293961582
0.5708838216315824 -0.5196960046494763 1.388881263656022 0.35214359893951175 -0.36512536790864736 0.49897009868639486 0.7153277590593164 -1.4560067102658127
0.07010861597942686 -0.5115295493058085 -0.456864036940564 0.5397172738721265 -0.3354863049980807 1.2565341254620104 -1.4978006122173202 -1.3346717534135704
-1.2193222935652435 -0.14775110935461502 0.9910006513305669 -0.7682340737488651 0.10931856232714138 -1.3048420555649392 -0.018848406433495366 -0.3976173033336252
0.23064759277334357 0.3368611081088631 1.1195168274313456 -1.613185367539835 0.5027613348794884 0.8236167206881636 -1.662286568654621 -0.5108412321147306
1.0551512401230276 0.10079892786489861 -1.3367210322843281 0.09804116030284357 1.131841053459621 0.9475918776686336 2.26563058799659 0.06629678384411442
-0.43870563649248906 0.3277342019573059 1.4185220959575242 0.9525619334238011 -0.45479552908087373 0.6111562832092694 -2.157576809746375 -0.3894970731289771
00000000: bccc a921 63ae e0bf 1b33 58f9 710c e23f
00000010: 9cc4 985c 8caf e7bf 60cb 0dfb a4bd b63f
00000020: 7950 b361 fa38 d83f b750 9bb3 ccbf f6bf
00000030: c226 7d3b 2a8f f9bf 9df0 df98 39ea edbf
00000040: cff1 1090 b6a9 df3f 72c0 a23f 9eb5 d8bf
00000050: 49af 9c86 1e7c debf 9ced 2bbf 28ef efbf
00000060: 5ef2 e072 d5e1 c83f 7c72 70f8 8f79 e8bf
00000070: 5617 9504 2a21 e63f 390e 7326 d699 efbf
00000080: 52b2 6750 9bb4 d13f 1a53 5245 d990 f2bf
00000090: f320 7c60 6a29 f63f fa7e c1e4 de33 f63f
000000a0: 18b0 32a1 3787 99bf 13d1 7816 5ffe eabf
000000b0: b480 45ac 1842 f73f 717d bb53 c0c7 d9bf
000000c0: eddc e862 3000 ebbf 144d 5b01 29c0 d2bf
000000d0: ed7f 71fa 9278 e3bf 18f4 60b1 432f f83f
000000e0: 16f9 6ed8 7edc d13f 5d4b e3d1 a052 e8bf
000000f0: d69b d793 db49 b9bf af02 6af1 f2db b53f
00000100: 8748 9d0f 0399 c33f 7c45 3d30 ce60 df3f
00000110: 26a0 0a2d 953e f03f 954d cb82 7bd1 e93f
00000120: 11fe 61c6 0a3f cbbf cf47 b84a bb1e ecbf
00000130: 0793 581f ef70 f13f 6653 7a1d b417 e23f
00000140: 7607 4642 9d4f ec3f 2553 0678 17d4 d43f
00000150: d868 4b61 5032 913f c77d 8858 d216 e33f
00000160: 2e05 e7e4 8d73 d7bf 097b ab2f a823 e8bf
00000170: d8bc 3bca 5b2a db3f b502 bd19 1a5b ddbf
00000180: f133 44b1 b5d2 e5bf 7a06 fc14 e9ad fd3f
00000190: 75a1 e2f5 0deb d03f 869f a59a d515 ea3f
000001a0: 9ab5 d36b 8e79 fdbf ee2a 5391 a6c8 ecbf
000001b0: 7401 bffc 2799 bb3f 5952 d12c 8257 913f
000001c0: 6ab3 d35f 7c71 ef3f 7359 87e2 7178 da3f
000001d0: a3d5 c2a8 2fe0 c2bf 3999 d1c1 4ee1 fb3f
000001e0: 9a20 2c47 530f ef3f 8680 8fc5 798b f8bf
000001f0: 94b3 88b4 69ff e6bf 4c54 102a e392 ccbf
00000200: e2f1 8b06 42d2 bdbf df6c c669 11ee ccbf
00000210: d43b 779e 9be9 ea3f b460 a610 3d49 f5bf
00000220: a8c6 01c6 6a9b e33f 85c9 6a58 5c19 d1bf
00000230: 21b2 eb42 6dda d9bf 0f26 87e1 9282 e4bf
00000240: 5dbe d44b a951 c4bf b4bb e056 43de f4bf
00000250: 8164 9846 b3d9 f4bf 7338 6fe1 e8a4 f03f
00000260: 5bc0 32b4 1412 e4bf 9f94 171a 461a eb3f
00000270: bc60 a559 5bfc e9bf 0d5e 05b5 1e06 ee3f
00000280: 172f 1127 96bd b23f f433 5d26 4521 c5bf
00000290: 4630 061e 884a d5bf d8d0 0caa 45e5 d3bf
000002a0: 3683 f74d 2a0c f43f 66e6 c84a 5235 ed3f
000002b0: 9479 71f6 4aee ed3f 9b35 7623 c169 eabf
000002c0: 2c7c 4d67 ece0 e23f 1808 8b06 115b f43f
000002d0: abfe 8e81 69f0 f13f c3fc 03ed 941a ef3f
000002e0: 27ea 122e 8136 e9bf bfb1 42a4 7a94 ddbf
000002f0: 7b84 2172 b2fe dabf 40fd dfc3 d927 a3bf
00000300: d234 1fb4 60f1 cd3f 2c5f 2c81 9b3e e5bf
00000310: 9212 9465 1bbf e73f ec1b 2b7e 890e f43f
00000320: 84ea 36bf ad00 b83f aa18 6b56 6bb1 f83f
00000330: e41b f83b a545 c03f aeff 81ab 10a1 f03f
00000340: f68c 2745 552c d3bf dcf2 108d b66e e43f
00000350: dedc 89d1 8429 d8bf 0333 07be b75b de3f
00000360: 0043 58ba 45df d1bf 80fc 04e2 ff57 483f
00000370: d8ea ec51 e045 70bf db1c 1168 c630 e43f
00000380: 764b 78eb cdcb c5bf b138 fb26 676e ee3f
00000390: d334 1da3 a3ba e7bf a477 3d2e 44b2 d23f
000003a0: a6a8 4d30 1a4a efbf 0cae 97eb 32ab db3f
000003b0: 316f 5475 7a19 c8bf 001f a0ac a310 f83f
000003c0: 4ba6 1261 bea3 f2bf ad54 a164 dea6 edbf
000003d0: 26e4 abdc 3c21 e73f 2178 bc26 2a6e b1bf
000003e0: 3f96 688a 8f0c c8bf 69e5 4890 4bb4 d8bf
000003f0: d6f9 8af1 191f d5bf 0708 dd62 1640 e7bf
00000400: af8c 7eff 39ad fcbf 23e6 580a 6129 ff3f
00000410: 9b5d fdbb dec5 f03f f89f 35bc dd30 ec3f
00000420: 599b e468 b922 f0bf b422 44df 65b2 e13f
00000430: 295d 424b 076c e1bf 6a6b af91 39fc e3bf
00000440: 76c8 636a a1a3 e23f 6239 d80c 836f a3bf
00000450: f8f4 4295 a392 d13f 8b5f 3766 b2fd ea3f
00000460: 1b7c d93b afa3 e83f 9a0a 836c 8078 e2bf
00000470: ef29 9ee5 a38f f5bf 4779 6813 88e5 f13f
00000480: 83ab b87e c49f e63f 8653 dfa8 82de c6bf
00000490: 2d82 ef21 d30a ed3f 513d 2b11 6086 fbbf
000004a0: c8cc 60ab 759a e7bf d651 ae4a 5f7d fabf
000004b0: f749 79d7 6f2c f8bf 2cbd 1edc 005e fb3f
000004c0: 5817 8a88 cb00 e33f bc80 0be2 c999 e13f
000004d0: 6ebf 6106 a12a be3f 2bb2 8c7e a252 d7bf
000004e0: a4ee 5508 4e9e e23f 5d9f 5a99 0e67 db3f
000004f0: 4195 ba86 6003 e33f bfc6 0cff fa13 d23f
00000500: 8aa2 4c2a fb9c 95bf 1548 6bbc a553 f7bf
00000510: e6f4 568c 1f9c b43f 025e e358 de99 d5bf
00000520: 2ceb d2d7 8357 cbbf 76c2 d7ca e743 e1bf
00000530: 541c 3515 ad48 d2bf 1667 642d 4ff1 d7bf
00000540: 99a3 ebd7 bbc2 d1bf 29c2 ea7c b06a e1bf
00000550: a1b4 53c9 ac4f e1bf 5267 226b a75e dcbf
00000560: 263d 0cf4 426e c3bf f105 88bf be7f e2bf
00000570: cead 9881 ee26 dfbf 4012 fb49 0f03 a63f
00000580: 7020 4da4 f96f b7bf fc4f 6f57 096d d03f
00000590: 5b46 c12d 7692 e53f 93d6 fd33 f98b e53f
000005a0: f845 1cec 6d00 d2bf d8e1 c75e 7b83 b33f
000005b0: 6d19 00f9 085f d2bf de78 da83 e0fa c53f
000005c0: 87c4 ba97 e4ed e4bf b146 1a59 f930 e93f
000005d0: 9d0b 235f d9d4 dc3f b710 7f06 9597 ec3f
000005e0: 2f2a 2ac1 8799 e9bf d9c1 4e36 4ad8 e63f
000005f0: ef67 7b0b 0cd4 cd3f f253 711d 544e d6bf
00000600: 9dc1 43fc de2e bebf b475 a146 7c56 8e3f
00000610: 0d9d 50a6 7d58 e63f 943e e2d6 f7f3 803f
00000620: 8ad1 1931 699c e13f 1db6 2e87 6d00 dd3f
00000630: 9e8d 1a3c 460a d8bf 92c0 d3f9 a840 f73f
00000640: bab8 dc3b ca15 ce3f 680b 2ca5 818a 97bf
00000650: c8b6 131e 83ef f0bf 7a10 0103 f704 ddbf
00000660: 577e b5d5 10a3 eebf c0fa 8ff1 824a f2bf
00000670: f4a8 5e7a b985 cebf 8085 78f8 3125 e83f
00000680: fe23 f725 ae44 e23f 8a9a fa83 59a1 e0bf
00000690: 54e0 568f db38 f63f 6a38 3c4e 8589 d63f
000006a0: 0ee3 86ca 365e d7bf ae8e e247 20ef df3f
000006b0: 5b95 620a f7e3 e63f 4892 35b1 cd4b f7bf
000006c0: 80a9 cc64 a3f2 b13f 1a98 a637 735e e0bf
000006d0: 6235 58a8 423d ddbf f2be 0b29 5d45 e13f
000006e0: b33f 0e8d 9b78 d5bf 3ead f286 c31a f43f
000006f0: 486f 56c6 fdf6 f7bf 72e6 bcc4 d05a f5bf
00000700: c957 e217 5882 f3bf ed19 5023 82e9 c2bf
00000710: 88f1 78ff 46b6 ef3f 4693 cd9f 5f95 e8bf
00000720: 8472 0a22 4dfc bb3f 9c8c 3110 a2e0 f4bf
00000730: 59b4 da24 ff4c 93bf 8010 89d8 8f72 d9bf
00000740: e06a ee3d dc85 cd3f 01cd a7e4 218f d53f
00000750: 983a 127a 8ae9 f13f 6282 bf75 9bcf f9bf
00000760: ca05 60f0 9e16 e03f f76b f973 115b ea3f
00000770: fc39 0fcd b998 fabf 1432 2cb6 cf58 e0bf
00000780: 9098 4a44 e6e1 f03f 6ecf a662 f5cd b93f
00000790: b595 d897 3563 f5bf 96a0 29b9 3919 b93f
000007a0: 7311 4e5d 051c f23f 2e58 9133 ac52 ee3f
000007b0: d019 02ee 0220 0240 80c1 7076 d3f8 b03f
000007c0: 3897 53ce c013 dcbf 87fc cbdf 98f9 d43f
000007d0: b1a7 ac39 44b2 f63f 3c08 ef29 637b ee3f
000007e0: 5a3d f1b4 5e1b ddbf 861e 249f 978e e33f
000007f0: e3bf 63a1 b742 01c0 e081 be21 85ed d8bf

embed.bias f8 [32]
-0.016670807045010286 -0.29373935721744526 1.3191192266354865 1.3721388188041277 -0.1652817054297996 -0.16845789068680164 1.3306637302086861 0.5692993354497092
-0.5197383770279282 -0.5409628604976044 0.8508416777093487 1.1360180333233225 -0.46407773641538635 0.38650693557714244 -0.2177806669716497 -0.3065113407949877
1.1132729706831104 0.18349359122927317 0.15379956895651484 -0.2896635074140316 0.974485623416055 -0.42926847863757445 -1.1614240274511316 0.5929419288906251
1.5410786607175593 -0.19134412861560463 -0.9325281609695651 -0.7639344811862757 0.47081771395161925 -0.1579040591282742 -0.6604734399320631 0.4623754813361268
00000000: 7198 39ec 2612 91bf de01 3329 a0cc d2bf
00000010: a2c9 1ec3 1c1b f53f 6e5f 85d5 47f4 f53f
00000020: 2d5b b96f f327 c5bf dd60 a035 0790 c5bf
00000030: c983 330d 664a f53f 5b83 6c3d b337 e23f
00000040: 48f4 7960 b2a1 e0bf a202 4658 914f e1bf
00000050: cdbb 7a53 183a eb3f 77a3 cc3e 212d f23f
00000060: b52b 2d1b 73b3 ddbf ccc8 fe95 87bc d83f
00000070: 1d12 2ca5 3ce0 cbbf 4753 24be e19d d3bf
00000080: f5ac 8951 f7cf f13f 267b adce b77c c73f
00000090: f94f 674b b4af c33f de06 ccce d889 d2bf
000000a0: e6cf 5f79 fc2e ef3f 80ee 3c7f 2279 dbbf
000000b0: 390f 6b5c 3195 f2bf 8565 205a 61f9 e23f
000000c0: bf86 0519 42a8 f83f 0ac3 57e3 f67d c8bf
000000d0: 67d3 3e4c 45d7 edbf c16a 9fb9 2672 e8bf
000000e0: 152e f39e e021 de3f 8448 ee40 3336 c4bf
000000f0: 8a50 0c32 9922 e5bf 2ae6 b354 8f97 dd3f

pos_enc.pe f8 [1, 12, 32]
0.1185963608472215 0.9277865695300441 0.7852809207448617 -0.3936818819094179 -1.112027992279436 -1.493720826796224 -1.460796240979054 0.9204528180612519
0.04230877867082312 0.15432637392882104 0.4697942183507887 0.23460073067994905 -1.2892772090281752 0.3190599857554557 1.5617444880131508 1.4298636738659034
0.9049766080922511 0.5271114626512882 -0.6920066246309468 -0.512416178808131 0.20121544037623323 0.6693645369527934 -0.1242158810633637 0.44768834636490784
-0.24999447841582279 -0.5011237754592199 -2.452529631165072 0.7533164315939677 0.07835385305004525 0.6386030248601178 0.25480053592366997 -0.901538947210586
-1.5338103837595145 0.3750788555062663 1.9880142864281185 2.0635894660126013 -0.8145757539176378 1.1251207711077404 -0.41209947776589445 0.6084463336898069
-0.5364253496929396 -0.41906042295240464 -1.0306596266797006 -0.022848130892192047 0.24894821071738937 0.08225624012436039 -0.5925292923157498 1.805752140620278
1.474666744972121 1.9776459337355643 -0.355810774420203 0.9351214282195296 1.385545778635061 1.4051292099259716 -0.2688396118372147 1.0695401063372603
-1.5218921945798842 1.2797306461983566 -0.6969793897818481 -1.0167714391511704 -0.4156707031769839 1.1969860557446952 -0.9166400557017748 -0.16522744567902242
-1.1235725912394978 -0.8589368776038354 -0.3092037583886193 1.1282895323086604 -0.04377197494406951 0.286725256509224 -0.3546923294673419 0.7374729203833303
-0.15447025959137803 -0.7956350557981227 -1.1430035843353055 0.45424458362799314 -0.2625196820866824 -1.0993705965264935 -1.049317602473394 -1.7418617835971866
-0.6946400738818858 0.4374827410918908 -0.12243372061911292 -0.1380138729908188 -1.2811244713829881 -0.5485085752876474 0.06438758590192796 2.557132097943136
0.15746037544900598 -0.40330359894355844 -0.614095975140936 -0.926756870654268 -0.9457799788585458 1.9963994923890902 1.257195786718752 0.25721827484648485
1.42861169526581 0.23283030630360863 -0.271120064582444 -0.012073610903393928 0.7832939245249074 0.8670753145478857 0.4994639844412774 1.0160686237344883
0.5885242926744667 -0.6912052576487123 -0.8298163131167998 -1.073228829358809 1.2550957385782184 -0.7389437917359257 -0.9289227341806833 -0.7484959463896378
1.2922946227777092 -0.016682972356650644 -1.4011849551789755 -0.026007155179396453 0.8964468853036199 -0.48427800207419236 1.1688016096749747 -0.49553183763961417
0.7241543100962752 -0.9081061915013449 0.11073104115094981 0.538801393933416 0.17277348654902314 -1.5184598192961243 -0.07065761714855749 -0.7381764233043622
0.6127718064081048 1.7758345721656303 0.2510298413197011 0.16971049327497928 0.5649593955090061 1.4876251166452312 -0.5148483115741654 2.680153470234516
0.7737353252886268 0.0858174404196359 0.5010931309139546 -0.6376024684859402 -0.19889332651921415 -0.009810859999508911 0.13908286785569898 0.4671825479579108
1.4229321391318321 -0.05580967963085162 0.5176318759237128 -0.4307921779853803 -1.0401337081925317 -1.353923026006297 0.40030138733884124 0.5516534719152805
-0.001421555810440768 0.4968584676297127 -0.6124439343024614 -0.002069743826952977 -1.1699946197211586 -1.0092446378296993 1.7126300536953336 0.5673302136718671
0.3562241513141049 -1.5753998728735972 0.4291489604001922 1.0298647157618555 -0.3524136809760222 0.7206464160277598 -0.10775657082520398 -0.28197630421517406
-0.4810718075351031 0.571296065620599 0.9129246647816602 -0.4318521927488926 -0.6061111925717457 -0.8209614519745151 0.5385828138406513 -1.3980394203628974
-0.3851386546346627 0.8265868919395949 2.369583873022911 -1.3302540323098 0.4491718133034261 -0.793233497655944 -0.8706806352907539 -0.8006844876903733
0.8557652153908489 1.4292874906527107 2.1184920948510495 -1.6663914094684982 -0.8549388331270699 -0.04123304160382303 0.6119866622374104 -0.28308716861043687
-0.6634981786486177 2.430960966255537 -0.11830567595527358 0.6741884969553041 -0.5746746384484569 -1.1659179456146977 -0.5514392928956534 0.9531063830279328
0.7032245572095632 0.7241159580192785 0.1285286981238051 -0.3595766321596027 -0.6210749971944319 -0.10045175186334632 1.015693245307561 -0.7719029168671052
0.5793138923121666 0.34485544157391607 -0.3240380134965616 0.1502089753950222 -0.22027816349621998 0.03407904330787814 0.052789637033768474 0.676220597226203
-0.3221824730568823 0.05145155659826961 0.5512882432666582 -0.5937547042417931 -0.5986286676224306 -0.06818378026499752 0.2827895625206116 -1.317066883297741
-0.7147530396224517 -1.1616969684210607 -0.4918117073348293 0.07109089202366331 -0.8062007773713441 0.6210364211950712 -0.5808164751079221 -0.7221393337929563
-0.8164469851362444 0.08356887969835411 -1.7819786162958293 -0.44141405787194576 0.970402153625539 1.2647160977011926 -0.7311431913580065 0.31419178153768984
0.542210833422183 2.039657395587343 0.872601754126219 0.6744866415188826 0.08318696583927372 -0.5595146019788119 0.2836230879658645 -0.8878114468734613
0.8630235622239582 -1.722338676002857 -0.4454801412285803 0.040072261866093056 1.3217949865521226 1.5517383418784578 0.12577254154674122 1.492061482146239
00000000: 3a70 43c3 545c be3f 1396 b975 6db0 ed3f
00000010: ceb3 1874 0521 e93f 2809 f57d 1532 d9bf
00000020: 3d3a 31dd ddca f1bf 101a 47cf 47e6 f7bf
00000030: 11ff 11e1 6b5f f7bf 12b1 e277 5974 ed3f
00000040: 7924 7309 7fa9 a53f 729f 7774 f7c0 c33f
00000050: 46a8 eac4 1b11 de3f c5ac f190 6507 ce3f
00000060: 1311 8423 e1a0 f4bf c80a 1293 7a6b d43f
00000070: 9098 cbc9 e7fc f83f 23e1 4fbb b8e0 f63f
00000080: dbd6 ec80 91f5 ec3f 65e3 addb 18de e03f
00000090: edf7 ac13 eb24 e6bf c082 3d9d b665 e0bf
000000a0: 52de ee73 6dc1 c93f d20f 6a2d 6f6b e53f
000000b0: ea9b cfaa 9ccc bfbf a201 9c05 eda6 dc3f
000000c0: 28ff 7cae d1ff cfbf 7e0d 5bba 3409 e0bf
000000d0: 7399 f2da c79e 03c0 5189 a70f 2b1b e83f
000000e0: a693 5d84 ff0e b43f 04d4 5c9c 6f6f e43f
000000f0: 6be8 32e8 a64e d03f 21df ca34 68d9 ecbf
00000100: 7b32 c8c1 7c8a f8bf 7483 74be 4a01 d83f
00000110: 6108 8311 e8ce ff3f 6027 a731 3b82 0040
00000120: 051b e62b 0111 eabf 2954 3fa3 7e00 f23f
00000130: 2901 ed7c d65f dabf ce33 1272 6478 e33f
00000140: 36a6 b57e 652a e1bf 7039 e8ce e2d1 dabf
00000150: a259 def2 947d f0bf 1ba7 d31b 8065 97bf
00000160: 54e6 b6f3 88dd cf3f 78de 39b5 be0e b53f
00000170: a561 8dfd fff5 e2bf 5f56 4a5b 5ce4 fc3f
00000180: ea76 2228 3c98 f73f d862 0710 70a4 ff3f
00000190: c7bf ec8d 9ac5 d6bf efbb ffc5 83ec ed3f
000001a0: 3893 e50c 322b f63f f594 34c4 687b f63f
000001b0: 7473 2d0f ab34 d1bf 8ea9 2716 d61c f13f
000001c0: e121 3ca1 ab59 f8bf 33c6 91d7 c679 f43f
000001d0: 9e2b a3b8 a74d e6bf fe93 ea20 b244 f0bf
000001e0: e33a 034b 599a dabf 6110 b3d9 da26 f33f
000001f0: ef2a ae86 1d55 edbf 02e8 cb45 2c26 c5bf
00000200: d1e3 e040 27fa f1bf e560 d430 697c ebbf
00000210: fb14 858f fec9 d3bf 12f5 1a53 790d f23f
00000220: c472 bbc1 4769 a6bf ac3c e9e3 b459 d23f
00000230: 1913 cd74 47b3 d6bf ac6c 57cf 6099 e73f
00000240: 0f26 9374 aec5 c3bf c287 06a6 d775 e9bf
00000250: 07e5 5e20 be49 f2bf c04f c4df 5712 dd3f
00000260: 7097 475a 1fcd d0bf ac3e 649f 0597 f1bf
00000270: 7fd8 1b41 01ca f0bf fd3b 2b76 aade fbbf
00000280: 050a fad1 7d3a e6bf 7a76 639c b7ff db3f
00000290: c697 fcf9 d057 bfbf 14e7 7147 70aa c1bf
000002a0: a11f ab5f 7c7f f4bf b5f3 0ddb 618d e1bf
000002b0: 8998 b76f b47b b03f b9bd 61ac 0175 0440
000002c0: 0e14 7c5d a927 c43f 7796 f4e5 b9cf d9bf
000002d0: d1bc 3a9a aca6 e3bf 51b5 5906 fea7 edbf
000002e0: bd16 cd5f d443 eebf 8afe 1898 40f1 ff3f
000002f0: 3904 4a54 791d f43f 5c8c 99a3 4376 d03f
00000300: ab98 ddef 97db f63f 92bb 8b2b 62cd cd3f
00000310: bef1 aaf8 075a d1bf a032 cc9f 0cba 88bf
00000320: d5ad 9f6b be10 e93f dbdd e4ba 14bf eb3f
00000330: 0021 adc9 37f7 df3f d6e6 562c d141 f03f
00000340: 1a07 bee5 30d5 e23f 4995 0d7d 5a1e e6bf
00000350: 35c4 d0f0 da8d eabf f686 33fe f12b f1bf
00000360: baad e844 df14 f43f 31d1 6273 6da5 e7bf
00000370: 5724 7a2b bcb9 edbf 77d3 5dc5 adf3 e7bf
00000380: db07 5a20 3dad f43f 0803 b052 5715 91bf
00000390: 3b41 62ea 406b f6bf 227c d4a3 9ea1 9abf
000003a0: 115d df60 b1af ec3f 142d 4529 69fe debf
000003b0: 0c0f 1151 69b3 f23f be7d 322b cbb6 dfbf
000003c0: c7de e3a8 452c e73f 7263 39b7 340f edbf
000003d0: 4a36 6598 de58 bc3f a876 bf6b dc3d e13f
000003e0: 9006 2c0d 711d c63f b8ab 0286 9c4b f8bf
000003f0: abc8 dd1a 9e16 b2bf d6a7 9829 249f e7bf
00000400: 7de0 8d9e d39b e33f a9eb 2883 d169 fc3f
00000410: a271 b277 df10 d03f 5eb8 33cd 12b9 c53f
00000420: 79ee e8b9 2514 e23f f630 8bfe 4fcd f73f
00000430: 5994 932a a379 e0bf 6258 774d f470 0540
00000440: 82fc bb95 70c2 e83f 205d 07bc 21f8 b53f
00000450: 62d2 3076 f408 e03f 19df bf4a 3d67 e4bf
00000460: 5a76 6526 5675 c9bf 388a bf56 b717 84bf
00000470: 0fe3 6fa8 77cd c13f 786f 2fa1 51e6 dd3f
00000480: 06fa 9f7d 54c4 f63f 4426 a119 1693 acbf
00000490: 08b4 4eb9 7090 e03f ec77 f45a 1992 dbbf
000004a0: 5277 423e 63a4 f0bf 76f9 df30 aba9 f5bf
000004b0: e87a cab5 899e d93f 433b 932e 25a7 e13f
000004c0: a02d c7ed 6f4a 57bf 6775 4d75 87cc df3f
000004d0: fbcd 8e05 2499 e3bf a013 8841 91f4 60bf
000004e0: 5f2c 4347 4cb8 f2bf 5145 92b4 dd25 f0bf
000004f0: 794a 6cc5 ee66 fb3f 891b 38b1 9127 e23f
00000500: b81f fc61 60cc d63f a3d5 417f d634 f9bf
00000510: 95ff 8133 2d77 db3f 2a06 986c 537a f03f
00000520: 9a1e 9d1c f28d d6bf ed33 9a12 890f e73f
00000530: 7294 9f43 ef95 bbbf be78 3657 e60b d2bf
00000540: 1504 1968 e1c9 debf f090 c5af 0e48 e23f
00000550: 285e 5ec9 ad36 ed3f 11fe 2361 77a3 dbbf
00000560: 02ba ba4c 4365 e3bf 1f3b 70f3 5045 eabf
00000570: 9d43 7406 123c e13f 99a3 4f95 5e5e f6bf
00000580: 4434 8599 1ca6 d8bf e0d9 855a 6673 ea3f
00000590: 6f19 be63 e8f4 0240 9348 c273 b848 f5bf
000005a0: 3f16 1b22 3bbf dc3f 61c4 5037 2b62 e9bf
000005b0: 84b2 baa2 9ddc ebbf eb6d 2113 359f e9bf
000005c0: 170f a5bb 6d62 eb3f fbf6 4e8f 5cde f63f
000005d0: 20c2 c1fb abf2 0040 6c0a e009 8aa9 fabf
000005e0: ad8e 0baf a85b ebbf 32f3 674a 7f1c a5bf
000005f0: 66bb 7c0d 6595 e33f 1157 c6a4 191e d2bf
00000600: 4b0b 4888 603b e5bf 595c bfa9 9b72 0340
00000610: 0cb9 28e1 4749 bebf cd65 38c1 f392 e53f
00000620: 8241 3f11 bc63 e2bf 0fc1 6393 99a7 f2bf
00000630: 15eb 1604 64a5 e1bf 9fd7 16f5 d87f ee3f
00000640: 66b1 5ec9 d080 e63f 598b c63a f52b e73f
00000650: 7d04 85dd a073 c03f 1301 e2b4 4d03 d7bf
00000660: 2f07 2aac d8df e3bf 0038 14bd 34b7 b9bf
00000670: 46d3 758f 4740 f03f fc32 f4be 6db3 e8bf
00000680: d22c b349 bd89 e23f 4116 da8e 1c12 d63f
00000690: fa39 a8ef 09bd d4bf b092 7136 0c3a c33f
000006a0: 4c9e 1e2a 1332 ccbf e0fc f8f0 ce72 a13f
000006b0: ee67 4149 3e07 ab3f ecfa be60 99a3 e53f
000006c0: e0ea 473c a39e d4bf e0f1 d5c1 db57 aa3f
000006d0: a2fc ef3d 27a4 e13f a511 92dd 0900 e3bf
000006e0: 565d bc4e f727 e3bf aa16 5b02 7e74 b1bf
000006f0: 7046 ab64 3919 d23f ff88 66b9 b412 f5bf
00000700: 06a4 3cc4 41df e6bf 5cb1 738f 4f96 f2bf
00000710: c3c0 b2cf d779 dfbf 64fc 4840 0333 b23f
00000720: fb3a 9a92 65cc e9bf fa0b d5c5 87df e33f
00000730: f620 b26e 0c96 e2bf a078 b9f2 c31b e7bf
00000740: b67e 826d 5520 eabf d68d 4425 c564 b53f
00000750: 3997 7202 fc82 fcbf 867f a3bf 2040 dcbf
00000760: e144 39d1 880d ef3f 2f9f 65f2 463c f43f
00000770: 336c f267 8665 e7bf 3116 98d8 b71b d43f
00000780: cbb9 a288 ca59 e13f c5bc 88e5 3751 0040
00000790: 62f0 8c83 5aec eb3f 0233 5d02 6595 e53f
000007a0: b5af bbb1 bd4b b53f 4145 a42a 8be7 e1bf
000007b0: 030d cd73 e126 d23f 2ac0 2a8d f368 ecbf
000007c0: 00bd ed96 e39d eb3f 6417 e1ff b28e fbbf
000007d0: 9907 6623 bf82 dcbf b41b 62fc 5984 a43f
000007e0: 4921 f47f 1226 f53f 6e13 6595 ebd3 f83f
000007f0: 80ca 568c 5019 c03f b807 57dc 7bdf f73f

transformer_encoder.layers.0.self_attn.qlinear.weight f8 [32, 32]
-0.2962420534417321 1.1830189879802193 -1.1068564715692764 0.16457341588779842 1.510029359600904 0.325766929153545 -0.3468126110794121 -0.9425149076401417
-0.39248577008448166 -1.8437285936302306 -1.0262516701707425 0.3960355629634886 -0.9702501666889612 -0.09562669770506321 -0.02339043180429272 -2.6705030553116367
0.37465822161040224 0.5654241157637914 -1.264155635233912 0.37299440466044304 -1.0913690684359576 0.07580287746622878 1.3915002545361226 -0.12525637844413126
0.26358753335795543 0.37569928195730085 -0.7807913392253449 0.026164595529703606 0.31257990413813075 -1.6187475995339597 -0.6208894918056749 0.589289764850335
1.6460291791151962 -0.04433219174041535 -1.1083356644811222 0.4722665844312367 1.1162933413502254 1.2097510094279738 -0.600738051079547 -1.830115772633759
2.6765891489428513 0.9803842032866001 -0.19700254728075162 0.08935857226133614 -0.021328139268597286 -0.765871633924337 0.5244476340116428 0.5109497885480605
-0.9672026323489252 -0.20633136151423642 0.3948680426395221 -0.9652000133304675 -1.233950653837018 -1.1940776724641184 0.7566120708677939 1.4107090161611688
-1.1656190126541064 -1.630623460478364 -1.2671249281905739 0.510722362487317 0.8842198857252253 -1.4379737612033152 0.22875896001547344 -0.28394328488279286
-0.9368431362859951 -0.8035236567311027 0.4168115689874584 -0.5631940879544091 1.523984433982522 -0.02117902924600823 -0.22584186348724122 -2.3896220909323924
1.3814820071446534 -0.5674987515569657 -0.7623169861648519 0.17877943147832973 0.03908052131060854 -0.14863631943655975 -0.189667738033842 -0.252648400566836
0.4987958148583368 -0.190842008922408 -0.3365640588504303 0.40607216602475915 1.1240383210178295 -0.2664229487236746 0.02540798177988368 0.2383171678879179
0.0345772918952392 -0.4157449350705834 0.5208289733816245 0.7016079717375119 0.7402843932939236 1.316367620426718 0.4525012025012818 0.7320076180810424
-0.6696072022415207 -0.7729383299532546 -1.1805986252251102 0.14750476249779454 0.07931421711075237 -0.3835987223143834 0.4265873974054439 0.31392341766042786
-0.3730823316510354 1.0934507814202978 -1.1698316854060387 -1.6316621894644223 1.047623248332543 0.16163385282040843 -1.7420998182645107 -1.9625719579552623
-0.5191933694650857 -0.33934127917693413 -0.3132799282398198 0.6206911577333037 -0.08126737028336126 -1.383220089666851 -0.6591092448565863 1.2230518030783335
-1.218355397293626 -0.7238898667803982 -0.8422903947659729 -0.10710818824953142 -0.040122753068784545 0.5836388958694303 -0.6844067431392858 1.7985732784555173
-1.7818710847647354 0.5725934779617952 -0.17936254865629284 0.38663953258229045 0.11129547227632963 -0.9032217005351838 0.6919701984187034 0.9500147201689901
0.4665201647338787 0.1635324498282787 0.18276449031783304 -1.3256688433582857 0.4602610806786378 -1.6677468158947164 0.8549593163378398 0.0915174926128216
-0.010000296834451784 -0.11140980456523408 0.413211997991173 -0.8194184449410167 0.9444080579642193 0.7085346857428236 0.692577114726326 -0.4203515942570062
-0.27685487012994225 -0.8084519193615135 2.6045552329219346 -0.6299206088219893 1.2620689630949322 -0.044116864978207174 -0.19282843568021835 -1.0286029155794656
-0.8547664678803051 -0.06967650240800562 -0.8550170589986642 -0.6982312461014426 -1.8959379680696706 -1.0910100039486101 -0.10266711565462561 -0.44952960253107294
0.45788508763646935 -0.9978653322700957 0.05607515614784185 0.3155826566499602 1.3913015415644343 0.7058911960094842 -0.35332845624204906 -0.35687140098569253
0.06208868387369795 -0.14765246696533718 1.0056759326558302 -1.8891517525786705 1.0040026222302618 -0.4920980317950317 0.49410124410049117 1.0822912383131473
0.8412914271694261 0.28086418401852503 0.5684997925191452 -0.8593952360196008 -2.1429693166362926 1.4218403862210423 -0.14015840167516358 -1.1964694544001566
-0.279568564539432 1.6920328724343467 -0.4572959384633669 -0.050606485944694454 -0.8335583286163395 -0.27380843016104905 -0.5042631830465016 0.8802035047222595
-0.2353233015724151 0.9100193268659117 1.2281371622626227 -1.2706048024689505 -0.03977357697786599 -1.1451620399693423 1.7547710144789024 0.4152876848789048
0.6108186006517646 -0.49433049917559535 0.571632055715663 -0.9983763341777473 -0.06669063207652194 -0.37672484880373225 0.4549167977136326 0.6978836387744088
-0.8425477989813955 1.8181304647133223 -1.3632354119911647 0.2641565340394923 -0.5528335303863828 -0.27591792238129587 0.49936604753448144 -0.44669056795598344
-0.5033189553752531 1.2418900804885045 1.1682945185700742 -0.9281332267600151 -1.618143190275921 0.6341488734271912 -0.41608324157321624 0.3546956690381985
0.19087042399273083 -0.6839212463886284 -0.611344122897385 1.1482272973296344 0.02576678249419991 -0.5230598378408229 0.4720503041669471 -1.5989884289561542
0.01465851861924667 -0.32990192410633845 -0.7345093277421897 0.45767024122818745 -0.3743417587551889 -1.478782799948163 1.1003084797089928 0.2963497594904562
0.5378535596488911 -0.7164572592147038 0.5910223576598999 -0.4169568992898565 -0.7489719806530231 -0.16600587107180867 0.5499630926001772 0.10890958871832755
00000000: 1ddb ce3a a1f5 d2bf c1c0 7e51 a5ed f23f
00000010: 8f18 ac21 afb5 f1bf 95b9 83df bd10 c53f
00000020: 74c5 b78b 1429 f83f 004d b588 5dd9 d43f
00000030: d44a 9b85 2d32 d6bf dfd1 0906 1529 eebf
00000040: 5720 aaa2 7c1e d9bf 7b78 c58d e97f fdbf
00000050: 5994 0ddf 866b f0bf dfca be8b a558 d93f
00000060: afc3 db13 4a0c efbf 9c89 44c3 fd7a b8bf
00000070: ec15 8e4e a9f3 97bf d573 b3b4 305d 05c0
00000080: f1a0 3f7a 66fa d73f 0e68 b250 f417 e23f
00000090: df23 6642 fb39 f4bf cde2 66ec 23df d73f
000000a0: 58c6 8c69 3f76 f1bf 75ff a83f d167 b33f
000000b0: b0bb 59c5 9543 f63f 7b37 84a8 6608 c0bf
000000c0: 71f7 d93e 9ede d03f 5cc9 4800 750b d83f
000000d0: fc21 5f1e 3efc e8bf 3adc 7348 e4ca 9a3f
000000e0: dc3e 6a24 4f01 d43f 3aa1 07e2 63e6 f9bf
000000f0: ac88 b7a3 53de e3bf 80ca 7c35 76db e23f
00000100: e1fb 48b1 2256 fa3f 7ec3 5e83 b5b2 a6bf
00000110: 55fd 7e2d bebb f1bf da0c c89f 9d39 de3f
00000120: f177 1d68 56dc f13f f8bc dcdf 235b f33f
00000130: 8c2e 5b01 3f39 e3bf 38b1 f579 2748 fdbf
00000140: dd4d 5c92 a769 0540 da30 54b1 4e5f ef3f
00000150: bc56 e624 6137 c9bf 10cd 7a11 34e0 b63f
00000160: 3298 9232 0bd7 95bf 9a73 943a 0582 e8bf
00000170: 3a6d 9167 46c8 e03f fec8 f65e b359 e03f
00000180: 5d66 51ef 52f3 eebf d2e0 ebe8 1069 cabf
00000190: 73d3 579c 8445 d93f c64c 6b23 ebe2 eebf
000001a0: 96b9 710a 43be f3bf 01e0 8130 f11a f3bf
000001b0: 305a 8484 2a36 e83f 575a 099e 4392 f63f
000001c0: 871f 2f1f 60a6 f2bf cd84 2da0 0817 fabf
000001d0: d765 e8c9 2446 f4bf 1801 876c d657 e03f
000001e0: d634 7580 874b ec3f 59fd 4dc6 f001 f7bf
000001f0: a37a f73d f947 cd3f d262 9f74 202c d2bf
00000200: cd92 fa74 9efa edbf 091e 673e 77b6 e9bf
00000210: 3651 596e 0aad da3f 4e12 a29b af05 e2bf
00000220: 8a16 7980 3d62 f83f e0f9 e397 f4af 95bf
00000230: 3069 dfdc 62e8 ccbf 82d4 d22f f21d 03c0
00000240: fa2d 8be0 8c1a f63f e9a7 4e24 f328 e2bf
00000250: 256d 9897 e664 e8bf 97cd b291 3ee2 c63f
00000260: ab1f e1b1 5c02 a43f a429 7dd1 8306 c3bf
00000270: 3d17 fb4d 0847 c8bf aa8f 7432 642b d0bf
00000280: c2af 0c48 45ec df3f cc28 83cd 826d c8bf
00000290: 2e62 71fa 438a d5bf 2e1a 391c 16fd d93f
000002a0: a78e 439b 0ffc f13f 2703 ebd6 120d d1bf
000002b0: 2036 35cb 8c04 9a3f 98b4 134d 2d81 ce3f
000002c0: 04a4 bf63 1db4 a13f 6ac5 e6a4 909b dabf
000002d0: 7477 ef85 a1aa e03f 5837 a78f 9273 e63f
000002e0: a8f8 5de5 68b0 e73f 02f0 737e d70f f53f
000002f0: 0832 899a c7f5 dc3f 0697 823d 9b6c e73f
00000300: 7263 5915 6c6d e5bf b62b 1f2a e9bb e8bf
00000310: e6b5 5062 bbe3 f2bf c854 77a1 6fe1 c23f
00000320: f038 99c0 ef4d b43f 9e2b c8a7 e18c d8bf
00000330: 2b7f 2f3a 354d db3f 9e34 133f 5217 d43f
00000340: 1b06 4ab7 94e0 d7bf efc5 1f3f c67e f13f
00000350: c34b ea6d a1b7 f2bf 44e9 ddcf 491b fabf
00000360: 85e1 6198 10c3 f03f 0823 e507 6bb0 c43f
00000370: 9304 1d0f a4df fbbf c06e 77da b166 ffbf
00000380: 00e2 c469 3b9d e0bf f0da 0f7c c4b7 d5bf
00000390: d120 9241 c70c d4bf 7930 ecb3 b3dc e33f
000003a0: 5e55 9939 f0cd b4bf 06a1 8463 ab21 f6bf
000003b0: 36cf 6445 6c17 e5bf 7c90 78c4 9e91 f33f
000003c0: d77f a43a 627e f3bf 8f48 f714 1b2a e7bf
000003d0: 2f27 68fc 0af4 eabf 6a61 aa35 716b bbbf
000003e0: 1007 8330 f88a a4bf 1cd9 4d7a 2bad e23f
000003f0: 4d3e 5ef8 a8e6 e5bf afd0 26c6 f4c6 fc3f
00000400: 940a 2c41 8b82 fcbf 3af6 b78e af52 e23f
00000410: f790 4d1c 5af5 c6bf c806 f2bc b3be d83f
00000420: 58a5 9e2d dc7d bc3f 7fc1 1a32 31e7 ecbf
00000430: 927a 80af 9e24 e63f 5c05 3b45 8566 ee3f
00000440: fa37 9d64 77db dd3f a271 ec9d a1ee c43f
00000450: 7c81 64aa d364 c73f bccc 7888 f035 f5bf
00000460: 3cba 48e4 ea74 dd3f 406a 0449 17af fabf
00000470: fb9b e2a3 d35b eb3f 98b3 c8bd b06d b73f
00000480: b487 d51e 097b 84bf 00ba 0f5b 5a85 bcbf
00000490: 43f6 6bbc 1072 da3f d458 d807 ad38 eabf
000004a0: 5020 613f 9738 ee3f 281b ebee 50ac e63f
000004b0: bea4 367b 9729 e63f 7cf0 895f 0ae7 dabf
000004c0: 4c92 3c7d fdb7 d1bf e579 418f d6de e9bf
000004d0: f633 d00d 21d6 0440 76f0 be43 4f28 e4bf
000004e0: 3da1 9c39 6f31 f43f 0a20 9158 7c96 a6bf
000004f0: d820 7e28 9aae c8bf afbe af54 2875 f0bf
00000500: 526d 2835 3f5a ebbf 595d 24bb 51d6 b1bf
00000510: d37b 3dbc 4c5c ebbf fca1 e10d e957 e6bf
00000520: b0a9 010d c355 febf fc16 e9e7 c674 f1bf
00000530: f87b 1c60 6448 babf 0d1c 5dcf 17c5 dcbf
00000540: f961 2e41 fd4d dd3f 0631 fd46 83ee efbf
00000550: 5ed0 8b03 e2b5 ac3f a0c4 5f99 8132 d43f
00000560: 4f4c be67 c542 f63f 56a4 2c22 a996 e63f
00000570: b391 13f5 ee9c d6bf bf1e 0725 fbd6 d6bf
00000580: d4e0 6085 16ca af3f 9819 65aa 46e6 c2bf
00000590: f118 92a5 3f17 f03f 841a 2830 f739 febf
000005a0: 483c b90d 6510 f03f 8d14 3fbe 887e dfbf
000005b0: fac4 14d3 5a9f df3f 43d6 149e 1051 f13f
000005c0: 9821 c3ff dbeb ea3f ef8b 3ec5 adf9 d13f
000005d0: 65e1 147a 2631 e23f 3b5b 2170 2a80 ebbf
000005e0: 5746 da18 cd24 01c0 e038 6fb4 dbbf f63f
000005f0: b82b bae3 b5f0 c1bf 76fc 9427 bd24 f3bf
00000600: 0af0 6b8c 73e4 d1bf a2cc ad0f 9112 fb3f
00000610: 72cd 122f 5644 ddbf 0626 32e4 17e9 a9bf
00000620: 30e6 1684 82ac eabf a44a 3acb 1386 d1bf
00000630: ea5e f88a ec22 e0bf f969 538a a02a ec3f
00000640: 1cc1 1eee 121f cebf abbe f3d9 e01e ed3f
00000650: 2eb9 2e27 73a6 f33f 38ea 8bb3 6554 f4bf
00000660: a0d0 bac8 335d a4bf 9f9f 646e 9552 f2bf
00000670: 747d 72c5 8a13 fc3f fe21 3fcc 1294 da3f
00000680: 5ecf 3273 d38b e33f 6af8 d763 1ca3 dfbf
00000690: d59b 144f cf4a e23f f199 0ced b2f2 efbf
000006a0: f1dd b723 a312 b1bf fcf6 4c8a 421c d8bf
000006b0: bc30 2558 5b1d dd3f d362 9e11 1055 e63f
000006c0: d923 3ecd 26f6 eabf 49e1 5cf8 0f17 fd3f
000006d0: aa04 74ef cfcf f5bf 6d5b aece f0e7 d03f
000006e0: 1b89 a4f1 cfb0 e1bf f681 40a5 a3a8 d1bf
000006f0: 202d b902 9df5 df3f 095e 3309 9496 dcbf
00000700: 2265 995a 301b e0bf 88cc 0e22 c8de f33f
00000710: 2bac d597 55b1 f23f a87c e873 44b3 edbf
00000720: d7ae 271d eae3 f9bf ec47 0594 f24a e43f
00000730: d31e be9a 1ba1 dabf 5e52 a376 55b3 d63f
00000740: 7945 692a 716e c83f 40eb 48cf aee2 e5bf
00000750: 3c46 ce8c 2190 e3bf e57b 2696 235f f23f
00000760: d5fd 8a80 9b62 9a3f a413 2cfc e7bc e0bf
00000770: 61b0 9d7a 1236 de3f 1fc9 10e4 7495 f9bf
00000780: 64a9 9e10 4905 8e3f 0e26 bbf5 1c1d d5bf
00000790: 0e4f a8b4 1981 e7bf 185c 9b1f 784a dd3f
000007a0: b35c d822 37f5 d7bf 7ea2 3a27 18a9 f7bf
000007b0: 21c9 7d10 dd9a f13f 2b18 4cfb 64f7 d23f
000007c0: 6255 17ab 1836 e13f e6e2 29c6 37ed e6bf
000007d0: aa54 2bb8 a7e9 e23f eda7 92fd 6baf dabf
000007e0: 72cd 5016 94f7 e7bf c144 992d ae3f c5bf
000007f0: 6731 1733 4c99 e13f 5f1a c4b1 7fe1 bb3f

transformer_encoder.layers.0.self_attn.qlinear.bias f8 [32]
0.23028912555661007 0.9964794961855236 -0.20224289380963892 0.17707376744103673 0.07722906804566856 0.41341663243444676 0.349688889665651 0.33581473625960034
0.02698426074868218 0.8642240989988766 -1.2495821515806194 -0.07710402973621855 1.101338754894716 0.6208176515470182 1.6602530939449738 -0.5925383155688162
0.8258806338863542 -0.48020822436789723 0.3351637250056744 -0.9875472565296219 0.8267875389881273 0.8500073463746549 -0.3197954005375554 0.34603891696820105
-1.4149310432364004 0.29215070777515134 -1.292839081669297 0.028810180151768297 1.379075112081318 -0.612426822928711 0.9604139646107642 1.685063994589591
00000000: 14ee 7133 1d7a cd3f 4f0b e8f7 28e3 ef3f
00000010: e561 615b 18e3 c9bf f7c2 116c 5aaa c63f
00000020: 3a84 8ec1 48c5 b33f ef6a fb08 6b75 da3f
00000030: 91dd 3882 4d61 d63f 86fd 6f17 fd7d d53f
00000040: 5876 b015 c3a1 9b3f 0fb0 334c b9a7 eb3f
00000050: e443 abda 49fe f3bf d85b 1bf6 16bd b3bf
00000060: 5171 e162 159f f13f 2391 c5fa bcdd e33f
00000070: 4139 598c 6590 fa3f fcd6 dfe9 12f6 e2bf
00000080: ec21 1e39 9d6d ea3f d68a bb46 bbbb debf
00000090: 3a1d 6d8d 5273 d53f 7293 41b4 fc99 efbf
000000a0: f737 1624 0b75 ea3f 903e 419b 4233 eb3f
000000b0: d414 ae20 8777 d4bf 4163 e169 8025 d63f
000000c0: 60ba ccbb 8ea3 f6bf 1971 d9e1 98b2 d23f
000000d0: 342a 6c08 78af f4bf 24c3 2c76 6a80 9d3f
000000e0: 65de 9110 b110 f63f ff80 f522 0099 e3bf
000000f0: 75ff 1311 b6bb ee3f e2de c6a9 05f6 fa3f

transformer_encoder.layers.0.self_attn.klinear.weight f8 [32, 32]
1.2715670047491745 1.2595824826602235 -0.15387694981844863 0.6723541284807619 -0.2734890618946898 0.26082435674594273 -0.7881360715466161 0.2394907400708844
-1.0118844204458293 0.9184327846051193 0.10180300959425148 0.0566160829315872 0.029369956926118393 0.8737229761193258 0.7317392357302808 1.1986175486985915
-0.5298119296238784 0.38710321862782987 -0.09501004384366654 0.03507742772925064 0.6641761750226323 0.43321460338052853 1.3258911109395963 -0.6252998584312683
-0.40690627126399087 -0.3943747679784703 -0.7336653344500104 0.0685676402185105 -0.7160524035499929 0.579207287302019 1.4939408477181344 -0.48825708937257384
0.263316509231318 -0.45137235031386835 -0.2083455059180117 -0.6075369268555617 0.17045711460053528 1.624911753559183 0.23992862645659463 -0.17096152242498133
-0.3773379893865653 0.5316800934643078 0.20941118342581674 0.11802864842635885 -2.497255710697239 1.0152277441810438 0.1728650247473802 -0.13828269192187123
1.4288304029335708 -0.6226509540177909 -0.6665566228068094 -0.4290792922095826 -1.2169995648127117 -0.291954573332287 0.12409263572984552 -0.5115242537473575
0.5515248410564343 -0.2677746933526882 0.015283223096319805 -1.3954934506019363 0.1994564657173811 0.7660084224902435 -1.293755317749404 1.4602513083088915
-1.4351752949885517 1.3370322528115872 -1.1064425928323747 0.0377296194172138 0.2318881796738228 0.20131412859534334 0.046109041445430855 -0.8673250406018552
0.1119389856130566 -0.08965501331722242 -0.4166078285147013 -0.6141275188241556 0.6465102008628987 0.7177769775918235 0.7573027561465085 0.16094235383085226
0.6963398256519937 0.650647912486488 0.5822672484599782 -1.6802102768283564 -0.503496513133734 -1.1028968018063867 -1.0181584664180332 -0.8843494834963652
-0.04334802513660029 0.4614227195384861 -0.2678438654202068 -0.0947999957449521 -1.2045630104895468 0.8431371050172608 1.7811841331301412 0.5059837338234525
-1.0961369653487747 -0.31754573807210495 -0.2234530531510873 -0.4900056854434935 -0.9182779391116906 -0.34603839495427263 -1.507136979662658 0.019845197599412907
0.750866101869061 -0.6095862035047965 -0.6805949011714835 -0.9194185900888362 -0.8544358275467416 0.46158808148063624 0.20581617657437323 -1.4936454720997958
-1.1294844839378249 -0.28654283875683806 -0.2588842527175502 -0.8732133148258864 1.6092449877831116 -0.6577085484794001 0.32138185484886195 -0.7348334627693347
-1.6074822233651547 -0.16347312566725458 -1.2546165115827321 -1.536710967337916 -0.6210511235320078 0.4271325922459591 -1.2612304109781944 -1.0470693153324684
0.636867831786948 -0.285840102708422 -1.208584836829677 0.1913287510730832 0.21870991617253085 -0.3086246675471589 1.749875361444907 -1.0999491638373853
0.22737366364066008 -0.6826893100173892 -0.8855832763214513 -0.7722415275175797 0.9251101900122468 -0.11345779706499379 -0.09739401351882085 0.31614897513039625
1.2277703529447197 0.8576854960117463 -0.7788662623207352 1.0127398876147575 1.0399718364493997 0.805824798222079 0.8885393442024522 -2.1441133954081995
0.1572414024910928 0.3390254455183021 0.36311231289601154 -2.2198985805399647 -0.6527016892195766 -0.2161645593890259 0.12411962934017601 -0.26909315609103823
1.004349203526448 -0.25818488462051353 0.32919676954643384 0.5258963986758447 1.563044676609294 0.08455681229453207 -0.8667981804736096 0.0018660316589596687
0.9245621412883491 -1.605697170328376 0.12872443898535468 0.11902903970093288 0.2073263721544687 -0.13758931662523288 0.7258204378114664 0.7909341723978908
0.3555761231130067 -0.01342181844264545 0.8224629346402555 -0.7408709185839201 1.0867646536818778 0.18975691867506395 0.49468414684527046 -1.3790282123239428
-0.2955402896733829 -0.023979770560971017 0.9981179214930938 -0.9453782463338029 -0.5769545275189224 -1.3615241522721713 1.264619549565699 0.4477839244577997
0.11321828291800053 -0.6172108472452725 0.13516467005727337 -0.4503865844400984 1.4113734665512965 -0.3676673342389305 0.7760451611380114 -0.6763458803587069
1.0334376299316246 -1.7088033336371433 0.1449750619382287 0.15356895619236416 0.6458328392217891 -1.0666834729345744 -1.547735010329325 0.02309239271535682
0.38431582630568545 1.0638600788244978 0.4321446948766752 -0.18959804674108252 -0.24867814871691007 -1.085642254978837 0.37874584189266713 -0.13410547363693617
0.05652597336388314 -0.9278454158328185 -0.04648966347216403 -0.496611430780501 0.7569860406487219 -0.5196131949788215 -0.1399640325416541 0.3851748113580983
-0.1896593258443961 -0.3316902037286355 0.2604798293271779 -0.127636591558805 -1.1277269164476968 0.03985857458523015 -1.0867553589969754 -0.676649782712362
-0.34054452471110114 -1.030111629573307 -0.2084609860893466 0.5233111106229047 1.0019148323754739 0.20522970717784753 -0.2327519892898774 -0.67791192350646
-0.3748918699646368 -0.3747989322520599 -1.0150154842203305 -1.082210112711509 -0.7407951126076555 0.20345560115352454 -0.5758165317439833 0.07537256401113017
-0.7498165267360323 -1.491890415246163 -0.8863544380862576 0.37080407439862434 -0.6239371670217344 0.2323929919787859 0.6816339508900907 0.19445257817740247
00000000: 4820 c1a4 5658 f43f 0b3e 1af6 3f27 f43f
00000010: 4e0b 8a69 3db2 c3bf 7cf9 24ce ec83 e53f
00000020: beb0 2944 d880 d1bf 0457 8ea4 58b1 d03f
00000030: 76e6 8223 6938 e9bf fa4e 26f0 a1a7 ce3f
00000040: 1759 d2b7 ad30 f0bf 9d80 ae26 cd63 ed3f
00000050: a078 d714 c30f ba3f 27d2 3c81 c8fc ac3f
00000060: 9430 ee71 2813 9e3f 0948 06e3 89f5 eb3f
00000070: c02b d566 686a e73f 7a27 4198 892d f33f
00000080: 9c7c d825 38f4 e0bf 19b4 0b94 4cc6 d83f
00000090: 729e 1907 9452 b8bf 1691 d929 abf5 a13f
000000a0: 8025 d064 ee40 e53f 96d0 6abe c9b9 db3f
000000b0: cbae f898 d936 f53f b8fb 44d9 7402 e4bf
000000c0: ed6e e799 c00a dabf 9372 b5aa 6f3d d9bf
000000d0: 8a7e 35b9 2f7a e7bf e269 4d1c a68d b13f
000000e0: 7005 efba e6e9 e6bf 4125 92b8 dd88 e23f
000000f0: f9b9 b184 2ee7 f73f 7a4d b9a9 9a3f dfbf
00000100: 1e4e e97c 2dda d03f 8aab bada 48e3 dcbf
00000110: 18dd 17c7 10ab cabf 989f fe47 f170 e3bf
00000120: a537 4aea 89d1 c53f 64c3 8677 a3ff f93f
00000130: d4ac 0032 fbb5 ce3f f546 d831 11e2 c5bf
00000140: 4f09 fd3c 4e26 d8bf 2ea1 abf8 8503 e13f
00000150: 5782 1d54 fccd ca3f 9077 fb20 2037 be3f
00000160: 108d b933 61fa 03c0 b2fd 7372 5f3e f03f
00000170: e8c3 f4ed 7020 c63f c321 b44b 3fb3 c1bf
00000180: 4115 c244 7ddc f63f 2e8c 8ab1 c1ec e3bf
00000190: 0666 fc8d 6e54 e5bf 4195 dbfd 0876 dbbf
000001a0: 88de 2189 d478 f3bf c04e 183c 62af d2bf
000001b0: 3056 22f4 88c4 bf3f 2595 9e1c 685e e0bf
000001c0: 839b 686c 17a6 e13f be5b a977 3823 d1bf
000001d0: 0463 027b cf4c 8f3f 50e1 c1f0 f053 f6bf
000001e0: cdae 9d1a ca87 c93f f4cb 6118 2483 e83f
000001f0: 0e28 acc6 38b3 f4bf e30b d279 305d f73f
00000200: 370c c05e 7af6 f6bf 175e 78ee 7b64 f53f
00000210: 28dd f125 fdb3 f1bf 5694 f9f2 4b51 a33f
00000220: d896 030a 83ae cd3f 2316 454f a9c4 c93f
00000230: a5b6 1db2 9a9b a73f ff60 8c71 20c1 ebbf
00000240: 9001 5b8a 08a8 bc3f bcb2 1e86 a1f3 b6bf
00000250: 219b aee1 b3a9 dabf 458c 1dc1 eea6 e3bf
00000260: be91 2729 36b0 e43f f283 926c 07f8 e63f
00000270: c33c 5afd d23b e83f a654 1f51 c299 c43f
00000280: 267c 4275 6a48 e63f 65e2 2a92 1bd2 e43f
00000290: 445c b5ec eea1 e23f 2818 d62b 24e2 fabf
000002a0: c9e6 31b8 a41c e0bf 5bf1 e91d 77a5 f1bf
000002b0: 5293 3688 604a f0bf 823e bb49 974c ecbf
000002c0: ffa2 9d5c b631 a6bf bc25 8328 f387 dd3f
000002d0: 327f 9a98 5a24 d1bf aeb0 6201 d044 b8bf
000002e0: ee61 00dd e345 f3bf edfb 82aa fafa ea3f
000002f0: 482b ffee ba7f fc3f e28c a2cc 0431 e03f
00000300: 38c1 21ea c689 f1bf 743f 005c ab52 d4bf
00000310: a3d5 bc11 1c9a ccbf 175e 75ce 405c dfbf
00000320: 8aef a36a 8862 edbf ab4a 5f39 7e25 d6bf
00000330: b1e4 63aa 3b1d f8bf 7544 b0aa 4c52 943f
00000340: e07b e658 1807 e83f 3aab 04ed ba81 e3bf
00000350: 5163 4bf5 6ec7 e5bf eb82 f888 e06b edbf
00000360: a601 fbcd 8957 ebbf 9eb1 8bbc a88a dd3f
00000370: fcf5 af39 2f58 ca3f 2dcb 67cb f8e5 f7bf
00000380: 69a3 7d52 5e12 f2bf 9045 57c6 b756 d2bf
00000390: 02c3 b741 8f91 d0bf 637c b30c 5df1 ebbf
000003a0: 747c 1cac 77bf f93f d098 40cc f20b e5bf
000003b0: b6a2 0633 8591 d43f 2639 5377 c183 e7bf
000003c0: 4713 a447 3fb8 f9bf 5004 42f8 afec c4bf
000003d0: a04f 64c3 e812 f4bf 19ef 413d 5e96 f8bf
000003e0: 54d9 169b a6df e3bf 5e22 b0f0 2356 db3f
000003f0: a6f3 7df0 ff2d f4bf 11f8 1fc1 cbc0 f0bf
00000400: a5c7 aca5 3861 e43f 2626 4149 344b d2bf
00000410: d5ff c90d 5d56 f3bf 7f5b 52e4 757d c83f
00000420: 53ce a2c0 affe cb3f a0a6 76ad 81c0 d3bf
00000430: 7fb6 974e 7dff fb3f 191b 5f4b 6499 f1bf
00000440: aa77 a788 941a cd3f ce4f 7b40 97d8 e5bf
00000450: deec 35bd b256 ecbf 85a2 29dd 33b6 e8bf
00000460: f790 69af 809a ed3f 76cf def7 910b bdbf
00000470: 6ab7 e366 d0ee b8bf 8355 36e9 c83b d43f
00000480: ce55 8e86 f2a4 f33f b7f7 73da 2872 eb3f
00000490: 9402 94f0 78ec e8bf c48f 8abd 2e34 f03f
000004a0: cffa 2482 b9a3 f03f 986d 5516 51c9 e93f
000004b0: d9e1 1110 ea6e ec3f c48c 81ec 2427 01c0
000004c0: 9e61 a37c 7c20 c43f f7d3 40c8 97b2 d53f
000004d0: 5273 2a6d 3b3d d73f 07d9 de2f 5ac2 01c0
000004e0: c5be 27a7 eee2 e4bf a4a7 90c0 47ab cbbf
000004f0: 4cc5 ced4 4dc6 bf3f 7a42 3f80 d238 d1bf
00000500: 4e8e 6e78 d011 f03f 9d10 f1e4 1986 d0bf
00000510: 6aa6 c953 8f11 d53f a8b3 2caf 24d4 e03f
00000520: be94 8322 3b02 f93f ba82 75e7 83a5 b53f
00000530: 08ba ab89 cfbc ebbf 40c1 b43c b492 5e3f
00000540: 8a80 fe57 0396 ed3f 1e71 1d84 efb0 f9bf
00000550: 7cab d1db 0a7a c03f d52f cae8 af78 be3f
00000560: f039 00aa ab89 ca3f 4099 97d7 869c c1bf
00000570: 9565 65c8 eb39 e73f c99b 772e 554f e93f
00000580: ba90 005b c2c1 d63f 40b2 1cfa e57c 8bbf
00000590: 7777 cec9 9d51 ea3f 6703 bced 36b5 e7bf
000005a0: eb32 6055 6363 f13f bc16 f367 f449 c83f
000005b0: cf34 23b2 e7a8 df3f 3615 03e3 7f10 f6bf
000005c0: ff0a b3d1 21ea d2bf c4c0 4c29 278e 98bf
000005d0: 9ea8 cbfe 94f0 ef3f ff4f 4be1 8940 eebf
000005e0: 0722 5f57 6976 e2bf d191 ab8c cdc8 f5bf
000005f0: 5745 74b5 e13b f43f 5421 cee7 7da8 dc3f
00000600: a92c 7196 dffb bc3f ebf4 74f6 30c0 e3bf
00000610: 433d bc6e 134d c13f 268d ae40 22d3 dcbf
00000620: c07a 1458 fc94 f63f fc46 1792 dc87 d7bf
00000630: 61d1 69a9 5cd5 e83f 6599 9d1d a0a4 e5bf
00000640: 7931 70e5 f588 f03f e446 142a 4257 fbbf
00000650: 6b50 e1f6 8a8e c23f ba76 43c6 25a8 c33f
00000660: 3e7e 64a1 a9aa e43f d000 77b0 2211 f1bf
00000670: 9bd1 43c9 85c3 f8bf 88d1 fe3d 88a5 973f
00000680: 555c 5468 a198 d83f a323 6125 9205 f13f
00000690: 6ca7 e838 42a8 db3f 09b8 11b1 bf44 c8bf
000006a0: a806 fc81 afd4 cfbf 03a3 c469 ca5e f1bf
000006b0: 1233 1b33 5f3d d83f 0d1c be3f 5e2a c1bf
000006c0: 56e4 f1ed f8f0 ac3f f1da 97de e8b0 edbf
000006d0: 3613 6e40 7ecd a7bf c568 814f 7bc8 dfbf
000006e0: 56ac 03ca 3a39 e83f ab21 e0d9 aba0 e0bf
000006f0: cbfb 3067 57ea c1bf 02aa 8140 b4a6 d83f
00000700: 0e09 f1bc c146 c8bf 9bc1 5a8c 693a d5bf
00000710: c395 0e97 b3ab d03f 134d 4255 6556 c0bf
00000720: 7663 0f61 2b0b f2bf 3413 9ed4 5768 a43f
00000730: e450 5a96 5963 f1bf 110b f371 1da7 e5bf
00000740: a7d3 1d43 7bcb d5bf 28f2 0355 567b f0bf
00000750: 9c71 df7e d9ae cabf 3448 38f1 f6be e03f
00000760: 35e1 e6d8 d707 f03f b18d 3f90 f744 ca3f
00000770: 8c1b 0a33 d1ca cdbf 1beb a058 74b1 e5bf
00000780: 9b33 4278 3afe d7bf d34a 26a9 b4fc d7bf
00000790: 0c8f 5ae0 803d f0bf 46f1 178d bb50 f1bf
000007a0: f4f7 b5f3 97b4 e7bf 6b3a 9248 d50a ca3f
000007b0: 0dc5 8aca 166d e2bf 4b87 71c9 9d4b b33f
000007c0: 359c 8a3a 7ffe e7bf 8a2b eb7b c8de f7bf
000007d0: 7ed6 87fb 035d ecbf 4900 3103 41bb d73f
000007e0: 6cc0 e313 4bf7 e3bf 372a 2fb6 0dbf cd3f
000007f0: 9751 dd00 f2cf e53f b089 f273 d2e3 c83f
