experiments/fl_train_noise_0.5_max_grad_norm_5/20250426/model_round_0.pt (torch, 35449 bytes, 25 tensors)

embed.weight f4 [32, 8]
000000 1a a5 d0 bd 39 4a 5f be 5d 9f 74 3d a9 0d 2c be
       -0.101877406 -0.21805657 0.059722293 -0.16802086
000010 44 d0 8e 3e 5d 2a b4 be e3 e3 0f bd 20 98 a1 be
       0.2789327 -0.3518857 -0.03512944 -0.31561375
000020 28 d7 97 be 10 bd b5 3d e2 94 08 bd fd 7b 17 bd
       -0.2965634 0.088739514 -0.03334511 -0.03698348
000030 b6 3a 0d be bf 30 ce 3d 6e a8 b8 3d b0 f2 90 bd
       -0.13791928 0.10067891 0.090165004 -0.07077539
000040 b8 9a 94 3e ca 1a d5 3c 14 6d ea 3d 71 10 6b 3e
       0.2902429 0.02601375 0.11446586 0.2295549
000050 65 18 4a 3e 45 84 51 be 83 a7 85 3e c3 34 60 3e
       0.19735868 -0.20460613 0.26104364 0.21895127
000060 5a 91 62 be e4 23 c5 bc c4 2a 46 3e 65 47 2d 3e
       -0.2212576 -0.024064966 0.19352251 0.16921766
000070 a1 76 1e be b2 a8 ab be d1 34 7e be bc 86 7b bd
       -0.15474941 -0.33527142 -0.24824835 -0.06140779
000080 2a f6 67 3e 32 6f 28 bd 22 75 be bb 1a 33 50 be
       0.22652498 -0.04112167 -0.005812303 -0.20331994
000090 d2 f1 84 3d 73 34 b7 bc 8d 10 a4 be 6e f3 ee bd
       0.06491436 -0.022363877 -0.32043877 -0.11667524
0000a0 9c b9 ed 3d f3 56 84 be d3 dc 05 be 6f 3d b0 bd
       0.11607668 -0.25847587 -0.13072519 -0.086054675
0000b0 a5 5b ff bd 7a cd 29 be 45 a9 16 bd 5d 77 68 3e
       -0.12468652 -0.1658229 -0.03678252 0.22701783
0000c0 f9 0b 86 be a5 b1 73 3e 21 bd 9c 3b c0 db 23 be
       -0.2618101 0.23798235 0.004783288 -0.16001797
0000d0 f4 5b e6 3d bc d7 63 be 5a d9 7e 3e c8 23 5e bd
       0.112480074 -0.22250265 0.248876 -0.054233342
0000e0 9a fe b1 bd 1d 70 08 bd d0 fb f9 bd 3b 8a 83 3e
       -0.086911395 -0.033310045 -0.122062325 0.256914
0000f0 08 82 67 be 0d 25 d8 3c 51 d6 a7 be 1c b2 82 3e
       -0.22608197 0.026384855 -0.32780698 0.25526512
000100 6f 17 11 bc f9 cd 71 3e d7 92 af be 20 39 eb 3c
       -0.008855685 0.23613729 -0.34291717 0.028713763
000110 e0 18 8e be c1 d6 fa bc 3a 89 da bd bc 1f 92 3e
       -0.27753353 -0.03061998 -0.10670705 0.28539836
000120 92 23 a5 be 5e 81 31 be f9 d7 93 3e db 90 80 3e
       -0.322537 -0.17334506 0.28875712 0.25110516
000130 c3 e5 10 3e 89 ae 39 3e 35 1d 90 3c bd e1 b1 be
       0.14150147 0.18132986 0.017592052 -0.34742537
000140 15 ff 69 3c 50 bd 3a 3e 49 fc ac 3d 6e c3 9f bd
       0.014282008 0.1823628 0.08446557 -0.07800947
000150 f6 dc 39 be 34 96 96 3d 2d cd 89 be 48 cd 48 3e
       -0.18150696 0.07352868 -0.2691435 0.19609559
000160 81 d1 f8 3c 42 15 02 3e 2f 08 38 3e 00 2a a2 3e
       0.030373337 0.12703422 0.17971872 0.31672668
000170 0a 25 b0 3e 6b 77 34 3e 76 58 98 3e ca a2 b3 be
       0.3440326 0.1762368 0.2975499 -0.35085136
000180 62 2b 66 bc 6a b3 7b 3d 80 45 b4 bd 4b 6e a2 3e
       -0.014048429 0.0614504 -0.088023186 0.31724772
000190 1a 7a 90 3e 28 6f ff 3d 27 d3 99 3d f1 5e 4c 3e
       0.28218156 0.12472373 0.07510977 0.19958092
0001a0 51 04 7b be 8b eb 92 be 7c f2 3d be ca 01 4a 3e
       -0.24513365 -0.2869533 -0.18549532 0.19727245
0001b0 60 15 14 be 1a a4 8c be a7 5d 90 be 98 b4 36 be
       -0.14461279 -0.2746895 -0.2819645 -0.17842329
0001c0 4b f4 4c 3e a0 79 93 3e bb 88 32 bc 43 4c c9 3d
       0.20015065 0.2880373 -0.010896857 0.09828999
0001d0 16 84 8b 3e 45 f5 9d be 10 e6 9d be 53 2d 9d be
       0.2724921 -0.30851188 -0.30839586 -0.30698642
0001e0 25 43 9a 3e 49 b7 a2 bd 2c 09 a2 3e 00 ef 42 3c
       0.30129352 -0.07945115 0.31647623 0.011897802
0001f0 9f e9 88 be 99 d9 87 be 94 e0 a7 3e 79 1c f2 3d
       -0.2674074 -0.265332 0.32788527 0.11821837
000200 5f bf 9e 3d cc d4 67 3e 0e 96 25 3e 06 0f 9a 3e
       0.07751345 0.2263977 0.16170523 0.30089587
000210 03 80 34 3c a7 bf c5 bd a2 0c a5 3e a6 83 cf bd
       0.0110168485 -0.096556954 0.322362 -0.10132532
000220 67 56 93 be aa db 6a 3e cb c5 e7 bd c4 89 04 3e
       -0.28776857 0.22935358 -0.11317023 0.12943178
000230 97 3c 8f 3d a5 95 88 be b1 c2 38 be f0 94 7c bd
       0.069939785 -0.2667667 -0.18043019 -0.061665475
000240 93 6e 80 3e de 0a 53 3e 2a ef 2b 3e f1 4e f2 bc
       0.2508436 0.20609614 0.16790453 -0.029578658
000250 9f f9 e5 3c fa ef 13 be 23 08 8f be 70 a1 91 be
       0.02807313 -0.14447013 -0.27935895 -0.2844348
000260 5b 51 e4 bd 78 05 2f 3d 74 a0 12 3d 1c 2c 85 be
       -0.1114833 0.042729825 0.03579755 -0.26010215
000270 7f 83 87 be 49 52 92 be 55 0b 81 3e a4 5d af be
       -0.2646751 -0.28578404 0.25203958 -0.3425113
000280 7a 9a 99 3e 93 9c 8c bd 3c ff 7c 3e 5f 6c 62 3e
       0.3000067 -0.06865802 0.24706739 0.22111653
000290 ce b0 82 3e 13 46 c5 bd 8d 28 80 be 77 7c c7 bd
       0.25525516 -0.09632506 -0.25030938 -0.09740537
0002a0 1f d6 ce 3d 8b 32 f3 3c 90 b3 65 3e 07 2f e2 bc
       0.10099434 0.029687187 0.22431779 -0.027610315
0002b0 40 51 b0 be a1 90 6f 3e 54 6b 1d 3e bb e6 45 3e
       -0.3443699 0.23395015 0.15372974 0.19326298
0002c0 b1 e8 ee bd e7 cd 15 be 69 1d 6e be d9 74 88 be
       -0.11665476 -0.14629327 -0.23253407 -0.26651648
0002d0 bb bd 9c be e0 86 e4 bd c4 f0 cf bc 95 75 47 be
       -0.30613503 -0.11158538 -0.02538336 -0.19478448
0002e0 95 7e 09 3d af b4 14 be c9 17 b3 3e 8c cc a6 3e
       0.033567984 -0.1452205 0.34979084 0.32577932
0002f0 e2 0e dd 3d de 12 9a 3e b8 7e d0 bd 6b 78 61 be
       0.10793854 0.3009252 -0.1018042 -0.22018592
000300 f4 52 20 be f5 4f 1e be 88 14 54 3e a4 83 42 be
       -0.15656644 -0.15460189 0.20710957 -0.1899553
000310 6f fc 68 be 2c 3f 75 3e 64 a2 b2 be 59 d5 11 be
       -0.22752546 0.2394988 -0.3488952 -0.14241542
000320 c5 ac 99 bd 5d 78 67 be 54 88 0d be 88 60 4c be
       -0.07503656 -0.22604509 -0.13821536 -0.19958699
000330 83 eb e3 bd 48 86 f0 3d b1 bb 87 3d 71 2f 74 be
       -0.11128905 0.11744362 0.06627596 -0.23846222
000340 4c fb ae 3e b1 63 5d be da 36 84 be c1 5a fc bd
       0.341761 -0.2162006 -0.25823098 -0.123219974
000350 15 1b fe bd 96 9b 5b bd 3b b4 38 bb 06 08 ac ba
       -0.12407509 -0.053615175 -0.0028183598 -0.001312495
000360 49 c5 e7 bd c4 20 92 be 2a 82 a6 3c cf 97 98 3e
       -0.11316926 -0.28540623 0.020325739 0.2980332
000370 07 d7 39 bd 98 7e 74 3e fb ef 7d be 71 c5 1f 3e
       -0.04537108 0.23876417 -0.24798577 0.15602662
000380 95 57 2a be 61 05 46 be 4d 57 8c be 36 d4 22 3e
       -0.16634972 -0.1933799 -0.27410355 0.15901265
000390 e0 0f 33 3d 8b d3 14 3e ec 13 78 3e 5d 6a 2d 3e
       0.04371631 0.14533822 0.2422635 0.16935106
0003a0 02 97 4f be 3f c3 ec 3d 38 e5 9c 3e 4d f5 48 3e
       -0.20272449 0.11560678 0.3064363 0.19624825
0003b0 ab 27 6d be 78 f4 85 bd 74 2e a0 be 1b be 6b bd
       -0.23159663 -0.06540769 -0.3128544 -0.057554346
0003c0 47 da 78 3e 92 64 3e be a7 0d a9 3e 46 fe ac 3e
       0.24302016 -0.18593052 0.33018228 0.33787745
0003d0 5e b0 91 3e 6b 39 68 3e e6 fb 54 be 5b 45 99 3c
       0.2845487 0.22678153 -0.20799217 0.01870983
0003e0 35 09 84 3e 35 bb d2 3d 44 0b 98 3d 9b 89 8e 3e
       0.25788274 0.10289613 0.07424024 0.2783936
0003f0 aa 3b 9b 3c e2 26 47 3d 8e 6a 9a 3e 6d 2e 0b be
       0.018949348 0.048621066 0.3015942 -0.13591929

embed.bias f4 [32]
000000 bf fc 9b be 15 80 77 be 0d 4d a0 3e 73 9a 37 3c
       -0.30466267 -0.24169953 0.31308785 0.011206257
000010 82 3f 20 bd 61 cc 89 3e c8 c9 83 3e 2a d8 87 3e
       -0.039123066 0.2691374 0.25739884 0.26532108
000020 7d 60 d4 3d c7 7e 80 3e d5 0b 0f be 11 30 32 be
       0.10369966 0.25096723 -0.13969357 -0.17401148
000030 16 d4 6c 3e 06 83 c4 3c e4 48 dc bd d7 d4 70 3e
       0.2312778 0.023988258 -0.1075609 0.23518692
000040 c9 60 f8 3d 33 7c d4 bd c5 2c a5 be 0a d9 67 3d
       0.12127835 -0.103752516 -0.3226072 0.05660347
000050 ce 4d ce ba d8 9e 9a be 31 ca 93 bd f0 c3 2c 3d
       -0.001573974 -0.30199313 -0.07216299 0.042179048
000060 f4 01 96 be 8c 3b 82 3e 1c 54 95 3e 74 4d 8a 3d
       -0.29298365 0.25436056 0.29165733 0.06753054
000070 fd 29 0c be bb b9 8b be 90 47 8d 3e 54 1a 09 be
       -0.13687892 -0.2729014 0.2759366 -0.1338895

pos_enc.pe f4 [1, 12, 32]
000000 00 00 00 00 00 00 80 3f 00 00 00 00 00 00 80 3f
       0.0 1.0 0.0 1.0
000010 00 00 00 00 00 00 80 3f 00 00 00 00 00 00 80 3f
       0.0 1.0 0.0 1.0
000020 00 00 00 00 00 00 80 3f 00 00 00 00 00 00 80 3f
       0.0 1.0 0.0 1.0
000030 00 00 00 00 00 00 80 3f 00 00 00 00 00 00 80 3f
       0.0 1.0 0.0 1.0
000040 00 00 00 00 00 00 80 3f 00 00 00 00 00 00 80 3f
       0.0 1.0 0.0 1.0
000050 00 00 00 00 00 00 80 3f 00 00 00 00 00 00 80 3f
       0.0 1.0 0.0 1.0
000060 00 00 00 00 00 00 80 3f 00 00 00 00 00 00 80 3f
       0.0 1.0 0.0 1.0
000070 00 00 00 00 00 00 80 3f 00 00 00 00 00 00 80 3f
       0.0 1.0 0.0 1.0
000080 a4 6a 57 3f 41 51 0a 3f ce 7a 2e 3f b0 54 3b 3f
       0.84147096 0.54030234 0.68156135 0.731761
000090 ba 7d 08 3f 0d 94 58 3f f0 90 d1 3e c7 92 69 3f
       0.53316844 0.8460091 0.4093089 0.9123959
0000a0 3e 39 9f 3e 6b 4e 73 3f 25 8f 70 3e f1 d5 78 3f
       0.3109836 0.9504153 0.23492105 0.9720145
0000b0 3a 23 35 3e 83 f6 7b 3f f3 25 08 3e 28 ba 7d 3f
       0.17689219 0.9842302 0.13295726 0.99112177
0000c0 76 75 cc 3d 98 b8 7e 3f 36 6f 99 3d d1 47 7f 3f
       0.099833414 0.9950042 0.07491915 0.9971896
0000d0 ae 36 66 3d 68 98 7f 3f fa ac 2c 3d bd c5 7f 3f
       0.05620449 0.9984193 0.04215715 0.999111
0000e0 5b 81 01 3d 3c df 7f 3f a5 3e c2 3c 93 ed 7f 3f
       0.031617504 0.99950004 0.023711512 0.99971884
0000f0 42 ab 91 3c a3 f5 7f 3f 49 7a 5a 3c 2c fa 7f 3f
       0.017781857 0.99984187 0.013334819 0.99991107
000100 b7 c7 68 3f 33 11 d5 be d9 5a 7f 3f 53 4d 91 3d
       0.9092974 -0.41614684 0.99748 0.070948265
000110 0a f2 66 3f b2 e8 dc 3e 11 35 3f 3f 03 39 2a 3f
       0.9021307 0.43146282 0.7469035 0.6649324
000120 1b 54 17 3f ec 7b 4e 3f b5 d3 e9 3e 69 be 63 3f
       0.5911271 0.8065784 0.45669332 0.8896242
000130 f6 47 b2 3e a6 fa 6f 3f 82 f0 86 3e f5 f2 76 3f
       0.34820527 0.93741834 0.26355368 0.96464473
000140 f8 6f 4b 3e a5 e5 7a 3f d3 00 19 3e 4f 20 7d 3f
       0.19866931 0.9800666 0.1494172 0.98877424
000150 86 d9 e5 3d f3 61 7e 3f ae 85 ac 3d 0e 17 7f 3f
       0.1122313 0.9936821 0.08423935 0.99644554
000160 c8 70 81 3d f9 7c 7f 3f aa 30 42 3d 4e b6 7f 3f
       0.063203394 0.9980007 0.04740969 0.9988755
000170 5c a5 11 3d 8e d6 7f 3f 50 75 da 3c b1 e8 7f 3f
       0.03555809 0.9993676 0.026667267 0.99964434
000180 c3 81 10 3e 26 70 7d bf de 3c 47 3f ce bf 20 bf
       0.14112 -0.9899925 0.7782725 -0.6279267
000190 d7 45 7e 3f ab 7f ed bd 63 21 74 3f 63 18 9a 3e
       0.9932532 -0.11596616 0.95363444 0.3009673
0001a0 c2 09 50 3f 58 2f 15 3f b7 24 27 3f a2 e7 41 3f
       0.8126489 0.58275366 0.652904 0.7574407
0001b0 6c 2f 02 3f 29 6d 5c 3f a7 68 c7 3e 37 c9 6b 3f
       0.5085361 0.86104065 0.3894703 0.92103904
0001c0 6c 4e 97 3e ef 90 74 3f e2 6d 64 3e 92 8c 79 3f
       0.2955202 0.9553365 0.22307542 0.9748012
0001d0 d7 ee 2b 3e 9e 5d 7c 3f 2c 33 01 3e 43 f4 7d 3f
       0.16790329 0.9858035 0.12617177 0.9920084
0001e0 c0 ff c1 3d 4f d9 7e 3f 06 93 91 3d 3a 5a 7f 3f
       0.094726086 0.99550337 0.071081206 0.9974705
0001f0 4e 69 5a 3d c3 a2 7f 3f c5 d1 23 3d 90 cb 7f 3f
       0.053323083 0.9985773 0.039994974 0.99919987
000200 cf bd 41 bf 30 55 27 bf 96 ef 10 3e 3a 6c 7d bf
       -0.7568025 -0.6536436 0.14153895 -0.98993266
000210 ec 49 47 3f 9e af 20 bf a6 47 7e 3f b2 03 ed bd
       0.7784717 -0.6276797 0.99328077 -0.115729704
000220 de 1d 74 3f b1 2e 9a 3e a5 04 50 3f 79 36 15 3f
       0.95358074 0.30113748 0.81257087 0.58286244
000230 bc 1f 27 3f ed eb 41 3f 2e 2b 02 3f ab 6f 5c 3f
       0.652828 0.7575062 0.50847137 0.8610789
000240 d7 61 c7 3e a7 ca 6b 3f 20 49 97 3e c1 91 74 3f
       0.38941833 0.921061 0.29547977 0.955349
000250 c5 65 64 3e 09 8d 79 3f b2 e8 2b 3e e1 5d 7c 3f
       0.22304447 0.9748083 0.16787985 0.9858075
000260 88 2e 01 3e 69 f4 7d 3f c3 f8 c1 3d 64 d9 7e 3f
       0.12615407 0.99201065 0.09471276 0.9955046
000270 c8 8d 91 3d 46 5a 7f 3f 6c 61 5a 3d ca a2 7f 3f
       0.07107121 0.9974712 0.053315565 0.9985777
000280 10 7c 75 bf 2c 3c 91 3e 63 35 12 bf fd 23 52 bf
       -0.9589243 0.2836622 -0.5711271 -0.82086164
000290 d8 da a5 3e 40 32 72 bf 9d e0 5b 3f 42 1c 03 bf
       0.32393527 -0.94607925 0.8588961 -0.51214993
0002a0 7f fc 7f 3f e9 72 29 bc f7 3f 6d 3f 9a 56 c0 3e
       0.99994653 -0.010342338 0.9267573 0.37566072
0002b0 ab ca 46 3f f1 4c 21 3f 54 52 1e 3f 18 2c 49 3f
       0.77652997 0.6300803 0.6184437 0.78582907
0002c0 43 77 f5 3e 40 a9 60 3f 9e 81 bb 3e 05 37 6e 3f
       0.47942552 0.87758255 0.36622328 0.93052703
0002d0 ed 11 8e 3e 7c f2 75 3f f8 4f 56 3e 9f 54 7a 3f
       0.2774805 0.96073127 0.20928943 0.9778537
0002e0 1d 3c 21 3e 81 ce 7c 3f 94 42 f2 3d df 33 7e 3f
       0.15745588 0.987526 0.11829105 0.992979
0002f0 21 db b5 3d 1e fd 7e 3f 92 73 88 3d 60 6e 7f 3f
       0.08879686 0.99604976 0.06662668 0.99777794
000300 8c 0f 8f be b8 cd 75 3f a2 36 7a bf 7b 7d 58 be
       -0.2794155 0.96017027 -0.97739613 -0.21141617
000310 76 e5 6b be 53 1d 79 bf 57 f3 12 3f 53 9f 51 bf
       -0.23036751 -0.9731037 0.5740256 -0.81883734
000320 4e 78 72 3f 6d 3f a4 be d4 33 7d 3f 9e f8 16 3e
       0.9471482 -0.3207964 0.9890721 0.14743277
000330 88 30 60 3f 35 2f f7 3e cd a9 37 3f 11 56 32 3f
       0.8757405 0.48278204 0.7174347 0.69662577
000340 68 8c 10 3f 32 49 53 3f 4f ac de 3e 83 85 66 3f
       0.5646424 0.8253356 0.43490836 0.9004747
000350 fc 7d a9 3e e2 90 71 3f d9 2a 80 3e 6d d9 77 3f
       0.3310393 0.943617 0.2503269 0.9681614
000360 6e 20 41 3e e3 67 7b 3f c2 34 11 3e c1 69 7d 3f
       0.18860027 0.98205394 0.14180282 0.9898949
000370 c2 19 da 3d 51 8b 7e 3f 37 b0 a3 3d 56 2e 7f 3f
       0.10649444 0.9943133 0.07992595 0.9968008
000380 46 30 28 3f bd ff 40 3f f8 fb 5b bf 57 ee 02 3f
       0.6569866 0.75390226 -0.8593135 0.5114493
000390 70 b6 36 bf 5e 4f 33 bf 6d 1b 41 3e 21 68 7b bf
       -0.7137213 -0.7004298 0.18858118 -0.98205763
0003a0 6e e8 4c 3f bc 74 19 bf a7 fb 7e 3f 4a 5e b6 bd
       0.8004216 -0.5994375 0.9960274 -0.08904703
0003b0 44 84 72 3f ba f8 a3 3e 68 be 4d 3f 61 55 18 3f
       0.9473307 0.320257 0.8036866 0.5950528
0003c0 72 eb 24 3f b3 cc 43 3f 4b 4b 00 3f 4e 88 5d 3f
       0.6442176 0.7648422 0.5011489 0.8653611
0003d0 de 60 c4 3e c6 6b 6c 3f 5f f3 94 3e 69 ed 74 3f
       0.38355154 0.9235195 0.29091927 0.9567476
0003e0 50 d3 60 3e ea c0 79 3f 53 33 29 3e 29 7b 7c 3f
       0.2195561 0.9755999 0.16523485 0.9862543
0003f0 ba 46 fe 3d e9 04 7e 3f 68 e5 be 3d ae e2 7e 3f
       0.12415834 0.9922624 0.093210995 0.99564636

transformer_encoder.layers.0.self_attn.qlinear.weight f4 [32, 32]
000000 86 5d 9e bc 34 61 b3 3d ca 54 ce bd 1c c3 a1 bd
       -0.019331705 0.087587744 -0.10074766 -0.07898542
000010 28 24 a9 bd 3b 18 21 3e d9 ba 09 3e 3d ca d1 3d
       -0.082588494 0.157319 0.13450183 0.10243652
000020 ae 6a 36 3d 6d bc 1c 3e 6b ad 1e be 03 a4 06 3e
       0.04453533 0.15306254 -0.15495841 0.13148503
000030 14 0d 1d 3e 16 e0 1f 3e fa 85 82 3c 74 eb 59 bd
       0.1533702 0.15612826 0.015933026 -0.05320306
000040 16 c5 2a be 7f 19 22 3e 49 06 04 3e 5d 1e 74 bd
       -0.16676745 0.15830038 0.12893023 -0.05959927
000050 59 e2 fb bd 6d 1b 0a 3d af 31 89 bc b6 db 70 3c
       -0.12299032 0.03371756 -0.016747324 0.014700821
000060 97 4f 03 bc b2 51 ce bd c8 f2 03 be 18 e1 4c 3d
       -0.008014581 -0.10074176 -0.12885582 0.050019354
000070 0b dc 28 3d 3d 20 c2 bd e7 96 17 bd 28 4b 32 3e
       0.041225474 -0.09478805 -0.037009146 0.17411482
000080 3c c4 fc bd 4d 69 1e be 42 bb 18 be 00 21 98 bd
       -0.12342116 -0.15469857 -0.14915183 -0.07428169
000090 01 c7 ad 3c e1 0c 16 be 9b 75 77 3d 71 4b eb bd
       0.021213057 -0.1465335 0.06041489 -0.11488999
0000a0 df f1 4f bd fd 43 f9 3d 4d f9 c3 3d da d1 03 bd
       -0.050767776 0.12171171 0.09569035 -0.032182552
0000b0 48 1a 66 3d 36 ea 18 3e 9a c7 d5 bd db 42 02 3e
       0.056177408 0.14933094 -0.104384616 0.12720816
0000c0 f6 08 ce 3d 7e 68 96 bd d9 6d dc 3d f1 7a 08 be
       0.10060303 -0.07344149 0.10763139 -0.13328148
0000d0 c8 8b f5 3d 0a 57 db 3c 13 2d 05 3e 0e 5b d2 bd
       0.11989552 0.026774902 0.13005476 -0.102712736
0000e0 e1 45 09 bc 59 a8 18 3e c6 d2 12 be 4e af e4 bd
       -0.008378477 0.1490797 -0.14338216 -0.11166249
0000f0 3d de 40 bd 3b 43 b1 bd 19 9d 44 bc 62 0d 9f 3d
       -0.047086943 -0.08655401 -0.012000346 0.077662244
000100 16 2d 9c bd 71 d7 96 bd c9 45 2c be 89 3a db bb
       -0.07625787 -0.07365311 -0.16823496 -0.0066903275
000110 fc 34 17 3e 28 db 9a 3d 7a 5f 47 bd d5 19 3d 3d
       0.14766306 0.07561332 -0.048675038 0.046167213
000120 b1 31 10 3e c0 0d 9f 3d a0 57 05 be 82 d0 ec ba
       0.14081456 0.077662945 -0.13021708 -0.0018067511
000130 59 23 08 bc ba 91 f9 bd f8 f6 13 3e 6c 82 8a bd
       -0.008309209 -0.12185998 0.1444968 -0.06763157
000140 2e b4 80 bd 43 da d1 3c a0 10 11 be 41 41 0c 3e
       -0.062843665 0.02561677 -0.14166498 0.13696767
000150 3b d9 79 bd 19 60 31 3c a2 3d de 3d b7 60 cf bd
       -0.060998183 0.010826134 0.10851599 -0.10125869
000160 dc b6 94 3d cc eb 87 bc 2c d8 02 be fe 32 0c be
       0.0726144 -0.016591929 -0.12777776 -0.13691327
000170 5f 4d 2b be 17 99 ca bc 75 76 1e 3e a3 8d ef bd
       -0.16728733 -0.024731202 0.15474875 -0.11696937
000180 94 29 f6 bc 44 a9 c1 3d ef 59 c0 3d b5 c5 73 bc
       -0.030049123 0.09456113 0.093921535 -0.01487868
000190 82 c8 0a 3e 7d 94 75 3d 09 81 d9 bd a9 e7 4f bc
       0.1355305 0.059956063 -0.10620315 -0.012689509
0001a0 13 82 37 3d 44 a9 80 3d d9 40 43 bd a2 67 3e 3d
       0.044801783 0.06282285 -0.047669265 0.04648555
0001b0 9e fc a8 3b c9 ee 31 be aa 46 2d 3c 58 6a 43 3d
       0.0051570674 -0.17376246 0.01057593 0.04770884
0001c0 02 3d b1 bd 68 b9 d0 bc a9 eb e2 bd 76 c4 f3 3d
       -0.086542144 -0.025479034 -0.11080105 0.11902706
0001d0 7a 75 09 3e cc 92 12 3e e6 88 85 bd f8 3b 53 bd
       0.1342372 0.14313811 -0.06520252 -0.051570863
0001e0 f4 19 12 3e 63 07 0f 3e 18 2e bb 3d 45 8e dd bc
       0.14267713 0.13967662 0.09139651 -0.027045378
0001f0 7b ab 81 bb 7f dd 0b be b7 fa fc 3c 83 9b fe 3d
       -0.0039572096 -0.13658713 0.030881269 0.12432005
000200 60 fe b8 bd 74 d3 e6 bd 00 36 1f be 05 d9 1b bd
       -0.09032893 -0.112708 -0.15547943 -0.038048763
000210 02 95 02 3e 36 e3 1d be 3e e3 98 bb 36 24 b6 bc
       0.12752154 -0.15418705 -0.0046657613 -0.022234064
000220 4f ff 04 be b4 f1 77 3d bb 5a ce bd f5 43 30 be
       -0.12988017 0.06053324 -0.10075899 -0.17213424
000230 b4 ec 9c 3d f6 83 05 3e 07 97 32 bd 5b c7 98 3d
       0.07662335 0.1303862 -0.043601062 0.07459899
000240 31 99 c9 3d 39 6c e5 bd 61 cd 09 3e 7d 24 7b bd
       0.09843672 -0.112022825 0.13457252 -0.061314095
000250 aa a5 31 3e b4 8f bc 3c 02 8e 69 3d 51 c3 b1 bc
       0.17348352 0.023017742 0.057020195 -0.02169958
000260 3c e2 c5 bc 91 1f 10 be 3c d4 69 bd 4e ab 81 bb
       -0.024155729 -0.14074542 -0.057087168 -0.0039571887
000270 92 b5 cc 3d a8 ef 58 3d 28 31 bf bd 82 0b 94 ba
       0.09995569 0.05296293 -0.09335548 -0.0011294934
000280 8e 53 e6 bc a2 24 29 bd 8d 31 66 3d b9 e7 91 3c
       -0.028116014 -0.0412947 0.0561996 0.01781069
000290 3f e7 4e 3c c3 ab 80 bd 3b 0c e3 bd bc 42 67 bd
       0.012628376 -0.06282761 -0.11086317 -0.056460127
0002a0 8e 3a 89 3d ca 4c 07 3e 43 d1 9b 3c fc f6 b6 bd
       0.067006215 0.13212886 0.019020682 -0.08933827
0002b0 7d 9f 54 3d 6f 3b 1c be e6 a9 8c 3c 06 7f 1e be
       0.051909912 -0.15257047 0.017170858 -0.15478143
0002c0 7f ea d4 3d 11 93 89 3d 71 83 1b be 48 18 27 3e
       0.10396289 0.06717504 -0.1518686 0.16317856
0002d0 5c d9 84 3d e1 13 07 3e ca be 5a 3d 8b 47 9f bd
       0.064867705 0.13191177 0.053404607 -0.077773176
0002e0 4e 1e ec 3d d1 43 91 3d 98 75 4b 3d dd f8 c9 bd
       0.11529218 0.07093013 0.049672693 -0.0986192
0002f0 d0 30 a8 bd ea 04 ea bd ea de dd bd e0 be 7c 3d
       -0.08212435 -0.114267185 -0.10833533 0.06170547
000300 7a 79 0d be 67 90 ad bd d4 ad 26 bd 00 92 cb 3d
       -0.13815871 -0.08474808 -0.04069312 0.09939957
000310 b0 53 94 3d 12 42 b5 3c ed 1f cb 3a 0b 88 2c 3e
       0.072425246 0.022126231 0.0015497186 0.16848771
000320 1a 8d 2b be fd 66 1f 3e 72 6e 02 3e 3a 8f 25 bd
       -0.16753045 0.1556663 0.12737444 -0.040419795
000330 a0 ba 10 3b 4b b7 fd bd 6e f5 29 be dd 67 38 3d
       0.0022083893 -0.12388476 -0.1659753 0.045020927
000340 bf ed 19 be 7f bb 15 3e e0 aa 1c be e7 50 05 3e
       -0.15032099 0.14622305 -0.15299559 0.13019143
000350 7a dd e4 bd 93 db 0c be 68 c1 bb bb 9d f7 fe b9
       -0.11175056 -0.13755636 -0.005729843 -0.00048631142
000360 5d 93 ad bd f1 b9 a7 bd a8 c6 eb 3d 4c 8d 83 3d
       -0.08475373 -0.081897624 0.115125 0.064234346
000370 0c 4c e1 3d dd 09 00 be 7b 72 90 bd 63 0f d5 bc
       0.11000833 -0.12503763 -0.070530854 -0.026008314
000380 62 08 e6 bc ca 91 7e 3a 2c de 07 3e 63 af 25 3e
       -0.02808017 0.00097110553 0.13268346 0.16180186
000390 1d 48 c6 bd 12 27 15 3e 7b 81 26 be 73 e4 33 be
       -0.09681723 0.14565685 -0.1626033 -0.17567615
0003a0 07 e6 cd 3d 1a d0 d4 3c 46 98 b9 bb bc f9 60 bd
       0.1005364 0.025978137 -0.0056639044 -0.054925665
0003b0 1d 2b 56 3c d7 62 0b bd 54 fc eb 3c 62 91 e4 3d
       0.013071802 -0.034029808 0.028806843 0.11160542
0003c0 0f 7d ce bd 63 c4 32 3e 37 c2 2b be ba ca e2 bc
       -0.10082447 0.17457728 -0.16773306 -0.027684558
0003d0 f3 ec 82 3d 59 54 0a bc 3f 88 03 bc e8 17 d7 bc
       0.06392851 -0.008442962 -0.008028089 -0.026256517
0003e0 7c ef 64 3d 52 70 b9 b9 80 8f 05 3e 24 7a 11 be
       0.055892453 -0.00035369635 0.13043022 -0.14206749
0003f0 fd ad a5 bd 26 15 2f 3e 09 5a e5 bc cd 5a 1d be
       -0.08089826 0.17097911 -0.027997034 -0.15366669

transformer_encoder.layers.0.self_attn.qlinear.bias f4 [32]
000000 b4 21 a3 bd 81 bc 24 be ca 8d c9 bd 50 30 ea 3d
       -0.07965413 -0.16087534 -0.09841497 0.11434996
000010 a2 79 2f be d2 b4 8d 3d 3d 80 08 3e b9 11 67 3c
       -0.17136243 0.06919254 0.13330169 0.0141033465
000020 b1 76 2a 3e ff ff 0f 3d 65 1b 1d 3e 97 a2 f2 bd
       0.1664684 0.035156246 0.15342481 -0.11847418
000030 de 34 09 3e 5d 15 29 bc c4 4a db 3d a2 19 20 bd
       0.13399073 -0.010320035 0.1070762 -0.039086945
000040 b2 53 07 be c7 ce 2f be d7 5a fd 3c 85 46 2a 3e
       -0.13215521 -0.17168723 0.030927105 0.16628464
000050 c5 bf 1e bd 0c 59 a9 3d 37 58 e9 3d d0 e3 01 be
       -0.038757104 0.082689375 0.11393779 -0.1268456
000060 f2 2f 9d bc 26 cc 4b bd 14 71 c4 3b 3b 19 a5 bc
       -0.019187901 -0.049755238 0.0059949253 -0.020153632
000070 92 97 66 3c 86 9e ce bd a1 d5 1c be 1a e8 cf bd
       0.014074223 -0.1008883 -0.15315868 -0.10151692

transformer_encoder.layers.0.self_attn.klinear.weight f4 [32, 32]
000000 81 cb 04 be c8 d9 3f bd d3 3d 64 bc cf 2a fb 3d
       -0.12968256 -0.04683855 -0.013930756 0.122640245
000010 10 02 13 3e 90 ec 26 bd f9 01 1e be 55 27 a6 bd
       0.14356256 -0.040752947 -0.1543044 -0.08112971
000020 b6 c1 ff bd 33 fb ec bd 1d a1 ac bd 7b d9 80 bd
       -0.12488119 -0.1157135 -0.084291674 -0.06291481
000030 c1 9e 05 3e 2a 38 a3 3d 17 24 33 be 66 f1 87 3d
       0.13048841 0.07969697 -0.17494236 0.0663784
000040 45 a4 93 bc 0d 98 e5 3d eb 54 83 3d 3f d4 2f 3e
       -0.018022666 0.11210642 0.06412681 0.17170809
000050 01 8b f8 bd 60 eb 10 3d a1 1d 87 bc c2 47 c0 3d
       -0.12135888 0.03538072 -0.01649362 0.09388687
000060 6e 98 da 39 09 06 41 bd 14 52 16 be c9 43 d4 bd
       0.0004169377 -0.047124896 -0.14679748 -0.103644915
000070 9f bc bf 3d 42 7e 14 3d d5 3d c5 3c c2 f3 5e bd
       0.093621485 0.03625322 0.024077335 -0.054431684
000080 a8 68 1e 3e 49 91 94 3d 70 d4 e0 3d 29 45 e4 bd
       0.1546961 0.072542734 0.10978019 -0.11146004
000090 6d 98 25 3e 64 75 d9 3d 94 3d 32 3e 3d fa 1e be
       0.16171427 0.106180936 0.17406303 -0.15525146
0000a0 07 5f 11 3d da b7 45 3d c2 26 0b be c3 75 a5 3d
       0.035491016 0.048271038 -0.13589004 0.08079102
0000b0 5a 9a 97 3c 27 a5 e1 3d e9 fc 1a 3e 99 ca 24 be
       0.018506218 0.110178284 0.1513554 -0.1609291
0000c0 cc 96 ab bc 21 33 d3 bd 12 b9 2b 3e 93 a8 17 3e
       -0.020945929 -0.103124864 0.16769817 0.148104
0000d0 13 0d b4 3d 27 1c dd 3d 17 4d ae bc 31 67 32 be
       0.08791556 0.10796385 -0.021276994 -0.17422177
0000e0 43 b8 26 3e cc 21 e1 3b 1d d5 ff 3c 53 36 f0 bd
       0.16281228 0.006870484 0.03122955 -0.117291115
0000f0 e4 55 09 3e 9d 08 0c 3e fd 05 0c 3e 38 5e fb bd
       0.13411671 0.1367516 0.1367416 -0.1227383
000100 0d 3b 1c 3e ad c5 83 3c c8 d8 44 bd 63 5d 07 be
       0.15256901 0.01608547 -0.0480583 -0.13219218
000110 f8 04 17 3e 06 c9 b4 bc 33 06 0c be a0 42 1b be
       0.14747989 -0.022068512 -0.1367424 -0.15162134
000120 64 ba 8f 3c a9 da af bd 2b 1e 92 3d 28 77 ad 3d
       0.017544933 -0.08586628 0.0713466 0.08469993
000130 31 f1 e3 3d 5a 62 2d be a8 97 c3 3d 7c 58 44 3d
       0.11129988 -0.1693205 0.095504105 0.047935948
000140 63 42 83 bd 0b 1c 2b 3e 24 22 b9 3c 11 ee c7 3c
       -0.06409147 0.16709916 0.022599287 0.024405511
000150 d3 47 14 be 4b 32 db 3d 8e 54 24 3e ef 4d 05 3e
       -0.14480524 0.10702952 0.1604788 0.1301801
000160 a3 57 0c be c7 74 9d bd a6 c6 f7 3d 6a a5 3a bc
       -0.13705306 -0.07688289 0.12098436 -0.011391977
000170 3d 41 d7 3d b8 7c d2 3d b8 43 ae bc 82 0c 2a 3e
       0.1051049 0.102776945 -0.021272525 0.16606334
000180 3b a6 4f 3d 23 65 ff bd 6b 67 dc bd 9b 2a fa bd
       0.05069564 -0.12470462 -0.10761913 -0.122151576
000190 0e bd 06 be 26 43 83 3d 81 dd 95 bd 60 b1 c3 bd
       -0.13158056 0.06409292 -0.07317639 -0.09555316
0001a0 86 1d e3 bd bf 0a 8e bd 6f 1e 12 bd e8 f3 10 3e
       -0.110896155 -0.069356434 -0.035673555 0.14155543
0001b0 8d 84 91 bc 9a 44 f8 bd 55 9e 10 be 57 78 d9 bd
       -0.0177634 -0.1212246 -0.14122899 -0.10618656
0001c0 c8 f3 0e 3c 42 1c e8 3d 3a cb b1 bc 23 cd 18 be
       0.008725114 0.11333515 -0.021703351 -0.14922003
0001d0 72 24 f7 bd d6 3c 1c 3e 3c b4 11 3e fc b6 b1 3d
       -0.12067498 0.15257582 0.1422891 0.086774796
0001e0 82 a1 39 3d d5 30 0c be 75 1b fa 3b a6 03 b2 bd
       0.04532004 -0.13690503 0.0076326677 -0.08692102
0001f0 6a e9 02 3d 39 3e 2d bd f1 c0 8d bc 4e 20 03 bc
       0.031960882 -0.04229567 -0.017303916 -0.0080033075
000200 04 8c 87 bd 2d 6c 9e 3d cb f1 fb 3d c2 a6 d0 bd
       -0.06618503 0.07735477 0.12301978 -0.101880565
000210 20 0b 33 be 86 cb ad bd e7 55 15 bc c7 86 62 bd
       -0.17484713 -0.08486085 -0.009114719 -0.055304315
000220 6b 5e a9 3c 28 f1 e1 3c 36 a8 a7 bd 43 38 2e 3e
       0.020674905 0.027580813 -0.081863806 0.1701365
000230 17 ae 83 3d 0f 9b de bd 89 f3 e9 3d ff d1 9a 3c
       0.064296894 -0.10869419 0.11423404 0.018898962
000240 2f 13 09 be 10 09 06 bd 8a 74 5b bd a3 5a b8 3d
       -0.13386224 -0.032723486 -0.053577937 0.090016626
000250 96 43 54 3d ac 4b 9e 3c c5 ac 09 3e 58 5b 10 be
       0.051822267 0.019323193 0.13444813 -0.14097345
000260 cf c0 33 bd 71 1f fb 3d bf 11 d0 3d 39 7c 36 bd
       -0.04388505 0.12261856 0.10159635 -0.04455206
000270 a4 3d 15 3d ff c1 90 bd 1c f3 ea 3d c1 5c 01 be
       0.03643574 -0.07068252 0.11472151 -0.12633039
000280 3f 38 40 3d 03 ef 24 be 11 08 41 3c 7e b5 0b be
       0.04692864 -0.161068 0.011781708 -0.13643453
000290 01 99 b0 bd 3e e1 27 3e 33 d2 4c 3d 30 59 0b be
       -0.08622933 0.16394517 0.05000515 -0.13608241
0002a0 91 c3 d7 3d 7f b7 11 be 75 ff ae 3a 29 ed 2a be
       0.10535348 -0.14230154 0.0013351279 -0.16692032
0002b0 33 8c 1c 3e c0 c9 c1 3d 7c dc 08 3e 51 53 d9 3d
       0.15287857 0.09462309 0.13365358 0.106115945
0002c0 3a 56 5a bc 0d fd 25 3d 14 c8 93 3d f1 58 fa bd
       -0.013326222 0.04052453 0.07215896 -0.122239955
0002d0 3d ca 34 be 1c 33 87 bd bb ac 05 3e 20 86 b6 3d
       -0.17655273 -0.06601545 0.13054173 0.08912301
0002e0 c6 a3 27 be f8 1c 8f 3b 62 c5 48 3c 9a 3d f7 bd
       -0.16371068 0.004367467 0.012254091 -0.120722964
0002f0 45 30 96 bd 83 9e 6e bd 70 e7 f1 bd dd fa cb 3d
       -0.073334254 -0.058256637 -0.11811721 0.09959958
000300 ee 37 1b 3e 13 78 f4 bd 8b 7f 20 3e c8 59 20 bd
       0.15158054 -0.11936965 0.15673654 -0.039148122
000310 52 bc 59 3d 90 8f b5 bd 1e 98 8d 3d 8a 06 2e be
       0.053158112 -0.08865273 0.0691378 -0.16994682
000320 5e 91 05 3e 6e 8a 43 3d 6b a1 9a 3d 57 de 08 be
       0.13043734 0.04773944 0.07550319 -0.13366066
000330 ff 20 27 3d 1f c6 1c 3d 58 09 2c be ab 0c 26 be
       0.040802952 0.03827488 -0.1680044 -0.1621577
000340 6e 38 71 3c 96 a2 a5 3d 81 f4 e3 3c af c3 d4 bd
       0.014722927 0.080876514 0.02782655 -0.10388886
000350 84 2e 28 3d 36 b2 98 3d eb 25 ca bc 08 4d 2a 3e
       0.041059986 0.07455866 -0.024676284 0.16630948
000360 3a 4e 02 bd 7d 7f af bd f0 e9 26 be e2 a9 fc bd
       -0.031812884 -0.08569238 -0.16300178 -0.1233709
000370 b1 cc 73 3d e0 10 99 3d 6c 81 9e bd b0 0e 1b be
       0.05952138 0.07473922 -0.07739529 -0.15142322
000380 89 85 82 bc 2f c0 b4 bc d2 6d 8b bc 16 59 99 bd
       -0.015932815 -0.022064297 -0.01702014 -0.07487695
000390 47 ab 97 3d 31 bd a7 bd 2b e1 d5 3d 9f d3 31 bc
       0.074057154 -0.08190382 0.10443338 -0.010853677
0003a0 34 e8 25 3e f5 92 fc bd 6a ea 14 3e 94 9e 89 3c
       0.1620186 -0.12332717 0.14542547 0.016799249
0003b0 76 0e 03 be 08 4d 78 3d 35 4b af bd 23 33 90 3d
       -0.12798485 0.060620338 -0.085592665 0.070410036
0003c0 87 2d 01 be ca 9b 6f 3d 4d f1 dd bd 95 a0 78 bd
       -0.12615024 0.05849818 -0.1083704 -0.060700018
0003d0 a9 9e 17 be 4b 3a 17 3e 36 4f f1 3d ca de 1f be
       -0.14806618 0.14768331 0.117826864 -0.15612331
0003e0 10 24 ee 3d 7c b7 e9 3b 4c 8a 95 3d 6b 5c 02 3e
       0.11627972 0.0071324687 0.07301769 0.12730567
0003f0 a6 ec 33 bd de fc 6a bd fa b6 65 bd 07 3b 34 3e
       -0.043926857 -0.05737006 -0.056082703 0.17600642

transformer_encoder.layers.0.self_attn.klinear.bias f4 [32]
000000 46 60 a9 bd b8 73 f7 bd 6c 86 11 3e ca 1c 7d bc
       -0.08270316 -0.120826185 0.14211434 -0.015448758
000010 62 8f 09 be ec cb 44 3d ab bf 53 bd f2 21 ef bc
       -0.13433602 0.048046038 -0.05169646 -0.029190991
000020 9a e2 cb 3d 74 1f fd bd 74 7d db bd f9 09 f3 bb
       0.0995533 -0.12359515 -0.10717288 -0.0074169603
000030 0f e8 cb 3d 6f 16 77 bd e9 92 98 3d 8d df 8c bc
       0.09956371 -0.06032413 0.07449896 -0.017196441
000040 97 da 23 3e 7d 2d 17 3e 01 7d 28 3e f7 dd ee bd
       0.16001354 0.14763446 0.16453935 -0.1166343
000050 9a a9 9f 3c d0 07 a6 3d 81 34 ca bd 24 c0 c9 3b
       0.019490052 0.08106959 -0.098732956 0.006156938
000060 c8 c2 94 3d 1f fe 34 3d c8 a5 01 bd 99 d1 d1 3b
       0.07263714 0.04418766 -0.031652242 0.00640316
000070 0e 5e 0b 3e b2 84 fe bd a1 ed 64 bd 8d d6 0e be
       0.13610098 -0.12427653 -0.055890683 -0.13949032

transformer_encoder.layers.0.self_attn.vlinear.weight f4 [32, 32]
000000 46 ea 27 3e 6c 24 a9 bd c5 b4 19 bd 9b 4d 7c bb
       0.16397962 -0.082589 -0.03752591 -0.0038498405
000010 41 0e 63 bd 41 e5 a7 bd b8 5f 0a 3e 33 87 1f be
       -0.055433515 -0.081980236 0.13513076 -0.15578918
000020 65 7e 0d be fe 56 21 3d c6 18 82 bd 84 2e c1 3c
       -0.13817747 0.039389603 -0.063523814 0.02358175
000030 29 45 83 3d 52 8c f1 bd 77 52 f4 bd c4 56 d2 bd
       0.06409676 -0.11794342 -0.119297914 -0.102704555
000040 21 de 0a be 9d ae 63 3d e1 da 22 be 31 1a f7 bd
       -0.13561298 0.055586446 -0.15903808 -0.120655425
000050 59 8e ad ba 37 a1 f5 3d 11 bb f1 bc 03 29 a2 3d
       -0.0013241275 0.1199364 -0.029508146 0.079179786
000060 00 7a 2a 3e 32 88 ce bd 87 63 10 3e 0c 8b 50 3d
       0.16648102 -0.10084571 0.14100467 0.050913855
000070 d5 94 81 3d 11 54 33 be b6 7b 00 3d 0b c6 9e bd
       0.063272156 -0.17512538 0.03136798 -0.077526174
000080 c4 34 4a bd c8 da 1a be 72 f7 1b bd 08 69 c9 bc
       -0.049366727 -0.15122521 -0.03807778 -0.024586216
000090 ce 06 c2 3c 74 71 23 3c fc 74 f6 3d 6d bd ab 3c
       0.023684885 0.00997578 0.12034032 0.020964349
0000a0 6e b6 83 3c 99 f2 08 3d d8 be a4 bd 66 a0 fd bd
       0.0160782 0.033434484 -0.08044213 -0.12384109
0000b0 5f a2 7c 3c 53 5d 66 3c 6f b3 b8 bd f6 1b 12 be
       0.015419572 0.014060336 -0.09018599 -0.14268479
0000c0 e1 38 21 3e cb 9e 1c 3e 1b 6d fa 3d d0 7a 08 be
       0.15744354 0.1529495 0.122278415 -0.13328099
0000d0 ad bf e2 3c e9 38 20 be a8 ca 45 bd bf d2 34 3e
       0.027679289 -0.1564671 -0.04828897 0.17658518
0000e0 7f cb 30 be ac 51 52 bd 65 5c a9 bd 4d 5d ff bd
       -0.17265128 -0.05134742 -0.08269576 -0.124689676
0000f0 0b 0a 7a 3c 4f aa f7 bd 1f 75 a1 bd ef 1d 2e bd
       0.0152611835 -0.12093031 -0.07883667 -0.042509016
000100 2e ab 8a 3d 19 ca 0c be b5 f4 a1 3d 73 61 a6 3d
       0.06770931 -0.13748969 0.07908002 0.08124056
000110 a8 43 47 bc 76 32 43 bd 2e 75 57 bd 5a af 72 3d
       -0.012162127 -0.047655545 -0.052601986 0.05924926
000120 2f 5d 0c 3e fb 55 2b be b0 84 09 3e 37 15 16 be
       0.13707422 -0.16732018 0.13429523 -0.1465653
000130 b3 b8 26 be 80 18 64 3d a2 ee f7 3d 2d a3 26 3d
       -0.16281395 0.055687428 0.121060625 0.04068296
000140 16 06 1a 3d 87 65 14 be dc 1a 95 3b e9 3f 1b bd
       0.03760346 -0.14491855 0.004550321 -0.037902746
000150 6c 4f 12 3e a9 da a2 bc 5f 9b 28 be fd 9c a8 bd
       0.1428811 -0.019879656 -0.1646552 -0.08233068
000160 ed e6 80 3d e5 68 14 be b5 a5 2c 3c a4 95 20 be
       0.062940456 -0.14493139 0.0105375545 -0.15682083
000170 37 be 1d 3e fa c0 2e 3e dc b3 29 3e 44 84 0b 3e
       0.15404592 0.17065802 0.16572517 0.13624674
000180 09 45 21 be c8 2d d7 bd 3e 5a 42 bd a2 c4 58 bd
       -0.15748991 -0.10506779 -0.047449343 -0.0529219
000190 11 b8 16 3e 00 8d 1b 3e 54 8a 21 3e ed f4 bf 3d
       0.14718653 0.15190506 0.15775424 0.09372888
0001a0 da e3 3c 3c 07 49 cd bd 99 ff fc 3d bf 9b d3 bd
       0.011528933 -0.100236945 0.12353439 -0.103324406
0001b0 ac 49 0c be d9 07 2f 3e f6 c0 89 3d 0c ae 6e 3d
       -0.13699979 0.17092837 0.067262575 0.058271453
0001c0 f6 cf 77 bd 17 95 a6 bd 5e ae ee 3d 68 9d ff bd
       -0.06050106 -0.081339054 0.11654352 -0.12481195
0001d0 08 a4 73 bc 36 67 4f bd 6b 02 05 3e f8 b2 fe 3d
       -0.014870651 -0.05063554 0.12989204 0.12436479
0001e0 b1 98 24 be 9a 34 f6 3d e1 6d 11 be 8c f3 01 3e
       -0.16073872 0.12021752 -0.14202072 0.12690562
0001f0 7c e2 a0 3d 0e a5 a6 bd e6 1a 92 bd 79 f3 03 be
       0.078556985 -0.081369504 -0.07134037 -0.12885846
000200 08 28 02 be 00 a2 12 bd 21 34 91 bd 52 a3 15 3e
       -0.12710583 -0.035799026 -0.07090021 0.14613083
000210 ba a6 10 be 22 19 d7 bd b9 1d f6 3d 74 2c 5c bd
       -0.14126101 -0.105028406 0.12017388 -0.05375333
000220 34 ed 00 3e 69 9b 0e 3e 17 9b d6 3d 24 ca 98 3c
       0.12590486 0.13926472 0.104788 0.018651076
000230 88 d0 34 3e 3e 4d 2a be 86 74 f7 bd 5a 05 0f be
       0.17657673 -0.16631028 -0.12082772 -0.13966885
000240 41 58 81 3d c3 6d 26 3e 7d 33 06 bb 15 2f 8c 3a
       0.06315661 0.16252808 -0.0020477467 0.0010695184
000250 84 6d ef bd de b2 2e 3e 20 40 08 be 40 2a 0f be
       -0.1169081 0.1706042 -0.13305712 -0.13980961
000260 2c 30 8f 3d 50 25 93 3d 02 5d 2b 3e 9e b7 29 be
       0.0699161 0.07184851 0.16734698 -0.1657395
000270 dc ea 11 be 29 21 1f be 12 68 2f 3e 2e a2 1e bd
       -0.14249748 -0.15539993 0.17129543 -0.038728885
000280 42 c5 1d 3e 02 b5 4c 3c da 6c 15 3e f6 17 4d bd
       0.15407279 0.0124943275 0.14592305 -0.05007168
000290 81 7c 44 bd e4 50 19 3d d6 84 bb bd ee ae c2 bd
       -0.0479703 0.03743066 -0.09156196 -0.095060214
0002a0 b0 a7 c3 bc b5 87 85 3c ab 5a 2e 3e 9a ea 7d 3d
       -0.02388367 0.016300062 0.17026775 0.06199131
0002b0 52 47 86 3d 01 d3 85 bd 4a a3 dc 3d 8e 35 43 3d
       0.06556572 -0.065343864 0.107733324 0.047658496
0002c0 13 22 dd bd ae 0c 92 bd e7 55 22 3d df 94 da bd
       -0.10797515 -0.07131325 0.039632704 -0.10672926
0002d0 54 0b 1d be 54 a5 29 3e 85 12 13 3e 68 7b cf bd
       -0.15336353 0.16566974 0.14362533 -0.1013096
0002e0 14 22 8a bd e0 43 1b be 43 f6 0d bd 8d 09 62 bd
       -0.06744781 -0.15162611 -0.03465868 -0.05518489
0002f0 9f e8 f7 3d d8 15 27 be c8 86 cc 3b e1 e7 2b be
       0.12104916 -0.16316926 0.006241653 -0.16787674
000300 fd ea ad bd 2a 22 14 be 94 38 08 be 2d 9a 0a bc
       -0.08492086 -0.14466158 -0.13302833 -0.00845961
000310 21 9e a8 bc c6 e4 2c bd 41 42 2b bd b3 34 1a 3e
       -0.020583214 -0.042210363 -0.04181123 0.15059166
000320 e9 0c 9f bd 74 ea 93 bc 8a a9 b7 bd 63 d3 21 3e
       -0.07766134 -0.018056132 -0.08967884 0.15803294
000330 df a0 c1 bd 28 79 46 bc 58 af 95 bd 07 85 0b be
       -0.09454512 -0.012113847 -0.07308835 -0.13624965
000340 d0 c5 ff bd 4c e1 13 be 4c c4 09 3d 71 24 01 3e
       -0.124889016 -0.14441413 0.03363447 0.12611558
000350 5c 86 19 3e d6 f3 fb 3d 41 f2 b2 3d 0c dd d5 3d
       0.1499266 0.123023674 0.087376125 0.10442552
000360 86 4c 74 bd 6a da 38 3b ae 13 3b bd 1b e2 bc bd
       -0.05964329 0.0028206357 -0.045673065 -0.09222814
000370 25 1c 20 3e ff 9f 93 3d 46 ce 31 bd d6 bb 12 be
       0.15635736 0.07208251 -0.04340961 -0.14329466
000380 f9 a6 10 3e 97 10 b2 3d 8d ff 3e bd ab 99 0a bd
       0.14126195 0.086945705 -0.04663043 -0.033837955
000390 a4 97 09 3d 2f d4 cd 3b eb 4b 08 3c fa fa fb bd
       0.03359188 0.006281398 0.0083188815 -0.12303729
0003a0 7d 18 cd bc ef fc f2 bd 40 d6 ea 3d 84 94 35 3d
       -0.025036091 -0.118646495 0.11466646 0.04433109
0003b0 f8 c2 23 bd 2e 99 a8 3d d3 43 92 bc b5 10 ae bd
       -0.03998086 0.08232342 -0.017854607 -0.0849928
0003c0 15 05 af bd 78 1e c2 3d 60 2f dd bd c7 20 e6 3b
       -0.08545891 0.09478468 -0.10800052 0.0070229503
0003d0 bd 83 cf bc ad 2c 3a bd c7 22 1b be a8 13 01 3e
       -0.025331372 -0.045452762 -0.15149985 0.12605155
0003e0 1e 24 09 bd 4d a1 e5 3d 8c 39 e0 bd 32 7b 1f be
       -0.03348171 0.11212406 -0.10948476 -0.15574339
0003f0 6c 86 da 3d 71 00 ee bd b4 e0 00 be 68 19 ba 3c
       0.1067017 -0.11621178 -0.12585717 0.022717193

transformer_encoder.layers.0.self_attn.vlinear.bias f4 [32]
000000 d1 9c b6 bd 51 c9 8f 3d 88 a8 00 be 9a 7c e0 3d
       -0.08916629 0.0702082 -0.1256429 0.10961266
000010 20 c6 97 3d b6 59 98 bc 12 21 99 bc 59 f6 a2 3d
       0.07410836 -0.018597465 -0.018692527 0.07957143
000020 18 30 0d bd e3 a6 0d be 17 7d 19 be 8e b6 e3 3d
       -0.034469694 -0.13833193 -0.14989124 0.11118804
000030 77 76 a6 bd 36 39 e9 3d 0e 91 ab 3b d9 83 a1 bc
       -0.08128064 0.11387865 0.0052357977 -0.01971619
000040 0e 8a 31 be 59 11 bf bd 4a e0 2f 3e 3d e8 c2 3c
       -0.1733782 -0.09329481 0.17175403 0.02379238
000050 c0 e3 9f bd d6 bf 24 3e de bb 29 3d bb 7c d4 3d
       -0.07807112 0.16088805 0.04143893 0.10375353
000060 cc 20 92 3d 2d 24 6f 3d d7 17 9c 3b 10 3c 29 3e
       0.07135162 0.05838411 0.004763584 0.16526818
000070 ae 35 34 bd 80 d8 5c bd da 87 ec bc 34 2b b0 3d
       -0.043996505 -0.053917408 -0.028873373 0.0860199

transformer_encoder.layers.0.self_attn.out_proj.weight f4 [32, 32]
000000 ec 04 10 bd a3 fb 53 3d 0b 09 0e 3e ff 2d 25 be
       -0.035160944 0.05175365 0.13870637 -0.16130827
000010 ad 68 c5 bd 1e 9b 79 bc 42 77 24 3b 47 61 90 bd
       -0.09639106 -0.015234737 0.0025095497 -0.07049804
000020 24 a9 c4 3d b1 0c d7 3d 6f 4c c6 bc 13 f5 e4 bd
       0.096025735 0.105004676 -0.024206368 -0.11179557
000030 ef c6 84 3d 8b c9 83 3d 50 bb f3 3d 35 fe 14 be
       0.06483256 0.06434926 0.119009614 -0.14550097
000040 e3 22 0e be 85 e4 b2 3d 2f e8 c4 3d 73 2c 34 be
       -0.13880496 0.08734993 0.09614598 -0.17595081
000050 17 12 c5 bd 9d a9 3e bd e1 fe c8 bd 8a c7 fc 3d
       -0.09622591 -0.046548475 -0.09814239 0.123427466
000060 09 a0 1e be 0d 2c db 3d fc 46 9a bd 0c 3f 16 be
       -0.15490736 0.107017614 -0.075330704 -0.14672488
000070 07 70 17 be ed 5e 1b 3e ac fc 99 3d bc ae eb bd
       -0.14788829 0.1517293 0.075188965 -0.11507937
000080 30 8f 7d 3d 2e 82 f3 bb e1 5f 06 3e ef 55 18 bd
       0.061904132 -0.00743129 0.13122512 -0.037191328
000090 5a 86 8f bd d7 b5 0a 3b cf dc 00 be 61 ed 10 be
       -0.070080474 0.0021165514 -0.12584232 -0.14153053
0000a0 bf 49 ec bd 2b 44 cc 3d 1a 9a 2b be ac b3 70 3d
       -0.115375035 0.099739395 -0.16758004 0.0587651
0000b0 49 0f 1d 3d 85 0d 10 be 3b 23 2d be 73 0d 17 3e
       0.038344655 -0.14067657 -0.1690797 0.14751224
0000c0 43 75 4b 3d c3 5d c7 bd 8f a7 be 3c d0 10 e8 3d
       0.049672376 -0.097346805 0.023273258 0.11331332
0000d0 80 49 5a 3d 36 a5 43 bd 78 fd 43 bb aa b4 af bd
       0.05329275 -0.04776498 -0.0029905718 -0.08579381
0000e0 87 5a 2d be 32 2d ff 3d f0 47 22 bc 09 20 08 3d
       -0.16929065 0.12459792 -0.009904847 0.033233676
0000f0 8c 5c 06 3d 7b 64 27 be 88 fb 00 3e 02 09 eb bd
       0.032803103 -0.16346924 0.12595952 -0.114763275
000100 80 6c bd 3c d7 84 82 3d 9f 59 24 3e d3 65 17 be
       0.023123026 0.063729934 0.16049813 -0.14784937
000110 a6 d0 38 bd fc 34 e4 bd d4 8d d9 3d 8d 00 7d bd
       -0.045120858 -0.111429185 0.10622755 -0.061768103
000120 7d f5 97 bd af 12 95 bd f5 bc 45 bd ae 49 81 3c
       -0.0741987 -0.07278954 -0.048275907 0.015782204
000130 30 01 c9 3d a2 95 ae 3d e9 69 8b 3d b3 a5 5c bd
       0.098146796 0.08524634 0.0680731 -0.05386896
000140 83 24 e4 3d 57 f1 d3 bd c9 d2 01 3e 30 5f 36 bd
       0.111397766 -0.10348766 0.12678064 -0.04452437
000150 c5 ef 1c 3e 96 2f 0f 3e 0e db 4d 3d 4e 89 09 3e
       0.1532584 0.13982996 0.050257735 0.13431284
000160 e1 82 be 3c b7 0a 96 bd f4 d5 16 bc 18 a2 f8 bd
       0.023255767 -0.073262624 -0.009206284 -0.12140292
000170 3a 53 09 3b 6c b8 a0 bb 89 c2 e7 3d 52 df 05 be
       0.0020954148 -0.0049047973 0.113164015 -0.13073471
000180 27 c7 84 3d f2 a3 f5 3d 6c 6e 8a 3b 0b ea 86 bd
       0.06483298 0.11994161 0.004224589 -0.06587609
000190 a6 8c 25 be b3 3a f2 bd 8b 1e 5e bd 55 56 ad 3d
       -0.16166934 -0.11827602 -0.054228347 0.08463732
0001a0 44 1d 59 bd 18 f0 85 3d a7 8b 2e be 45 f0 08 be
       -0.053006425 0.06539935 -0.1704546 -0.13372906
0001b0 df 48 5c bd 84 d0 00 3e 00 af eb 3d a1 7e eb 3d
       -0.053780433 0.12579542 0.11507988 0.11498762
0001c0 54 e3 5c 3a 95 5f 2c be 42 28 d5 3d f9 56 20 3e
       0.00084262085 -0.16833337 0.10408069 0.15658177
0001d0 ba c7 c5 3d 77 2b 63 3c eb 30 be 3d ff a1 12 3e
       0.096572354 0.013865343 0.09286674 0.14319609
0001e0 d9 45 b1 bd b8 e7 dd bd 5a 4e 17 be 63 a1 f6 bd
       -0.086559005 -0.108352125 -0.14775982 -0.12042501
0001f0 2b af 84 bd 6f 33 e5 3d 86 cc 3f 3c 8e 8c f7 bd
       -0.06478723 0.11191451 0.011706477 -0.120873556
000200 19 d2 0b 3d ed e5 21 be 82 cd 0f be 33 5a ca bc
       0.03413591 -0.15810366 -0.14043239 -0.024701213
000210 73 d6 c0 3d 81 fe 54 3c 18 e3 c1 3d 93 f2 15 be
       0.09415903 0.013000132 0.09467143 -0.14643316
000220 05 b4 1d 3e 65 b7 b7 3d 99 b3 04 bd 86 f7 1e be
       0.15400703 0.089705266 -0.03239784 -0.1552411
000230 c6 05 12 3e ab 8b 02 3e aa f7 87 3d 22 cc b5 bd
       0.14260015 0.12748592 0.06639035 -0.08876826
000240 ca fa c4 bb 8b 06 28 bd 55 16 19 3d 67 a8 bb 3d
       -0.0060113417 -0.041021865 0.037374813 0.091629796
000250 cf 19 10 be 7f 5a d5 bd 42 c0 91 3c 68 8a 76 bc
       -0.14072345 -0.104176514 0.017791871 -0.015047647
000260 a7 83 46 3d 75 e0 a1 3d 3d 2b 1e 3e 8c ae 67 bd
       0.048465397 0.0790414 0.15446182 -0.056562945
000270 97 1f 88 3d 52 3e 3c 3d 33 d9 14 be f1 0b d1 3d
       0.0664665 0.04595787 -0.1453598 0.10207356
000280 61 44 d0 3d 58 61 13 be 54 05 19 be f7 0c cb bc
       0.10169292 -0.14392602 -0.14943439 -0.024786456
000290 d5 47 4f bd c5 a7 e6 3d 1d d2 2a be 38 7a 39 3c
       -0.050605614 0.11262468 -0.16681714 0.011320643
0002a0 0a 5c f3 bc de 18 bc bd 8b b9 24 3e af c5 5a 3c
       -0.029706974 -0.091844305 0.16086404 0.0133527955
0002b0 ad 3d 95 3d 57 b2 b6 3c 5f 29 b8 3c 23 64 f3 3d
       0.07287154 0.022301836 0.022480665 0.11884334
0002c0 aa 5e 00 be 10 14 9a 3d a5 e9 aa 3a 54 50 92 bd
       -0.12536111 0.07523358 0.0013039602 -0.071442276
0002d0 22 05 e2 bc 55 ac fb bd cd 93 d8 3d be f9 a8 3c
       -0.027590338 -0.12288729 0.10575066 0.020626899
0002e0 2d 37 87 3c 08 73 3a bd 81 94 15 3d a4 b0 a3 3d
       0.016505802 -0.04551986 0.036518577 0.07992676
0002f0 f5 6f 11 be 89 be 20 3e 8e 14 da bc 2a 46 29 3e
       -0.14202864 0.15697683 -0.02662113 0.16530672
000300 d1 ae 13 3e a2 13 0f 3e 2b 77 b1 3d b2 2f 23 3e
       0.14422156 0.13972333 0.086653076 0.15936163
000310 dd 05 e2 bd 4c a3 ec 3d b1 76 81 3d 42 13 aa bc
       -0.110362746 0.11554584 0.06321467 -0.020761136
000320 b9 e8 c4 3d d7 68 00 be 5d 93 ec 3d d0 d0 71 bc
       0.09614701 -0.12539993 0.11551545 -0.014759257
000330 0d 0b 06 bd a8 3b da 3d b1 ce 21 bd e8 d6 26 be
       -0.032725383 0.1065591 -0.039503757 -0.16292918
000340 f1 4f 12 be 55 8c 23 3e a5 ca 06 be 4c 4f bd bd
       -0.14288308 0.15971501 -0.1316324 -0.0924364
000350 4d 4b 08 3d ac c9 fa 3d ae 3c 22 be b4 13 b6 bd
       0.033274937 0.12245497 -0.1584346 -0.08890477
000360 34 42 16 be 67 e1 ca 3d fb 39 06 3e f1 26 16 3e
       -0.14673692 0.09906273 0.13108055 0.14663292
000370 2f 9d 23 3e 07 44 f8 3d 74 b3 28 3d df f8 2d be
       0.1597793 0.1212235 0.041186765 -0.16989468
000380 0e 7c e7 bc 21 e2 40 bd f8 84 08 be 5a 81 11 be
       -0.028257396 -0.047090653 -0.13331974 -0.142095
000390 86 94 72 bd 5d 28 06 3e c6 42 a3 bd 60 13 a7 3d
       -0.059223674 0.13101335 -0.079717204 0.08157992
0003a0 fa b6 d8 bd 6d a2 0e 3e a3 d2 17 be 1b 97 12 bd
       -0.10581775 0.13929148 -0.14826445 -0.035788637
0003b0 6a e6 01 bd 7c 0f 27 be a6 3d f9 3c 83 84 0b 3e
       -0.03171388 -0.163145 0.030424904 0.13624768
0003c0 f3 ff e1 bd 1f 60 83 ba e5 1c 1c be 09 15 a2 3d
       -0.110351466 -0.0010023153 -0.15245397 0.079141684
0003d0 cc 90 29 be e8 6a e1 3d e3 8f bf bd ce a4 0a 3d
       -0.16559142 0.11006719 -0.09353616 0.033848576
0003e0 1e 18 16 3e 3e 5c 83 bd 3f bf 60 3d 78 ec 01 be
       0.14657637 -0.06414078 0.054869886 -0.12687862
0003f0 ad 84 b2 bd 22 fe cb bc 6e 6e 0a 3e 9d 33 cf 3a
       -0.08716712 -0.024901453 0.13518688 0.0015808229

transformer_encoder.layers.0.self_attn.out_proj.bias f4 [32]
000000 e5 e5 ba bd 58 1f 8f bd 01 97 20 3e 8e 9e d1 bc
       -0.0912588 -0.069884 0.15682603 -0.0255883
000010 f9 3f a8 3d df 71 b4 3a 13 55 c6 bd bc 80 a7 3d
       0.08215327 0.0013766846 -0.09684195 0.08178851
000020 c0 2d 31 be a9 22 f2 bd 2c 3f 1a 3e 93 56 d1 bd
       -0.17302608 -0.11823017 0.1506316 -0.10221591
000030 30 a0 9d bd ed da d7 bd 8a d0 fb 3c 7d ef a0 3d
       -0.07696569 -0.10539804 0.030739088 0.07858179
000040 3a 98 1b 3e 4a aa 07 be e0 3f d2 bd 78 8c 0c 3e
       0.15194789 -0.13248554 -0.102660894 0.1372546
000050 b4 7a 33 be 48 19 91 bd 5f 8d 6d 3d 02 1e fa 3d
       -0.17527276 -0.070849 0.05799615 0.12212755
000060 bb 40 ee bb 3f e5 dd bd 06 0e ed bc 19 d6 1d 3e
       -0.0072709 -0.10834741 -0.028937351 0.15413703
000070 c9 d2 74 bd 62 df 2a 3e e5 4b 91 3c ea 98 e7 bc
       -0.059771333 0.16686776 0.017736385 -0.028271157
