experiments/fl_train_noise_2.5_max_grad_norm_2.5/20250424/model_round_7.pt (torch, 62777 bytes, 25 tensors)

embed.weight f8 [32, 8]
0	0xbff90d7d270b90f2	-1.5657931828691827
1	0x3ffc350acad0b139	1.7629497454136767
2	0xbfbda186f876f204	-0.11574595991164222
3	0xbfe4adeee113d110	-0.646232070545496
4	0xbfd1e7f9255e06e7	-0.27978352212094965
5	0xbff2cd3fb0c406f8	-1.1751095681105976
6	0xbff2b97f29633fdb	-1.1702872864443552
7	0xbfed8ef0ec199532	-0.9236988650633633
8	0x4005413e94c33d18	2.656857645233355
9	0x400d7bfb1e385f43	3.6855375634148984
10	0xbfd98ffb1b779bc4	-0.39941289598794705
11	0x3ffa19b986604575	1.6312804459633672
12	0x3ff3318de52fad47	1.1995982124888813
13	0xc006ae71967a984f	-2.83517758905058
14	0x40055ae89a943855	2.6693889690859955
15	0x40139d7320f15b1c	4.903759493571467
16	0x400175b9c506af60	2.1824832337060087
17	0xbff0f7e6d23c6028	-1.0605228626573169
18	0x3fe6328a2b66e54c	0.6936693999952381
19	0x3fd137bc6d1af5b4	0.2690268578988608
20	0x3ffbc805cb7a2ade	1.736333651383283
21	0x3ff075eac2d97459	1.0287883387857362
22	0x4006b4d24400f5d4	2.8382916748803186
23	0x400653fe08b405c8	2.791011875146726
24	0x3fe0f257e9fa5fb1	0.5295829362757926
25	0x3fd85a6fa6283a2d	0.38051978327067354
26	0xbffb3dffeff95403	-1.7026366590482673
27	0xc000af2a614c56d0	-2.0855300523206566
28	0x401298f7cb14c332	4.649382756368867
29	0xbffc1f57c076ed15	-1.7576520460268672
30	0x3ff0418b86e31dd8	1.0160022038488616
31	0x400ae50ee76006a0	3.361844833009698
32	0xbfc4d452f805c38f	-0.1627296172187269
33	0x40009abbf52b5ed2	2.0755538133488267
34	0x400e788c4ed5510a	3.8088613661622093
35	0x3ffcd44417da9957	1.8018227512162264
36	0xc0015e3174076e10	-2.1709927620665965
37	0x3ff9fd0b6a41e0fa	1.624278464381915
38	0x4003e0658255b04d	2.4845686132812603
39	0xbfc271ad6fa1fd55	-0.1440941615182775
40	0xc0043ad1b9417465	-2.5287203286266497
41	0xc0027573611b4cdb	-2.307348974843632
42	0x4000803c2af08c19	2.0626147608432004
43	0x3fd9439a49cd8899	0.3947511406642064
44	0x3fb880a8a1d6b3d2	0.09571317626132661
45	0x40110b4f2bbd77a2	4.261044200362365
46	0xbfe16ec9e5366264	-0.5447740055852361
47	0xbfd1e4c1942e4739	-0.2795871684148668
48	0xbfec46ccc5347409	-0.8836425639780155
49	0x400e2d10b4d7c538	3.772004521212377
50	0x400151c6497fab98	2.164928983887375
51	0xbff69ac7fbd85c7b	-1.4127883756353004
52	0x3fead938c8e04e41	0.8390163348544278
53	0xc003aacc1ee5026d	-2.4583971418035646
54	0xbfff188e35bf2bb3	-1.9434949969752153
55	0xbff7b303bd142842	-1.4812047372711423
56	0x3ff4c736a685c0d7	1.2986361031326419
57	0xc00699a8f25e4635	-2.8250292716045586
58	0xbffcce5b1c0e13ed	-1.8003798576257808
59	0xbfc636350edb29ea	-0.1735292742290107
60	0xbfa23ddf32feccc0	-0.035628294920934334
61	0x3ff8fcee807408be	1.561750890512982
62	0x400107cab7ebef3d	2.1288046234966758
63	0x3fd7290623bc5d35	0.3618789051992793
64	0x3fd4e9cd9102f226	0.32677020226745623
65	0x3fcc406ebbd02caa	0.22071632547917847
66	0x3ffe12c22854db25	1.8795796943138126
67	0x3ff5c131ed28d7f0	1.3596667541546559
68	0x4000cf343f7a4198	2.1011738738236083
69	0x3fe6d148da281410	0.7130474339361417
70	0x3ff16e6701073750	1.0894537010348877
71	0xc006881803e4c699	-2.8164520553771806
72	0xc0082cde6f3bd98c	-3.021908635152789
73	0xbfe3e3782fc19d6e	-0.6215172703495406
74	0xbfe632a1209b7985	-0.6936803471433427
75	0x3ff0a7fa5394dc84	1.0410102143194147
76	0x3ffb8dead8656644	1.7221477940533
77	0x3ffc9ee26579709f	1.7887901271670115
78	0xbfe07d718bd0aad2	-0.5153129320873069
79	0x40018d759acbe993	2.194071969364083
80	0xc006b5b009aa71b5	-2.8387146716251785
81	0xc00dfd05ef487d36	-3.7485464757916374
82	0xbfe6214373d9409e	-0.6915604841870111
83	0x4003dc7437d83180	2.482643543515394
84	0x3fea49200f3ced69	0.8214264199845448
85	0xbfd89ed7e31a86be	-0.3846950261887335
86	0x3ffa5133a523f91e	1.6448246432115137
87	0xc00a3f90ac67d198	-3.2810376614745103
88	0x400487261296c6b2	2.5659905864966612
89	0xbff145485798f686	-1.0794146940019416
90	0xbf935a3f1bf69e08	-0.01889895065474259
91	0xbfebdf52563be27d	-0.8710109409576742
92	0x3fec2662f0b2190e	0.8796858502471723
93	0xbfefb470a42a7f19	-0.9907763677947258
94	0x3ff7609955131ca1	1.4610837290981993
95	0x3fce25d5155ba794	0.2355295519149051
96	0x3ff1f8e43a5b3428	1.123264530138167
97	0xbfcfa937a6b3410a	-0.24735160483988522
98	0x3fc79f2828504af6	0.1845445820659603
99	0x3febb7e9fde765d4	0.8662004431782244
100	0x4000447f2e48f28d	2.0334457031261253
101	0x40039aba5c7069dd	2.4505507680707823
102	0x3fa11372adcf778b	0.033351501195041676
103	0x3fde3d88b76f656b	0.47250574029529585
104	0x3ff893420b903acd	1.5359516574568943
105	0xc00b4a860dfeb4b6	-3.411388501487262
106	0xbff5ce0d8ef34ec9	-1.3628058990479295
107	0xbfe7eb0a3729bec5	-0.7474413945583015
108	0xbfef88576ec6d44e	-0.9853932536704038
109	0xc0015e2e303bb2a8	-2.170986534902415
110	0x3fe26288768240fe	0.5745279612183649
111	0xbff9ad9e257e9133	-1.6048871483445282
112	0xc00f0d2cc63294e5	-3.881433056276921
113	0x3fb2a3adc76809ce	0.07281004064865401
114	0x3ffe7d5a92aa57ec	1.9056039551846835
115	0xbfe221b227dea70b	-0.5666132715898312
116	0xbfd674fe99cf50f0	-0.3508907796906575
117	0x3fe7a6d6c38ef79c	0.739116079282883
118	0x3fd2cb149d70eb3c	0.29364505171877275
119	0xbfe2afe729c309cb	-0.5839725318585861
120	0x3ff9514c82c1ef81	1.5823483569829195
121	0x3ff7aaa864d6c6f5	1.4791644991896054
122	0x3ff148b9b2f6fcae	1.0802552214443426
123	0x3ff2d04e6b566cc6	1.1758560364603894
124	0x3fe5b94295368148	0.6788647569956447
125	0x3ff31225a00ac200	1.1919304134027016
126	0xbffd1a75aeac3473	-1.8189598868514423
127	0xc00a08dceaf0fe86	-3.2543276171489337
128	0x4001a1cf7d9d6969	2.204009038320852
129	0xbff87ca02d36ce79	-1.5304261938262285
130	0xbffbef0c9bafd273	-1.745861633445341
131	0x3ff2cc2880288fac	1.1748433119000579
132	0x3fe4ebdb072103cf	0.6537909640538774
133	0x3fe61c27cd982959	0.6909369483485462
134	0xc007f7b2dfd9f946	-2.995946644629984
135	0x40016f2636a780b4	2.1792721052043706
136	0x3fd0f598fdd049ad	0.2649900892876314
137	0xbff4f3d09a90408b	-1.309525111926663
138	0x3fbdac97f88eb091	0.11591481989188625
139	0xbff02bf6dc736770	-1.0107334720000516
140	0xbff23abf2e56f864	-1.1393424806733714
141	0xc0079a098aa75f95	-2.950213511689024
142	0xbfc3d7fb4c2e1f29	-0.155028736302705
143	0xbff184002926049b	-1.0947267157901368
144	0x3fc76b568cf5a49e	0.18296319849767867
145	0x3ff946cc44b6e1b6	1.579784649291566
146	0x40010494efb75051	2.127237198621551
147	0x400d90652024f142	3.695505381705659
148	0xbff1719c0e200328	-1.0902367164382643
149	0xc001fb2df63a9634	-2.2476462589864017
150	0x3feaeacb27d73a8b	0.8411613252772708
151	0x400030c595e36896	2.0238143644356326
152	0x3ff53f35b146495d	1.3279320645129566
153	0x400cd81d3ccfd719	3.605524516194134
154	0x400d87743b0df59f	3.691139661181935
155	0x3fde95e207f136eb	0.4778981282769183
156	0x3ff0b1ff0a3312b7	1.043456115571798
157	0xbff683a74d79ab22	-1.4071419741037023
158	0xbffd32e5c211a65b	-1.8249261456316137
159	0x3fe77d0a70fe6d2b	0.7340137679015347
160	0xbfd69ae74a4ed448	-0.353204557958922
161	0xbfe53da62064b144	-0.6637755043680404
162	0x3fe030179872874d	0.505870626210006
163	0x3fb2d68ba84b6f62	0.07358620508915473
164	0x4009ede6d976f286	3.24116296667336
165	0xbffd032dd4ca58fe	-1.813276129925327
166	0xbfeb19ad28e202a0	-0.8468843267911161
167	0x3fcd0c13b7ac986f	0.22693106144396633
168	0x3ff37aa6b34565dd	1.2174441340233593
169	0x3fdd88b61fa8c612	0.4614692029163915
170	0xbfa95529d4cbfafa	-0.04947787020318191
171	0x3ffc11a05dc436c7	1.7543033278229119
172	0xbff02828f3743727	-1.009804678909356
173	0xc002a72d0034cc41	-2.3316288009750967
174	0xc005a22de2187d97	-2.7041890777324613
175	0x3ff3ae5024c6dac5	1.230056899699478
176	0xbfe5726beb827e7a	-0.670217475872007
177	0x3ffbe9145e2608a5	1.7444041898420803
178	0xc01664f65c486212	-5.598596040647424
179	0xbffc993db83a1d68	-1.7874123760573983
180	0x3fd3844f6a29532e	0.3049505745632811
181	0xbfd23e86c120a3fe	-0.2850663076411023
182	0x3fd2ecf8081b3a55	0.29571343223225216
183	0x3fd324e2e1317269	0.29912635795134307
184	0xbfefa1dbea0b2022	-0.9885081835900602
185	0x3fea08cf35cb6a0f	0.8135753679919747
186	0xbfd971db2f482011	-0.3975742303596244
187	0xbffd1a7e5c46a735	-1.8189681629687133
188	0x3fffea8112e070a3	1.9947520005580734
189	0x4011b00cbfcbaaf6	4.421923634344003
190	0x4005e653f2a9e4f4	2.737464805421604
191	0xbfedff122c5c4180	-0.937386595383984
192	0xbfc3488c4e431216	-0.15065149136911832
193	0xbfef21dcc923f0a6	-0.9728835991404778
194	0xc002e51588c0cf25	-2.3618574794617353
195	0xc002a9df82f48442	-2.3329458456869654
196	0xc008343c7e3a1f45	-3.025506006382701
197	0xbfdd64be123060d2	-0.4592738320948345
198	0x3fe63a52ca7e8d7e	0.6946195559470849
199	0xc00333f2df168f23	-2.4003655842551708
200	0xbfd2dffcdb8b64c0	-0.29492112579243823
201	0xc007dab663258534	-2.981793188650636
202	0x3f9380a6f7a29a08	0.019045456757021767
203	0xc00e613da7e3b42d	-3.7974808803906144
204	0x3fab8e14b2c6fe5c	0.05381836588230435
205	0x3ff317b3dc39513b	1.193286762475579
206	0xbff151e12354d907	-1.0824900989660493
207	0x4004b69e2daa61a2	2.589168888818862
208	0xbff9a3e03b4c43ec	-1.602508765823809
209	0xbff3bc4eb5213f47	-1.2334734988580338
210	0x3fca7e15bef58352	0.20697280716106065
211	0xc0011c2159db15c4	-2.1387354869827693
212	0x400196c701f2a191	2.1986217643900052
213	0x3ff76ac12451683d	1.4635631006881475
214	0x40018edbf7bf8227	2.1947554927176216
215	0x3fe0a56827992bdc	0.520191266384582
216	0xc001958a1d6b0e29	-2.198017339543885
217	0xbfcdca3720fd6898	-0.232733622654284
218	0x3ffb35f9c69e6b79	1.700677657942576
219	0xc007458ccd336151	-2.908959963922975
220	0x4000c700cc9f4c16	2.097169493304601
221	0xc00d53e7c46d1b16	-3.6659694047733735
222	0xbfe6dbcf8c1147bc	-0.714332364625299
223	0x3ff7ebe0f551abfd	1.4950875838064797
224	0x3fe6e9b42c75c127	0.7160282963141399
225	0xbff5321bc6337ad4	-1.3247335188131517
226	0xbff26f67e82f24cd	-1.152198702782971
227	0xbfa53d42e07b4ae0	-0.041483011152782856
228	0x3ff31b04550bd161	1.1940959283939139
229	0xbffc1b02868703ec	-1.7565942053772643
230	0x3ff3657769e3bb64	1.2122720848380704
231	0xbff4394013e399dd	-1.2639771248737965
232	0xbfd6f91eb51f09f9	-0.3589550751459281
233	0xc000c26df5fb9a5a	-2.094936296215832
234	0xc001f2cc3b93b3cc	-2.2435536055040526
235	0xbfd0899a0d4fad7c	-0.2583985452644908
236	0x3fe32261b78998d8	0.5979469856945583
237	0x3fbbce334f45b684	0.10861511884078295
238	0x401532ef6ee6a194	5.299741490198716
239	0xc001b8e95d2bbee2	-2.2152888564086064
240	0x3fe8e767fa63a626	0.7782478228011243
241	0xbfe894671cb84d56	-0.7681155739723333
242	0x3ff483231f121b21	1.28201591622355
243	0xc0006580c7bcb671	-2.0495620350328
244	0xc015e3e81fc2824e	-5.472565170523536
245	0x3fe2e7f07e23d005	0.5908129180593283
246	0xc00adceaf7a57364	-3.357870039688736
247	0xbfd91e80330e3fef	-0.39248661981491656
248	0xbfe18c554fa7ce03	-0.5483805232783542
249	0x3ff85190125dd071	1.5199127881469645
250	0xbffb441483cef642	-1.70412112701105
251	0xbffc0275ec19231d	-1.7506007406793238
252	0xbfd90928f0ec5371	-0.39118407752658074
253	0x3fd2d086148a54d5	0.2939772797192977
254	0x4002d8cea26a971c	2.3558628739146013
255	0xc01c9a2ce455eb98	-7.150561874145659

embed.bias f8 [32]
0	0x3fe5b3526621c517	0.6781398768199861
1	0xbfe7cc3f3e2436a0	-0.7436825002384531
2	0xc014cf150aca474c	-5.202228706928349
3	0xbfc2f9ec010b4df8	-0.14825201083168316
4	0xbff5839254eab0fc	-1.344621974664789
5	0xbff50ddb48fd466f	-1.3158829547068327
6	0xbffd0cc4d0e96cb1	-1.8156173859231723
7	0x3fe2bfa3cedfb204	0.5858935394767859
8	0xbffa4aa81f90a502	-1.643226741124011
9	0x400112d5ea0c8bf7	2.134197071559807
10	0x4009834889306188	3.189103194989176
11	0xbff35ce73fc3ab38	-1.2101814738077348
12	0xc00dd62df48b61ef	-3.7295798401867084
13	0x40028f6137bf4b40	2.320009646916702
14	0x3ff810bccf04d575	1.5040863119769174
15	0xbff35fa9fca0f3f2	-1.210855471449801
16	0x3ff4c6ad87e6101c	1.2985053356687848
17	0x4004a0393d973986	2.578234177758705
18	0x3ff0d711129c73db	1.0525065161702887
19	0xbfdd14a38bdf97e2	-0.4543846956206591
20	0xbff4ea9982fddf3f	-1.3072753064024736
21	0xbfe0bd3270cc16a7	-0.523095341021606
22	0x4007264c15ecb218	2.893699809347037
23	0xbfd2c8e92c5b7cba	-0.2935126240899525
24	0x4000af68674e5ad8	2.0856483526980405
25	0x3ffdb77b7c8ced26	1.8572955003026634
26	0x4005d16ac8ab1f3d	2.727254455301504
27	0xc00557d82e04dce5	-2.667892798922923
28	0xbfe25b7280614ca9	-0.573662997000061
29	0xbff0b8176a638fbc	-1.044944205838859
30	0xbf9c3885e270d3f2	-0.027559368081899245
31	0xc0003e163703f922	-2.0303158090674893

pos_enc.pe f8 [1, 12, 32]
0	0x3fe9aafbb121c6ce	0.8021219691856574
1	0xc011078c3f0cc030	-4.257370934632533
2	0xc002a9000a529ad5	-2.3325196081599224
3	0x3ffb730d520e265f	1.7155888753208257
4	0xc001f94a2faf5df6	-2.2467235303299686
5	0xbfe7f7392f1eb228	-0.7489286346731818
6	0xc00ae1cad9a96b3e	-3.360250187380557
7	0x401262d696df6c48	4.5965217183939515
8	0xbff4f45aff4bf26c	-1.3096570942426764
9	0xbfe98b730e073584	-0.7982726358401782
10	0x3fe2a3a4ca348ec3	0.5824760388681728
11	0xbffb8adb5651f26c	-1.7214005824927439
12	0xbff4170eb20a1577	-1.255629249063842
13	0x4013577c9585f4e0	4.835436188031252
14	0x4006b4e428991614	2.838325802966901
15	0xbfed1a109c0408ad	-0.9094317481215249
16	0xbff2c56a9a0e6709	-1.1731973665068287
17	0x400446d8c7e4c719	2.5345931641285344
18	0xbfd5fef601cb2d7f	-0.3436865823284378
19	0x3ff439f9b0449e78	1.2641541371794158
20	0x3ff553d5aac0ef02	1.332967440611299
21	0xc01335270dc61cfc	-4.801906790940162
22	0xbff9aea7357e9426	-1.6051399316431882
23	0x3fd9022c98cbaf54	0.39075770303201307
24	0xbfe01f76cd41e2a7	-0.5038408287938027
25	0xc00074ea4a1d355e	-2.0570874967731205
26	0xbfed54be48426f06	-0.916594639903878
27	0xbfb51e0acc88a202	-0.0824896573400409
28	0xbfef054066db2a14	-0.9693910607250609
29	0x40011fb6a0acb694	2.140485053320683
30	0xbff3c35bdf4d94a3	-1.235195038106476
31	0x3fed12ee9306d0b3	0.9085610267270766
32	0x3fe4a39dab4be2af	0.644972643435798
33	0xbffa1711ecd6dffa	-1.6306323291337308
34	0x3ff88062bf68b776	1.5313441731372825
35	0x3fe699680f5462dc	0.7062263774306206
36	0xbffad72262f2ebaa	-1.6775230279151665
37	0xbfed36c1aeede6bb	-0.9129341522777489
38	0xc0032681d099b82e	-2.393802289668222
39	0xc0011894ed7223cc	-2.137002806707164
40	0xbf929e19c11fda66	-0.018181230938319713
41	0xbfaaa314b301d59c	-0.052025458194218305
42	0xc00afddf67ba9890	-3.3739612678355755
43	0x3ff3dd4a2bfc6590	1.2415258138847527
44	0x3fd9ca3788a9cb22	0.40296734186192584
45	0xbfea2465164552be	-0.8169427332855645
46	0x3ffbba7b04fb881c	1.7330274767523468
47	0xbfdd6a46348d5550	-0.45961146480597836
48	0x3ff1e1f2a0eb6996	1.11766302928172
49	0x4001e6c70279cf67	2.2376842683242333
50	0x400f1c78d29ac053	3.8889023259617175
51	0x3ffe83642a00728e	1.9070779457753448
52	0xbffe3ec419bb8b9b	-1.8903237347774169
53	0xbfd77e0a83a554e3	-0.3670679364780211
54	0xbff2108de4821b3e	-1.1290415693380988
55	0x3fc996cd61a2bc5d	0.19991462008826746
56	0x3ff359413016a31e	1.209290683598915
57	0x3fb88cea6e13f33b	0.09590020358514277
58	0x3ffcfb70e6593433	1.8113869665132938
59	0xbfd3dbb43de0abf3	-0.31028467219101613
60	0xc0115828a0656c50	-4.336092477980017
61	0x3f80d109e0099588	0.008211209439830794
62	0xbfc1143fd26ece1f	-0.13343045973816545
63	0x3ff2dc9faf7e52dd	1.1788632254803624
64	0xbffecba95ece2402	-1.924722071011502
65	0x40015b34f5f2b86d	2.1695346083352463
66	0xbfe65b8b59e4737a	-0.6986748462401089
67	0x3fdf45bf0663cc72	0.4886319696808591
68	0xc014ad6923922d34	-5.169346385762129
69	0x3fe0cba8f30d27b4	0.5248608347985653
70	0xbffc4d9e132221bf	-1.7689495799441912
71	0xc0155149dffe6e1e	-5.3293833731691205
72	0x3feba3bb8dead9f5	0.8637368938278188
73	0x400968229ac2af3c	3.1758472529089925
74	0x3ff78a4f6a15a493	1.471267141716713
75	0xbff8c8aa816913e4	-1.5489907317253193
76	0x3fe29a22eaf991bd	0.5813154782631994
77	0x3fe3516a3ed57171	0.603688357088272
78	0xbff5ce1059340671	-1.3628085598469648
79	0x3ff8dce962b7b726	1.5539335113675832
80	0xc011a4a6473045ac	-4.410790550538348
81	0xbff9340dfafc0836	-1.5752086452562373
82	0xbff4f9760166230d	-1.310903554405914
83	0xbfe2959adc33919f	-0.5807623196420088
84	0xbfffcf7a50c4660c	-1.9881537585228015
85	0x3ff4131a6da49997	1.2546638758591138
86	0x3fe550c5931dc54a	0.666109835945613
87	0xbfe5334b75268655	-0.662511566934152
88	0x4004e703d84844a8	2.6128003022245885
89	0x3fddaebc6b71e008	0.46379003994616186
90	0xbff85bd2f5ef857f	-1.5224179846630645
91	0x3ff38e804c9ff1d2	1.222290324512063
92	0x3fe7150b9333ad71	0.7213189959560805
93	0xbff4a63994bd515f	-1.2905822572839367
94	0x3fec808229bfc247	0.8906870665942471
95	0x4005d6bf9cd4b8ef	2.729857659570477
96	0xc006a181e9b57e32	-2.828861070491052
97	0xbf9f9470365ee1d0	-0.030839684790153588
98	0xc000b7aceebce2b6	-2.08968531145032
99	0x3fe04b9b067b51b4	0.5092291952701573
100	0xc0131b669d566f3a	-4.77675863113455
101	0xbfe25849d3158d03	-0.5732773897874782
102	0xbfd3a351ae4fda2f	-0.3068432047142861
103	0xbff7cf60b609544a	-1.4881293402479678
104	0xbfe56ab16dd3def5	-0.6692740578718871
105	0x3fa4be603a1814a0	0.04051495274692596
106	0x3ffd1c03f719b7c1	1.819339719043896
107	0xc01111654cf290a6	-4.266987993531222
108	0x3ffaeb85bf21d9b1	1.6825005975821166
109	0xbff02db0e6e22623	-1.0111550349123568
110	0xc002c21a63469d4f	-2.3447768932270843
111	0x3ffa76ab47df30a6	1.653971939801559
112	0xbfdfe31612099fda	-0.49823524247631
113	0xbfee468dc0326c38	-0.9461125139090489
114	0x3ffdb36a90f62614	1.8563028013762777
115	0x3ff00c68d4eb3532	1.0030296628131734
116	0xc00460a89352dab3	-2.5471965322170376
117	0xc004277ce60c0bc8	-2.5192811939645914
118	0x3ff10d2791d50f38	1.0657115646908562
119	0x3fe73d1f9719974e	0.7262113524600211
120	0x3fec41321b5cb366	0.8829584631363161
121	0xbff28db09909e1c7	-1.1595922449179044
122	0xc00166ae53034363	-2.1751371846552714
123	0x3fe44b994d52178c	0.6342283735436793
124	0x400839a94053d17b	3.0281548524455366
125	0x3fdb65add191dc96	0.4280809923724943
126	0x3ffba965cc01e409	1.7288568467176921
127	0x3fb7e9ea05714ad4	0.0934129966056319
128	0xbff02026a7c7ac16	-1.0078493646531164
129	0xbfecc78d9895a955	-0.8993595104377997
130	0xbfebd07b1751e144	-0.8691993194070524
131	0x3fef400aa591006c	0.9765675767630575
132	0x3fdb3a727b3ddf8d	0.4254423335582878
133	0xbff96751e3dfb83c	-1.5877245808910763
134	0x3ffa682fa46baf17	1.6504360602074877
135	0x3ff7a1f39552dec5	1.4770389397580612
136	0x3fe8b9e3546f293e	0.7726914071184081
137	0x3fab439b2bc92e53	0.05325016889090919
138	0xbff81daeed364b5c	-1.5072469011399425
139	0x40105c9fd7c017b4	4.090453501796151
140	0x40097a5fd96ddb60	3.1847531305933643
141	0xbff8b35658972973	-1.5437835178914525
142	0xc0007ea92fbb2ff9	-2.0618461350441035
143	0x400ce9dec6bf6989	3.614194443432272
144	0xbff4ee1e4d94df5f	-1.3081343679932258
145	0x3ff109311724bc88	1.0647440818827665
146	0xbff65997b4f4ead3	-1.3968731945630466
147	0x400bc0832b51d7a8	3.4690001854277916
148	0xbff6284700903f68	-1.3848333379755449
149	0xc0011f3f74876252	-2.1402577499214113
150	0x3ff6aee08c14e9df	1.4176946136418491
151	0xbfeddaa378f8ff99	-0.932939277910907
152	0xbfedd2adfcf69618	-0.9319677296340982
153	0xbfe831b72e384597	-0.7560687926035595
154	0xc016bbb0417955d6	-5.683289549856871
155	0x3fb59684deadaa12	0.08432798801883504
156	0x3fe4ea4eaf7744b0	0.6536019732540321
157	0xbfe369cffe7961fd	-0.6066665620992918
158	0x3fd491d724cf1e6e	0.32140139193186357
159	0xc0086690f8ce82ea	-3.0500811994573853
160	0x3ffebe17682fba74	1.921409041384007
161	0x400a91bb2ab4ecf0	3.321157773634347
162	0x4019c6025aec94a2	6.443368359269842
163	0x3fd3e47e1ba1869b	0.31082108209930376
164	0xc015a40c904bd6dc	-5.410204176548827
165	0x3ff063a07b5d3cc1	1.0243229693331133
166	0xc00520b200c429bc	-2.640964513765736
167	0xc005b9fcb79ec89c	-2.71581405118293
168	0xbffcb201b0ae4cfa	-1.7934586431118178
169	0x3fe43898e2137890	0.6319088378475204
170	0xc0075a3f0c5288f2	-2.9190655672729173
171	0x3ff4f8eb46516ebb	1.3107712504196758
172	0xc00122c516c93300	-2.141977479949105
173	0x400bbec34a3f3daf	3.4681459236669165
174	0x40016b1cf4c53a28	2.1773013231934506
175	0xbfe2731012e15c58	-0.576545750499359
176	0xbffbc7b04f5f8171	-1.736252126742411
177	0xc00e806561f62209	-3.8126933720816436
178	0x3fe183c8796bdbe0	0.5473368045339804
179	0xbfbac54e671495ee	-0.10457315460788383
180	0x3fe338ac5f1d41bd	0.6006681306553713
181	0x400fefb5bfa9a763	3.99204587685101
182	0x400e10f5ce8f351d	3.758281339402528
183	0xbff28fc8899e0eac	-1.1601033569030887
184	0xbfe2675b899599e9	-0.575116890639774
185	0xc006a44e9ab041b4	-2.830228050712515
186	0xc0036bc487661171	-2.4276209428809854
187	0x3ff3d74bd99fe8b7	1.240062570663708
188	0x3fe24ba087dec075	0.5717318204606402
189	0x40001c0e8a3bd062	2.013699607801798
190	0xbffa6ac5fa61ad1b	-1.6510677128342823
191	0xbfe73160186fb90f	-0.7247772671960621
192	0x4002d51403f34376	2.3540420826542983
193	0xbfd4197424b37950	-0.31405356964196063
194	0x3fe3ab566de314c1	0.614665236113659
195	0xc00511cab90e4462	-2.6336874444464664
196	0x3ffc3084d1781dd2	1.761845415343363
197	0xbff22afb77e70aff	-1.135493725175081
198	0x3fff538b9ff316dc	1.9578968284635527
199	0xc000a63661d9cde0	-2.0811584133714263
200	0x40086237a419ce5b	3.0479576893210782
201	0xbffbde3c49e36536	-1.741756714464214
202	0xc0007bbdc58f61ed	-2.06042055457896
203	0x3ffeb37b85c8be20	1.918818972200718
204	0xbff91e8644bf3daf	-1.5699522672110608
205	0x400d0ef3a8b8dffe	3.6323006802958835
206	0x400b6afdbea2e904	3.4272417920557263
207	0x4010ff9facff2750	4.249632552216852
208	0x3fea7834b1223b69	0.8271735629694891
209	0xbffbec1245d9b419	-1.7451346138507289
210	0x400288452eea98e0	2.3165382066100477
211	0x3ff76040af888939	1.460999189068913
212	0xbfed8c436fc3dcc9	-0.923372000018298
213	0xc004404c5afb9a47	-2.531395636370948
214	0xbfde1ea7f859504f	-0.47062110188312983
215	0xbfd439ff11b4d809	-0.3160398171343109
216	0x3ff56689fba14b06	1.3375339345263355
217	0x3fe682b3b4db964b	0.7034548313501515
218	0x3ffe7ab886d9e20c	1.9049611346837336
219	0x3fe13bbf0dd8ed9d	0.538543250127464
220	0xbff2a27e07cd9c94	-1.1646709732829423
221	0xc00a2c32278e6438	-3.2715800371484214
222	0xc00a2dc9159d11c5	-3.2723561943587094
223	0x400190046c698af5	2.1953209371289355
224	0xbf95c1d6a2ecfbba	-0.021247247404285942
225	0xbfd0655ac7cd23b9	-0.2561861945328548
226	0x3ff688ff4fa9c3e0	1.408446608719025
227	0xbfd818ffa5dc6133	-0.37652579495763233
228	0xbfe42d4a693a80b0	-0.6305286460156108
229	0xc01216fe5cecde9e	-4.522454692799924
230	0x3fe5e6404d1dc7ef	0.6843568330934867
231	0x3ff054250167f524	1.0205431036877792
232	0x3ff7765294f88b6a	1.4663873500037092
233	0x400242ca1ea7930a	2.282612075318302
234	0x3ff287a2c1f562ae	1.158114202166114
235	0x3ff00e7cd08553fe	1.0035370011657956
236	0xbfe706cd982e7ea4	-0.7195804569527877
237	0x3fda72f52ff57f4e	0.4132664650296548
238	0x3fe827b7d7fa9381	0.75484840567934
239	0x400a7d79b0adb327	3.3112672617920853
240	0x3ff7823414308180	1.4692879475261122
241	0xc00932dee857d281	-3.1498392249871476
242	0x3ffbc25ec17bbe9e	1.7349536474174907
243	0x3ff4dbec601fe00e	1.303692222105386
244	0x4000560f92bae573	2.042021890953657
245	0xbfbceaa8ccd0024e	-0.11295561790758166
246	0xc000209cee7e9791	-2.0159243233092146
247	0xbfe589c9af9e857d	-0.6730698041975952
248	0x3ff7f592ba653bc2	1.497454383952331
249	0xc00052a0c0fe7287	-2.040345676198118
250	0xbff1d6b435b6e995	-1.1149179552290651
251	0xbfffa26eafa52b34	-1.9771563397541287
252	0xbff6a3a81d33703e	-1.4149552479421028
253	0xbffbf4d60e7cdf80	-1.747274452774917
254	0xbffeabcbef6fe31f	-1.9169425347337847
255	0x3ffb8108a925e62b	1.719002400145096

transformer_encoder.layers.0.self_attn.qlinear.weight f8 [32, 32]
0	0xc00ea843718df906	-3.8321598884059567
1	0x40076ded72a6b9a1	2.928675552094504
2	0x3fd672cbe572387e	0.3507566204724596
3	0xbffb3004de226d19	-1.6992233922126785
4	0x3fc2c34f959c332a	0.1465854149359072
5	0xc004f37067e56c1a	-2.6188667408837434
6	0xbffa053e297f8a12	-1.626279985525461
7	0x3ffcc7d5df31ef71	1.7987879484707856
8	0x3ff0967e5bd46f95	1.036741598806633
9	0x3fc9021277bafc2e	0.19537573667727898
10	0x3fd24d5c4ac6a87e	0.2859717111811121
11	0xbfafe32ef99dd94a	-0.062280147524620036
12	0x40092d2d3ac2ec14	3.1470589247451333
13	0xc00788e8fe6e8222	-2.9418506505465
14	0xbfc416fb99573ac7	-0.15695137965527392
15	0xbff9dea02eb8a028	-1.616851980690635
16	0x3ff8d89114bc11f0	1.5528727350184646
17	0x3ff2598563669051	1.1468557246053204
18	0x4005cd959659f5b0	2.725382971401551
19	0xbff2eda10d962d3a	-1.1830149203040734
20	0xbff765e72ee632ed	-1.4623786766052789
21	0xbfff8ee1abd9f9dd	-1.9723831856678011
22	0x3ff27fb936450318	1.1561824912934693
23	0xbfe6db5bdda8bcb0	-0.7142772034911982
24	0x4001a58fdeea61a1	2.20584081795478
25	0x3ffd7b5b4a9b2742	1.8426163591670535
26	0x3ff40d0df7a6c6e0	1.2531871484647397
27	0x4008e23a626e7385	3.110462922092156
28	0xc0002affdc690b16	-2.020995828586261
29	0x3fee2c212f00bf0e	0.9428869169259728
30	0x400a2265e0b7c432	3.2667958789902736
31	0x4005295a4f370332	2.6451917828238942
32	0xc0014e77897ec3c3	-2.1633139364061846
33	0xc0089b5a356610a9	-3.0758556529782095
34	0x3ff0c8195492bd2d	1.0488522819176282
35	0xbff9d75cf8b99fe8	-1.6150788989852973
36	0xc00c781e29be4785	-3.5586512814706475
37	0x4004f368dada9206	2.6188523385956186
38	0xbff1be6c5d861747	-1.1089900639794494
39	0xbfe89eb0cd985014	-0.7693714156653209
40	0xc001b50acde4deb8	-2.213399513766344
41	0x400076de7ed708fa	2.0580415639279837
42	0x3fae3cb64dccdb68	0.059056946751687545
43	0xc003b55a3ab9941e	-2.4635510051616754
44	0x3ff9838cc448d59b	1.5946166674960753
45	0x4007e10e0314c8e6	2.9848900070875173
46	0x400be5251066e80a	3.486887100353674
47	0xbff358fe7ee3b60f	-1.2092270809765784
48	0xc0078e69d5c833de	-2.944537801906775
49	0xbff38cea87c8ad0e	-1.2219033531244494
50	0x3ff680ece9a13f21	1.4064759374777582
51	0xbfe5a76aac4a6cde	-0.6766866078427503
52	0x3ff67c57bd20864d	1.4053571117186892
53	0xbff3d6ee1349a70e	-1.2399731400896061
54	0xbfed23f7301ea975	-0.9106403293456383
55	0xbfbe34b675cbcefc	-0.11799183250314721
56	0x40107c8f26c28ed6	4.121639829277873
57	0xc002375924b61fba	-2.277025496299726
58	0xc0089706681b9860	-3.0737426885053054
59	0x3fae5a617a11a151	0.05928330054377063
60	0x40113677afe96fa6	4.303190945265589
61	0xbffe6f9101e147f3	-1.90223789915444
62	0x400329327b4ebb05	2.3951158173944145
63	0x3ff484c5cfd9f969	1.2824152106473667
64	0xbfff85d851314692	-1.9701769992429132
65	0x3feeca06f630626b	0.9621615227106991
66	0x3ff1a9f14aa986d9	1.1039898792736749
67	0x4001d259918241ce	2.227709900653486
68	0x400004b0d948b8b7	2.00229043725184
69	0xbff0a69a8d5eb338	-1.040674736238726
70	0x3fc9d0bf85261a63	0.2016829872265645
71	0xc00749ee3666fe72	-2.9110988855534794
72	0x3ffc607c340bc80a	1.7735559495017719
73	0x3ffadc8c8071e89a	1.6788449303990434
74	0x3ffd52307e94ba54	1.83256577916804
75	0x3fe5d7785a944dd5	0.6825525063636017
76	0xbfeee51235edffae	-0.9654627850832094
77	0xbfe83494b1b1a90b	-0.7564185591302545
78	0x4000fdc2eb5fb207	2.123906935556309
79	0x3fd2b70212279c90	0.2924199273388206
80	0xc00c7b3477c61947	-3.5601586682634294
81	0x3fd7698dfa2f0c19	0.3658175414277039
82	0xbfd3ab03c7a9d1d5	-0.30731291292547996
83	0xc00cad340494cf3f	-3.5845718725121567
84	0xc0101a344f101274	-4.025590167385065
85	0xc0059b891c8fde8b	-2.7009451133161
86	0x3fe6eb9b485e7573	0.7162605679947504
87	0x3ff6ab3556cb834f	1.416798914950238
88	0xbffcd9af877a7a08	-1.8031459133268317
89	0xbfd1df2f29c717ce	-0.2792470844254894
90	0x3ff97de89e266140	1.5932394197207742
91	0x3fd63ea01c91b245	0.34757235326722863
92	0xbfe9f4ff005ed78d	-0.8111567504154081
93	0xc00edf67761953f2	-3.8590840555648294
94	0x3ff0d7daf89cf10f	1.052699061531772
95	0x3feeaf31d14c190a	0.9588860595547726
96	0x400cb35f3c24bcd0	3.5875839899741564
97	0xbfd96d038333d72c	-0.3972786694788393
98	0xbff4fa48e935ce1d	-1.3111046895763885
99	0xc0174e0c6ddc9b74	-5.826219288434789
100	0x3ff3d2acd653120d	1.2389343616533808
101	0x3ffb6b92aacd65d7	1.7137629196134776
102	0x400138d2dcf8fcec	2.152745939587126
103	0x4013221360851218	4.783277042505254
104	0x3ffb77c92de07ca0	1.7167445938173742
105	0x400d3107719fbce1	3.6489399792550192
106	0xbff873cd76d8961b	-1.5282721178458647
107	0xbfa5d8983a63d23c	-0.042668110969235035
108	0x3ff0b0c1f989716a	1.04315373874041
109	0xbfe706a1c80db650	-0.7195595652862696
110	0x400e9317497c9463	3.821821760286683
111	0xc00b514e972589ee	-3.414700680573552
112	0x3ff40512e596b8b2	1.2512387245474597
113	0x3fe38ef9a583612b	0.6112030251197543
114	0xc0107a8be5f61a48	-4.1196742946108955
115	0xc00461c14404e4c4	-2.5477319063180364
116	0xbf9446e801afd850	-0.0198017359761809
117	0xbf732182da37a790	-0.0046706305906613205
118	0xc0037dfd741d7cf4	-2.4365185805796674
119	0x3ffaa3dc1d8093f5	1.6650048401290836
120	0x3ff7df0717448c0e	1.4919501217743831
121	0x3ffaa8c211a63176	1.6662007035657473
122	0xbfda91d7641cad52	-0.41515145088734073
123	0x3feea0f927a12225	0.957150056267953
124	0x3fe7adbe7f54df7c	0.7399590002960248
125	0x3ff2e6ff4e10342f	1.1813958215091238
126	0xbffc7d8f2c71f114	-1.7806541191230894
127	0x3ff2c8c16efcd61c	1.1740125976042526
128	0xbfcf139050c8afd7	-0.2427845377400206
129	0x3fe252aa58382eb9	0.5725909922634492
130	0x3fdc049a72c8fe5b	0.4377809639881655
131	0xbff58ebc4e589291	-1.3473475513830275
132	0x4003d17adfa32a2b	2.4772851440113945
133	0x400d4bc3917aeb5d	3.66199411064501
134	0xbffd84ccd0febc2a	-1.8449218906278113
135	0xbff81eb370387236	-1.5074953445065495
136	0xc00963658f621150	-3.173533554249083
137	0x400c1e929bdc4a51	3.5149280716516746
138	0xc003efe66e28c2aa	-2.4921387296856965
139	0x3fe56e5fee308078	0.6697234775674721
140	0x3fe2202aa66637c9	0.5664265871034725
141	0xc00e62a1b0297a0c	-3.7981599581392
142	0x3fea414c5959968e	0.820470976363781
143	0xbfc9d625ac507ddf	-0.20184775270261832
144	0x3ff99cdb5ae8136c	1.6007951308285682
145	0xbfe2d57499ca7bcf	-0.5885565761308217
146	0xbff5591a490ea1f7	-1.3342535833163518
147	0x3f88fcc0123ba6fc	0.012200832897593987
148	0x4010ff39a95c874a	4.249243398926248
149	0x3fe5150dae0997d2	0.6588199996156112
150	0x3ff5354475cebca5	1.3255047418458983
151	0x3ffacc7f99f570fa	1.6749263776792405
152	0x3ff1420e6af5f3d7	1.0786270311502812
153	0x3fc4a2aa77ba511d	0.1612141689880752
154	0xbfc2fba861b2e21d	-0.14830498476455115
155	0xc0015c70cd67c4b2	-2.1701370284359536
156	0xbff873921aaf2241	-1.5282155077312753
157	0x3fd1179307de352a	0.26706386345252275
158	0x3ffab8555042c7e9	1.6700032363119084
159	0xbffd9d29e6266d89	-1.8508700361479404
160	0xbfb02a74186bfe3c	-0.06314778896557355
161	0xbfef94a362d4e6a4	-0.98689431479507
162	0xbfe5e2fe6b99c4f5	-0.6839592076850339
163	0xc0050f368a2c5623	-2.6324282450466554
164	0xbfe503f47dc36187	-0.6567327934563288
165	0x3fe4e601c7bd52da	0.6530770207560537
166	0xbfee65a531f5159b	-0.9499078727464395
167	0xbff4c37ad031edc7	-1.2977245457285436
168	0xbfe9245ab025a41e	-0.7856877746936595
169	0xbfeecb05db37e064	-0.9622830659491339
170	0xbfe251950a9bae49	-0.5724587638082507
171	0xc00bdb39ff74b0d5	-3.4820442159162703
172	0xbfded6bf0b9e3386	-0.48185707220618956
173	0x3ff7f3bd440afcc2	1.4970066698004278
174	0x400040fb2a14156f	2.0317290580157343
175	0xc00828e28cb58612	-3.0199633591553345
176	0xbfe187b0c7a7a660	-0.547813787413542
177	0xbff16f459dcb4f0c	-1.089666000731941
178	0x3ff64682dc70ed9b	1.3922146426183193
179	0x3ffaf21c022618cc	1.6841087421358223
180	0xc0067aa5fbfeea99	-2.8098869025391875
181	0xbff8e6d0a0fd0c7c	-1.5563513077366045
182	0x3ff7854be0508e06	1.4700430643359836
183	0xbfcb89c7f4b271d0	-0.2151422447976885
184	0x4017340541137de4	5.8008012931963755
185	0x3fe1047e16758e4c	0.5317984045654582
186	0xbff222b5bbf09231	-1.133474096431325
187	0xbff6e268776cac22	-1.4302754082698432
188	0xbff8a8146d60580c	-1.5410351059449594
189	0x400d7661da069009	3.682803824734951
190	0x3fd831a63a19a9db	0.37803035425045345
191	0x3fe42ec3617d4e8c	0.6307083992091562
192	0xbff000dadd192e6b	-1.000208724656569
193	0xc008598beb1875c4	-3.0437239043082815
194	0xbfc29fde22932ce0	-0.14550377548434934
195	0xbfff70f0c14d3d92	-1.9650733519409624
196	0xbfdda43d3ab3a004	-0.4631493638285067
197	0xbfa7690908dd76ec	-0.045723230678715726
198	0xbffbe37b6db2f559	-1.7430376324767478
199	0xc000ce241310be20	-2.1006547440990886
200	0xbfd18cf672fd4c62	-0.2742286799377266
201	0x3ff0c1b60f40dff5	1.0472927661739935
202	0xbfe41659ca75d470	-0.6277283624937251
203	0x3fe6808e1cbf841e	0.7031927644239919
204	0xbffc5973c1f40b66	-1.7718389107037296
205	0xbff41c8f76a56f50	-1.2569727549188947
206	0x401604a4444319cc	5.5045328775363025
207	0xbfe89476ea8785ca	-0.7681231098796897
208	0x3ff41cdd2be62cd1	1.2570468630608966
209	0xbfff7087fb2e2362	-1.9649734317519791
210	0x40104f4d296fe801	4.077442786650864
211	0xbff630482e1a157c	-1.386787586293706
212	0x3ff4824f0dad3e83	1.2818136724708047
213	0xbff4dc538cf88c59	-1.3037906176257563
214	0x3fd0d581bf131895	0.2630314222300368
215	0xbfe6a8a105941641	-0.7080845936731707
216	0x4001416c34917f67	2.156944666567074
217	0x3fe7e9ae0a494e7a	0.7472753716378542
218	0xbffc598eb761ac67	-1.77186462052739
219	0x3ff621411e94ebba	1.3831187433813583
220	0xc0035e1600db4f2e	-2.4209404055526624
221	0x3fdd67ea427c6138	0.4594674729610406
222	0x3fe2e755ad851ee9	0.590739096552139
223	0x3ff1e6af03826427	1.118819249828684
224	0xc00539a768fab5bd	-2.6531513406286806
225	0x3ff2a12725735bde	1.1643439734377732
226	0x3ff26eb4a05ee06f	1.1520277275540385
227	0xc002c3c47a557a0d	-2.3455895955405652
228	0xbfcacce3ad61e264	-0.2093777271836813
229	0xbffe022953a9b89a	-1.8755276935658345
230	0x4011bd7d94b9c5f8	4.43504936584349
231	0xbff8e383a22e1973	-1.5555454573783123
232	0xbff091261c81b544	-1.0354367364446526
233	0x3ff941e07b89eba0	1.5785832238895878
234	0xbff60f923dd7feee	-1.3788015762110564
235	0xc004e1fac5769b01	-2.6103415896244546
236	0x4009a0eca7be9180	3.2035763840705727
237	0xbfa678ad97e28098	-0.043889450827238
238	0x3ff5a0e6cd5b329e	1.3517826101043862
239	0x400f1d8bf17ac38f	3.8894270768727845
240	0x3ffd9791e5b9b621	1.8495043729448144
241	0x4001700b064e3501	2.179708527814569
242	0x3fe4ad5e6b53abf4	0.6461631866671937
243	0x3ff1c317df5872fa	1.110130188411118
244	0xbffb98f5653b8bfe	-1.7248434023283603
245	0xc0064fff6a88390d	-2.7890613863775173
246	0x4007abfa958df482	2.9589740451761495
247	0xbfe816cfdb0a6441	-0.7527846601616447
248	0x3fea4c78c5bce018	0.8218349325243279
249	0x3fece23b4ab5d5df	0.9026161631761019
250	0xbff82d3c2eceae33	-1.5110437229549347
251	0xc000f8af07ed28e6	-2.121427595067064
252	0xbfe17728a571a98c	-0.5457957488372798
253	0x3fffb801a0e5987f	1.9824234280618211
254	0xbfd934ad0040e05c	-0.39384007477520355
255	0x40016ae1b10123f0	2.177188284728338

transformer_encoder.layers.0.self_attn.qlinear.bias f8 [32]
0	0x3fec9fd7c9a57c43	0.8945120752722534
1	0x3ffb7831b7791706	1.716844288531719
2	0xc00133df94cef534	-2.150328791204311
3	0xbfdab1b0a9602432	-0.4170953420694473
4	0x3fd444ba6ee965ab	0.31669483977528995
5	0xbff21c6fb60e84a7	-1.1319424735632226
6	0x3ff28f68e7c56976	1.1600121549186873
7	0xc018e1bd0e96b5aa	-6.220447757671915
8	0xbff4bec8b3ca1fb1	-1.296578123381533
9	0x400e093ff9ad6895	3.754516554455288
10	0x3ffbcf47fb7e62bc	1.7381057571384835
11	0xbfe7ff0589b28e3e	-0.7498805703548397
12	0xc0169ea926faf70c	-5.654942139690103
13	0x3ff7785dcf764304	1.466886339567453
14	0x4000646ede2aeb32	2.0490395886276014
15	0x40072c8b7f49a6c3	2.896750444827235
16	0x400091352bb78cfa	2.070902196444533
17	0x3ff3953ecda4d555	1.223936847015769
18	0x401022f0e1a82228	4.034122014891672
19	0xbfa18bc6e52e19bb	-0.0342695383797493
20	0x3fe3547e1dca82a9	0.6040640432221
21	0x3ff644a0fafb1258	1.391755085366773
22	0x3ffd67563d30ad76	1.8377287283172712
23	0x3fde5d72ee9b65e8	0.4744536714693752
24	0xbffcad717dd571b6	-1.7923445620900629
25	0xbfedc700d7cc2827	-0.9305423941416436
26	0x4007f2334e8b16c9	2.993261922473583
27	0xbff342953f42732c	-1.2037556143834065
28	0x3fe3dfeb93aa9c51	0.6210840114698702
29	0xbfe19be4e51f9cc3	-0.5502800440853196
30	0x40077736bcfb9da7	2.9332098736083085
31	0x3ffa288889cae37e	1.6348958380242204

transformer_encoder.layers.0.self_attn.klinear.weight f8 [32, 32]
0	0x3feb4de8bd02db37	0.8532603923439187
1	0xbff8c165d25dcb06	-1.5472162454067884
2	0xbff63ec64ff471ef	-1.3903258441197257
3	0xbfe5376541511ed1	-0.6630121494026416
4	0x3ff9ce63a38dc0d9	1.612887991792425
5	0xbff11724fbbe7959	-1.0681505044700172
6	0xc012dbdf3660bb46	-4.714718675283455
7	0x3ffdc9c0c94b2673	1.8617561209706792
8	0xbff1250111b6d5ff	-1.0715342227898643
9	0x4007738c71d53bb1	2.931420220680103
10	0xbfca85fb3c08ef5f	-0.20721378737823223
11	0x3feff3d2b69a86b0	0.9985135618664653
12	0xbfdb21d4c9aa7de8	-0.42393989271110266
13	0x400484fbbf382762	2.5649332942020218
14	0xbffca622c8d43262	-1.7905605168226875
15	0xc0056c83b65e5b22	-2.6779855964226877
16	0xbff257ea20d4e9ef	-1.1464635164726322
17	0xbff606c3dbb331df	-1.3766516286879023
18	0x400892e96700639b	3.0717342421525706
19	0x400f1cc58c0526c6	3.889048665911875
20	0xbfe4a3f7950dac21	-0.645015517349183
21	0x400478e0c759686b	2.5590224813614006
22	0x3fb20367318c9ee5	0.07036442718219467
23	0x3ff77700e2773434	1.4665535780252528
24	0xc00fa933a248e643	-3.9576180151459837
25	0xbfc5a4a03603a62c	-0.16908648145117533
26	0xbff8053ff19d4677	-1.5012816846905517
27	0xc00be79a689db4f8	-3.4880874798897104
28	0xc004b6f12513c7c8	-2.589327134767675
29	0x3fd24e23030860f0	0.2860190896622177
30	0xbfec59acd3663ce5	-0.8859466675657158
31	0x3ff5cf5dea62be09	1.3631266742412456
32	0xc001f21376e6b6dd	-2.243201188007204
33	0xbff45dc82d1e63d1	-1.272895981068576
34	0x4006f516181e18c1	2.8696710476097853
35	0xc009b57c5b867414	-3.213616099396413
36	0x40048ce5df508ecd	2.568797821660928
37	0x3fdaff081f017aca	0.42181590106876554
38	0x3ff11a1d9ee55a94	1.0688759047385803
39	0xc01273b5da718b3e	-4.612998402767344
40	0xbfec43ca201f7469	-0.8832750918769651
41	0x3feb0ed50d765e3f	0.8455605757653258
42	0xc00e7144959bd472	-3.805306595628786
43	0x4000fac961fdd0a9	2.1224544196685042
44	0xc0029b2e432fdf67	-2.3257718323692873
45	0x3fc84a4127adbe96	0.18976606786190037
46	0x40020d5d986a5413	2.2565261752556665
47	0x3fd6915f26d104e4	0.35262278357192955
48	0x3ff13825ba6df16f	1.0762078554535852
49	0xbff1d1d7c295ab11	-1.1137311554873046
50	0x3fb0aa63d36bc3bc	0.0650999442257349
51	0xbff2172ee2d097ae	-1.1306599483445825
52	0xbff305e8092d5b5d	-1.1889419897540485
53	0x40099d2a1174bdb2	3.2017403949500585
54	0x400b055c662658fa	3.3776176433995007
55	0xbfe478e2f234888a	-0.6397566538401105
56	0xc00058bcc63209f0	-2.0433288082142482
57	0x400bbf1089a4a3f0	3.4682932618493325
58	0xbff5a1cdb948155f	-1.3520028340875212
59	0x4004d131ff5f678d	2.6021461440076963
60	0xc006e524615d0ec2	-2.861885796215433
61	0x3fb64bcf0c53a724	0.08709425021120559
62	0xc00894805a384423	-3.0725104378148145
63	0x400263a0be3ddfa0	2.2986464369423203
64	0xc008b3a18a0dba51	-3.0877104554595367
65	0xbfd4e97d1bd14f65	-0.32675101963581304
66	0xbfccbe2237ab1d29	-0.2245524188822199
67	0x3fc0cf72958477ef	0.13133079815537438
68	0x3ffe504af10e3f6d	1.8946027199017081
69	0x401001ba12ee4542	4.001686378281478
70	0x3ff7863438714a73	1.4702646450793082
71	0xbff6fa44cb62ae47	-1.4361007637734404
72	0x3ffeba88f2e5a3f4	1.9205407608189917
73	0x3fcbd6828878ea2a	0.21748382247626924
74	0xc001a367492187a3	-2.2047868455274098
75	0xbfe06028134888b8	-0.5117378594043407
76	0xbfee5e9c038b8c2c	-0.9490490025749572
77	0x3ff5d77f2ae0a8bd	1.3651115107445968
78	0x3ffdac63a46a6074	1.854587213752919
79	0xbff2cfb959fa96b1	-1.1757138743209163
80	0x3fd29dc1dd77dade	0.29087874057533536
81	0x3feda1d48bd75123	0.9260046702643517
82	0xbfe3eb1a4d16ccd3	-0.6224490647931823
83	0x4002692265b624bc	2.3013351389132293
84	0xbfbc37597aa6dba8	-0.11021956676891753
85	0x3fdc13d0a7ba3891	0.438709415241541
86	0x3ff1861268710a0c	1.0952323989628239
87	0x3fc0bfeb98a5b1dc	0.13085694268683212
88	0xbfe4cd66733d0529	-0.650073266100809
89	0x40025b4aa00a50d6	2.294575929941952
90	0x3fc25d414c5165a8	0.1434709189077641
91	0x400b63ed5247a806	3.4237924984090595
92	0xbff1ee8a5f64171e	-1.120737431164748
93	0x3fe65fbf6d0591ad	0.6991879586535582
94	0xc00be5ea5b8a4157	-3.4872634078566693
95	0xbffa233c15e2905c	-1.6336022238620194
96	0xbfdb551a55ac7ce3	-0.4270692669542326
97	0xbfe01f5f6ac90b77	-0.5038296781207084
98	0xbff1bc50f16fe4cc	-1.1084756308685426
99	0x3fa3f3986b1a72b4	0.0389678602925633
100	0x3fdae9a4c35bc7cd	0.4205104739950201
101	0xbff802b3cfbec6c8	-1.5006597628638918
102	0xbff7d39e4a95ac7c	-1.4891646302665142
103	0x40019623376a92f8	2.1983093575857957
104	0xc0022ae15fced631	-2.2709376797672793
105	0x4002f67731675018	2.370344530072554
106	0xc016a905f3e23ed2	-5.665061770137713
107	0x3ff79403be3e3561	1.473636382233359
108	0x40010848b9fee50d	2.129044964877386
109	0x3ffefb5669195b7e	1.9363617043906909
110	0xbffd8fff011ed1be	-1.8476553004994538
111	0xbfd679cd377f1410	-0.35118418140001584
112	0x3ff8f1bf4e8d79a3	1.5590203350508112
113	0xbff7316ee2b31fbf	-1.4495686393220095
114	0x4003a9c734f56817	2.457899488200393
115	0xc00393c3e8919b3e	-2.4471510095058013
116	0xc01032e0e9707d4c	-4.049686095705805
117	0x400204a50cd1d2f0	2.2522679330380626
118	0xc0044874edd8cf90	-2.5353792745390322
119	0x401364eefff65ba6	4.848567962085246
120	0xbfcd855f646cfab9	-0.2306327095374934
121	0xc00d744ce631becd	-3.6817872985774103
122	0x3fe03ea459d44aab	0.5076467279889888
123	0xc011ea4f6e89181c	-4.478818633191647
124	0xbfe9187197f5806c	-0.7842338531445541
125	0xbfc31bbd1e11de12	-0.14928401916743944
126	0x3fc8225119931153	0.18854726551775033
127	0xbff5642d9c433e8b	-1.3369575599680583
128	0x4004ad341032c0ef	2.5845719590653213
129	0x3ffd7b9ba725093a	1.8426777390564681
130	0x3fe3a423fc360375	0.6137866903301147
131	0xbff9d2813c946418	-1.6138927809136074
132	0x3ff00916430c9bca	1.0022184962378895
133	0x3ff1b344ee0ab108	1.1062669085031889
134	0xbfd20e21c455e262	-0.28211254285228027
135	0xc008fb0b5c1e82b4	-3.12258026092635
136	0xbfffab55d721622a	-1.9793299106151019
137	0x3ffc77b6bac1e241	1.7792269988259621
138	0xbff2a0036eba890e	-1.164065773519329
139	0xbff2d5234a902803	-1.1770356094953065
140	0xbff8dfae99ea25de	-1.554609872082771
141	0xc01175b230adcad6	-4.3649375539850634
142	0x3fde2be79148285c	0.4714297217148038
143	0xbfe3f5662379d3eb	-0.6237059300316309
144	0xc00021d852dbac99	-2.0165258858956574
145	0x40018d4c33587831	2.1939929973005055
146	0xbffa6df9ded35c56	-1.6518496231199342
147	0x3fe46b03614c8668	0.6380631351823469
148	0xbff8634bed86264a	-1.5242423322946643
149	0x3ff8e9dc2cf4226c	1.5570947414400065
150	0xbfb9e82f3538762a	-0.10119910287218006
151	0xc00bbbc9e03dbc13	-3.4666936415519642
152	0xc006bc827921907c	-2.8420457328193702
153	0xc00924c57b1227b9	-3.1429547896304624
154	0x3fc4936f178683a4	0.1607493271704047
155	0x3ff96c010f682a07	1.588868198569459
156	0x3fe604674ae333c3	0.6880375349661495
157	0xbfe1a65d5dcc5c74	-0.5515581924436348
158	0xc00706da14c0e5a4	-2.8783456441276076
159	0xbfe952e402c390d5	-0.7913684896452887
160	0x4000eaaf630c22f6	2.114592336471442
161	0xbff00acb2020d3ea	-1.0026351218232272
162	0x3ffae0225d7bfa0d	1.6797202731828549
163	0x3ff35cb97310ad7d	1.2101377958996118
164	0x3fe61528297f2634	0.6900826273424117
165	0x3fc7cb7b5251f45d	0.18589726943528975
166	0x3ff83e9b9fe8e171	1.5152851339790596
167	0xc01502fae5412d1a	-5.2529102154760725
168	0xbfea2be486d76eb3	-0.8178579934714975
169	0x4001219bc908b534	2.141410418108217
170	0x400914948f335135	3.135048979524209
171	0x3fed785d122ac3a3	0.9209428171944761
172	0x3ffa02c4852df4cc	1.6256756975483766
173	0x3fec7d26c127b978	0.8902772686540592
174	0x40100868b1b26b93	4.0082118764065795
175	0xc01387f3361c8326	-4.8827637152578856
176	0xbffe76f5cff2cacc	-1.9040430186257025
177	0xbfb001772026ae9c	-0.0625223592275525
178	0xc0080d35b98b9eae	-3.0064501281484217
179	0xbfef994b8c5eb79c	-0.9874627820588446
180	0xbfdca4faeef7934c	-0.44756959282522213
181	0x40115cdc54b41e32	4.340684245580222
182	0x4001ce3fd435aaa0	2.2257076815488546
183	0x3ff77532d4a1e6a4	1.4661129289583323
184	0x4007899d54f1bfad	2.942194617869936
185	0x3fcc5ffd27659688	0.22167934821770907
186	0x40127f5a957cfa72	4.624368987801619
187	0xbff935ee2dffcc1a	-1.5756665989727083
188	0x3fe87a22393a70e2	0.7649088971843663
189	0xbfbb45def561dc73	-0.10653489580896451
190	0x4009dcad70861e81	3.2327526846818846
191	0x3ff2e86ac98c3d1f	1.1817424653016315
192	0x4000fd45dd4c02d0	2.123668412096187
193	0xc0040ea8e15307ad	-2.5071580508674374
194	0xbffc2b7e590e8c8e	-1.7606185416014202
195	0x3ff1f3309cfce299	1.1218725330674373
196	0xbff49aff6778dd63	-1.2878412286643985
197	0x3ff76b77159e556f	1.4637366146538076
198	0x3ffd41095a74d933	1.828378060670343
199	0x3fe29fdea79048b8	0.5820153496481657
200	0xbff0a5c41f99bd7b	-1.0404702410122286
201	0x3fdff4625f68d1a2	0.4992910320027254
202	0xbfd6655874a56a85	-0.34993564025140983
203	0x3fe5e6911702f4b6	0.6843953561252849
204	0xc002e399d3877846	-2.361133244106017
205	0xbfbcfb9fa9f9c11b	-0.1132144727687358
206	0x4008e3db15ff96fb	3.1112577170014197
207	0xbf85d5fa5b40f564	-0.010662036809771798
208	0xc008f76686a1467e	-3.1208010213820776
209	0xbfc3e6dbab8e9dee	-0.1554827296906604
210	0xbff87893a73e8f22	-1.5294376881583465
211	0x40149fd215e3cba8	5.156074850109611
212	0x40061410084d3104	2.759796204429337
213	0x3fd57412f80ae92e	0.3352096006671158
214	0xbfe70182f41e01c0	-0.7189345138468113
215	0x3feb7d1b4498742a	0.8590217914348888
216	0xbfe61a604f77d15b	-0.6907197525129435
217	0xc010a36d5abbab1a	-4.159596841530197
218	0x4010989ae6a1d21e	4.149028400065189
219	0x3ff3a2c507501f1a	1.2272386823332853
220	0x400c9f3219763884	3.5777322758868326
221	0xbffc67f695c222ee	-1.7753816461501475
222	0xbfebca03ec466146	-0.8684100737328115
223	0xbff43fb2cac630d5	-1.2655513687960156
224	0xbfc01af2f5835aad	-0.12582242000526858
225	0xbfcb0aee5258e0b2	-0.21127108593805627
226	0xbffd3562ef8ab8f8	-1.8255338055710677
227	0x3fce3081da4e91a0	0.23585532340542859
228	0x3fe316f66253ce49	0.59655303196491
229	0xbff45d880dc05c11	-1.2728348290600062
230	0xc0178354fbcc1c80	-5.878253874142615
231	0xbff7eef0ebedf006	-1.4958352294916053
232	0xbffe962f0dbcc4f7	-1.9116659676186012
233	0x3fe30ff6aa70e784	0.5956986740995807
234	0x3ffd3e3d5aaba2ad	1.8276952306570522
235	0x4006ba7436a6b06d	2.8410419721240516
236	0xbff160ad6f816f07	-1.0861029010474696
237	0x4004a1b7b4d8c50f	2.5789636734631425
238	0xc0027e01bbe76df1	-2.311526744842688
239	0xbfedcd3441f36f8e	-0.9312993324378895
240	0xc009366bf3975831	-3.1515730886995006
241	0xbfb8264a37f9390e	-0.09433425776044066
242	0xbfe03a50361bb4d7	-0.5071183258820849
243	0xbff364aeed2c0642	-1.2120808853654954
244	0x400c56829b278ec3	3.5422412988135377
245	0xbff5fd5da73a5512	-1.3743568928087524
246	0xc00ecbfdc46376cb	-3.849605116162683
247	0xbfe0603adab3bc36	-0.511746813919564
248	0x400e04a0608e6f47	3.752259020182382
249	0xbfec38f5751f3c58	-0.881952980760512
250	0xbffc12157c83ec07	-1.754415022266359
251	0xbfd6f7626a986495	-0.358849147889097
252	0x3ffdec1ed2af2bad	1.8701465825895227
253	0xbff6eb29fd88703d	-1.4324130920058586
254	0x3fedeb0e5967c103	0.9349433656880425
255	0xbffb4ea1129eff5a	-1.7066965796838844

transformer_encoder.layers.0.self_attn.klinear.bias f8 [32]
0	0x3ff8700ad4be90a1	1.5273540792777924
1	0xbfe8d21f0423cda8	-0.7756495552879885
2	0x4001ba7e8b1174a0	2.216061674566461
3	0x40001a2fb28d4b81	2.0127862882013123
4	0xbff8d12a889e9ef5	-1.551065953894008
5	0xc008c05bdfa69161	-3.0939252350528226
6	0x3fc2f2b7e5e7c277	0.1480321762642409
7	0x3fdef0d35064ae8c	0.48344881869227474
8	0xbffd1da93ff8c52b	-1.8197414873978441
9	0x3fe09cd1ad8a1fc7	0.5191429509586606
10	0x3ff9623d17f7d978	1.5864840446716624
11	0x3fbdccd2f40abd3f	0.11640661676459717
12	0x3fe09bf51b038a24	0.5190377738584329
13	0x3ff1a9b3937bfbef	1.103931022749517
14	0xbff3db0414033978	-1.240970686124994
15	0x4014e4a3fb57c820	5.223281790955326
16	0xbff12d7a56041ffd	-1.0736029968265932
17	0xbff1d5a864e5ef2e	-1.1146625462851705
18	0xbfe4378281d0690a	-0.6317760978156752
19	0x4013aa7e1173f4ca	4.916496536924749
20	0x40005251e80ad630	2.040195286589345
21	0x3feb6a989924df5c	0.8567622176260374
22	0xbfc634bd573650c4	-0.1734844852295564
23	0xbfd2739c9a6f0fb3	-0.2883063800948051
24	0xbff27271106c57f6	-1.1529398576290055
25	0xc003683cdcc72933	-2.425897335842046
26	0xc0027a9ebc835cf1	-2.3098730781163046
27	0xbfecae43f6b27ca3	-0.8962726419739692
28	0xbffeb90dadbf05fe	-1.9201790606460913
29	0xc007744d975e9691	-2.931788618635274
30	0xc0049abc4692b13d	-2.5755544198529194
31	0x3fd6e88317c0f6a0	0.3579414112062782
